Project specific/results/JumperAgent/JumperAgent/JumperAgent-46206.onnx (onnx, 127520 bytes, 8 tensors)

network_body._body_endoder.seq_layers.0.weight f4 [128, 109]
000000 ab 27 83 bd b1 5a 90 bc 2a c2 a1 bd d9 43 49 bd
       -0.064040504 -0.01762137 -0.07898362 -0.04913697
000010 11 89 e7 bc aa 2e 58 3d 7f 79 f4 3c f5 a9 0a bd
       -0.0282636 0.052778877 0.02984309 -0.03385349
000020 40 19 c7 bd 5f a8 89 bb 12 f3 e1 bd a5 25 80 3e
       -0.09721613 -0.0042009796 -0.1103269 0.2502872
000030 f7 81 00 3d dd 21 43 be dd 5a 8a be 7a ad 9b bd
       0.031373944 -0.19055887 -0.27022448 -0.076014474
000040 77 07 6b be f2 c2 fd 3d 1b 20 5b be 89 ee 22 3d
       -0.22952066 0.123906985 -0.21398966 0.039778266
000050 4d cd 58 bd 17 99 aa 3d f1 82 6a be 31 b4 8b 3d
       -0.052930165 0.08329981 -0.22901513 0.06821478
000060 52 b4 92 3d 40 e8 87 bd 14 58 10 3a e2 d7 d6 3d
       0.071632996 -0.06636095 0.0005506289 0.10490395
000070 f9 f1 17 bd 00 a0 77 3d 8a c5 e0 bd 53 97 6e 3e
       -0.037095997 0.060455322 -0.109751776 0.23299913
000080 8e 6d 1e bd 6a 31 d2 3d f0 87 5c 3e 19 25 cd bc
       -0.0386787 0.10263331 0.21536231 -0.025042104
000090 88 7a c4 bc 7b 22 86 bd 5a 3d 9d bd 03 45 a7 bc
       -0.023984209 -0.065495454 -0.076777175 -0.02041865
0000a0 78 6a d4 ba 50 6e 80 3d d4 e0 1f be 5c 36 96 bd
       -0.0016206047 0.062710404 -0.15613109 -0.07334587
0000b0 12 67 1d 3d 1c fc 93 bd 48 7e 83 3d ed 6b 1f bd
       0.038428374 -0.072258204 0.064205706 -0.038921285
0000c0 0d 67 2f be e6 81 03 bd a5 d8 f0 3c 96 71 90 3c
       -0.17129155 -0.032106303 0.02940018 0.017632287
0000d0 ff 79 26 bc 20 c1 23 3d 6e d8 1f 3c c5 3c be 3c
       -0.010160922 0.0399791 0.009756191 0.023222337
0000e0 4c 44 89 3b 89 06 ba bc 6b 2e 71 3d b1 f1 6e 3d
       0.00418905 -0.022708194 0.05888216 0.058335964
0000f0 76 f4 27 bb 2b 3b 5b be a0 8e 0f 3c 29 c0 5e be
       -0.0025627888 -0.2140929 0.008762032 -0.21752991
000100 e8 08 b5 bd 10 ee 88 3c 6b 8c f5 3d a5 c1 e6 bd
       -0.08839589 0.01671508 0.11989673 -0.112674035
000110 2f 98 e2 3c 6e 8b ee bd 5e 1f 5b 3d 9d 23 ec bd
       0.027660457 -0.11647688 0.05349671 -0.1153023
000120 ef 9b 75 be cc a5 c7 bc fb 56 a9 bd 71 d7 f0 bd
       -0.23985265 -0.02437105 -0.08268543 -0.11759842
000130 ea fb a0 bc 4a 82 a6 3d 8f 48 16 3e 7a 83 12 3e
       -0.019651372 0.081303194 0.14676116 0.14307967
000140 1d 8b b8 3c bb 67 cd bd 9e 16 6b bd de 4d 4c 3d
       0.022527272 -0.10029551 -0.057394616 0.049878947
000150 86 cf 0b be 25 59 00 be e1 25 15 be 74 b8 0b 3c
       -0.13653383 -0.12534006 -0.14565231 0.008527864
000160 0a 66 88 3c 4f 2d 22 3d c1 ac 35 be 8c ec f0 bb
       0.016650219 0.03959399 -0.17741682 -0.0073524173
000170 1f 02 59 bd 6d 08 89 bd ea a0 a5 bb 36 72 3c 3c
       -0.05298054 -0.0669106 -0.005054583 0.011501839
000180 b3 8d 18 3d fd b1 00 3d 98 74 ba 3c b2 ab a3 bb
       0.03724451 0.031419743 0.022760674 -0.004994833
000190 df 93 ab 3d 60 7d 42 be fe ba 76 bd 14 d1 84 3d
       0.083778135 -0.1899314 -0.060236923 0.06485191
0001a0 9c 52 2b 3e 73 a0 05 3e 07 5d 29 3d 3d 9f 86 3d
       0.16730732 0.13049488 0.041348483 0.06573341
0001b0 46 e2 20 3d a9 5f a3 3d 0b 00 25 be d3 4c ee bd
       0.03927829 0.0797723 -0.16113298 -0.11635747
0001c0 0a 8f 41 3d e3 61 7f bd 63 5f 41 3e 47 a3 0e be
       0.047255553 -0.06234921 0.18884043 -0.13929473
0001d0 80 31 0e bd 9b 8c bf bd 52 89 0f 3e c0 74 e1 bd
       -0.034715176 -0.0935299 0.14017227 -0.110085964
0001e0 e8 50 b1 bc b1 fe 47 ba 47 8c 8a 3b e7 ee 11 3e
       -0.021645024 -0.00076291995 0.004228148 0.1425129
0001f0 4a 9b e3 bd e2 6c 1f be a2 45 bd ba af c8 87 bd
       -0.111136034 -0.15568879 -0.0014440308 -0.06630074
000200 36 7b 8c bd f7 7d 2c be a8 3d ef bc 5a e6 b4 bd
       -0.06859438 -0.16844927 -0.029204205 -0.088329986
000210 cb 13 e2 bd 8a 51 9f bd 25 32 bf 3d 17 24 19 be
       -0.110389315 -0.07779224 0.09335736 -0.14955173
000220 95 6b 1a 3d 20 99 4a bc 0a 1f 26 3d 30 85 f4 3d
       0.037700254 -0.012365609 0.040556945 0.11939466
000230 d2 b8 e4 bd cc 5d ab 3d 03 05 90 3d 7e 85 cf bd
       -0.11168064 0.083675 0.07032206 -0.101328835
000240 ba 86 12 bd 69 7f 4a be bc b4 94 bd 1e 48 ee bb
       -0.035773017 -0.19775166 -0.07261035 -0.0072717806
000250 9c 44 38 3d 6a af 09 3d ca 5e 00 be f5 59 88 bd
       0.044987306 0.033614554 -0.12536159 -0.06657783
000260 ca da 0b be 12 30 75 3c fe c8 a2 bd 87 25 72 3d
       -0.1365768 0.014965074 -0.079484925 0.05911782
000270 16 0a b5 3c af 87 41 be 74 fd 31 bd 97 4c 07 ba
       0.022099536 -0.18899415 -0.043454602 -0.0005161254
000280 5d 95 35 be 76 52 18 3e c4 9c a8 bb 33 c5 fe bd
       -0.17732759 0.14875206 -0.005145641 -0.124399565
000290 71 e1 1a bd 07 bd ca 3d de 00 08 be 2b cf 32 3c
       -0.037812654 0.09899335 -0.13281581 0.0109136505
0002a0 7e d9 64 be a6 14 20 be 90 70 10 be ce 44 3d bd
       -0.22348592 -0.15632877 -0.14105439 -0.046208195
0002b0 cc 40 18 be 9e 96 00 3c ef 50 9a bd 17 3c 4b 3e
       -0.14868468 0.00784841 -0.07534968 0.19847141
0002c0 98 95 c9 3d 97 93 8a be f6 43 ac 3c 56 6b bf 3c
       0.09842986 -0.27065727 0.0210285 0.023366611
0002d0 d3 67 4b be 87 5e df 3c 43 bc 33 3d ba f7 a2 3d
       -0.19863825 0.027266754 0.043880712 0.07957406
0002e0 aa 6d b5 bd 8f 81 de bc bc f1 1c 3d 23 39 d5 3d
       -0.088588074 -0.027161388 0.038316473 0.104112886
0002f0 ed 5f ba bc 70 47 18 be 31 79 0a 3d f6 56 cd 3c
       -0.02275082 -0.14871001 0.033806983 0.02506588
000300 71 b3 47 bd 6f ef 00 bd 5d 5d 2f bc 33 aa c3 3c
       -0.048755113 -0.03147834 -0.010703412 0.023884868
000310 e6 34 37 3d 0b bb 04 3d d4 a8 81 bd ac 90 91 3e
       0.044728182 0.03240494 -0.063310295 0.28430688
000320 31 28 b1 3d b1 a5 45 3c 52 3c d0 3c c7 f2 4b be
       0.08650244 0.01206343 0.025419388 -0.19916831
000330 15 c6 64 ba 99 a8 23 bd bf f0 a5 3e 06 24 25 bd
       -0.0008727026 -0.03995571 0.32410237 -0.040317558
000340 ca 60 95 3d dd 66 bb bc 11 5e b9 3c 67 67 68 3d
       0.07293852 -0.022876197 0.022627862 0.056739237
000350 a8 65 4e ba ab 5b 16 3c 3a 36 56 3d cb 54 95 3c
       -0.00078734243 0.009177129 0.05229781 0.018228909
000360 58 06 cb bd a7 f8 a0 3d 73 f6 28 3d 8c 82 72 3d
       -0.09913319 0.07859927 0.041250657 0.05920653
000370 d5 4a 49 3d 44 5e 1a 38 e6 67 91 3d d7 f5 88 3d
       0.04914363 3.6804253e-05 0.07099895 0.06687515
000380 f0 37 a5 3d da c4 93 3d e2 40 86 bd ef 1f aa 3d
       0.0806731 0.07215281 -0.06555344 0.08306872
000390 00 30 5e bc 4c 3d de bc b6 6d 10 3e 92 dc 98 bd
       -0.013561249 -0.027128838 0.14104351 -0.074639454
0003a0 7c bb 48 bd 1f e9 30 3c 6e 6a 26 3e 8e 95 cc 3c
       -0.049006924 0.010797768 0.16251537 0.024973657
0003b0 ce 2b 92 3e c3 06 cb 3d 7d cf c4 bc 15 25 b5 3b
       0.28549045 0.09913399 -0.02402472 0.005528102
0003c0 ac 84 04 3d 5c 69 9b 3d 3a 69 e6 bd 54 06 95 bc
       0.03235309 0.07588455 -0.11250539 -0.018191494
0003d0 00 2f 17 bd 05 1a f6 3d d0 e0 f6 3d 37 95 90 3d
       -0.036910057 0.120166816 0.12054598 0.070597105
0003e0 c7 da fa bb d8 66 59 be d1 c0 9a bd 3f 86 71 bd
       -0.007655475 -0.21230638 -0.07556308 -0.058965918
0003f0 1e 62 5e 3d ea 63 a9 3d 5c b3 01 be de dd 89 bd
       0.05429279 0.0827101 -0.12666076 -0.06731771

network_body._body_endoder.seq_layers.0.bias f4 [128]
000000 9b 09 31 bd e9 a7 91 bc 6c 3b 86 ba 39 78 18 3b
       -0.04322205 -0.017780261 -0.0010241098 0.0023265018
000010 e3 4c 49 bc b4 04 02 bd 35 09 dc bc 92 f0 00 3d
       -0.012286398 -0.031742766 -0.026859859 0.031479426
000020 f6 b2 ed 3a b3 1a 13 bd fa 65 65 bd b8 09 77 bb
       0.0018135 -0.035914134 -0.056005456 -0.0037695002
000030 79 3c d7 bb 2a 8c 49 bc 20 c5 b4 bc 2c 34 ae bb
       -0.006568488 -0.012301484 -0.022066653 -0.005316278
000040 43 1f c4 3c 20 a8 a0 bc 03 88 59 3b 3e 41 28 bd
       0.023940688 -0.019611418 0.0033192642 -0.041077845
000050 05 9c 07 bb fb 9c 0d bd c5 a9 a1 3c 30 94 ba 3b
       -0.002069236 -0.034573536 0.019734273 0.005693935
000060 4f 07 66 3d 99 b8 e5 bc 01 53 96 3c 10 c7 6f 3b
       0.056159314 -0.028042125 0.018350126 0.0036587156
000070 65 b1 06 bd 1e e3 40 3c 6a b9 e4 bc b1 cb 2e 3b
       -0.03288402 0.011772899 -0.027920444 0.0026671703
000080 5e 87 5b bc eb 49 88 ba e7 bd e9 3c 0e 3b 01 3c
       -0.013398973 -0.0010398006 0.028532935 0.007887615
000090 5c da 96 3c de 1a 12 3c 99 af 93 bc b8 8c 87 bc
       0.018414669 0.008917538 -0.018028067 -0.016546592
0000a0 5d 88 04 bc 9f 12 01 bd c4 58 fe bc 9b fc 45 bc
       -0.008089152 -0.0315119 -0.031048186 -0.012084152
0000b0 ba b8 16 3c c1 2c 34 bc 45 c0 e1 bc b2 69 92 ba
       0.009199316 -0.010996998 -0.027557502 -0.0011170416
0000c0 9f ca 00 bc 56 9c db 3c 1d 57 c3 ba c8 1b 7e 3c
       -0.007860809 0.026807945 -0.0014903281 0.015509553
0000d0 ff 34 a2 3b 12 62 d9 3a fb 92 0b 3c 00 6c 85 bc
       0.0049501653 0.0016585013 0.00851893 -0.01628685
0000e0 c0 8d 4a 3c a6 5f 56 bc ce e4 56 bc 4b dd da 3b
       0.012362897 -0.013084328 -0.013116075 0.006679212
0000f0 2f 5f f7 bb 7c 01 0a bd fe 89 81 bb e4 29 0b bc
       -0.0075491886 -0.03369282 -0.0039532175 -0.008493874
000100 da df cd 3b 2a 66 65 bc 3b d1 5e 3c cc 3c 01 bc
       0.0062827887 -0.014001409 0.013599689 -0.00788803
000110 c0 dc 0b 3c 1b fb 98 3c e6 b3 dc 3c 47 56 d1 3c
       0.008536518 0.018674424 0.026941251 0.025553836
000120 d0 bd 05 bc 55 50 42 3c 83 b2 84 bc 55 16 50 bd
       -0.008162931 0.011859973 -0.016198402 -0.050802547
000130 c9 c4 9e bb 6f b7 f5 3c c7 cb 20 bc ce 24 4a bb
       -0.004845236 0.029994695 -0.009814209 -0.0030844691
000140 c4 2f cb 3b ad 60 4a bd 35 29 4f bc 69 fa 1a bc
       0.0062007625 -0.049408603 -0.012644102 -0.0094591165
000150 d8 51 ee bb 6d 01 28 3c 1f 16 bd 3b f1 d3 1d 3d
       -0.00727294 0.010254246 0.0057704593 0.0385322
000160 fb c0 45 3d 5d 76 b0 bc 14 fc f4 bc b2 a7 b8 bc
       0.048279744 -0.021540815 -0.029905356 -0.0225409
000170 3b 61 52 bc 4b b8 92 bc 9a 16 a4 bc 8b 3d 50 3c
       -0.012840564 -0.017910143 -0.020030309 0.0127099855
000180 ca 09 78 bc 92 c8 1b 3c 75 74 0f bc 94 d0 33 bd
       -0.015139053 0.009508269 -0.008755793 -0.043900087
000190 8c 9f 2f 3c 7d ac 08 3d 01 03 b9 bc a7 ca 1e 3c
       0.010719191 0.033367623 -0.02258444 0.009691871
0001a0 e7 52 1c bc 42 d4 0b bc 58 5f 08 3c ab 35 0e bd
       -0.00954125 -0.008534493 0.008323513 -0.03471915
0001b0 6a 4a 38 3c 9a 03 0d 3b 0d 92 0d 3d f1 7d b7 3c
       0.01124821 0.002151704 0.034563113 0.02239892
0001c0 d6 1a 4a 3c 9e c0 e1 bb 29 cd 67 ba 68 7c 21 bd
       0.0123355 -0.006889417 -0.0008842522 -0.039425284
0001d0 db d6 74 bc 24 34 16 bd 22 e7 18 bc 97 c5 97 bc
       -0.014943804 -0.03667082 -0.00933245 -0.018526835
0001e0 d5 82 d8 bc ae ce 04 3d d8 e0 21 bd f0 b5 5c bc
       -0.026429573 0.032423668 -0.03952107 -0.013471112
0001f0 f5 63 b6 3b c4 80 28 3c ca b6 d5 bc da 3b f1 3b
       0.005566115 0.010284606 -0.026088137 0.007361871

network_body._body_endoder.seq_layers.2.weight f4 [128, 128]
000000 08 47 78 3d 63 4e 6a bd 0e 0d bf 3d 10 98 5a 3d
       0.060614616 -0.05720366 0.09328662 0.053367674
000010 2f 6b 87 bd fe 9b ae bd ba a7 7e 3c 05 b4 8f 3c
       -0.066122405 -0.08525847 0.015542919 0.017541895
000020 d6 ed 75 39 ad 39 09 3d f7 88 d8 bd a2 46 c1 3d
       0.00023453622 0.03350227 -0.10572999 0.094373
000030 7d bb 0e be 7f 2a b6 3d 60 4c 6d be 7e 75 32 3d
       -0.13938709 0.08894824 -0.23173666 0.04356908
000040 04 81 a1 bd 13 fb a9 bc 0b af a3 3d 43 d4 1b bd
       -0.07885936 -0.020749604 0.07992371 -0.038044225
000050 7d 16 b7 3d f6 29 fc 3d bb df 7f bc eb d4 17 3d
       0.08939836 0.12312691 -0.015617306 0.03706829
000060 55 2f 94 bc 41 ce 95 3d 4f 43 53 3c 58 01 02 be
       -0.018088976 0.073147304 0.012894466 -0.12695825
000070 09 f1 eb 3d ca 0d 07 3e 09 df d8 bd f0 bd 86 3d
       0.11520583 0.13188854 -0.105894156 0.065791965
000080 fb 50 43 3d 01 fd d5 3d ca 30 3d be d8 86 a3 bd
       0.04768465 0.10448647 -0.18475643 -0.07984704
000090 42 eb fd 3d c7 c9 75 bd 28 18 75 bb 43 c6 15 bd
       0.123983875 -0.060006883 -0.0037398431 -0.03656603
0000a0 94 23 e9 3d 69 60 75 3c c2 88 47 bd 19 60 88 bd
       0.11383739 0.014976599 -0.048714407 -0.06658954
0000b0 bc b3 8c bd 49 19 a6 bd f6 f3 61 be 9b d9 60 bd
       -0.06870219 -0.081102915 -0.2206572 -0.054895025
0000c0 4e 22 42 3b 5e e0 9a 3c eb b3 35 3e c2 0f 1a 3d
       0.0029622498 0.018905815 0.17744415 0.037612684
0000d0 ec 9e 4c 3d 26 6e 2f 3d 22 a9 0d be c3 8b 25 be
       0.049956247 0.042829655 -0.1383405 -0.16166596
0000e0 de 4d ae 3c 98 c1 43 bd 5a 59 08 be 4b e1 5c 3c
       0.021277364 -0.047792047 -0.13315335 0.013481448
0000f0 5f 5e b5 bc ae ba 94 b9 31 e0 e7 bc c5 04 ba 3c
       -0.022139726 -0.00028367847 -0.028305145 0.022707352
000100 2c 14 46 3d 5f d7 0d 3e c7 75 ed bb 6f 1d 04 3e
       0.04835908 0.13851689 -0.007246706 0.12901853
000110 8f 4d 2f be 71 b3 c4 3c 65 e6 f7 3d f5 d4 08 3e
       -0.1711943 0.024011346 0.12104491 0.13362487
000120 fa 83 6e 3c 00 71 cd bd 86 d4 b0 bb d3 ff 43 bd
       0.014557833 -0.10031319 -0.0053964285 -0.047851395
000130 2f c5 c1 bc 0e 3f 86 3d ed f2 73 3d 11 30 a1 3c
       -0.023653595 0.065549955 0.059557844 0.01967624
000140 bb 29 5e bd 64 6b e0 3d b9 00 8e bd 6c 08 cd bd
       -0.054239016 0.10957983 -0.069337316 -0.10011372
000150 59 0c a9 3d 2c 05 d7 3d b2 74 5b bd b2 30 ff 3d
       0.08254308 0.10499033 -0.053578086 0.1246046
000160 b2 5a 7c 3d f4 e1 c5 bd 30 71 80 bd 60 5b 54 3d
       0.06160993 -0.09662238 -0.06271589 0.051844954
000170 c7 5e 20 3d 92 7b 99 3d 15 b4 1e 3d a5 49 5d be
       0.039152887 0.07494272 0.03874596 -0.21610124
000180 03 25 91 bd 86 17 e8 bd a2 9c 02 be c8 88 8b 3d
       -0.070871376 -0.11332612 -0.12755063 0.06813198
000190 cf 12 90 bd b5 45 57 bd 5e 22 d6 3d 7c 62 ba 3d
       -0.070348375 -0.052556712 0.10455774 0.09100816
0001a0 5d 49 12 be 5d 0e 8a bc 43 a2 84 3c f8 02 31 3e
       -0.14285798 -0.016852552 0.016190654 0.17286289
0001b0 49 f0 25 bb 5c f0 be ba 2c db 02 bd da 07 bf 3d
       -0.0025320223 -0.0014567482 -0.0319473 0.093276694
0001c0 54 a1 a9 bd d1 de 05 be c1 ca 44 3d 14 0a 10 bd
       -0.08282724 -0.13073279 0.048044924 -0.03516586
0001d0 06 33 90 bd 93 eb 97 bd af 58 a5 bd ee 04 5f bd
       -0.07040982 -0.07417979 -0.08073556 -0.05444806
0001e0 7c a4 16 be 70 b5 cc 3d 4e 96 33 3e 68 ef 72 3d
       -0.14711183 0.09995544 0.17537805 0.059310347
0001f0 b6 a6 aa 3d 37 57 3e 3c b2 92 15 be f2 4e bf bd
       0.08332579 0.011617473 -0.14606741 -0.093412295
000200 47 9c dd 3d 40 db f5 3b 22 6f 03 be 17 2b 42 bd
       0.10820823 0.0075029433 -0.12835363 -0.047404375
000210 bc 17 ad bd 75 b6 60 3d 29 66 5d bd 2d 2e 5e bd
       -0.084517926 0.054861505 -0.054052506 -0.054243255
000220 7c 2b 41 bc 39 d4 af bd 12 35 2e bd 6c 3c a6 bd
       -0.011790153 -0.085854 -0.04253108 -0.08116993
000230 31 71 79 3d 9c 21 03 3e 0b 1c d4 bd bd 49 7f 3c
       0.060898963 0.1280579 -0.10356911 0.015581545
000240 12 a8 04 3e 2b 0f c2 3c 5a 87 09 be e8 c2 2f 3a
       0.12954739 0.023688873 -0.13430539 0.00067047635
000250 6a 02 82 3d eb e4 f6 3d 77 d6 73 bd 78 24 a4 bb
       0.06348117 0.120553814 -0.0595307 -0.00500923
000260 ea 30 2f 3e 91 32 41 bd 4c 82 27 bd 4d 9e 06 be
       0.17108503 -0.047167365 -0.040895745 -0.13146324
000270 09 3b 0a be 1e a5 0d 3e 34 0e 7c bc 51 2f 9b 3d
       -0.13499083 0.13832518 -0.015384246 0.07577384
000280 7d d0 17 bd 19 e5 f0 3d de f5 84 3e 19 c0 32 3d
       -0.037064064 0.11762447 0.25968832 0.04364023
000290 fd f1 4d 3d 13 16 3a 3d a0 06 64 3d 9b 12 bc 3d
       0.050279606 0.045431208 0.05567038 0.09183236
0002a0 3b fb d4 bd c5 9a 8b 3d 67 c3 01 3e aa 9b 53 be
       -0.10399481 0.06816629 0.12672196 -0.2066485
0002b0 9a e6 3d 3d 8d 37 d2 bd d6 b4 59 3b 1b 35 ca bd
       0.046362497 -0.10264502 0.003321936 -0.0987341
0002c0 91 1f 89 bd 8d 8b 21 3e a1 b4 10 3e 11 dd 7f bc
       -0.06695474 0.1577589 0.14131404 -0.015616671
0002d0 82 78 7f 3d 33 c6 cd 3c 13 bf ef bd 1b 98 d0 3c
       0.062370785 0.025118923 -0.117063664 0.025463155
0002e0 1e 14 f5 3c 2b b3 76 3d c2 5e a2 3c 3e 05 91 bd
       0.02991682 0.06022946 0.019820575 -0.07081078
0002f0 1a 4d c5 3d ca ce 6d 3d 0a 7e 44 3e aa 9e 34 be
       0.096338466 0.058058538 0.19188705 -0.1763865
000300 09 53 5b bb 14 5a 27 bd 2b 4e fb 3d 2a 03 08 3e
       -0.003346624 -0.04085739 0.12270769 0.13282457
000310 52 c8 e1 ba fd dd 8d 3d 6d 16 94 3d ee 70 39 3d
       -0.0017225838 0.069271065 0.0723084 0.045273714
000320 be cc d6 bd 43 58 18 3e b1 59 1a be 05 88 25 3e
       -0.1048827 0.14877419 -0.15073277 0.16165169
000330 be 8f d0 bd fc 0f 14 be ce ad cc bd 8a ff a5 bd
       -0.10183667 -0.14459223 -0.09994088 -0.08105381
000340 3f f9 46 3e 42 26 11 3e 0e 4a 9a 3d 2c 1b 2c 3e
       0.19431017 0.1417475 0.07533656 0.1680724
000350 53 5d 7a bd a6 33 98 3d 14 06 cc 3d a2 fe 67 3d
       -0.061124157 0.07431726 0.09962097 0.05663932
000360 5e e1 e8 3d 3a f0 2b bd e3 c0 4f bc c7 ee 62 be
       0.113711104 -0.041977145 -0.012680265 -0.22161399
000370 c6 b4 3e bd da 80 40 3c db ea 3a 3d 2e ab 74 3e
       -0.046559118 0.011749471 0.045634132 0.23893425
000380 b4 70 40 be 42 ac 0c bc 07 78 25 bd ad 87 33 bd
       -0.18792993 -0.008585991 -0.04039767 -0.043830562
000390 1e 74 2c 3e 88 2e df bc ff 37 ac 3d 10 11 5b bc
       0.1684117 -0.027243868 0.08409118 -0.013370767
0003a0 7e 9a a3 3c 4b ba 84 3e 93 02 7b bb 27 51 10 be
       0.019971129 0.2592338 -0.0038301095 -0.14093457
0003b0 4a 29 1f be 14 a6 31 3e ee 1e 57 be 91 94 81 bc
       -0.15543094 0.1734851 -0.21007892 -0.015817912
0003c0 14 3a d5 bd 41 bb 10 bb 8c 48 ae bd 9c c0 ca bd
       -0.10411468 -0.0022084268 -0.08509931 -0.099000186
0003d0 44 73 93 3b 26 73 87 bc 73 2a 35 3d 6d 65 80 bd
       0.0044998247 -0.0165344 0.044229936 -0.062693454
0003e0 dc 6a a8 bd fb ec 3f be 55 db d3 3d 2c e2 3d 3d
       -0.08223507 -0.18742745 0.10344569 0.046358272
0003f0 2a 14 04 be 33 60 b1 3c fc 99 e8 bc 85 09 b4 bb
       -0.12898317 0.021652317 -0.028393738 -0.005494299

network_body._body_endoder.seq_layers.2.bias f4 [128]
000000 d0 c2 cd bc 0f d7 4e 3c d6 b8 94 3c d9 1e 8f bd
       -0.025117308 0.012624516 0.018154543 -0.069883056
000010 df 15 2f bc 79 9e 79 bc df 25 a2 3c e7 ed 06 3b
       -0.010686367 -0.015235537 0.019793449 0.0020588578
000020 1d a3 d3 3b b0 c3 d3 bc 1d 71 d2 bc 12 cf 30 bb
       0.0064586536 -0.025850147 -0.025688702 -0.0026978892
000030 78 78 c1 3a 23 38 28 3c 0d 14 13 bd 34 4d 55 3b
       0.0014760634 0.01026729 -0.035907794 0.0032547237
000040 63 67 6e 3b 91 e3 99 bc a0 b7 00 bd 90 17 c6 ba
       0.0036377541 -0.01878527 -0.03142512 -0.0015113223
000050 55 f7 07 3c db 8d 8c bc 13 00 47 3c dc e0 b0 3c
       0.008298715 -0.017157486 0.012146014 0.021591596
000060 e9 79 95 3c 38 35 7c bc 73 03 1c bc 47 f7 f3 3b
       0.018246608 -0.015393548 -0.009522307 0.0074452492
000070 a9 9c 0e bd cc 56 a3 bc ef 5f 06 bb 60 ad c2 bc
       -0.03481737 -0.019938849 -0.0020503958 -0.023764312
000080 8e d0 da bc bc bc 86 3b ea cd ed 3b fb f3 1e 3b
       -0.026710775 0.0041118544 0.007257213 0.002425431
000090 38 6f 9a bb 7f ba 08 bd 3c e2 a7 3a 4c a4 d4 3c
       -0.0047129653 -0.03338098 0.0012808512 0.02595725
0000a0 96 15 94 3b 3c 6a d9 3c df 5b a9 bc c6 52 e9 bc
       0.004519175 0.026539914 -0.02067369 -0.028481852
0000b0 7c 31 69 bc 5c 9f 67 3c d9 84 5f bb 73 7d d8 bc
       -0.014232989 0.014137115 -0.0034106283 -0.026427006
0000c0 19 5d bd 3b 1c 65 95 3b 36 5d 0b bd 13 27 9a 3b
       0.0057789204 0.0045591723 -0.03402444 0.004704365
0000d0 47 23 d6 3b 8d 38 12 3b 75 7e 15 bc 94 65 2c 3b
       0.006534967 0.002231154 -0.009124388 0.0026305662
0000e0 d9 94 97 bc 47 39 63 bc f3 51 27 3c d7 14 ff bc
       -0.018503593 -0.013868636 0.010212409 -0.031137867
0000f0 d5 61 65 3b 43 a6 f4 3c 46 33 dc bc 49 57 cc bc
       0.003500094 0.029864436 -0.026879918 -0.024943965
000100 07 2e e9 3a 03 eb 86 3b 12 0d a3 3a 35 d6 08 3c
       0.0017790206 0.004117371 0.0012439808 0.008351852
000110 cc 53 fb bc 11 08 88 bc ca 90 b1 bb e9 63 60 bc
       -0.030679606 -0.016605409 -0.0054188715 -0.013695695
000120 7d 09 6a bc a7 4f 1f bc 60 b7 d5 bc 25 af a5 bc
       -0.014284489 -0.00972358 -0.026088417 -0.020225117
000130 c9 75 b5 bc 27 27 87 ba f1 7c 86 bb 88 46 a9 3c
       -0.02215089 -0.0010311351 -0.0041042496 0.020663515
000140 6b 91 9d 3b 32 b0 61 3c 09 e7 64 3a d0 89 d3 ba
       0.004808595 0.013774918 0.00087319367 -0.0016139094
000150 3b ff b1 bc 1c 3f 73 3c 93 a6 96 3c 8c 2b 60 bc
       -0.021728149 0.014846589 0.018389976 -0.013682257
000160 a9 1f a6 3c 7e 8f 93 bc ab 0b 3e bc ea 7a 1c bc
       0.020278769 -0.018012758 -0.011599462 -0.009550789
000170 b4 e8 7b 3c 85 55 be 3c a7 7d 0f 3c 4c b9 55 3c
       0.015375305 0.023234138 0.008757985 0.0130446665
000180 ab 13 25 bb 09 72 55 bc 3f d7 80 3c 5d f1 b1 bb
       -0.0025188725 -0.013027676 0.015727637 -0.005430384
000190 3f ec fd bc 85 6c 10 3c 6b 8e b5 bc 0d 30 8c bc
       -0.03099644 0.008814936 -0.022162637 -0.017112756
0001a0 ab 5d 62 3c e2 a4 55 3c e5 78 9a 3b 7d 6b 02 bd
       0.0138162775 0.013039799 0.004714119 -0.03184079
0001b0 be 96 64 bc b7 ea 5b 3c 41 c3 98 3c 62 43 3d 3c
       -0.013951955 0.01342266 0.018647792 0.01155171
0001c0 43 11 15 bd b4 81 25 bc f1 82 6a bd 5e f1 95 3b
       -0.036393415 -0.010101724 -0.05725378 0.0045758924
0001d0 37 1d 59 3c f7 58 73 bc ac 45 83 ba c3 97 35 bd
       0.013251594 -0.014852754 -0.0010015271 -0.044334184
0001e0 63 a3 dc bb cc 32 3c bc ae 84 5b 3c 4a 6c 36 bc
       -0.0067333444 -0.01148672 0.0133983325 -0.011134217
0001f0 cd a9 00 bc 0b 69 fc 3b fa ab eb 3c 33 7b bf 3b
       -0.007852984 0.007702952 0.028768528 0.005843544

action_model._continuous_distribution.log_sigma f4 [1, 2]
000000 67 d1 e8 bd 51 f8 80 bc
       -0.11368065 -0.015743406

action_model._continuous_distribution.mu.weight f4 [2, 128]
000000 c4 fe 78 bc 41 6c 94 3d 1a 6b 97 3d a2 79 f7 39
       -0.01519746 0.0724721 0.07393475 0.00047202135
000010 49 3b 4e bd 12 38 75 bb 28 f4 8d bd 46 3a 03 bd
       -0.050349507 -0.0037417454 -0.06931335 -0.032037996
000020 d9 49 42 bc 79 c2 0c ba c0 08 16 bd 20 59 0a bd
       -0.011858427 -0.0005369555 -0.03662944 -0.033776402
000030 ff 2a 34 bb 94 3b 2a bb 09 5d e6 ba 50 35 40 3d
       -0.0027491448 -0.0025975453 -0.0017575334 0.046925843
000040 65 63 d9 3c db 70 77 bc 02 cd 24 bc 94 21 18 bc
       0.026536653 -0.01510259 -0.010058643 -0.009285349
000050 e4 f2 4a 3d f2 0c b5 bc 4c 42 43 3d ee 1d 2c bc
       0.049548045 -0.0221009 0.047670648 -0.010505183
000060 09 c1 8d 3a fa 6b 95 bc 6a 6b 1f bd f8 19 a2 b9
       0.0010814975 -0.018239964 -0.038920797 -0.00030918396
000070 37 5f 01 bc 09 c1 ef bc 93 6f 25 bc 36 f9 15 bc
       -0.007896236 -0.029266851 -0.010097402 -0.009153655
000080 6f 94 3b bc e8 86 d3 3c 66 86 23 ba 97 ee d0 3c
       -0.011448964 0.025821164 -0.00062379835 0.025504394
000090 33 69 92 3c bd 2c bd bb b0 d3 55 bc a2 e4 28 3d
       0.017872429 -0.0057731555 -0.0130509585 0.041233666
0000a0 c4 d2 29 3d aa 55 01 3d 19 96 0a bc d0 b8 6d 3b
       0.041460767 0.031575836 -0.008458638 0.0036273487
0000b0 69 05 0f bd f0 b9 66 3d 5f 7e c6 3a 00 aa 82 bc
       -0.03491727 0.056329668 0.0015143863 -0.015950203
0000c0 b5 c4 88 bc 77 34 2d 3d 8e e8 0d bc a3 f3 09 3d
       -0.01669536 0.042286362 -0.008661402 0.033679616
0000d0 aa 01 d7 3a 92 b8 61 bc 39 24 f5 bc 4f 5e 1a bc
       0.0016403694 -0.013776915 -0.029924499 -0.009421899
0000e0 8e c2 d3 3b 27 1f 77 bc 88 96 f1 3b 13 9b 80 bc
       0.0064624017 -0.015083111 0.007372681 -0.015698945
0000f0 f2 8b eb bc 45 61 71 3d 59 e4 0c bc 65 bd 9f bc
       -0.028753255 0.058930654 -0.008599364 -0.01949949
000100 54 ef 67 bc 62 43 81 bd ad 1e 9c 3c de 64 50 bc
       -0.014156181 -0.063116804 0.019057596 -0.012719361
000110 c8 82 e2 bb cd c2 9c 3c e5 17 5a bd 53 c0 23 bd
       -0.006912563 0.019135857 -0.053245444 -0.039978337
000120 10 d1 28 bd 78 97 85 bc 34 33 be 3a 19 2b 4b bc
       -0.041215003 -0.016307577 0.0014511109 -0.012400412
000130 0f d3 4a bc 25 91 72 3b 88 f8 54 3c 35 14 ad 3d
       -0.012379422 0.0037012782 0.012998708 0.0845112
000140 6d 43 f5 bc 01 12 7f 3d 3c 47 f2 36 e3 39 fc bc
       -0.029939378 0.06227303 7.220455e-06 -0.030789321
000150 d2 78 6c bc e8 ef 56 3d f4 ce b7 3d 3c 2c 0b bd
       -0.014433103 0.052474886 0.0897502 -0.033977732
000160 ba 86 92 3d 28 be a5 bc b5 d4 85 bd 7a 5c 3e bb
       0.07154603 -0.020232275 -0.06534711 -0.002904682
000170 1d 23 93 3d fe 59 83 3d bc 5d 03 3d 05 0f 92 bc
       0.07184432 0.06413649 0.032071814 -0.017829427
000180 21 26 9a 3c 10 b5 ba bc 8b 1b 67 3d fb 4c aa 3b
       0.01881701 -0.022791415 0.05642275 0.005197165
000190 f7 62 2a 3c 4e 2f 2d 3d 32 c2 07 bd e5 eb 05 bc
       0.010399572 0.04228144 -0.033144183 -0.008173917
0001a0 84 1d 41 3d 93 0a 67 3d c9 35 f0 3c 3a 37 84 bb
       0.04714729 0.05640657 0.029322522 -0.004034904
0001b0 3a 47 a4 bc 03 7c ff bc dc 80 82 3d e7 43 98 3a
       -0.020053495 -0.031187063 0.06372234 0.0011616916
0001c0 11 65 0d bc 85 c9 f5 bc 44 14 8a bb 35 8b 71 bc
       -0.008630053 -0.030003319 -0.0042138416 -0.014742662
0001d0 c4 b7 12 3d fc ac f0 bc ed 9d 12 bd 17 6a 37 bc
       0.035819784 -0.02937936 -0.03579514 -0.011194727
0001e0 83 b6 dd ba af 33 0b bd 1c 15 83 3d 23 19 5c 3c
       -0.0016915355 -0.033984836 0.06400511 0.013433727
0001f0 87 63 a1 bb 85 ed 05 3d 3a 79 79 3d f5 75 de 3c
       -0.0049251947 0.03269722 0.060906626 0.027155856
000200 58 ea 7b 3b b9 32 ea bb e8 d4 08 3b 20 4e 49 38
       0.003843924 -0.00714716 0.0020878855 4.7994894e-05
000210 e3 d3 8d 3b 45 4b 23 bc bc 2e 32 3c bc 05 0a 3c
       0.0043282374 -0.009966676 0.0108754 0.008424219
000220 5c 14 02 3d f9 d6 33 3d 2b 95 24 bc 60 ea 0f 3d
       0.031757697 0.043906186 -0.01004533 0.035135627
000230 5f 13 03 3d d8 9a f3 3c 9c c9 cb 3c 37 01 93 3c
       0.032000896 0.029736921 0.024876408 0.017944915
000240 32 ba b0 3c 2b 79 65 bb 35 a4 b4 3c 0f 15 82 bc
       0.02157316 -0.0035014849 0.022050956 -0.015879182
000250 64 23 36 3c 74 8f 9f 3b 4b 44 07 3c 47 35 5f 3d
       0.011116836 0.004869396 0.008256028 0.05449417
000260 7d 5b 76 3c 77 c5 36 3b 21 c8 00 3c 9f 66 43 3d
       0.015036461 0.0027888694 0.007860214 0.04770529
000270 be 34 b4 bc 28 7a f4 ba 22 6e 33 3d ba 01 b3 bc
       -0.021997806 -0.0018652128 0.043806203 -0.02185141
000280 2a d7 0c 3b f4 da 28 bb a2 d1 5d 3d 23 8a 83 3c
       0.0021490552 -0.0025765272 0.054155 0.01605708
000290 5a ea 95 bb fc 11 41 3c 88 74 20 3d aa e6 c7 3c
       -0.004575056 0.011784073 0.039173633 0.024401981
0002a0 b0 28 f9 ba 7a 0f 4b 3c ad c8 5e ba bf 9b 09 3d
       -0.0019009318 0.012393827 -0.0008498531 0.033595797
0002b0 40 1e a7 3c 9b 37 84 bb 9d 5d 11 3d f4 b1 f1 38
       0.020400167 -0.004034949 0.035489667 0.00011524922
0002c0 4d 42 3d 3d 4f 90 6b 3c b6 2d e2 3b bc cd b6 3a
       0.046205807 0.014377668 0.006902422 0.0013946812
0002d0 99 bf ac 3c 75 fc d0 ba 04 95 e2 bc 04 60 23 3d
       0.021087455 -0.0015944379 -0.027658947 0.03988649
0002e0 73 ad 56 3b df cf 65 3c 80 67 cd 3b f6 e7 4e 3c
       0.0032757192 0.014026611 0.0062684417 0.012628546
0002f0 ea ac 51 bd ba 61 82 bc 2d 4a ae 3c 42 37 ee bc
       -0.051190294 -0.01591574 0.021275604 -0.029079083
000300 74 12 f0 3c c1 2f 81 3c 5c 0f dd bc 72 6b fc 3c
       0.029305674 0.015769841 -0.026984863 0.030812953
000310 fe ba 18 3c 92 27 e0 3c f9 03 ae 3c 0c b5 3a 3c
       0.009321926 0.027362619 0.021242129 0.011395704
000320 65 e8 6b bc 08 7e 4a 3d f0 0a 26 3c 74 1f 00 bc
       -0.014398669 0.0494366 0.010134444 -0.007819999
000330 14 5e 8e 3a 47 c2 0c bc ef ce d2 bc c9 4a 78 3c
       0.0010861778 -0.008591241 -0.02573344 0.015154549
000340 f6 4c c8 3c 31 a1 0b 3c 4f 88 d2 bc 13 1d b5 bc
       0.02445076 0.008522318 -0.025699763 -0.02210859
000350 76 59 08 bb 29 68 76 bc c5 cf e6 3c b6 00 86 bc
       -0.0020805276 -0.015039482 0.028175244 -0.01635776
000360 ef 1c a5 3c 5a 25 38 3b 18 39 18 3d 5f cc af 3b
       0.020155398 0.0028098435 0.037163824 0.005364939
000370 65 98 df b9 65 07 c5 3c c6 92 25 3c 61 ae bc b9
       -0.00042647417 0.024051378 0.010105794 -0.00035988077
000380 5c 51 c3 bc 89 ca 9f 3c 8e 4f d5 bb 48 69 ea 3c
       -0.023842506 0.019505756 -0.006509728 0.028614655
000390 c7 33 09 3c 8a 40 26 3c bf 68 86 3c cc e2 e9 b9
       0.008374161 0.010147223 0.016407369 -0.000446102
0003a0 a8 ee 21 bc e6 38 17 3d a5 f1 15 3c 82 0e db 39
       -0.00988356 0.036919497 0.009151851 0.00041781744
0003b0 28 fb cd 3c d8 51 5d bc 9d ae bf 3b b4 0f 8c 3c
       0.025144175 -0.013508283 0.005849673 0.017097332
0003c0 59 cf ad 3b 0b d0 8d 3c 4e b0 7e ba c4 d3 08 3c
       0.005304259 0.017311117 -0.00097156025 0.00835127
0003d0 ec 2e a0 3b c0 2b 2d 3c af de a4 3c d2 cd be bb
       0.004888406 0.010569513 0.020125715 -0.0058228755
0003e0 bd 02 cf 3c f2 aa ba bc a7 a4 bd 3b b9 72 8a 3c
       0.02526986 -0.022786591 0.0057874504 0.016900407
0003f0 3f 1c be 3c 84 89 be 3c 6b 8c 77 3c fc 2a c7 3c
       0.023206828 0.023258932 0.015109162 0.024312489

action_model._continuous_distribution.mu.bias f4 [2]
000000 db 41 cf 3c 30 57 f3 ba
       0.025299957 -0.0018565413

action_model._discrete_distribution.branches.0.weight f4 [1, 128]
000000 eb 4e 18 3c 82 29 21 bb 1d 1a 2d 3c 52 69 f6 bb
       0.009296159 -0.002459139 0.010565308 -0.0075198794
000010 88 10 23 bb 6b 39 ab 3b d0 0e 8a 3c 55 3c 92 3c
       -0.002488168 0.0052253506 0.016852766 0.017851034
000020 fe 61 9a bc ed fa 7f 3c 8f c8 f4 bb 97 ec da ba
       -0.018845554 0.01562379 -0.0074701975 -0.0016702589
000030 19 23 c3 bb 50 97 e6 bb 7b 79 fa 3b 16 10 2d 3c
       -0.0059551117 -0.007037081 0.007643876 0.010562917
000040 0b 45 40 3b 1e 5a 3c 3b 97 b3 f0 bb 3a 4d e9 3a
       0.0029338028 0.0028740237 -0.0073456275 0.0017799505
000050 97 68 50 3c db d8 10 bc 3e 2d 45 bc 9f 89 3c bc
       0.012720249 -0.008840765 -0.012034712 -0.011507421
000060 51 85 01 3b 4e 15 2f bb b8 13 53 3a da 8b 90 bb
       0.00197633 -0.002671558 0.00080519496 -0.004411203
000070 5a f9 2b 3c 53 df 0b bb b3 ea 9a bc a0 33 3c 3c
       0.010496462 -0.0021342828 -0.018910741 0.011486918
000080 37 38 31 bb ec 33 40 3c c3 ee 96 ba f1 ee a3 3b
       -0.0027041563 0.011731129 -0.0011515248 0.0050028493
000090 55 f1 77 bb 39 55 1b bc 37 82 9c ba 8c db 90 ba
       -0.0037833054 -0.009480768 -0.0011940663 -0.0011051758
0000a0 4a 4a 1d bc e0 38 92 3b 15 f0 98 bb 93 84 88 3b
       -0.009600231 0.0044623464 -0.004667292 0.0041661947
0000b0 67 c6 37 bc c7 95 af 3b c7 92 35 3c 77 58 07 3b
       -0.011216736 0.005358431 0.011082358 0.0020652094
0000c0 28 6d 9e ba 77 0c 69 bb c2 46 ee b9 88 f7 dc ba
       -0.0012086974 -0.0035560408 -0.00045447616 -0.0016858438
0000d0 67 e1 a9 bb f0 08 85 ba 3b 0e 06 bc 8d f1 ef 3b
       -0.0051843408 -0.0010149758 -0.008182104 0.0073224963
0000e0 d4 aa 07 3c 7c 56 8b 3a 8b 2a cb ba 39 fc 19 3c
       0.008280475 0.0010630633 -0.001550035 0.0093985135
0000f0 ad fe 11 3c 47 5e bc 3b 39 ab bb 3b b3 7d 15 bc
       0.008910817 0.0057485434 0.0057271984 -0.009124207
000100 13 0a bf 3b 5b 63 18 3c 12 be 61 bc 3f 68 73 3b
       0.0058300584 0.009301032 -0.013778226 0.0037140993
000110 40 69 55 3b cd 0c 55 bb 06 e6 16 3b 72 0e 98 3b
       0.0032563955 -0.003250885 0.0023025288 0.004640394
000120 ca 5e ea bb d7 f5 ad 3b 4a dd ce 3b 13 65 36 3c
       -0.007152413 0.0053088474 0.006313001 0.011132496
000130 85 73 14 bc ae b2 1f 3c a0 eb 4e bb fd e0 bf 3b
       -0.009060745 0.00974719 -0.003157355 0.005855678
000140 e8 9f d2 3b 20 89 dc b8 4f 96 85 39 0a e6 17 bb
       0.0064277537 -0.00010515959 0.00025479725 -0.0023177885
000150 e0 5b 24 bc 9f 03 e3 b9 02 5d 34 bc 3f 8c 11 bc
       -0.01003167 -0.00043299512 -0.011008503 -0.008883535
000160 d8 59 e5 ba 1f 1a 82 bb bd 60 f1 bb c2 34 24 bc
       -0.0017498089 -0.003970399 -0.0073662684 -0.010022344
000170 c7 e9 09 bc a2 b3 29 3b a5 fb 1e 3b d6 59 82 bb
       -0.008417553 0.0025894423 0.0024258879 -0.0039779944
000180 da 94 58 3b 98 f9 42 bc dc 5d c3 bb 02 88 de bb
       0.0033047707 -0.011900328 -0.0059621166 -0.0067911157
000190 77 f9 8a bb 5d fd 51 bc 1a c6 68 ba b7 78 51 3c
       -0.0042411643 -0.012816754 -0.0008879617 0.012785128
0001a0 a5 90 67 3a 6b 36 31 bb c1 11 16 bc 5f ce 84 bb
       0.00088335044 -0.0027040492 -0.009159506 -0.0040529217
0001b0 c7 93 05 bb 06 9d 86 bc ea 79 37 3c 8a f4 f7 39
       -0.0020382272 -0.016432296 0.0111985 0.00047293707
0001c0 62 d1 17 3b b0 59 45 3c 80 77 16 3c 8c 55 3d bb
       0.0023165573 0.012045309 0.009183764 -0.0028890101
0001d0 96 4d 02 bc bb 96 54 bc 44 7f 40 3b d8 c3 a4 ba
       -0.007953068 -0.01297539 0.0029372731 -0.0012570573
0001e0 17 85 2c bc d0 86 59 bc 8d a8 ee 3a 5f 1f 06 bc
       -0.010529778 -0.013276771 0.0018208191 -0.00818619
0001f0 9a 9c 57 3b ff d5 7a 3b 73 96 84 3a aa bd 15 ba
       0.0032899738 0.0038274524 0.0010115638 -0.0005712161
