Project specific/results/JumperAgent/JumperAgent/JumperAgent-38409.pt (torch, 757257 bytes, 39 tensors)

network_body._body_endoder.seq_layers.0.weight f4 [128, 109]
-0.1781517 -0.037955362 0.0020517013 -0.05169573 -0.0008324858 -0.04251407 -0.13081084 0.04328598
-0.023153232 0.10202964 -0.15075192 0.025380088 0.10946419 -0.03301558 -0.09469531 0.057093862
-0.039291676 0.021240307 -0.031507965 0.18789099 0.092835754 -0.15628393 0.058708664 -0.104615666
-0.17864479 -0.1627717 -0.02013862 -0.073394634 -0.05165011 -0.15228248 0.018400466 0.045260552
0.15117896 0.076528475 0.13569026 0.0025912474 0.016238654 0.054981377 0.09937412 -0.13590293
-0.08988174 0.0040645264 0.19907874 -0.049935527 -0.18179762 -0.06422118 0.19249915 -0.06838126
0.16999054 -0.16854495 -0.12110539 -0.2797408 -0.20437258 -0.11674786 -0.11047002 -0.09577837
0.18887149 0.18408942 -0.1324026 -0.016166708 -0.063711755 -0.117890954 -0.004664257 -0.072563104
0.08850904 -0.1207692 0.14542688 -0.00048259407 0.12163556 -0.110035025 0.12105309 -0.07103715
0.14547236 -0.13216503 -0.0072577884 -0.06931719 0.10956301 -0.05662189 0.14173321 0.06526708
0.117122695 -0.019399842 -0.09039966 -0.07783354 -0.15162762 0.09673586 0.0049032522 -0.018418444
-0.045218773 -0.12612584 -0.004175364 0.11290122 0.04820935 0.0587562 -0.09214086 0.003929042
-0.006849129 -0.066001736 0.038454723 -0.049378563 0.050272413 -0.03263778 0.023178127 0.038783703
-0.06734259 0.04923033 -0.024653994 0.26763168 0.12040475 -0.25206107 -0.11784528 0.03984377
0.098028034 0.040371723 -0.09219989 -0.009089927 -0.06061691 0.0009118381 0.15897097 0.053594828
-0.11899546 0.08229114 -0.072030075 0.08130602 -0.092579685 0.13625136 -0.11751138 -0.036642697
0.07495379 -0.04516112 0.056973472 0.031165836 0.0633189 -0.14291582 0.15317187 0.019501256
0.016317608 0.112321205 0.03504668 0.10732197 -0.05826624 -0.05634129 -0.07685532 0.083977796
0.12770273 0.031403285 0.06545243 -0.06634781 -0.08334563 -0.050183285 -0.23555781 0.062422805
-0.014968598 -0.044117473 -0.12990417 0.19792937 0.06232504 -0.03902355 0.018430442 0.008929779
-0.035085298 0.10040778 -0.13401987 -0.04849109 -0.054993547 0.07361052 -0.15216592 0.03160467
0.1330044 0.015894698 0.13653323 0.073738515 0.0991532 0.10153185 0.095959984 0.027793804
0.04313317 0.017170772 0.0012084587 -0.15390296 0.15959756 0.11546344 0.04698115 0.06188874
0.0069517335 -0.015702171 0.118256174 -0.02284952 0.053175293 0.0076430193 0.05332269 -0.04106036
0.053098995 -0.20804432 0.1382907 -0.26173198 -0.009992892 0.050856743 0.053969737 0.14195535
-0.041462477 -0.060889833 -0.06573314 0.14446694 0.12845644 0.01887893 0.054606237 0.07212722
-0.055300724 0.13013673 0.14839216 0.05184227 -0.03191838 -0.011539618 0.09322204 0.07329492
0.0936305 -0.04270674 0.033550087 0.12600279 0.16727893 -0.081946924 0.048447702 0.08362536
0.030511364 -0.14241369 0.072363146 0.013385693 -0.111800015 0.052077677 -0.027013732 0.11719922
0.077066064 0.073226385 -0.020647489 -0.16660692 0.10302593 -0.09681918 -0.034829717 -0.083151996
-0.022606604 0.11097304 -0.1436516 0.07019718 -0.08573095 -0.04144502 -0.16780122 -0.052208357
0.102625616 -0.042596176 -0.017390532 0.13253133 0.15319107 0.031991325 -0.114378706 -0.042999834
00000000: 666d 36be 1577 1bbd d675 063b e7be 53bd
00000010: 2d3b 5aba 3c23 2ebd 47f3 05be a44c 313d
00000020: d9ab bdbc eaf4 d03d b65e 1abe e7e9 cf3c
00000030: c32e e03d 583b 07bd 9def c1bd 41db 693d
00000040: 4ff0 20bd 2700 ae3c 7f0e 01bd 7f66 403e
00000050: ac20 be3d e508 20be 7f78 703d bd40 d6bd
00000060: a9ee 36be a0ad 26be bff9 a4bc ed4f 96bd
00000070: 118f 53bd f0ef 1bbe 93bc 963c 2163 393d
00000080: a8ce 1a3e f6ba 9c3d 63f2 0a3e ebd1 293b
00000090: ed06 853c 2734 613d a984 cb3d 232a 0bbe
000000a0: eb13 b8bd b82f 853b 4cdb 4b3e 3289 4cbd
000000b0: 2829 3abe 6586 83bd 7f1e 453e 790b 8cbd
000000c0: 0012 2e3e 0c97 2cbe 1a06 f8bd 303a 8fbe
000000d0: 0c47 51be 8119 efbd 1b3e e2bd 7327 c4bd
000000e0: 8767 413e f081 3c3e 8c94 07be 0b70 84bc
000000f0: 4f7b 82bd d070 f1bd a0d6 98bb f79b 94bd
00000100: 3a44 b53d d855 f7bd c9ea 143e ae04 fdb9
00000110: 111c f93d 0b5a e1bd afea f73d ed7b 91bd
00000120: b5f6 143e 4556 07be bed2 edbb 2cf6 8dbd
00000130: 9262 e03d 5bec 67bd 8322 113e bfaa 853d
00000140: 06de ef3d 6bec 9ebc 7523 b9bd 3167 9fbd
00000150: 4544 1bbe 731d c63d 76ab a03b 47e2 96bc
00000160: 5237 39bd 2227 01be 7ed1 88bb c138 e73d
00000170: 2b77 453d 57aa 703d 59b4 bcbd 31bf 803b
00000180: a96e e0bb eb2b 87bd b382 1d3d 2d41 4abd
00000190: 72ea 4d3d 31af 05bd 0ee0 bd3c a9db 1e3d
000001a0: e9ea 89bd bea5 493d 2cf7 c9bc 0507 893e
000001b0: c496 f63d 260e 81be de58 f1bd 3933 233d
000001c0: ecc2 c83d d25c 253d 4cd3 bcbd ebed 14bc
000001d0: 7049 78bd 6b08 6f3a 49c9 223e 4086 5b3d
000001e0: e4b3 f3bd 4288 a83d 8184 93bd c583 a63d
000001f0: 6b9a bdbd 7a85 0b3e cea9 f0bd a716 16bd
00000200: 5f81 993d defa 38bd 045d 693d 7f4f ff3c
00000210: 57ad 813d 8658 12be 16d9 1c3e 19c1 9f3c
00000220: 81ac 853c a908 e63d 1c8d 0f3d 9fcb db3d
00000230: 95a8 6ebd 20c6 66bd 5266 9dbd 8dfc ab3d
00000240: 81c4 023e bba0 003d ec0b 863d 5ce1 87bd
00000250: 1db1 aabd fd8c 4dbd 1136 71be 0eaf 7f3d
00000260: da3e 75bc 86b4 34bd 9905 05be ffad 4a3e
00000270: 8b48 7f3d 28d7 1fbd 70fb 963c 354e 123c
00000280: 9ab5 0fbd 98a2 cd3d 813c 09be 989e 46bd
00000290: ea40 61bd 1dc1 963d 62d1 1bbe e673 013d
000002a0: 4e32 083e 9935 823c 5ecf 0b3e 3804 973d
000002b0: d510 cb3d eeef cf3d ab86 c43d d5af e33c
000002c0: 68ac 303d b8a9 8c3c 2565 9e3a bd98 1dbe
000002d0: 8b6d 233e 1978 ec3d 4e6f 403d 0c7f 7d3d
000002e0: 5ecb e33b d7a1 80bc 4b30 f23d eb2e bbbc
000002f0: 56ce 593d 4b72 fa3b e568 5a3d e82e 28bd
00000300: 557e 593d 9209 55be 149c 0d3e bc01 86be
00000310: 3ab9 23bc 294f 503d 5f0f 5d3d be5c 113e
00000320: 8fd4 29bd 9e67 79bd 199f 86bd 24ef 133e
00000330: 168a 033e fca7 9a3c caaa 5f3d 70b7 933d
00000340: 0383 62bd 9042 053e 1df4 173e 8f58 543d
00000350: d9bc 02bd aa10 3dbc 32eb be3d a61b 963d
00000360: 59c1 bf3d 43ed 2ebd d16b 093d e006 013e
00000370: 2b4b 2b3e cad3 a7bd 1971 463d c643 ab3d
00000380: f8f2 f93c e5d4 11be 2133 943d aa4f 5b3c
00000390: 68f7 e4bd 674f 553d e74b ddbc 2506 f03d
000003a0: d0d4 9d3d b7f7 953d ec24 a9bc 019b 2abe
000003b0: 42ff d23d 2249 c6bd 9ba9 0ebd 984b aabd
000003c0: 7c31 b9bc d545 e33d 6819 13be 8ac3 8f3d
000003d0: b593 afbd 41c2 29bd 15d4 2bbe 6ed8 55bd
000003e0: 612d d23d 5479 2ebd 9776 8ebc 4bb6 073e
000003f0: 1fde 1c3e 5609 033d 623f eabd 9820 30bd

network_body._body_endoder.seq_layers.0.bias f4 [128]
-0.043416325 -0.0037952308 -0.0023365268 -0.017884376 0.0065381033 0.014801637 0.02300056 0.001409044
-0.018580392 -0.03301158 -0.025779534 0.0049811257 -0.03152593 -0.030734617 -0.051004153 -0.0034974478
-0.017512776 -0.0031410034 -0.035001006 -0.016364992 -0.019462734 0.0073925517 0.013879159 0.054778088
-0.030723564 -0.01829905 0.0031966858 0.028418273 -0.009166562 0.058362134 -0.002215859 -0.0046736537
-0.015167155 -0.023576511 -0.022526385 -0.016007992 0.032773715 0.027096659 -0.028246865 0.043884933
-0.00537214 -0.06704816 0.0024911906 0.0123544615 -0.009969233 -0.031978276 0.00042872268 -0.01776253
-0.043303415 0.017077453 -0.0072583933 0.029361146 0.003834079 -0.00060418085 -0.03318169 -0.004146499
0.008291539 -0.029075604 -0.015622694 -0.003449095 -0.06345309 0.029767342 0.010888309 -0.067387596
-0.023805622 0.002612008 0.040625945 -0.031589124 -0.024112582 -0.0016283845 -0.0422548 -0.023797961
-0.032776855 0.03044682 0.002689864 -0.0045793224 -0.00054250896 0.0019273857 -0.0011522872 -0.011224037
-0.008776037 -0.012657261 -0.027863765 0.007620008 0.026534948 0.014414736 -0.015506911 -0.015723262
0.019506551 -0.0032260527 -0.019808078 -0.0046997326 0.0090861665 0.0150757665 -0.018035853 0.004482177
0.013451548 0.023625836 -0.038651764 -0.026449285 -0.039239306 -0.013638958 0.0015724426 0.0062918286
-0.025705336 -0.020294726 -0.038228333 0.021026788 0.023340652 0.028881615 -0.042894807 -0.021950306
0.011704609 0.016593933 0.010252836 -0.008000256 -0.0020733685 -0.029953392 0.012510772 -0.009327027
-0.045465853 0.012962985 -0.04079172 -0.008816199 -0.04648672 -0.022136569 -0.040961746 0.0042651067
00000000: 51d5 31bd 68b9 78bb 6a20 19bb 4182 92bc
00000010: 963d d63b 9182 723c ac6b bc3c acaf b83a
00000020: e835 98bc 2737 07bd 9a2f d3bc b638 a33b
00000030: 5521 01bd 2ac7 fbbc bbe9 50bd 7035 65bb
00000040: f476 8fbc 4bd9 4dbb 375d 0fbd e00f 86bc
00000050: 5070 9fbc 383d f23b 6a65 633c fd5e 603d
00000060: fcaf fbbc e4e7 95bc 7d7f 513b 70cd e83c
00000070: 592f 16bc 220d 6f3d f237 11bb 7325 99bb
00000080: a97f 78bc 8723 c1bc 4189 b8bc 3123 83bc
00000090: bb3d 063d d0f9 dd3c f865 e7bc b0c0 333d
000000a0: c708 b0bb 8c50 89bd 3e43 233b 5e6a 4a3c
000000b0: fe55 23bc a7fb 02bd 2fc6 e039 ba82 91bc
000000c0: ec5e 31bd 04e6 8b3c d1d7 edbb c986 f03c
000000d0: 2c45 7b3b e461 1eba 86e9 07bd 5bdf 87bb
000000e0: 3cd9 073c f62f eebc 54f6 7fbc 360a 62bb
000000f0: b2f3 81bd a4da f33c e164 323c 8202 8abd
00000100: 0204 c3bc 392e 2b3b 6467 263d 9963 01bd
00000110: c087 c5bc 846f d5ba 5f13 2dbd f1f3 c2bc
00000120: 0641 06bd 9c6b f93c 6e48 303b 240e 96bb
00000130: 2937 0eba 55a0 fc3a 5808 97ba 06e5 37bc
00000140: 5ec9 0fbc 6760 4fbc 8d42 e4bc 43b1 f93b
00000150: d25f d93c c92b 6c3c b310 7ebc 12ce 80bc
00000160: 34cc 9f3c 2f6c 53bb 8d44 a2bc 3700 9abb
00000170: 25de 143c 5900 773c edbf 93bc 3adf 923b
00000180: e263 5c3c f88a c13c 5051 1ebd 2cac d8bc
00000190: 65b9 20bd f075 5fbc 6b1a ce3a af2b ce3b
000001a0: ff93 d2bc 2041 a6bc 5095 1cbd 5f40 ac3c
000001b0: e534 bf3c 2399 ec3c 77b2 2fbd 21d1 b3bc
000001c0: b0c4 3f3c 00f0 873c 83fb 273c 8113 03bc
000001d0: 5ae1 07bb d160 f5bc fbf9 4c3c 63d0 18bc
000001e0: 673a 3abd b362 543c 3815 27bd d271 10bc
000001f0: dc68 3ebd c057 b5bc 81c7 27bd 4fc2 8b3b

network_body._body_endoder.seq_layers.2.weight f4 [128, 128]
0.14493209 0.11898603 -0.0012150143 0.039970376 0.028631004 -0.06694181 -0.022992704 -0.08296499
0.12689182 -0.031640686 -0.11781918 0.18795979 0.066780105 0.02489826 0.065266885 -0.051789016
-0.0111096185 0.010461762 -0.0049390867 -0.059970338 -0.073232464 -0.024613274 0.03364886 0.012330651
0.043169156 -0.01419493 -0.074816175 0.054963388 0.038981076 -0.15713032 0.24443181 -0.022304969
0.16972506 -0.0045875506 0.070340134 -0.15661861 -0.06074603 0.13666894 -0.11737626 -0.113505654
0.05776985 0.072124936 0.0729691 -0.24321061 0.1395863 0.11885458 -0.09913846 -0.022239832
-0.034287974 0.09588515 -0.055823147 -0.007912937 0.048016973 0.073100984 -0.085424 -0.027052531
0.23908414 0.014926018 -0.11522318 0.04737152 0.20379862 0.044429224 -0.0978511 -0.07344332
0.014963764 0.077961035 -0.16250803 0.1376437 0.0545827 0.023005564 0.09296571 -0.044154074
-0.026489066 0.05508041 0.17620707 0.035898495 0.06199434 -0.023516554 0.09767098 0.02067561
0.0959517 -0.064274095 -0.06614365 -0.012940235 -0.032408748 -0.06295536 0.0592783 -0.033828158
-0.16403289 0.06733459 0.13709936 0.12176335 -0.101815976 0.04018387 0.036141735 0.1100319
0.18292566 0.1179249 0.021383185 0.085254125 -0.012733647 0.13996693 -0.01790549 0.005481501
0.077524744 -0.08152051 0.026391055 0.0697912 0.10249482 0.14962249 0.055200625 0.10799701
-0.195986 -0.0834949 -0.043501914 -0.07653751 -0.055795223 0.033622433 0.013417533 0.07439961
0.18496312 -0.088082135 0.15220526 0.019159272 -0.1346514 0.04723542 -0.010443051 0.23514956
-0.16372818 -0.023414942 -0.06452924 -0.053623922 0.0341006 -0.047248468 -0.03449996 0.04409763
0.05922534 -0.03678805 -0.005348395 -0.030637298 0.17941922 0.08183341 -0.0044591413 0.08576694
-0.018217077 -0.11323616 -0.046567325 -0.108802855 -0.018814307 -0.000778818 0.15915532 0.040263917
-0.15433379 -0.033101216 0.012115353 0.21907271 0.16155213 -0.17464143 -0.024367826 0.108172335
0.05574008 -0.00547992 -0.042605042 0.16864063 -0.025407001 0.1337899 0.09204996 -0.052940782
-0.14722836 0.022215478 0.019153945 -0.001444226 -0.09301815 -0.09696354 0.0033576435 -0.005657933
0.08047557 0.054150317 0.00047944114 -0.07377959 0.04266812 0.044168755 -0.09237065 -0.02977466
-0.00016702726 0.04705039 0.016112851 -0.04296586 -0.03740816 0.066783346 0.036799293 -0.07912207
0.03354622 0.18042329 0.15406013 -0.022736285 0.13395159 0.011005033 -0.14389724 -0.039956916
0.0027448777 0.044087134 -0.09520601 -0.12343827 0.085721865 -0.061388258 0.057441056 -0.029260308
0.0032887643 -0.03729653 0.0025205242 0.009148985 -0.0069749677 0.0753171 0.115091704 -0.057695724
-0.00488606 0.11582326 0.14214341 -0.08175559 0.02785638 0.08929199 0.121971875 -0.025561264
0.04796499 0.11705991 -0.032419786 0.02636751 0.151093 0.13622057 0.0041138725 0.03379322
-0.081887 0.049870003 -0.12628154 0.034711037 0.04021716 -0.02444938 0.095819116 0.08154302
-0.054114312 0.055885483 0.06936943 -0.061609734 -0.11890799 -0.030882323 0.190737 -0.0031520347
-0.06655286 -0.07111777 -0.061157137 0.010847286 -0.060004983 0.048303153 -0.15491714 0.03968545
00000000: 1469 143e f3ae f33d 1d41 9fba fab7 233d
00000010: 918b ea3c ca18 89bd 325b bcbc 8ce9 a9bd
00000020: eeef 013e aa99 01bd 2f4b f1bd 8878 403e
00000030: 02c4 883d 70f7 cb3c a5aa 853d b820 54bd
00000040: 1e05 36bc cf67 2b3c 10d8 a1bb 75a3 75bd
00000050: e7fa 95bd c7a1 c9bc 63d3 093d 8006 4a3c
00000060: 24d2 303d da91 68bc 3939 99bd 4a21 613d
00000070: 9faa 1f3d c5e6 20be 554c 7a3e e9b8 b6bc
00000080: 68cc 2d3e 2a53 96bb 7d0e 903d a160 20be
00000090: d4d0 78bd f1f2 0b3e f762 f0bd a775 e8bd
000000a0: 14a0 6c3d 3db6 933d d370 953d 340c 79be
000000b0: b6ef 0e3e 086a f33d 1b09 cbbd 4f30 b6bc
000000c0: 8c71 0cbd 6f5f c43d d0a6 64bd 43a5 01bc
000000d0: 72ad 443d f8b5 953d c7f2 aebd 459d ddbc
000000e0: 79d2 743e 428c 743c 21fa ebbd a408 423d
000000f0: 96b0 503e 6bfb 353d 2866 c8bd 7469 96bd
00000100: 932a 753c 09aa 9f3d 8168 26be 78f2 0c3e
00000110: 1c92 5f3d 2a76 bc3c ce64 be3d e7da 34bd
00000120: 99ff d8bc ff9b 613d a06f 343e 4d0a 133d
00000130: c7ed 7d3d caa5 c0bc b907 c83d e65f a93c
00000140: 5382 c43d 23a2 83bd 5276 87bd 4803 54bc
00000150: 09bf 04bd bdee 80bd cdcd 723d 658f 0abd
00000160: 3df8 27be b8e6 893d c663 0c3e 105f f93d
00000170: e584 d0bd d797 243d 5b09 143d 6858 e13d
00000180: dd50 3b3e 9c82 f13d ca2b af3c b799 ae3d
00000190: c9a0 50bc 7e53 0f3e 89ae 92bc 2a9e b33b
000001a0: 4bc5 9e3d 3af4 a6bd 0e32 d83c b0ee 8e3d
000001b0: cee8 d13d a336 193e 0d1a 623d 892d dd3d
000001c0: 8eb0 48be 60ff aabd 102f 32bd b3bf 9cbd
000001d0: 8889 64bd adb7 093d 36d5 5b3c d35e 983d
000001e0: f966 3d3e 6864 b4bd b2db 1b3e e8f3 9c3c
000001f0: 0ee2 09be ee79 413d 5519 2bbc 0ccb 703e
00000200: 5ca8 27be b1d0 bfbc e827 84bd c2a4 5bbd
00000210: 12ad 0b3d 9c87 41bd d44f 0dbd b79f 343d
00000220: 4596 723d 11af 16bd 9741 afbb 12fb fabc
00000230: acb9 373e 4698 a73d fd1d 92bb 94a6 af3d
00000240: fb3b 95bc 5ce8 e7bd 61bd 3ebd 08d4 debd
00000250: 7620 9abc 9729 4cba 9df9 223e c7eb 243d
00000260: ad09 1ebe 2495 07bd 797f 463c 9954 603e
00000270: ec6d 253e 34d5 32be 099f c7bc 7589 dd3d
00000280: b64f 643d e790 b3bb a082 2ebd 21b0 2c3e
00000290: 5822 d0bc 3800 093e b084 bc3d 6fd8 58bd
000002a0: 08c3 16be 3cfd b53c bce8 9c3c 2f4c bdba
000002b0: 4d80 bebd d294 c6bd e90b 5c3b 2f66 b9bb
000002c0: 60d0 a43d b9cc 5d3d 805d fb39 c119 97bd
000002d0: c4c4 2e3d 4cea 343d d32c bdbd fde9 f3bc
000002e0: 0a24 2fb9 e9b7 403d 19ff 833c f8fc 2fbd
000002f0: 4c39 19bd b5c5 883d dbba 163d c00a a2bd
00000300: c367 093d e2c0 383e f0c1 1d3e 7241 babc
00000310: 9b2a 093e 744e 343c cc59 13be dda9 23bd
00000320: 68e3 333b b694 343d 5efb c2bd 34cd fcbd
00000330: f28e af3d 4172 7bbd 5047 6b3d 50b3 efbc
00000340: 4f88 573b 3fc4 18bd 612f 253b a0e5 153c
00000350: 458e e4bb da3f 9a3d 33b5 eb3d 5a52 6cbd
00000360: 3e1b a0bb bf34 ed3d 0b8e 113e 7a6f a7bd
00000370: 1033 e43c b8de b63d 64cc f93d db65 d1bc
00000380: f076 443d 1bbd ef3d 9cca 04bd ad00 d83c
00000390: 20b8 1a3e 687d 0b3e aacd 863b c26a 0a3d
000003a0: 5fb4 a7bd 7d44 4c3d f34f 01be 292d 0e3d
000003b0: c0ba 243d 114a c8bc d03c c43d 0700 a73d
000003c0: f8a6 5dbd 2de8 643d 8f11 8e3d 7d5a 7cbd
000003d0: 0886 f3bd edfc fcbc 8f50 433e 5e92 4ebb
000003e0: de4c 88bd 32a6 91bd e87f 7abd d1b8 313c
000003f0: c9c7 75bd 87d9 453d 99a2 1ebe 368d 223d

network_body._body_endoder.seq_layers.2.bias f4 [128]
0.0053276997 -0.005964601 -0.005740656 -0.02077922 -0.010973029 0.010379258 -1.0545291e-05 -0.019626096
0.007342236 -0.029822348 0.013899608 -0.004746212 -0.007314683 0.0052238433 0.01382593 0.01280838
-0.0056676534 -0.01903513 0.0021311422 -0.0049743243 -0.01713212 -0.002664573 0.0082438355 0.015349589
0.001944877 -0.02563722 -0.016254501 -0.04609482 0.019110212 -0.00051620544 0.0147090955 0.0011615787
-0.030682126 0.011845719 0.006921554 -0.031394456 -0.013461754 0.013208542 0.024194915 0.0182414
-0.012346412 -0.02495324 0.006551333 0.038707536 0.0022588787 -0.02125687 -0.016830133 -0.0039056928
-0.03097831 0.009177359 0.0039403704 -0.0046511386 -0.01391478 0.0029870581 -0.0011060102 -0.0057905074
0.007555999 -0.020851865 -0.011798875 0.014314489 -0.01008225 0.01657418 0.0037306752 0.0040432736
0.006392474 -0.017415397 0.0027805746 -0.025744515 -0.018117083 -0.006892431 -0.031159092 -0.030804804
-0.030540928 -0.0016742685 0.0052196975 0.0024833295 0.020143269 0.023133963 0.004411185 0.002923706
0.0057012485 0.020453254 0.0042606685 -0.015050656 -0.017010666 -0.0040485105 0.024515957 -0.0058661955
0.0037028694 -0.0010157749 0.012798332 -0.005408889 -0.009999439 -0.044875503 0.022275293 0.0015511641
-0.00957863 0.0021616912 0.009114129 -0.015095619 -0.037192967 -0.031106789 -0.00062226417 0.0036431556
-0.01627796 -0.0021142622 -0.03467961 -0.0056498516 -0.032634895 -0.005656771 0.016857032 0.012803837
-0.00033685716 -0.047311727 0.007880369 0.009602587 -0.0007438493 0.009291025 -0.028196415 -0.03116054
-0.016394744 -0.017794458 -0.009407995 0.00229607 0.02144546 0.0009322553 0.0061665834 -0.011077645
00000000: fc93 ae3b b372 c3bb 1d1c bcbb 2f39 aabc
00000010: 38c8 33bc c30d 2a3c aeeb 30b7 e8c6 a0bc
00000020: 2497 f03b ff4d f4bc 2ebb 633c 1d86 9bbb
00000030: 02b0 efbb c62c ab3b 2786 623c 3dda 513c
00000040: b9b7 b9bb 90ef 9bbc a2aa 0b3b a8ff a2bb
00000050: a958 8cbc 1ea0 2ebb 2711 073c d87c 7b3c
00000060: 3eeb fe3a 2605 d2bc 2928 85bc eccd 3cbd
00000070: 058d 9c3c f651 07ba 6bfe 703c 1d40 983a
00000080: 1559 fbbc 8c14 423c 34ce e23b 7997 00bd
00000090: b08e 5cbc a468 583c 6a34 c63c fd6e 953c
000000a0: 9b48 4abc bd6a ccbc 90ac d63b cb8b 1e3d
000000b0: b209 143b e322 aebc 59df 89bc a7f6 7fbb
000000c0: 3ac6 fdbc a25c 163c 391e 813b 9468 98bb
000000d0: d1fa 63bc 85c2 433b 8bf7 90ba 4cbe bdbb
000000e0: 5098 f73b 88d1 aabc 1250 41bc 5287 6a3c
000000f0: 0630 25bc 93c6 873c 587e 743b 707d 843b
00000100: f577 d13b bcaa 8ebc 4d3a 363b 29e6 d2bc
00000110: 476a 94bc e7d9 e1bb 5a41 ffbc 5b5a fcbc
00000120: f830 fabc 2173 dbba ff09 ab3b 5bbf 223b
00000130: 7f03 a53c 7083 bd3c b48b 903b a69b 3f3b
00000140: 8ad1 ba3b 958d a73c 149d 8b3b 0797 76bc
00000150: f459 8bbc 5ea9 84bb b0d5 c83c 3739 c0bb
00000160: d7ab 723b c023 85ba 18b0 513c 0d3d b1bb
00000170: b0d4 23bc 60cf 37bd ad7a b63c 6e50 cb3a
00000180: b0ef 1cbc 29ab 0d3b 6d53 153c 9d53 77bc
00000190: a757 18bd aad3 febc 711f 23ba 02c2 6e3b
000001a0: 5b59 85bc 6f8f 0abb 350c 0ebd 6422 b9bb
000001b0: 2bac 05bd 6f5c b9bb c217 8a3c 2fc7 513c
000001c0: 349c b0b9 f1c9 41bd aa1c 013c 2b54 1d3c
000001d0: e2fe 42ba 6239 183c 2bfc e6bc 6444 ffbc
000001e0: 454e 86bc afc5 91bc fe23 1abc aa79 163b
000001f0: 64ae af3c 9862 743a 0d11 ca3b 037f 35bc

action_model._continuous_distribution.log_sigma f4 [1, 2]
-0.07472967 -0.06069143
00000000: df0b 99bd 9497 78bd

action_model._continuous_distribution.mu.weight f4 [2, 128]
0.00326861 -0.021410894 -0.0248475 0.018535623 -0.03242265 0.043891244 0.038555823 -0.032036435
0.03384716 -0.03611696 0.04742211 -0.04117951 -0.011392952 0.046802267 0.070163995 -0.0467774
-0.038389012 -0.025594147 -0.07030736 -0.00065655867 -0.037833564 -0.04137061 0.008723985 0.05713773
-0.0032477567 -0.008315511 -0.03524945 -0.011357376 0.062359102 -0.00353748 0.026612308 -0.013683923
-0.013319287 0.051216148 -0.042493917 -0.016346907 -0.03363365 -0.036622867 -0.036533844 0.046095286
-0.0034077978 -0.02408484 0.0330833 0.06959919 0.04967464 -0.0020861614 -0.068312734 0.0065755444
-0.038512543 0.01483949 0.043928232 0.003521785 -0.039515525 -0.044095792 -0.04724943 -0.020352956
-0.0063753277 -0.020952543 0.003155973 0.06301402 -0.043218445 0.05873157 0.0075733983 -0.023998136
0.017060235 -0.024319343 0.026958153 -0.04373459 -0.01370638 -0.047584333 -0.05009464 -0.0421638
0.016158529 0.029214235 -0.019259684 0.01971472 0.075380646 0.07974638 0.016917685 -0.053774703
-0.024875458 0.02121024 -0.0012307389 -0.02625567 -0.034996856 -0.001406295 -0.019153226 -0.0054946765
-0.02172259 0.0030759193 -0.0074324133 0.0029820187 0.0015951885 0.0027347582 0.07980077 0.049912754
0.03153741 0.019161267 -0.049439304 -0.0124310395 0.015960505 -0.00065230613 -0.0055280128 0.01283005
-0.0047344808 -0.031648505 0.01384023 -0.04304232 -0.0143039515 -0.044035792 -0.015370733 0.02641621
0.005045902 -0.005254432 0.048252616 0.024938751 -0.010706047 0.043057438 -0.021610435 -0.015214779
-0.027652435 -0.02453905 -0.019343076 0.0039237174 0.068064 0.0038598087 0.009481138 -0.015694207
0.04444738 -0.0083140405 -0.050869137 -0.0114257755 -0.032748953 0.00049372023 0.0019528148 0.0054828757
0.0009844332 -0.003392694 0.0070733125 -0.024222305 -0.006111901 -0.019683663 -0.011464599 -0.006447528
0.042188894 0.0053327107 0.002947385 0.001334396 -0.0061340025 -0.021258848 0.030395074 -0.004311409
-0.0065509127 -0.039699264 0.0035443706 0.0022183815 0.0043087197 -0.016296702 0.027762705 0.030876357
-0.039213814 -0.009765475 -0.020070447 -0.0002204167 -0.0031430547 -0.014253146 0.03972483 0.016796388
-0.00032481912 -0.0043114056 -0.004125901 -0.020299142 -0.0030035186 -0.03030461 -0.013815954 0.027134405
-0.03310509 0.005885341 -0.034581818 0.00041072682 -0.028669741 0.036149614 0.04768128 -0.041534033
0.0015721478 0.0008958062 0.0063233026 -0.0011315406 -0.034219004 -0.00584238 -0.022352694 0.037729144
0.019946195 -0.010549304 0.001123066 -0.0045551606 -0.025690947 -0.002306679 -0.001540306 -0.03151854
-0.022792472 -0.0022978466 -0.005160482 0.0057925084 -0.00658013 -0.0011539385 0.016398234 -0.017369628
-0.018127926 0.04205044 -0.008740528 -0.011134977 -0.009371338 -0.031767014 -0.037908725 -0.02251022
0.05924853 0.027924556 -0.021047287 0.026053868 0.022932492 -0.009800186 -0.0076854504 -0.017410738
-0.015002061 0.010454402 -0.019941298 -0.0017152594 -0.009871693 -0.018635422 -0.01101224 0.005184026
-0.023061987 0.00026248267 -0.022931691 -0.0019920757 -0.020826839 0.041632306 -0.04354689 0.01708872
0.008805141 0.0038529774 -0.0010522666 0.012732576 0.051660087 0.01141182 -0.034182977 0.014016468
-0.027310017 -0.006762596 -0.030221356 0.031492073 -0.0010876894 0.025673712 -0.017951718 -0.017339712
00000000: 2d36 563b e665 afbc fc8c cbbc 05d8 973c
00000010: 9dcd 04bd 4ec7 333d b6ec 1d3d a338 03bd
00000020: 52a3 0a3d 61ef 13bd b03d 423d d9ab 28bd
00000030: 81a9 3abc bcb3 3f3d 24b2 8f3d a999 3fbd
00000040: cc3d 1dbd d1aa d1bc 4efd 8fbd e81c 2cba
00000050: 5ef7 1abd 3b74 29bd 0cef 0e3c 4109 6a3d
00000060: 51d8 54bb c83d 08bc ba61 10bd 4a14 3abc
00000070: 426c 7f3d 11d5 67bb 0e02 da3c 8832 60bc
00000080: 2439 5abc 06c8 513d 1a0e 2ebd f3e9 85bc
00000090: 70c3 09bd dc01 16bd 83a4 15bd 69ce 3c3d
000000a0: 5c55 5fbb 924d c5bc 5b82 073d 058a 8e3d
000000b0: a377 4b3d fbb7 08bb 8ce7 8bbd aa77 d73b
000000c0: 54bf 1dbd 5521 733c 17ee 333d bfcd 663b
000000d0: 08db 21bd ca9d 34bd 9e88 41bd 3ebb a6bc
000000e0: 20e8 d0bb aba4 abbc 71d4 4e3b 7f0d 813d
000000f0: d305 31bd 8490 703d 452a f83b bd97 c4bc
00000100: e8c1 8b3c 5c39 c7bc 58d7 dc3c 0b23 33bd
00000110: b990 60bc cae7 42bd 0a30 4dbd f3b3 2cbd
00000120: e45e 843c b152 ef3c 7cc6 9dbc c480 a13c
00000130: 2b61 9a3d 1252 a33d f596 8a3c dd42 5cbd
00000140: 9ec7 cbbc 19c1 ad3c bf50 a1ba 2116 d7bc
00000150: dd58 0fbd 6e53 b8ba 3ae7 9cbc b00c b4bb
00000160: 93f3 b1bc 5d95 493b 9a8b f3bb f96d 433b
00000170: a515 d13a a139 333b 966e a33d 5171 4c3d
00000180: 5f2d 013d 17f8 9c3c de80 4abd 8fab 4bbc
00000190: 9bbf 823c 86ff 2aba 5524 b5bb 2135 523c
000001a0: b423 9bbb dda1 01bd 22c2 623c 254d 30bd
000001b0: 1f5b 6abc e05e 34bd 87d5 7bbc cf66 d83c
000001c0: 1858 a53b 5f2d acbb 89a4 453d 5a4c cc3c
000001d0: 6a68 2fbc ff5c 303d 5e08 b1bc 6947 79bc
000001e0: 5c87 e2bc 1e06 c9bc 5f75 9ebc 8792 803b
000001f0: 2365 8b3d d8f4 7c3b c656 1b3c 2391 80bc
00000200: 750e 363d 9d37 08bc 285c 50bd 2d33 3bbc
00000210: c423 06bd 016d 013a 97f5 ff3a b2a9 b33b
00000220: 1908 813a f657 5ebb 3fc7 e73b db6d c6bc
00000230: 5746 c8bb a23f a1bc 03d6 3bbc c945 d3bb
00000240: 43ce 2c3d 05be ae3b ea28 413b e6e6 ae3a
00000250: beff c8bb 0927 aebc 17ff f83c b846 8dbb
00000260: 0aa9 d6bb b29b 22bd ac48 683b 4462 113b
00000270: 2930 8d3b a980 85bc 9d6e e33c 6af0 fc3c
00000280: aa9e 20bd 5fff 1fbc c76a a4bc a81f 67b9
00000290: b5fb 4dbb 0786 69bc 81b6 223d 9498 893c
000002a0: 7c4c aab9 b146 8dbb 9132 87bb 634a a6bc
000002b0: aed6 44bb 6041 f8bc 505c 62bc f948 de3c
000002c0: 3499 07bd d2d9 c03b aaa5 0dbd d256 d739
000002d0: cedc eabc 9e11 143d 724d 433d 971f 2abd
000002e0: 8710 ce3a 89d4 6a3a b533 cf3b 3450 94ba
000002f0: 3a29 0cbd 7071 bfbb ff1c b7bc e089 1a3d
00000300: 3466 a33c fdd6 2cbc d733 933a 7543 95bb
00000310: d275 d2bc a72b 17bb 18e4 c9ba 9619 01bd
00000320: 47b7 babc 7897 16bb 4319 a9bb 15cf bd3b
00000330: 229e d7bb c03f 97ba 9755 863c c04a 8ebc
00000340: 0481 94bc 153d 2c3d 6e34 0fbc 7b6f 36bc
00000350: 3e8a 19bc 211e 02bd 2e46 1bbd 5a67 b8bc
00000360: 96ae 723d 0ac2 e43c 5c6b acbc ec6e d53c
00000370: ecdc bb3c f690 20bc 3bd6 fbbb f7a0 8ebc
00000380: 34cb 75bc f148 2b3c ef5b a3bc 8ed2 e0ba
00000390: e2bc 21bc 50a9 98bc af6c 34bc c3de a93b
000003a0: 7eec bcbc d49d 8939 3edb bbbc 7c8d 02bb
000003b0: 0c9d aabc a386 2a3d 395e 32bd a5fd 8b3c
000003c0: 7043 103c 3c82 7c3b 35ec 89ba 4b9c 503c
000003d0: 8799 533d a4f8 3a3c 7303 0cbd 54a5 653c
000003e0: 42b9 dfbc c498 ddbb c792 f7bc d5fd 003d
000003f0: cd90 8eba ad51 d23c 7b0f 93bc 030c 8ebc

action_model._continuous_distribution.mu.bias f4 [2]
0.021674195 0.02162144
00000000: 158e b13c 721f b13c

action_model._discrete_distribution.branches.0.weight f4 [1, 128]
0.010147193 -0.009598011 0.0099897515 -0.0017704197 0.0075223274 0.006566971 0.00045895754 -0.0055832206
0.0027593703 0.0035077445 -0.0029228607 0.024887694 0.012251444 -0.00196042 -0.0129949 0.0016392097
0.012227826 0.00626307 -0.009098229 0.012060196 0.009319427 0.009447977 -0.009867939 0.013542421
0.0026748604 0.008031576 -0.008815991 -0.0054399674 -0.020923719 -0.019855304 -0.00018654515 -0.010272263
-0.0037470781 -0.0038045242 0.009429007 0.0054401117 -0.0058840066 -0.0032361813 0.008454989 0.00594193
-0.006581576 -0.008140895 0.0053460705 0.004385937 -0.0017007393 -0.006236998 -0.0014867757 0.014080778
0.006687072 0.0065812976 0.013851081 -0.008901483 -0.0019911586 -0.01816669 -0.0003278076 -0.0010990936
0.0025060407 0.00090374966 0.0028522362 2.2567583e-05 0.0069887014 -0.0044178246 -0.00037444546 -0.011195977
0.0040690317 0.014284737 0.00047093435 -0.006365849 0.0029492907 -0.0006850568 -0.006542049 -0.0027225425
-0.00013973971 0.013657994 0.003049625 0.0023629158 -0.0021654377 -0.003782302 0.009035724 -0.008143672
0.011844833 -0.0031068192 -0.00032123772 -0.010765153 -0.0070544607 0.008276529 -0.0075847073 0.011366599
0.0017695026 0.0012876324 -0.0021870895 -0.007459683 0.008168555 -0.012265247 0.006801081 0.0030298736
-0.003553908 0.0020726172 -0.0018902274 0.0030942718 0.0027505008 -0.006154142 0.0015517356 -0.010629262
-0.008183445 -0.002532521 0.0073035816 0.0052788486 -8.096857e-05 -0.01107316 -0.010303064 0.0024053599
-0.0075379247 0.01456025 0.010393581 -0.008264629 0.0010293223 -0.009918021 -0.009837289 0.02111279
0.0004686922 -0.011556834 -0.0019613828 0.0036173265 0.02179554 -0.0027104241 0.000532385 0.008480805
00000000: 6a40 263c fa40 1dbc 0eac 233c 6d0d e8ba
00000010: db7d f63b bf2f d73b 3da0 f039 73f3 b6bb
00000020: 8dd6 343b 30e2 653b 778d 3fbb 47e1 cb3c
00000030: 48ba 483c 647a 00bb 90e8 54bc c0da d63a
00000040: 3857 483c 703a cd3b bd10 15bc 2198 453c
00000050: 83b0 183c b0cb 1a3c 23ad 21bc 08e1 5d3c
00000060: b64c 2f3b df96 033c f270 10bc c141 b2bb
00000070: 3868 abbc 97a7 a2bc 559b 43b9 fe4c 28bc
00000080: 8a91 75bb 5355 79bb 1f7c 1a3c f742 b23b
00000090: a0ce c0bb 1d16 54bb cb86 0a3c 86b4 c23b
000000a0: 43aa d7bb 6361 05bc 172e af3b e8b7 8f3b
000000b0: 57eb deba bb5f ccbb eadf c2ba 10b3 663c
000000c0: 3a1f db3b eda7 d73b a5ef 623c 87d7 11bc
000000d0: 197e 02bb 4fd2 94bc 97dd abb9 760f 90ba
000000e0: 633c 243b 9de9 6c3a 95ec 3a3b 844f bd37
000000f0: 7a01 e53b 66c3 90bb 3851 c4b9 556f 37bc
00000100: 8355 853b 880a 6a3c bde7 f639 9d98 d0bb
00000110: e348 413b 6295 33ba af5e d6bb af6c 32bb
00000120: 1887 12b9 c7c5 5f3c 38dc 473b 26db 1a3b
00000130: 04ea 0dbb 7fe0 77bb 930a 143c 096d 05bc
00000140: d510 423c c79b 4bbb cc6b a8b9 5360 30bc
00000150: 1b29 e7bb 479a 073c 2389 f8bb f93a 3a3c
00000160: a8ee e73a c6c5 a83a 4655 0fbb 5b70 f4bb
00000170: 67d5 053c 2df4 48bc 9adb de3b d890 463b
00000180: afe8 68bb bfd4 073b 82c1 f7ba 44c9 4a3b
00000190: bf41 343b afa8 c9bb 9b63 cb3a 5b26 2ebc
000001a0: db13 06bc a7f8 25bb e252 ef3b 31fa ac3b
000001b0: accd a9b8 336c 35bc 2fce 28bc 3ea3 1d3b
000001c0: b200 f7bb 1d8e 6e3c d749 2a3c 5e68 07bc
000001d0: 53ea 863a 327f 22bc 952c 21bc bbf4 ac3c
000001e0: cdba f539 e058 3dbc 8b8a 00bb ab10 6d3b
000001f0: 8f8c b23c 5fa1 31bb c18f 0b3a 13f3 0a3c

exp_avg f4 [128, 109]
6e-45 3.5476918e-05 0.0 0.00043384376 0.00047035288 0.00012308783 -7.2815183e-06 0.0
0.0003535144 0.00039930412 0.0 -7.7763925e-06 0.00012511757 0.00035197948 0.0003683816 0.0003389771
-0.0002484349 0.0 0.00037877844 0.0004041117 0.0 -9.0246956e-11 0.0001555535 0.00031376732
0.00030468297 0.0006873641 -0.00031367413 0.0 9.563075e-05 0.00040672108 0.0 -8.576584e-11
0.00043272774 3.6593e-05 8.14986e-05 0.00037700916 9.2311595e-05 0.0 -1.045279e-10 0.00024909264
0.0 3.9491733e-05 0.00023870406 0.00019112478 0.00017471437 0.00052775815 -5.8437443e-05 0.0
-1.045279e-10 0.00020705188 0.0 3.9491733e-05 0.00031187903 0.00011794992 0.0001236036 0.0005586759
-8.9355104e-05 0.0 -1.045279e-10 0.00018396019 0.0 3.949162e-05 0.00043852016 -8.691145e-06
4.039847e-05 0.0005871173 -0.00011779656 0.0 -1.045279e-10 0.00017520304 0.0 3.949162e-05
0.000509103 -7.927403e-05 -6.357277e-08 0.00028543925 0.00018388151 0.0 -1.045279e-10 5.934568e-05
0.0 3.9485007e-05 0.00052212167 -9.228605e-05 -1.1898461e-05 0.00044554885 2.3771761e-05 0.0
-1.9367727e-13 0.000121429526 0.0 3.9485007e-05 0.00052212167 -9.228605e-05 -1.4879893e-05 0.00046817085
1.1497395e-06 0.0 -1.9367727e-13 0.00012137706 0.0 3.9485007e-05 0.00052212167 -9.228605e-05
-1.583292e-05 0.0 0.0018329648 8.9515806e-10 0.010947974 6e-45 0.00010562717 0.0
0.00047045632 0.00053811993 4.5332603e-05 -3.594038e-05 0.0 0.0005666915 0.0004564441 0.0
3.4117595e-05 6.33323e-05 0.0004786339 0.0004870756 3.6392612e-05 -4.085543e-05 0.0 0.00058054633
0.0006340281 0.0 -4.2356418e-10 -8.039955e-05 0.0006564837 0.0006261275 0.0006307638 0.00029171762
0.0 -0.00034639763 0.00048511394 0.0 -4.248849e-10 0.0007077952 -0.00013171113 -1.7575687e-05
0.00040237897 0.00017370461 0.0 -9.0952254e-12 0.00027324172 0.0 6.849592e-05 0.00073116034
-0.00022357258 -0.0001367177 0.00035063655 0.00022544718 0.0 -9.0952254e-12 0.0002428476 0.0
6.849592e-05 0.00088694395 -0.00037935618 -0.00026310343 0.00055812334 1.7960276e-05 0.0 -9.0952254e-12
0.0002609819 0.0 6.849591e-05 0.00075762556 -0.00025003776 -0.0001932435 0.0004480906 0.00012799296
0.0 -9.0952254e-12 0.00022319244 0.0 6.849591e-05 0.00073683576 -0.00022924803 -0.0001902758
0.00020953768 0.00036654607 0.0 -9.0952254e-12 0.00018738714 0.0 6.84956e-05 0.0007344643
-0.000226876 -0.00019134402 0.00023231661 0.0003437669 0.0 -4.638418e-13 0.00017467086 0.0
6.84956e-05 0.0007344643 -0.000226876 -0.00019266181 0.00028826954 0.00028781395 0.0 -4.638418e-13
0.00018047442 0.0 6.84956e-05 0.0007344643 -0.000226876 -0.00019308309 0.0 0.00287422
1.0987924e-09 0.013484206 -6e-45 -0.00017223367 0.0 0.00026885932 0.00017384556 8.209064e-05
0.00045491604 0.0 -0.00044038083 0.00014000898 0.0 -4.2480504e-05 -1.42553945e-05 0.00015336147
0.00018579117 0.00024066352 -0.0002560489 0.0 0.00011201098 -3.8652797e-05 0.0 5.0724763e-10
0.00023206815 -0.00013544306 -0.00010495796 5.157909e-05 -0.0010760345 0.0 0.001121081 0.00022387248
0.0 5.139887e-10 -0.00030360313 0.0004002283 0.0003357951 0.00021604926 -0.000119423625 0.0
00000000: 0400 0000 0dcd 1438 0000 0000 8675 e339
00000010: b299 f639 2311 0139 c453 f4b6 0000 0000
00000020: e657 b939 b159 d139 0000 0000 5a77 02b7
00000030: fe31 0339 e389 b839 5723 c139 bcb8 b139
00000040: 5e40 82b9 0000 0000 c896 c639 f4de d339
00000050: 0000 0000 8574 c6ae 131c 2339 2381 a439
00000060: dbbd 9f39 3930 343a a174 a4b9 0000 0000
00000070: 5e8d c838 2e3d d539 0000 0000 e099 bcae
00000080: bcdf e239 6f7b 1938 3aea aa38 50a9 c539
00000090: 6997 c138 0000 0000 fadb e5ae a698 8239
000000a0: 0000 0000 eda3 2538 a24c 7a39 ab68 4839
000000b0: 8833 3739 4059 0a3a ba1a 75b8 0000 0000
000000c0: fadb e5ae 111c 5939 0000 0000 eda3 2538
000000d0: b283 a339 e25b f738 979b 0139 1b74 123a
000000e0: 2864 bbb8 0000 0000 fadb e5ae 70e5 4039
000000f0: 0000 0000 cea3 2538 2ee9 e539 2fd0 11b7
00000100: 8771 2938 c6e8 193a 8c09 f7b8 0000 0000
00000110: fadb e5ae b5b6 3739 0000 0000 cea3 2538
00000120: 5375 053a ec3f a6b8 8085 88b3 02a7 9539
00000130: 51d0 4039 0000 0000 fadb e5ae f0e9 7838
00000140: 0000 0000 b49c 2538 fede 083a b289 c1b8
00000150: 809f 47b7 8e98 e939 7869 c737 0000 0000
00000160: ac0f 5aaa fba7 fe38 0000 0000 b49c 2538
00000170: fede 083a b289 c1b8 a7a4 79b7 d474 f539
00000180: c050 9a35 0000 0000 ac0f 5aaa d08b fe38
00000190: 0000 0000 b49c 2538 fede 083a b289 c1b8
000001a0: f0d0 84b7 0000 0000 1840 f03a 260f 7630
000001b0: 225f 333c 0400 0000 2884 dd38 0000 0000
000001c0: 94a7 f639 9e10 0d3a 8323 3e38 b0be 16b8
000001d0: 0000 0000 068e 143a e44e ef39 0000 0000
000001e0: 7d19 0f38 45d1 8438 28f1 fa39 2e5e ff39
000001f0: 45a4 1838 2f5c 2bb8 0000 0000 ce2f 183a
00000200: e834 263a 0000 0000 5cdb e8af 2e9c a8b8
00000210: e017 2c3a b522 243a d859 253a adf1 9839
00000220: 0000 0000 b49c b5b9 e456 fe39 0000 0000
00000230: 3c95 e9af 558b 393a f01b 0ab9 806f 93b7
00000240: 64f6 d239 7a24 3639 0000 0000 4101 20ad
00000250: e241 8f39 0000 0000 78a5 8f38 57ab 3f3a
00000260: cf6e 6ab9 e15b 0fb9 a4d5 b739 0466 6c39
00000270: 0000 0000 4101 20ad e8a4 7e39 0000 0000
00000280: 78a5 8f38 cd81 683a 53e4 c6b9 25f1 89b9
00000290: 064f 123a 66a9 9637 0000 0000 4101 20ad
000002a0: 66d4 8839 0000 0000 76a5 8f38 649b 463a
000002b0: 8017 83b9 68a1 4ab9 b4ed ea39 d935 0639
000002c0: 0000 0000 4101 20ad c408 6a39 0000 0000
000002d0: 76a5 8f38 3628 413a 4d62 70b9 c584 47b9
000002e0: 58b7 5b39 fb2c c039 0000 0000 4101 20ad
000002f0: 5a7d 4439 0000 0000 4ca5 8f38 1189 403a
00000300: 90e5 6db9 85a3 48b9 049a 7339 9d3b b439
00000310: 0000 0000 538f 02ab da27 3739 0000 0000
00000320: 4ca5 8f38 1189 403a 90e5 6db9 4305 4ab9
00000330: e222 9739 bce5 9639 0000 0000 538f 02ab
00000340: bc3d 3d39 0000 0000 4ca5 8f38 1189 403a
00000350: 90e5 6db9 5976 4ab9 0000 0000 695d 3c3b
00000360: 5204 9730 dcec 5c3c 0400 0080 a099 34b9
00000370: 0000 0000 b0f5 8c39 504a 3639 1428 ac38
00000380: cc81 ee39 0000 0000 eae2 e6b9 60cf 1239
00000390: 0000 0000 182d 32b8 742a 6fb7 a8cf 2039
000003a0: f0d0 4239 9f5a 7c39 4d3e 86b9 0000 0000
000003b0: 70e7 ea38 201f 22b8 0000 0000 616e 0b30
000003c0: 5257 7339 b805 0eb9 e01c dcb8 a056 5838
000003d0: ba09 8dba 0000 0000 3cf1 923a 50bf 6a39
000003e0: 0000 0000 bd48 0d30 ec2c 9fb9 bcd5 d139
000003f0: a80d b039 488b 6239 1273 fab8 0000 0000

exp_avg_sq f4 [128, 109]
2.3877222e-10 5.435281e-07 0.0 5.4994366e-06 5.705248e-06 1.0798157e-06 8.213464e-07 0.0
4.2427405e-06 4.768257e-06 0.0 7.0980764e-07 1.0194116e-06 4.4462927e-06 4.700622e-06 2.2813051e-06
6.5501655e-07 0.0 3.3725426e-06 4.2873776e-06 0.0 4.2408882e-07 2.004856e-06 3.8059459e-06
3.9163497e-06 4.7714866e-06 4.4219354e-07 0.0 9.935223e-07 3.1931675e-06 0.0 2.3963722e-07
2.6776827e-06 3.3086633e-06 3.3885287e-06 5.654627e-06 4.49588e-07 0.0 3.0319793e-09 1.9132217e-06
0.0 8.072389e-08 3.4332631e-06 2.7222973e-06 2.7895856e-06 5.718976e-06 4.1061477e-07 0.0
3.0329141e-09 1.3462901e-06 0.0 6.425901e-08 4.0905297e-06 2.025309e-06 2.1441315e-06 5.9299396e-06
2.9660004e-07 0.0 3.0329141e-09 1.0577303e-06 0.0 5.7002282e-08 4.836512e-06 1.2830445e-06
1.4505595e-06 5.769984e-06 4.023825e-07 0.0 3.0329117e-09 8.679736e-07 0.0 3.602823e-08
5.656277e-06 3.7768476e-07 7.2949337e-07 5.5806195e-06 7.174882e-07 0.0 3.0329117e-09 7.153415e-07
0.0 2.0237589e-07 5.8135042e-06 1.654712e-07 4.783273e-07 4.9916985e-06 1.3333035e-06 0.0
1.8557289e-09 5.929076e-07 0.0 1.9553615e-07 5.822697e-06 1.654712e-07 4.5606876e-07 4.8080387e-06
1.5048009e-06 0.0 1.8557289e-09 5.634575e-07 0.0 1.935547e-07 5.8222317e-06 1.654712e-07
4.4943945e-07 0.0 0.00012864666 2.2593538e-17 0.0033846488 2.1679424e-11 1.2938463e-06 0.0
1.8077026e-05 1.8662842e-05 5.859079e-07 2.318697e-06 0.0 1.6367043e-05 1.7798568e-05 0.0
8.954186e-07 1.9771524e-06 1.6302163e-05 1.6598351e-05 3.892034e-06 2.4006333e-06 0.0 1.2507782e-05
1.6271537e-05 0.0 4.5875902e-07 5.8075316e-06 1.2497569e-05 1.2804642e-05 1.5505264e-05 2.001885e-06
0.0 1.7561242e-06 1.1590674e-05 0.0 2.8143498e-07 9.111697e-06 9.400301e-06 9.712773e-06
1.7490545e-05 1.9795664e-06 0.0 4.9071542e-09 7.018902e-06 0.0 1.02847665e-07 1.3441096e-05
5.53168e-06 5.917792e-06 1.7417282e-05 1.943533e-06 0.0 4.926325e-09 4.833294e-06 0.0
9.7333e-08 1.7003147e-05 2.1288104e-06 2.6623693e-06 1.768116e-05 1.564389e-06 0.0 4.926325e-09
3.741117e-06 0.0 8.7675765e-08 1.8370438e-05 1.0398758e-06 1.5518161e-06 1.8200408e-05 1.222021e-06
0.0 4.9263242e-09 3.1327172e-06 0.0 1.0305747e-07 1.9163039e-05 3.8987196e-07 9.213516e-07
1.7741477e-05 1.7828506e-06 0.0 4.9263242e-09 2.6631744e-06 0.0 1.0854196e-07 1.9164863e-05
3.627257e-07 8.2893024e-07 1.7136448e-05 2.355081e-06 0.0 4.625672e-09 2.3859404e-06 0.0
7.630613e-08 1.9196232e-05 3.627257e-07 7.964713e-07 1.6721311e-05 2.7178676e-06 0.0 4.625672e-09
2.3013538e-06 0.0 7.412985e-08 1.9194806e-05 3.627257e-07 7.8621594e-07 0.0 0.00046518655
7.1307515e-17 0.010730904 2.8922953e-10 3.353537e-06 0.0 3.3791854e-05 3.5057987e-05 3.4351792e-06
5.4944217e-06 0.0 2.864272e-05 3.178968e-05 0.0 2.522126e-06 4.472132e-06 3.0784464e-05
3.1199685e-05 9.362155e-06 4.381342e-06 0.0 2.2707203e-05 2.8944967e-05 0.0 1.5537544e-06
1.2320763e-05 2.2347744e-05 2.301608e-05 2.8258997e-05 4.8000993e-06 0.0 4.888019e-06 2.130699e-05
0.0 1.0104691e-06 1.7678036e-05 1.760005e-05 1.8246621e-05 3.4926634e-05 3.517131e-06 0.0
00000000: 3444 832f f7e6 1135 0000 0000 cd87 b836
00000010: b56f bf36 2fee 9035 7f7a 5c35 0000 0000
00000020: dd5c 8e36 04ff 9f36 0000 0000 9c89 3e35
00000030: b7d2 8835 5d31 9536 09ba 9d36 8618 1936
00000040: 65d4 2f35 0000 0000 d753 6236 4bdc 8f36
00000050: 0000 0000 53ae e334 2a8b 0636 a769 7f36
00000060: 3069 8336 c21a a036 9e66 ed34 0000 0000
00000070: 2b59 8535 334a 5636 0000 0000 7da7 8034
00000080: 3db2 3336 670a 5e36 7b66 6336 e0bc bd36
00000090: e75e f134 0000 0000 255b 5031 e664 0036
000000a0: 0000 0000 6e5a ad33 0367 6636 b6b0 3636
000000b0: b734 3b36 a1e5 bf36 7772 dc34 0000 0000
000000c0: 976b 5031 2db2 b435 0000 0000 c4fe 8933
000000d0: 6241 8936 8bea 0736 e6e3 0f36 cbf9 c636
000000e0: 663c 9f34 0000 0000 976b 5031 56f7 8d35
000000f0: 0000 0000 acd2 7433 5249 a236 1335 ac35
00000100: d8b0 c235 c99b c136 0807 d834 0000 0000
00000110: 8c6b 5031 b1fe 6835 0000 0000 75bd 1a33
00000120: 0dcb bd36 99c4 ca34 67d2 4335 2841 bb36
00000130: 6a99 4035 0000 0000 8c6b 5031 e505 4035
00000140: 0000 0000 a94c 5934 9f11 c336 61ac 3134
00000150: 6766 0035 5d7e a736 f6f3 b235 0000 0000
00000160: a80c ff30 4d28 1f35 0000 0000 91f4 5134
00000170: 9660 c336 61ac 3134 9dd9 f434 bd54 a136
00000180: 91f8 c935 0000 0000 a80c ff30 8140 1735
00000190: 0000 0000 e9d3 4f34 975c c336 61ac 3134
000001a0: 7d4a f134 0000 0000 53e5 0639 7c63 d023
000001b0: fcd0 5d3b b9b1 be2d 38a8 ad35 0000 0000
000001c0: 1ea4 9737 268e 9c37 4947 1d35 e99a 1b36
000001d0: 0000 0000 f54b 8937 224e 9537 0000 0000
000001e0: b35c 7035 38af 0436 a1c0 8837 b03c 8b37
000001f0: 5198 8236 911a 2136 0000 0000 84d8 5137
00000200: dc7e 8837 0000 0000 5c4b f634 51de c236
00000210: a6ac 5137 85d3 5637 4d11 8237 1f58 0636
00000220: 0000 0000 f8b3 eb35 9175 4237 0000 0000
00000230: 2118 9734 71de 1837 fcb5 1d37 0bf4 2237
00000240: a9b8 9237 b1d8 0436 0000 0000 c99b a831
00000250: e983 eb36 0000 0000 1add dc33 1181 6137
00000260: c59c b936 7291 c636 541b 9237 a56d 0236
00000270: 0000 0000 6a44 a931 ae2d a236 0000 0000
00000280: 6205 d133 fba1 8e37 afdc 0e36 28ab 3236
00000290: 0152 9437 fff7 d135 0000 0000 6a44 a931
000002a0: e70f 7b36 0000 0000 4348 bc33 371a 9a37
000002b0: dc91 8b35 ff47 d035 14ad 9837 5204 a435
000002c0: 0000 0000 6844 a931 ac3b 5236 0000 0000
000002d0: 7150 dd33 50c0 a037 984f d134 cd52 7735
000002e0: 88d3 9437 484a ef35 0000 0000 6844 a931
000002f0: fdb8 3236 0000 0000 9317 e933 3bc4 a037
00000300: a4bc c234 a783 5e35 3ec0 8f37 fc0b 1e36
00000310: 0000 0000 d7ef 9e31 251e 2036 0000 0000
00000320: bddd a333 9807 a137 a4bc c234 17cd 5535
00000330: be44 8c37 9c64 3636 0000 0000 d7ef 9e31
00000340: f570 1a36 0000 0000 5131 9f33 8804 a137
00000350: a4bc c234 590c 5335 0000 0000 48e4 f339
00000360: 876c a424 acd0 2f3c 7001 9f2f 540d 6136
00000370: 0000 0000 babb 0d38 3a0b 1338 ee87 6636
00000380: b95c b836 0000 0000 c645 f037 e955 0538
00000390: 0000 0000 cb41 2936 520f 9636 911e 0138
000003a0: 68dc 0238 2612 1d37 7103 9336 0000 0000
000003b0: 597b be37 d8ce f237 0000 0000 988a d035
000003c0: 46b5 4e37 6a77 bb37 a812 c137 bc0d ed37
000003d0: 8a10 a136 0000 0000 c303 a436 6abc b237
000003e0: 0000 0000 749f 8735 4b4b 9437 d2a3 9337
000003f0: 5210 9937 307e 1238 da07 6c36 0000 0000

exp_avg f4 [128]
0.00046932063 0.00057608366 9.662553e-05 0.00025859964 -0.0002251151 -0.000110739056 0.00049839704 -3.41419e-05
0.00065452966 0.00011758934 0.00027368174 0.0006099051 -4.5050045e-05 -1.5861739e-05 -1.7153857e-06 -0.0004936984
-1.3278926e-05 0.0006604157 -3.8738342e-08 0.00022567017 0.00034982013 -7.3364135e-06 -0.0002986479 -0.00073533726
0.00070649676 3.389736e-05 0.0001745937 -0.00074691745 -1.1021708e-05 -0.00086163194 0.00064089993 9.095587e-05
-6.398626e-05 0.00036276586 1.0188174e-05 2.1738968e-05 -0.0005011748 -0.00018668771 1.5158291e-05 -0.00019557474
-1.0781103e-05 2.8154002e-06 0.00014930964 3.507943e-06 5.9302547e-05 0.00043265964 -6.643485e-05 6.3893145e-05
2.8160448e-05 0.00026910054 0.00033182328 -0.00041628868 -2.4129404e-06 -0.00044007227 1.7447166e-05 0.000114132185
0.00036493142 0.00020399198 -1.5745572e-05 -0.00015268574 -3.5768153e-06 0.000713698 -0.00085954764 -3.7584255e-06
-3.3313918e-06 0.0002366919 -0.0011317628 -9.805658e-07 0.0001350297 -0.00015053863 6.229465e-06 1.5828475e-05
0.00021582018 0.0012486146 0.0012661547 0.00032426033 0.00034359447 0.00075460336 3.1829113e-05 0.00048321154
-2.5458401e-05 -4.3717897e-05 -2.3026922e-07 -0.00013420673 -0.00010201233 -0.000795458 -8.80563e-06 -7.2141265e-06
-5.2947067e-05 0.0004760883 0.00068526866 0.00032568 -0.00034533878 -0.000683864 -3.4260374e-06 0.00013173535
0.00026128022 -0.00013309345 1.3801582e-08 -1.6548252e-05 -2.706446e-06 0.00026359467 -0.0005701393 -2.0353342e-05
0.0011010214 4.6828936e-05 0.00024787 0.0009674503 0.00080929906 -4.283003e-05 1.4504474e-05 -0.00022181118
-0.00044623134 -0.0002879399 -0.00019713712 -0.0004481095 -5.649824e-05 -5.1656192e-05 -3.0263345e-06 -3.372022e-05
-2.0348416e-06 -6.850879e-05 0.00058937084 1.730337e-05 4.2517306e-05 5.5260316e-06 1.2356351e-05 5.3558433e-06
00000000: 260f f639 5204 173a 70a3 ca38 a894 8739
00000010: e00c 6cb9 943c e8b8 dca6 023a 9633 0fb8
00000020: be94 2b3a 4c9a f638 f17c 8f39 0ae2 1f3a
00000030: 1ef4 3cb8 d30e 85b7 343c e6b5 8a6b 01ba
00000040: 8ec8 5eb7 bf1f 2d3a 4261 26b3 e0a1 6c39
00000050: 1068 b739 502b f6b6 d893 9cb9 a6c3 40ba
00000060: 3234 393a 032d 0e38 2413 3739 c8cc 43ba
00000070: e0e9 38b7 24df 61ba 1102 283a 90bf be38
00000080: 5d30 86b8 9c31 be39 e0ed 2a37 145c b637
00000090: 4661 03ba 9ac1 43b9 5d50 7e37 3213 4db9
000000a0: 7ce0 34b7 35f0 3c36 0090 1c39 006a 6b36
000000b0: a0bb 7838 98d6 e239 f052 8bb8 5ffe 8538
000000c0: 1a3a ec37 1016 8d39 91f8 ad39 5241 dab9
000000d0: 00ee 21b6 80b9 e6b9 815b 9237 405a ef38
000000e0: 4454 bf39 aee6 5539 5c15 84b7 441a 20b9
000000f0: 3809 70b6 7617 3b3a 4453 61ba 4239 7cb6
00000100: e090 5fb6 8030 7839 a857 94ba fc9b 83b5
00000110: c296 0d39 e8d9 1db9 b206 d136 64c7 8437
00000120: ca4d 6239 8ea8 a33a 1af5 a53a 7c01 aa39
00000130: 7824 b439 93d0 453a 4080 0538 8e57 fd39
00000140: 808f d5b7 bc5d 37b8 ec3f 77b4 d8b9 0cb9
00000150: 74ef d5b8 4886 50ba e5bb 13b7 e010 f2b6
00000160: 7b13 5eb8 7d9b f939 9aa3 333a 08c0 aa39
00000170: 960e b5b9 5645 33ba e0ea 65b6 7022 0a39
00000180: 70fc 8839 008f 0bb9 001c 6d32 1ad1 8ab7
00000190: 63a0 35b6 1433 8a39 6775 15ba 78bc aab7
000001a0: 2650 903a 306a 4438 8cf4 8139 7e9c 7d3a
000001b0: 2427 543a 65a4 33b8 3e58 7337 fc95 68b9
000001c0: 28f4 e9b9 a4f6 96b9 98b6 4eb9 3df0 eab9
000001d0: 86f8 6cb8 6aa9 58b8 0818 4bb6 cf6e 0db8
000001e0: 508e 08b6 60ac 8fb8 0280 1a3a b426 9137
000001f0: 9c54 3238 406c b936 204e 4f37 58b6 b336

exp_avg_sq f4 [128]
6.2104646e-06 1.960086e-05 3.7899055e-05 2.692955e-05 4.8155995e-05 8.129771e-06 3.7854672e-05 8.0486636e-08
6.898386e-06 3.3673414e-06 9.831119e-07 7.073953e-05 4.0626826e-08 8.053941e-09 2.7407118e-10 7.4632975e-05
1.2471032e-08 1.8198425e-05 6.3591157e-13 6.23794e-05 1.2883837e-05 1.7934268e-07 7.508658e-05 8.395798e-05
1.442734e-05 2.7281592e-08 1.8833587e-05 4.5227524e-05 3.1502804e-08 0.00016446153 3.868147e-05 4.3998396e-05
3.1128326e-07 3.1297004e-06 4.278895e-09 8.3370686e-08 8.123481e-06 4.4118124e-06 1.2062561e-08 1.3754272e-06
6.844906e-08 6.87854e-10 4.9987968e-05 3.0868592e-05 9.267373e-06 8.957204e-06 7.2251525e-05 6.164429e-08
2.7955332e-08 0.00015549746 1.0542433e-05 4.017254e-06 3.5968413e-05 6.7774046e-05 5.4850037e-08 8.3926105e-05
6.0138325e-05 9.7983175e-06 1.274534e-07 1.8678595e-05 2.7878472e-10 6.755532e-05 0.00012987858 2.4409992e-09
4.04095e-08 2.427126e-06 0.00015501738 5.9763104e-11 2.719431e-06 6.0475895e-07 7.6654745e-09 7.0060318e-09
2.837185e-06 8.5023195e-05 8.5810694e-05 8.082893e-05 9.7212105e-05 7.926397e-05 2.568979e-05 4.1906337e-06
6.0328955e-05 2.0903487e-06 2.2717715e-11 5.547686e-05 7.0151543e-07 6.4619126e-05 6.686342e-09 1.4958783e-07
4.368878e-07 1.2560939e-05 6.1985056e-06 4.7908816e-05 2.3623861e-05 3.097613e-05 5.5909812e-08 5.4559147e-05
3.6063637e-05 0.00021841607 1.2184977e-09 8.406133e-08 8.745904e-10 4.7591193e-06 2.0551175e-05 2.54421e-07
2.0286046e-05 3.4637412e-06 4.9639093e-06 9.314476e-05 0.000109939356 1.1840858e-07 1.1612998e-08 1.15865e-05
2.1116695e-05 3.598327e-05 5.1645453e-05 3.1021484e-06 4.3920426e-07 1.7626127e-07 2.614443e-08 4.063887e-08
1.4825895e-07 3.6851194e-05 1.4387185e-05 8.693584e-08 2.2922668e-06 1.08424416e-07 3.1161025e-09 1.4248943e-08
00000000: 7c63 d036 876c a437 cdf5 1e38 c5e6 e137
00000010: 1bfb 4938 1a65 0837 25c6 1e38 ffd7 ac33
00000020: af78 e736 7cfa 6136 78f3 8335 ff59 9438
00000030: ab7d 2e33 9b5d 0a32 17ac 962f 4684 9c38
00000040: 2e40 5632 d2a8 9837 42fe 322b afd1 8238
00000050: a927 5837 5791 4034 cd77 9d38 9912 b038
00000060: f40c 7237 db58 ea32 d2fc 9d37 afb2 3d38
00000070: b34d 0733 4e73 2c39 ea3d 2238 eb8a 3838
00000080: 721e a734 d807 5236 8f05 9331 8509 b333
00000090: 164a 0837 2e09 9436 b43b 4f32 529b b835
000000a0: 45fe 9233 6c13 3d30 2caa 5138 e678 0138
000000b0: 107b 1b37 e646 1637 be85 9738 4f61 8433
000000c0: 6d22 f032 080d 2339 68df 3037 f3cb 8636
000000d0: cadc 1638 ea21 8e38 4194 6b33 7c01 b038
000000e0: 093d 7c38 7463 2437 20da 0834 faaf 9c37
000000f0: 7643 992f 7cac 8d38 0430 0839 83be 2731
00000100: b78e 2d33 b5e1 2236 298c 2239 a36b 832e
00000110: 787f 3636 b856 2235 1db1 0332 b5b9 f031
00000120: 7866 3e36 7b4e b238 44f5 b338 b482 a938
00000130: 5ade cb38 853a a638 6780 d737 459d 8c36
00000140: b909 7d38 eb47 0c36 bfd3 c72d d3af 6838
00000150: c64f 3c35 2184 8738 b0bd e531 649e 2034
00000160: 678d ea34 d2bc 5237 c2fc cf36 b3f1 4838
00000170: db2b c637 5eec 0138 7d21 7033 70d6 6438
00000180: 0943 1738 9e06 6539 1478 a730 3485 b433
00000190: d467 7030 86b0 9f36 5065 ac37 5b97 8834
000001a0: f42b aa37 9f72 6836 a88f a636 b656 c338
000001b0: 3e8f e638 ce47 fe33 8182 4732 a363 4237
000001c0: c223 b137 beec 1638 e29d 5838 812e 5036
000001d0: c6cb eb34 5442 3d34 3694 e032 e98a 2e33
000001e0: 1c31 1f34 ab90 1a38 7d60 7137 7cb1 ba33
000001f0: d8d4 1936 f4d6 e833 0e23 5631 84cb 7432
