Project specific/results/JumperAgent/JumperAgent/JumperAgent-46206.pt (torch, 757257 bytes, 39 tensors)

network_body._body_endoder.seq_layers.0.weight f4 [128, 109]
-0.064040504 -0.01762137 -0.07898362 -0.04913697 -0.0282636 0.052778877 0.02984309 -0.03385349
-0.09721613 -0.0042009796 -0.1103269 0.2502872 0.031373944 -0.19055887 -0.27022448 -0.076014474
-0.22952066 0.123906985 -0.21398966 0.039778266 -0.052930165 0.08329981 -0.22901513 0.06821478
0.071632996 -0.06636095 0.0005506289 0.10490395 -0.037095997 0.060455322 -0.109751776 0.23299913
-0.0386787 0.10263331 0.21536231 -0.025042104 -0.023984209 -0.065495454 -0.076777175 -0.02041865
-0.0016206047 0.062710404 -0.15613109 -0.07334587 0.038428374 -0.072258204 0.064205706 -0.038921285
-0.17129155 -0.032106303 0.02940018 0.017632287 -0.010160922 0.0399791 0.009756191 0.023222337
0.00418905 -0.022708194 0.05888216 0.058335964 -0.0025627888 -0.2140929 0.008762032 -0.21752991
-0.08839589 0.01671508 0.11989673 -0.112674035 0.027660457 -0.11647688 0.05349671 -0.1153023
-0.23985265 -0.02437105 -0.08268543 -0.11759842 -0.019651372 0.081303194 0.14676116 0.14307967
0.022527272 -0.10029551 -0.057394616 0.049878947 -0.13653383 -0.12534006 -0.14565231 0.008527864
0.016650219 0.03959399 -0.17741682 -0.0073524173 -0.05298054 -0.0669106 -0.005054583 0.011501839
0.03724451 0.031419743 0.022760674 -0.004994833 0.083778135 -0.1899314 -0.060236923 0.06485191
0.16730732 0.13049488 0.041348483 0.06573341 0.03927829 0.0797723 -0.16113298 -0.11635747
0.047255553 -0.06234921 0.18884043 -0.13929473 -0.034715176 -0.0935299 0.14017227 -0.110085964
-0.021645024 -0.00076291995 0.004228148 0.1425129 -0.111136034 -0.15568879 -0.0014440308 -0.06630074
-0.06859438 -0.16844927 -0.029204205 -0.088329986 -0.110389315 -0.07779224 0.09335736 -0.14955173
0.037700254 -0.012365609 0.040556945 0.11939466 -0.11168064 0.083675 0.07032206 -0.101328835
-0.035773017 -0.19775166 -0.07261035 -0.0072717806 0.044987306 0.033614554 -0.12536159 -0.06657783
-0.1365768 0.014965074 -0.079484925 0.05911782 0.022099536 -0.18899415 -0.043454602 -0.0005161254
-0.17732759 0.14875206 -0.005145641 -0.124399565 -0.037812654 0.09899335 -0.13281581 0.0109136505
-0.22348592 -0.15632877 -0.14105439 -0.046208195 -0.14868468 0.00784841 -0.07534968 0.19847141
0.09842986 -0.27065727 0.0210285 0.023366611 -0.19863825 0.027266754 0.043880712 0.07957406
-0.088588074 -0.027161388 0.038316473 0.104112886 -0.02275082 -0.14871001 0.033806983 0.02506588
-0.048755113 -0.03147834 -0.010703412 0.023884868 0.044728182 0.03240494 -0.063310295 0.28430688
0.08650244 0.01206343 0.025419388 -0.19916831 -0.0008727026 -0.03995571 0.32410237 -0.040317558
0.07293852 -0.022876197 0.022627862 0.056739237 -0.00078734243 0.009177129 0.05229781 0.018228909
-0.09913319 0.07859927 0.041250657 0.05920653 0.04914363 3.6804253e-05 0.07099895 0.06687515
0.0806731 0.07215281 -0.06555344 0.08306872 -0.013561249 -0.027128838 0.14104351 -0.074639454
-0.049006924 0.010797768 0.16251537 0.024973657 0.28549045 0.09913399 -0.02402472 0.005528102
0.03235309 0.07588455 -0.11250539 -0.018191494 -0.036910057 0.120166816 0.12054598 0.070597105
-0.007655475 -0.21230638 -0.07556308 -0.058965918 0.05429279 0.0827101 -0.12666076 -0.06731771
00000000: ab27 83bd b15a 90bc 2ac2 a1bd d943 49bd
00000010: 1189 e7bc aa2e 583d 7f79 f43c f5a9 0abd
00000020: 4019 c7bd 5fa8 89bb 12f3 e1bd a525 803e
00000030: f781 003d dd21 43be dd5a 8abe 7aad 9bbd
00000040: 7707 6bbe f2c2 fd3d 1b20 5bbe 89ee 223d
00000050: 4dcd 58bd 1799 aa3d f182 6abe 31b4 8b3d
00000060: 52b4 923d 40e8 87bd 1458 103a e2d7 d63d
00000070: f9f1 17bd 00a0 773d 8ac5 e0bd 5397 6e3e
00000080: 8e6d 1ebd 6a31 d23d f087 5c3e 1925 cdbc
00000090: 887a c4bc 7b22 86bd 5a3d 9dbd 0345 a7bc
000000a0: 786a d4ba 506e 803d d4e0 1fbe 5c36 96bd
000000b0: 1267 1d3d 1cfc 93bd 487e 833d ed6b 1fbd
000000c0: 0d67 2fbe e681 03bd a5d8 f03c 9671 903c
000000d0: ff79 26bc 20c1 233d 6ed8 1f3c c53c be3c
000000e0: 4c44 893b 8906 babc 6b2e 713d b1f1 6e3d
000000f0: 76f4 27bb 2b3b 5bbe a08e 0f3c 29c0 5ebe
00000100: e808 b5bd 10ee 883c 6b8c f53d a5c1 e6bd
00000110: 2f98 e23c 6e8b eebd 5e1f 5b3d 9d23 ecbd
00000120: ef9b 75be cca5 c7bc fb56 a9bd 71d7 f0bd
00000130: eafb a0bc 4a82 a63d 8f48 163e 7a83 123e
00000140: 1d8b b83c bb67 cdbd 9e16 6bbd de4d 4c3d
00000150: 86cf 0bbe 2559 00be e125 15be 74b8 0b3c
00000160: 0a66 883c 4f2d 223d c1ac 35be 8cec f0bb
00000170: 1f02 59bd 6d08 89bd eaa0 a5bb 3672 3c3c
00000180: b38d 183d fdb1 003d 9874 ba3c b2ab a3bb
00000190: df93 ab3d 607d 42be feba 76bd 14d1 843d
000001a0: 9c52 2b3e 73a0 053e 075d 293d 3d9f 863d
000001b0: 46e2 203d a95f a33d 0b00 25be d34c eebd
000001c0: 0a8f 413d e361 7fbd 635f 413e 47a3 0ebe
000001d0: 8031 0ebd 9b8c bfbd 5289 0f3e c074 e1bd
000001e0: e850 b1bc b1fe 47ba 478c 8a3b e7ee 113e
000001f0: 4a9b e3bd e26c 1fbe a245 bdba afc8 87bd
00000200: 367b 8cbd f77d 2cbe a83d efbc 5ae6 b4bd
00000210: cb13 e2bd 8a51 9fbd 2532 bf3d 1724 19be
00000220: 956b 1a3d 2099 4abc 0a1f 263d 3085 f43d
00000230: d2b8 e4bd cc5d ab3d 0305 903d 7e85 cfbd
00000240: ba86 12bd 697f 4abe bcb4 94bd 1e48 eebb
00000250: 9c44 383d 6aaf 093d ca5e 00be f559 88bd
00000260: cada 0bbe 1230 753c fec8 a2bd 8725 723d
00000270: 160a b53c af87 41be 74fd 31bd 974c 07ba
00000280: 5d95 35be 7652 183e c49c a8bb 33c5 febd
00000290: 71e1 1abd 07bd ca3d de00 08be 2bcf 323c
000002a0: 7ed9 64be a614 20be 9070 10be ce44 3dbd
000002b0: cc40 18be 9e96 003c ef50 9abd 173c 4b3e
000002c0: 9895 c93d 9793 8abe f643 ac3c 566b bf3c
000002d0: d367 4bbe 875e df3c 43bc 333d baf7 a23d
000002e0: aa6d b5bd 8f81 debc bcf1 1c3d 2339 d53d
000002f0: ed5f babc 7047 18be 3179 0a3d f656 cd3c
00000300: 71b3 47bd 6fef 00bd 5d5d 2fbc 33aa c33c
00000310: e634 373d 0bbb 043d d4a8 81bd ac90 913e
00000320: 3128 b13d b1a5 453c 523c d03c c7f2 4bbe
00000330: 15c6 64ba 99a8 23bd bff0 a53e 0624 25bd
00000340: ca60 953d dd66 bbbc 115e b93c 6767 683d
00000350: a865 4eba ab5b 163c 3a36 563d cb54 953c
00000360: 5806 cbbd a7f8 a03d 73f6 283d 8c82 723d
00000370: d54a 493d 445e 1a38 e667 913d d7f5 883d
00000380: f037 a53d dac4 933d e240 86bd ef1f aa3d
00000390: 0030 5ebc 4c3d debc b66d 103e 92dc 98bd
000003a0: 7cbb 48bd 1fe9 303c 6e6a 263e 8e95 cc3c
000003b0: ce2b 923e c306 cb3d 7dcf c4bc 1525 b53b
000003c0: ac84 043d 5c69 9b3d 3a69 e6bd 5406 95bc
000003d0: 002f 17bd 051a f63d d0e0 f63d 3795 903d
000003e0: c7da fabb d866 59be d1c0 9abd 3f86 71bd
000003f0: 1e62 5e3d ea63 a93d 5cb3 01be dedd 89bd

network_body._body_endoder.seq_layers.0.bias f4 [128]
-0.04322205 -0.017780261 -0.0010241098 0.0023265018 -0.012286398 -0.031742766 -0.026859859 0.031479426
0.0018135 -0.035914134 -0.056005456 -0.0037695002 -0.006568488 -0.012301484 -0.022066653 -0.005316278
0.023940688 -0.019611418 0.0033192642 -0.041077845 -0.002069236 -0.034573536 0.019734273 0.005693935
0.056159314 -0.028042125 0.018350126 0.0036587156 -0.03288402 0.011772899 -0.027920444 0.0026671703
-0.013398973 -0.0010398006 0.028532935 0.007887615 0.018414669 0.008917538 -0.018028067 -0.016546592
-0.008089152 -0.0315119 -0.031048186 -0.012084152 0.009199316 -0.010996998 -0.027557502 -0.0011170416
-0.007860809 0.026807945 -0.0014903281 0.015509553 0.0049501653 0.0016585013 0.00851893 -0.01628685
0.012362897 -0.013084328 -0.013116075 0.006679212 -0.0075491886 -0.03369282 -0.0039532175 -0.008493874
0.0062827887 -0.014001409 0.013599689 -0.00788803 0.008536518 0.018674424 0.026941251 0.025553836
-0.008162931 0.011859973 -0.016198402 -0.050802547 -0.004845236 0.029994695 -0.009814209 -0.0030844691
0.0062007625 -0.049408603 -0.012644102 -0.0094591165 -0.00727294 0.010254246 0.0057704593 0.0385322
0.048279744 -0.021540815 -0.029905356 -0.0225409 -0.012840564 -0.017910143 -0.020030309 0.0127099855
-0.015139053 0.009508269 -0.008755793 -0.043900087 0.010719191 0.033367623 -0.02258444 0.009691871
-0.00954125 -0.008534493 0.008323513 -0.03471915 0.01124821 0.002151704 0.034563113 0.02239892
0.0123355 -0.006889417 -0.0008842522 -0.039425284 -0.014943804 -0.03667082 -0.00933245 -0.018526835
-0.026429573 0.032423668 -0.03952107 -0.013471112 0.005566115 0.010284606 -0.026088137 0.007361871
00000000: 9b09 31bd e9a7 91bc 6c3b 86ba 3978 183b
00000010: e34c 49bc b404 02bd 3509 dcbc 92f0 003d
00000020: f6b2 ed3a b31a 13bd fa65 65bd b809 77bb
00000030: 793c d7bb 2a8c 49bc 20c5 b4bc 2c34 aebb
00000040: 431f c43c 20a8 a0bc 0388 593b 3e41 28bd
00000050: 059c 07bb fb9c 0dbd c5a9 a13c 3094 ba3b
00000060: 4f07 663d 99b8 e5bc 0153 963c 10c7 6f3b
00000070: 65b1 06bd 1ee3 403c 6ab9 e4bc b1cb 2e3b
00000080: 5e87 5bbc eb49 88ba e7bd e93c 0e3b 013c
00000090: 5cda 963c de1a 123c 99af 93bc b88c 87bc
000000a0: 5d88 04bc 9f12 01bd c458 febc 9bfc 45bc
000000b0: bab8 163c c12c 34bc 45c0 e1bc b269 92ba
000000c0: 9fca 00bc 569c db3c 1d57 c3ba c81b 7e3c
000000d0: ff34 a23b 1262 d93a fb92 0b3c 006c 85bc
000000e0: c08d 4a3c a65f 56bc cee4 56bc 4bdd da3b
000000f0: 2f5f f7bb 7c01 0abd fe89 81bb e429 0bbc
00000100: dadf cd3b 2a66 65bc 3bd1 5e3c cc3c 01bc
00000110: c0dc 0b3c 1bfb 983c e6b3 dc3c 4756 d13c
00000120: d0bd 05bc 5550 423c 83b2 84bc 5516 50bd
00000130: c9c4 9ebb 6fb7 f53c c7cb 20bc ce24 4abb
00000140: c42f cb3b ad60 4abd 3529 4fbc 69fa 1abc
00000150: d851 eebb 6d01 283c 1f16 bd3b f1d3 1d3d
00000160: fbc0 453d 5d76 b0bc 14fc f4bc b2a7 b8bc
00000170: 3b61 52bc 4bb8 92bc 9a16 a4bc 8b3d 503c
00000180: ca09 78bc 92c8 1b3c 7574 0fbc 94d0 33bd
00000190: 8c9f 2f3c 7dac 083d 0103 b9bc a7ca 1e3c
000001a0: e752 1cbc 42d4 0bbc 585f 083c ab35 0ebd
000001b0: 6a4a 383c 9a03 0d3b 0d92 0d3d f17d b73c
000001c0: d61a 4a3c 9ec0 e1bb 29cd 67ba 687c 21bd
000001d0: dbd6 74bc 2434 16bd 22e7 18bc 97c5 97bc
000001e0: d582 d8bc aece 043d d8e0 21bd f0b5 5cbc
000001f0: f563 b63b c480 283c cab6 d5bc da3b f13b

network_body._body_endoder.seq_layers.2.weight f4 [128, 128]
0.060614616 -0.05720366 0.09328662 0.053367674 -0.066122405 -0.08525847 0.015542919 0.017541895
0.00023453622 0.03350227 -0.10572999 0.094373 -0.13938709 0.08894824 -0.23173666 0.04356908
-0.07885936 -0.020749604 0.07992371 -0.038044225 0.08939836 0.12312691 -0.015617306 0.03706829
-0.018088976 0.073147304 0.012894466 -0.12695825 0.11520583 0.13188854 -0.105894156 0.065791965
0.04768465 0.10448647 -0.18475643 -0.07984704 0.123983875 -0.060006883 -0.0037398431 -0.03656603
0.11383739 0.014976599 -0.048714407 -0.06658954 -0.06870219 -0.081102915 -0.2206572 -0.054895025
0.0029622498 0.018905815 0.17744415 0.037612684 0.049956247 0.042829655 -0.1383405 -0.16166596
0.021277364 -0.047792047 -0.13315335 0.013481448 -0.022139726 -0.00028367847 -0.028305145 0.022707352
0.04835908 0.13851689 -0.007246706 0.12901853 -0.1711943 0.024011346 0.12104491 0.13362487
0.014557833 -0.10031319 -0.0053964285 -0.047851395 -0.023653595 0.065549955 0.059557844 0.01967624
-0.054239016 0.10957983 -0.069337316 -0.10011372 0.08254308 0.10499033 -0.053578086 0.1246046
0.06160993 -0.09662238 -0.06271589 0.051844954 0.039152887 0.07494272 0.03874596 -0.21610124
-0.070871376 -0.11332612 -0.12755063 0.06813198 -0.070348375 -0.052556712 0.10455774 0.09100816
-0.14285798 -0.016852552 0.016190654 0.17286289 -0.0025320223 -0.0014567482 -0.0319473 0.093276694
-0.08282724 -0.13073279 0.048044924 -0.03516586 -0.07040982 -0.07417979 -0.08073556 -0.05444806
-0.14711183 0.09995544 0.17537805 0.059310347 0.08332579 0.011617473 -0.14606741 -0.093412295
0.10820823 0.0075029433 -0.12835363 -0.047404375 -0.084517926 0.054861505 -0.054052506 -0.054243255
-0.011790153 -0.085854 -0.04253108 -0.08116993 0.060898963 0.1280579 -0.10356911 0.015581545
0.12954739 0.023688873 -0.13430539 0.00067047635 0.06348117 0.120553814 -0.0595307 -0.00500923
0.17108503 -0.047167365 -0.040895745 -0.13146324 -0.13499083 0.13832518 -0.015384246 0.07577384
-0.037064064 0.11762447 0.25968832 0.04364023 0.050279606 0.045431208 0.05567038 0.09183236
-0.10399481 0.06816629 0.12672196 -0.2066485 0.046362497 -0.10264502 0.003321936 -0.0987341
-0.06695474 0.1577589 0.14131404 -0.015616671 0.062370785 0.025118923 -0.117063664 0.025463155
0.02991682 0.06022946 0.019820575 -0.07081078 0.096338466 0.058058538 0.19188705 -0.1763865
-0.003346624 -0.04085739 0.12270769 0.13282457 -0.0017225838 0.069271065 0.0723084 0.045273714
-0.1048827 0.14877419 -0.15073277 0.16165169 -0.10183667 -0.14459223 -0.09994088 -0.08105381
0.19431017 0.1417475 0.07533656 0.1680724 -0.061124157 0.07431726 0.09962097 0.05663932
0.113711104 -0.041977145 -0.012680265 -0.22161399 -0.046559118 0.011749471 0.045634132 0.23893425
-0.18792993 -0.008585991 -0.04039767 -0.043830562 0.1684117 -0.027243868 0.08409118 -0.013370767
0.019971129 0.2592338 -0.0038301095 -0.14093457 -0.15543094 0.1734851 -0.21007892 -0.015817912
-0.10411468 -0.0022084268 -0.08509931 -0.099000186 0.0044998247 -0.0165344 0.044229936 -0.062693454
-0.08223507 -0.18742745 0.10344569 0.046358272 -0.12898317 0.021652317 -0.028393738 -0.005494299
00000000: 0847 783d 634e 6abd 0e0d bf3d 1098 5a3d
00000010: 2f6b 87bd fe9b aebd baa7 7e3c 05b4 8f3c
00000020: d6ed 7539 ad39 093d f788 d8bd a246 c13d
00000030: 7dbb 0ebe 7f2a b63d 604c 6dbe 7e75 323d
00000040: 0481 a1bd 13fb a9bc 0baf a33d 43d4 1bbd
00000050: 7d16 b73d f629 fc3d bbdf 7fbc ebd4 173d
00000060: 552f 94bc 41ce 953d 4f43 533c 5801 02be
00000070: 09f1 eb3d ca0d 073e 09df d8bd f0bd 863d
00000080: fb50 433d 01fd d53d ca30 3dbe d886 a3bd
00000090: 42eb fd3d c7c9 75bd 2818 75bb 43c6 15bd
000000a0: 9423 e93d 6960 753c c288 47bd 1960 88bd
000000b0: bcb3 8cbd 4919 a6bd f6f3 61be 9bd9 60bd
000000c0: 4e22 423b 5ee0 9a3c ebb3 353e c20f 1a3d
000000d0: ec9e 4c3d 266e 2f3d 22a9 0dbe c38b 25be
000000e0: de4d ae3c 98c1 43bd 5a59 08be 4be1 5c3c
000000f0: 5f5e b5bc aeba 94b9 31e0 e7bc c504 ba3c
00000100: 2c14 463d 5fd7 0d3e c775 edbb 6f1d 043e
00000110: 8f4d 2fbe 71b3 c43c 65e6 f73d f5d4 083e
00000120: fa83 6e3c 0071 cdbd 86d4 b0bb d3ff 43bd
00000130: 2fc5 c1bc 0e3f 863d edf2 733d 1130 a13c
00000140: bb29 5ebd 646b e03d b900 8ebd 6c08 cdbd
00000150: 590c a93d 2c05 d73d b274 5bbd b230 ff3d
00000160: b25a 7c3d f4e1 c5bd 3071 80bd 605b 543d
00000170: c75e 203d 927b 993d 15b4 1e3d a549 5dbe
00000180: 0325 91bd 8617 e8bd a29c 02be c888 8b3d
00000190: cf12 90bd b545 57bd 5e22 d63d 7c62 ba3d
000001a0: 5d49 12be 5d0e 8abc 43a2 843c f802 313e
000001b0: 49f0 25bb 5cf0 beba 2cdb 02bd da07 bf3d
000001c0: 54a1 a9bd d1de 05be c1ca 443d 140a 10bd
000001d0: 0633 90bd 93eb 97bd af58 a5bd ee04 5fbd
000001e0: 7ca4 16be 70b5 cc3d 4e96 333e 68ef 723d
000001f0: b6a6 aa3d 3757 3e3c b292 15be f24e bfbd
00000200: 479c dd3d 40db f53b 226f 03be 172b 42bd
00000210: bc17 adbd 75b6 603d 2966 5dbd 2d2e 5ebd
00000220: 7c2b 41bc 39d4 afbd 1235 2ebd 6c3c a6bd
00000230: 3171 793d 9c21 033e 0b1c d4bd bd49 7f3c
00000240: 12a8 043e 2b0f c23c 5a87 09be e8c2 2f3a
00000250: 6a02 823d ebe4 f63d 77d6 73bd 7824 a4bb
00000260: ea30 2f3e 9132 41bd 4c82 27bd 4d9e 06be
00000270: 093b 0abe 1ea5 0d3e 340e 7cbc 512f 9b3d
00000280: 7dd0 17bd 19e5 f03d def5 843e 19c0 323d
00000290: fdf1 4d3d 1316 3a3d a006 643d 9b12 bc3d
000002a0: 3bfb d4bd c59a 8b3d 67c3 013e aa9b 53be
000002b0: 9ae6 3d3d 8d37 d2bd d6b4 593b 1b35 cabd
000002c0: 911f 89bd 8d8b 213e a1b4 103e 11dd 7fbc
000002d0: 8278 7f3d 33c6 cd3c 13bf efbd 1b98 d03c
000002e0: 1e14 f53c 2bb3 763d c25e a23c 3e05 91bd
000002f0: 1a4d c53d cace 6d3d 0a7e 443e aa9e 34be
00000300: 0953 5bbb 145a 27bd 2b4e fb3d 2a03 083e
00000310: 52c8 e1ba fddd 8d3d 6d16 943d ee70 393d
00000320: becc d6bd 4358 183e b159 1abe 0588 253e
00000330: be8f d0bd fc0f 14be cead ccbd 8aff a5bd
00000340: 3ff9 463e 4226 113e 0e4a 9a3d 2c1b 2c3e
00000350: 535d 7abd a633 983d 1406 cc3d a2fe 673d
00000360: 5ee1 e83d 3af0 2bbd e3c0 4fbc c7ee 62be
00000370: c6b4 3ebd da80 403c dbea 3a3d 2eab 743e
00000380: b470 40be 42ac 0cbc 0778 25bd ad87 33bd
00000390: 1e74 2c3e 882e dfbc ff37 ac3d 1011 5bbc
000003a0: 7e9a a33c 4bba 843e 9302 7bbb 2751 10be
000003b0: 4a29 1fbe 14a6 313e ee1e 57be 9194 81bc
000003c0: 143a d5bd 41bb 10bb 8c48 aebd 9cc0 cabd
000003d0: 4473 933b 2673 87bc 732a 353d 6d65 80bd
000003e0: dc6a a8bd fbec 3fbe 55db d33d 2ce2 3d3d
000003f0: 2a14 04be 3360 b13c fc99 e8bc 8509 b4bb

network_body._body_endoder.seq_layers.2.bias f4 [128]
-0.025117308 0.012624516 0.018154543 -0.069883056 -0.010686367 -0.015235537 0.019793449 0.0020588578
0.0064586536 -0.025850147 -0.025688702 -0.0026978892 0.0014760634 0.01026729 -0.035907794 0.0032547237
0.0036377541 -0.01878527 -0.03142512 -0.0015113223 0.008298715 -0.017157486 0.012146014 0.021591596
0.018246608 -0.015393548 -0.009522307 0.0074452492 -0.03481737 -0.019938849 -0.0020503958 -0.023764312
-0.026710775 0.0041118544 0.007257213 0.002425431 -0.0047129653 -0.03338098 0.0012808512 0.02595725
0.004519175 0.026539914 -0.02067369 -0.028481852 -0.014232989 0.014137115 -0.0034106283 -0.026427006
0.0057789204 0.0045591723 -0.03402444 0.004704365 0.006534967 0.002231154 -0.009124388 0.0026305662
-0.018503593 -0.013868636 0.010212409 -0.031137867 0.003500094 0.029864436 -0.026879918 -0.024943965
0.0017790206 0.004117371 0.0012439808 0.008351852 -0.030679606 -0.016605409 -0.0054188715 -0.013695695
-0.014284489 -0.00972358 -0.026088417 -0.020225117 -0.02215089 -0.0010311351 -0.0041042496 0.020663515
0.004808595 0.013774918 0.00087319367 -0.0016139094 -0.021728149 0.014846589 0.018389976 -0.013682257
0.020278769 -0.018012758 -0.011599462 -0.009550789 0.015375305 0.023234138 0.008757985 0.0130446665
-0.0025188725 -0.013027676 0.015727637 -0.005430384 -0.03099644 0.008814936 -0.022162637 -0.017112756
0.0138162775 0.013039799 0.004714119 -0.03184079 -0.013951955 0.01342266 0.018647792 0.01155171
-0.036393415 -0.010101724 -0.05725378 0.0045758924 0.013251594 -0.014852754 -0.0010015271 -0.044334184
-0.0067333444 -0.01148672 0.0133983325 -0.011134217 -0.007852984 0.007702952 0.028768528 0.005843544
00000000: d0c2 cdbc 0fd7 4e3c d6b8 943c d91e 8fbd
00000010: df15 2fbc 799e 79bc df25 a23c e7ed 063b
00000020: 1da3 d33b b0c3 d3bc 1d71 d2bc 12cf 30bb
00000030: 7878 c13a 2338 283c 0d14 13bd 344d 553b
00000040: 6367 6e3b 91e3 99bc a0b7 00bd 9017 c6ba
00000050: 55f7 073c db8d 8cbc 1300 473c dce0 b03c
00000060: e979 953c 3835 7cbc 7303 1cbc 47f7 f33b
00000070: a99c 0ebd cc56 a3bc ef5f 06bb 60ad c2bc
00000080: 8ed0 dabc bcbc 863b eacd ed3b fbf3 1e3b
00000090: 386f 9abb 7fba 08bd 3ce2 a73a 4ca4 d43c
000000a0: 9615 943b 3c6a d93c df5b a9bc c652 e9bc
000000b0: 7c31 69bc 5c9f 673c d984 5fbb 737d d8bc
000000c0: 195d bd3b 1c65 953b 365d 0bbd 1327 9a3b
000000d0: 4723 d63b 8d38 123b 757e 15bc 9465 2c3b
000000e0: d994 97bc 4739 63bc f351 273c d714 ffbc
000000f0: d561 653b 43a6 f43c 4633 dcbc 4957 ccbc
00000100: 072e e93a 03eb 863b 120d a33a 35d6 083c
00000110: cc53 fbbc 1108 88bc ca90 b1bb e963 60bc
00000120: 7d09 6abc a74f 1fbc 60b7 d5bc 25af a5bc
00000130: c975 b5bc 2727 87ba f17c 86bb 8846 a93c
00000140: 6b91 9d3b 32b0 613c 09e7 643a d089 d3ba
00000150: 3bff b1bc 1c3f 733c 93a6 963c 8c2b 60bc
00000160: a91f a63c 7e8f 93bc ab0b 3ebc ea7a 1cbc
00000170: b4e8 7b3c 8555 be3c a77d 0f3c 4cb9 553c
00000180: ab13 25bb 0972 55bc 3fd7 803c 5df1 b1bb
00000190: 3fec fdbc 856c 103c 6b8e b5bc 0d30 8cbc
000001a0: ab5d 623c e2a4 553c e578 9a3b 7d6b 02bd
000001b0: be96 64bc b7ea 5b3c 41c3 983c 6243 3d3c
000001c0: 4311 15bd b481 25bc f182 6abd 5ef1 953b
000001d0: 371d 593c f758 73bc ac45 83ba c397 35bd
000001e0: 63a3 dcbb cc32 3cbc ae84 5b3c 4a6c 36bc
000001f0: cda9 00bc 0b69 fc3b faab eb3c 337b bf3b

action_model._continuous_distribution.log_sigma f4 [1, 2]
-0.11368065 -0.015743406
00000000: 67d1 e8bd 51f8 80bc

action_model._continuous_distribution.mu.weight f4 [2, 128]
-0.01519746 0.0724721 0.07393475 0.00047202135 -0.050349507 -0.0037417454 -0.06931335 -0.032037996
-0.011858427 -0.0005369555 -0.03662944 -0.033776402 -0.0027491448 -0.0025975453 -0.0017575334 0.046925843
0.026536653 -0.01510259 -0.010058643 -0.009285349 0.049548045 -0.0221009 0.047670648 -0.010505183
0.0010814975 -0.018239964 -0.038920797 -0.00030918396 -0.007896236 -0.029266851 -0.010097402 -0.009153655
-0.011448964 0.025821164 -0.00062379835 0.025504394 0.017872429 -0.0057731555 -0.0130509585 0.041233666
0.041460767 0.031575836 -0.008458638 0.0036273487 -0.03491727 0.056329668 0.0015143863 -0.015950203
-0.01669536 0.042286362 -0.008661402 0.033679616 0.0016403694 -0.013776915 -0.029924499 -0.009421899
0.0064624017 -0.015083111 0.007372681 -0.015698945 -0.028753255 0.058930654 -0.008599364 -0.01949949
-0.014156181 -0.063116804 0.019057596 -0.012719361 -0.006912563 0.019135857 -0.053245444 -0.039978337
-0.041215003 -0.016307577 0.0014511109 -0.012400412 -0.012379422 0.0037012782 0.012998708 0.0845112
-0.029939378 0.06227303 7.220455e-06 -0.030789321 -0.014433103 0.052474886 0.0897502 -0.033977732
0.07154603 -0.020232275 -0.06534711 -0.002904682 0.07184432 0.06413649 0.032071814 -0.017829427
0.01881701 -0.022791415 0.05642275 0.005197165 0.010399572 0.04228144 -0.033144183 -0.008173917
0.04714729 0.05640657 0.029322522 -0.004034904 -0.020053495 -0.031187063 0.06372234 0.0011616916
-0.008630053 -0.030003319 -0.0042138416 -0.014742662 0.035819784 -0.02937936 -0.03579514 -0.011194727
-0.0016915355 -0.033984836 0.06400511 0.013433727 -0.0049251947 0.03269722 0.060906626 0.027155856
0.003843924 -0.00714716 0.0020878855 4.7994894e-05 0.0043282374 -0.009966676 0.0108754 0.008424219
0.031757697 0.043906186 -0.01004533 0.035135627 0.032000896 0.029736921 0.024876408 0.017944915
0.02157316 -0.0035014849 0.022050956 -0.015879182 0.011116836 0.004869396 0.008256028 0.05449417
0.015036461 0.0027888694 0.007860214 0.04770529 -0.021997806 -0.0018652128 0.043806203 -0.02185141
0.0021490552 -0.0025765272 0.054155 0.01605708 -0.004575056 0.011784073 0.039173633 0.024401981
-0.0019009318 0.012393827 -0.0008498531 0.033595797 0.020400167 -0.004034949 0.035489667 0.00011524922
0.046205807 0.014377668 0.006902422 0.0013946812 0.021087455 -0.0015944379 -0.027658947 0.03988649
0.0032757192 0.014026611 0.0062684417 0.012628546 -0.051190294 -0.01591574 0.021275604 -0.029079083
0.029305674 0.015769841 -0.026984863 0.030812953 0.009321926 0.027362619 0.021242129 0.011395704
-0.014398669 0.0494366 0.010134444 -0.007819999 0.0010861778 -0.008591241 -0.02573344 0.015154549
0.02445076 0.008522318 -0.025699763 -0.02210859 -0.0020805276 -0.015039482 0.028175244 -0.01635776
0.020155398 0.0028098435 0.037163824 0.005364939 -0.00042647417 0.024051378 0.010105794 -0.00035988077
-0.023842506 0.019505756 -0.006509728 0.028614655 0.008374161 0.010147223 0.016407369 -0.000446102
-0.00988356 0.036919497 0.009151851 0.00041781744 0.025144175 -0.013508283 0.005849673 0.017097332
0.005304259 0.017311117 -0.00097156025 0.00835127 0.004888406 0.010569513 0.020125715 -0.0058228755
0.02526986 -0.022786591 0.0057874504 0.016900407 0.023206828 0.023258932 0.015109162 0.024312489
00000000: c4fe 78bc 416c 943d 1a6b 973d a279 f739
00000010: 493b 4ebd 1238 75bb 28f4 8dbd 463a 03bd
00000020: d949 42bc 79c2 0cba c008 16bd 2059 0abd
00000030: ff2a 34bb 943b 2abb 095d e6ba 5035 403d
00000040: 6563 d93c db70 77bc 02cd 24bc 9421 18bc
00000050: e4f2 4a3d f20c b5bc 4c42 433d ee1d 2cbc
00000060: 09c1 8d3a fa6b 95bc 6a6b 1fbd f819 a2b9
00000070: 375f 01bc 09c1 efbc 936f 25bc 36f9 15bc
00000080: 6f94 3bbc e886 d33c 6686 23ba 97ee d03c
00000090: 3369 923c bd2c bdbb b0d3 55bc a2e4 283d
000000a0: c4d2 293d aa55 013d 1996 0abc d0b8 6d3b
000000b0: 6905 0fbd f0b9 663d 5f7e c63a 00aa 82bc
000000c0: b5c4 88bc 7734 2d3d 8ee8 0dbc a3f3 093d
000000d0: aa01 d73a 92b8 61bc 3924 f5bc 4f5e 1abc
000000e0: 8ec2 d33b 271f 77bc 8896 f13b 139b 80bc
000000f0: f28b ebbc 4561 713d 59e4 0cbc 65bd 9fbc
00000100: 54ef 67bc 6243 81bd ad1e 9c3c de64 50bc
00000110: c882 e2bb cdc2 9c3c e517 5abd 53c0 23bd
00000120: 10d1 28bd 7897 85bc 3433 be3a 192b 4bbc
00000130: 0fd3 4abc 2591 723b 88f8 543c 3514 ad3d
00000140: 6d43 f5bc 0112 7f3d 3c47 f236 e339 fcbc
00000150: d278 6cbc e8ef 563d f4ce b73d 3c2c 0bbd
00000160: ba86 923d 28be a5bc b5d4 85bd 7a5c 3ebb
00000170: 1d23 933d fe59 833d bc5d 033d 050f 92bc
00000180: 2126 9a3c 10b5 babc 8b1b 673d fb4c aa3b
00000190: f762 2a3c 4e2f 2d3d 32c2 07bd e5eb 05bc
000001a0: 841d 413d 930a 673d c935 f03c 3a37 84bb
000001b0: 3a47 a4bc 037c ffbc dc80 823d e743 983a
000001c0: 1165 0dbc 85c9 f5bc 4414 8abb 358b 71bc
000001d0: c4b7 123d fcac f0bc ed9d 12bd 176a 37bc
000001e0: 83b6 ddba af33 0bbd 1c15 833d 2319 5c3c
000001f0: 8763 a1bb 85ed 053d 3a79 793d f575 de3c
00000200: 58ea 7b3b b932 eabb e8d4 083b 204e 4938
00000210: e3d3 8d3b 454b 23bc bc2e 323c bc05 0a3c
00000220: 5c14 023d f9d6 333d 2b95 24bc 60ea 0f3d
00000230: 5f13 033d d89a f33c 9cc9 cb3c 3701 933c
00000240: 32ba b03c 2b79 65bb 35a4 b43c 0f15 82bc
00000250: 6423 363c 748f 9f3b 4b44 073c 4735 5f3d
00000260: 7d5b 763c 77c5 363b 21c8 003c 9f66 433d
00000270: be34 b4bc 287a f4ba 226e 333d ba01 b3bc
00000280: 2ad7 0c3b f4da 28bb a2d1 5d3d 238a 833c
00000290: 5aea 95bb fc11 413c 8874 203d aae6 c73c
000002a0: b028 f9ba 7a0f 4b3c adc8 5eba bf9b 093d
000002b0: 401e a73c 9b37 84bb 9d5d 113d f4b1 f138
000002c0: 4d42 3d3d 4f90 6b3c b62d e23b bccd b63a
000002d0: 99bf ac3c 75fc d0ba 0495 e2bc 0460 233d
000002e0: 73ad 563b dfcf 653c 8067 cd3b f6e7 4e3c
000002f0: eaac 51bd ba61 82bc 2d4a ae3c 4237 eebc
00000300: 7412 f03c c12f 813c 5c0f ddbc 726b fc3c
00000310: feba 183c 9227 e03c f903 ae3c 0cb5 3a3c
00000320: 65e8 6bbc 087e 4a3d f00a 263c 741f 00bc
00000330: 145e 8e3a 47c2 0cbc efce d2bc c94a 783c
00000340: f64c c83c 31a1 0b3c 4f88 d2bc 131d b5bc
00000350: 7659 08bb 2968 76bc c5cf e63c b600 86bc
00000360: ef1c a53c 5a25 383b 1839 183d 5fcc af3b
00000370: 6598 dfb9 6507 c53c c692 253c 61ae bcb9
00000380: 5c51 c3bc 89ca 9f3c 8e4f d5bb 4869 ea3c
00000390: c733 093c 8a40 263c bf68 863c cce2 e9b9
000003a0: a8ee 21bc e638 173d a5f1 153c 820e db39
000003b0: 28fb cd3c d851 5dbc 9dae bf3b b40f 8c3c
000003c0: 59cf ad3b 0bd0 8d3c 4eb0 7eba c4d3 083c
000003d0: ec2e a03b c02b 2d3c afde a43c d2cd bebb
000003e0: bd02 cf3c f2aa babc a7a4 bd3b b972 8a3c
000003f0: 3f1c be3c 8489 be3c 6b8c 773c fc2a c73c

action_model._continuous_distribution.mu.bias f4 [2]
0.025299957 -0.0018565413
00000000: db41 cf3c 3057 f3ba

action_model._discrete_distribution.branches.0.weight f4 [1, 128]
0.009296159 -0.002459139 0.010565308 -0.0075198794 -0.002488168 0.0052253506 0.016852766 0.017851034
-0.018845554 0.01562379 -0.0074701975 -0.0016702589 -0.0059551117 -0.007037081 0.007643876 0.010562917
0.0029338028 0.0028740237 -0.0073456275 0.0017799505 0.012720249 -0.008840765 -0.012034712 -0.011507421
0.00197633 -0.002671558 0.00080519496 -0.004411203 0.010496462 -0.0021342828 -0.018910741 0.011486918
-0.0027041563 0.011731129 -0.0011515248 0.0050028493 -0.0037833054 -0.009480768 -0.0011940663 -0.0011051758
-0.009600231 0.0044623464 -0.004667292 0.0041661947 -0.011216736 0.005358431 0.011082358 0.0020652094
-0.0012086974 -0.0035560408 -0.00045447616 -0.0016858438 -0.0051843408 -0.0010149758 -0.008182104 0.0073224963
0.008280475 0.0010630633 -0.001550035 0.0093985135 0.008910817 0.0057485434 0.0057271984 -0.009124207
0.0058300584 0.009301032 -0.013778226 0.0037140993 0.0032563955 -0.003250885 0.0023025288 0.004640394
-0.007152413 0.0053088474 0.006313001 0.011132496 -0.009060745 0.00974719 -0.003157355 0.005855678
0.0064277537 -0.00010515959 0.00025479725 -0.0023177885 -0.01003167 -0.00043299512 -0.011008503 -0.008883535
-0.0017498089 -0.003970399 -0.0073662684 -0.010022344 -0.008417553 0.0025894423 0.0024258879 -0.0039779944
0.0033047707 -0.011900328 -0.0059621166 -0.0067911157 -0.0042411643 -0.012816754 -0.0008879617 0.012785128
0.00088335044 -0.0027040492 -0.009159506 -0.0040529217 -0.0020382272 -0.016432296 0.0111985 0.00047293707
0.0023165573 0.012045309 0.009183764 -0.0028890101 -0.007953068 -0.01297539 0.0029372731 -0.0012570573
-0.010529778 -0.013276771 0.0018208191 -0.00818619 0.0032899738 0.0038274524 0.0010115638 -0.0005712161
00000000: eb4e 183c 8229 21bb 1d1a 2d3c 5269 f6bb
00000010: 8810 23bb 6b39 ab3b d00e 8a3c 553c 923c
00000020: fe61 9abc edfa 7f3c 8fc8 f4bb 97ec daba
00000030: 1923 c3bb 5097 e6bb 7b79 fa3b 1610 2d3c
00000040: 0b45 403b 1e5a 3c3b 97b3 f0bb 3a4d e93a
00000050: 9768 503c dbd8 10bc 3e2d 45bc 9f89 3cbc
00000060: 5185 013b 4e15 2fbb b813 533a da8b 90bb
00000070: 5af9 2b3c 53df 0bbb b3ea 9abc a033 3c3c
00000080: 3738 31bb ec33 403c c3ee 96ba f1ee a33b
00000090: 55f1 77bb 3955 1bbc 3782 9cba 8cdb 90ba
000000a0: 4a4a 1dbc e038 923b 15f0 98bb 9384 883b
000000b0: 67c6 37bc c795 af3b c792 353c 7758 073b
000000c0: 286d 9eba 770c 69bb c246 eeb9 88f7 dcba
000000d0: 67e1 a9bb f008 85ba 3b0e 06bc 8df1 ef3b
000000e0: d4aa 073c 7c56 8b3a 8b2a cbba 39fc 193c
000000f0: adfe 113c 475e bc3b 39ab bb3b b37d 15bc
00000100: 130a bf3b 5b63 183c 12be 61bc 3f68 733b
00000110: 4069 553b cd0c 55bb 06e6 163b 720e 983b
00000120: ca5e eabb d7f5 ad3b 4add ce3b 1365 363c
00000130: 8573 14bc aeb2 1f3c a0eb 4ebb fde0 bf3b
00000140: e89f d23b 2089 dcb8 4f96 8539 0ae6 17bb
00000150: e05b 24bc 9f03 e3b9 025d 34bc 3f8c 11bc
00000160: d859 e5ba 1f1a 82bb bd60 f1bb c234 24bc
00000170: c7e9 09bc a2b3 293b a5fb 1e3b d659 82bb
00000180: da94 583b 98f9 42bc dc5d c3bb 0288 debb
00000190: 77f9 8abb 5dfd 51bc 1ac6 68ba b778 513c
000001a0: a590 673a 6b36 31bb c111 16bc 5fce 84bb
000001b0: c793 05bb 069d 86bc ea79 373c 8af4 f739
000001c0: 62d1 173b b059 453c 8077 163c 8c55 3dbb
000001d0: 964d 02bc bb96 54bc 447f 403b d8c3 a4ba
000001e0: 1785 2cbc d086 59bc 8da8 ee3a 5f1f 06bc
000001f0: 9a9c 573b ffd5 7a3b 7396 843a aabd 15ba

exp_avg f4 [128, 109]
-6e-45 6.426431e-05 0.0 2.2830078e-05 4.088982e-05 3.0361261e-05 6.5159077e-07 0.0
5.6081513e-05 5.0884264e-05 0.0 1.4396662e-05 9.0627225e-05 -1.7929495e-05 -7.3192787e-06 -2.740381e-05
5.0816e-05 0.0 6.368218e-05 4.3763703e-05 0.0 -1.941069e-05 6.975432e-05 3.6750745e-05
3.3907185e-05 -1.3194378e-05 3.343429e-05 0.0 6.6854474e-05 5.314084e-05 0.0 7.1339655e-06
9.011182e-05 -1.0151412e-05 -1.2574725e-05 8.798684e-05 -8.932614e-07 0.0 8.03778e-10 5.203907e-05
0.0 4.540453e-05 0.00010281764 -6.112779e-05 -5.063619e-05 7.796995e-05 9.123644e-06 0.0
8.03778e-10 4.1506828e-05 0.0 5.709189e-07 8.740093e-05 -8.7745866e-07 -3.328245e-06 5.488644e-05
3.220715e-05 0.0 8.03778e-10 3.662489e-05 0.0 7.15052e-07 3.575882e-05 5.0620518e-05
3.4886732e-05 8.766587e-05 -5.7228425e-07 0.0 8.03778e-10 3.0823623e-05 0.0 1.1736403e-05
8.020029e-05 -4.8423194e-06 4.382192e-06 6.328692e-05 2.3806664e-05 0.0 8.03778e-10 2.7819753e-05
0.0 -2.9727315e-05 0.00012166483 -4.843155e-06 4.28991e-06 7.105101e-05 1.6042575e-05 0.0
8.03778e-10 2.6703186e-05 0.0 -2.5682008e-05 0.00011348007 -4.843155e-06 2.9151815e-06 8.8747875e-05
-1.6542987e-06 0.0 8.03778e-10 3.3716573e-05 0.0 -3.658345e-05 0.00012438152 -4.843155e-06
4.071874e-06 0.0 0.00044805673 1.6611937e-10 0.0020507344 -6e-45 -1.928351e-05 0.0
-0.0012773236 -0.0011787027 -0.00028675396 3.349186e-05 0.0 -0.0010433451 -0.0010417023 0.0
-9.0091715e-05 -0.0010216802 -0.00018483523 -0.0002851947 -0.0007799545 -0.0003809057 0.0 -0.00013574697
-0.00073036057 0.0 -0.00031131398 -0.00073639804 -0.0002488952 -0.0004075975 -0.00019316492 -0.0005551963
0.0 -0.0005482462 -0.00074973 0.0 -0.00015777064 -0.001125179 -1.3657729e-05 -0.00018696049
-0.0012939172 -2.644243e-06 0.0 -4.588632e-08 -0.0007439017 0.0 -3.5487994e-06 -0.00081884867
-0.00047420972 -0.00048574916 -0.0013978598 0.00010129835 0.0 -4.588632e-08 -0.0006144007 0.0
0.00040370927 -0.0010185278 -0.00068178866 -0.00067363307 -0.0011545405 -0.00014202092 0.0 -4.588632e-08
-0.0005352306 0.0 0.00040442374 -0.0013122552 -0.0003887758 -0.00047110734 -0.0012902411 -6.3203015e-06
0.0 -4.588632e-08 -0.00044447905 0.0 0.00044652433 -0.0017015872 -4.1544296e-05 -0.00027119537
-0.0009992544 -0.00029730698 0.0 -4.588632e-08 -0.0004086224 0.0 0.00036768382 -0.0016227928
-4.1498246e-05 -0.00025369722 -0.0011692483 -0.0001273132 0.0 -4.588632e-08 -0.0004232771 0.0
0.0003841908 -0.001575702 -4.1498246e-05 -0.00023155446 -0.0012550706 -4.149081e-05 0.0 -4.588632e-08
-0.00043427947 0.0 0.0004173175 -0.0016088288 -4.1498246e-05 -0.00023012591 0.0 -0.005933357
-2.4730824e-09 -0.030386327 -6e-45 7.36961e-05 0.0 0.0010207288 0.0011751644 -0.00011151578
0.00048030852 0.0 0.0007256326 0.0010883341 0.0 0.00017356747 -0.0002571645 0.001178022
0.0011316828 0.00052284414 -0.00016807715 0.0 0.00073965813 0.0012241994 0.0 0.0004269436
0.0006180066 4.9474766e-05 0.00025723773 0.0008866803 -0.00023943637 0.0 0.00044718123 0.0011881541
0.0 -0.00075930095 0.0013869313 0.00046679474 0.0006600377 0.0015894503 -0.0004950394 0.0
00000000: 0400 0080 a4c5 8638 0000 0000 3883 bf37
00000010: 1c81 2b38 50b0 fe37 fae8 2e35 0000 0000
00000020: 1139 6b38 906c 5538 0000 0000 3189 7137
00000030: 1f0f be38 4c67 96b7 2098 f5b6 3ce1 e5b7
00000040: 4423 5538 0000 0000 1c8d 8538 eb8e 3738
00000050: 0000 0000 24d4 a2b7 1149 9238 d024 1a38
00000060: 9037 0e38 6c5d 5db7 cc3b 0c38 0000 0000
00000070: 3934 8c38 8be3 5e38 0000 0000 4c60 ef36
00000080: 6afa bc38 fc4f 2ab7 08f8 52b7 9385 b838
00000090: 75c8 6fb5 0000 0000 d9f0 5c30 8744 5a38
000000a0: 0000 0000 be70 3e38 cd9f d738 bb31 80b8
000000b0: 3262 54b8 cc83 a338 c111 1937 0000 0000
000000c0: d9f0 5c30 9e17 2e38 0000 0000 4041 1935
000000d0: 044b b738 808a 6bb5 d05a 5fb6 de35 6638
000000e0: 2a16 0738 0000 0000 d9f0 5c30 ad9d 1938
000000f0: 0000 0000 00f2 3f35 befb 1538 5e51 5438
00000100: 5853 1238 41d9 b738 139f 19b5 0000 0000
00000110: d9f0 5c30 9d48 0138 0000 0000 78e7 4437
00000120: 3431 a838 357b a2b6 be0a 9336 e8b8 8438
00000130: 6cb4 c737 0000 0000 d9f0 5c30 775e e937
00000140: 0000 0000 ec5e f9b7 4f26 ff38 6282 a2b6
00000150: 0cf2 8f36 3801 9538 2b93 8637 0000 0000
00000160: d9f0 5c30 a800 e037 0000 0000 b16f d7b7
00000170: 26fc ed38 6282 a2b6 70a2 4336 271e ba38
00000180: 4509 deb5 0000 0000 d9f0 5c30 e56a 0d38
00000190: 0000 0000 2e71 19b8 696c 0239 6282 a2b6
000001a0: 22a1 8836 0000 0000 28e9 ea39 72a6 362f
000001b0: 9d65 063b 0400 0080 06c3 a1b7 0000 0000
000001c0: de6b a7ba b37e 9aba 7757 96b9 9c79 0c38
000001d0: 0000 0000 dac0 88ba bb89 88ba 0000 0000
000001e0: 9fef bcb8 e6e9 85ba 54d0 41b9 2f86 95b9
000001f0: dc75 4cba 4cb4 c7b9 0000 0000 4d57 0eb9
00000200: ab75 3fba 0000 0000 db37 a3b9 d60a 41ba
00000210: 267e 82b9 cfb2 d5b9 508c 4ab9 988a 11ba
00000220: 0000 0000 2eb8 0fba 8789 44ba 0000 0000
00000230: 3c6f 25b9 be7a 93ba 8023 65b7 d30a 44b9
00000240: a898 a9ba c073 31b6 0000 0000 8b14 45b3
00000250: 6602 43ba 0000 0000 e927 6eb6 01a8 56ba
00000260: 5a9f f8b9 26ac feb9 6438 b7ba 2370 d438
00000270: 0000 0000 8b14 45b3 bc0f 21ba 0000 0000
00000280: f1a8 d339 1f80 85ba 10ba 32ba c096 30ba
00000290: f353 97ba 73eb 14b9 0000 0000 8b14 45b3
000002a0: b84e 0cba 0000 0000 d608 d439 faff abba
000002b0: 9bd4 cbb9 f5fe f6b9 4f1d a9ba fa12 d4b6
000002c0: 0000 0000 8b14 45b3 f808 e9b9 0000 0000
000002d0: 7b1b ea39 cb07 dfba d93f 2eb8 3a2f 8eb9
000002e0: 6af9 82ba dedf 9bb9 0000 0000 8b14 45b3
000002f0: 5f3c d6b9 0000 0000 b0c5 c039 e4b3 d4ba
00000300: 670e 2eb8 aa02 85b9 7641 99ba 607f 05b9
00000310: 0000 0000 8b14 45b3 4aeb ddb9 0000 0000
00000320: 376d c939 c987 ceba 670e 2eb8 6dcd 72b9
00000330: 2e81 a4ba 6b06 2eb8 0000 0000 8b14 45b3
00000340: 01b0 e3b9 0000 0000 68cb da39 56df d2ba
00000350: 670e 2eb8 f44d 71b9 0000 0000 9b6c c2bb
00000360: edf2 29b1 bfec f8bc 0400 0080 4b8d 9a38
00000370: 0000 0000 fac9 853a f907 9a3a 94dd e9b8
00000380: ebd1 fb39 0000 0000 6138 3e3a 6fa6 8e3a
00000390: 0000 0000 aaff 3539 09d4 86b9 dc67 9a3a
000003a0: f954 943a 7a0f 093a de3d 30b9 0000 0000
000003b0: 9ee5 413a 5175 a03a 0000 0000 66d7 df39
000003c0: b901 223a 2083 4f38 dddd 8639 1c70 683a
000003d0: 3611 7bb9 0000 0000 a673 ea39 d6bb 9b3a
000003e0: 0000 0000 d30b 47ba b1c9 b53a 21bc f439
000003f0: 6106 2d3a 1a55 d03a 88c5 01ba 0000 0000

exp_avg_sq f4 [128, 109]
1.8103534e-11 8.7004686e-08 0.0 2.1123788e-07 2.2641997e-07 2.8854359e-08 8.052238e-08 0.0
1.8838101e-07 2.1793933e-07 0.0 9.632986e-08 5.1901225e-08 1.4711591e-07 1.6569847e-07 1.0974815e-07
6.0063066e-08 0.0 1.3344113e-07 1.9245141e-07 0.0 4.7425807e-08 6.022874e-08 1.8740316e-07
1.9510846e-07 1.8965825e-07 5.25077e-08 0.0 6.3390665e-08 1.4073264e-07 0.0 3.850715e-08
7.537244e-08 1.8178181e-07 1.866444e-07 2.652032e-07 3.5046643e-08 0.0 1.2623795e-09 9.2852716e-08
0.0 2.5720542e-08 1.2191742e-07 1.4618706e-07 1.5179423e-07 2.6337784e-07 3.5702037e-08 0.0
1.2623795e-09 6.375542e-08 0.0 2.09374e-08 1.7105208e-07 1.01472764e-07 1.09185315e-07 2.6435006e-07
3.2988023e-08 0.0 1.2623795e-09 4.9891067e-08 0.0 1.6270983e-08 2.1748906e-07 6.0952516e-08
7.142034e-08 2.671957e-07 2.7901192e-08 0.0 1.2643067e-09 4.1434358e-08 0.0 1.35224205e-08
2.561385e-07 3.089804e-08 4.4668898e-08 2.681438e-07 2.8064235e-08 0.0 1.2643078e-09 3.6529162e-08
0.0 1.4062196e-08 2.6087386e-07 2.6907204e-08 3.9843208e-08 2.7883252e-07 1.8664432e-08 0.0
1.2643078e-09 3.516257e-08 0.0 8.3124005e-09 2.655416e-07 2.6907204e-08 3.9089574e-08 2.8519733e-07
9.671406e-09 0.0 1.2643078e-09 3.4777926e-08 0.0 5.30173e-09 2.6699678e-07 2.6907204e-08
3.9014342e-08 0.0 6.2587296e-06 1.0863345e-18 0.00016281474 5.5268284e-10 1.4874795e-06 0.0
8.059963e-06 8.529159e-06 9.539334e-07 1.9075121e-06 0.0 6.5905915e-06 7.6417855e-06 0.0
1.220839e-06 1.4661138e-06 7.0178858e-06 7.3473857e-06 2.9051005e-06 1.8543487e-06 0.0 4.719146e-06
6.625883e-06 0.0 8.3585735e-07 2.8394302e-06 5.7842262e-06 6.0228617e-06 6.7382557e-06 1.6989909e-06
0.0 1.3544603e-06 4.779088e-06 0.0 7.0988625e-07 3.947587e-06 5.0402746e-06 5.1719408e-06
7.624576e-06 1.5030082e-06 0.0 2.6181928e-08 2.969395e-06 0.0 5.729063e-07 5.0088997e-06
3.7985365e-06 3.9864235e-06 7.954658e-06 1.4940367e-06 0.0 2.618193e-08 2.1068706e-06 0.0
5.3857775e-07 6.816643e-06 2.1462656e-06 2.4388758e-06 7.979e-06 1.3013232e-06 0.0 2.618193e-08
1.6368388e-06 0.0 3.823459e-07 7.848296e-06 1.4782786e-06 1.743655e-06 8.594776e-06 8.7340635e-07
0.0 2.6190943e-08 1.4199132e-06 0.0 3.4649344e-07 8.888119e-06 5.064682e-07 8.89537e-07
8.764486e-06 8.360596e-07 0.0 2.6191824e-08 1.2588471e-06 0.0 4.0740372e-07 8.951571e-06
4.1373517e-07 7.6715787e-07 9.022932e-06 5.3522206e-07 0.0 2.6191824e-08 1.1914073e-06 0.0
3.9582721e-07 8.974879e-06 4.1373517e-07 7.3657077e-07 9.268776e-06 3.026663e-07 0.0 2.6191824e-08
1.1725692e-06 0.0 3.7242762e-07 8.995525e-06 4.1373517e-07 7.307445e-07 0.0 0.0002120178
3.519201e-17 0.005281042 9.408979e-10 1.3003412e-05 0.0 4.9143033e-05 5.3593958e-05 2.2758068e-06
1.3215014e-05 0.0 4.607559e-05 5.2682128e-05 0.0 7.979983e-06 1.2826121e-05 4.031422e-05
4.2338834e-05 8.684569e-06 9.567289e-06 0.0 4.358558e-05 5.2585434e-05 0.0 4.011679e-06
2.474608e-05 3.015555e-05 3.1692223e-05 4.0853283e-05 9.306138e-06 0.0 1.31025645e-05 4.010793e-05
0.0 3.462617e-06 3.1693107e-05 2.2666542e-05 2.3865117e-05 5.738453e-05 6.3341827e-06 0.0
00000000: 893d 9f2d 55d7 ba33 0000 0000 a0d0 6234
00000010: d91d 7334 68db f732 a6eb ac33 0000 0000
00000020: c745 4a34 b502 6a34 0000 0000 e7dd ce33
00000030: 00ea 5e33 eaf6 1d34 d9ea 3134 afae eb33
00000040: 05fc 8033 0000 0000 0548 0f34 a4a4 4e34
00000050: 0000 0000 3ab1 4b33 1a57 8133 fd38 4934
00000060: 017f 5134 dda4 4b34 d484 6133 0000 0000
00000070: 6321 8833 4b1c 1734 0000 0000 0f63 2533
00000080: 70dc a133 ce2f 4334 6c68 4834 4061 8e34
00000090: 3186 1633 0000 0000 0880 ad30 5266 c733
000000a0: 0000 0000 12f0 dc32 68e8 0234 98f7 1c34
000000b0: e1fc 2234 6066 8d34 ce56 1933 0000 0000
000000c0: 0880 ad30 eae9 8833 0000 0000 d4d9 b332
000000d0: 70aa 3734 3ee9 d933 4379 ea33 ffeb 8d34
000000e0: b7ae 0d33 0000 0000 0880 ad30 cf47 5633
000000f0: 0000 0000 45c4 8b32 f086 6934 00e5 8233
00000100: bf5f 9933 1973 8f34 5fab ef32 0000 0000
00000110: d6c3 ad30 8ff5 3133 0000 0000 3c50 6832
00000120: 6883 8934 c1b4 0433 f9d9 3f33 67f5 8f34
00000130: e811 f132 0000 0000 e0c3 ad30 3de4 1c33
00000140: 0000 0000 3196 7132 3b0e 8c34 9121 e732
00000150: 1220 2b33 73b2 9534 8553 a032 0000 0000
00000160: e0c3 ad30 a805 1733 0000 0000 53ce 0e32
00000170: c28f 8e34 9121 e732 71e3 2733 391d 9934
00000180: 4b27 2632 0000 0000 e0c3 ad30 bc5e 1533
00000190: 0000 0000 832a b631 c257 8f34 9121 e732
000001a0: b990 2733 0000 0000 1402 d236 8f50 a021
000001b0: 40b9 2a39 99eb 1730 68a5 c735 0000 0000
000001c0: 4739 0737 7518 0f37 e708 8035 cf02 0036
000001d0: 0000 0000 c024 dd36 3835 0037 0000 0000
000001e0: b5db a335 49c7 c435 2e7b eb36 9089 f636
000001f0: 3ff5 4236 f0e2 f835 0000 0000 2859 9e36
00000200: e753 de36 0000 0000 ae5f 6035 0a8d 3e36
00000210: 2016 c236 fd17 ca36 2d19 e236 e208 e435
00000220: 0000 0000 e7ca b535 0e5c a036 0000 0000
00000230: 038f 3e35 8475 8436 a11f a936 a28a ad36
00000240: 9cd6 ff36 f8ba c935 0000 0000 abe6 e032
00000250: d145 4736 0000 0000 d2c9 1935 1f12 a836
00000260: 5cea 7e36 1ec3 8536 ff74 0537 b686 c835
00000270: 0000 0000 ace6 e032 c363 0d36 0000 0000
00000280: c892 1035 84ba e436 9008 1036 91ab 2336
00000290: 8bdd 0537 20a9 ae35 0000 0000 ace6 e032
000002a0: 5ab1 db35 0000 0000 3845 cd34 2dac 0337
000002b0: 4469 c635 8807 ea35 4832 1037 0774 6a35
000002c0: 0000 0000 7efa e032 d993 be35 0000 0000
000002d0: b205 ba34 2e1e 1537 3bf4 0735 84c8 6e35
000002e0: 2e0b 1337 946d 6035 0000 0000 6efc e032
000002f0: a8f5 a835 0000 0000 24b9 da34 b42e 1637
00000300: 541f de34 b0ee 4d35 3361 1737 2eac 0f35
00000310: 0000 0000 6efc e032 71e8 9f35 0000 0000
00000320: 1482 d434 d092 1637 541f de34 c2b8 4535
00000330: 1781 1b37 247e a234 0000 0000 6efc e032
00000340: 2c61 9d35 0000 0000 10f2 c734 7ceb 1637
00000350: 541f de34 6128 4435 0000 0000 1851 5e39
00000360: 644b 2224 970c ad3b e750 8130 3b29 5a37
00000370: 0000 0000 ee1e 4e38 13ca 6038 10ba 1836
00000380: 0eb6 5d37 0000 0000 4a41 4138 01f7 5c38
00000390: 0000 0000 c4e1 0537 c52f 5737 1017 2938
000003a0: fa94 3138 f1b3 1137 3283 2037 0000 0000
000003b0: a9cf 3638 2e8f 5c38 0000 0000 0f9c 8636
000003c0: cd95 cf37 8df6 fc37 44ed 0438 e159 2b38
000003d0: 8f21 1c37 0000 0000 16d3 5b37 9039 2838
000003e0: 0000 0000 4f5f 6836 37ee 0438 0724 be37
000003f0: f331 c837 2bb0 7038 378a d436 0000 0000

exp_avg f4 [128]
8.709439e-05 -0.0012966074 0.0010944251 0.00247312 -1.987177e-05 -5.7883903e-05 -0.0010740907 0.00088466925
-0.00046911393 0.0015425872 -3.6485753e-06 -0.000961913 0.000118670345 0.00010837949 -7.826822e-05 0.00032898562
0.00018067064 -3.5272853e-05 0.001889989 -1.9562007e-05 0.00018476718 1.9848469e-05 0.0013482257 -0.001257975
-0.0027259444 2.4197197e-06 0.0017068207 0.0016336218 8.0388214e-05 -0.0011176692 0.0005967289 -0.0015485674
0.0012618271 0.0004556551 -0.0008336192 -1.79552e-05 -0.0015227688 -0.00036647363 3.527536e-05 -0.0007094211
-4.4578315e-05 -0.0005071996 -2.7793507e-05 -0.0011017206 0.00023986859 0.0007502063 0.0006025962 -0.00035091338
-2.2523054e-05 -0.0018583313 -0.00082789134 2.1042375e-05 -0.00025633947 0.00026058394 0.0008850745 3.44956e-05
-0.0018129685 7.447618e-05 -1.3215253e-05 0.00021134883 9.15224e-06 0.00033163984 -0.00022050948 -8.925618e-05
1.3411865e-05 3.4712633e-05 -0.00082357397 -0.0006194393 -0.00035629768 -0.0011168957 -0.0011150446 -0.0007900827
-0.00018524722 -0.0010044284 -0.0008863645 4.5393044e-05 -4.6600297e-05 0.0007599284 -4.631763e-05 -0.00038922997
-0.0017107836 8.643599e-05 0.00022310938 -0.0010066456 0.0002205291 0.00012554246 -0.0013746874 -0.0018972117
-0.0014445184 0.0011292517 -0.000107792 -2.829816e-06 -0.00056340836 -0.001589162 -0.00030774515 -0.0027175276
-5.758209e-05 -8.611328e-05 -7.180569e-05 -0.0015839733 -0.002331812 0.0018043271 2.9822353e-05 0.0017087174
-0.0018706258 -0.0008167316 -0.0009915663 1.4709894e-07 -8.564635e-06 -4.4195447e-05 0.0012939044 0.0009179003
-0.0007440566 -0.00015053194 0.0011018852 -0.00017738192 -0.00047480097 1.684242e-05 -0.0012291694 4.7111404e-05
0.0021053457 0.003881921 -0.00018758117 -0.001303649 0.0025453258 -0.00026964617 3.2569787e-05 -0.0011674464
00000000: 72a6 b638 edf2 a9ba d072 8f3a 1214 223b
00000010: 4db2 a6b7 5ec8 72b8 81c8 8cba 26e9 673a
00000020: 68f3 f5b9 a330 ca3a 0cda 74b6 e428 7cba
00000030: a8de f838 cc49 e338 ee23 a4b8 b47b ac39
00000040: 6872 3d39 f0f1 13b8 82b9 f73a 1719 a4b7
00000050: 10be 4139 4380 a637 f3b6 b03a a3e2 a4ba
00000060: c2a5 32bb 7862 2236 66b7 df3a 401f d63a
00000070: 1896 a838 c17e 92ba cc6d 1c3a 4df9 caba
00000080: e463 a53a fee4 ee39 3d87 5aba 809e 96b7
00000090: a497 c7ba 4223 c0b9 a1f4 1338 72f8 39ba
000000a0: 9af9 3ab8 97f5 04ba 1a26 e9b7 9c67 90ba
000000b0: 3c85 7b39 7ea9 443a 8cf7 1d3a ccfa b7b9
000000c0: e4ef bcb7 4093 f3ba d906 59ba 2884 b037
000000d0: 4d65 86b9 fc9e 8839 5804 683a 5eaf 1038
000000e0: 21a1 edba 1830 9c38 14b7 5db7 859d 5d39
000000f0: 928c 1937 f2df ad39 9038 67b9 0c2f bbb8
00000100: 8603 6137 6898 1138 1de5 57ba de61 22ba
00000110: 77cd bab9 cd64 92ba b026 92ba 8d1d 4fba
00000120: ec3e 42b9 06a7 83ba ea5a 68ba 6964 3e38
00000130: b074 43b8 ef35 473a 2d45 42b8 9011 ccb9
00000140: 5f3c e0ba f844 b538 78f2 6939 6cf1 83ba
00000150: d43d 6739 0ca4 0339 db2e b4ba dcab f8ba
00000160: ff55 bdba 6603 943a 640e e2b8 dee7 3db6
00000170: b2b1 13ba 6e4b d0ba db58 a1b9 8c18 32bb
00000180: 4c84 71b8 b797 b4b8 6396 96b8 539d cfba
00000190: 50d1 18bb 2c7f ec3a 042b fa37 0bf7 df3a
000001a0: c92f f5ba ee19 56ba 72f7 81ba 40f2 1d34
000001b0: d4b0 0fb7 805e 39b8 3a98 a93a 3f9f 703a
000001c0: cb0c 43ba 1cd8 1db9 226d 903a 99ff 39b9
000001d0: b5ee f8b9 d248 8d37 151c a1ba 7c99 4538
000001e0: d7f9 093b d467 7e3b 70b1 44b9 34df aaba
000001f0: 7bcf 263b 4c5f 8db9 8b9b 0838 0005 99ba

exp_avg_sq f4 [128]
2.9860936e-07 9.673506e-06 6.3684696e-05 0.00017114163 1.4460384e-08 4.554119e-08 2.3399938e-05 6.0536055e-05
3.3134863e-06 5.7270852e-05 6.0205446e-10 4.877503e-05 1.3727021e-05 6.5125264e-06 2.1199351e-07 1.0100297e-05
2.4887651e-05 2.0887136e-07 6.150835e-05 5.321531e-09 6.305138e-05 1.4628201e-08 9.826135e-05 4.5262776e-05
0.00019810935 4.6796185e-08 0.00015454643 0.00017077225 1.6567017e-06 4.8303136e-05 2.9894818e-06 1.9337253e-05
1.7334403e-05 2.7491533e-06 8.046976e-05 4.5955203e-06 5.6841374e-05 9.419875e-06 1.45265e-08 3.2600088e-05
4.0995513e-08 1.559204e-05 1.1635774e-08 6.187971e-06 6.9601197e-06 2.9853838e-06 5.8814727e-05 1.2747496e-05
3.5388954e-09 8.326383e-05 1.3444814e-05 4.98981e-07 4.0694345e-06 4.2169777e-06 1.1354471e-05 5.5975867e-08
7.313406e-05 7.637755e-08 7.731204e-08 1.1614094e-06 5.375805e-10 2.1484175e-06 8.642329e-06 2.0104852e-07
5.191816e-08 3.0818646e-07 2.105082e-05 3.9091818e-05 2.3030383e-05 6.5159926e-05 6.4946704e-05 5.563252e-05
4.4341323e-05 7.782796e-05 8.18262e-06 5.2178056e-08 3.6915077e-05 3.144539e-05 7.080389e-08 7.660259e-05
4.7074413e-05 7.143577e-08 1.5458172e-05 2.9977431e-05 2.7296694e-06 4.6176723e-05 9.902868e-05 0.00017864569
0.00013231023 4.3702654e-05 9.2368355e-06 1.6511052e-08 1.6377933e-06 3.4399538e-05 1.8059454e-06 0.00014575357
1.6844854e-07 3.6232015e-07 2.6094304e-07 1.2962014e-05 2.9516772e-05 4.445635e-05 3.5110415e-06 9.764246e-05
4.4776396e-05 8.5212516e-05 7.257593e-05 1.6167633e-11 1.0106534e-07 1.5905529e-05 7.2773146e-05 1.2938268e-05
1.3989984e-05 2.4523888e-05 9.203283e-05 3.0202193e-06 8.6469445e-06 3.3755148e-09 4.236221e-05 1.571023e-06
4.0397867e-05 0.00019193081 4.9646735e-07 1.6315393e-05 7.991248e-05 1.1588057e-05 6.9860924e-08 4.5914614e-05
00000000: 8f50 a034 644b 2237 768e 8538 7b74 3339
00000010: 716d 7832 1199 4333 fc4a c437 18e8 7d38
00000020: 435d 5e36 1c36 7038 d17d 2530 ca93 4c38
00000030: 1b4d 6637 2d86 da36 55a0 6334 7274 2937
00000040: d3c5 d037 1f46 6034 0bfe 8038 afd8 b631
00000050: 743a 8438 824f 7b32 a911 ce38 89d8 3d38
00000060: 93bb 4f39 f3fc 4833 be0d 2239 5411 3339
00000070: d65b de35 1999 4a38 e89e 4836 6f36 a237
00000080: 5969 9137 187e 3836 e0c1 a838 3833 9a36
00000090: f668 6e38 0e0a 1e37 3990 7932 14bc 0838
000000a0: 0b13 3033 a7cb 8237 ade6 4732 44a2 cf36
000000b0: f98a e936 8158 4836 d5af 7638 14de 5537
000000c0: e830 7331 ee9d ae38 0991 6137 b7f1 0535
000000d0: 2d8c 8836 907f 8d36 157f 3e37 1e6a 7033
000000e0: 8d5f 9938 0105 a433 be06 a633 b9e1 9b35
000000f0: ddc4 1330 882d 1036 85fe 1037 ccdf 5734
00000100: 9ffc 5e33 d374 a534 4b96 b037 85f6 2338
00000110: 5f31 c137 78a6 8838 ff33 8838 f756 6938
00000120: 22fb 3938 9137 a338 1648 0937 611a 6033
00000130: 43d5 1a38 3be4 0338 da0c 9833 b4a5 a038
00000140: c471 4538 3b68 9933 2cac 8137 0b78 fb37
00000150: 5d2f 3736 e1ad 4138 9ead cf38 d652 3b39
00000160: c2bc 0a39 5e4d 3738 e8f7 1a37 30d4 8d32
00000170: 26d2 db35 3948 1038 d063 f235 6dd5 1839
00000180: c8de 3434 e784 c234 bd17 8c34 6d77 5937
00000190: c99a f737 a476 3a38 3c9f 6b36 66c5 cc38
000001a0: 4ace 3b38 1fb4 b238 e833 9838 4636 8e2d
000001b0: 4209 d933 dd6c 8537 c99d 9838 7011 5937
000001c0: 86b6 6a37 a6b8 cd37 c001 c138 f9ae 4a36
000001d0: 5812 1137 aff6 6731 14ae 3138 f0db d235
000001e0: e170 2938 0941 4939 fa44 0535 0add 8837
000001f0: b096 a738 536a 4237 7306 9633 7194 4038
