Project specific/results/JumperAgent/JumperAgent/JumperAgent-30365.onnx (onnx, 127520 bytes, 8 tensors)

network_body._body_endoder.seq_layers.0.weight f4 [128, 109]
0	0xbe366d66	-0.1781517
1	0xbc9d679d	-0.019214446
2	0x3b0675d6	0.0020517013
3	0xbd7b21bc	-0.06131147
4	0xbbcc63b9	-0.006237474
5	0xbd500541	-0.05078626
6	0xbdf55916	-0.119798824
7	0x3d314ca4	0.04328598
8	0xbce3f45e	-0.027826484
9	0x3dc7d357	0.09757107
10	0xbe1a5eb6	-0.15075192
11	0x3ca1197a	0.019665468
12	0x3ded4827	0.115860276
13	0xbd1234b5	-0.035694797
14	0xbdca46fd	-0.09876821
15	0x3d6f3d55	0.0584081
16	0xbcb05b2c	-0.02152785
17	0x3cae0027	0.021240307
18	0xbd3a4095	-0.045471746
19	0x3e3953ad	0.18098326
20	0x3dbe20ac	0.092835754
21	0xbe20668b	-0.15664117
22	0x3d48ab2b	0.048991363
23	0xbdcda247	-0.100407176
24	0xbe33b47e	-0.17549321
25	0xbe2e81b4	-0.17041665
26	0xbcc0d82f	-0.023540584
27	0xbd964fed	-0.073394634
28	0xbd10ef8d	-0.035384703
29	0xbe1f39a1	-0.15549327
30	0x3c96bc93	0.018400466
31	0x3d673d58	0.056454986
32	0x3e151c1d	0.14561506
33	0x3d98dd9b	0.07464143
34	0x3e07e18f	0.13269638
35	0x3b877445	0.0041337335
36	0x3bc94ee9	0.00614344
37	0x3d613427	0.054981377
38	0x3dc2a5f6	0.09504311
39	0xbe0c898e	-0.13724348
40	0xbdb813eb	-0.08988174
41	0x3c954673	0.01822207
42	0x3e3f0088	0.18652546
43	0xbd3aed74	-0.04563661
44	0xbe3790a4	-0.1792627
45	0xbd7936a0	-0.06084311
46	0x3e348fe1	0.1763301
47	0xbd8c0b79	-0.06838126
48	0x3e29a2ca	0.16566005
49	0xbe2cbcb3	-0.16868858
50	0xbdf8061a	-0.12110539
51	0xbe866f71	-0.26256898
52	0xbe64223f	-0.22278689
53	0xbdd36c4c	-0.1032339
54	0xbdcf8722	-0.101331964
55	0xbdc10a65	-0.09425811
56	0x3e35ddad	0.17760344
57	0x3e3c81f0	0.18408942
58	0xbe0c03c2	-0.13673308
59	0xbc8c1bc8	-0.01710309
60	0xbd827b4f	-0.063711755
61	0xbdd9642d	-0.1061481
62	0xbbd9a6b9	-0.0066421893
63	0xbda02fb7	-0.07821601
64	0x3db03e27	0.086056046
65	0xbdf9f3f3	-0.12204733
66	0x3e10f6ca	0.14156643
67	0xb9fd04ae	-0.00048259407
68	0x3df03d8d	0.1173049
69	0xbde7ed56	-0.11324565
70	0x3df7eaaf	0.12105309
71	0xbd8c181b	-0.06840535
72	0x3e12694c	0.1429798
73	0xbe0aac06	-0.13542184
74	0xbbf27e16	-0.0074002845
75	0xbd8d6d3e	-0.06905602
76	0x3dcd9d47	0.10039764
77	0xbd67ec5b	-0.05662189
78	0x3e0cb34d	0.13740273
79	0x3d7b7787	0.061393287
80	0x3defde06	0.117122695
81	0xbccee2af	-0.025254576
82	0xbdbf2e11	-0.09334958
83	0xbd95374e	-0.07285939
84	0xbe16c3a3	-0.14723067
85	0x3dc15329	0.0943969
86	0x3b83bffe	0.00402069
87	0xbc96e247	-0.018418444
88	0xbd3495d3	-0.044088196
89	0xbe0658a2	-0.13119748
90	0xbb88d17e	-0.004175364
91	0x3ddd7c12	0.1081468
92	0x3d394a24	0.04523672
93	0x3d828520	0.06373048
94	0xbdb3960c	-0.087688535
95	0xba69a03a	-0.000891212
96	0x3b0fe83b	0.0021958489
97	0xbd872beb	-0.066001736
98	0x3d222432	0.0395853
99	0xbd6159e8	-0.055017382
100	0x3d4dea72	0.050272413
101	0xbd4b44dd	-0.04962622
102	0x3cad59a2	0.021160904
103	0x3d333b9b	0.043758016
104	0xbd805a77	-0.06267255
105	0x3d49a5be	0.04923033
106	0xbce58ae0	-0.028020322
107	0x3e88b35e	0.26699346
108	0x3df1fa6b	0.118153416
109	0xbe810e26	-0.25206107
110	0xbdec468a	-0.11536892
111	0x3d233339	0.03984377
112	0x3dc49a8e	0.095997915
113	0x3d25c91b	0.040474992
114	0xbdaae723	-0.08344867
115	0xbcb93e00	-0.022612572
116	0xbd784970	-0.06061691
117	0x3b8799e6	0.004138219
118	0x3e2252fb	0.15851967
119	0x3d5b8640	0.053594828
120	0xbe08ca4c	-0.1335842
121	0x3da67d71	0.08129395
122	0xbd89808e	-0.06713973
123	0x3daaee60	0.08346248
124	0xbdc1eb75	-0.09468738
125	0x3e0be4f8	0.13661563
126	0xbdf0a9ce	-0.11751138
127	0xbd16ca6c	-0.03681414
128	0x3d98c7e6	0.074600026
129	0xbd38fade	-0.04516112
130	0x3d406988	0.046975642
131	0x3c9bc0f4	0.019012906
132	0x3d967ec8	0.073484
133	0xbe0bbe34	-0.13646775
134	0x3e1e8a6a	0.15482488
135	0x3c793649	0.0152106965
136	0x3c85ac81	0.016317608
137	0x3de15043	0.11001637
138	0x3d02ac0c	0.031902358
139	0x3ddbcb9f	0.10732197
140	0xbd2a51b1	-0.041581813
141	0xbd93ee9f	-0.07223248
142	0xbd8b1561	-0.06791187
143	0x3dbdde10	0.09270871
144	0x3e02ed42	0.12785819
145	0x3cf82a13	0.0302935
146	0x3d860bec	0.06545243
147	0xbd911270	-0.07083595
148	0xbdae8bc6	-0.085227534
149	0xbd4d8cfd	-0.050183285
150	0xbe6e9bb6	-0.23301587
151	0x3d8bfb78	0.06835073
152	0xbccf58e7	-0.025310947
153	0xbd4edb1a	-0.05050192
154	0xbe050675	-0.12990744
155	0x3e49a4f5	0.19691832
156	0x3d7f488b	0.06232504
157	0xbd322e7d	-0.043501366
158	0x3c7ec825	0.015550648
159	0x3c124e35	0.008929779
160	0xbd0935a6	-0.03349843
161	0x3dd1aeab	0.102383934
162	0xbe127035	-0.14300616
163	0xbd5e3579	-0.054250214
164	0xbd708c9c	-0.058727846
165	0x3da77541	0.08176661
166	0xbe1bd162	-0.15216592
167	0x3cde3922	0.027126852
168	0x3e04bcd0	0.12962651
169	0x3c823599	0.015894698
170	0x3e1088bd	0.14114662
171	0x3d950eb8	0.07278198
172	0x3dc5a6ae	0.09650932
173	0x3dc9fde8	0.09862882
174	0x3dc13213	0.09433379
175	0x3d00ff28	0.031493336
176	0x3d30ac68	0.04313317
177	0x3c4ff615	0.012692948
178	0xbafb29e4	-0.0019162265
179	0xbe1d98bd	-0.15390296
180	0x3e2e8559	0.17043056
181	0x3dea3466	0.114357755
182	0x3d19f5e4	0.037588015
183	0x3d65bd4e	0.05608874
184	0x394d07d7	0.00019553244
185	0x3b86ec87	0.0041175517
186	0x3df2304b	0.118256174
187	0xbcdfdd9c	-0.027327351
188	0x3d411ac0	0.04714465
189	0x3bfa724b	0.0076430193
190	0x3d813060	0.06308055
191	0xbd2cba3a	-0.042169787
192	0x3d31579d	0.043296445
193	0xbe5af9a6	-0.21384296
194	0x3e06b034	0.13153154
195	0xbe759f3a	-0.23986521
196	0xbc23b93a	-0.009992892
197	0x3d3a0842	0.04541803
198	0x3d473433	0.048633765
199	0x3e115cbe	0.14195535
200	0xbd1b3903	-0.037896167
201	0xbd79e9bb	-0.06101392
202	0xbd9ab27a	-0.07553573
203	0x3e0e64b2	0.139056
204	0x3df93635	0.12168542
205	0x3d1f09ec	0.03882782
206	0x3d5faaca	0.054606237
207	0x3d889407	0.06668859
208	0xbd78e2c1	-0.060763124
209	0x3e054290	0.13013673
210	0x3e1ca5b8	0.15297592
211	0x3d53b043	0.05168177
212	0xbd2ae391	-0.04172093
213	0xbc886d5e	-0.016653713
214	0x3dbeeb32	0.09322204
215	0x3d91da5f	0.07121729
216	0x3dbef909	0.093248434
217	0xbd32ac4f	-0.043621358
218	0x3d096bd1	0.033550087
219	0x3e01ca2a	0.12674776
220	0x3e2b4b2b	0.16727893
221	0xbda2322f	-0.07919728
222	0x3d48bbdb	0.049007278
223	0x3d94928a	0.072545126
224	0x3d3f9309	0.046771083
225	0xbe11d4e5	-0.14241369
226	0x3d8f0eb2	0.06985225
227	0x3c7b88bb	0.015352423
228	0xbde4f768	-0.111800015
229	0x3d7975d6	0.060903393
230	0xbcc22e9e	-0.02370387
231	0x3dea0a98	0.11427802
232	0x3d9bef38	0.07613987
233	0x3d955209	0.072910376
234	0xbc79ac08	-0.015238769
235	0xbe2a9b01	-0.16660692
236	0x3dd46459	0.10370702
237	0xbdc1ab3c	-0.094564885
238	0xbd0ea99b	-0.034829717
239	0xbd9c00e2	-0.07617356
240	0xbc7c9d9c	-0.015418436
241	0x3dd8ce25	0.10586194
242	0xbe14fbfb	-0.14549248
243	0x3d8b327e	0.0679674
244	0xbda9a6d2	-0.082837716
245	0xbd29c241	-0.04144502
246	0xbe2330b0	-0.15936542
247	0xbd3d3451	-0.04619247
248	0x3dd22d61	0.102625616
249	0xbd5680cd	-0.052368928
250	0xbbc7d2d6	-0.0060981316
251	0x3e03d6bb	0.12874882
252	0x3e17ec8e	0.14836332
253	0x3d185faf	0.037200626
254	0xbdfe515d	-0.124178626
255	0xbd302098	-0.042999834

network_body._body_endoder.seq_layers.0.bias f4 [128]
0	0xbd3ace12	-0.04560668
1	0xbb988187	-0.0046541127
2	0xb9f7580a	-0.00047177105
3	0xbc8b87df	-0.017032562
4	0x3bc6638f	0.006054349
5	0x3c8de2e1	0.017320098
6	0x3ccd71b4	0.025078632
7	0x3b9dd8f5	0.004817123
8	0xbcb4aead	-0.022055948
9	0xbd1b6cbd	-0.037945498
10	0xbd0e7d79	-0.03478763
11	0x3b0224b0	0.0019858293
12	0xbce355a9	-0.027750807
13	0xbce6e7e7	-0.028186752
14	0xbd3514e4	-0.044209376
15	0xbbb1ebd3	-0.0054297238
16	0xbc97dd55	-0.018538157
17	0xbbc8234d	-0.006107724
18	0xbcf2934e	-0.029611256
19	0xbc8b296f	-0.01698753
20	0xbc8729b7	-0.016499383
21	0x3c0d9580	0.008641601
22	0x3c61a369	0.01377187
23	0x3d56bb90	0.052424967
24	0xbcf7599d	-0.030194098
25	0xbc877b0a	-0.016538162
26	0x3b7c6510	0.0038512386
27	0x3ce83a63	0.028348153
28	0xbbe7d5d5	-0.0070750513
29	0x3d6fe042	0.05856348
30	0xba6bbaa1	-0.00089923484
31	0xbc0a54ef	-0.008443101
32	0xbc5d4c96	-0.013507029
33	0xbcb72f1e	-0.022361334
34	0xbcdb3ab2	-0.026761387
35	0xbcb52be1	-0.02211565
36	0x3d1b2554	0.037877396
37	0x3cccc50d	0.024996305
38	0xbcc7a765	-0.024371812
39	0x3d25ca2a	0.040476
40	0xba778b6f	-0.00094430795
41	0xbd7ccc88	-0.061718494
42	0x3b628dc8	0.0034569371
43	0x3c4f8e85	0.012668257
44	0xbc4aab9b	-0.0123700155
45	0xbd0c485a	-0.034248687
46	0x3a93647b	0.0011245155
47	0xbca7cb72	-0.020482752
48	0xbd23aa64	-0.03995742
49	0x3c60776f	0.01370035
50	0xbb688300	-0.0035478473
51	0x3ce34527	0.027742935
52	0x3b9334b7	0.004492368
53	0xbaa74552	-0.0012761748
54	0xbd0e3110	-0.03471476
55	0xbb8e3566	-0.0043398617
56	0x3ba80161	0.0051271175
57	0xbcee7521	-0.029108586
58	0xbc705ffc	-0.014671322
59	0xbafc04c4	-0.0019227494
60	0xbd539fbb	-0.051666003
61	0x3cfdc41d	0.030977303
62	0x3c36a2cf	0.011147215
63	0xbd91f07f	-0.07125949
64	0xbcc36e76	-0.023856383
65	0x3c08f5ab	0.008359353
66	0x3d21b401	0.039478306
67	0xbcd9d6c1	-0.02659166
68	0xbcbde5a7	-0.023180796
69	0xbb11756e	-0.0022195238
70	0xbd12c309	-0.03583053
71	0xbca7a4b5	-0.02046428
72	0xbd05a507	-0.032628085
73	0x3d03923d	0.032121886
74	0x3b207a63	0.002448701
75	0xbbbb2a03	-0.0057117953
76	0xba974192	-0.0011539927
77	0xba00d378	-0.0004914324
78	0x3a9aed16	0.0011819925
79	0xbc9163e9	-0.017747836
80	0xbc3f4d07	-0.01167608
81	0xbc1a70fc	-0.009426352
82	0xbcc7c9c6	-0.024388205
83	0x3c166713	0.009179848
84	0x3d17e370	0.037082136
85	0x3c7fc4fc	0.01561093
86	0xbc15225b	-0.009102429
87	0xbc86bfb8	-0.01644884
88	0x3cb23537	0.02175389
89	0x38c36acf	9.318219e-05
90	0xbcc22073	-0.023697114
91	0xbb8dad95	-0.004323671
92	0x3c1172e5	0.008877491
93	0x3c917dcc	0.01776018
94	0xbc92cddf	-0.017920433
95	0x3b786bdf	0.0037906093
96	0x3c53065b	0.012879933
97	0x3cb8ef5a	0.02257507
98	0xbd0d3f87	-0.034484413
99	0xbcd1c695	-0.025607387
100	0xbd0d6839	-0.034523223
101	0xbc7bee86	-0.015376693
102	0x3b0bef87	0.0021352486
103	0x3c09eff2	0.008419024
104	0xbcd237c0	-0.02566135
105	0xbcb190e1	-0.021675529
106	0xbd0a6f13	-0.033797335
107	0x3caff967	0.021481229
108	0x3cabb2e8	0.020959333
109	0x3d06de61	0.03292692
110	0xbd2feb72	-0.042949148
111	0xbcce4ff6	-0.025184613
112	0x3c4df46f	0.012570485
113	0x3c8d55b6	0.017252784
114	0x3c20e2cf	0.0098197
115	0xbc1e7fc4	-0.009674016
116	0xbbb970f6	-0.005659218
117	0xbcec2c82	-0.028829817
118	0x3b8f4aa9	0.004372914
119	0xbc67c8cb	-0.014146994
120	0xbd2d98bc	-0.042381987
121	0x3c608b28	0.013705052
122	0xbd382370	-0.04495567
123	0xbc31704b	-0.010829995
124	0xbd49525e	-0.049150817
125	0xbcb242c3	-0.02176035
126	0xbd248365	-0.04016437
127	0x3c21a73c	0.009866532

network_body._body_endoder.seq_layers.2.weight f4 [128, 128]
0	0x3e0d119d	0.1377625
1	0x3dc4e873	0.09614649
2	0xbbf66bf3	-0.007520193
3	0x3d050815	0.03247841
4	0x3cd97440	0.02654469
5	0xbd8fef1b	-0.070280276
6	0xbcee402d	-0.029083336
7	0xbda12fd1	-0.078704484
8	0x3df3d449	0.119057246
9	0xbd3f9b67	-0.046779063
10	0xbe09c8e6	-0.13455543
11	0x3e346a8d	0.17618771
12	0x3d94ee0e	0.07271968
13	0x3d019373	0.03163476
14	0x3d8c4c7f	0.06850528
15	0xbd63fb25	-0.055659432
16	0xbbc26a78	-0.005933102
17	0xbbdd28fe	-0.0067492714
18	0xbb17aa44	-0.0023142258
19	0xbd80d9df	-0.062915556
20	0xbda6b2de	-0.08139585
21	0xbcc50e79	-0.024054753
22	0x3d0ef84f	0.034904774
23	0x3c1075f2	0.008817183
24	0x3d1105a6	0.035405777
25	0xbbf00ca7	-0.007325727
26	0xbdac8230	-0.08423269
27	0x3d6eac8a	0.058270015
28	0x3d2cc7b2	0.04218263
29	0xbe1ad892	-0.15121678
30	0x3e7386f2	0.23781946
31	0xbcf3bcb4	-0.029753067
32	0x3e2fd247	0.17170058
33	0xbc05d19a	-0.008167649
34	0x3d9b45f9	0.075817056
35	0xbe1a6e04	-0.1508103
36	0xbd64da2c	-0.055872127
37	0x3e15dbe4	0.14634663
38	0xbde0b780	-0.109725
39	0xbdd3e0f1	-0.103456385
40	0x3d80faa1	0.06297804
41	0x3d933cc2	0.07189323
42	0x3d8cb37c	0.068701714
43	0xbe7fa758	-0.2496618
44	0x3e07c96e	0.13260433
45	0x3de8beac	0.11364493
46	0xbdd3851d	-0.10328124
47	0xbc4242e2	-0.011856766
48	0xbce9c2b2	-0.02853522
49	0x3db3c6da	0.08778162
50	0xbd5deead	-0.054182697
51	0x3c2a775a	0.010404432
52	0x3d3eb333	0.046557616
53	0x3d91d144	0.071199924
54	0xbda62e6f	-0.08114325
55	0xbd0c2358	-0.034213394
56	0x3e6b9688	0.23006642
57	0x3c22fee6	0.009948468
58	0xbde1555e	-0.110026106
59	0x3d34e1b6	0.044160567
60	0x3e558e22	0.20855
61	0x3d206a89	0.0391641
62	0xbdc2e023	-0.09515407
63	0xbd90b3cf	-0.07065546
64	0x3c865ab3	0.01640067
65	0x3d8e2034	0.06939736
66	0xbe270b34	-0.16312867
67	0x3e103928	0.14084303
68	0x3d5fec7b	0.054668885
69	0x3ce4af9a	0.027915765
70	0x3dcb96fa	0.09940906
71	0xbd221bb5	-0.039577205
72	0xbd00384b	-0.031303685
73	0x3d2ddcea	0.04244701
74	0x3e2a82d3	0.16651468
75	0x3cf33c8b	0.029691955
76	0x3d69ed67	0.05711117
77	0xbcf661a5	-0.030075857
78	0x3db6696b	0.08906826
79	0x3c5b4b6f	0.013384684
80	0x3db8cd3f	0.090235226
81	0xbd807b62	-0.062735334
82	0xbd748c62	-0.059704192
83	0xbc3ec489	-0.011643537
84	0xbcf800fc	-0.030273907
85	0xbd82cd40	-0.063868046
86	0x3d813b29	0.06310112
87	0xbce2dec3	-0.027694112
88	0xbe215048	-0.15753281
89	0x3d805ae0	0.06267333
90	0x3e0234bd	0.1271543
91	0x3df5a084	0.119935066
92	0xbdc8c3c6	-0.09802966
93	0x3d2c9411	0.042133395
94	0x3d2458e2	0.040123828
95	0x3dd6f949	0.10496766
96	0x3e317a4d	0.1733181
97	0x3de9b12e	0.114107475
98	0x3cb34ffa	0.021888722
99	0x3db31a69	0.08745272
100	0xbc12593f	-0.008932411
101	0x3e0fc2c0	0.14039135
102	0xbc414c98	-0.0117980465
103	0x3bf5fee5	0.0075071924
104	0x3d901ff7	0.07037347
105	0xbdacccd2	-0.08437504
106	0x3cbc0f6c	0.022956572
107	0x3d7aaad5	0.061198074
108	0x3db79fe8	0.089660466
109	0x3e19d207	0.15021525
110	0x3d753dbb	0.059873324
111	0x3dda08af	0.106461875
112	0xbe4445f2	-0.19167307
113	0xbdadc105	-0.08484081
114	0xbd3d20d3	-0.04617388
115	0xbd7f6725	-0.062354226
116	0xbd447063	-0.047958743
117	0x3d1ccf8a	0.038283862
118	0x3ca2b035	0.019859413
119	0x3da87f69	0.082274266
120	0x3e4522ef	0.19251607
121	0xbdbe73fd	-0.09299467
122	0x3e1718ba	0.14755526
123	0x3cb335d7	0.021876259
124	0xbe0eaab0	-0.139323
125	0x3d5d7f49	0.054076467
126	0xbbb2945e	-0.0054498157
127	0x3e7023da	0.23451176
128	0xbe2d9a49	-0.16953386
129	0xbd25c968	-0.04047528
130	0xbd8ec0b2	-0.069703475
131	0xbd6bda7d	-0.057581414
132	0x3d086ca8	0.033306748
133	0xbd4d3dfb	-0.050107937
134	0xbd3a8e48	-0.045545846
135	0x3d3a0934	0.045418933
136	0x3d3a6351	0.04550487
137	0xbd1f460b	-0.038885158
138	0xbc41b473	-0.011822808
139	0xbd1c1f7b	-0.03811596
140	0x3e3d05ef	0.18459295
141	0x3dac43af	0.08411347
142	0x3a8ebf40	0.0010890737
143	0x3db17268	0.086643994
144	0xbc6b7c1f	-0.0143728545
145	0xbdffd947	-0.12492614
146	0xbd33060f	-0.04370695
147	0xbde37e0d	-0.11108027
148	0xbcf29f66	-0.029617023
149	0x3b1f6c37	0.0024325976
150	0x3e245abc	0.16050237
151	0x3d0f478a	0.034980334
152	0xbe251fd2	-0.1612542
153	0xbcda7aa9	-0.026669817
154	0x3bc67a5c	0.006057067
155	0x3e5f58c4	0.21811205
156	0x3e29bcbc	0.16575903
157	0xbe310082	-0.1728535
158	0xbd0bd6e4	-0.034140483
159	0x3dcb9b43	0.09941723
160	0x3d64bf93	0.055846762
161	0xbc13d13c	-0.009022053
162	0xbd1547ba	-0.036445357
163	0x3e329c3d	0.17442413
164	0xbce7fe04	-0.028319366
165	0x3e081a94	0.13291389
166	0x3dbf8228	0.09350997
167	0xbd3262f2	-0.043551393
168	0xbe1492d7	-0.1450914
169	0x3cc48384	0.023988493
170	0x3c8a9e18	0.016921088
171	0xbb574b20	-0.0032851174
172	0xbdce3d76	-0.100703165
173	0xbdd0f536	-0.1020302
174	0xbb7c6979	-0.0038515015
175	0x3b81c09b	0.003959728
176	0x3daece6f	0.08535468
177	0x3d32e1f9	0.043672536
178	0xbb4a4ad6	-0.003086736
179	0xbd7d3f77	-0.061828103
180	0x3d23d099	0.039993856
181	0x3d3137cb	0.0432661
182	0xbdb449cd	-0.08803139
183	0xbd21c05f	-0.0394901
184	0xbc4985bf	-0.012299954
185	0x3d305c0e	0.04305654
186	0x3c937ce1	0.018003883
187	0xbd6dea23	-0.05808462
188	0xbd1c8780	-0.03821516
189	0x3d56c36d	0.052432466
190	0x3d22a0fd	0.03970431
191	0xbd9adade	-0.07561277
192	0x3d110800	0.03540802
193	0x3e38916a	0.18024221
194	0x3e1ef0f7	0.15521608
195	0xbcc4c4d3	-0.024019634
196	0x3e04c730	0.12966609
197	0x3a4fe9c0	0.0007931255
198	0xbe117c51	-0.14207579
199	0xbd1780e2	-0.036988147
200	0xbbd67be1	-0.0065455292
201	0x3d16a597	0.036779013
202	0xbdca9134	-0.098909765
203	0xbe036914	-0.12833053
204	0x3d9fe440	0.07807207
205	0xbd855186	-0.0650969
206	0x3d38c090	0.045105517
207	0xbd095681	-0.033529762
208	0x3af2ef2c	0.0018534414
209	0xbd1d9924	-0.038476124
210	0x3b9c2c57	0.004766028
211	0x3c5c2dc5	0.013438647
212	0xbbd1ca3c	-0.006402282
213	0x3d966bde	0.07344793
214	0x3defb543	0.11704495
215	0xbd59f992	-0.053216524
216	0x3c3831b3	0.011242318
217	0x3dce3c2a	0.10070069
218	0x3e07c991	0.13260485
219	0xbdafd3ab	-0.08585294
220	0x3d0abf0a	0.033873595
221	0x3dba9e44	0.09112218
222	0x3dfc2683	0.12312033
223	0xbceb62a1	-0.028733553
224	0x3d170667	0.03687134
225	0x3df2e552	0.11860146
226	0xbcedd2e0	-0.029031217
227	0x3ce296a9	0.027659731
228	0x3e1d5672	0.15365008
229	0x3e06d48c	0.13167018
230	0x3be1076d	0.0068673403
231	0x3d0829b7	0.033242907
232	0xbdb92fac	-0.09042296
233	0x3d2ebb83	0.042659294
234	0xbe04d602	-0.12972263
235	0x3cd92dc0	0.026511073
236	0x3cf196a4	0.029490776
237	0xbcc30b5e	-0.023809131
238	0x3dcc19e6	0.09965877
239	0x3db01045	0.08596853
240	0xbd53b220	-0.051683545
241	0x3d59a87a	0.053139187
242	0x3d8e19ec	0.06938538
243	0xbd829f67	-0.0637806
244	0xbded0093	-0.11572375
245	0xbce71c13	-0.028211629
246	0x3e480200	0.19532013
247	0x3b45f1e9	0.0030204004
248	0xbd7d1cc4	-0.06179501
249	0xbd9016e1	-0.07035614
250	0xbd846cda	-0.06466074
251	0x3c2b6cf8	0.010462992
252	0xbd810c62	-0.0630119
253	0x3d576aea	0.052592196
254	0xbe199198	-0.14996946
255	0x3d21babe	0.03948473

network_body._body_endoder.seq_layers.2.bias f4 [128]
0	0xba247a00	-0.0006274283
1	0xbc2853fb	-0.010273929
2	0xbb03a93e	-0.002008989
3	0xbc9befbb	-0.01903521
4	0xbc387d48	-0.011260338
5	0x3c0a9ea2	0.008460673
6	0xbac95c48	-0.0015362585
7	0xbc9b9a12	-0.018994365
8	0x3bf01a61	0.0073273634
9	0xbcdd06ca	-0.026980776
10	0x3c38f3cc	0.011288594
11	0xbc105d82	-0.0088113565
12	0xbbd4193d	-0.006472735
13	0x3bccb211	0.006246813
14	0x3c468ea2	0.012118967
15	0x3c9072ce	0.017632868
16	0xbc057838	-0.008146338
17	0xbc9760ec	-0.018478833
18	0x3b637cd7	0.0034711862
19	0xbc22d9f6	-0.009939661
20	0xbc7d7bb3	-0.015471387
21	0xbc0264d8	-0.007958613
22	0x3a3a605d	0.0007109696
23	0x3c7b8ce0	0.015353411
24	0x3be45611	0.0069682677
25	0xbcddb8a3	-0.02706558
26	0xbc2b7171	-0.010464058
27	0xbd238947	-0.03992584
28	0x3c926838	0.017871961
29	0x3b4e93dc	0.0031521237
30	0x3c2536bd	0.010083851
31	0xbaa69e07	-0.0012711891
32	0xbcc91410	-0.0245457
33	0x3c391b42	0.011298003
34	0xbb23f2a9	-0.0025016463
35	0xbceafdcd	-0.028685475
36	0xbc72a0d8	-0.014808856
37	0x3c46af72	0.01212679
38	0x3cae06f4	0.02124355
39	0x3c7fe671	0.015618906
40	0xbc2acab3	-0.010424304
41	0xbcdee04f	-0.027206568
42	0x3bc18a83	0.0059064045
43	0x3d194408	0.037418395
44	0x3abac154	0.001424829
45	0xbc713a30	-0.014723346
46	0xbc974ef9	-0.018470274
47	0xbc2fe508	-0.010735758
48	0xbce77cd8	-0.028257772
49	0x3be4864a	0.0069740163
50	0x3bcaa664	0.006184386
51	0xbc0f176a	-0.00873361
52	0xbc63c9d0	-0.013903096
53	0xba07e68e	-0.00051841966
54	0xbb4c29ef	-0.0031152924
55	0xba560959	-0.0008164845
56	0x3bdef1fe	0.00680375
57	0xbc6c3714	-0.0144174285
58	0xbc5c540c	-0.013447773
59	0x3c62e60f	0.013848796
60	0xbba85f47	-0.005138311
61	0x3c7d8ac1	0.015474976
62	0x3bba5589	0.005686466
63	0x389eef36	7.5785836e-05
64	0x3ad70b20	0.0016406514
65	0xbc913f22	-0.0177303
66	0x3b49d1e3	0.0030795268
67	0xbcbf76fa	-0.023372162
68	0xbc9e3d1d	-0.01931625
69	0xbbf58be0	-0.007493481
70	0xbcb9bd7b	-0.02267336
71	0xbd08a464	-0.0333599
72	0xbcf66143	-0.030075675
73	0xbad269ea	-0.0016053293
74	0x3bcee7e6	0.0063142655
75	0x3ae1b590	0.0017220248
76	0x3ca34058	0.019928142
77	0x3cbcd0c8	0.023048773
78	0xba697a90	-0.0008906508
79	0x3ba07d15	0.0048977234
80	0x3a0b952c	0.00053246575
81	0x3c70ac2e	0.014689488
82	0xbb2bddd1	-0.0026224742
83	0xbbc707c0	-0.006073922
84	0xbc59c9f9	-0.013292783
85	0xbc1391cc	-0.009006929
86	0x3cece444	0.02891744
87	0x3ace48a4	0.0015738201
88	0xb9ebde13	-0.0004498815
89	0xbbbdaad1	-0.005788185
90	0x3caef8ac	0.02135881
91	0xbc077cd3	-0.0082695065
92	0xbc4e53f7	-0.012593261
93	0xbd2b170a	-0.04177002
94	0x3cb1ef8a	0.021720666
95	0x3b2b0be0	0.0026099607
96	0xbc09b8e6	-0.0084059
97	0xb79917f3	-1.8250174e-05
98	0x3bad2fa9	0.0052852225
99	0xbbfd95de	-0.007738813
100	0xbd12f047	-0.035873678
101	0xbd08221e	-0.03323566
102	0x3bd585fa	0.0065162154
103	0xbab087c4	-0.0013468196
104	0xbca43b7f	-0.020047901
105	0xbbe92767	-0.007115293
106	0xbd1b840b	-0.037967723
107	0xbc4e55c6	-0.012593692
108	0xbd124eec	-0.035719797
109	0xbc0eadfd	-0.008708474
110	0x3cc6cb5a	0.024266887
111	0x3c1c2f08	0.0095326975
112	0xbb913f97	-0.0044326293
113	0xbd19b401	-0.03752518
114	0x3bf50109	0.00747693
115	0x3be5eecd	0.0070169927
116	0xbbb96e66	-0.0056589125
117	0x3bce7a3e	0.0063011935
118	0xbc9c3efc	-0.019073002
119	0xbcc9acdb	-0.024618557
120	0xbcd07d7c	-0.02545046
121	0xbcac8bef	-0.02106282
122	0xbc2671e6	-0.010158991
123	0xbb057a7d	-0.0020367198
124	0x3ca673d4	0.020318903
125	0xbb1ab3c7	-0.002360569
126	0x3b4d340c	0.003131154
127	0xbb764657	-0.0037578547

action_model._continuous_distribution.log_sigma f4 [1, 2]
0	0xbd450e77	-0.048109498
1	0xbd631a9e	-0.055445306

action_model._continuous_distribution.mu.weight f4 [2, 128]
0	0xbb555b07	-0.0032555477
1	0xbca546d4	-0.020175375
2	0xbcb2f6e6	-0.021846246
3	0x3c939d3c	0.018019311
4	0xbcb773b2	-0.022394035
5	0x3d28053b	0.041020613
6	0x3d0f7aee	0.035029344
7	0xbcf28ec6	-0.029609095
8	0x3d0be2f0	0.03415197
9	0xbd1bd263	-0.038042437
10	0x3d35e16a	0.044404425
11	0xbd248541	-0.040166143
12	0xbc0bd54f	-0.008534743
13	0x3d45aecc	0.048262402
14	0x3d8c939d	0.068640925
15	0xbd4743eb	-0.048648756
16	0xbd30b4a1	-0.04314101
17	0xbce168d9	-0.027515816
18	0xbd969f6e	-0.073546275
19	0x3b07b5d5	0.0020707746
20	0xbd1d25e5	-0.038366217
21	0xbd27d6ad	-0.040976215
22	0xbb5cf625	-0.003371605
23	0x3d685ae9	0.056727324
24	0xbad81e22	-0.0016488472
25	0xbb946402	-0.0045285234
26	0xbd0adfc5	-0.03390481
27	0xbc38bbcb	-0.011275242
28	0x3d736db8	0.059430808
29	0x3c0ec7bd	0.0087146135
30	0x3cd1415d	0.025543863
31	0xbcc1083e	-0.0235635
32	0xbc3085b1	-0.010774062
33	0x3d4f94f7	0.050679173
34	0xbd2b0ac5	-0.041758318
35	0xbc572134	-0.013130475
36	0xbd0b3dc7	-0.033994462
37	0xbd19f4cb	-0.03758697
38	0xbd250933	-0.040291976
39	0x3d37dc2c	0.044887707
40	0x3ae22deb	0.0017256116
41	0xbcbb689c	-0.02287703
42	0x3cf0b297	0.029382033
43	0x3d897eb5	0.067136206
44	0x3d3c2d89	0.045941863
45	0x3a9bc185	0.0011883235
46	0xbd8952aa	-0.0670522
47	0x3acefac5	0.0015791288
48	0xbd130f5c	-0.03590332
49	0x3beb20ba	0.007175532
50	0x3d3ef91a	0.04662428
51	0x3a9d60ec	0.0012007034
52	0xbd1969b1	-0.03745431
53	0xbd37cc97	-0.044872846
54	0xbd581085	-0.05275013
55	0xbc9b3e59	-0.018950628
56	0xbc2ed5cd	-0.010671091
57	0xbca89901	-0.02058077
58	0xba404508	-0.0007334505
59	0x3d7c0c80	0.06153536
60	0xbd2cba64	-0.042169943
61	0x3d691ef9	0.056914303
62	0x3c007890	0.007841244
63	0xbce1f0fa	-0.027580727
64	0x3c7b9e64	0.0153575875
65	0xbcc023c7	-0.02345456
66	0x3cd6d84a	0.026226182
67	0xbd2bdd0e	-0.04195886
68	0xbc31d685	-0.010854368
69	0xbd3bbf2f	-0.045836624
70	0xbd42e352	-0.04758007
71	0xbd21cdbd	-0.039502848
72	0x3c6d218c	0.01447333
73	0x3cd4984f	0.025951533
74	0xbc80ab1d	-0.015706593
75	0x3ca85de6	0.020552587
76	0x3d951107	0.07278638
77	0x3da09d2d	0.07842479
78	0x3c251935	0.010076811
79	0xbd55ebd7	-0.052226868
80	0xbc7dc67a	-0.015489215
81	0x3ca03ac7	0.019559277
82	0x3aad48a3	0.00132205
83	0xbcefe3ab	-0.029283365
84	0xbd092455	-0.033481915
85	0x3aeae5d6	0.001792128
86	0xbc5275e6	-0.012845492
87	0xbb0b26ae	-0.0021232772
88	0xbcd8fa12	-0.02648643
89	0xbaad2321	-0.0013209322
90	0xbc76f8ff	-0.015074014
91	0xbbd54c0c	-0.0065093096
92	0xbbcca04a	-0.006244694
93	0x3bbcd05b	0.0057621426
94	0x3da0e500	0.07856178
95	0x3d4939cb	0.04912738
96	0x3cf64fa1	0.030067267
97	0x3c834142	0.016022328
98	0xbd414b2f	-0.04719084
99	0xbc68d78d	-0.014211548
100	0x3c8d839f	0.017274676
101	0x3b08a291	0.002084885
102	0xbbaa8828	-0.0052042194
103	0x3c17303d	0.0092278095
104	0xbb42a12d	-0.002969812
105	0xbd0038c5	-0.03130414
106	0x3c8a91f5	0.0169153
107	0xbd24e02e	-0.040252857
108	0xbc4f25b8	-0.01264327
109	0xbd386c84	-0.045025364
110	0xbc5f17ce	-0.013616515
111	0x3cc684a6	0.024233174
112	0xbb78770e	-0.003791276
113	0xbbdff7c1	-0.0068349545
114	0x3d3d351b	0.046193223
115	0x3cbc0c40	0.02295506
116	0xbc9d1d7e	-0.019179102
117	0x3d233efd	0.039854992
118	0xbca50a1b	-0.02014642
119	0xbc85def7	-0.01634167
120	0xbccfa6ee	-0.025348153
121	0xbcb57150	-0.022148758
122	0xbc1ef38e	-0.009701623
123	0xb90ea2df	-0.0001360285
124	0x3d87e135	0.06634752
125	0x3c099aea	0.008398751
126	0x3c310b33	0.010805893
127	0xbcac242b	-0.02101334
128	0x3d0f7338	0.03502199
129	0xbb5faad6	-0.0034128926
130	0xbd36f978	-0.044671506
131	0xbbe6f043	-0.0070476844
132	0xbcf5c885	-0.030002842
133	0x3ba076dc	0.0048969816
134	0x3b836158	0.004009407
135	0x3c325efa	0.010886902
136	0x3b4daf15	0.0031384875
137	0xbc112d37	-0.008860878
138	0x3c0d885e	0.0086384695
139	0xbc908f4b	-0.017646452
140	0xbb86f0e8	-0.0041180737
141	0xbc6c27db	-0.014413799
142	0xb9639f50	-0.00021707756
143	0xbc803b1d	-0.015653187
144	0x3d057d23	0.032590043
145	0x3c2099fa	0.009802336
146	0xbb8c0dad	-0.004274091
147	0x3bab7d5c	0.00523345
148	0xbb6ca34a	-0.003610807
149	0xbc75ad42	-0.014994921
150	0x3cac3de2	0.021025602
151	0xb94ae04c	-0.00019347778
152	0xbc38160d	-0.011235726
153	0xbd00c511	-0.031437937
154	0x3bfaf6f5	0.007658834
155	0x3bd1b970	0.0064002797
156	0x3be95461	0.0071206545
157	0xbc656cfd	-0.014003036
158	0x3cd3b50c	0.025843166
159	0x3cd2563f	0.025675891
160	0xbd04a66e	-0.032385282
161	0xbb80ef98	-0.003934812
162	0xbc7c4c4d	-0.015399051
163	0x3b98fc77	0.004668768
164	0xba163c60	-0.00057310425
165	0xbbe3d7e4	-0.0069532264
166	0x3ce9b14a	0.02852692
167	0x3c62e740	0.01384908
168	0xbbaf5d4b	-0.0053516976
169	0xba5c4913	-0.0008403223
170	0xbb100bf6	-0.0021979786
171	0xbc82dbf4	-0.015974022
172	0xbb22e49b	-0.0024855498
173	0xbccfb6fa	-0.025355805
174	0xbc1bed8d	-0.009517086
175	0x3ca0bd4a	0.01962151
176	0xbcd37f62	-0.025817577
177	0x3b56bb70	0.003276553
178	0xbcfc6389	-0.03080918
179	0x3b6f62bf	0.0036527363
180	0xbcb0b725	-0.021571705
181	0x3cd016c6	0.025401484
182	0x3d143082	0.036179073
183	0xbd16f0f4	-0.036850885
184	0x37831053	1.5624018e-05
185	0x3bcb9512	0.006212839
186	0x3c07667f	0.008264183
187	0xbab33b9d	-0.0013674382
188	0xbceb23b7	-0.028703554
189	0xbb854e67	-0.004068184
190	0xbc9b5bb0	-0.018964618
191	0x3cc8da0f	0.024518041
192	0x3c6c78ee	0.014433129
193	0xbbe66032	-0.0070305103
194	0x3b552477	0.0032522955
195	0xb92e8482	-0.00016643296
196	0xbc95a8f8	-0.018269047
197	0x3854d149	5.073965e-05
198	0x3ba12ed4	0.0049189124
199	0xbccbcf6b	-0.024879178
200	0xbc6a57b0	-0.014303133
201	0xba9647b3	-0.001146546
202	0xbb9864c9	-0.0046506864
203	0x3bf8dc3d	0.007594614
204	0xbbe78902	-0.007065893
205	0xba969c95	-0.0011490757
206	0x3c97cbd2	0.018529806
207	0xbca02289	-0.019547718
208	0xbc5ff730	-0.013669774
209	0x3d176fc3	0.03697182
210	0xbb15b766	-0.002284491
211	0xbc48399b	-0.012220765
212	0xbb51bf7e	-0.0032005007
213	0xbcb9ad8e	-0.022665765
214	0xbd109c61	-0.035305385
215	0xbc896dd5	-0.016776005
216	0x3d487727	0.048941758
217	0x3c9b526c	0.0189602
218	0xbcc98361	-0.02459878
219	0x3cbf67c0	0.023364902
220	0x3c8ee121	0.017441334
221	0xbad5914a	-0.001629391
222	0xbb9df652	-0.0048206234
223	0xbc95bd93	-0.018278873
224	0xbc6d96c5	-0.014501278
225	0x3be5dbc7	0.007014725
226	0xbc5f6f22	-0.013637336
227	0x3b5e4b89	0.0033919534
228	0xba6f4a1c	-0.00091281696
229	0xbc236f82	-0.009975316
230	0xbc4c10b9	-0.012455159
231	0x3c3a1c2f	0.011359259
232	0xbc62980b	-0.013830195
233	0x3ba5af64	0.0050563086
234	0xbc5908f2	-0.013246762
235	0x3b4a938d	0.00309107
236	0xbc69d512	-0.014271991
237	0x3d016bd7	0.031596985
238	0xbd1d1bd5	-0.03835662
239	0x3c48852e	0.012238784
240	0x3aa856e0	0.0012843274
241	0x3c12d54c	0.008961987
242	0xbb3a98d0	-0.002847243
243	0x3c24aa09	0.010050305
244	0x3d24ee4a	0.040266313
245	0x3c6e9ef2	0.014564263
246	0xbcee8759	-0.029117273
247	0x3c8f888a	0.017521162
248	0xbcad6aa5	-0.021169016
249	0xbb10bdb7	-0.0022085735
250	0xbcc74acb	-0.024327656
251	0x3cd98541	0.026552798
252	0xbaa77557	-0.0012776059
253	0x3ca539d5	0.020169178
254	0xbbc54114	-0.006019721
255	0xbcab8b58	-0.020940468

action_model._continuous_distribution.mu.bias f4 [2]
0	0x3c9dc221	0.019257607
1	0x3c794770	0.015214786

action_model._discrete_distribution.branches.0.weight f4 [1, 128]
0	0x3c26406a	0.010147193
1	0xbc1d40fa	-0.009598011
2	0x3c23ac0e	0.0099897515
3	0xbae80d6d	-0.0017704197
4	0x3bf67ddb	0.0075223274
5	0x3bd72fbf	0.006566971
6	0x39f0a03d	0.00045895754
7	0xbbb6f373	-0.0055832206
8	0x3b34d68d	0.0027593703
9	0x3b65e230	0.0035077445
10	0xbb3f8d77	-0.0029228607
11	0x3ccbe147	0.024887694
12	0x3c48ba48	0.012251444
13	0xbb007a64	-0.00196042
14	0xbc54e890	-0.0129949
15	0x3ad6dac0	0.0016392097
16	0x3c485738	0.012227826
17	0x3bcd3a70	0.00626307
18	0xbc1510bd	-0.009098229
19	0x3c459821	0.012060196
20	0x3c18b083	0.009319427
21	0x3c1acbb0	0.009447977
22	0xbc21ad23	-0.009867939
23	0x3c5de108	0.013542421
24	0x3b2f4cb6	0.0026748604
25	0x3c0396df	0.008031576
26	0xbc1070f2	-0.008815991
27	0xbbb241c1	-0.0054399674
28	0xbcab6838	-0.020923719
29	0xbca2a797	-0.019855304
30	0xb9439b55	-0.00018654515
31	0xbc284cfe	-0.010272263
32	0xbb75918a	-0.0037470781
33	0xbb795553	-0.0038045242
34	0x3c1a7c1f	0.009429007
35	0x3bb242f7	0.0054401117
36	0xbbc0cea0	-0.0058840066
37	0xbb54161d	-0.0032361813
38	0x3c0a86cb	0.008454989
39	0x3bc2b486	0.00594193
40	0xbbd7aa43	-0.006581576
41	0xbc056163	-0.008140895
42	0x3baf2e17	0.0053460705
43	0x3b8fb7e8	0.004385937
44	0xbadeeb57	-0.0017007393
45	0xbbcc5fbb	-0.006236998
46	0xbac2dfea	-0.0014867757
47	0x3c66b310	0.014080778
48	0x3bdb1f3a	0.006687072
49	0x3bd7a7ed	0.0065812976
50	0x3c62efa5	0.013851081
51	0xbc11d787	-0.008901483
52	0xbb027e19	-0.0019911586
53	0xbc94d24f	-0.01816669
54	0xb9abdd97	-0.0003278076
55	0xba900f76	-0.0010990936
56	0x3b243c63	0.0025060407
57	0x3a6ce99d	0.00090374966
58	0x3b3aec95	0.0028522362
59	0x37bd4f84	2.2567583e-05
60	0x3be5017a	0.0069887014
61	0xbb90c366	-0.0044178246
62	0xb9c45138	-0.00037444546
63	0xbc376f55	-0.011195977
64	0x3b855583	0.0040690317
65	0x3c6a0a88	0.014284737
66	0x39f6e7bd	0.00047093435
67	0xbbd0989d	-0.006365849
68	0x3b4148e3	0.0029492907
69	0xba339562	-0.0006850568
70	0xbbd65eaf	-0.006542049
71	0xbb326caf	-0.0027225425
72	0xb9128718	-0.00013973971
73	0x3c5fc5c7	0.013657994
74	0x3b47dc38	0.003049625
75	0x3b1adb26	0.0023629158
76	0xbb0dea04	-0.0021654377
77	0xbb77e07f	-0.003782302
78	0x3c140a93	0.009035724
79	0xbc056d09	-0.008143672
80	0x3c4210d5	0.011844833
81	0xbb4b9bc7	-0.0031068192
82	0xb9a86bcc	-0.00032123772
83	0xbc306053	-0.010765153
84	0xbbe7291b	-0.0070544607
85	0x3c079a47	0.008276529
86	0xbbf88923	-0.0075847073
87	0x3c3a3af9	0.011366599
88	0x3ae7eea8	0.0017695026
89	0x3aa8c5c6	0.0012876324
90	0xbb0f5546	-0.0021870895
91	0xbbf4705b	-0.007459683
92	0x3c05d567	0.008168555
93	0xbc48f42d	-0.012265247
94	0x3bdedb9a	0.006801081
95	0x3b4690d8	0.0030298736
96	0xbb68e8af	-0.003553908
97	0x3b07d4bf	0.0020726172
98	0xbaf7c182	-0.0018902274
99	0x3b4ac944	0.0030942718
100	0x3b3441bf	0.0027505008
101	0xbbc9a8af	-0.006154142
102	0x3acb639b	0.0015517356
103	0xbc2e265b	-0.010629262
104	0xbc0613db	-0.008183445
105	0xbb25f8a7	-0.002532521
106	0x3bef52e2	0.0073035816
107	0x3bacfa31	0.0052788486
108	0xb8a9cdac	-8.096857e-05
109	0xbc356c33	-0.01107316
110	0xbc28ce2f	-0.010303064
111	0x3b1da33e	0.0024053599
112	0xbbf700b2	-0.0075379247
113	0x3c6e8e1d	0.01456025
114	0x3c2a49d7	0.010393581
115	0xbc07685e	-0.008264629
116	0x3a86ea53	0.0010293223
117	0xbc227f32	-0.009918021
118	0xbc212c95	-0.009837289
119	0x3cacf4bb	0.02111279
120	0x39f5bacd	0.0004686922
121	0xbc3d58e0	-0.011556834
122	0xbb008a8b	-0.0019613828
123	0x3b6d10ab	0.0036173265
124	0x3cb28c8f	0.02179554
125	0xbb31a15f	-0.0027104241
126	0x3a0b8fc1	0.000532385
127	0x3c0af313	0.008480805
