Project specific/results/JumperAgent/JumperAgent/JumperAgent-34848.onnx (onnx, 127520 bytes, 8 tensors)

network_body._body_endoder.seq_layers.0.weight f4 [128, 109]
0	0xbe366d66	-0.1781517
1	0xbcbb740a	-0.02288248
2	0x3b0675d6	0.0020517013
3	0xbd6be06f	-0.057587083
4	0xbb8eb69f	-0.004355266
5	0xbd3c9f06	-0.046050094
6	0xbdfdcee8	-0.1239298
7	0x3d314ca4	0.04328598
8	0xbcd02f6a	-0.025413234
9	0x3dcdf96b	0.10057338
10	0xbe1a5eb6	-0.15075192
11	0x3cb69acc	0.02229061
12	0x3dee4e28	0.11636001
13	0xbd0fee37	-0.03513929
14	0xbdc95060	-0.098297834
15	0x3d7629dd	0.060098518
16	0xbcdc744d	-0.026910925
17	0x3cae0027	0.021240307
18	0xbd27f59d	-0.04100572
19	0x3e3c1453	0.18367128
20	0x3dbe20ac	0.092835754
21	0xbe233a80	-0.15940285
22	0x3d5e6b86	0.05430176
23	0xbdce6347	-0.100775294
24	0xbe34e69a	-0.17666093
25	0xbe2b5eb2	-0.16735342
26	0xbc92d30c	-0.0179229
27	0xbd964fed	-0.073394634
28	0xbd2ee818	-0.04270181
29	0xbe1fb429	-0.1559607
30	0x3c96bc93	0.018400466
31	0x3d6600bd	0.056153048
32	0x3e14955f	0.14510106
33	0x3d9e2d06	0.07723431
34	0x3e0b5142	0.13605216
35	0x3b935908	0.0044966973
36	0x3c2f4233	0.0106969355
37	0x3d613427	0.054981377
38	0x3db9bd7e	0.09069346
39	0xbe0d19e4	-0.13779408
40	0xbdb813eb	-0.08988174
41	0x3c682c9e	0.014170794
42	0x3e418e77	0.18902002
43	0xbd32d1b0	-0.043657005
44	0xbe350e5e	-0.17681262
45	0xbd801727	-0.06254416
46	0x3e3eeeaa	0.1864573
47	0xbd8c0b79	-0.06838126
48	0x3e252eef	0.16131185
49	0xbe2de6f5	-0.16982634
50	0xbdf8061a	-0.12110539
51	0xbe89ea50	-0.2693658
52	0xbe5dc615	-0.21657594
53	0xbdd7ef82	-0.10543729
54	0xbdd0a4fc	-0.10187718
55	0xbdc2c831	-0.0951084
56	0x3e3e4120	0.1857953
57	0x3e3c81f0	0.18408942
58	0xbe10779d	-0.14108129
59	0xbc8d4d32	-0.017248724
60	0xbd827b4f	-0.063711755
61	0xbdee9176	-0.11648838
62	0xbb63f77a	-0.0034784959
63	0xbd9b6796	-0.07588117
64	0x3db53292	0.08847536
65	0xbdf4558a	-0.11930378
66	0x3e0e6b92	0.13908222
67	0xb9fd04ae	-0.00048259407
68	0x3de755d6	0.11295669
69	0xbde21bba	-0.11040445
70	0x3df7eaaf	0.12105309
71	0xbd9c7767	-0.07639962
72	0x3e182c1d	0.14860578
73	0xbe12aa6d	-0.14322825
74	0xbc1a3d70	-0.009414062
75	0xbd84dbe5	-0.06487254
76	0x3dbe5085	0.09292702
77	0xbd67ec5b	-0.05662189
78	0x3e083f72	0.13305452
79	0x3d83d34e	0.064367875
80	0x3defde06	0.117122695
81	0xbceb51ea	-0.028725583
82	0xbdb69909	-0.08915908
83	0xbda05cee	-0.07830225
84	0xbe184515	-0.14870103
85	0x3dc74b07	0.09731107
86	0x3a4e39a7	0.0007866867
87	0xbc96e247	-0.018418444
88	0xbd466538	-0.048436373
89	0xbe036980	-0.12833214
90	0xbb88d17e	-0.004175364
91	0x3dd32891	0.10310472
92	0x3d4a8a44	0.049448267
93	0x3d6ebee8	0.05828753
94	0xbdb6d20d	-0.08926783
95	0x3ba38e5a	0.004991335
96	0xbc6f6063	-0.014610383
97	0xbd872beb	-0.066001736
98	0x3d1054cd	0.035237122
99	0xbd53a824	-0.051674023
100	0x3d4dea72	0.050272413
101	0xbd2eca03	-0.042673122
102	0x3cc80674	0.02441714
103	0x3d1cf03a	0.038315035
104	0xbd84121b	-0.06448766
105	0x3d49a5be	0.04923033
106	0xbcda4bff	-0.026647566
107	0x3e88f685	0.2675058
108	0x3df5ab8e	0.11995612
109	0xbe810e26	-0.25206107
110	0xbdfbd7a8	-0.122969925
111	0x3d233339	0.03984377
112	0x3dca8786	0.0988913
113	0x3d256eef	0.040388998
114	0xbdb9ebf4	-0.090782076
115	0xbc873f55	-0.016509691
116	0xbd784970	-0.06061691
117	0x3b3a073d	0.0028385662
118	0x3e2305a1	0.15920116
119	0x3d5b8640	0.053594828
120	0xbdf15c2b	-0.11785158
121	0x3dac5195	0.08413998
122	0xbd974352	-0.07385887
123	0x3da36222	0.07977702
124	0xbdb38eb4	-0.08767453
125	0x3e0567e0	0.13027906
126	0xbdf0a9ce	-0.11751138
127	0xbd1bc8f5	-0.038033444
128	0x3d9c4bf9	0.07631678
129	0xbd38fade	-0.04516112
130	0x3d6f37c8	0.058402807
131	0x3caeff14	0.021361865
132	0x3d8c5399	0.068518825
133	0xbe0df245	-0.1386195
134	0x3e1c248c	0.15248317
135	0x3c9eceff	0.019385813
136	0x3c85ac81	0.016317608
137	0x3de675e8	0.112529576
138	0x3d038799	0.032111738
139	0x3ddbcb9f	0.10732197
140	0xbd6d6744	-0.05795981
141	0xbd8490aa	-0.06472905
142	0xbd9116ae	-0.07084404
143	0x3db6f001	0.08932496
144	0x3dfbf61f	0.12302803
145	0x3d2aa3d0	0.04166013
146	0x3d860bec	0.06545243
147	0xbd926659	-0.071484275
148	0xbdb26289	-0.087102
149	0xbd4d8cfd	-0.050183285
150	0xbe6f1ab6	-0.23350033
151	0x3d807b41	0.06273509
152	0xbc8bd68f	-0.017070083
153	0xbd37bfb7	-0.044860568
154	0xbe077159	-0.13226832
155	0x3e4eeaa7	0.202067
156	0x3d7f488b	0.06232504
157	0xbd34d3db	-0.044147354
158	0x3c77551e	0.015095977
159	0x3c124e35	0.008929779
160	0xbd07e612	-0.033178397
161	0x3dd14001	0.10217286
162	0xbe10fa42	-0.14157966
163	0xbd583a89	-0.0527902
164	0xbd6a7a9c	-0.057245836
165	0x3d9f595a	0.07780714
166	0xbe1bd162	-0.15216592
167	0x3cd8ee6c	0.026480876
168	0x3e04f8df	0.12985562
169	0x3c823599	0.015894698
170	0x3e102c7b	0.14079468
171	0x3d971c59	0.07378454
172	0x3dc04f63	0.09390142
173	0x3dc9f5ed	0.0986136
174	0x3dc0aa1c	0.09407446
175	0x3d009ce9	0.03139964
176	0x3d30ac68	0.04313317
177	0x3c45609e	0.012046961
178	0xba94f643	-0.0011364896
179	0xbe1d98bd	-0.15390296
180	0x3e274fc3	0.1633902
181	0x3debf398	0.11521071
182	0x3d25a005	0.04043581
183	0x3d70e437	0.058811393
184	0x3af4a20d	0.0018664018
185	0xbb0280fb	-0.0019913304
186	0x3df2304b	0.118256174
187	0xbce52851	-0.027973326
188	0x3d47c5d0	0.048772633
189	0x3bfa724b	0.0076430193
190	0x3d569289	0.05238584
191	0xbd2790b6	-0.04090949
192	0x3d3cbd0d	0.04607873
193	0xbe57f2d7	-0.2108873
194	0x3e082d38	0.132985
195	0xbe7d94aa	-0.24763742
196	0xbc23b93a	-0.009992892
197	0x3d3762e4	0.044772044
198	0x3d4b9653	0.049703907
199	0x3e115cbe	0.14195535
200	0xbd2ed093	-0.04267938
201	0xbd78c9d8	-0.06073937
202	0xbd94ffb8	-0.07275337
203	0x3e10e70a	0.14150634
204	0x3dfae7da	0.122512534
205	0x3d080c7b	0.033215027
206	0x3d5faaca	0.054606237
207	0x3d874151	0.06604255
208	0xbd75228f	-0.05984741
209	0x3e054290	0.13013673
210	0x3e16adc8	0.1471473
211	0x3d54f659	0.051992748
212	0xbd1f7e21	-0.038938645
213	0xbc6e3e46	-0.014541214
214	0x3dbeeb32	0.09322204
215	0x3d91d5c6	0.07120852
216	0x3dbeeadc	0.093221396
217	0xbd32c3e7	-0.04364386
218	0x3d096bd1	0.033550087
219	0x3e0c3f52	0.1369603
220	0x3e2b4b2b	0.16727893
221	0xbdae0467	-0.084969334
222	0x3d420ba7	0.047374394
223	0x3da77c1b	0.08177968
224	0x3d1e6537	0.038670745
225	0xbe11d4e5	-0.14241369
226	0x3d8fa635	0.07014123
227	0x3c5c1a84	0.013434056
228	0xbde4f768	-0.111800015
229	0x3d4de086	0.05026295
230	0xbce4ad4d	-0.027914668
231	0x3df48dc5	0.11941103
232	0x3da0f757	0.07859676
233	0x3d8fd069	0.07022173
234	0xbbfa2bfd	-0.0076346383
235	0xbe2a9b01	-0.16660692
236	0x3dcdc9fd	0.10048292
237	0xbdcc1c25	-0.09966306
238	0xbd0ea99b	-0.034829717
239	0xbdb02f04	-0.086027175
240	0xbc898313	-0.016786134
241	0x3de0010a	0.10937698
242	0xbe14c5b0	-0.14528537
243	0x3d8ee3e0	0.069770575
244	0xbdabb306	-0.083837554
245	0xbd29c241	-0.04144502
246	0xbe293080	-0.16522408
247	0xbd4e2aad	-0.050333668
248	0x3dd22d61	0.102625616
249	0xbd1fcc40	-0.039013147
250	0xbc54f0f0	-0.012996897
251	0x3e04a2e4	0.12952763
252	0x3e19fbb0	0.15037417
253	0x3d1e8b3e	0.03870701
254	0xbe049612	-0.12947872
255	0xbd302098	-0.042999834

network_body._body_endoder.seq_layers.0.bias f4 [128]
0	0xbd336170	-0.043794096
1	0xbb997526	-0.0046831546
2	0xba982f2f	-0.0011610741
3	0xbc863cc2	-0.016386393
4	0x3bd4b303	0.0064910664
5	0x3c821523	0.01587922
6	0x3ccbd62f	0.024882404
7	0x3b43f4c0	0.002990052
8	0xbc9bce86	-0.019019376
9	0xbd13a35f	-0.036044475
10	0xbcf91ac7	-0.030408276
11	0x3b6c6a0b	0.0036073949
12	0xbcfb350b	-0.030664941
13	0xbd004023	-0.031311166
14	0xbd493a94	-0.04912813
15	0xbb9d694a	-0.004803811
16	0xbcabb8a1	-0.020962061
17	0xbbbc37c5	-0.005743953
18	0xbd12a8bc	-0.03580545
19	0xbc864df0	-0.016394585
20	0xbc98ff04	-0.018676288
21	0x3c0f3bb4	0.008742262
22	0x3c619ec0	0.013770759
23	0x3d5de7e7	0.054176237
24	0xbcf974fe	-0.030451294
25	0xbc9259b3	-0.017865038
26	0x3b8baadd	0.004262312
27	0x3ce1cfb1	0.027564855
28	0xbb9e1d45	-0.0048252665
29	0x3d71e3a4	0.059054986
30	0xbab04c48	-0.0013450468
31	0xbbdc9ce5	-0.0067325705
32	0xbc7b8468	-0.015351392
33	0xbcaccf0a	-0.021094818
34	0xbcb9fcc3	-0.022703534
35	0xbc9542c6	-0.018220317
36	0x3d0a556e	0.03377288
37	0x3cc514e3	0.024057811
38	0xbcdd8045	-0.027038703
39	0x3d2ce103	0.042206775
40	0xbb2c3ae3	-0.0026280216
41	0xbd803a02	-0.06261064
42	0x3b4c0c87	0.0031135397
43	0x3c547bb8	0.01296895
44	0xbc4b34ea	-0.012402752
45	0xbd03dbda	-0.03219209
46	0x3a28d5fc	0.00064405776
47	0xbc970b35	-0.018437961
48	0xbd284078	-0.041077107
49	0x3c766091	0.015037672
50	0xbb899a43	-0.0041992976
51	0x3ce323e7	0.02772708
52	0x3b892100	0.004184842
53	0xba65ac05	-0.00087612896
54	0xbd059b01	-0.032618526
55	0xbb8d7984	-0.0043174643
56	0x3bea3ad8	0.007148128
57	0xbcf62ae1	-0.030049743
58	0xbc7597d4	-0.014989812
59	0xbb4de925	-0.0031419483
60	0xbd70d3b6	-0.058795653
61	0x3d008671	0.031378213
62	0x3c338f5e	0.010959474
63	0xbd8f8479	-0.07007689
64	0xbcc69222	-0.024239603
65	0x3b695056	0.0035600862
66	0x3d231e79	0.039823983
67	0xbd01f297	-0.031725492
68	0xbcbde953	-0.023182547
69	0xbaed394c	-0.0018098741
70	0xbd2401cb	-0.040040772
71	0xbcbbbdfb	-0.022917738
72	0xbd072c79	-0.033001397
73	0x3cfd3c28	0.030912474
74	0x3adc2bce	0.0016797723
75	0xbb99bbe3	-0.0046915873
76	0xba003b63	-0.0004891662
77	0x3abc6d14	0.001437577
78	0x3ab3133b	0.0013662347
79	0xbc4fdaea	-0.0126864705
80	0xbc1ce55b	-0.009576167
81	0xbc36d14d	-0.0111583
82	0xbccab33f	-0.024743674
83	0x3c0de011	0.008659379
84	0x3cd643f4	0.02615545
85	0x3c74e831	0.014947937
86	0xbc6326e6	-0.013864255
87	0xbc84052c	-0.016115747
88	0x3ca9f9b2	0.020748947
89	0xba9d2f00	-0.0011992157
90	0xbc9f6d82	-0.019461397
91	0xbb8cb855	-0.004294435
92	0x3c25d620	0.010121852
93	0x3c84e60b	0.016222974
94	0xbc9f07f0	-0.019412965
95	0x3b93b901	0.004508138
96	0x3c5822ec	0.01319192
97	0x3cbe1e23	0.02320773
98	0xbd175978	-0.03695056
99	0xbcdc5d80	-0.026900053
100	0xbd188bf6	-0.037242852
101	0xbc5f00cd	-0.013611031
102	0x3b15d4e0	0.002286248
103	0x3c002f18	0.007823728
104	0xbcc7d651	-0.024394186
105	0xbc9ded2d	-0.019278133
106	0xbd145d9f	-0.036222097
107	0x3cb690c0	0.022285819
108	0x3cc006c2	0.023440722
109	0x3cf269ad	0.029591406
110	0xbd32fc1a	-0.043697454
111	0xbcc1be27	-0.023650242
112	0x3c38cb0b	0.011278878
113	0x3c8cfce6	0.017210435
114	0x3c275f84	0.010215644
115	0xbc291834	-0.010320712
116	0xbb7b2294	-0.003832017
117	0xbcec09d1	-0.028813275
118	0x3c1882f6	0.009308567
119	0xbc559cf0	-0.013037905
120	0xbd370c32	-0.044689365
121	0x3c5a326d	0.0133176865
122	0xbd2db1ed	-0.04240601
123	0xbc270081	-0.010192991
124	0xbd3bc084	-0.045837894
125	0xbcb626de	-0.02223533
126	0xbd1d66a3	-0.03842796
127	0x3c0e8244	0.00869805

network_body._body_endoder.seq_layers.2.weight f4 [128, 128]
0	0x3e12d804	0.14340216
1	0x3ddb167e	0.106976494
2	0xbb287266	-0.0025702952
3	0x3d1b76e8	0.037955195
4	0x3cef8646	0.029238831
5	0xbd8211cc	-0.06351051
6	0xbcd27054	-0.025688328
7	0xbda7b777	-0.0818929
8	0x3dfd9db9	0.12383599
9	0xbd0c4056	-0.034241043
10	0xbe03d064	-0.12872463
11	0x3e3aa79d	0.18228002
12	0x3d8d8021	0.06909204
13	0x3cd37132	0.025810812
14	0x3d86a552	0.06574501
15	0xbd518f67	-0.05116215
16	0xbc57b35b	-0.01316532
17	0xba532b30	-0.00080554467
18	0xbb9e78fb	-0.0048361993
19	0xbd73353f	-0.05937695
20	0xbd9ded2f	-0.07711255
21	0xbce46e8e	-0.027884748
22	0x3d12257b	0.035680275
23	0x3c703055	0.014659961
24	0x3d25e35d	0.040500034
25	0xbc3a7881	-0.011381269
26	0xbda0eef4	-0.07858077
27	0x3d8136f4	0.063093096
28	0x3d1d303c	0.038376078
29	0xbe1cd79f	-0.15316628
30	0x3e77356e	0.24141476
31	0xbcd82fd8	-0.026390001
32	0x3e2c122e	0.1680381
33	0xbb9cab4d	-0.004781163
34	0x3d8e3adf	0.069448225
35	0xbe1ef2d3	-0.15522318
36	0xbd723b5d	-0.059138644
37	0x3e0d03a7	0.13770925
38	0xbdea3d76	-0.11437504
39	0xbde45bfe	-0.111503586
40	0x3d6fe572	0.058568425
41	0x3d918885	0.07106117
42	0x3d95efd1	0.07321132
43	0xbe7b3f2b	-0.24535815
44	0x3e0c554e	0.13704416
45	0x3df05578	0.11735052
46	0xbdd0b9b4	-0.1019167
47	0xbc961ac1	-0.018323304
48	0xbd01e863	-0.031715762
49	0x3dbc9fce	0.09210168
50	0xbd5d9cf2	-0.054104753
51	0xbad5317b	-0.0016265357
52	0x3d4f1f29	0.050566826
53	0x3da04c27	0.07827025
54	0xbdadcf42	-0.08486797
55	0xbceb8596	-0.028750222
56	0x3e6f9754	0.23397571
57	0x3c6ee9f5	0.014582147
58	0xbdeba4e7	-0.11506062
59	0x3d278ddb	0.04090677
60	0x3e513df5	0.20433791
61	0x3d2bda69	0.04195634
62	0xbdc03085	-0.09384254
63	0xbd94edbc	-0.07271907
64	0x3c7d0322	0.015442641
65	0x3d91425e	0.07092737
66	0xbe206179	-0.15662183
67	0x3e0b5807	0.13607799
68	0x3d62e02f	0.05538958
69	0x3cb59ca4	0.022169419
70	0x3dbddcc7	0.092706256
71	0xbd2f6256	-0.04281839
72	0xbcedfadc	-0.029050283
73	0x3d420112	0.047364302
74	0x3e2ecce8	0.17070353
75	0x3d0fdef1	0.035124723
76	0x3d7475e5	0.059682745
77	0xbccf7aa1	-0.025327029
78	0x3dc0d58c	0.09415731
79	0x3c7209cf	0.014772846
80	0x3dc4ebd0	0.0961529
81	0xbd810ebc	-0.063016385
82	0xbd83af40	-0.06429911
83	0xbc15963b	-0.009130056
84	0xbce2b5b6	-0.027674537
85	0xbd7f1bd7	-0.06228241
86	0x3d736e86	0.059431575
87	0xbd0174e6	-0.031605624
88	0xbe24f19c	-0.16107792
89	0x3d8968a8	0.06709415
90	0x3e0877b1	0.13326909
91	0x3dfbfc49	0.12303979
92	0xbdc393e5	-0.09549693
93	0x3d3a8787	0.045539405
94	0x3d14d012	0.036331244
95	0x3ddf6080	0.10907078
96	0x3e3485fd	0.17629237
97	0x3dee5c41	0.1163869
98	0x3caf809a	0.021423627
99	0x3daaaedd	0.08334134
100	0xbc458904	-0.012056593
101	0x3e0e79c5	0.13913639
102	0xbc805786	-0.015666734
103	0x3b9e9972	0.0048400695
104	0x3d97f7ac	0.074202865
105	0xbda757fc	-0.081710786
106	0x3cd6669e	0.026171979
107	0x3d870219	0.06592197
108	0x3dc3d56e	0.09562193
109	0x3e13c1f2	0.14429453
110	0x3d674ac5	0.05646779
111	0x3de8499b	0.11342164
112	0xbe436149	-0.1908008
113	0xbda58939	-0.08082814
114	0xbd287fe6	-0.0411376
115	0xbd9443d5	-0.072395004
116	0xbd501e6c	-0.050810263
117	0x3d0bf172	0.034165807
118	0x3c6e419b	0.014542009
119	0x3d9dde82	0.077084556
120	0x3e403326	0.18769512
121	0xbdb456b1	-0.088055976
122	0x3e186a84	0.14884382
123	0x3c9cafcc	0.019126795
124	0xbe0b68c8	-0.1361419
125	0x3d4c0c63	0.0498165
126	0xbc103b37	-0.00880318
127	0x3e6cde72	0.23131731
128	0xbe2c4082	-0.16821483
129	0xbcffc8c4	-0.031223662
130	0xbd8b1c11	-0.067924626
131	0xbd65478e	-0.055976443
132	0x3d03fee2	0.032225497
133	0xbd4eb9fe	-0.050470345
134	0xbd241e8d	-0.040068198
135	0x3d385123	0.044999253
136	0x3d48517b	0.04890583
137	0xbd243b3c	-0.040095553
138	0xbc3b4962	-0.01143107
139	0xbd0b9d19	-0.034085367
140	0x3e3ba367	0.18324052
141	0x3dabd451	0.083901055
142	0xba3dc099	-0.0007238477
143	0x3daf2157	0.08551281
144	0xbc711719	-0.01471498
145	0xbdee2882	-0.1162882
146	0xbd3506f9	-0.044196103
147	0xbde1dab4	-0.110280424
148	0xbccab09d	-0.024742419
149	0x3a4113d4	0.00073653203
150	0x3e23d699	0.15999831
151	0x3d1265fd	0.035741795
152	0xbe21c83d	-0.15799041
153	0xbcefe351	-0.029283198
154	0x3c2cd9cf	0.0105499765
155	0x3e5dbe08	0.21654522
156	0x3e27b27c	0.1637668
157	0xbe316199	-0.17322387
158	0xbced2a5f	-0.028950868
159	0x3dd60540	0.1045022
160	0x3d63b199	0.055589292
161	0xbbf4f4bc	-0.0074754637
162	0xbd1c1994	-0.03811033
163	0x3e3014f6	0.17195496
164	0xbcdd4abe	-0.027013179
165	0x3e0a6065	0.13513334
166	0x3dc062d8	0.09393853
167	0xbd3993b8	-0.04530689
168	0xbe15a891	-0.14615084
169	0x3cb7b870	0.022426814
170	0x3c8fbfb3	0.017547464
171	0xbaf26673	-0.0018493667
172	0xbdc77a8a	-0.09740169
173	0xbdcb9946	-0.09941344
174	0x37b79d15	2.1888447e-05
175	0xba4f98aa	-0.0007919172
176	0x3daaa340	0.08331919
177	0x3d480a71	0.048838083
178	0xbb5331a9	-0.0032225645
179	0xbd8339dc	-0.0640752
180	0x3d294120	0.041321874
181	0x3d3196ef	0.043356832
182	0xbdb71f7c	-0.08941552
183	0xbd053d81	-0.032529358
184	0xbbe48544	-0.0069738943
185	0x3d36692d	0.044533897
186	0x3c8e6c9b	0.017385771
187	0xbd462ba7	-0.048381474
188	0xbd1da918	-0.03849134
189	0x3d716bbd	0.058940638
190	0x3d1bfcc1	0.03808284
191	0xbd9c3c43	-0.076286815
192	0x3d105479	0.03523681
193	0x3e372417	0.17884861
194	0x3e1ebb2c	0.15501088
195	0xbcbbb549	-0.022913592
196	0x3e054bb6	0.13017163
197	0x3bcb1771	0.006197863
198	0xbe11dcb6	-0.14244351
199	0xbd209caf	-0.039211925
200	0xbaf28d8d	-0.001850532
201	0x3d29555b	0.041341167
202	0xbdc7619f	-0.097354166
203	0xbe01423b	-0.12622921
204	0x3da7a0bf	0.08184957
205	0xbd8176a6	-0.063214585
206	0x3d55f166	0.05223217
207	0xbd069adc	-0.03286253
208	0x3a413c4c	0.00073713507
209	0xbd16f353	-0.036853146
210	0x3b85f63d	0.004088192
211	0x3c4c287e	0.012460826
212	0xbc0d0a96	-0.008608481
213	0x3d95e381	0.073187836
214	0x3ded8519	0.11597652
215	0xbd6177d5	-0.05504592
216	0x3b2f8aac	0.0026785536
217	0x3ddec6d0	0.10877764
218	0x3e0c822d	0.13721533
219	0xbdab3949	-0.08360536
220	0x3cfc2bbe	0.030782577
221	0x3db9609d	0.09051631
222	0x3dfdc101	0.12390328
223	0xbcdfce76	-0.027320128
224	0x3d31d365	0.043414492
225	0x3df24c6f	0.11830985
226	0xbcfcdfc5	-0.03086842
227	0x3ce09365	0.027414033
228	0x3e1c82e9	0.15284313
229	0x3e0a80a0	0.13525629
230	0x3ac658d0	0.0015132669
231	0x3d0800c9	0.033203874
232	0xbdb178da	-0.08665629
233	0x3d40fd6f	0.047116693
234	0xbe03cdc1	-0.12871458
235	0x3cf5e377	0.03001569
236	0x3d1248b4	0.035713866
237	0xbcc1e0e0	-0.023666799
238	0x3dc9bddf	0.09850668
239	0x3da4312f	0.080171935
240	0xbd5b3968	-0.053521544
241	0x3d5f4e89	0.054518256
242	0x3d8db0aa	0.069184616
243	0xbd81ba86	-0.06334405
244	0xbdeec78d	-0.11659155
245	0xbcf07440	-0.029352307
246	0x3e45f61e	0.19332168
247	0x3a9519e8	0.0011375519
248	0xbd823c08	-0.06359106
249	0xbd915fa5	-0.07098321
250	0xbd82124d	-0.06351147
251	0x3c32c8fa	0.010912174
252	0xbd803e6f	-0.06261908
253	0x3d4b48d7	0.049630012
254	0xbe1bbac9	-0.15207972
255	0x3d228cdd	0.03968512

network_body._body_endoder.seq_layers.2.bias f4 [128]
0	0x3b8183bb	0.003952471
1	0xbc087bfc	-0.008330341
2	0xbb32490f	-0.002720419
3	0xbcaa3993	-0.020779407
4	0xbc435d4c	-0.011924099
5	0x3c0e1596	0.008672139
6	0xba5c713e	-0.00084092084
7	0xbc9536dc	-0.018214636
8	0x3c022cdd	0.007945267
9	0xbce9032d	-0.028443897
10	0x3c55c1e7	0.013046718
11	0xbbd4d947	-0.006495628
12	0xbbdd7282	-0.006758035
13	0x3ba294dd	0.0049615935
14	0x3c4f123b	0.012638624
15	0x3c72873e	0.014802752
16	0xbbf3a7a1	-0.0074357544
17	0xbc9a9568	-0.01887007
18	0x3b588552	0.003303845
19	0xbbb7b261	-0.005605981
20	0xbc670d30	-0.014102265
21	0xbbaf9ff4	-0.005359644
22	0x3bb8e86c	0.005642941
23	0x3c7c8953	0.0154136
24	0x3af517dd	0.0018699128
25	0xbcbe5ab8	-0.023236617
26	0xbc70ac04	-0.014689449
27	0xbd34851a	-0.044072248
28	0x3c9b823a	0.018982995
29	0xbab5cc46	-0.0013870082
30	0x3c60fb2f	0.013731762
31	0xba16f0ba	-0.0005757917
32	0xbccdbaa4	-0.025113411
33	0x3c38f374	0.0112885125
34	0x3afaf64d	0.001914689
35	0xbcfda22f	-0.030961124
36	0xbc8169c2	-0.0157975
37	0x3c2afb82	0.010435941
38	0x3cc01fa8	0.023452595
39	0x3c90f348	0.01769413
40	0xbc546258	-0.0129629
41	0xbcdca0c9	-0.026932137
42	0x3bc1aa7e	0.005910217
43	0x3d1b40d1	0.03790361
44	0x3ae650bf	0.0017571672
45	0xbca03ef3	-0.019561267
46	0xbc8f498f	-0.01749113
47	0xbbdffc98	-0.0068355314
48	0xbce013d6	-0.027353209
49	0x3c0e1542	0.00867206
50	0x3b5e36ef	0.0033907255
51	0xbb913745	-0.0044316375
52	0xbc4d1eaf	-0.012519523
53	0x3a5d1a00	0.0008434355
54	0xbb0cf664	-0.0021509165
55	0xbb8fd1cc	-0.0043890234
56	0x3bea785b	0.007155461
57	0xbc806ba8	-0.015676335
58	0xbc2bb1d5	-0.01047941
59	0x3c6a4b2f	0.014300152
60	0xbbcff6c9	-0.0063465578
61	0x3c86a42f	0.01643571
62	0x3b3a238f	0.0028402542
63	0x3b16ee67	0.0023030282
64	0x3bc6c894	0.0060663912
65	0xbc8b3073	-0.016990876
66	0x3b536486	0.0032255962
67	0xbcce16dd	-0.025157386
68	0xbc834aca	-0.016026873
69	0xbc116c5c	-0.008875933
70	0xbcd1fffc	-0.025634758
71	0xbcf6f318	-0.030145213
72	0xbcfe5414	-0.031045951
73	0xbaf807e0	-0.0018923245
74	0x3b8ee91b	0.0043612844
75	0x3b44f488	0.0030052979
76	0x3ca8240e	0.020525005
77	0x3cc2be13	0.023772275
78	0x3b39d9c8	0.0028358568
79	0x3b83aaf0	0.00401818
80	0x3ac10229	0.0014725375
81	0x3c9ebbf1	0.019376727
82	0xbb87f08c	-0.0041485485
83	0xbc2c6436	-0.010521939
84	0xbc52e777	-0.012872568
85	0xbb92aa45	-0.004475864
86	0x3cbcc526	0.023043226
87	0xba837931	-0.0010030625
88	0x3b3891fc	0.0028163185
89	0xbad4fc66	-0.0016249537
90	0x3c7d9fa3	0.015479955
91	0xbbba3c43	-0.0056834533
92	0xbc1d64ae	-0.009606523
93	0xbd365acf	-0.044520196
94	0x3cb76b2e	0.022389974
95	0x3aa27398	0.0012394069
96	0xbc1a5963	-0.0094207255
97	0x3af8ba34	0.0018976391
98	0x3c170fbb	0.009220059
99	0xbc3926ad	-0.011300725
100	0xbd190170	-0.037354887
101	0xbcf89632	-0.030345056
102	0xbae102d7	-0.0017166984
103	0x3b132b27	0.002245614
104	0xbc86debc	-0.01646363
105	0xbbb62400	-0.0055584908
106	0xbd1717de	-0.036887996
107	0xbc20e9dc	-0.009821381
108	0xbd038eeb	-0.03211872
109	0xbbd9a339	-0.006641772
110	0x3caa9aa1	0.020825686
111	0x3c465334	0.012104798
112	0xbab0bcc4	-0.0013483991
113	0xbd34ae67	-0.044111636
114	0x3bf98415	0.0076146224
115	0x3c14d01d	0.009082821
116	0xbaef3906	-0.0018251247
117	0x3c09ad68	0.00840316
118	0xbcc6e8de	-0.024280962
119	0xbd00163c	-0.031271204
120	0xbcaf81aa	-0.021424133
121	0xbca315e9	-0.019907909
122	0xbc313144	-0.0108149685
123	0x3b01dbf3	0.0019814938
124	0x3cae416f	0.021271436
125	0x3a191454	0.0005839516
126	0x3b8346f8	0.004006263
127	0xbc0f7b50	-0.008757427

action_model._continuous_distribution.log_sigma f4 [1, 2]
0	0xbd57301f	-0.052536126
1	0xbd707593	-0.058705878

action_model._continuous_distribution.mu.weight f4 [2, 128]
0	0xbafcf797	-0.0019299862
1	0xbca9ff1a	-0.020751525
2	0xbcc2d05c	-0.023780994
3	0x3ca0a61c	0.019610457
4	0xbce0d0e9	-0.027443366
5	0x3d2cadcb	0.04215793
6	0x3d167f75	0.036742646
7	0xbcfc0088	-0.030761972
8	0x3d0fede1	0.03513897
9	0xbd1c4947	-0.03815582
10	0x3d3a6ceb	0.04551403
11	0xbd251e03	-0.040311825
12	0xbc3039fc	-0.010756012
13	0x3d4ba379	0.049716447
14	0x3d918274	0.0710496
15	0xbd432c6d	-0.04764979
16	0xbd295066	-0.04133644
17	0xbcd7444a	-0.02627768
18	0xbd984245	-0.07434515
19	0xba7c6cf4	-0.00096292724
20	0xbd268e75	-0.0406632
21	0xbd28f1ef	-0.04124635
22	0xbab63930	-0.0013902541
23	0x3d6c16f7	0.05763909
24	0x3afd989b	0.0019347848
25	0xbbbb82d1	-0.0057223816
26	0xbd0b8fe4	-0.03407277
27	0xbc3ea0b7	-0.011634997
28	0x3d7b2dc5	0.061322946
29	0x3b192b69	0.0023371822
30	0x3cdae809	0.026721971
31	0xbc96d109	-0.018410223
32	0xbc4a7f2f	-0.0123594245
33	0x3d569286	0.05238583
34	0xbd2bf343	-0.04198004
35	0xbc789a1d	-0.015173462
36	0xbd09d695	-0.033651907
37	0xbd0e47a8	-0.034736305
38	0xbd23961f	-0.03993809
39	0x3d3a8100	0.04553318
40	0x3a20a159	0.00061275583
41	0xbcc09b06	-0.023511421
42	0x3cfa6172	0.030564044
43	0x3d8da3b4	0.069159895
44	0x3d430554	0.047612503
45	0xb9e68481	-0.00043967742
46	0xbd8a503d	-0.067535855
47	0x3b685583	0.003545136
48	0xbd180774	-0.037116483
49	0x3c0597a5	0.008153831
50	0x3d42d270	0.04756397
51	0xbb70cb79	-0.0036742373
52	0xbd1d47db	-0.038398605
53	0xbd3513bf	-0.044208284
54	0xbd50893c	-0.050912127
55	0xbca137b7	-0.019679887
56	0xbc178720	-0.009248525
57	0xbcaba2d8	-0.020951673
58	0x3b0e6f75	0.0021733914
59	0x3d800da9	0.062526055
60	0xbd2fb80a	-0.042900123
61	0x3d6ee456	0.058323227
62	0x3c285909	0.010275134
63	0xbccf8d7b	-0.025336018
64	0x3c7ce78c	0.015436064
65	0xbcc3f2f3	-0.023919558
66	0x3cd89dba	0.026442397
67	0xbd2f45e0	-0.042791247
68	0xbc468ad9	-0.012118065
69	0xbd3fd023	-0.046829354
70	0xbd4757ea	-0.048667826
71	0xbd263bd5	-0.040584404
72	0x3c66d574	0.014088977
73	0x3ce5e99e	0.028065499
74	0xbc80af75	-0.015708664
75	0x3ca99631	0.0207015
76	0x3d990008	0.07470709
77	0x3da376d6	0.079816505
78	0x3c22e507	0.0099423
79	0xbd5e93ae	-0.054340057
80	0xbc9baa8f	-0.019002227
81	0x3ca3927a	0.019967306
82	0xb98ae140	-0.00026489235
83	0xbceb6f05	-0.028739462
84	0xbd0c3372	-0.03422875
85	0x3a070df1	0.0005151919
86	0xbc4c6e8c	-0.012477528
87	0xbb9330f3	-0.004491919
88	0xbcc9b7ae	-0.024623718
89	0x3a49fc88	0.00077051716
90	0xbc170de2	-0.0092196185
91	0xbb7870fd	-0.0037909143
92	0xbb6cefcc	-0.0036153672
93	0x3b7f0d0f	0.0038917696
94	0x3da5705c	0.080780715
95	0x3d4c5398	0.04988441
96	0x3d06365c	0.032766685
97	0x3c8c136d	0.017099107
98	0xbd4534dd	-0.048146117
99	0xbc4b1241	-0.012394489
100	0x3c88b8db	0.016689708
101	0x3a3eb8b5	0.00072754483
102	0xbb159360	-0.0022823438
103	0x3c14aa8f	0.009073867
104	0xbb812d73	-0.0039421855
105	0xbd016fab	-0.031600635
106	0x3c811a7c	0.015759699
107	0xbd28a8c3	-0.04117657
108	0xbc5a15a2	-0.013310822
109	0xbd37f908	-0.04491523
110	0xbc75f39a	-0.015011692
111	0x3ccd4776	0.02505849
112	0xbb737a3d	-0.0037151717
113	0xbbca920d	-0.0061819614
114	0x3d4288da	0.047493793
115	0x3cc29969	0.023754792
116	0xbc86d8c1	-0.016460778
117	0x3d2762a6	0.040865563
118	0xbca90550	-0.020632416
119	0xbc89a726	-0.016803335
120	0xbcda6d88	-0.026663557
121	0xbcbd96ed	-0.023143256
122	0xbc6d332b	-0.014477531
123	0x3ad80818	0.0016481904
124	0x3d89ccf5	0.067285456
125	0x3be3c03a	0.0069504054
126	0x3c3c7ab7	0.011503867
127	0xbc820eb8	-0.01587616
128	0x3d25c35d	0.040469516
129	0xbc067516	-0.008206626
130	0xbd4bbe07	-0.04974177
131	0xbbeb2fb0	-0.0071773157
132	0xbd17464c	-0.036932275
133	0x3b825f08	0.0039786138
134	0x3bb74a57	0.005593579
135	0x3bc32d9f	0.005956366
136	0x3bb47d82	0.0055081258
137	0xbbd4b738	-0.006491568
138	0x3c303e09	0.010756978
139	0xbcbd76cb	-0.023127934
140	0xbbfc7d60	-0.0077053756
141	0xbc7f25f6	-0.015573015
142	0xbbc0a6da	-0.0058792653
143	0xbc4866d6	-0.012231549
144	0x3d18ab3d	0.03727268
145	0x3b519507	0.0031979696
146	0x3919892a	0.00014642315
147	0x3b228491	0.0024798254
148	0xbbb08492	-0.0053868974
149	0xbca4b8cf	-0.020107655
150	0x3cc52a80	0.024068117
151	0xba221172	-0.0006182409
152	0xbbcb5ad9	-0.0062058982
153	0xbd18f4fa	-0.037343003
154	0x3b3bc8a9	0.0028653538
155	0x3b5251fa	0.003209232
156	0x3bf2839b	0.0074009425
157	0xbc6f9a33	-0.014624166
158	0x3cf0ac60	0.02937907
159	0x3ce5ced0	0.028052717
160	0xbd1b7823	-0.03795637
161	0xbba545c7	-0.0050437185
162	0xbc9eadc3	-0.019369965
163	0xb99978ac	-0.00029272342
164	0xbb861fe5	-0.0040931576
165	0xbc685df0	-0.014182553
166	0x3d0d9d31	0.034573738
167	0x3c8f5669	0.017497258
168	0xbba38f91	-0.0049914797
169	0xbb968c47	-0.004594359
170	0xb9b9b84c	-0.00035423262
171	0xbc89f1cd	-0.016838932
172	0xb9426d1a	-0.00018541925
173	0xbcf51cd8	-0.02992098
174	0xbc613fc6	-0.013748115
175	0x3c9e9c90	0.019361764
176	0xbd014749	-0.031562123
177	0x3c03befe	0.008041142
178	0xbcfdeb66	-0.030996036
179	0x3b0e6f9a	0.0021734
180	0xbce04c9c	-0.02738028
181	0x3cf6bb89	0.03011872
182	0x3d2d8746	0.042365335
183	0xbd2a0936	-0.04151269
184	0xbb1dc03e	-0.0024070884
185	0x3aff8d14	0.0019497001
186	0x3b995610	0.004679449
187	0x3ab8366a	0.0014054303
188	0xbd034d10	-0.032055914
189	0xbb1e3768	-0.0024141911
190	0xbcb55955	-0.022137323
191	0x3cf157e3	0.029460853
192	0x3ca74290	0.020417482
193	0xbc2d8128	-0.010589875
194	0x3b8bd419	0.0042672274
195	0xbba095ac	-0.004900655
196	0xbcc328a0	-0.023823082
197	0xbb60a7fd	-0.0034279816
198	0xb7e7589c	-2.7578608e-05
199	0xbcf6f4ce	-0.030146029
200	0xbc9bb090	-0.01900509
201	0x3948b98c	0.00019142608
202	0xbbc700a2	-0.0060730735
203	0x3c0f6ac3	0.008753481
204	0xbb93d711	-0.004511722
205	0x3a9d4919	0.0011999934
206	0x3c8f105c	0.017463855
207	0xbc9bde77	-0.019026978
208	0xbca2f316	-0.019891303
209	0x3d29aad8	0.041422695
210	0xbbf59c74	-0.0074954573
211	0xbc390537	-0.011292747
212	0xbc0888bb	-0.00833338
213	0xbcef0227	-0.029175831
214	0xbd1070ee	-0.03526395
215	0xbca40471	-0.02002165
216	0x3d5e1253	0.054216694
217	0x3cc987b2	0.024600837
218	0xbcbdf7e9	-0.023189502
219	0x3cc7eaa5	0.02440388
220	0x3cb3d80a	0.021953601
221	0xbbcf9bde	-0.0063357195
222	0xbba651a2	-0.0050756494
223	0xbc78cf88	-0.015186198
224	0xbc59bc4d	-0.013289523
225	0x3c271520	0.010197908
226	0xbc9c4365	-0.019075105
227	0xba6e80fd	-0.00090982
228	0xbbc4fc84	-0.0060115475
229	0xbc81235c	-0.015763931
230	0xbc08fe0d	-0.008361352
231	0x3bccac00	0.00624609
232	0xbca2dec1	-0.019881608
233	0x3a0b22af	0.00053075975
234	0xbc9b2ec8	-0.018943205
235	0xbb14504f	-0.0022630875
236	0xbc9d384d	-0.019191885
237	0x3d1596e0	0.03652084
238	0xbd2eadcb	-0.04264621
239	0x3c893283	0.016747719
240	0x3b784c12	0.0037887138
241	0x3baab4c2	0.0052095363
242	0x397a5c36	0.00023876209
243	0x3c5a8574	0.013337482
244	0x3d3fe77a	0.046851613
245	0x3c77f066	0.015132999
246	0xbd078cf0	-0.033093393
247	0x3c5ef50e	0.01360823
248	0xbcd38f5a	-0.025825191
249	0xbbe321fc	-0.0069315415
250	0xbd026ab4	-0.03184004
251	0x3cfd50e5	0.030922363
252	0x3aee0eec	0.0018162406
253	0x3cb83d4b	0.022490164
254	0xbc64d2ec	-0.013966303
255	0xbcaad720	-0.020854533

action_model._continuous_distribution.mu.bias f4 [2]
0	0x3ca816ba	0.02051865
1	0x3ca77b00	0.020444393

action_model._discrete_distribution.branches.0.weight f4 [1, 128]
0	0x3c26406a	0.010147193
1	0xbc1d40fa	-0.009598011
2	0x3c23ac0e	0.0099897515
3	0xbae80d6d	-0.0017704197
4	0x3bf67ddb	0.0075223274
5	0x3bd72fbf	0.006566971
6	0x39f0a03d	0.00045895754
7	0xbbb6f373	-0.0055832206
8	0x3b34d68d	0.0027593703
9	0x3b65e230	0.0035077445
10	0xbb3f8d77	-0.0029228607
11	0x3ccbe147	0.024887694
12	0x3c48ba48	0.012251444
13	0xbb007a64	-0.00196042
14	0xbc54e890	-0.0129949
15	0x3ad6dac0	0.0016392097
16	0x3c485738	0.012227826
17	0x3bcd3a70	0.00626307
18	0xbc1510bd	-0.009098229
19	0x3c459821	0.012060196
20	0x3c18b083	0.009319427
21	0x3c1acbb0	0.009447977
22	0xbc21ad23	-0.009867939
23	0x3c5de108	0.013542421
24	0x3b2f4cb6	0.0026748604
25	0x3c0396df	0.008031576
26	0xbc1070f2	-0.008815991
27	0xbbb241c1	-0.0054399674
28	0xbcab6838	-0.020923719
29	0xbca2a797	-0.019855304
30	0xb9439b55	-0.00018654515
31	0xbc284cfe	-0.010272263
32	0xbb75918a	-0.0037470781
33	0xbb795553	-0.0038045242
34	0x3c1a7c1f	0.009429007
35	0x3bb242f7	0.0054401117
36	0xbbc0cea0	-0.0058840066
37	0xbb54161d	-0.0032361813
38	0x3c0a86cb	0.008454989
39	0x3bc2b486	0.00594193
40	0xbbd7aa43	-0.006581576
41	0xbc056163	-0.008140895
42	0x3baf2e17	0.0053460705
43	0x3b8fb7e8	0.004385937
44	0xbadeeb57	-0.0017007393
45	0xbbcc5fbb	-0.006236998
46	0xbac2dfea	-0.0014867757
47	0x3c66b310	0.014080778
48	0x3bdb1f3a	0.006687072
49	0x3bd7a7ed	0.0065812976
50	0x3c62efa5	0.013851081
51	0xbc11d787	-0.008901483
52	0xbb027e19	-0.0019911586
53	0xbc94d24f	-0.01816669
54	0xb9abdd97	-0.0003278076
55	0xba900f76	-0.0010990936
56	0x3b243c63	0.0025060407
57	0x3a6ce99d	0.00090374966
58	0x3b3aec95	0.0028522362
59	0x37bd4f84	2.2567583e-05
60	0x3be5017a	0.0069887014
61	0xbb90c366	-0.0044178246
62	0xb9c45138	-0.00037444546
63	0xbc376f55	-0.011195977
64	0x3b855583	0.0040690317
65	0x3c6a0a88	0.014284737
66	0x39f6e7bd	0.00047093435
67	0xbbd0989d	-0.006365849
68	0x3b4148e3	0.0029492907
69	0xba339562	-0.0006850568
70	0xbbd65eaf	-0.006542049
71	0xbb326caf	-0.0027225425
72	0xb9128718	-0.00013973971
73	0x3c5fc5c7	0.013657994
74	0x3b47dc38	0.003049625
75	0x3b1adb26	0.0023629158
76	0xbb0dea04	-0.0021654377
77	0xbb77e07f	-0.003782302
78	0x3c140a93	0.009035724
79	0xbc056d09	-0.008143672
80	0x3c4210d5	0.011844833
81	0xbb4b9bc7	-0.0031068192
82	0xb9a86bcc	-0.00032123772
83	0xbc306053	-0.010765153
84	0xbbe7291b	-0.0070544607
85	0x3c079a47	0.008276529
86	0xbbf88923	-0.0075847073
87	0x3c3a3af9	0.011366599
88	0x3ae7eea8	0.0017695026
89	0x3aa8c5c6	0.0012876324
90	0xbb0f5546	-0.0021870895
91	0xbbf4705b	-0.007459683
92	0x3c05d567	0.008168555
93	0xbc48f42d	-0.012265247
94	0x3bdedb9a	0.006801081
95	0x3b4690d8	0.0030298736
96	0xbb68e8af	-0.003553908
97	0x3b07d4bf	0.0020726172
98	0xbaf7c182	-0.0018902274
99	0x3b4ac944	0.0030942718
100	0x3b3441bf	0.0027505008
101	0xbbc9a8af	-0.006154142
102	0x3acb639b	0.0015517356
103	0xbc2e265b	-0.010629262
104	0xbc0613db	-0.008183445
105	0xbb25f8a7	-0.002532521
106	0x3bef52e2	0.0073035816
107	0x3bacfa31	0.0052788486
108	0xb8a9cdac	-8.096857e-05
109	0xbc356c33	-0.01107316
110	0xbc28ce2f	-0.010303064
111	0x3b1da33e	0.0024053599
112	0xbbf700b2	-0.0075379247
113	0x3c6e8e1d	0.01456025
114	0x3c2a49d7	0.010393581
115	0xbc07685e	-0.008264629
116	0x3a86ea53	0.0010293223
117	0xbc227f32	-0.009918021
118	0xbc212c95	-0.009837289
119	0x3cacf4bb	0.02111279
120	0x39f5bacd	0.0004686922
121	0xbc3d58e0	-0.011556834
122	0xbb008a8b	-0.0019613828
123	0x3b6d10ab	0.0036173265
124	0x3cb28c8f	0.02179554
125	0xbb31a15f	-0.0027104241
126	0x3a0b8fc1	0.000532385
127	0x3c0af313	0.008480805
