Project specific/results/JumperAgent/JumperAgent/JumperAgent-30365.pt (torch, 757257 bytes, 39 tensors)

network_body._body_endoder.seq_layers.0.weight f4 [128, 109]
-0.1781517 -0.019214446 0.0020517013 -0.06131147 -0.006237474 -0.05078626 -0.119798824 0.04328598
-0.027826484 0.09757107 -0.15075192 0.019665468 0.115860276 -0.035694797 -0.09876821 0.0584081
-0.02152785 0.021240307 -0.045471746 0.18098326 0.092835754 -0.15664117 0.048991363 -0.100407176
-0.17549321 -0.17041665 -0.023540584 -0.073394634 -0.035384703 -0.15549327 0.018400466 0.056454986
0.14561506 0.07464143 0.13269638 0.0041337335 0.00614344 0.054981377 0.09504311 -0.13724348
-0.08988174 0.01822207 0.18652546 -0.04563661 -0.1792627 -0.06084311 0.1763301 -0.06838126
0.16566005 -0.16868858 -0.12110539 -0.26256898 -0.22278689 -0.1032339 -0.101331964 -0.09425811
0.17760344 0.18408942 -0.13673308 -0.01710309 -0.063711755 -0.1061481 -0.0066421893 -0.07821601
0.086056046 -0.12204733 0.14156643 -0.00048259407 0.1173049 -0.11324565 0.12105309 -0.06840535
0.1429798 -0.13542184 -0.0074002845 -0.06905602 0.10039764 -0.05662189 0.13740273 0.061393287
0.117122695 -0.025254576 -0.09334958 -0.07285939 -0.14723067 0.0943969 0.00402069 -0.018418444
-0.044088196 -0.13119748 -0.004175364 0.1081468 0.04523672 0.06373048 -0.087688535 -0.000891212
0.0021958489 -0.066001736 0.0395853 -0.055017382 0.050272413 -0.04962622 0.021160904 0.043758016
-0.06267255 0.04923033 -0.028020322 0.26699346 0.118153416 -0.25206107 -0.11536892 0.03984377
0.095997915 0.040474992 -0.08344867 -0.022612572 -0.06061691 0.004138219 0.15851967 0.053594828
-0.1335842 0.08129395 -0.06713973 0.08346248 -0.09468738 0.13661563 -0.11751138 -0.03681414
0.074600026 -0.04516112 0.046975642 0.019012906 0.073484 -0.13646775 0.15482488 0.0152106965
0.016317608 0.11001637 0.031902358 0.10732197 -0.041581813 -0.07223248 -0.06791187 0.09270871
0.12785819 0.0302935 0.06545243 -0.07083595 -0.085227534 -0.050183285 -0.23301587 0.06835073
-0.025310947 -0.05050192 -0.12990744 0.19691832 0.06232504 -0.043501366 0.015550648 0.008929779
-0.03349843 0.102383934 -0.14300616 -0.054250214 -0.058727846 0.08176661 -0.15216592 0.027126852
0.12962651 0.015894698 0.14114662 0.07278198 0.09650932 0.09862882 0.09433379 0.031493336
0.04313317 0.012692948 -0.0019162265 -0.15390296 0.17043056 0.114357755 0.037588015 0.05608874
0.00019553244 0.0041175517 0.118256174 -0.027327351 0.04714465 0.0076430193 0.06308055 -0.042169787
0.043296445 -0.21384296 0.13153154 -0.23986521 -0.009992892 0.04541803 0.048633765 0.14195535
-0.037896167 -0.06101392 -0.07553573 0.139056 0.12168542 0.03882782 0.054606237 0.06668859
-0.060763124 0.13013673 0.15297592 0.05168177 -0.04172093 -0.016653713 0.09322204 0.07121729
0.093248434 -0.043621358 0.033550087 0.12674776 0.16727893 -0.07919728 0.049007278 0.072545126
0.046771083 -0.14241369 0.06985225 0.015352423 -0.111800015 0.060903393 -0.02370387 0.11427802
0.07613987 0.072910376 -0.015238769 -0.16660692 0.10370702 -0.094564885 -0.034829717 -0.07617356
-0.015418436 0.10586194 -0.14549248 0.0679674 -0.082837716 -0.04144502 -0.15936542 -0.04619247
0.102625616 -0.052368928 -0.0060981316 0.12874882 0.14836332 0.037200626 -0.124178626 -0.042999834
00000000: 666d 36be 9d67 9dbc d675 063b bc21 7bbd
00000010: b963 ccbb 4105 50bd 1659 f5bd a44c 313d
00000020: 5ef4 e3bc 57d3 c73d b65e 1abe 7a19 a13c
00000030: 2748 ed3d b534 12bd fd46 cabd 553d 6f3d
00000040: 2c5b b0bc 2700 ae3c 9540 3abd ad53 393e
00000050: ac20 be3d 8b66 20be 2bab 483d 47a2 cdbd
00000060: 7eb4 33be b481 2ebe 2fd8 c0bc ed4f 96bd
00000070: 8def 10bd a139 1fbe 93bc 963c 583d 673d
00000080: 1d1c 153e 9bdd 983d 8fe1 073e 4574 873b
00000090: e94e c93b 2734 613d f6a5 c23d 8e89 0cbe
000000a0: eb13 b8bd 7346 953c 8800 3f3e 74ed 3abd
000000b0: a490 37be a036 79bd e18f 343e 790b 8cbd
000000c0: caa2 293e b3bc 2cbe 1a06 f8bd 716f 86be
000000d0: 3f22 64be 4c6c d3bd 2287 cfbd 650a c1bd
000000e0: addd 353e f081 3c3e c203 0cbe c81b 8cbc
000000f0: 4f7b 82bd 2d64 d9bd b9a6 d9bb b72f a0bd
00000100: 273e b03d f3f3 f9bd caf6 103e ae04 fdb9
00000110: 8d3d f03d 56ed e7bd afea f73d 1b18 8cbd
00000120: 4c69 123e 06ac 0abe 167e f2bb 3e6d 8dbd
00000130: 479d cd3d 5bec 67bd 4db3 0c3e 8777 7b3d
00000140: 06de ef3d afe2 cebc 112e bfbd 4e37 95bd
00000150: a3c3 16be 2953 c13d febf 833b 47e2 96bc
00000160: d395 34bd a258 06be 7ed1 88bb 127c dd3d
00000170: 244a 393d 2085 823d 0c96 b3bd 3aa0 69ba
00000180: 3be8 0f3b eb2b 87bd 3224 223d e859 61bd
00000190: 72ea 4d3d dd44 4bbd a259 ad3c 9b3b 333d
000001a0: 775a 80bd bea5 493d e08a e5bc 5eb3 883e
000001b0: 6bfa f13d 260e 81be 8a46 ecbd 3933 233d
000001c0: 8e9a c43d 1bc9 253d 23e7 aabd 003e b9bc
000001d0: 7049 78bd e699 873b fb52 223e 4086 5b3d
000001e0: 4cca 08be 717d a63d 8e80 89bd 60ee aa3d
000001f0: 75eb c1bd f8e4 0b3e cea9 f0bd 6cca 16bd
00000200: e6c7 983d defa 38bd 8869 403d f4c0 9b3c
00000210: c87e 963d 34be 0bbe 6a8a 1e3e 4936 793c
00000220: 81ac 853c 4350 e13d 0cac 023d 9fcb db3d
00000230: b151 2abd 9fee 93bd 6115 8bbd 10de bd3d
00000240: 42ed 023e 132a f83c ec0b 863d 7012 91bd
00000250: c68b aebd fd8c 4dbd b69b 6ebe 78fb 8b3d
00000260: e758 cfbc 1adb 4ebd 7506 05be f5a4 493e
00000270: 8b48 7f3d 7d2e 32bd 25c8 7e3c 354e 123c
00000280: a635 09bd abae d13d 3570 12be 7935 5ebd
00000290: 9c8c 70bd 4175 a73d 62d1 1bbe 2239 de3c
000002a0: d0bc 043e 9935 823c bd88 103e b80e 953d
000002b0: aea6 c53d e8fd c93d 1332 c13d 28ff 003d
000002c0: 68ac 303d 15f6 4f3c e429 fbba bd98 1dbe
000002d0: 5985 2e3e 6634 ea3d e4f5 193d 4ebd 653d
000002e0: d707 4d39 87ec 863b 4b30 f23d 9cdd dfbc
000002f0: c01a 413d 4b72 fa3b 6030 813d 3aba 2cbd
00000300: 9d57 313d a6f9 5abe 34b0 063e 3a9f 75be
00000310: 3ab9 23bc 4208 3a3d 3334 473d be5c 113e
00000320: 0339 1bbd bbe9 79bd 7ab2 9abd b264 0e3e
00000330: 3536 f93d ec09 1f3d caaa 5f3d 0794 883d
00000340: c1e2 78bd 9042 053e b8a5 1c3e 43b0 533d
00000350: 91e3 2abd 5e6d 88bc 32eb be3d 5fda 913d
00000360: 09f9 be3d 4fac 32bd d16b 093d 2aca 013e
00000370: 2b4b 2b3e 2f32 a2bd dbbb 483d 8a92 943d
00000380: 0993 3f3d e5d4 11be b20e 8f3d bb88 7b3c
00000390: 68f7 e4bd d675 793d 9e2e c2bc 980a ea3d
000003a0: 38ef 9b3d 0952 953d 08ac 79bc 019b 2abe
000003b0: 5964 d43d 3cab c1bd 9ba9 0ebd e200 9cbd
000003c0: 9c9d 7cbc 25ce d83d fbfb 14be 7e32 8b3d
000003d0: d2a6 a9bd 41c2 29bd b030 23be 5134 3dbd
000003e0: 612d d23d cd80 56bd d6d2 c7bb bbd6 033e
000003f0: 8eec 173e af5f 183d 5d51 febd 9820 30bd

network_body._body_endoder.seq_layers.0.bias f4 [128]
-0.04560668 -0.0046541127 -0.00047177105 -0.017032562 0.006054349 0.017320098 0.025078632 0.004817123
-0.022055948 -0.037945498 -0.03478763 0.0019858293 -0.027750807 -0.028186752 -0.044209376 -0.0054297238
-0.018538157 -0.006107724 -0.029611256 -0.01698753 -0.016499383 0.008641601 0.01377187 0.052424967
-0.030194098 -0.016538162 0.0038512386 0.028348153 -0.0070750513 0.05856348 -0.00089923484 -0.008443101
-0.013507029 -0.022361334 -0.026761387 -0.02211565 0.037877396 0.024996305 -0.024371812 0.040476
-0.00094430795 -0.061718494 0.0034569371 0.012668257 -0.0123700155 -0.034248687 0.0011245155 -0.020482752
-0.03995742 0.01370035 -0.0035478473 0.027742935 0.004492368 -0.0012761748 -0.03471476 -0.0043398617
0.0051271175 -0.029108586 -0.014671322 -0.0019227494 -0.051666003 0.030977303 0.011147215 -0.07125949
-0.023856383 0.008359353 0.039478306 -0.02659166 -0.023180796 -0.0022195238 -0.03583053 -0.02046428
-0.032628085 0.032121886 0.002448701 -0.0057117953 -0.0011539927 -0.0004914324 0.0011819925 -0.017747836
-0.01167608 -0.009426352 -0.024388205 0.009179848 0.037082136 0.01561093 -0.009102429 -0.01644884
0.02175389 9.318219e-05 -0.023697114 -0.004323671 0.008877491 0.01776018 -0.017920433 0.0037906093
0.012879933 0.02257507 -0.034484413 -0.025607387 -0.034523223 -0.015376693 0.0021352486 0.008419024
-0.02566135 -0.021675529 -0.033797335 0.021481229 0.020959333 0.03292692 -0.042949148 -0.025184613
0.012570485 0.017252784 0.0098197 -0.009674016 -0.005659218 -0.028829817 0.004372914 -0.014146994
-0.042381987 0.013705052 -0.04495567 -0.010829995 -0.049150817 -0.02176035 -0.04016437 0.009866532
00000000: 12ce 3abd 8781 98bb 0a58 f7b9 df87 8bbc
00000010: 8f63 c63b e1e2 8d3c b471 cd3c f5d8 9d3b
00000020: adae b4bc bd6c 1bbd 797d 0ebd b024 023b
00000030: a955 e3bc e7e7 e6bc e414 35bd d3eb b1bb
00000040: 55dd 97bc 4d23 c8bb 4e93 f2bc 6f29 8bbc
00000050: b729 87bc 8095 0d3c 69a3 613c 90bb 563d
00000060: 9d59 f7bc 0a7b 87bc 1065 7c3b 633a e83c
00000070: d5d5 e7bb 42e0 6f3d a1ba 6bba ef54 0abc
00000080: 964c 5dbc 1e2f b7bc b23a dbbc e12b b5bc
00000090: 5425 1b3d 0dc5 cc3c 65a7 c7bc 2aca 253d
000000a0: 6f8b 77ba 88cc 7cbd c88d 623b 858e 4f3c
000000b0: 9bab 4abc 5a48 0cbd 7b64 933a 72cb a7bc
000000c0: 64aa 23bd 6f77 603c 0083 68bb 2745 e33c
000000d0: b734 933b 5245 a7ba 1031 0ebd 6635 8ebb
000000e0: 6101 a83b 2175 eebc fc5f 70bc c404 fcba
000000f0: bb9f 53bd 1dc4 fd3c cfa2 363c 7ff0 91bd
00000100: 766e c3bc abf5 083c 01b4 213d c1d6 d9bc
00000110: a7e5 bdbc 6e75 11bb 09c3 12bd b5a4 a7bc
00000120: 07a5 05bd 3d92 033d 637a 203b 032a bbbb
00000130: 9241 97ba 78d3 00ba 16ed 9a3a e963 91bc
00000140: 074d 3fbc fc70 1abc c6c9 c7bc 1367 163c
00000150: 70e3 173d fcc4 7f3c 5b22 15bc b8bf 86bc
00000160: 3735 b23c cf6a c338 7320 c2bc 95ad 8dbb
00000170: e572 113c cc7d 913c dfcd 92bc df6b 783b
00000180: 5b06 533c 5aef b83c 873f 0dbd 95c6 d1bc
00000190: 3968 0dbd 86ee 7bbc 87ef 0b3b f2ef 093c
000001a0: c037 d2bc e190 b1bc 136f 0abd 67f9 af3c
000001b0: e8b2 ab3c 61de 063d 72eb 2fbd f64f cebc
000001c0: 6ff4 4d3c b655 8d3c cfe2 203c c47f 1ebc
000001d0: f670 b9bb 822c ecbc a94a 8f3b cbc8 67bc
000001e0: bc98 2dbd 288b 603c 7023 38bd 4b70 31bc
000001f0: 5e52 49bd c342 b2bc 6583 24bd 3ca7 213c

network_body._body_endoder.seq_layers.2.weight f4 [128, 128]
0.1377625 0.09614649 -0.007520193 0.03247841 0.02654469 -0.070280276 -0.029083336 -0.078704484
0.119057246 -0.046779063 -0.13455543 0.17618771 0.07271968 0.03163476 0.06850528 -0.055659432
-0.005933102 -0.0067492714 -0.0023142258 -0.062915556 -0.08139585 -0.024054753 0.034904774 0.008817183
0.035405777 -0.007325727 -0.08423269 0.058270015 0.04218263 -0.15121678 0.23781946 -0.029753067
0.17170058 -0.008167649 0.075817056 -0.1508103 -0.055872127 0.14634663 -0.109725 -0.103456385
0.06297804 0.07189323 0.068701714 -0.2496618 0.13260433 0.11364493 -0.10328124 -0.011856766
-0.02853522 0.08778162 -0.054182697 0.010404432 0.046557616 0.071199924 -0.08114325 -0.034213394
0.23006642 0.009948468 -0.110026106 0.044160567 0.20855 0.0391641 -0.09515407 -0.07065546
0.01640067 0.06939736 -0.16312867 0.14084303 0.054668885 0.027915765 0.09940906 -0.039577205
-0.031303685 0.04244701 0.16651468 0.029691955 0.05711117 -0.030075857 0.08906826 0.013384684
0.090235226 -0.062735334 -0.059704192 -0.011643537 -0.030273907 -0.063868046 0.06310112 -0.027694112
-0.15753281 0.06267333 0.1271543 0.119935066 -0.09802966 0.042133395 0.040123828 0.10496766
0.1733181 0.114107475 0.021888722 0.08745272 -0.008932411 0.14039135 -0.0117980465 0.0075071924
0.07037347 -0.08437504 0.022956572 0.061198074 0.089660466 0.15021525 0.059873324 0.106461875
-0.19167307 -0.08484081 -0.04617388 -0.062354226 -0.047958743 0.038283862 0.019859413 0.082274266
0.19251607 -0.09299467 0.14755526 0.021876259 -0.139323 0.054076467 -0.0054498157 0.23451176
-0.16953386 -0.04047528 -0.069703475 -0.057581414 0.033306748 -0.050107937 -0.045545846 0.045418933
0.04550487 -0.038885158 -0.011822808 -0.03811596 0.18459295 0.08411347 0.0010890737 0.086643994
-0.0143728545 -0.12492614 -0.04370695 -0.11108027 -0.029617023 0.0024325976 0.16050237 0.034980334
-0.1612542 -0.026669817 0.006057067 0.21811205 0.16575903 -0.1728535 -0.034140483 0.09941723
0.055846762 -0.009022053 -0.036445357 0.17442413 -0.028319366 0.13291389 0.09350997 -0.043551393
-0.1450914 0.023988493 0.016921088 -0.0032851174 -0.100703165 -0.1020302 -0.0038515015 0.003959728
0.08535468 0.043672536 -0.003086736 -0.061828103 0.039993856 0.0432661 -0.08803139 -0.0394901
-0.012299954 0.04305654 0.018003883 -0.05808462 -0.03821516 0.052432466 0.03970431 -0.07561277
0.03540802 0.18024221 0.15521608 -0.024019634 0.12966609 0.0007931255 -0.14207579 -0.036988147
-0.0065455292 0.036779013 -0.098909765 -0.12833053 0.07807207 -0.0650969 0.045105517 -0.033529762
0.0018534414 -0.038476124 0.004766028 0.013438647 -0.006402282 0.07344793 0.11704495 -0.053216524
0.011242318 0.10070069 0.13260485 -0.08585294 0.033873595 0.09112218 0.12312033 -0.028733553
0.03687134 0.11860146 -0.029031217 0.027659731 0.15365008 0.13167018 0.0068673403 0.033242907
-0.09042296 0.042659294 -0.12972263 0.026511073 0.029490776 -0.023809131 0.09965877 0.08596853
-0.051683545 0.053139187 0.06938538 -0.0637806 -0.11572375 -0.028211629 0.19532013 0.0030204004
-0.06179501 -0.07035614 -0.06466074 0.010462992 -0.0630119 0.052592196 -0.14996946 0.03948473
00000000: 9d11 0d3e 73e8 c43d f36b f6bb 1508 053d
00000010: 4074 d93c 1bef 8fbd 2d40 eebc d12f a1bd
00000020: 49d4 f33d 679b 3fbd e6c8 09be 8d6a 343e
00000030: 0eee 943d 7393 013d 7f4c 8c3d 25fb 63bd
00000040: 786a c2bb fe28 ddbb 44aa 17bb dfd9 80bd
00000050: deb2 a6bd 790e c5bc 4ff8 0e3d f275 103c
00000060: a605 113d a70c f0bb 3082 acbd 8aac 6e3d
00000070: b2c7 2c3d 92d8 1abe f286 733e b4bc f3bc
00000080: 47d2 2f3e 9ad1 05bc f945 9b3d 046e 1abe
00000090: 2cda 64bd e4db 153e 80b7 e0bd f1e0 d3bd
000000a0: a1fa 803d c23c 933d 7cb3 8c3d 58a7 7fbe
000000b0: 6ec9 073e acbe e83d 1d85 d3bd e242 42bc
000000c0: b2c2 e9bc dac6 b33d adee 5dbd 5a77 2a3c
000000d0: 33b3 3e3d 44d1 913d 6f2e a6bd 5823 0cbd
000000e0: 8896 6b3e e6fe 223c 5e55 e1bd b6e1 343d
000000f0: 228e 553e 896a 203d 23e0 c2bd cfb3 90bd
00000100: b35a 863c 3420 8e3d 340b 27be 2839 103e
00000110: 7bec 5f3d 9aaf e43c fa96 cb3d b51b 22bd
00000120: 4b38 00bd eadc 2d3d d382 2a3e 8b3c f33c
00000130: 67ed 693d a561 f6bc 6b69 b63d 6f4b 5b3c
00000140: 3fcd b83d 627b 80bd 628c 74bd 89c4 3ebc
00000150: fc00 f8bc 40cd 82bd 293b 813d c3de e2bc
00000160: 4850 21be e05a 803d bd34 023e 84a0 f53d
00000170: c6c3 c8bd 1194 2c3d e258 243d 49f9 d63d
00000180: 4d7a 313e 2eb1 e93d fa4f b33c 691a b33d
00000190: 3f59 12bc c0c2 0f3e 984c 41bc e5fe f53b
000001a0: f71f 903d d2cc acbd 6c0f bc3c d5aa 7a3d
000001b0: e89f b73d 07d2 193e bb3d 753d af08 da3d
000001c0: f245 44be 05c1 adbd d320 3dbd 2567 7fbd
000001d0: 6370 44bd 8acf 1c3d 35b0 a23c 697f a83d
000001e0: ef22 453e fd73 bebd ba18 173e d735 b33c
000001f0: b0aa 0ebe 497f 5d3d 5e94 b2bb da23 703e
00000200: 499a 2dbe 68c9 25bd b2c0 8ebd 7dda 6bbd
00000210: a86c 083d fb3d 4dbd 488e 3abd 3409 3a3d
00000220: 5163 3a3d 0b46 1fbd 73b4 41bc 7b1f 1cbd
00000230: ef05 3d3e af43 ac3d 40bf 8e3a 6872 b13d
00000240: 1f7c 6bbc 47d9 ffbd 0f06 33bd 0d7e e3bd
00000250: 669f f2bc 376c 1f3b bc5a 243e 8a47 0f3d
00000260: d21f 25be a97a dabc 5c7a c63b c458 5f3e
00000270: bcbc 293e 8200 31be e4d6 0bbd 439b cb3d
00000280: 93bf 643d 3cd1 13bc ba47 15bd 3d9c 323e
00000290: 04fe e7bc 941a 083e 2882 bf3d f262 32bd
000002a0: d792 14be 8483 c43c 189e 8a3c 204b 57bb
000002b0: 763d cebd 36f5 d0bd 7969 7cbb 9bc0 813b
000002c0: 6fce ae3d f9e1 323d d64a 4abb 773f 7dbd
000002d0: 99d0 233d cb37 313d cd49 b4bd 5fc0 21bd
000002e0: bf85 49bc 0e5c 303d e17c 933c 23ea 6dbd
000002f0: 8087 1cbd 6dc3 563d fda0 223d deda 9abd
00000300: 0008 113d 6a91 383e f7f0 1e3e d3c4 c4bc
00000310: 30c7 043e c0e9 4f3a 517c 11be e280 17bd
00000320: e17b d6bb 97a5 163d 3491 cabd 1469 03be
00000330: 40e4 9f3d 8651 85bd 90c0 383d 8156 09bd
00000340: 2cef f23a 2499 1dbd 572c 9c3b c52d 5c3c
00000350: 3cca d1bb de6b 963d 43b5 ef3d 92f9 59bd
00000360: b331 383c 2a3c ce3d 91c9 073e abd3 afbd
00000370: 0abf 0a3d 449e ba3d 8326 fc3d a162 ebbc
00000380: 6706 173d 52e5 f23d e0d2 edbc a996 e23c
00000390: 7256 1d3e 8cd4 063e 6d07 e13b b729 083d
000003a0: ac2f b9bd 83bb 2e3d 02d6 04be c02d d93c
000003b0: a496 f13c 5e0b c3bc e619 cc3d 4510 b03d
000003c0: 20b2 53bd 7aa8 593d ec19 8e3d 679f 82bd
000003d0: 9300 edbd 131c e7bc 0002 483e e9f1 453b
000003e0: c41c 7dbd e116 90bd da6c 84bd f86c 2b3c
000003f0: 620c 81bd ea6a 573d 9891 19be beba 213d

network_body._body_endoder.seq_layers.2.bias f4 [128]
-0.0006274283 -0.010273929 -0.002008989 -0.01903521 -0.011260338 0.008460673 -0.0015362585 -0.018994365
0.0073273634 -0.026980776 0.011288594 -0.0088113565 -0.006472735 0.006246813 0.012118967 0.017632868
-0.008146338 -0.018478833 0.0034711862 -0.009939661 -0.015471387 -0.007958613 0.0007109696 0.015353411
0.0069682677 -0.02706558 -0.010464058 -0.03992584 0.017871961 0.0031521237 0.010083851 -0.0012711891
-0.0245457 0.011298003 -0.0025016463 -0.028685475 -0.014808856 0.01212679 0.02124355 0.015618906
-0.010424304 -0.027206568 0.0059064045 0.037418395 0.001424829 -0.014723346 -0.018470274 -0.010735758
-0.028257772 0.0069740163 0.006184386 -0.00873361 -0.013903096 -0.00051841966 -0.0031152924 -0.0008164845
0.00680375 -0.0144174285 -0.013447773 0.013848796 -0.005138311 0.015474976 0.005686466 7.5785836e-05
0.0016406514 -0.0177303 0.0030795268 -0.023372162 -0.01931625 -0.007493481 -0.02267336 -0.0333599
-0.030075675 -0.0016053293 0.0063142655 0.0017220248 0.019928142 0.023048773 -0.0008906508 0.0048977234
0.00053246575 0.014689488 -0.0026224742 -0.006073922 -0.013292783 -0.009006929 0.02891744 0.0015738201
-0.0004498815 -0.005788185 0.02135881 -0.0082695065 -0.012593261 -0.04177002 0.021720666 0.0026099607
-0.0084059 -1.8250174e-05 0.0052852225 -0.007738813 -0.035873678 -0.03323566 0.0065162154 -0.0013468196
-0.020047901 -0.007115293 -0.037967723 -0.012593692 -0.035719797 -0.008708474 0.024266887 0.0095326975
-0.0044326293 -0.03752518 0.00747693 0.0070169927 -0.0056589125 0.0063011935 -0.019073002 -0.024618557
-0.02545046 -0.02106282 -0.010158991 -0.0020367198 0.020318903 -0.002360569 0.003131154 -0.0037578547
00000000: 007a 24ba fb53 28bc 3ea9 03bb bbef 9bbc
00000010: 487d 38bc a29e 0a3c 485c c9ba 129a 9bbc
00000020: 611a f03b ca06 ddbc ccf3 383c 825d 10bc
00000030: 3d19 d4bb 11b2 cc3b a28e 463c ce72 903c
00000040: 3878 05bc ec60 97bc d77c 633b f6d9 22bc
00000050: b37b 7dbc d864 02bc 5d60 3a3a e08c 7b3c
00000060: 1156 e43b a3b8 ddbc 7171 2bbc 4789 23bd
00000070: 3868 923c dc93 4e3b bd36 253c 079e a6ba
00000080: 1014 c9bc 421b 393c a9f2 23bb cdfd eabc
00000090: d8a0 72bc 72af 463c f406 ae3c 71e6 7f3c
000000a0: b3ca 2abc 4fe0 debc 838a c13b 0844 193d
000000b0: 54c1 ba3a 303a 71bc f94e 97bc 08e5 2fbc
000000c0: d87c e7bc 4a86 e43b 64a6 ca3b 6a17 0fbc
000000d0: d0c9 63bc 8ee6 07ba ef29 4cbb 5909 56ba
000000e0: fef1 de3b 1437 6cbc 0c54 5cbc 0fe6 623c
000000f0: 475f a8bb c18a 7d3c 8955 ba3b 36ef 9e38
00000100: 200b d73a 223f 91bc e3d1 493b fa76 bfbc
00000110: 1d3d 9ebc e08b f5bb 7bbd b9bc 64a4 08bd
00000120: 4361 f6bc ea69 d2ba e6e7 ce3b 90b5 e13a
00000130: 5840 a33c c8d0 bc3c 907a 69ba 157d a03b
00000140: 2c95 0b3a 2eac 703c d1dd 2bbb c007 c7bb
00000150: f9c9 59bc cc91 13bc 44e4 ec3c a448 ce3a
00000160: 13de ebb9 d1aa bdbb acf8 ae3c d37c 07bc
00000170: f753 4ebc 0a17 2bbd 8aef b13c e00b 2b3b
00000180: e6b8 09bc f317 99b7 a92f ad3b de95 fdbb
00000190: 47f0 12bd 1e22 08bd fa85 d53b c487 b0ba
000001a0: 7f3b a4bc 6727 e9bb 0b84 1bbd c655 4ebc
000001b0: ec4e 12bd fdad 0ebc 5acb c63c 082f 1c3c
000001c0: 973f 91bb 01b4 19bd 0901 f53b cdee e53b
000001d0: 666e b9bb 3e7a ce3b fc3e 9cbc dbac c9bc
000001e0: 7c7d d0bc ef8b acbc e671 26bc 7d7a 05bb
000001f0: d473 a63c c7b3 1abb 0c34 4d3b 5746 76bb

action_model._continuous_distribution.log_sigma f4 [1, 2]
-0.048109498 -0.055445306
00000000: 770e 45bd 9e1a 63bd

action_model._continuous_distribution.mu.weight f4 [2, 128]
-0.0032555477 -0.020175375 -0.021846246 0.018019311 -0.022394035 0.041020613 0.035029344 -0.029609095
0.03415197 -0.038042437 0.044404425 -0.040166143 -0.008534743 0.048262402 0.068640925 -0.048648756
-0.04314101 -0.027515816 -0.073546275 0.0020707746 -0.038366217 -0.040976215 -0.003371605 0.056727324
-0.0016488472 -0.0045285234 -0.03390481 -0.011275242 0.059430808 0.0087146135 0.025543863 -0.0235635
-0.010774062 0.050679173 -0.041758318 -0.013130475 -0.033994462 -0.03758697 -0.040291976 0.044887707
0.0017256116 -0.02287703 0.029382033 0.067136206 0.045941863 0.0011883235 -0.0670522 0.0015791288
-0.03590332 0.007175532 0.04662428 0.0012007034 -0.03745431 -0.044872846 -0.05275013 -0.018950628
-0.010671091 -0.02058077 -0.0007334505 0.06153536 -0.042169943 0.056914303 0.007841244 -0.027580727
0.0153575875 -0.02345456 0.026226182 -0.04195886 -0.010854368 -0.045836624 -0.04758007 -0.039502848
0.01447333 0.025951533 -0.015706593 0.020552587 0.07278638 0.07842479 0.010076811 -0.052226868
-0.015489215 0.019559277 0.00132205 -0.029283365 -0.033481915 0.001792128 -0.012845492 -0.0021232772
-0.02648643 -0.0013209322 -0.015074014 -0.0065093096 -0.006244694 0.0057621426 0.07856178 0.04912738
0.030067267 0.016022328 -0.04719084 -0.014211548 0.017274676 0.002084885 -0.0052042194 0.0092278095
-0.002969812 -0.03130414 0.0169153 -0.040252857 -0.01264327 -0.045025364 -0.013616515 0.024233174
-0.003791276 -0.0068349545 0.046193223 0.02295506 -0.019179102 0.039854992 -0.02014642 -0.01634167
-0.025348153 -0.022148758 -0.009701623 -0.0001360285 0.06634752 0.008398751 0.010805893 -0.02101334
0.03502199 -0.0034128926 -0.044671506 -0.0070476844 -0.030002842 0.0048969816 0.004009407 0.010886902
0.0031384875 -0.008860878 0.0086384695 -0.017646452 -0.0041180737 -0.014413799 -0.00021707756 -0.015653187
0.032590043 0.009802336 -0.004274091 0.00523345 -0.003610807 -0.014994921 0.021025602 -0.00019347778
-0.011235726 -0.031437937 0.007658834 0.0064002797 0.0071206545 -0.014003036 0.025843166 0.025675891
-0.032385282 -0.003934812 -0.015399051 0.004668768 -0.00057310425 -0.0069532264 0.02852692 0.01384908
-0.0053516976 -0.0008403223 -0.0021979786 -0.015974022 -0.0024855498 -0.025355805 -0.009517086 0.01962151
-0.025817577 0.003276553 -0.03080918 0.0036527363 -0.021571705 0.025401484 0.036179073 -0.036850885
1.5624018e-05 0.006212839 0.008264183 -0.0013674382 -0.028703554 -0.004068184 -0.018964618 0.024518041
0.014433129 -0.0070305103 0.0032522955 -0.00016643296 -0.018269047 5.073965e-05 0.0049189124 -0.024879178
-0.014303133 -0.001146546 -0.0046506864 0.007594614 -0.007065893 -0.0011490757 0.018529806 -0.019547718
-0.013669774 0.03697182 -0.002284491 -0.012220765 -0.0032005007 -0.022665765 -0.035305385 -0.016776005
0.048941758 0.0189602 -0.02459878 0.023364902 0.017441334 -0.001629391 -0.0048206234 -0.018278873
-0.014501278 0.007014725 -0.013637336 0.0033919534 -0.00091281696 -0.009975316 -0.012455159 0.011359259
-0.013830195 0.0050563086 -0.013246762 0.00309107 -0.014271991 0.031596985 -0.03835662 0.012238784
0.0012843274 0.008961987 -0.002847243 0.010050305 0.040266313 0.014564263 -0.029117273 0.017521162
-0.021169016 -0.0022085735 -0.024327656 0.026552798 -0.0012776059 0.020169178 -0.006019721 -0.020940468
00000000: 075b 55bb d446 a5bc e6f6 b2bc 3c9d 933c
00000010: b273 b7bc 3b05 283d ee7a 0f3d c68e f2bc
00000020: f0e2 0b3d 63d2 1bbd 6ae1 353d 4185 24bd
00000030: 4fd5 0bbc ccae 453d 9d93 8c3d eb43 47bd
00000040: a1b4 30bd d968 e1bc 6e9f 96bd d5b5 073b
00000050: e525 1dbd add6 27bd 25f6 5cbb e95a 683d
00000060: 221e d8ba 0264 94bb c5df 0abd cbbb 38bc
00000070: b86d 733d bdc7 0e3c 5d41 d13c 3e08 c1bc
00000080: b185 30bc f794 4f3d c50a 2bbd 3421 57bc
00000090: c73d 0bbd cbf4 19bd 3309 25bd 2cdc 373d
000000a0: eb2d e23a 9c68 bbbc 97b2 f03c b57e 893d
000000b0: 892d 3c3d 85c1 9b3a aa52 89bd c5fa ce3a
000000c0: 5c0f 13bd ba20 eb3b 1af9 3e3d ec60 9d3a
000000d0: b169 19bd 97cc 37bd 8510 58bd 593e 9bbc
000000e0: cdd5 2ebc 0199 a8bc 0845 40ba 800c 7c3d
000000f0: 64ba 2cbd f91e 693d 9078 003c faf0 e1bc
00000100: 649e 7b3c c723 c0bc 4ad8 d63c 0edd 2bbd
00000110: 85d6 31bc 2fbf 3bbd 52e3 42bd bdcd 21bd
00000120: 8c21 6d3c 4f98 d43c 1dab 80bc e65d a83c
00000130: 0711 953d 2d9d a03d 3519 253c d7eb 55bd
00000140: 7ac6 7dbc c73a a03c a348 ad3a abe3 efbc
00000150: 5524 09bd d6e5 ea3a e675 52bc ae26 0bbb
00000160: 12fa d8bc 2123 adba fff8 76bc 0c4c d5bb
00000170: 4aa0 ccbb 5bd0 bc3b 00e5 a03d cb39 493d
00000180: a14f f63c 4241 833c 2f4b 41bd 8dd7 68bc
00000190: 9f83 8d3c 91a2 083b 2888 aabb 3d30 173c
000001a0: 2da1 42bb c538 00bd f591 8a3c 2ee0 24bd
000001b0: b825 4fbc 846c 38bd ce17 5fbc a684 c63c
000001c0: 0e77 78bb c1f7 dfbb 1b35 3d3d 400c bc3c
000001d0: 7e1d 9dbc fd3e 233d 1b0a a5bc f7de 85bc
000001e0: eea6 cfbc 5071 b5bc 8ef3 1ebc dfa2 0eb9
000001f0: 35e1 873d ea9a 093c 330b 313c 2b24 acbc
00000200: 3873 0f3d d6aa 5fbb 78f9 36bd 43f0 e6bb
00000210: 85c8 f5bc dc76 a03b 5861 833b fa5e 323c
00000220: 15af 4d3b 372d 11bc 5e88 0d3c 4b8f 90bc
00000230: e8f0 86bb db27 6cbc 509f 63b9 1d3b 80bc
00000240: 237d 053d fa99 203c ad0d 8cbb 5c7d ab3b
00000250: 4aa3 6cbb 42ad 75bc e23d ac3c 4ce0 4ab9
00000260: 0d16 38bc 11c5 00bd f5f6 fa3b 70b9 d13b
00000270: 6154 e93b fd6c 65bc 0cb5 d33c 3f56 d23c
00000280: 6ea6 04bd 98ef 80bb 4d4c 7cbc 77fc 983b
00000290: 603c 16ba e4d7 e3bb 4ab1 e93c 40e7 623c
000002a0: 4b5d afbb 1349 5cba f60b 10bb f4db 82bc
000002b0: 9be4 22bb fab6 cfbc 8ded 1bbc 4abd a03c
000002c0: 627f d3bc 70bb 563b 8963 fcbc bf62 6f3b
000002d0: 25b7 b0bc c616 d03c 8230 143d f4f0 16bd
000002e0: 5310 8337 1295 cb3b 7f66 073c 9d3b b3ba
000002f0: b723 ebbc 674e 85bb b05b 9bbc 0fda c83c
00000300: ee78 6c3c 3260 e6bb 7724 553b 8284 2eb9
00000310: f8a8 95bc 49d1 5438 d42e a13b 6bcf cbbc
00000320: b057 6abc b347 96ba c964 98bb 3ddc f83b
00000330: 0289 e7bb 959c 96ba d2cb 973c 8922 a0bc
00000340: 30f7 5fbc c36f 173d 66b7 15bb 9b39 48bc
00000350: 7ebf 51bb 8ead b9bc 619c 10bd d56d 89bc
00000360: 2777 483d 6c52 9b3c 6183 c9bc c067 bf3c
00000370: 21e1 8e3c 4a91 d5ba 52f6 9dbb 93bd 95bc
00000380: c596 6dbc c7db e53b 226f 5fbc 894b 5e3b
00000390: 1c4a 6fba 826f 23bc b910 4cbc 2f1c 3a3c
000003a0: 0b98 62bc 64af a53b f208 59bc 8d93 4a3b
000003b0: 12d5 69bc d76b 013d d51b 1dbd 2e85 483c
000003c0: e056 a83a 4cd5 123c d098 3abb 09aa 243c
000003d0: 4aee 243d f29e 6e3c 5987 eebc 8a88 8f3c
000003e0: a56a adbc b7bd 10bb cb4a c7bc 4185 d93c
000003f0: 5775 a7ba d539 a53c 1441 c5bb 588b abbc

action_model._continuous_distribution.mu.bias f4 [2]
0.019257607 0.015214786
00000000: 21c2 9d3c 7047 793c

action_model._discrete_distribution.branches.0.weight f4 [1, 128]
0.010147193 -0.009598011 0.0099897515 -0.0017704197 0.0075223274 0.006566971 0.00045895754 -0.0055832206
0.0027593703 0.0035077445 -0.0029228607 0.024887694 0.012251444 -0.00196042 -0.0129949 0.0016392097
0.012227826 0.00626307 -0.009098229 0.012060196 0.009319427 0.009447977 -0.009867939 0.013542421
0.0026748604 0.008031576 -0.008815991 -0.0054399674 -0.020923719 -0.019855304 -0.00018654515 -0.010272263
-0.0037470781 -0.0038045242 0.009429007 0.0054401117 -0.0058840066 -0.0032361813 0.008454989 0.00594193
-0.006581576 -0.008140895 0.0053460705 0.004385937 -0.0017007393 -0.006236998 -0.0014867757 0.014080778
0.006687072 0.0065812976 0.013851081 -0.008901483 -0.0019911586 -0.01816669 -0.0003278076 -0.0010990936
0.0025060407 0.00090374966 0.0028522362 2.2567583e-05 0.0069887014 -0.0044178246 -0.00037444546 -0.011195977
0.0040690317 0.014284737 0.00047093435 -0.006365849 0.0029492907 -0.0006850568 -0.006542049 -0.0027225425
-0.00013973971 0.013657994 0.003049625 0.0023629158 -0.0021654377 -0.003782302 0.009035724 -0.008143672
0.011844833 -0.0031068192 -0.00032123772 -0.010765153 -0.0070544607 0.008276529 -0.0075847073 0.011366599
0.0017695026 0.0012876324 -0.0021870895 -0.007459683 0.008168555 -0.012265247 0.006801081 0.0030298736
-0.003553908 0.0020726172 -0.0018902274 0.0030942718 0.0027505008 -0.006154142 0.0015517356 -0.010629262
-0.008183445 -0.002532521 0.0073035816 0.0052788486 -8.096857e-05 -0.01107316 -0.010303064 0.0024053599
-0.0075379247 0.01456025 0.010393581 -0.008264629 0.0010293223 -0.009918021 -0.009837289 0.02111279
0.0004686922 -0.011556834 -0.0019613828 0.0036173265 0.02179554 -0.0027104241 0.000532385 0.008480805
00000000: 6a40 263c fa40 1dbc 0eac 233c 6d0d e8ba
00000010: db7d f63b bf2f d73b 3da0 f039 73f3 b6bb
00000020: 8dd6 343b 30e2 653b 778d 3fbb 47e1 cb3c
00000030: 48ba 483c 647a 00bb 90e8 54bc c0da d63a
00000040: 3857 483c 703a cd3b bd10 15bc 2198 453c
00000050: 83b0 183c b0cb 1a3c 23ad 21bc 08e1 5d3c
00000060: b64c 2f3b df96 033c f270 10bc c141 b2bb
00000070: 3868 abbc 97a7 a2bc 559b 43b9 fe4c 28bc
00000080: 8a91 75bb 5355 79bb 1f7c 1a3c f742 b23b
00000090: a0ce c0bb 1d16 54bb cb86 0a3c 86b4 c23b
000000a0: 43aa d7bb 6361 05bc 172e af3b e8b7 8f3b
000000b0: 57eb deba bb5f ccbb eadf c2ba 10b3 663c
000000c0: 3a1f db3b eda7 d73b a5ef 623c 87d7 11bc
000000d0: 197e 02bb 4fd2 94bc 97dd abb9 760f 90ba
000000e0: 633c 243b 9de9 6c3a 95ec 3a3b 844f bd37
000000f0: 7a01 e53b 66c3 90bb 3851 c4b9 556f 37bc
00000100: 8355 853b 880a 6a3c bde7 f639 9d98 d0bb
00000110: e348 413b 6295 33ba af5e d6bb af6c 32bb
00000120: 1887 12b9 c7c5 5f3c 38dc 473b 26db 1a3b
00000130: 04ea 0dbb 7fe0 77bb 930a 143c 096d 05bc
00000140: d510 423c c79b 4bbb cc6b a8b9 5360 30bc
00000150: 1b29 e7bb 479a 073c 2389 f8bb f93a 3a3c
00000160: a8ee e73a c6c5 a83a 4655 0fbb 5b70 f4bb
00000170: 67d5 053c 2df4 48bc 9adb de3b d890 463b
00000180: afe8 68bb bfd4 073b 82c1 f7ba 44c9 4a3b
00000190: bf41 343b afa8 c9bb 9b63 cb3a 5b26 2ebc
000001a0: db13 06bc a7f8 25bb e252 ef3b 31fa ac3b
000001b0: accd a9b8 336c 35bc 2fce 28bc 3ea3 1d3b
000001c0: b200 f7bb 1d8e 6e3c d749 2a3c 5e68 07bc
000001d0: 53ea 863a 327f 22bc 952c 21bc bbf4 ac3c
000001e0: cdba f539 e058 3dbc 8b8a 00bb ab10 6d3b
000001f0: 8f8c b23c 5fa1 31bb c18f 0b3a 13f3 0a3c

exp_avg f4 [128, 109]
6e-45 -0.00010649183 0.0 0.00028199737 0.00018283643 0.00015799898 -0.00012524141 0.0
0.00014274803 0.00013672723 0.0 4.3444717e-05 -8.822459e-05 0.0002202855 0.00021027795 -4.2162024e-05
-9.708672e-05 0.0 0.00031475435 0.00022163367 0.0 -4.263556e-05 0.00012709518 9.104596e-05
9.604805e-05 -0.00015781037 0.00022872226 0.0 0.00010459365 6.8296555e-05 0.0 -1.4872683e-05
0.00017033711 2.0041145e-05 3.3295582e-05 2.7556074e-05 0.00014794977 0.0 -2.8391328e-10 8.042739e-05
0.0 4.360661e-05 -1.7093089e-05 0.00014899201 0.00012688892 -2.4299196e-05 0.00019980501 0.0
-2.8391328e-10 6.6153385e-05 0.0 -4.7167345e-05 0.00018652019 3.6152713e-05 5.3188996e-05 6.1345854e-05
0.00011416 0.0 -2.8391328e-10 8.848025e-05 0.0 4.3544478e-07 -8.180897e-05 0.0002568791
0.00019694911 0.0001420001 3.3505734e-05 0.0 -2.8391328e-10 0.000100372476 0.0 -2.6051948e-08
3.525794e-05 0.00014027362 0.00013987234 0.00015472654 2.0779267e-05 0.0 -2.8391328e-10 9.596234e-05
0.0 -1.8851502e-08 3.5284716e-05 0.00014023966 0.00013986396 0.0001556899 1.9815985e-05 0.0
-2.8391328e-10 9.307916e-05 0.0 5.55386e-09 3.526037e-05 0.00014023966 0.00013987739 9.36975e-05
8.180839e-05 0.0 -2.8391328e-10 7.077964e-05 0.0 -1.5016857e-14 3.5265894e-05 0.00014023966
0.00013988203 0.0 0.0010958798 3.347503e-10 0.004172758 6e-45 0.0004371492 0.0
-0.00044221486 -5.8944148e-05 -6.908479e-05 -0.00041352116 0.0 0.00047754022 0.00035957078 0.0
4.1037463e-05 -0.00039663995 0.0003505367 0.00031520939 0.00011172793 -0.0007040235 0.0 0.00058723014
0.00038612616 0.0 -0.00014496228 -0.00070954167 0.0008494382 0.0006949881 -0.00036050036 -0.00016599803
0.0 0.0005214326 -6.213669e-05 0.0 -0.00016011737 -0.0001747259 0.00032977754 0.0003239034
-3.314791e-05 2.8081588e-05 0.0 5.3599897e-10 -9.329866e-05 0.0 -6.859183e-05 -0.00020408227
0.0002676083 0.00030259512 -0.00012051294 0.00011544658 0.0 5.3599897e-10 -8.4486805e-05 0.0
2.8438521e-06 -0.0007731905 0.00076528103 0.00064136146 8.956443e-05 -9.46307e-05 0.0 5.3599897e-10
-4.315596e-06 0.0 9.366373e-07 -0.00022581688 0.00021981451 0.0002712739 -0.00011716758 0.00011210136
0.0 5.3599897e-10 -6.351774e-05 0.0 -1.4280305e-06 -0.0002856154 0.00028197773 0.0003051273
-4.5614303e-05 4.054804e-05 0.0 5.3599897e-10 -4.6283054e-05 0.0 -1.3815326e-06 -0.00028566874
0.00028198454 0.00030365345 8.5506996e-05 -9.0573165e-05 0.0 5.3599897e-10 -3.0397037e-05 0.0
-9.156034e-07 -0.00028613463 0.00028198454 0.00030282413 0.00018805853 -0.00019312483 0.0 5.3599897e-10
-1.6786067e-05 0.0 1.1785199e-13 -0.0002870502 0.00028198454 0.00030253944 0.0 -0.00028173072
-9.66216e-12 -0.00015971018 -6e-45 -0.000645921 0.0 0.00034001475 -0.00025254767 0.00019503108
0.00029915193 0.0 -0.0008000893 -0.0007117415 0.0 -0.00015315005 0.00027410334 -0.00042685974
-0.0004790653 -0.00034531907 0.000708844 0.0 -0.00066943135 -0.0006719658 0.0 0.00014178503
0.000634512 -0.0010822034 -0.0009328653 0.00026206198 0.00021665268 0.0 -0.0007846211 -0.0002277089
0.0 0.00017986 0.00014738488 -0.0006331511 -0.0006148285 -0.00033580058 2.9895473e-05 0.0
00000000: 0400 0000 5e54 dfb8 0000 0000 0cd9 9339
00000010: c8b7 3f39 87ac 2539 3c53 03b9 0000 0000
00000020: a2ae 1539 705e 0f39 0000 0000 6938 3638
00000030: 3705 b9b8 70fc 6639 0f7e 5c39 21d7 30b8
00000040: 099b cbb8 0000 0000 9d05 a539 5666 6839
00000050: 0000 0000 95d3 32b8 da44 0539 edef be38
00000060: 676d c938 e679 25b9 2ad5 6f39 0000 0000
00000070: 4a59 db38 6f3a 8f38 0000 0000 b085 79b7
00000080: 859c 3239 081e a837 dca6 0b38 3828 e737
00000090: f722 1b39 0000 0000 3e15 9caf 20ab a838
000000a0: 0000 0000 3ee6 3638 2163 8fb7 bd3a 1c39
000000b0: 7c0d 0539 20d6 cbb7 c082 5139 0000 0000
000000c0: 3e15 9caf d4bb 8a38 0000 0000 8dd5 45b8
000000d0: a294 4339 aea2 1738 4017 5f38 cea6 8038
000000e0: 2f69 ef38 0000 0000 3e15 9caf 798e b938
000000f0: 0000 0000 13c7 e934 db90 abb8 bbad 8639
00000100: 2084 4e39 dde5 1439 8288 0c38 0000 0000
00000110: 3e15 9caf 107f d238 0000 0000 d7c8 dfb2
00000120: ede1 1338 6a16 1339 b2aa 1239 173e 2239
00000130: 234f ae37 0000 0000 3e15 9caf 643f c938
00000140: 0000 0000 e4ee a1b2 adfe 1338 4c0d 1339
00000150: 72a8 1239 b040 2339 813a a637 0000 0000
00000160: 3e15 9caf 7e33 c338 0000 0000 45d4 be31
00000170: 89e4 1338 4c0d 1339 0dac 1239 767f c438
00000180: 8c90 ab38 0000 0000 3e15 9caf 886f 9438
00000190: 0000 0000 8442 87a8 77ea 1338 4c0d 1339
000001a0: 4cad 1239 0000 0000 a0a3 8f3a eb07 b82f
000001b0: a2bb 883b 0400 0000 2c31 e539 0000 0000
000001c0: 13d9 e7b9 cc3a 77b8 9de1 90b8 dfcd d8b9
000001d0: 0000 0000 5d5e fa39 c684 bc39 0000 0000
000001e0: a41f 2c38 1df4 cfb9 3dc8 b739 b042 a539
000001f0: 7a4f ea38 388e 38ba 0000 0000 59f0 193a
00000200: fa70 ca39 0000 0000 0401 18b9 8900 3aba
00000210: d5ac 5e3a dd2f 363a 8a01 bdb9 c20f 2eb9
00000220: 0000 0000 c0b0 083a 624f 82b8 0000 0000
00000230: 2ee5 27b9 a036 37b9 fee5 ac39 94d1 a939
00000240: 4c08 0bb8 c090 eb37 0000 0000 9355 1330
00000250: 56a9 c3b8 0000 0000 f5d8 8fb8 ebfe 55b9
00000260: c74d 8c39 a1a5 9e39 e4bb fcb8 e91b f238
00000270: 0000 0000 9355 1330 822e b1b8 0000 0000
00000280: 02d9 3e36 f0af 4aba 249d 483a 0a21 283a
00000290: 8ad4 bb38 7874 c6b8 0000 0000 9355 1330
000002a0: b0ce 90b6 0000 0000 3a6d 7b35 42c9 6cb9
000002b0: 027e 6639 c439 8e39 deb7 f5b8 f617 eb38
000002c0: 0000 0000 9355 1330 d434 85b8 0000 0000
000002d0: c1aa bfb5 a6be 95b9 69d6 9339 7ef9 9f39
000002e0: fc51 3fb8 2012 2a38 0000 0000 9355 1330
000002f0: 0d20 42b8 0000 0000 196d b9b5 cfc5 95b9
00000300: 53d7 9339 ad33 9f39 3852 b338 19f2 bdb8
00000310: 0000 0000 9355 1330 24fd feb7 0000 0000
00000320: c9c7 75b5 5704 96b9 53d7 9339 5ec4 9e39
00000330: 9431 4539 8d81 4ab9 0000 0000 9355 1330
00000340: cecf 8cb7 0000 0000 86b0 042a 3a7f 96b9
00000350: 53d7 9339 289e 9e39 0000 0000 42b5 93b9
00000360: 80fa 29ad e077 27b9 0400 0080 0653 29ba
00000370: 0000 0000 0244 b239 6068 84b9 4281 4c39
00000380: 7ed7 9c39 0000 0000 16bd 51ba 2a94 3aba
00000390: 0000 0000 e796 20b9 87b5 8f39 25cc dfb9
000003a0: 0e2b fbb9 f10b b5b9 b7d1 393a 0000 0000
000003b0: c77c 2fba dd26 30ba 0000 0000 21ac 1439
000003c0: 6155 263a b8d8 8dba 888b 74ba 5d65 8939
000003d0: 432d 6339 0000 0000 08af 4dba 24c5 6eb9
000003e0: 0000 0000 cd98 3c39 548b 1a39 0dfa 25ba
000003f0: 712c 21ba 640e b0b9 0ac8 fa37 0000 0000

exp_avg_sq f4 [128, 109]
2.5495221e-09 1.2991046e-06 0.0 4.3298146e-06 4.663903e-06 8.6974944e-07 1.4529988e-06 0.0
3.2643584e-06 3.983932e-06 0.0 1.0281038e-06 7.839878e-07 3.843629e-06 4.1021926e-06 2.3029438e-06
1.1271195e-06 0.0 2.2942597e-06 3.3657504e-06 0.0 6.567431e-07 1.5100184e-06 3.5084104e-06
3.6557226e-06 3.865115e-06 1.044335e-06 0.0 7.4745356e-07 2.441753e-06 0.0 4.917205e-07
1.829076e-06 3.2876983e-06 3.359077e-06 4.8598795e-06 9.1060974e-07 0.0 1.3590201e-08 1.552656e-06
0.0 3.7926125e-07 2.5384593e-06 2.7367892e-06 2.7867943e-06 4.8675406e-06 7.401329e-07 0.0
1.3600176e-08 1.0949439e-06 0.0 2.8354742e-07 3.353353e-06 1.9548615e-06 2.0521163e-06 4.948511e-06
6.6698334e-07 0.0 1.3600176e-08 8.55081e-07 0.0 1.8275577e-07 3.9745687e-06 1.3235749e-06
1.4730717e-06 5.0265376e-06 5.8055645e-07 0.0 1.36001495e-08 7.1944294e-07 0.0 1.6046697e-07
4.8669604e-06 4.2847515e-07 7.2805403e-07 5.1454467e-06 4.722333e-07 0.0 1.36001495e-08 6.4148315e-07
0.0 1.4509854e-07 5.0913786e-06 2.6996682e-07 5.662446e-07 5.2612772e-06 3.5612103e-07 0.0
1.36001495e-08 6.033515e-07 0.0 7.4310044e-08 5.1940037e-06 2.6996682e-07 5.491254e-07 5.208604e-06
2.8209777e-07 0.0 1.36001495e-08 5.8863236e-07 0.0 3.3579745e-08 5.248098e-06 2.6996682e-07
5.448476e-07 0.0 0.00010986177 2.0247772e-17 0.0030285937 2.3148584e-10 3.3441488e-06 0.0
1.7769486e-05 1.8857349e-05 5.357466e-07 4.1741323e-06 0.0 1.5618589e-05 1.7456605e-05 0.0
2.3628807e-06 2.8870963e-06 1.55308e-05 1.6318247e-05 3.7622772e-06 5.116821e-06 0.0 1.11045465e-05
1.5362424e-05 0.0 1.3432156e-06 7.2217713e-06 1.1664325e-05 1.2098302e-05 1.4362317e-05 4.1626317e-06
0.0 2.1145659e-06 1.1593184e-05 0.0 7.274291e-07 9.919685e-06 9.417276e-06 9.778025e-06
1.7058463e-05 3.8930443e-06 0.0 2.3302215e-08 7.13508e-06 0.0 5.558422e-07 1.4539697e-05
5.584352e-06 5.9743734e-06 1.685021e-05 4.127846e-06 0.0 2.3506821e-08 4.972201e-06 0.0
5.605422e-07 1.752059e-05 2.608755e-06 3.0997448e-06 1.7194268e-05 3.6176004e-06 0.0 2.3506821e-08
3.8918342e-06 0.0 4.904083e-07 1.8933215e-05 1.1643108e-06 1.7076363e-06 1.8311977e-05 2.683349e-06
0.0 2.3506807e-08 3.292803e-06 0.0 6.5029445e-07 1.9497e-05 5.584358e-07 1.1108423e-06
1.9376641e-05 1.7247796e-06 0.0 2.3506807e-08 2.9924872e-06 0.0 6.192608e-07 1.970891e-05
4.9319385e-07 9.9451e-07 2.0066103e-05 1.0950844e-06 0.0 2.3506807e-08 2.8540253e-06 0.0
4.1781192e-07 1.9913445e-05 4.9319385e-07 9.669101e-07 2.0030668e-05 9.2019445e-07 0.0 2.3506807e-08
2.7783e-06 0.0 1.2964695e-07 2.025782e-05 4.9319385e-07 9.619822e-07 0.0 0.00051479787
7.6780195e-17 0.011566667 3.0882912e-09 6.43331e-06 0.0 2.0852905e-05 2.2798597e-05 2.0834864e-06
6.5656313e-06 0.0 1.768568e-05 2.0392783e-05 0.0 3.890769e-06 4.320357e-06 1.9059924e-05
2.0127252e-05 7.08884e-06 6.1525584e-06 0.0 1.2993312e-05 1.8049179e-05 0.0 2.357598e-06
9.264696e-06 1.4874062e-05 1.5431153e-05 1.7290104e-05 5.838261e-06 0.0 3.981333e-06 1.3910187e-05
0.0 1.7169159e-06 1.1907277e-05 1.2416946e-05 1.291768e-05 2.2345626e-05 5.215274e-06 0.0
00000000: ab33 2f31 e55c ae35 0000 0000 d348 9136
00000010: 9f7e 9c36 ba78 6935 a904 c335 0000 0000
00000020: 4011 5b36 b7ad 8536 0000 0000 61fd 8935
00000030: 3b73 5235 86f8 8036 91a5 8936 468c 1a36
00000040: 8847 9735 0000 0000 15f7 1936 27df 6136
00000050: 0000 0000 0b4b 3035 d6ab ca35 0872 6b36
00000060: d654 7536 16b1 8136 142b 8c35 0000 0000
00000070: 9ea4 4835 ffdc 2336 0000 0000 c7fe 0335
00000080: 937e f535 3aa2 5c36 816c 6136 0c12 a336
00000090: a070 7435 0000 0000 567a 6932 db64 d035
000000a0: 0000 0000 459d cb34 665a 2a36 aea9 3736
000000b0: c304 3b36 db53 a336 8cad 4635 0000 0000
000000c0: 35a6 6932 fcf5 9235 0000 0000 763a 9834
000000d0: 2a0a 6136 4430 0336 17b7 0936 630b a636
000000e0: bf0a 3335 0000 0000 35a6 6932 b888 6535
000000f0: 0000 0000 863b 4434 495d 8536 b0a5 b135
00000100: 5cb6 c535 a1a9 a836 89d7 1b35 0000 0000
00000110: 17a6 6932 be1f 4135 0000 0000 d34c 2c34
00000120: df4e a336 2d09 e634 7e6f 4335 0da7 ac36
00000130: 4087 fd34 0000 0000 17a6 6932 6332 2c35
00000140: 0000 0000 62cc 1b34 9cd6 aa36 f5ef 9034
00000150: 0800 1835 078a b036 e730 bf34 0000 0000
00000160: 17a6 6932 00f6 2135 0000 0000 6194 9f33
00000170: 2748 ae36 f5ef 9034 9c67 1335 91c5 ae36
00000180: 3973 9734 0000 0000 17a6 6932 8202 1e35
00000190: 0000 0000 5239 1033 d218 b036 f5ef 9034
000001a0: a441 1235 0000 0000 9765 e638 b3c0 ba23
000001b0: 5f7b 463b 7985 7e2f 0a6c 6036 0000 0000
000001c0: ae0f 9537 d92f 9e37 3ad0 0f35 860f 8c36
000001d0: 0000 0000 aa04 8337 c66f 9237 0000 0000
000001e0: fb91 1e36 f0bf 4136 2448 8237 2be3 8837
000001f0: 6e7b 7c36 28b1 ab36 0000 0000 aa4d 3a37
00000200: 8ede 8037 0000 0000 8948 b435 8b52 f236
00000210: e5b1 4337 d0f9 4a37 aff5 7037 bcac 8b36
00000220: 0000 0000 f7e7 0d36 5980 4237 0000 0000
00000230: 8c44 4335 b96c 2637 e4fe 1d37 4c0c 2437
00000240: c518 8f37 ffa0 8236 0000 0000 1d2a c832
00000250: df69 ef36 0000 0000 2f35 1535 86ef 7337
00000260: 3861 bb36 7a77 c836 8d59 8d37 ed81 8a36
00000270: 0000 0000 0cec c932 e2d6 a636 0000 0000
00000280: 2b78 1635 2ef9 9237 1212 2f36 3605 5036
00000290: 693c 9037 e7c5 7236 0000 0000 0cec c932
000002a0: 9a96 8236 0000 0000 9aa4 0335 c5d2 9e37
000002b0: 6a45 9c35 f031 e535 ac9c 9937 9613 3436
000002c0: 0000 0000 04ec c932 edf9 5c36 0000 0000
000002d0: e58f 2e35 7d8d a337 6ae7 1535 4018 9535
000002e0: 058b a237 fa7e e735 0000 0000 04ec c932
000002f0: 8ad2 4836 0000 0000 473b 2635 9054 a537
00000300: 0664 0435 1a7b 8535 a153 a837 d0fa 9235
00000310: 0000 0000 04ec c932 c887 3f36 0000 0000
00000320: a24f e034 cc0b a737 0664 0435 c7c6 8135
00000330: 8807 a837 4803 7735 0000 0000 04ec c932
00000340: d572 3a36 0000 0000 1535 0b34 56ef a937
00000350: 0664 0435 751d 8135 0000 0000 80f3 063a
00000360: 070b b124 1e82 3d3c cb39 5431 b6dd d736
00000370: 0000 0000 46ed ae37 9d3f bf37 06d2 0b36
00000380: 584e dc36 0000 0000 b55b 9437 2b11 ab37
00000390: 0000 0000 748d 8236 96f7 9036 e0e2 9f37
000003a0: f2d6 a837 acdc ed36 1372 ce36 0000 0000
000003b0: dafd 5937 5168 9737 0000 0000 3a37 1e36
000003c0: 916f 1b37 9c8b 7937 2672 8137 370a 9137
000003d0: 48e6 c336 0000 0000 6497 8536 cc5f 6937
000003e0: 0000 0000 c870 e635 5ec5 4737 6152 5037
000003f0: 03b9 5837 de72 bb37 ddfe ae36 0000 0000

exp_avg f4 [128]
0.00017550557 -5.0657545e-06 -0.00030590623 -8.3407474e-05 -0.000121355566 -4.7372836e-05 0.00013074334 -2.4023408e-05
0.00025742853 0.00017989989 -1.3890886e-05 0.00059399207 -1.7428365e-05 -1.8055748e-06 -7.352784e-07 -0.00023009666
6.592306e-06 0.00012414264 -4.399474e-08 -8.0439975e-05 0.00020752513 -5.809982e-05 -0.00045163083 -2.5441404e-05
0.00035232614 1.4287045e-05 8.3836436e-05 -0.0005823799 -3.2473254e-05 -0.0011859877 0.00018777663 0.0003804089
-2.9398505e-05 0.00023723193 6.4261285e-06 5.438393e-05 -0.00028000463 0.00028397073 3.5170979e-06 0.0001378984
-1.4145779e-05 -4.399939e-07 -4.904876e-05 -0.0002158197 0.00013282351 0.00035306357 7.7739125e-05 1.2163744e-05
-2.3415255e-06 0.0008620828 -5.7760953e-05 9.190886e-05 -0.0002566799 -0.000175636 1.1734389e-05 0.0004624144
0.00049448945 2.5580448e-05 -1.9526036e-05 0.00025203367 -2.6347739e-06 0.00058436906 -0.0010393241 4.8860834e-06
5.1929824e-06 -8.458481e-05 -0.00043942605 -7.614294e-07 0.00017256093 6.158229e-05 1.6282513e-06 2.2077762e-05
4.7448586e-05 0.00035369306 0.0005747781 0.00013784836 0.0006542514 0.00014497561 0.00010572077 0.00015171638
5.0389543e-05 -0.00013568235 -5.1762913e-07 -0.00021409802 -8.505956e-05 -0.0006853206 -1.7785922e-05 -1.0542347e-05
-8.82477e-05 0.0002258188 0.00010029325 0.00030219858 -0.0003775023 -0.00059413223 -1.6571914e-05 -0.00011641829
0.00018119776 -9.6426345e-05 3.4237141e-06 -1.3497537e-05 -6.9053044e-07 0.00010262382 -0.0005752489 -2.7075206e-05
0.00030994025 0.00011783963 0.00013711916 -0.00011111429 0.00060393126 -2.497042e-05 1.2543112e-05 0.00012249811
-0.0006688688 -0.0004922865 -0.00014902267 -6.76801e-05 3.3938004e-06 -2.9032906e-05 2.3695424e-05 -1.4460182e-05
-6.5589334e-06 -0.00036200683 0.00022859726 8.753005e-06 7.748472e-05 7.0917995e-06 1.0708079e-05 -1.4362142e-05
00000000: eb07 3839 80fa a9b6 0a62 a0b9 0ceb aeb8
00000010: 4680 feb8 32b2 46b8 2618 0939 e085 c9b7
00000020: 79f7 8639 82a3 3c39 e70c 69b7 22b6 1b3a
00000030: 2133 92b7 1457 f2b5 f25f 45b5 1a46 71b9
00000040: 7a33 dd36 492c 0239 baf4 3cb3 e2b1 a8b8
00000050: 1a9b 5939 35b0 73b8 ddc8 ecb9 006b d5b7
00000060: 6ab8 b839 64b2 6f37 58d1 af38 daaa 18ba
00000070: e433 08b8 2573 9bba e8e5 4439 9e71 c739
00000080: cf9c f6b7 76c1 7839 06a0 d736 4d1a 6438
00000090: 96cd 92b9 e8e1 9439 4807 6c36 d298 1039
000000a0: a853 6db7 4d38 ecb4 b4b9 4db8 a94d 62b9
000000b0: 8a46 0b39 641b b939 e007 a338 e212 4c37
000000c0: 1a23 1db6 66fd 613a 5a44 72b8 32bf c038
000000d0: fe92 86b9 ee2a 38b9 d1de 4437 3670 f239
000000e0: a0a0 013a 9895 d637 d8cb a3b7 6323 8439
000000f0: 12d1 30b6 5830 193a ee39 88ba 23f3 a336
00000100: 613f ae36 2063 b1b8 c462 e6b9 0865 4cb5
00000110: 79f1 3439 bd25 8138 4a8a da35 a233 b937
00000120: 8803 4738 e16f b939 b5ac 163a 638b 1039
00000130: 1182 2b3a 9804 1839 68b6 dd38 0e16 1f39
00000140: 5c59 5338 f445 0eb9 34f3 0ab5 807f 60b9
00000150: 0162 b2b8 16a7 33ba fa32 95b7 09df 30b7
00000160: a011 b9b8 c6c9 6c39 8754 d238 6870 9e39
00000170: 80eb c5b9 8abf 1bba ea03 8bb7 9825 f4b8
00000180: e7ff 3d39 8038 cab8 f6c2 6536 7b73 62b7
00000190: e45c 39b5 be37 d738 4dcc 16ba 901f e3b7
000001a0: 7a7f a239 ab20 f738 a5c7 0f39 0806 e9b8
000001b0: 2451 1e3a 9277 d1b7 4170 5237 d672 0039
000001c0: 0657 2fba ca0c 01ba f842 1cb9 7aef 8db8
000001d0: 0cc1 6336 b18b f3b7 89c5 c637 029a 72b7
000001e0: cf14 dcb6 bccb bdb9 9cb3 6f39 dfd9 1237
000001f0: 4b7f a238 18f6 ed36 d9a6 3337 eef4 70b7

exp_avg_sq f4 [128]
5.565665e-06 2.110518e-05 2.7214108e-05 2.4150824e-05 5.374776e-05 1.23753025e-05 3.7566715e-05 7.8587135e-08
5.6929703e-06 5.445051e-06 2.7133677e-07 6.452407e-05 3.7822595e-08 1.4078496e-08 3.328544e-10 6.2122344e-05
1.7564979e-08 1.125898e-05 8.501799e-13 5.272267e-05 9.886835e-06 1.490327e-07 5.8103218e-05 7.4199954e-05
1.1311033e-05 2.4283935e-08 1.1827999e-05 4.0421917e-05 3.8524963e-08 0.00012055494 3.0836414e-05 4.5536974e-05
3.1151293e-07 3.5483984e-06 6.0847847e-09 8.0109956e-08 4.7570734e-06 1.4229443e-06 1.8107077e-08 2.0872724e-06
8.090229e-08 7.842119e-10 4.5134562e-05 2.6010219e-05 7.971085e-06 6.421635e-06 7.3930954e-05 5.121915e-08
3.4171176e-08 0.00015392124 1.5361755e-05 4.558308e-06 3.101905e-05 6.2728854e-05 6.748357e-08 6.276417e-05
6.603814e-05 7.0057054e-06 1.1014899e-07 2.0474428e-05 3.119625e-10 4.8525966e-05 0.000100361605 3.056268e-09
4.3291664e-08 2.5714537e-06 0.00013364274 8.1846786e-11 4.097493e-06 2.2063713e-07 9.843455e-09 7.3903745e-09
3.1747184e-06 6.110191e-05 6.922357e-05 7.319934e-05 9.3519455e-05 6.5431566e-05 1.8228626e-05 4.2348897e-06
4.8806793e-05 2.794581e-06 3.6732162e-11 5.0706974e-05 3.4362057e-07 5.1666677e-05 8.565604e-09 1.2426038e-07
4.3177e-07 1.1411568e-05 2.940022e-06 4.3026437e-05 2.1357904e-05 3.0489213e-05 4.0643968e-08 4.4930595e-05
2.9972143e-05 0.00020310716 3.5332084e-09 8.885606e-08 2.314177e-09 4.495921e-06 1.6534766e-05 2.4922207e-07
2.2437765e-05 5.154449e-06 5.1278607e-06 9.5070296e-05 7.9474936e-05 1.3338779e-07 9.085395e-09 9.674563e-06
1.6744747e-05 2.9497553e-05 4.866607e-05 4.093952e-06 1.7621444e-07 1.257266e-07 3.7120326e-08 2.7735268e-08
1.4368183e-07 3.657183e-05 8.9475625e-06 5.9116648e-08 2.758681e-06 9.6987094e-08 5.232462e-09 1.3899474e-08
00000000: b3c0 ba36 070b b137 da49 e437 8097 ca37
00000010: 386f 6138 859f 4f37 f490 1d38 bcc3 a833
00000020: 3e06 bf36 a2b4 b636 3eac 9134 1951 8738
00000030: 6272 2233 e1dd 7132 18fd b62f ae47 8238
00000040: cce1 9632 f3e4 3c37 eb4d 6f2b 8922 5d38
00000050: a2df 2537 cc05 2034 dbb3 7338 cc9b 9b38
00000060: 84c4 3d37 f098 d032 de70 4637 b48a 2938
00000070: a576 2533 71d2 fc38 5956 0138 f4fe 3e38
00000080: 033e a734 0521 6e36 5512 d131 ea08 ac33
00000090: f39e 9f36 fefb be35 e289 9b32 1113 0c36
000000a0: 81bc ad33 0290 5730 de4e 3d38 8530 da37
000000b0: 8dbb 0537 6d79 d736 610b 9b38 0dfc 5b33
000000c0: 9bc3 1233 eb65 2139 1edd 8037 91f3 9836
000000d0: 741a 0238 4c8d 8338 7ceb 9033 42a0 8338
000000e0: f57d 8a38 8d12 eb36 0c8b ec33 80c0 ab37
000000f0: d280 ab2f 5c88 4b38 3a79 d238 6f06 5231
00000100: b0ef 3933 3d91 2c36 7322 0c39 a5fb b32e
00000110: 327d 8936 46e8 6c34 f91b 2932 6cee fd31
00000120: 3f0d 5536 d723 8038 1f2c 9138 9982 9938
00000130: e01f c438 4e38 8938 ade9 9837 6d19 8e36
00000140: e5b5 4c38 898a 3b36 bd8c 212e 33ae 5438
00000150: da7a b834 acb4 5838 ed27 1332 6f6c 0534
00000160: 04ce e734 5074 3f37 314d 4536 4977 3438
00000170: c029 b337 16c3 ff37 8490 2e33 dc73 3c38
00000180: b06c fb37 2af9 5439 dccc 7231 23d1 be33
00000190: 6f07 1f31 abdb 9636 24b4 8a37 d2cc 8534
000001a0: bc38 bc37 61f4 ac36 fd0f ac36 7a60 c738
000001b0: c8ab a638 5b39 0f34 fd15 1c32 ef4f 2237
000001c0: 1277 8c37 8371 f737 cb1e 4c38 c85e 8936
000001d0: 7535 3d34 77ff 0634 3b6e 1f33 803e ee32
000001e0: f646 1a34 b464 1938 7d1d 1637 71e7 7d33
000001f0: c721 3936 3847 d033 39c9 b331 88ca 6e32
