Project specific/results/JumperAgent/JumperAgent/JumperAgent-36473.onnx (onnx, 127520 bytes, 8 tensors)

network_body._body_endoder.seq_layers.0.weight f4 [128, 109]
00000000: 666d 36be 1e76 f3bc d675 063b 2ef9 5dbd
00000010: b0e1 13bb 112b 1ebd aaa2 04be a44c 313d
00000020: 8ad2 d1bc 760e cf3d b65e 1abe a4c4 e53c
00000030: 26f7 e73d a06a 11bd 6cd3 c7bd e9a2 853d
00000040: c695 05bd 2700 ae3c 7326 2cbd 802c 3c3e
00000050: ac20 be3d b303 19be 968f 553d f8e1 d1bd
00000060: ee16 35be 1876 27be 994f a3bc ed4f 96bd
00000070: e3fe 43bd c8e6 20be 93bc 963c d5e7 6f3d
00000080: eece 113e 877a a33d a8e6 0d3e 20cf 233b
00000090: acde 9b3c 2734 613d 880b ba3d 0d01 10be
000000a0: eb13 b8bd 0ae8 3d3c ae82 3f3e 1632 23bd
000000b0: d360 31be 813a 81bd dd75 433e 790b 8cbd
000000c0: ee55 253e a87b 30be 1a06 f8bd f466 8bbe
000000d0: 0006 5bbe 26b1 dabd ff59 d0bd 6e74 c1bd
000000e0: c5e5 3e3e f081 3c3e 9e50 10be 7385 9dbc
000000f0: 4f7b 82bd 2e93 eebd af66 ddbb 949a 8cbd
00000100: 81d0 c03d daff f4bd 2ed5 123e ae04 fdb9
00000110: d8a3 e73d f6d4 e6bd afea f73d 5779 9cbd
00000120: 0c5a 163e 9ed2 09be cbdf 6cbb 5ad5 84bd
00000130: 5e3a c43d 5bec 67bd 7166 083e 6167 813d
00000140: 06de ef3d 0e5b ebbc 49c9 b5bd ba38 9cbd
00000150: 0e2e 14be bce0 ca3d 9821 1fbb 47e2 96bc
00000160: 34c9 45bd f3df 03be 7ed1 88bb 8b25 d33d
00000170: 9a2a 4c3d 4a07 773d 0ba7 aebd 8b40 cb3b
00000180: 6478 81bc eb2b 87bd d1f0 103d 58fd 55bd
00000190: 72ea 4d3d ded0 2ebd ff46 cb3c 9f38 253d
000001a0: 9dd3 77bd bea5 493d 6830 e2bc 7218 893e
000001b0: f547 f73d 260e 81be 516e f4bd 3933 233d
000001c0: ef89 c73d a47d 223d 9550 c3bd 4611 2ebc
000001d0: 7049 78bd edae 8d3a e74a 223e 4086 5b3d
000001e0: 4905 f8bd ffa3 aa3d ed36 95bd 7114 a53d
000001f0: 9114 bdbd db89 073e cea9 f0bd 1a33 14bd
00000200: 2a85 993d defa 38bd 6cb8 613d aee8 cf3c
00000210: b6a9 873d eefe 0fbe e947 1d3e 93f0 9e3c
00000220: 81ac 853c a9b6 dc3d cd4b 093d 9fcb db3d
00000230: 5d23 7cbd 5e75 70bd 6945 9bbd d110 ae3d
00000240: 5b99 fd3d 0b70 203d ec0b 863d f0cb 92bd
00000250: e369 afbd fd8c 4dbd f3cf 6ebe 9fd3 7d3d
00000260: 7e11 86bc a663 39bd ec34 07be 5fca 4d3e
00000270: 8b48 7f3d 3c9e 35bd a891 873c 354e 123c
00000280: 489d 06bd 9977 ce3d c3fc 0dbe edc1 54bd
00000290: 85d0 6abd e7d9 9e3d 62d1 1bbe a459 d73c
000002a0: c742 063e 9935 823c 292e 103e 3729 973d
000002b0: 53ba be3d 2350 c73d bd4e c03d f1e0 003d
000002c0: 68ac 303d 0f37 423c 16e8 1cb8 bd98 1dbe
000002d0: 4651 273e c8f4 ea3d a2b5 2d3d fe95 6e3d
000002e0: 9d81 c53a 0837 b9ba 4b30 f23d 19bd e6bc
000002f0: bc69 4b3d 4b72 fa3b 0099 563d 5714 2abd
00000300: df04 493d 7d16 58be 94a6 073e 5a58 7cbe
00000310: 3ab9 23bc 8398 363d 91ae 4d3d be5c 113e
00000320: 18c8 2ebd 7f4c 7bbd c6db 8ebd 82d7 103e
00000330: db10 f93d b4a0 133d caaa 5f3d 1edc 863d
00000340: d3ae 73bd 9042 053e f4af 163e a173 523d
00000350: 4f36 13bd 9ccd 6ebc 32eb be3d 9d96 933d
00000360: 1ec0 be3d a657 33bd d16b 093d 79ee 063e
00000370: 2b4b 2b3e 952d aabd 0e98 443d 371b b43d
00000380: cab0 013d e5d4 11be bb8c 913d 6cb4 583c
00000390: 68f7 e4bd dd5c 683d 5c8f d6bc daff ed3d
000003a0: bad1 9b3d 7775 9d3d 5652 61bc 019b 2abe
000003b0: e36a c83d daf9 cabd 9ba9 0ebd 627e 9fbd
000003c0: d3e6 a5bc 8017 df3d 89cf 14be 5e32 8d3d
000003d0: 0adc afbd 41c2 29bd 9e39 25be d0e5 58bd
000003e0: 612d d23d 0ab1 08bd 4f7d 9abc 8c1a 083e
000003f0: 56fd 1c3e 70be 153d 1a56 ffbd 9820 30bd
-0.1781517 -0.029719409 0.0020517013 -0.054192714 -0.002256494 -0.03861529 -0.12952676 0.04328598
-0.025613088 0.1011018 -0.15075192 0.028047867 0.11326437 -0.035502076 -0.097571224 0.06525213
-0.03261354 0.021240307 -0.042028856 0.1837635 0.092835754 -0.14942817 0.052138887 -0.10248178
-0.17684528 -0.16353643 -0.019935416 -0.073394634 -0.0478505 -0.15713036 0.018400466 0.0585707
0.14239094 0.079823546 0.1385752 0.0024995282 0.019027077 0.054981377 0.09084231 -0.14062901
-0.08988174 0.011590967 0.18702194 -0.039842688 -0.17322092 -0.06309987 0.1908793 -0.06838126
0.16146061 -0.17234671 -0.12110539 -0.27226985 -0.21389008 -0.1067832 -0.101734154 -0.09446035
0.18642338 0.18408942 -0.14093253 -0.019228673 -0.063711755 -0.11649166 -0.0067566256 -0.06865421
0.09414769 -0.11962862 0.14339134 -0.00048259407 0.113105476 -0.11271088 0.12105309 -0.07640331
0.14682788 -0.1345925 -0.0036144133 -0.06486006 0.09581445 -0.05662189 0.13320328 0.06318546
0.117122695 -0.028729942 -0.08876283 -0.07628007 -0.14470693 0.09906146 -0.0024281498 -0.018418444
-0.048287585 -0.12878399 -0.004175364 0.10309895 0.049845316 0.060309686 -0.08527955 0.0062027625
-0.015804477 -0.066001736 0.03538591 -0.05224356 0.050272413 -0.04267966 0.024814127 0.0403372
-0.060504545 0.04923033 -0.027610973 0.26776463 0.120742716 -0.25206107 -0.11935104 0.03984377
0.097431056 0.0396706 -0.09536854 -0.0106242355 -0.06061691 0.0010809578 0.15848885 0.053594828
-0.12110383 0.08332061 -0.07285867 0.080605395 -0.09232438 0.13236181 -0.11751138 -0.036181547
0.07496102 -0.04516112 0.05510752 0.025379505 0.06624167 -0.14062092 0.15359463 0.019401824
0.016317608 0.10777027 0.033519555 0.10732197 -0.061557163 -0.05870568 -0.07581598 0.08499301
0.12382766 0.039169353 0.06545243 -0.07167804 -0.08565118 -0.050183285 -0.23321514 0.061969396
-0.016365763 -0.045261048 -0.13203782 0.2009673 0.06232504 -0.044340357 0.016548946 0.008929779
-0.03286484 0.10081405 -0.13865952 -0.051942755 -0.057327766 0.07756405 -0.15216592 0.026287861
0.13111411 0.015894698 0.14080109 0.07380908 0.09312882 0.09732082 0.09390018 0.03146452
0.04313317 0.011853947 -3.7409445e-05 -0.15390296 0.16339597 0.114724696 0.042409547 0.058248512
0.0015068535 -0.001413078 0.118256174 -0.02816634 0.049661383 0.0076430193 0.052392006 -0.041523304
0.04907691 -0.21102329 0.13247138 -0.24643078 -0.009992892 0.04457904 0.050215308 0.14195535
-0.042671293 -0.06135225 -0.06975512 0.1414471 0.12161418 0.03604193 0.054606237 0.06584953
-0.059492897 0.13013673 0.14715558 0.051379804 -0.035940465 -0.014575388 0.09322204 0.072064616
0.09313987 -0.04378476 0.033550087 0.13176908 0.16727893 -0.08309475 0.047996573 0.08794253
0.03166274 -0.14241369 0.0710692 0.01322661 -0.111800015 0.056729186 -0.026191406 0.116210654
0.076083615 0.0768842 -0.013752541 -0.16660692 0.09786012 -0.09910937 -0.034829717 -0.077877775
-0.020251667 0.10893154 -0.14532293 0.068943724 -0.08586891 -0.04144502 -0.1613526 -0.05295354
0.102625616 -0.033371963 -0.01885858 0.13291377 0.15331015 0.03655857 -0.124675944 -0.042999834

network_body._body_endoder.seq_layers.0.bias f4 [128]
00000000: e505 30bd 4939 9fbb 3343 b3ba 8e38 86bc
00000010: a354 cd3b bf31 7d3c 0321 cb3c 63d1 fb3a
00000020: aef5 98bc 3410 0fbd 7d77 f4bc ab6a 8c3b
00000030: 7758 02bd 3139 00bd f874 4abd 3d6e 92bb
00000040: a6df 9fbc fa4d a6bb aa84 14bd 948f 87bc
00000050: bd91 9cbc 49ad 173c 5a5c 5e3c f163 613d
00000060: 8426 f8bc efd9 97bc d00e 8c3b 0e5a e33c
00000070: fb19 7cbb b8a3 703d a0c1 10ba 3256 c2bb
00000080: f029 83bc 4f7b b6bc 9b31 b7bc 9a19 98bc
00000090: 7b35 043d b769 c63c 4aa9 d8bc 5e2f 2b3d
000000a0: 7067 5bbb d75b 86bd b18d 563b 1b76 4a3c
000000b0: 5392 3cbc 38a3 02bd 4931 803a 9ad4 9dbc
000000c0: 3abe 31bd 4f79 843c c991 84bb 3aa9 e83c
000000d0: 3350 913b 08f8 5cba 8211 0abd d3b4 88bb
000000e0: 1c1d 073c 27df f4bc f439 76bc c1ca 41bb
000000f0: 9c01 72bd 4924 ff3c 65c8 2a3c 232a 8ebd
00000100: cbc7 c9bc 295c 7a3b 1f47 233d f162 05bd
00000110: be73 b9bc 34d3 5439 2ece 28bd 69a2 b9bc
00000120: a24a 0abd b877 003d 0cad b13a a2e7 9abb
00000130: 6e1a 47ba 7171 ac3a 5cfb ee39 4800 53bc
00000140: e6e8 17bc afbd 55bc 0f7a e1bc db08 043c
00000150: 9d87 c23c 62b4 6f3c fe76 7abc b5fe 83bc
00000160: 73a1 9e3c 0663 6fba 3331 a5bc 2c2d 9ebb
00000170: c412 243c 6dcf 833c 768f 9bbc a7e5 8c3b
00000180: e672 6c3c ba9d bc3c 7763 1bbd 41d5 e3bc
00000190: 09a4 22bd f7bb 7ebc 8901 783a f3b6 e23b
000001a0: 5197 c7bc 33aa a6bc d638 17bd faaa b63c
000001b0: c78c c33c e5a2 e83c 7d5b 34bd 661a bbbc
000001c0: 583c 343c c2c8 8a3c 3df8 2c3c 6d9d 33bc
000001d0: 9e7b 65bb 9994 f3bc d3c5 353c 9f05 35bc
000001e0: 3fe4 32bd 4e78 4e3c 2add 2dbd 4c81 18bc
000001f0: 7261 3cbd bf18 afbc 65f5 1fbd f4da 003c
-0.04297437 -0.004859124 -0.0013676643 -0.01638439 0.006266193 0.015453755 0.024796015 0.0019212182
-0.018671837 -0.034927562 -0.029842133 0.0042851768 -0.031822648 -0.031304542 -0.049427956 -0.004468708
-0.019515824 -0.0050752135 -0.03625933 -0.016547956 -0.019112462 0.009257623 0.013571823 0.055026952
-0.030291803 -0.018536536 0.0042742267 0.027752902 -0.0038467634 0.058749884 -0.00055220164 -0.0059306854
-0.016011208 -0.022275595 -0.02236252 -0.018566895 0.032277565 0.02422033 -0.02644791 0.04179322
-0.0033478402 -0.06560486 0.0032738263 0.01235726 -0.011509496 -0.03189394 0.0009780313 -0.019266415
-0.043394305 0.016171126 -0.0040456993 0.028401006 0.0044346093 -0.00084292935 -0.033708103 -0.0041719466
0.008246686 -0.029891564 -0.015028466 -0.0029570314 -0.059083566 0.031145232 0.010423754 -0.06941631
-0.024631402 0.0038201904 0.03986275 -0.03256506 -0.022638198 0.00020296575 -0.041212253 -0.022660451
-0.03376258 0.031364173 0.00135556 -0.00472732 -0.0007595186 0.0013156367 0.00045582175 -0.012878485
-0.009271836 -0.013045712 -0.027524022 0.008058752 0.023746306 0.014630409 -0.015287159 -0.016112665
0.019364094 -0.0009131882 -0.020165062 -0.0048271623 0.01001424 0.01609012 -0.018989306 0.0042998376
0.014431691 0.023024429 -0.037936654 -0.027811648 -0.039707217 -0.015547744 0.0009460678 0.006918782
-0.024364145 -0.02034483 -0.036919437 0.022298325 0.023870839 0.028397987 -0.044032563 -0.022839736
0.011000715 0.016941432 0.0105572315 -0.010962826 -0.0035016309 -0.029733943 0.011094528 -0.011048703
-0.043674704 0.012601925 -0.042447247 -0.0093081705 -0.04599137 -0.021374105 -0.039052386 0.0078647025

network_body._body_endoder.seq_layers.2.weight f4 [128, 128]
00000000: f74f 123e dffe dc3d f479 39bb d2f6 1a3d
00000010: deb2 f93c dff7 80bd 3690 e3bc 0ada a7bd
00000020: a167 ff3d f480 fdbc 15f8 00be 9504 393e
00000030: 9bcf 8c3d 3099 d53c 9081 863d 89e7 49bd
00000040: 120d 5bbc 0da5 1dbb 5772 afbb 9165 73bd
00000050: 6955 9ebd e5cb e1bc 2d99 103d 281c 713c
00000060: e41d 243d f6e3 39bc 1b37 a4bd 8f32 7e3d
00000070: 6fe8 1d3d d85f 1dbe fd0e 763e eac6 dcbc
00000080: e598 2b3e 9930 a8bb 1a18 8e3d 427b 1ebe
00000090: ee2d 6fbd f5ef 0d3e 72b8 e9bd 7dd4 dfbd
000000a0: f16e 703d 0af3 933d 9002 963d 2ff8 7bbe
000000b0: 272c 0a3e 53f2 ee3d 474b d2bd ac33 91bc
000000c0: ee9a 00bd 3a26 ba3d a295 5ebd edb2 aebb
000000d0: 00cb 4b3d 59af a23d 90fe abbd 4e1c fbbc
000000e0: 44d1 6f3e 2162 643c 9b57 eabd 23b1 2c3d
000000f0: 5cfd 503e 6a26 263d d417 c5bd 150f 97bd
00000100: 8827 783c 5880 8e3d 8e22 21be 296e 0b3e
00000110: 2401 613d 3805 b73c d0a1 be3d 74ab 2fbd
00000120: 7184 fbbc c3ac 393d 6c7d 2c3e 24a2 113d
00000130: 7c19 733d 35e3 d6bc e13b c33d 4d14 853c
00000140: 28fb c53d 876b 83bd 411b 81bd 5230 25bc
00000150: f837 ddbc f29c 7bbd a89b 703d c849 04bd
00000160: 4a58 24be fcbe 853d c0ac 073e 3c94 f43d
00000170: ec65 c7bd c7f7 363d 0bdf 123d b81d df3d
00000180: a5f0 343e 4582 ed3d 0e08 b13c b758 ac3d
00000190: e717 4bbc 3073 0b3e 7eb0 88bc 5301 bc3b
000001a0: 6adf 963d b59b acbd 57ed cf3c 2bdd 843d
000001b0: 416c c43d 6a09 143e f86f 6b3d e7bc ea3d
000001c0: 6a2e 42be 6d05 a3bd ee71 2bbd 347d 91bd
000001d0: e7d6 48bd e868 0c3d ac7f 783c 72cd 9d3d
000001e0: 99a0 403e 384e b5bd e552 183e 30ef 993c
000001f0: 3485 0bbe e5be 4e3d 6747 07bc 8cbc 6d3e
00000200: 90f0 2cbe 373d d4bc 5701 90bd 1cdb 71bd
00000210: 1624 ea3c 5d8d 5dbd ba4c 11bd 7df8 473d
00000220: 94a9 593d fe11 30bd 6705 ccbb 7a99 02bd
00000230: fa95 3d3e 12d0 b03d 8ac6 c3b8 22d7 a53d
00000240: 35dd 4cbc b51a ebbd b5d8 2cbd 1c46 e9bd
00000250: 222d c7bc 7474 5f3b c3de 1e3e 3333 053d
00000260: 3aed 22be 7ef3 e7bc db6c 043c dc49 5a3e
00000270: 1660 2a3e 8bb6 36be f86f dbbc 07da dc3d
00000280: 66c3 733d 6f28 1cbc f28d 19bd e1aa 313e
00000290: c274 f3bc 606f 0e3e eb1a c83d e9bb 46bd
000002a0: 92dc 11be 8332 cf3c 0758 6b3c 0786 b7bb
000002b0: fb6a c1bd ea30 cfbd 8079 f53a 578c 97ba
000002c0: 63c8 ac3d 9c22 523d f2c4 333b 2f05 94bd
000002d0: 8703 1d3d 1885 243d 7e2b b3bd ff1e eabc
000002e0: 7902 82bb a9ce 2c3d 66e3 a83c 84fb 37bd
000002f0: 692b 10bd 87c9 7e3d f0dd 073d e731 9abd
00000300: 66fc 1f3d dd34 3a3e afdd 193e 999a 9ebc
00000310: a8a7 053e 67e9 713c 9220 10be 4e8e 13bd
00000320: 04a4 7bba a468 2a3d 553a c3bd a33b 04be
00000330: 1d32 aa3d 75b5 88bd 352a 6e3d 8c35 13bd
00000340: d4a1 39bb 6f8d 25bd e20f d53b 5d36 cb3b
00000350: 9735 15bc 73f2 8e3d dd68 f33d a327 55bd
00000360: 1b07 bfb9 27a1 e73d 01be 0c3e 077b a6bd
00000370: c5e7 d33c 356c b03d 794c 023e 7f95 f8bc
00000380: b81a 373d 7757 e43d f626 eebc ce73 fb3c
00000390: d175 1e3e 5911 083e ade9 e0ba 3f09 1a3d
000003a0: 6d0f b2bd 6dac 463d 02d9 04be 7b1c 0b3d
000003b0: eabb 193d 078d a4bc 1958 ce3d 0c05 a33d
000003c0: 9a8d 68bd 2813 523d b8fa 843d 4c6b 71bd
000003d0: d8ff f1bd 07f9 d3bc 038b 483e cb72 143b
000003e0: f612 80bd 9338 9abd 8ac5 87bd c3b8 6e3c
000003f0: 8f61 82bd ca9f 543d a6c6 1abe f555 323d
0.14288317 0.107908 -0.002830145 0.037833042 0.030480798 -0.06297278 -0.027778726 -0.081958845
0.124709375 -0.030945279 -0.12594636 0.18068154 0.06875535 0.026074022 0.06567681 -0.049293075
-0.013369815 -0.0024054677 -0.0053542065 -0.059423033 -0.077311344 -0.027563045 0.03530233 0.014716186
0.04006757 -0.011345854 -0.08018323 0.062059935 0.038551744 -0.15368593 0.24029155 -0.026950318
0.16757543 -0.0051327464 0.06938191 -0.15476707 -0.05839341 0.13861068 -0.11412133 -0.10929201
0.058699552 0.072240904 0.073247075 -0.24606393 0.13493405 0.116673134 -0.10268264 -0.017724834
-0.031397752 0.090893224 -0.05434192 -0.005331388 0.049754143 0.07943601 -0.08398163 -0.030653145
0.23419672 0.013939411 -0.11442491 0.04216112 0.20409149 0.04056398 -0.096236855 -0.073759235
0.015146144 0.069580734 -0.15735838 0.13616242 0.05493273 0.022341356 0.09308207 -0.04288812
-0.030702801 0.045330774 0.1684472 0.03555502 0.059350476 -0.026231388 0.09532905 0.016245032
0.09667045 -0.064169936 -0.063040264 -0.010082321 -0.027004227 -0.06142897 0.058742195 -0.032296926
-0.16049305 0.06530568 0.13249493 0.11942336 -0.09736237 0.044669893 0.03585724 0.1089434
0.17669924 0.115971126 0.021610286 0.084153585 -0.0123958355 0.1361816 -0.01668572 0.0057374625
0.073668316 -0.08428136 0.025381727 0.06487497 0.0959096 0.14456716 0.05747983 0.114618115
-0.18963018 -0.07960019 -0.0418567 -0.07103959 -0.04903307 0.034279734 0.015167158 0.07705201
0.18811263 -0.0885281 0.14875372 0.018790811 -0.13625032 0.05047502 -0.00825677 0.23216456
-0.16888642 -0.025908096 -0.070315056 -0.05904685 0.02858166 -0.054089893 -0.035473563 0.04882096
0.053140238 -0.04298591 -0.00622623 -0.031884648 0.18514243 0.08633436 -9.3353054e-05 0.08097674
-0.012503912 -0.11479703 -0.042198855 -0.113903254 -0.024313513 0.003409651 0.15514664 0.03251953
-0.15910807 -0.028314348 0.008082594 0.21317238 0.16638216 -0.17843072 -0.02678679 0.10783773
0.05951252 -0.0095311245 -0.037488885 0.17350341 -0.02971876 0.13909674 0.09770759 -0.04851905
-0.14244297 0.02529264 0.014364249 -0.005600694 -0.09444233 -0.101167515 0.0018728226 -0.001156221
0.08436658 0.051302537 0.002743062 -0.07227551 0.038333442 0.04016599 -0.0874853 -0.028579233
-0.00396758 0.042189274 0.020616245 -0.0449176 -0.03519765 0.06220391 0.03317064 -0.07529049
0.039059065 0.18184228 0.15025972 -0.019360827 0.13052237 0.01476512 -0.14074925 -0.036024384
-0.00095993304 0.0416037 -0.0953261 -0.12913375 0.083103396 -0.06675235 0.05814572 -0.03593974
-0.0028325217 -0.040418085 0.0065021375 0.006201549 -0.009107015 0.06979837 0.118852355 -0.052039754
-0.00036435653 0.11310034 0.13744356 -0.08128934 0.025867352 0.08614389 0.12724485 -0.030344723
0.044703215 0.11149495 -0.029071312 0.030694868 0.15474631 0.13287868 -0.0017159485 0.037606474
-0.086943485 0.04850428 -0.12973407 0.033962708 0.037532724 -0.020086778 0.10075397 0.07959947
-0.056775667 0.0512878 0.06493133 -0.058940217 -0.118163764 -0.025875581 0.19584279 0.002265143
-0.062536165 -0.07530322 -0.066294745 0.014570418 -0.06366264 0.0519102 -0.15114841 0.043539006

network_body._body_endoder.seq_layers.2.bias f4 [128]
00000000: a437 703b 472f 32bc 7291 18bb 1693 b2bc
00000010: 0903 57bc 51ba 223c 3a73 1db9 30ab 9bbc
00000020: e2d8 053c 699f e3bc 7029 633c 5882 9cbb
00000030: 3892 d1bb e6d2 9b3b 5738 523c 61cd 6d3c
00000040: 26d0 ffbb bf8d b6bc f00b 453b 8b72 81bb
00000050: 666a 7fbc 7ce5 6cbb 5948 b53b 939a 7b3c
00000060: 5ad5 843a 88be b3bc f831 88bc 07d0 37bd
00000070: 650f 9b3c 64af 31bb 6cf0 753c 7ff8 e0ba
00000080: 589f d8bc ba6d 383c b1e1 a23b bd42 ffbc
00000090: f156 78bc 6733 043c 94ff ba3c 5b8c 963c
000000a0: fc18 58bc 33c7 cebc 37e8 c73b 9abf 183d
000000b0: cf1f de3a 8476 babc f53e 8dbc 997b eabb
000000c0: 7dd9 ebbc 156b 1f3c e033 5e3b daac 4dbb
000000d0: 50a9 45bc ed43 a33a a18a 34bb 0bc8 b4bb
000000e0: 8bf4 c13b f519 99bc 8c29 3cbc 7c88 6d3c
000000f0: 5e47 d6bb 8f34 843c 0af9 903a e0db 0d3b
00000100: e4d5 e43b 2248 90bc f675 553b 8f9e d8bc
00000110: c35d 73bc d735 11bc 102e dfbc 62cd eabc
00000120: 9d0c b0bc 5266 d4ba ed98 803b 2aa6 553b
00000130: ae10 a33c 387f be3c 543d 743b 3e23 6b3b
00000140: a2ef 1b3b e7eb a93c 5f19 d7bb fc23 41bc
00000150: ea32 63bc 3e1b 65bb 7639 ac3c f64d d3b8
00000160: 8f47 303b 4df4 a4ba 16e2 743c 22fc b0bb
00000170: 014d 1bbc 6d40 39bd 834a b33c dda8 603a
00000180: 34a4 25bc e490 2d3b 0b06 113c 6e96 68bc
00000190: ab31 1abd f3eb edbc 5547 28bb a04b 803b
000001a0: bdfa 82bc 0553 9cbb 5d49 07bd e4d4 04bc
000001b0: 3ec5 ecbc 8b9b dabb de17 a63c 0410 573c
000001c0: ab7e 6cba 892c 3dbd b4aa 023c c048 243c
000001d0: 8031 10bb 2b23 193c 8107 c6bc a0ff 04bd
000001e0: cc8a 92bc c450 9ebc ee3d 6abc e2d8 3e3b
000001f0: 2fc1 ae3c b4a0 2d3a cffe 3d3b f148 1bbc
0.0036654258 -0.01087553 -0.0023280052 -0.021798652 -0.013123282 0.009932117 -0.00015015612 -0.019002527
0.008169385 -0.027785974 0.01386486 -0.0047762804 -0.0063956045 0.0047553657 0.012830815 0.014514298
-0.0078067956 -0.022284387 0.003006693 -0.003950422 -0.015589332 -0.0036147526 0.005532306 0.015356678
0.0010134385 -0.021941438 -0.01662539 -0.044876125 0.01892824 -0.0027112598 0.015010934 -0.0017163901
-0.026443169 0.01125663 0.004970752 -0.031159753 -0.015157447 0.008068896 0.022826947 0.018377474
-0.0131895505 -0.02524147 0.00610068 0.0372921 0.0016946736 -0.02276159 -0.017241934 -0.0071558473
-0.02879023 0.00973012 0.0033905432 -0.0031383545 -0.012064293 0.0012456157 -0.002754845 -0.005517011
0.0059190444 -0.018689135 -0.011484515 0.014497872 -0.0065392694 0.016138343 0.0011060548 0.0021645948
0.0069835056 -0.01761252 0.003257153 -0.026442794 -0.0148538975 -0.008862934 -0.027243644 -0.028662387
-0.02149039 -0.001620481 0.00392448 0.0032600262 0.019905414 0.023254022 0.0037268 0.003587916
0.0023793955 0.02074237 -0.0065643038 -0.0117883645 -0.013867119 -0.0034958865 0.021023493 -0.000100757854
0.002689812 -0.0012585014 0.014946481 -0.0054011503 -0.009478808 -0.045227457 0.021886116 0.00085700845
-0.01010995 0.0026484067 0.008851538 -0.0141960215 -0.037645023 -0.029043173 -0.0025677283 0.003915265
-0.015988702 -0.004770639 -0.03302895 -0.008107398 -0.028902646 -0.006671374 0.020275053 0.013126377
-0.00090215605 -0.04618505 0.007975269 0.010027111 -0.002200216 0.009346764 -0.0241735 -0.032470345
-0.01788845 -0.019325621 -0.014296992 0.0029120971 0.021332351 0.0006623373 0.002899099 -0.00947784

action_model._continuous_distribution.log_sigma f4 [1, 2]
00000000: e1ea 5ebd 41d0 79bd
-0.054423217 -0.060989622

action_model._continuous_distribution.mu.weight f4 [2, 128]
00000000: 8e1e 3339 968e adbc 0a95 c1bc 16de a93c
00000010: 1c83 edbc 136d 3a3d 15e9 1e3d 50ee 01bd
00000020: c04a 153d b5dd 12bd 9757 413d 9120 26bd
00000030: 913a 3dbc faf0 543d bfb9 933d b26c 3fbd
00000040: 7042 1fbd 9767 ccbc 90a5 90bd af9a 953b
00000050: 3572 1bbd bbaa 28bd b04b bcb9 1594 713d
00000060: b7bb 02bb cb2d cdbb 4828 0fbd a67f 48bc
00000070: 436a 803d 3fb2 bc3a f977 e33c acf0 83bc
00000080: a707 57bc dbb6 5a3d 0a32 2dbd dc29 80bc
00000090: 300d 0bbd bf8a 07bd d45f 1bbd 24e5 3b3d
000000a0: def3 52bb f800 c2bc 52c1 033d 15be 8f3d
000000b0: 7b86 4a3d 40b9 a8ba 3fe0 8abd 8e1c 563b
000000c0: 8bb5 1bbd 7395 3d3c efe0 4d3d c8cb 4d3b
000000d0: 0077 20bd 1e88 34bd 248e 48bd cb28 9cbc
000000e0: 3b70 aabb c2d3 a7bc 83cd 91ba e769 833d
000000f0: 9798 2ebd a96a 743d 79a6 553c 062c d0bc
00000100: b86e 833c b7ff c7bc 7537 de3c b07c 30bd
00000110: a06b 57bc 6e4c 43bd 3e14 4abd 8079 27bd
00000120: bfdb 8c3c e271 f63c 212c 89bc 196f 9c3c
00000130: 931e 9c3d fdef a43d ff6e 3f3c 4c28 58bd
00000140: 2693 b3bc 1749 ad3c 00b2 81ba bc5a d3bc
00000150: 128f 0dbd dcfe e1b9 a75c 44bc 7fd7 89bb
00000160: d05e bbbc 1c3f 023b 592d 06bc 6d35 cdb9
00000170: ee96 a1ba 8577 703b 3b0d a93d 08ef 533d
00000180: d0cf 093d 269a 913c 9147 49bd 7973 44bc
00000190: d6e1 833c 4219 7939 d118 15bb 8cba 0d3c
000001a0: 530b 88bb 28a8 00bd 88eb 773c 81e4 2ebd
000001b0: 47a9 5dbc 0ae4 32bd 0af7 76bc 2ebc d33c
000001c0: 205c 2b3b 6b55 c3bb 29ca 463d 6928 d13c
000001d0: e4b8 71bc 8f27 2c3d 5134 acbc 8fef 88bc
000001e0: b679 dfbc f158 c7bc fe2c 86bc e7c1 2d3b
000001f0: 7341 8d3d 84ac c13b 098c 353c 54e9 72bc
00000200: 3c4c 233d 2bc0 1abc 1fd6 4fbd f151 b1bb
00000210: 0822 15bd c317 d53b 9204 fe3b 7217 873b
00000220: e51f e53b 07f6 04bc e3aa 4e3c cc9f c6bc
00000230: c657 19bc e12d 62bc 8b9f 87bb 8e96 5cbc
00000240: 03ca 0f3d 9478 483b 7f3e e0ba 07f5 bb3a
00000250: 69a0 c3bb 10ed aebc 95a9 c23c f640 d23a
00000260: b728 8cbb 109a 1bbd d365 433a a632 613a
00000270: cc96 153c 48db 4ebc a210 fb3c b66b cc3c
00000280: b1ae 20bd dca7 7abb 5525 a9bc 11d1 19bb
00000290: 5f59 c6bb 2ef2 52bc 5f7f 033d 07ba 9f3c
000002a0: 1859 81bb 7913 d9bb 0689 013b e96a 76bc
000002b0: ea20 053b 4ae9 febc 0b09 80bc 3992 933c
000002c0: 29e7 07bd c1d5 1b3c 73b3 ecbc 9706 6a3b
000002d0: e43a e9bc ad7a e23c 537e 263d 378b 2dbd
000002e0: 02b1 6cbb 28b5 9f3a 4e3b 303b e41c 703b
000002f0: c8cd 08bd 7a7b 57b9 cba1 a0bc ed56 de3c
00000300: f44b b03c 5fba 49bc 8489 cb3b 8168 e4bb
00000310: 892f cebc 7d5a acbb be4a 84ba b43d 02bd
00000320: a55b b4bc 72f6 063b f08b 93bb eda3 2f3c
00000330: 5e21 1ebb b846 503b c043 8b3c 56fb b0bc
00000340: 055a a5bc 1cb5 2d3d 8eda 0ebc d25c 4cbc
00000350: e189 19bc 9c39 f4bc 2331 0bbd ecef acbc
00000360: aeb1 583d f93d c73c 01af cdbc d395 c93c
00000370: bc90 b23c 554a eebb a877 41bb a5b4 52bc
00000380: c788 2dbc 3349 4b3c 8156 a7bc 0c9e 08bb
00000390: a08b cfbb f6af 85bc 4830 03bc ccef 103c
000003a0: f087 a8bc 6c2b 7aba 3317 9fbc c626 8bbb
000003b0: 393d a5bc 893c 123d b50e 36bd f73c 963c
000003c0: f9be ac3b 3c25 4a3b 7ad4 043b b69a 783c
000003d0: 41d8 3a3d e96a 883c 2ba6 0cbd 4b94 3f3c
000003e0: a8f4 debc 4b6d 0ebc d667 eebc 7447 023d
000003f0: ef0a 893b 8474 b03c e473 48bc 7c1e c0bc
0.00017082153 -0.021186154 -0.023630638 0.020735782 -0.028993182 0.045514178 0.038796503 -0.031721413
0.03644824 -0.035855968 0.047202673 -0.0405584 -0.011549608 0.051987626 0.07213163 -0.04673452
-0.03888172 -0.02495174 -0.070628285 0.004565559 -0.037950713 -0.041178446 -0.00035914546 0.058979113
-0.0019948313 -0.0062615625 -0.034950525 -0.012237465 0.06270268 0.0014396383 0.027767168 -0.016105972
-0.013124383 0.05339704 -0.04228405 -0.01564496 -0.033948123 -0.033091303 -0.037933186 0.045872822
-0.0032188813 -0.023682103 0.032166786 0.07018677 0.049444657 -0.0012872592 -0.06781053 0.0032670829
-0.03801493 0.011571276 0.05026334 0.003140198 -0.039175987 -0.044075124 -0.04896368 -0.01906242
-0.005201367 -0.020486716 -0.0011123869 0.06416684 -0.04262599 0.05967203 0.013040178 -0.025411617
0.016044006 -0.024413927 0.027126053 -0.04308766 -0.013148218 -0.04768031 -0.04933571 -0.040887356
0.017194627 0.0300836 -0.016744675 0.019095944 0.07623019 0.08053587 0.011684178 -0.052772805
-0.021920752 0.021153016 -0.0009894967 -0.025800101 -0.03456027 -0.0004310523 -0.011984981 -0.0042065973
-0.022872359 0.0019874042 -0.008189523 -0.00039140452 -0.0012328306 0.0036692333 0.08254477 0.05174163
0.03364545 0.017773699 -0.049140517 -0.011990421 0.016098898 0.000237559 -0.0022750387 0.008650433
-0.0041517406 -0.031410366 0.015131839 -0.042698387 -0.013529128 -0.043674506 -0.015073547 0.025846567
0.002614744 -0.0059611103 0.04853264 0.025531964 -0.014753554 0.042029914 -0.02102104 -0.016715793
-0.027279716 -0.024334403 -0.016378876 0.002651328 0.06897249 0.005910458 0.01108075 -0.014826138
0.039867625 -0.0094452305 -0.05074131 -0.0054113795 -0.036409408 0.0065030768 0.0077520097 0.004122668
0.0069923275 -0.008115298 0.012613985 -0.024246119 -0.009359306 -0.013804884 -0.004138892 -0.013463629
0.035104763 0.0030589448 -0.0017108469 0.0014339992 -0.00597005 -0.021353275 0.023762504 0.0016041088
-0.0042773145 -0.037988722 0.00074538327 0.0008590616 0.009130191 -0.012625523 0.03064758 0.024953704
-0.0392291 -0.0038247025 -0.020647684 -0.002347056 -0.0060531343 -0.012875123 0.032103892 0.019497884
-0.0039473884 -0.006624636 0.001976551 -0.015040138 0.0020313808 -0.0311171 -0.015629312 0.01801406
-0.033179436 0.009511412 -0.028894162 0.0035709494 -0.028470464 0.027646387 0.040647816 -0.042369094
-0.0036116247 0.0012184726 0.0026890817 0.0036638314 -0.033399373 -0.00020549996 -0.019608399 0.027141059
0.021520592 -0.012312501 0.0062114615 -0.0069704656 -0.02516915 -0.0052598105 -0.0010093076 -0.031797126
-0.022016356 0.002059367 -0.004502766 0.010720235 -0.0024128775 0.0031780433 0.01700008 -0.021604221
-0.020184526 0.042409047 -0.0087191 -0.012473302 -0.009371252 -0.029812627 -0.033982407 -0.021110497
0.052903824 0.024321543 -0.025107862 0.024607575 0.02179753 -0.0072720447 -0.0029520784 -0.012860452
-0.010591692 0.012407589 -0.02042699 -0.0020846156 -0.0063337833 -0.016319256 -0.008007117 0.0088462345
-0.020572633 -0.00095432135 -0.019420242 -0.0042465655 -0.020170795 0.035702262 -0.04444762 0.018339617
0.005271789 0.0030844947 0.0020268247 0.015173605 0.045616392 0.016652541 -0.034338158 0.011693071
-0.02721627 -0.00869305 -0.029102247 0.031806424 0.0041822116 0.021539934 -0.012234662 -0.023452036

action_model._continuous_distribution.mu.bias f4 [2]
00000000: 5086 af3c 7f55 b23c
0.02142635 0.021769283

action_model._discrete_distribution.branches.0.weight f4 [1, 128]
00000000: 6a40 263c fa40 1dbc 0eac 233c 6d0d e8ba
00000010: db7d f63b bf2f d73b 3da0 f039 73f3 b6bb
00000020: 8dd6 343b 30e2 653b 778d 3fbb 47e1 cb3c
00000030: 48ba 483c 647a 00bb 90e8 54bc c0da d63a
00000040: 3857 483c 703a cd3b bd10 15bc 2198 453c
00000050: 83b0 183c b0cb 1a3c 23ad 21bc 08e1 5d3c
00000060: b64c 2f3b df96 033c f270 10bc c141 b2bb
00000070: 3868 abbc 97a7 a2bc 559b 43b9 fe4c 28bc
00000080: 8a91 75bb 5355 79bb 1f7c 1a3c f742 b23b
00000090: a0ce c0bb 1d16 54bb cb86 0a3c 86b4 c23b
000000a0: 43aa d7bb 6361 05bc 172e af3b e8b7 8f3b
000000b0: 57eb deba bb5f ccbb eadf c2ba 10b3 663c
000000c0: 3a1f db3b eda7 d73b a5ef 623c 87d7 11bc
000000d0: 197e 02bb 4fd2 94bc 97dd abb9 760f 90ba
000000e0: 633c 243b 9de9 6c3a 95ec 3a3b 844f bd37
000000f0: 7a01 e53b 66c3 90bb 3851 c4b9 556f 37bc
00000100: 8355 853b 880a 6a3c bde7 f639 9d98 d0bb
00000110: e348 413b 6295 33ba af5e d6bb af6c 32bb
00000120: 1887 12b9 c7c5 5f3c 38dc 473b 26db 1a3b
00000130: 04ea 0dbb 7fe0 77bb 930a 143c 096d 05bc
00000140: d510 423c c79b 4bbb cc6b a8b9 5360 30bc
00000150: 1b29 e7bb 479a 073c 2389 f8bb f93a 3a3c
00000160: a8ee e73a c6c5 a83a 4655 0fbb 5b70 f4bb
00000170: 67d5 053c 2df4 48bc 9adb de3b d890 463b
00000180: afe8 68bb bfd4 073b 82c1 f7ba 44c9 4a3b
00000190: bf41 343b afa8 c9bb 9b63 cb3a 5b26 2ebc
000001a0: db13 06bc a7f8 25bb e252 ef3b 31fa ac3b
000001b0: accd a9b8 336c 35bc 2fce 28bc 3ea3 1d3b
000001c0: b200 f7bb 1d8e 6e3c d749 2a3c 5e68 07bc
000001d0: 53ea 863a 327f 22bc 952c 21bc bbf4 ac3c
000001e0: cdba f539 e058 3dbc 8b8a 00bb ab10 6d3b
000001f0: 8f8c b23c 5fa1 31bb c18f 0b3a 13f3 0a3c
0.010147193 -0.009598011 0.0099897515 -0.0017704197 0.0075223274 0.006566971 0.00045895754 -0.0055832206
0.0027593703 0.0035077445 -0.0029228607 0.024887694 0.012251444 -0.00196042 -0.0129949 0.0016392097
0.012227826 0.00626307 -0.009098229 0.012060196 0.009319427 0.009447977 -0.009867939 0.013542421
0.0026748604 0.008031576 -0.008815991 -0.0054399674 -0.020923719 -0.019855304 -0.00018654515 -0.010272263
-0.0037470781 -0.0038045242 0.009429007 0.0054401117 -0.0058840066 -0.0032361813 0.008454989 0.00594193
-0.006581576 -0.008140895 0.0053460705 0.004385937 -0.0017007393 -0.006236998 -0.0014867757 0.014080778
0.006687072 0.0065812976 0.013851081 -0.008901483 -0.0019911586 -0.01816669 -0.0003278076 -0.0010990936
0.0025060407 0.00090374966 0.0028522362 2.2567583e-05 0.0069887014 -0.0044178246 -0.00037444546 -0.011195977
0.0040690317 0.014284737 0.00047093435 -0.006365849 0.0029492907 -0.0006850568 -0.006542049 -0.0027225425
-0.00013973971 0.013657994 0.003049625 0.0023629158 -0.0021654377 -0.003782302 0.009035724 -0.008143672
0.011844833 -0.0031068192 -0.00032123772 -0.010765153 -0.0070544607 0.008276529 -0.0075847073 0.011366599
0.0017695026 0.0012876324 -0.0021870895 -0.007459683 0.008168555 -0.012265247 0.006801081 0.0030298736
-0.003553908 0.0020726172 -0.0018902274 0.0030942718 0.0027505008 -0.006154142 0.0015517356 -0.010629262
-0.008183445 -0.002532521 0.0073035816 0.0052788486 -8.096857e-05 -0.01107316 -0.010303064 0.0024053599
-0.0075379247 0.01456025 0.010393581 -0.008264629 0.0010293223 -0.009918021 -0.009837289 0.02111279
0.0004686922 -0.011556834 -0.0019613828 0.0036173265 0.02179554 -0.0027104241 0.000532385 0.008480805
