Project specific/results/ppo/JumperAgent/checkpoint.pt (torch, 748041 bytes, 39 tensors)

network_body._body_endoder.seq_layers.0.weight f4 [128, 106]
00000000: 0174 2b3e 9e5c 08be a62d 883d 500b 03bc
00000010: 9f45 153c 928c 593e 073c 6ebd d64a 9ebd
00000020: 8641 a3bb 62b0 cfbc 8a31 08be ec43 843e
00000030: e2fd 573c b2c4 08be ce4a d0bd 14db 153e
00000040: ba08 29bc 61f3 8a3d 8f4b 0fbe caf8 f13d
00000050: 86b5 12be bfcb 1b3d 829d 4c3d 44c8 cd3d
00000060: e76f c83d 8ab6 cd3d 7de0 20bd 1b06 1dbd
00000070: b1cc 4c3b 847e 223d 1d94 323d a1dd c33d
00000080: 698f febc 778e a9bd 60a3 5b3c ee89 2f3e
00000090: 6bc3 d6bd b83f 19bd 9f1f 523d 5a52 e3bd
000000a0: 7d4e 3f3d d53d b8bd f420 31bc b9cb 4c3d
000000b0: c728 c53c e774 efbc 53a7 193d 7571 603d
000000c0: 39cb 823d a981 7cbc fe6f 06bb 3d3b 4f3d
000000d0: 436b b83d 3d9f 0dbd 621b 353c aca0 c13d
000000e0: 7bd9 19bd a9a6 73bd 407f 183d 5aed 213d
000000f0: c7f2 703c cd2b 9bbd d96b b6bd 7608 4e3e
00000100: 1c82 393e e2e3 693d 5bd4 3fbd 96c0 fbbc
00000110: cfe5 aebd 9958 923d ad52 07bc da0b 8b3d
00000120: 49ab f63d a79f 183e df89 e43c 1c60 c8bd
00000130: 6765 e2bc 900f 29be 0b5c 33be 1dc2 b73c
00000140: 4a52 f6bd b360 843d 0c5d b3bd a9be 483c
00000150: e683 803d 5fb6 e5bd c400 0e3c 70ed 9cbd
00000160: c487 58be 8c2b 4f3d ee0f d4bd 02ad e53d
00000170: 9308 993b 607b 81bc 2586 0fbe b025 3c3d
00000180: 540c 6a3d e9c7 58bd 9690 563e a331 6e3d
00000190: 3a53 cabd db8b c23d c356 2e3d 6541 003d
000001a0: 0c04 f3bd cc5c 423e 9d36 80bd 78ff 17bd
000001b0: 7c90 7bbc 289e 52bc 59ff 48bd c8b1 ebbc
000001c0: 0e5b 523d 2967 86bd bfc6 2fbd b1df e6bd
000001d0: 3a78 243e 74ee 363e 24cd 823d 63ee 00be
000001e0: 7d64 8e3d bc93 843c f515 31be a8cb 44bd
000001f0: 2de3 103b ffb4 1ebd 4542 4e3c 8690 0dbc
00000200: 5916 803d fab7 c8bc 12b1 3c3e f51d 3ebd
00000210: 9cd3 0739 af7a 733d a4c3 0abd cfad 34bd
00000220: 8663 363c 4de6 56bd c3a1 c0bb 5752 dfbb
00000230: 2e40 603e 5828 f8bd a2b3 7b3d da5b 713d
00000240: 8136 bbbd 96d1 473d 6965 7f3e 862e 933d
00000250: 31e4 0c3d 873e 5abd 1906 583d 65c0 393d
00000260: 37b1 ac3b edd9 ae3c 89d3 a43d d60d e73d
00000270: 4d7e e3bd d10a e13d 530b a7bd 8f6f 3e3d
00000280: a12d a03d cd5a 32bd 90d4 f83c 66d0 5dbd
00000290: 838e febc 0ae2 b53d fce3 94bd 74d3 eabb
000002a0: 9c66 babd 593f cebd f4b1 53bd 00e6 cfbb
000002b0: 324e 303d b8d5 273e 109f febd 0209 223e
000002c0: 9d79 01be 4f08 6e3e cbf8 333e 79dd 24be
000002d0: 9919 8c3d 717d 8f3c e31f c0bc 22da 1d3e
000002e0: 0c17 d13c ec0e b7bd 60dc 06be 9b42 23bc
000002f0: 4d07 4ebe a551 b7bc 4ffe 25bd 35cf c5bd
00000300: 516a 943c 180f 29bd ae61 b33d 97c4 cd3c
00000310: 3aed 38bd d30f cf3d 89f9 593d d889 babd
00000320: 86d5 60bd 26ac 8e3d 5e58 dbbc 2c1a efbc
00000330: 7bc5 423c 28a0 a73d 89e1 253c 38b0 5dbd
00000340: bf23 3bbd a412 893d b68b 1bbd 72c6 f0bc
00000350: 7330 87bd 2937 f93b 3459 933d 1a7c 63bd
00000360: 262e 65bc 3ae1 8d3d 9096 823e 55fb 76bc
00000370: 2826 84bd 5b94 81bd 0266 473d 37cd 67bd
00000380: 4d1d dd3d 4f5d 78bd 81ea 943c d2b1 28be
00000390: 5439 473d 5465 2b3d 66f0 0fbd 937f 83bd
000003a0: 9692 05bd 6c2d 27be 3f2e e13d 6f57 d9bc
000003b0: cf77 0cbd 8cb2 07bd 5b39 04be 3db8 1b3e
000003c0: da9d b33c 763e fc3d db46 f63c ed7b 0ebd
000003d0: 92c3 05be c1db ac3c f96d e2bc 7574 213d
000003e0: 649d e83c ab86 27bd 1dec 013e e76b c63d
000003f0: 3afc 3dbc 5078 f0bd 808e e13c 3ce2 853d
0.1674347 -0.1331658 0.06649332 -0.007998303 0.009110837 0.2124503 -0.058162715 -0.077291176
-0.0049821762 -0.02535266 -0.13300148 0.2583307 0.013183089 -0.13356283 -0.10170518 0.14634353
-0.010317022 0.06784702 -0.13993667 0.11815031 -0.14327058 0.038036104 0.0499549 0.10047963
0.09786969 0.10044582 -0.03927659 -0.0383359 0.0031249935 0.039671436 0.043598283 0.09563757
-0.031074243 -0.08279126 0.013405651 0.1714246 -0.10486492 -0.037414283 0.051299687 -0.11099692
0.04670571 -0.089961685 -0.010811079 0.049998973 0.024067296 -0.029230548 0.03751309 0.0547957
0.06386418 -0.015411773 -0.002051353 0.050593603 0.090048335 -0.03457569 0.011053892 0.09454474
-0.03756092 -0.05948511 0.03723073 0.039532997 0.01470632 -0.07576714 -0.08907289 0.20120415
0.18116039 0.05710209 -0.046833377 -0.03073148 -0.08539926 0.07145805 -0.008259458 0.0678937
0.12044389 0.14904653 0.027897773 -0.097839564 -0.027636243 -0.16509843 -0.1751558 0.022431428
-0.12027414 0.064637564 -0.08757982 0.012252488 0.06275158 -0.11216425 0.008667175 -0.07662475
-0.2114554 0.05057864 -0.10354601 0.11214639 0.0046702116 -0.0158059 -0.14016016 0.04593438
0.057140663 -0.052925024 0.20953593 0.058152806 -0.098791555 0.094993316 0.04256321 0.031312365
-0.11866006 0.18980712 -0.06260417 -0.03710887 -0.015354272 -0.01285509 -0.049071644 -0.028771296
0.051356368 -0.06562645 -0.04291415 -0.112731345 0.16061488 0.178644 0.06386784 -0.12590937
0.0695276 0.016183726 -0.17293532 -0.048045784 0.0022108064 -0.03874683 0.012589042 -0.008640414
0.062542625 -0.02450179 0.18426922 -0.046415288 0.00012953434 0.059443172 -0.033877984 -0.04411107
0.011132127 -0.052465726 -0.0058786585 -0.0068152356 0.21899483 -0.1211707 0.061450608 0.058925487
-0.09141255 0.04878386 0.24941029 0.07186608 0.034397308 -0.053282287 0.05274019 0.045349497
0.005270149 0.02134415 0.0804816 0.11281936 -0.11108074 0.10988391 -0.08156457 0.04649311
0.07821203 -0.043543626 0.030374795 -0.054153822 -0.031073814 0.08881004 -0.07270047 -0.0071663205
-0.091016024 -0.10070676 -0.05168338 -0.006344557 0.043043323 0.16390121 -0.124326825 0.15823749
-0.12644048 0.23245357 0.17575376 -0.1610011 0.0684082 0.01751587 -0.023452705 0.15415242
0.025523685 -0.08938393 -0.13170004 -0.00996461 -0.20119973 -0.022377798 -0.04052573 -0.09658662
0.018117102 -0.04127416 0.08758865 0.025118155 -0.045148112 0.1011044 0.05321649 -0.09108323
-0.05489113 0.069664285 -0.026775535 -0.029187284 0.011887903 0.08184844 0.010124573 -0.054123133
-0.045688387 0.066930085 -0.037975036 -0.029391501 -0.06601038 0.0076054526 0.071947485 -0.055538274
-0.013988053 0.06927724 0.25505495 -0.015074571 -0.0645259 -0.06327125 0.048681267 -0.056592193
0.10796604 -0.06063586 0.018178226 -0.16474083 0.048638657 0.04184468 -0.03514137 -0.06420817
-0.0326105 -0.16325921 0.10995149 -0.02653095 -0.034293946 -0.03312926 -0.12912504 0.15207
0.021925855 0.12316601 0.030063083 -0.034786154 -0.13062885 0.02110088 -0.02764033 0.039417703
0.028395362 -0.040899914 0.12687726 0.096885495 -0.01159578 -0.11741698 0.02753377 0.065372914

network_body._body_endoder.seq_layers.0.bias f4 [128]
00000000: 7371 a73b cf41 e8bb 36ad 0ebb 7f1b b3bb
00000010: 92d3 083b b0ac 90bb c4ef 083b eca9 6d3b
00000020: 24f5 94bb f51f 48bb 4b20 fd3b ffec 9d3b
00000030: a5f8 cf3b 9600 1b3b 6e43 04bb ee61 b9bb
00000040: 2758 993a 0036 e3bb f794 d53b 4cf3 8cbb
00000050: a4c3 3a3b 61b3 d43b ddd9 e4bb 2c03 62bb
00000060: 121a 153c 9e33 00bb c8b0 2c3b 2764 963b
00000070: c6e8 acbb f060 89bb f13b c6bb 89ff 23bb
00000080: faea 53ba 4d24 be3b a347 6c3b fe42 22bb
00000090: 6545 11bb bfa9 88bb 85f8 3b3a 3816 133b
000000a0: 499b 46bb 4855 13bb a583 ddbb 1e89 70bb
000000b0: 0b66 d8ba b8c8 19bb 3f93 d6bb bd98 1cbb
000000c0: 4ded a3bb eb3b 95ba f7f1 bbb9 170b bfbb
000000d0: acab 88bb 893f 993b b4c1 2538 cbb9 9c3b
000000e0: 6845 b23b 9114 953b 1c45 9c3b 0bac dfbb
000000f0: aca1 403b 1c1d d93b 5601 c63a fc36 d93a
00000100: 20b2 7936 99ea 27ba 93b3 a4bb f0e8 ebbb
00000110: 7e15 c83b b0df ccbb a706 0b3b 0120 c6bb
00000120: b4ba 81ba ae7d ae3b c0b8 4237 f14a 50bb
00000130: 4b3a 53bb 5658 5cbb 6939 2e3b 951d d1ba
00000140: 991f c0b9 2d47 09bb 8183 e6bb ec4a e4bb
00000150: 4ef0 c63b 7fda 673b ef84 50bb 3520 7bba
00000160: 5f11 e1bb dac1 2b3a 7cf7 ee39 1484 33bb
00000170: 2cef 1a3a a446 7aba f94d f8bb 9667 4e3b
00000180: 33d6 ba3b 2fb7 d83a f40d de3b 1e42 883b
00000190: 44ec 2b3a 7bf8 0a3b ab91 af3b f7b4 ed3b
000001a0: 696e b73b 422f 9b3b a266 aebb e9aa 853b
000001b0: 6994 66bb 1371 7abb 47c0 063b 5a1c 993b
000001c0: 6174 993b 3c77 c0bb 579d 543b ab1e c93b
000001d0: a792 bb3b a371 64bb 3f63 8cba 097b 363b
000001e0: f488 b93b 94a3 653b 2e57 8ebb 8ef3 653b
000001f0: fdb3 133c c9be 0a3c 79f6 ebba 300b 8c3a
0.0051099597 -0.007087923 -0.0021770722 -0.0054659243 0.002087806 -0.004415117 0.0020894865 0.0036264611
-0.0045458246 -0.0030536626 0.007724797 0.004819512 0.0063467794 0.0023651472 -0.0020181793 -0.005657426
0.0011699245 -0.0069339275 0.006518002 -0.004301464 0.0028497959 0.00649111 -0.006983979 -0.0034486754
0.009100454 -0.0019562016 0.0026350487 0.004589576 -0.005276772 -0.004192464 -0.006049626 -0.0025024137
-0.00080840255 0.0058026672 0.003605344 -0.0024759169 -0.0022166607 -0.004170626 0.0007170516 0.0022443663
-0.003030496 -0.0022481252 -0.006760078 -0.0036702822 -0.0016509903 -0.0023465585 -0.006548315 -0.002389475
-0.0050026537 -0.0011385655 -0.00035847697 -0.0058301794 -0.0041708555 0.0046767634 3.9519466e-05 0.0047828904
0.005440403 0.004549571 0.0047689807 -0.006825929 0.002939324 0.0066257846 0.0015106599 0.0016572173
3.7207574e-06 -0.0006405502 -0.0050262897 -0.007199399 0.0061060777 -0.0062522516 0.0021213682 -0.0060462956
-0.0009897561 0.005325041 1.1606317e-05 -0.003178295 -0.003223079 -0.0033621988 0.0026584512 -0.0015954251
-0.00036644636 -0.0020946965 -0.0070347195 -0.006966939 0.006071127 0.0035378037 -0.0031817516 -0.00095796894
-0.006868526 0.00065520185 0.00045579288 -0.0027391957 0.0005910273 -0.00095472694 -0.0075776544 0.0031494847
0.005701804 0.0016534085 0.0067765657 0.0041582724 0.00065583386 0.0021205235 0.005357941 0.0072542387
0.0055978787 0.004735858 -0.0053222934 0.004079212 -0.0035183674 -0.003821437 0.0020561384 0.004672569
0.004683063 -0.005873589 0.0032442415 0.006137689 0.0057242694 -0.0034857772 -0.001071073 0.002784433
0.005662078 0.0035040127 -0.0043438887 0.0035087797 0.0090150805 0.008468338 -0.0018002532 0.0010684486

network_body._body_endoder.seq_layers.2.weight f4 [128, 128]
00000000: 5fdc 09bc 6a93 c0bd 0b37 a93c f9e3 2abc
00000010: c513 973d d715 febc 53f3 953b 0282 47bc
00000020: bdcd a1bc 0cd7 91bd 6db4 963d f0ec f6bc
00000030: a552 a63d a43c d03c 1518 213c d28a 173e
00000040: 209d 2ebc c98c b53d 9450 1fbd 1469 08bd
00000050: ad14 39bd ca28 a0bd 82ed 2fbe 10ae 213e
00000060: cf17 173e f351 09bd f669 efbd a015 443b
00000070: 9389 88bd ca5b eb3d 9cf7 3f3d 3a6f 523d
00000080: 614f 2ebd 24a9 403d db38 7ebd c65c 12bd
00000090: 0f6b 3e3e 2afe 4b3d df98 34bd aa62 b83a
000000a0: 4662 9f3c 4cf0 b7bd 312e 913d 99db 1e3d
000000b0: 48fe 143d 8c19 923d 0f40 0dbc eb40 1dbe
000000c0: aeee 6fbe e8bd 4dbe 0ee4 7a3d e127 9dbc
000000d0: 710a d93d 18c2 f7bc 1ced 3a3d 02ad d4bd
000000e0: 90b7 ccbb d043 893c 50a0 27bd 45a6 9ebb
000000f0: c3fc f13b 1e4a aebc 7b66 4fbe ac4f e5bd
00000100: a805 c4bd e329 f4bc bf38 843c 3a5b e3bc
00000110: a592 d23d 15b4 103d 550c c0bc c41d cbbb
00000120: 63ad 713e 694d 5c3e 3049 40bd e448 5c3d
00000130: b78b 2f3e 6aff 0c3d 80c6 3a3d 27d4 f2bd
00000140: 4bbb ed3a a5f2 f73d 78c2 24be 2beb 6e3d
00000150: 70f8 383c d186 8d3d 7e3a 5abd 7a73 18bd
00000160: 0b49 fc3c f561 debc 2fd0 b13b 6f82 9c3b
00000170: 96ab 1a3e 8fe0 533d 27cc 193e fa6a 31bd
00000180: f129 38bd e420 593d 4fef a93b 90b8 0a3e
00000190: 3452 b13d f892 123d cec2 ad3c c8df 6abd
000001a0: a0d4 16bc d5bb 0bbd 7cf0 263e 0bca ecbd
000001b0: b5ec a03d c481 0f3d 7acb c1bd ec36 cdbd
000001c0: 5148 903d aebd bebd 7729 91be 64a7 e5bc
000001d0: 37c0 233e d0b4 ba3c dc99 bb3d 37b7 1bbd
000001e0: 43b4 dabb b944 63bd a805 e6bc 1b4a d1bd
000001f0: 4ec6 28be df92 3c3e 15f3 1bbe 5c16 c13d
00000200: 4430 473d ecd6 1ebb 1f39 e7bd 4de8 473c
00000210: b527 e1bd 431f d93d 429b 833d 72e1 a93d
00000220: c993 10bd d62b 87bd 502c 27bd 4c98 e1bb
00000230: 2233 4e3e c838 0bbe 7bce 2f3e b1be 71bd
00000240: 4702 e3bd 3372 e03c ae90 9f3d cc80 133d
00000250: fa7b 3fbd 4ef6 a23d 57a1 2abe 410e 9c3b
00000260: 391b ffbc ec09 3dbe 5212 babd 475b 793d
00000270: 5ffc 0bbe 2497 98bd d0cc 9dbd 400b 933c
00000280: ea39 203d d808 b93d 4fe1 893d 7e82 413d
00000290: ad6d 78be 0942 51bd b8b9 293e a5d3 9d3c
000002a0: 01f1 ebbc b99c 743d 3fb4 943d 7139 8a3e
000002b0: c742 47bd c6a8 31bd 2ad7 aebd 6931 963d
000002c0: 2e42 82bd a6b6 a2bd 7429 b3bd b513 133e
000002d0: ce32 0b3d 381f 4b3d e2a0 793c 07c7 df3d
000002e0: 4978 c03d eedd 763d f16b b33d 2a02 a33d
000002f0: 1308 253d b14c d13b 4d2b 40bd f823 bf3d
00000300: 2681 02be 9cd7 4d3d ca06 74bd 9bdc 63bd
00000310: ebeb a2bd f1e8 513d c54e cbbd b6b1 853d
00000320: 1a13 9d3d acb6 ad3d 8706 d13c ed1b 00be
00000330: 710f a6bd ed71 4bbe f519 f33d fb0c 6d3d
00000340: b20d b83c 4830 bf3d 68e3 f6bd 09c1 823d
00000350: a507 40bc e3f2 d93d 05ce b03a 9598 3abd
00000360: d804 84bd f193 78bd 5d3e 623c 2223 563c
00000370: 9820 7a3d bef9 0c3c f0f9 e7bd acb8 b13d
00000380: 3176 9d3d 6373 b8bd 4cfa 2bbd 76f7 9a3c
00000390: b065 b03d 87e0 083d 226e 30bc 0f80 0d3e
000003a0: 0165 d6bd 2d50 71bd 3196 1f3c c87e 033d
000003b0: 28fa dabd 9efb 33be 8cfd a1bb 0772 ba3c
000003c0: 1023 323d 07d3 d3bd fd58 10be 54b6 723e
000003d0: b22c 5b3d ab9a 753d 574a 06be 3359 b7bd
000003e0: 2237 963c 5610 cebc c883 253e 2774 0fbc
000003f0: d062 bb3c 606c 593d 2ce2 9dbc ba6e 6ebe
-0.008414357 -0.09403117 0.02065613 -0.0104303295 0.073768176 -0.031016273 0.0045761256 -0.012176992
-0.019751424 -0.07121095 0.07358632 -0.030142277 0.08121232 0.02541954 0.009832402 0.1479905
-0.010657579 0.08864743 -0.038895205 -0.033303335 -0.045185734 -0.0782028 -0.17180446 0.15789056
0.14755176 -0.03352542 -0.11690132 0.0029920116 -0.06666865 0.11492117 0.046866998 0.051375605
-0.04255617 0.047036305 -0.06206594 -0.035733007 0.18595527 0.049802937 -0.0440911 0.001406749
0.01945604 -0.0898138 0.070888884 0.038783643 0.036375314 0.07133779 -0.00862123 -0.15356795
-0.23430893 -0.20091975 0.061252646 -0.019184055 0.10597695 -0.030243918 0.04563628 -0.10384561
-0.0062474683 0.016755968 -0.04092437 -0.004841598 0.007384868 -0.021275576 -0.20253937 -0.11196837
-0.09571391 -0.02980513 0.01614034 -0.027753461 0.102818765 0.03532799 -0.02344338 -0.0061986167
0.23601298 0.21513905 -0.046944797 0.05378045 0.1714314 0.03442327 0.04559946 -0.11856871
0.0018137483 0.12106828 -0.16089809 0.058329742 0.011289701 0.0691048 -0.05327844 -0.037219502
0.030796548 -0.027146319 0.0054264287 0.004776291 0.15104517 0.051727828 0.15019284 -0.04331491
-0.044961873 0.053009883 0.0051859985 0.13546968 0.08658257 0.03578469 0.021211054 -0.05734232
-0.009205967 -0.034114677 0.16302675 -0.11561974 0.07857648 0.035035864 -0.09462638 -0.10020241
0.07045043 -0.09313522 -0.28351948 -0.02803392 0.15991293 0.022791296 0.09160206 -0.038016524
-0.006674321 -0.05548546 -0.028078869 -0.102192126 -0.16481897 0.18415402 -0.15229447 0.09428093
0.048630014 -0.002423699 -0.11290192 0.012201381 -0.10993902 0.10601666 0.064260975 0.082949534
-0.03529719 -0.06600158 -0.040813744 -0.0068846103 0.20136693 -0.13595879 0.1716861 -0.059019748
-0.11084419 0.027398204 0.07791267 0.036011502 -0.046749093 0.07957135 -0.16663109 0.0047624414
-0.03114091 -0.18460816 -0.090855256 0.060878064 -0.1367049 -0.07450703 -0.077050805 0.0179497
0.03911773 0.0903489 0.06732427 0.047243588 -0.24260588 -0.051088367 0.16574752 0.019265959
-0.028801443 0.059719775 0.07260942 0.2699695 -0.04864767 -0.043373846 -0.08537133 0.07333643
-0.06360279 -0.07944994 -0.08748141 0.14362986 0.033983998 0.04959032 0.015236111 0.10926633
0.093979426 0.060270242 0.087608226 0.07959397 0.040290903 0.006387316 -0.046916295 0.09333032
-0.12744579 0.05025445 -0.059576787 -0.055630308 -0.07955154 0.05124754 -0.099271335 0.06528036
0.07669659 0.084821075 0.025515808 -0.12510653 -0.08108414 -0.19867678 0.11870185 0.057873707
0.022467468 0.09335381 -0.12055093 0.06384475 -0.011720573 0.1064203 0.0013489133 -0.04555567
-0.06446236 -0.060687963 0.013808814 0.0130699 0.06106624 0.008604465 -0.11326969 0.086778015
0.07688559 -0.09006383 -0.04198675 0.018916827 0.08613145 0.03341725 -0.010768445 0.13818382
-0.10468484 -0.058914352 0.009740398 0.03210333 -0.10692245 -0.17576453 -0.004943555 0.02275945
0.04349047 -0.10342985 -0.14096446 0.23702365 0.05350942 0.059961956 -0.13114296 -0.0895256
0.018336836 -0.025154274 0.16163552 -0.00875572 0.022874266 0.05308187 -0.019272886 -0.23284426

network_body._body_endoder.seq_layers.2.bias f4 [128]
00000000: 5f95 2dbb 77d2 c73b 775c 293b 8a9d ea3b
00000010: e825 8dbb 0930 81bb 9327 82ba 470e 3cbb
00000020: 8eb2 86bb 9c14 9ebb 5a56 b7b8 19c6 ac3b
00000030: 665f b4bb 7b42 923b cdb3 74bb 0c90 d6bb
00000040: 5404 5bba b8a9 e139 320a 993a 05e6 9cbb
00000050: d2c9 3f3b 2940 15bb 838a 1c3b 0d80 d73b
00000060: a3c2 e4bb 745b a73b 0294 b33b a3ae b4bb
00000070: 3e52 5e3a 34d9 eaba 7da4 a6bb 6146 3a3b
00000080: 0506 c6ba 3131 933b c135 9a3b 6aed 81bb
00000090: 95ba 8bba e2aa b8bb 34ae a53a 02be 40bb
000000a0: f34b 6a3b dfeb bd3b 1fcb 523b aa02 cc3b
000000b0: 1f58 c6bb 255e b9bb 8e62 94bb d95c 83bb
000000c0: 19d3 7bbb 5557 b13b 4b96 aebb 1bcf 0e3b
000000d0: 7a6a e53b ae7e a3bb f7a6 d0bb 4e5e 39bb
000000e0: 8700 adb9 292e aabb 2979 9b3b a1e1 68b9
000000f0: 6bf4 4c3b 024d 39b9 23a7 bfbb 6fef c2bb
00000100: e07d 713b 40da 773b 4a00 913b a2ab 5dbb
00000110: ee70 203b 0e73 de3b 6d13 aebb c909 f63a
00000120: f6b1 7bbb 2d8c c5bb 73dd 9a3a 49e2 953b
00000130: 0e72 bd3b ed6c ae3b b8f8 7ebb 71bc a2bb
00000140: 2ea7 8eba 01d5 84bb 9e58 acbb 2e18 aa3b
00000150: 679c bbba 4035 51bb 5da6 ccbb f6f3 3abb
00000160: 46cc c43b e0e0 973b 4d49 adbb 4292 0f3b
00000170: fc0b 573b 6106 de3b 476e e1bb ad7e 5d3b
00000180: 97f2 c1bb 99e7 b4bb 0809 46bb 8b49 bbbb
00000190: 8d5c c73b c3cc 8e3b 1035 053b e2d2 e4b9
000001a0: e27f 98bb 52b5 8e3b cc0c 9ebb d22c f23a
000001b0: aa92 0fbb 4bec 963b fae2 cf3b 5f22 a23b
000001c0: 4b28 80ba d298 8f3b 0d4f 85bb 0624 03bb
000001d0: 5e2c b63b bb92 be3b 9948 b13b 9bf0 a03b
000001e0: a3e8 caba 397c c6bb 49fb 3bbb b843 b93b
000001f0: e10a 88bb 895d ad3b aa7d 6939 64bf ba3b
-0.0026486737 0.0060980874 0.0025842467 0.0071598934 -0.0043074973 -0.003942494 -0.0009930007 -0.0028695033
-0.004110641 -0.004824234 -8.742204e-05 0.0052726385 -0.0055045364 0.0044634915 -0.0037338615 -0.0065479334
-0.0008354832 0.00043041795 0.0011676012 -0.0047881627 0.0029264581 -0.0022773838 0.002388627 0.006576544
-0.0069812103 0.0051073376 0.0054802904 -0.0055139824 0.0008480883 -0.0017917515 -0.0050855265 0.0028423297
-0.0015107995 0.004491948 0.004706115 -0.0039650695 -0.0010660464 -0.005635605 0.0012640418 -0.0029410128
0.0035750836 0.0057959403 0.0032164527 0.0062259035 -0.0060529853 -0.005656975 -0.00452835 -0.004008871
-0.0038425385 0.005412022 -0.005327975 0.0021790925 0.0070012184 -0.0049894666 -0.00636756 -0.002828497
-0.00032997524 -0.005193491 0.004744668 -0.00022209297 0.0031273614 -0.00017671662 -0.0058487817 -0.005948953
0.003684871 0.0037819296 0.0044250833 -0.0033824225 0.0024481374 0.006788618 -0.0053123743 0.0018771227
-0.0038405634 -0.006028673 0.0011815265 0.0045740944 0.0057814186 0.0053230436 -0.0038905572 -0.0049663116
-0.0010883564 -0.0040537124 -0.0052595874 0.0051908707 -0.0014313579 -0.0031922609 -0.006245418 -0.002852676
0.0060057966 0.0046349615 -0.005288279 0.0021907245 0.003281354 0.006775663 -0.006879601 0.0033797428
-0.0059188115 -0.0055207727 -0.0030217785 -0.005715554 0.006084031 0.0043579056 0.0020325817 -0.0004364467
-0.0046539167 0.004355111 -0.004823303 0.0018476492 -0.0021907487 0.004605805 0.0063441964 0.004947945
-0.0009777633 0.0043822313 -0.0040682615 -0.0020010485 0.005559488 0.0058158315 0.0054102656 0.004911495
-0.0015480708 -0.006057289 -0.0028683713 0.0056538247 -0.0041516875 0.0052906913 0.00022267425 0.005699085

action_model._continuous_distribution.log_sigma f4 [1, 2]
00000000: f910 84bc 0993 0a3c
-0.016121374 0.0084579075

action_model._continuous_distribution.mu.weight f4 [2, 128]
00000000: ff7c 4cbb 2c1e 0e3d a943 b73b 4097 bc3c
00000010: 8ed3 b5bc 7be8 89b9 c647 753b 2072 17bd
00000020: 2957 d5bb dd65 87bc ff07 36bc c7a8 403d
00000030: 4c3f dfbc ebd1 003d b863 9cbc 4635 02bd
00000040: 9e68 2aba 824d 163c 2ec9 db39 4925 62bc
00000050: bd41 af3c 4e1f 4bbb 6e84 923c 331c 3a3d
00000060: aa9b bbbb 11fe c63c 5f5e eb3c 19cf acbc
00000070: 3ec4 b4bb 6210 4639 3475 6dbd 06bb b439
00000080: 0631 b53b d29d 063c 825f cd3c 116c ccbc
00000090: b417 1e3b aff1 2fbc 0b3a 9e3c ab4f a9bc
000000a0: 1389 b53c c668 963c a0eb 6e3c c8d1 813a
000000b0: 6d7e d0bc 5304 cdbc 836b d6bb e403 c3bc
000000c0: 9449 09bd 6e36 c43c f52b 1abd ce1d 913c
000000d0: 4593 413c d894 05bc fd79 61bc 6f50 75bc
000000e0: 4550 003c 746c 19bc 44ca af3c b849 15bc
000000f0: 07d5 ec3c a350 3d3c b2ff 0cbd 1cac d2bc
00000100: 6c1e cdbb 4f3a b63c 1059 833b e46e 8f3a
00000110: 4ade c63b 942c e43c 5fe0 2bbc 22f5 4abb
00000120: 752c c6bc 80a8 e9bb 76e4 8ebc 1e4e 0bba
00000130: ef6d e73b 6d14 9c3c d41a 9cbc ccff cabc
00000140: ed30 25bd b80f 9fbb de11 6abb e35e 823c
00000150: d0c3 11bc 53fc 78bc 7808 38bd 3437 14bb
00000160: 23e7 823c 31fc b33b 3482 72bc 7427 ae39
00000170: 72ff 663c 7a46 223d ca52 26bc 600d 7f3c
00000180: da3f bcbc d281 58bc 6f55 d63b 78cf e6bc
00000190: 3007 fb3c d204 f13c 34f3 c03c fce0 043b
000001a0: 1621 b5bc e3ee 733c 5d6f f5bb c30f 51bc
000001b0: 5637 69bc 9d0c 503c 8110 c93c 37e0 433c
000001c0: a409 a13b 9054 c43c 4f13 253b e876 3ebb
000001d0: 0d21 4c3c 9577 1a3c 0c52 343c c080 3d3c
000001e0: f547 afbb 6129 0fbd e58f 3f39 7a7a c63c
000001f0: ba30 1bbc b706 3b3c df5c 6abb 5b81 253d
00000200: 7992 033c bbfc 91bb 69e7 75bc 9499 a0bb
00000210: f077 39bb 5817 233c eab3 da3b 58ca d9bc
00000220: 76e6 103d 7f7e 86bb 6545 c9bc 4777 1abd
00000230: 199e 323c b150 7d3c a9ea d0bb f617 9f3c
00000240: 8d96 933c 1008 333c 0a45 59bc f055 a03c
00000250: f968 803c ffa8 bc3b 3a76 603c 9029 03bc
00000260: 50ae 043b 1f6e 463c 5e09 05bd da98 493c
00000270: c7ed dfbc c258 a6ba d76f ec3b 1440 80bc
00000280: b837 0e3d e096 f0bc 98a0 013c 562b 103d
00000290: 7178 33ba a215 093a 5e52 873c dbe4 30bc
000002a0: f102 323c 7157 c4ba 86a8 0e3c a80c b63a
000002b0: e63e c53b 1d27 c03b cebe de3b 367f 67bc
000002c0: 9256 043d 5abf 183a 56fb 343d c0bf 6f3c
000002d0: d586 e939 a5ac 453c e9a7 353a fc0e d33c
000002e0: 2a42 e03c fc61 a43c 5bc3 893c d087 d2bc
000002f0: 0336 e13c ed7e 5e3c 9108 683c 1f87 753b
00000300: 901a d7bc 47ba 323c d0d0 6cbc e1ef b53c
00000310: b5d3 abbb ee12 77bc 4c5d 593c 7b54 56bc
00000320: a7a7 85bc d29b c23b 1143 25bd 412f 3ebc
00000330: 4047 9ebb c9f4 95bc e032 36bc e8e2 c23c
00000340: 0d98 3abc ccda 933c a3c2 903a 14d6 e8bb
00000350: 8fcf 4fbc 82b9 d1bb 1974 8c3c b7a8 be3c
00000360: 22fa 4fba 0426 debb a2c6 af3c 1c1d c4bc
00000370: b53e 143c 2dfd 3dbc 4e4f 263c 7ff8 963b
00000380: 9835 b93c 1e3a c63c 85fb 5e3c 5382 af39
00000390: f259 e8ba e298 2e3c b575 c43c 2146 5dbb
000003a0: add5 c73c 77ec 94bc 82eb 2f3c c4a9 95bc
000003b0: 20ad 60bc 7d51 3c3b 8fb8 a9bb 1d11 23bc
000003c0: 8274 253c 83f9 3d3c 6324 5eba 5d4f 4b3c
000003d0: d8cd 39bc d42a 77bb b92a 67bc c55f 3cbc
000003e0: 19cd 0e3d bf6d c73b 2331 c43c 44b6 88bc
000003f0: 3315 2c3c c4f9 dcbc d45c 82bc 5fb6 07bd
-0.0031202433 0.034696743 0.0055927825 0.02302134 -0.022195604 -0.00026303888 0.0037426814 -0.036974072
-0.0065106344 -0.016528064 -0.011110305 0.04703596 -0.027251862 0.031450193 -0.019090518 -0.031789087
-0.00065005745 0.009173753 0.00041920826 -0.013802835 0.021393651 -0.0030994 0.017885413 0.04543705
-0.0057253437 0.02429107 0.028731523 -0.021094846 -0.005516558 0.00018888855 -0.0579731 0.0003447162
0.0055295257 0.008216338 0.025069956 -0.024953874 0.0024123015 -0.010738774 0.019314786 -0.020667871
0.022160089 0.018360507 0.014582545 0.0009904439 -0.02545091 -0.025026476 -0.006543578 -0.023805566
-0.033517435 0.023951735 -0.037639577 0.017714407 0.011814897 -0.008153163 -0.013761994 -0.01497279
0.007831638 -0.009364236 0.021458752 -0.009111814 0.028910173 0.01155487 -0.034423538 -0.025716834
-0.00625973 0.0222446 0.00400842 0.0010943082 0.0060689794 0.027853288 -0.010490506 -0.0030968864
-0.02419112 -0.0071306825 -0.017442923 -0.00053140696 0.0070626657 0.019052709 -0.019055761 -0.024780177
-0.040329862 -0.0048541687 -0.0035716216 0.015914386 -0.008896783 -0.0151968775 -0.04492995 -0.0022615911
0.015979355 0.00549271 -0.014801551 0.0003321726 0.014098989 0.039617993 -0.010151574 0.015567154
-0.022979666 -0.013214545 0.006540946 -0.0281751 0.030643076 0.029421244 0.023553468 0.0020275703
-0.022110503 0.014888498 -0.007490082 -0.012760106 -0.0142343845 0.01269832 0.024544002 0.011955312
0.0049144793 0.023966104 0.002518851 -0.0029062573 0.012459052 0.009427925 0.01100589 0.011566341
-0.005349154 -0.03495157 0.00018268784 0.024228323 -0.009472067 0.011415175 -0.0035760922 0.040406566
0.008030527 -0.0044551766 -0.015008786 -0.0049011204 -0.0028300248 0.009954296 0.0066742795 -0.026585743
0.035376035 -0.004104435 -0.024569223 -0.037711408 0.010901951 0.015461133 -0.00637563 0.019420605
0.018016124 0.010927215 -0.013261089 0.019572228 0.015675055 0.0057574506 0.013700062 -0.008005515
0.00202455 0.012111216 -0.032479636 0.012304509 -0.02733506 -0.0012691247 0.007215481 -0.015655555
0.034721106 -0.029368818 0.007911824 0.03519758 -0.0006846255 0.0005229359 0.016518768 -0.010796751
0.010864959 -0.0014979673 0.008707171 0.001388927 0.006019461 0.0058640377 0.006797648 -0.014129451
0.032309122 0.00058268534 0.044185005 0.014633119 0.0004454168 0.012065087 0.00069296226 0.025763981
0.0273753 0.020066254 0.016816786 -0.025699526 0.027491575 0.013580066 0.014162199 0.0037464572
-0.026257783 0.01090867 -0.014454082 0.02220911 -0.0052437433 -0.015080197 0.013266873 -0.013081665
-0.016315294 0.0059389854 -0.040347163 -0.011607946 -0.004830271 -0.0183052 -0.011120528 0.023789838
-0.011388791 0.018048666 0.0011044334 -0.007105598 -0.012683763 -0.006400288 0.017145203 0.023273809
-0.0007933696 -0.006779434 0.02145702 -0.023939662 0.009048154 -0.011596006 0.010150744 0.0046072598
0.022608563 0.024197634 0.013609772 0.000334757 -0.0017727001 0.010656567 0.023981908 -0.0033763724
0.02439388 -0.018179161 0.010737302 -0.018269427 -0.013713151 0.0028735094 -0.005179472 -0.009952811
0.010098578 0.011595133 -0.000847405 0.012409058 -0.011340581 -0.0037714737 -0.014109307 -0.011497443
0.034863565 0.006086081 0.023949211 -0.016688474 0.010503101 -0.026974566 -0.015913405 -0.033132907

action_model._continuous_distribution.mu.bias f4 [2]
00000000: c947 c43b 2466 1cbb
0.005990003 -0.0023864591

action_model._discrete_distribution.branches.0.weight f4 [1, 128]
00000000: 9df8 e83a d065 5d3b 5304 a03c f0c9 51bb
00000010: eb47 07ba 5b1d 0b3b 3784 dbbb aa72 f9bb
00000020: 0554 9c3b 6bf6 713c 631b ec3a 680a 923b
00000030: 0527 69bc f161 04bb 1f32 a2bb 8027 4d3c
00000040: 80f2 b03c 630d 0cba c7ef 9cbb 09b0 20bc
00000050: c30e 96bb 3838 abbb 2ba8 693b f203 5d3b
00000060: 9306 debb 20bf 5f3b 9445 c6bb ad0d dabb
00000070: 697e 44bc 3135 b13a 101a a33a 58d7 0e3a
00000080: de05 24bb 0a94 fb3b b52d 4d3c ef9b e93b
00000090: f03e 863c d7ba 03bc 2219 fe3a c79e 123b
000000a0: bc5e a53b 0d90 c4bc b732 e43b 244c 20bc
000000b0: 60ea 65bb 7ee1 c4ba 9b37 ae3b b89f 70bc
000000c0: 460e 9c37 bacb ffbb 0b9c c4bc a3e6 0e3c
000000d0: 568d 423a 59f9 a739 c785 45bb a0d0 c8bb
000000e0: 587d 483a c73d f5bb e73e 263c 7d6e 223b
000000f0: e3e8 15bc b042 26bb abfe aabc 9988 443c
00000100: 9039 e03a c740 6a3a 2fdc 5f3c de22 9abb
00000110: 73dd 083b 1868 32b9 e3b4 023b af1f f93b
00000120: f5ca 843a e814 fe3b e6c9 9fbc 979c 1dba
00000130: ec10 913a f427 c23b 0054 8b3c f4c9 c43b
00000140: 5323 86b7 fa0f 6bbc af0f 7fbc 63c3 a7bb
00000150: 831d b93b 82f3 fa3b 0765 beba 0d12 89bc
00000160: f8f1 12b9 0bf5 f4ba bbb2 423c 2108 b2ba
00000170: a1fc 173c 18d0 af3a 9145 ba3a 145e a93c
00000180: 7c58 21bb 87ba 9fbc 8b8b a2ba 6ca0 b3bb
00000190: 8075 513c e345 913c 3bb0 fa3b bdab f7bb
000001a0: 33b2 8c3c 372f a03a a70b 49bc 83fb debb
000001b0: 6573 64bb 5b5a 3dbc 29c6 93bb f591 78bb
000001c0: 0b80 71bc ea32 15bb 2030 eabb 4db7 0b39
000001d0: ca2a aa3a 57ad 003b 1d3e f23a fc38 43bb
000001e0: ee6c 9abc 06ef 113c e395 06ba db96 6d3c
000001f0: c797 2c3c f386 a5bb b33f dfb7 f9c6 aebb
0.0017774288 0.0033782609 0.019533312 -0.0032011233 -0.0005160558 0.0021227214 -0.006699111 -0.007612546
0.004770758 0.014768223 0.0018013533 0.004456807 -0.014230494 -0.002019998 -0.0049498226 0.012521625
0.021600008 -0.0005342571 -0.004789326 -0.009807595 -0.0045793965 -0.0052252077 0.0035653214 0.0033724275
-0.006775686 0.003414102 -0.006050775 -0.0066544623 -0.011993029 0.0013519881 0.001244368 0.0005448959
-0.0025027911 0.0076775597 0.012523104 0.0071291844 0.016387433 -0.008040152 0.0019386152 0.002237247
0.0050466936 -0.02399447 0.0069640535 -0.009783778 -0.0035082325 -0.0015020815 0.0053166873 -0.014686517
1.8603296e-05 -0.0078062685 -0.024000188 0.00872198 0.00074215734 0.000320385 -0.0030139552 -0.0061283857
0.0007648072 -0.007484171 0.010146833 0.0024785094 -0.009149763 -0.0025369339 -0.020873388 0.011995458
0.0017106999 0.0008936044 0.013663336 -0.0047038635 0.0020883947 -0.00017014181 0.0019944243 0.007602654
0.0010131287 0.007753957 -0.019505452 -0.00060124084 0.0011067665 0.005925173 0.017007828 0.00600552
-1.5990494e-05 -0.014347071 -0.015567704 -0.0051197275 0.00564927 0.007658423 -0.0014525958 -0.01673224
-0.00014013785 -0.0018688751 0.011883433 -0.0013582745 0.00927654 0.0013413457 0.0014211406 0.020674743
-0.0024619391 -0.019498123 -0.0012401206 -0.0054817703 0.012784362 0.01773352 0.007650403 -0.0075583146
0.017174816 0.0012221102 -0.012270845 -0.006804885 -0.003485882 -0.011557187 -0.0045097065 -0.0037928794
-0.0147400005 -0.0022765943 -0.00714685 0.00013324358 0.0012982723 0.0019634569 0.0018481646 -0.0029788604
-0.01885077 0.008907085 -0.0005134029 0.014501299 0.010534233 -0.0050514876 -2.6613334e-05 -0.005333778

exp_avg f4 [128, 106]
00000000: fd15 9e38 e213 b2b7 0000 0000 c8de e936
00000010: 2fa4 3838 c746 7e38 0000 0000 0000 0000
00000020: f4c6 0535 b725 9835 0000 0000 0e64 4337
00000030: 0000 0000 e084 4f38 28bc 9838 c746 7e38
00000040: 0000 0000 0000 0000 f4c6 0535 4619 5c35
00000050: 0000 0000 2d46 8836 0000 0000 1e55 6f38
00000060: de4d 7638 c746 7e38 0000 0000 0000 0000
00000070: f4c6 0535 a188 4035 0000 0000 1c4c 87b7
00000080: 0000 0000 fa01 a238 bfe6 8d38 c746 7e38
00000090: 0000 0000 0000 0000 f4c6 0535 b928 3335
000000a0: 0000 0000 aaa9 4ab6 0000 0000 4084 8638
000000b0: f803 9338 c746 7e38 0000 0000 0000 0000
000000c0: f4c6 0535 5280 2b35 0000 0000 09db a2b6
000000d0: 0000 0000 a25c 8a38 61ec 8e38 c746 7e38
000000e0: 0000 0000 0000 0000 f4c6 0535 cabf 2635
000000f0: 0000 0000 e19d 96b7 0000 0000 69d6 a538
00000100: 2142 a338 c746 7e38 0000 0000 0000 0000
00000110: f4c6 0535 07b7 2335 0000 0000 d0f4 3536
00000120: 21de 19b7 10bb 8d38 d1be 8138 c746 7e38
00000130: 0000 0000 0000 0000 f4c6 0535 20d3 2135
00000140: 0000 0000 b8ed 8537 0a67 3d38 0000 0000
00000150: b9bc d737 c746 7e38 0000 0000 0000 0000
00000160: f4c6 0535 d8c8 2035 0000 0000 1241 a237
00000170: 5c3d 2f38 0000 0000 8cd5 d237 c746 7e38
00000180: 0000 0000 0000 0000 f4c6 0535 b673 2035
00000190: 0000 0000 f236 5b37 2890 4938 0000 0000
000001a0: ed71 dc37 0000 0000 11c4 96b7 b350 8b36
000001b0: 0000 0000 5825 b8b5 50a6 32b7 3b5b 77b7
000001c0: 0000 0000 0000 0000 6027 f1b4 b88a 4bb5
000001d0: 0000 0000 ab17 6ab6 0000 0000 8a5e 44b7
000001e0: f443 95b7 3b5b 77b7 0000 0000 0000 0000
000001f0: 6027 f1b4 9593 22b5 0000 0000 94c0 fc34
00000200: 0000 0000 3d65 83b7 bb75 77b7 3b5b 77b7
00000210: 0000 0000 0000 0000 6027 f1b4 2c2a 15b5
00000220: 0000 0000 07fb b736 0000 0000 fe70 adb7
00000230: 770c 94b7 3b5b 77b7 0000 0000 0000 0000
00000240: 6027 f1b4 4aa8 0eb5 0000 0000 40fe 5d33
00000250: 0000 0000 72c2 7fb7 54e0 8db7 3b5b 77b7
00000260: 0000 0000 0000 0000 6027 f1b4 6eee 0ab5
00000270: 0000 0000 3683 8135 0000 0000 6e8a 87b7
00000280: c53b 8bb7 3b5b 77b7 0000 0000 0000 0000
00000290: 6027 f1b4 8b9e 08b5 0000 0000 8602 8e36
000002a0: 0000 0000 dbf2 a2b7 5a8a a1b7 3b5b 77b7
000002b0: 0000 0000 0000 0000 6027 f1b4 a424 07b5
000002c0: 0000 0000 e6fc 6cb5 71a1 2736 82fe 8cb7
000002d0: 4815 7fb7 3b5b 77b7 0000 0000 0000 0000
000002e0: 6027 f1b4 3139 06b5 0000 0000 ff44 9db6
000002f0: f441 30b7 0000 0000 8a0a ccb6 3b5b 77b7
00000300: 0000 0000 0000 0000 6027 f1b4 9fb7 05b5
00000310: 0000 0000 ce67 c6b6 90b0 1bb7 0000 0000
00000320: b013 c5b6 3b5b 77b7 0000 0000 0000 0000
00000330: 6027 f1b4 368e 05b5 0000 0000 c88c a5b6
00000340: 101e 2cb7 0000 0000 18bd cab6 0000 0000
00000350: ce94 1337 5b6b a936 0000 0000 b8a5 efb6
00000360: 66cd 75b6 31bf e836 0000 0000 0000 0000
00000370: 70fe 79b4 fede 75b5 0000 0000 9e78 cc36
00000380: 0000 0000 bab4 2335 0b5b 6cb5 31bf e836
00000390: 0000 0000 0000 0000 70fe 79b4 e453 1bb5
000003a0: 0000 0000 bec1 0437 0000 0000 0851 a2b5
000003b0: 1a1f 5b36 31bf e836 0000 0000 0000 0000
000003c0: 70fe 79b4 735e fbb4 0000 0000 9c44 a837
000003d0: 0000 0000 9a11 60b7 9192 cab6 31bf e836
000003e0: 0000 0000 0000 0000 70fe 79b4 789a deb4
000003f0: 0000 0000 b19f 9936 0000 0000 1b9f 0e36
7.538123e-05 -2.1228512e-05 0.0 6.9698763e-06 4.4021926e-05 6.0624236e-05 0.0 0.0
4.9835876e-07 1.1335859e-06 0.0 1.16462015e-05 0.0 4.9476395e-05 7.282972e-05 6.0624236e-05
0.0 0.0 4.9835876e-07 8.1993164e-07 0.0 4.0612854e-06 0.0 5.7061312e-05
5.872349e-05 6.0624236e-05 0.0 0.0 4.9835876e-07 7.1724395e-07 0.0 -1.6128695e-05
0.0 7.72513e-05 6.766384e-05 6.0624236e-05 0.0 0.0 4.9835876e-07 6.6741956e-07
0.0 -3.0199103e-06 0.0 6.4142514e-05 7.0102455e-05 6.0624236e-05 0.0 0.0
4.9835876e-07 6.3889195e-07 0.0 -4.8534753e-06 0.0 6.597607e-05 6.815117e-05 6.0624236e-05
0.0 0.0 4.9835876e-07 6.211891e-07 0.0 -1.7954912e-05 0.0 7.90775e-05
7.784763e-05 6.0624236e-05 0.0 0.0 4.9835876e-07 6.098857e-07 0.0 2.7113601e-06
-9.171229e-06 6.758247e-05 6.186742e-05 6.0624236e-05 0.0 0.0 4.9835876e-07 6.02844e-07
0.0 1.5965532e-05 4.5157074e-05 0.0 2.5717878e-05 6.0624236e-05 0.0 0.0
4.9835876e-07 5.989691e-07 0.0 1.9342206e-05 4.1780397e-05 0.0 2.5133391e-05 6.0624236e-05
0.0 0.0 4.9835876e-07 5.9773026e-07 0.0 1.306621e-05 4.805639e-05 0.0
2.6279095e-05 0.0 -1.7972694e-05 4.1519174e-06 0.0 -1.3719937e-06 -1.0648349e-05 -1.47435885e-05
0.0 0.0 -4.4918397e-07 -7.5825255e-07 0.0 -3.4882494e-06 0.0 -1.1704522e-05
-1.7793827e-05 -1.47435885e-05 0.0 0.0 -4.4918397e-07 -6.0564463e-07 0.0 4.7078777e-07
0.0 -1.566356e-05 -1.47497585e-05 -1.47435885e-05 0.0 0.0 -4.4918397e-07 -5.5568194e-07
0.0 5.4830484e-06 0.0 -2.0675823e-05 -1.764878e-05 -1.47435885e-05 0.0 0.0
-4.4918397e-07 -5.3144015e-07 0.0 5.168681e-08 0.0 -1.5244457e-05 -1.691297e-05 -1.47435885e-05
0.0 0.0 -4.4918397e-07 -5.1755967e-07 0.0 9.649436e-07 0.0 -1.6157715e-05
-1.6597924e-05 -1.47435885e-05 0.0 0.0 -4.4918397e-07 -5.089466e-07 0.0 4.2322235e-06
0.0 -1.9424993e-05 -1.925712e-05 -1.47435885e-05 0.0 0.0 -4.4918397e-07 -5.034474e-07
0.0 -8.8284867e-07 2.497891e-06 -1.6807815e-05 -1.5204139e-05 -1.47435885e-05 0.0 0.0
-4.4918397e-07 -5.0002114e-07 0.0 -4.686997e-06 -1.0505773e-05 0.0 -6.0809007e-06 -1.47435885e-05
0.0 0.0 -4.4918397e-07 -4.9813565e-07 0.0 -5.9129443e-06 -9.279829e-06 0.0
-5.8733494e-06 -1.47435885e-05 0.0 0.0 -4.4918397e-07 -4.9753305e-07 0.0 -4.9337723e-06
-1.0258998e-05 0.0 -6.0420825e-06 0.0 8.796529e-06 5.0490903e-06 0.0 -7.1420473e-06
-3.6627403e-06 6.9363964e-06 0.0 0.0 -2.3282496e-07 -9.159411e-07 0.0 6.0937155e-06
0.0 6.0985224e-07 -8.8049336e-07 6.9363964e-06 0.0 0.0 -2.3282496e-07 -5.7864077e-07
0.0 7.912922e-06 0.0 -1.2093524e-06 3.2651647e-06 6.9363964e-06 0.0 0.0
-2.3282496e-07 -4.6821114e-07 0.0 2.005911e-05 0.0 -1.3355539e-05 -6.0371317e-06 6.9363964e-06
0.0 0.0 -2.3282496e-07 -4.1463113e-07 0.0 4.578346e-06 0.0 2.125226e-06

exp_avg_sq f4 [128, 106]
00000000: 6139 5630 8df5 232f 0000 0000 53e8 0931
00000010: e96e 1d31 8e8f 4831 0000 0000 0000 0000
00000020: 72c9 1a2b de53 f72c 0000 0000 bb20 3c30
00000030: 0000 0000 f310 0831 115d 2f31 8e8f 4831
00000040: 0000 0000 0000 0000 72c9 1a2b fac1 122c
00000050: 0000 0000 f798 4e30 0000 0000 871b 0f31
00000060: 6de9 2931 8e8f 4831 0000 0000 0000 0000
00000070: 72c9 1a2b 9ac9 a92b 0000 0000 399c 4730
00000080: 0000 0000 57d8 2731 c485 2e31 8e8f 4831
00000090: 0000 0000 0000 0000 72c9 1a2b 9e40 802b
000000a0: 0000 0000 dbff d42f 0000 0000 aae4 3731
000000b0: 8bf1 3631 8e8f 4831 0000 0000 0000 0000
000000c0: 72c9 1a2b 7ad2 5b2b 0000 0000 d8e9 b92f
000000d0: 0000 0000 2b62 2731 9f80 2b31 8e8f 4831
000000e0: 0000 0000 0000 0000 72c9 1a2b 3a0b 492b
000000f0: 0000 0000 1c42 632f 0000 0000 a667 3131
00000100: c045 3431 8e8f 4831 0000 0000 0000 0000
00000110: 72c9 1a2b 84a6 3e2b 0000 0000 e17f 4c2f
00000120: 07b4 362f a815 2f31 36d6 3631 8e8f 4831
00000130: 0000 0000 0000 0000 72c9 1a2b d1cd 382b
00000140: 0000 0000 18b4 772f 168d 3c31 0000 0000
00000150: 7559 3b30 8e8f 4831 0000 0000 0000 0000
00000160: 72c9 1a2b e6ca 352b 0000 0000 fc4d 702f
00000170: 1966 3c31 0000 0000 f19c 2c30 8e8f 4831
00000180: 0000 0000 0000 0000 72c9 1a2b 63dc 342b
00000190: 0000 0000 d898 972f 814d 3331 0000 0000
000001a0: 86f4 2530 0000 0000 d212 8c2e 502d 612d
000001b0: 0000 0000 1460 892f aad3 982f be9f bb2f
000001c0: 0000 0000 0000 0000 f8ff 3b2a e373 912b
000001d0: 0000 0000 17be b32e 0000 0000 fcba 772f
000001e0: da93 aa2f be9f bb2f 0000 0000 0000 0000
000001f0: f8ff 3b2a 3a88 ca2a 0000 0000 104b 892e
00000200: 0000 0000 f9df 962f 556b ae2f be9f bb2f
00000210: 0000 0000 0000 0000 f8ff 3b2a 8a07 892a
00000220: 0000 0000 14dd 272e 0000 0000 6f0f bb2f
00000230: 4c01 b62f be9f bb2f 0000 0000 0000 0000
00000240: f8ff 3b2a f559 672a 0000 0000 505e 2b2e
00000250: 0000 0000 f358 a42f adc4 a92f be9f bb2f
00000260: 0000 0000 0000 0000 f8ff 3b2a 4f08 552a
00000270: 0000 0000 347d 4a2e 0000 0000 ad97 922f
00000280: a2e4 982f be9f bb2f 0000 0000 0000 0000
00000290: f8ff 3b2a 4ae9 4b2a 0000 0000 2f8b 2f2e
000002a0: 0000 0000 f18b 9b2f d957 9e2f be9f bb2f
000002b0: 0000 0000 0000 0000 f8ff 3b2a cbfc 462a
000002c0: 0000 0000 c9f6 102e 3c79 182e 7f68 892f
000002d0: 72b1 982f be9f bb2f 0000 0000 0000 0000
000002e0: f8ff 3b2a 3946 442a 0000 0000 a7c7 f92d
000002f0: cc89 a42f 0000 0000 b6d6 a62e be9f bb2f
00000300: 0000 0000 0000 0000 f8ff 3b2a b6e5 422a
00000310: 0000 0000 2391 c22d c1dc ab2f 0000 0000
00000320: 3af6 9c2e be9f bb2f 0000 0000 0000 0000
00000330: f8ff 3b2a 7d79 422a 0000 0000 1539 f62d
00000340: 6fea a62f 0000 0000 1de7 972e 0000 0000
00000350: 876d c62e ecc6 8d2d 0000 0000 c788 1c2f
00000360: dc4d 372f ba0e 8f2f 0000 0000 0000 0000
00000370: e7bc b82a c2b0 222b 0000 0000 880e 942e
00000380: 0000 0000 c211 622f 00fa 7d2f ba0e 8f2f
00000390: 0000 0000 0000 0000 e7bc b82a ca4f ca2a
000003a0: 0000 0000 6c6a 6c2e 0000 0000 2dc7 552f
000003b0: 9803 832f ba0e 8f2f 0000 0000 0000 0000
000003c0: e7bc b82a f2bf b82a 0000 0000 f6ba b92e
000003d0: 0000 0000 23a5 5e2f a5b6 6f2f ba0e 8f2f
000003e0: 0000 0000 0000 0000 e7bc b82a d344 b42a
000003f0: 0000 0000 a73a 332e 0000 0000 980b 712f
7.7934287e-10 1.4912001e-10 0.0 2.0068185e-09 2.2909552e-09 2.9185432e-09 0.0 0.0
5.499135e-13 7.0294734e-12 0.0 6.8440514e-10 0.0 1.980024e-09 2.5518754e-09 2.9185432e-09
0.0 0.0 5.499135e-13 2.0855527e-12 0.0 7.515974e-10 0.0 2.0824886e-09
2.4725424e-09 2.9185432e-09 0.0 0.0 5.499135e-13 1.2064128e-12 0.0 7.2617784e-10
0.0 2.4424673e-09 2.539637e-09 2.9185432e-09 0.0 0.0 5.499135e-13 9.112882e-13
0.0 3.8744372e-10 0.0 2.6759985e-09 2.6621787e-09 2.9185432e-09 0.0 0.0
5.499135e-13 7.8096524e-13 0.0 3.381746e-10 0.0 2.43575e-09 2.4956888e-09 2.9185432e-09
0.0 0.0 5.499135e-13 7.1425125e-13 0.0 2.0669016e-10 0.0 2.5815807e-09
2.6233096e-09 2.9185432e-09 0.0 0.0 5.499135e-13 6.7732647e-13 0.0 1.8599124e-10
1.6616762e-10 2.5478162e-09 2.660625e-09 2.9185432e-09 0.0 0.0 5.499135e-13 6.565556e-13
0.0 2.2528501e-10 2.7437799e-09 0.0 6.815733e-10 2.9185432e-09 0.0 0.0
5.499135e-13 6.4585696e-13 0.0 2.1855578e-10 2.7415636e-09 0.0 6.279626e-10 2.9185432e-09
0.0 0.0 5.499135e-13 6.4254694e-13 0.0 2.7575342e-10 2.6091984e-09 0.0
6.037414e-10 0.0 6.369806e-11 1.2799831e-11 0.0 2.4988422e-10 2.7799035e-10 3.4128605e-10
0.0 0.0 1.6697743e-13 1.0335035e-12 0.0 8.173744e-11 0.0 2.253095e-10
3.1027875e-10 3.4128605e-10 0.0 0.0 1.6697743e-13 3.5976934e-13 0.0 6.2433725e-11
0.0 2.7443983e-10 3.172668e-10 3.4128605e-10 0.0 0.0 1.6697743e-13 2.434132e-13
0.0 3.816776e-11 0.0 3.4026068e-10 3.310653e-10 3.4128605e-10 0.0 0.0
1.6697743e-13 2.0548132e-13 0.0 3.8964665e-11 0.0 2.9894628e-10 3.0880667e-10 3.4128605e-10
0.0 0.0 1.6697743e-13 1.8921083e-13 0.0 4.6040685e-11 0.0 2.6665017e-10
2.7811092e-10 3.4128605e-10 0.0 0.0 1.6697743e-13 1.811096e-13 0.0 3.9914013e-11
0.0 2.829377e-10 2.8802452e-10 3.4128605e-10 0.0 0.0 1.6697743e-13 1.7673638e-13
0.0 3.2961e-11 3.4668476e-11 2.4994404e-10 2.7774721e-10 3.4128605e-10 0.0 0.0
1.6697743e-13 1.743266e-13 0.0 2.8396686e-11 2.9929337e-10 0.0 7.5869463e-11 3.4128605e-10
0.0 0.0 1.6697743e-13 1.7310358e-13 0.0 2.21197e-11 3.1261574e-10 0.0
7.137797e-11 3.4128605e-10 0.0 0.0 1.6697743e-13 1.7272811e-13 0.0 2.7992312e-11
3.03618e-10 0.0 6.907739e-11 0.0 9.0234535e-11 1.6118183e-11 0.0 1.423671e-10
1.6671414e-10 2.6022012e-10 0.0 0.0 3.2816043e-13 5.779926e-13 0.0 6.732842e-11
0.0 2.0560889e-10 2.3099034e-10 2.6022012e-10 0.0 0.0 3.2816043e-13 3.5937773e-13
0.0 5.375471e-11 0.0 1.9442999e-10 2.3831315e-10 2.6022012e-10 0.0 0.0
3.2816043e-13 3.2818155e-13 0.0 8.446037e-11 0.0 2.0249451e-10 2.1801812e-10 2.6022012e-10
0.0 0.0 3.2816043e-13 3.202218e-13 0.0 4.075198e-11 0.0 2.1922941e-10

exp_avg f4 [128]
00000000: f32e 8038 70e4 7eb7 3cef e036 598c 1db8
00000010: 44cb 4037 4075 a937 b90a 6637 f62a 0638
00000020: 059a f2b7 32b7 2038 be7a 9e37 48ee 51b6
00000030: 3eae 5338 c2c4 12b7 a6e4 6237 92e5 09b8
00000040: 0bd1 f937 e8d2 a7b7 ae1a e736 168e 1837
00000050: b441 2cb8 c9ca 2237 46c2 abb7 138f 7ab7
00000060: 6285 c6b4 8be2 89b8 0c1f e6b7 b021 cb37
00000070: e8b9 d7b7 3298 83b7 6078 efb6 2e34 4ab6
00000080: 14bd 1438 beda 7738 5879 1038 102b e5b6
00000090: c0d2 fcb7 5c64 ccb5 bead 4637 6e68 2437
000000a0: d8f2 12b8 1a80 3db7 993c 03b7 95bd 08b7
000000b0: 10c4 7bb7 3284 45b7 8ae9 28b7 9d25 dab5
000000c0: dd3f 1237 4639 60b8 4c2a f9b7 1c69 9fb7
000000d0: 3edb 5cb7 bd62 9238 1e68 bd37 c620 21b5
000000e0: 341a 7437 541a a637 122c 9b38 3a96 10b7
000000f0: 063e 2338 c055 2239 9fcf 66b7 e4f3 11b8
00000100: 4a66 0936 3041 7337 579a fd37 8c7d 96b5
00000110: 620b 1838 a609 0ab7 1aca 2038 f087 89b7
00000120: ec9a 71b6 bdd4 3938 8a66 7ab6 1e2a 85b8
00000130: 8e89 b4b7 9c6d 7534 2016 2738 6204 18b5
00000140: 946f 6e38 c268 a3b7 f4c3 38b7 2857 8f35
00000150: 172d 8f38 98a5 1936 08f0 48b7 b6e3 acb7
00000160: bc09 3635 e7b3 fb35 e677 d7b6 b671 b5b7
00000170: 18ab 0339 87fa 1237 73ef 65b6 ee14 29b6
00000180: ce35 3b37 8db2 6c35 8ac9 1938 be64 9f37
00000190: c22f f535 3481 8937 0c7f cd36 1065 7d38
000001a0: 68b1 8237 4c8a 2a38 d576 9db7 9c42 adb6
000001b0: 86f3 9637 289e b2b7 82e1 0635 1a64 1138
000001c0: 474c 8637 5045 f5b6 b10d 9936 d6bd 3e38
000001d0: a37d b138 1356 37b7 f0c7 55b8 2f26 8ab6
000001e0: 81f6 9338 cf7d dbb7 feec 16b8 29dd d6b6
000001f0: 3829 1c38 5d56 8e37 58c3 63b7 b854 4737
6.1122606e-05 -1.5192767e-05 6.7035708e-06 -3.7562426e-05 1.1491418e-05 2.0200969e-05 1.3711565e-05 3.19881e-05
-2.8920369e-05 3.8317587e-05 1.8892224e-05 -3.1282125e-06 5.0468596e-05 -8.748089e-06 1.3523886e-05 -3.287715e-05
2.9780456e-05 -2.0006162e-05 6.8874424e-06 9.092988e-06 -4.1069186e-05 9.703167e-06 -2.0475254e-05 -1.4934473e-05
-3.6977423e-07 -6.574866e-05 -2.7432594e-05 2.4215173e-05 -2.5716567e-05 -1.5687288e-05 -7.1367685e-06 -3.0130718e-06
3.5462042e-05 5.909311e-05 3.4445286e-05 -6.829745e-06 -3.0138879e-05 -1.5228393e-06 1.1842172e-05 9.799476e-06
-3.503528e-05 -1.1295104e-05 -7.8223175e-06 -8.150372e-06 -1.5006415e-05 -1.1772894e-05 -1.0067955e-05 -1.6253213e-06
8.7171475e-06 -5.34591e-05 -2.970281e-05 -1.9003222e-05 -1.3164068e-05 6.980214e-05 2.2579039e-05 -6.0024865e-07
1.4549634e-05 1.9801002e-05 7.399185e-05 -8.618046e-06 3.8919992e-05 0.00015481468 -1.3757409e-05 -3.4797835e-05
2.047413e-06 1.4499106e-05 3.023182e-05 -1.121241e-06 3.6250225e-05 -8.227687e-06 3.8335194e-05 -1.6394973e-05
-3.6001975e-06 4.4305565e-05 -3.7312589e-06 -6.349779e-05 -2.1521726e-05 2.2857279e-07 3.983651e-05 -5.663079e-07
5.6847537e-05 -1.9479896e-05 -1.10128785e-05 1.0679696e-06 6.82717e-05 2.2895165e-06 -1.1976816e-05 -2.0610034e-05
6.781445e-07 1.8753316e-06 -6.4214573e-06 -2.1629832e-05 0.00012556871 8.760609e-06 -3.4263037e-06 -2.5195145e-06
1.1158596e-05 8.8176677e-07 3.666574e-05 1.9001189e-05 1.8267822e-06 1.6391838e-05 6.1242663e-06 6.0414022e-05
1.5579819e-05 4.0659957e-05 -1.8771194e-05 -5.163556e-06 1.7994793e-05 -2.12929e-05 5.0247047e-07 3.466392e-05
1.6009564e-05 -7.309638e-06 4.561349e-06 4.547633e-05 8.463419e-05 -1.0927691e-05 -5.0969364e-05 -4.1171656e-06
7.055421e-05 -2.6165419e-05 -3.5983503e-05 -6.4034434e-06 3.7231686e-05 1.6967935e-05 -1.3575736e-05 1.1881049e-05

exp_avg_sq f4 [128]
00000000: f88c 4831 fcdd bb2f 0f12 8f2f 74fc 952f
00000010: 83f8 552f 064f d12f 8e6b db30 e50c 0630
00000020: 6439 982f 6f1d a030 0cb6 4230 4afc 942d
00000030: 5da2 dd30 e766 3530 9dea 762e 5828 4930
00000040: 11b0 902f e4e0 e32f 8919 a32e e584 4a30
00000050: 4d39 9c2f 66b2 572f e0ec d12f e46d 782f
00000060: d68b 762b c0d5 8c30 4092 3530 c03e 3c30
00000070: 05c3 fb2f e1ec df2e ff2f 332f fcf7 7d2d
00000080: eb55 0030 799f b830 b43f 0230 07c7 d02d
00000090: a8db 222f 18c5 7930 de74 282f c594 8230
000000a0: 30db a62f 7b1f 952f 26c3 622f 7c8d a52f
000000b0: 08ba d82e 59f9 442f fc1d a92e 68dc 582d
000000c0: 06e2 fb2f 2395 b630 8121 812f 0bb6 752f
000000d0: 7ba6 6e2f c32e e130 6ccc 232f 1b3e b92f
000000e0: a721 102f 9aa0 1b30 2178 0e31 dba5 3e30
000000f0: 6b2a 6930 b061 6132 f369 8a2f 58da 0031
00000100: d861 3b2e 923f 822f a5ce c230 689b 4b2e
00000110: 0d60 8730 928f e42d 8447 4230 deaf 1f30
00000120: a8de d92c 90c0 0331 f24b ce2c b07f f530
00000130: c471 a62f 7806 8a2e 0db4 992f c45c 9b2d
00000140: 57d4 a430 f2e9 6a2f 4581 cd2f d8a0 972e
00000150: c718 0e31 60dd 282e 7579 cf2f 252a 1930
00000160: bbe6 9b2f 17f9 012f 0fbc a82e 894c 042f
00000170: 31bd 9e31 b150 1a2e 3aeb fa2e 2b51 992d
00000180: 3cee bc2e 70c8 8b2c 9d04 4131 d001 e32f
00000190: acea f22e e36c b02f 725e 332e 0a29 3f31
000001a0: 0a23 092f 4bd3 9a30 b51f 002f cf79 b22f
000001b0: cd8c 6930 3a25 ee2f 01d9 cd2d e485 cf2f
000001c0: 2f9a dc30 bc90 4f2f c138 d42e 607d b630
000001d0: 8035 0e31 294a 262f fa6a 6730 3cba 562e
000001e0: 704b d230 e403 f32e a418 2630 c6b7 0f2d
000001f0: ae96 1730 8918 dc2f aab9 e52f a75c 572f
2.9183962e-09 3.417283e-10 2.602438e-10 2.728232e-10 1.9460526e-10 3.8073028e-10 1.5964916e-09 4.876724e-10
2.7689417e-10 1.1649898e-09 7.0835493e-10 1.693769e-11 1.6126013e-09 6.599365e-10 5.6142303e-11 7.3180706e-10
2.631855e-10 4.1450854e-10 7.416918e-11 7.3676026e-10 2.841695e-10 1.9617516e-10 3.8185188e-10 2.259451e-10
8.759082e-13 1.0247092e-09 6.605525e-10 6.8483175e-10 4.5795204e-10 1.0182944e-10 1.6297007e-10 1.44364486e-11
4.6688226e-10 1.3433087e-09 4.738425e-10 2.3735248e-11 1.4811852e-10 9.086576e-10 1.532103e-10 9.501028e-10
3.0350966e-10 2.712531e-10 2.0623911e-10 3.0113856e-10 9.8555886e-11 1.7914682e-10 7.6905565e-11 1.23271185e-11
4.5817233e-10 1.328463e-09 2.348877e-10 2.2347295e-10 2.170512e-10 1.6384195e-09 1.4897389e-10 3.3695433e-10
1.310868e-10 5.66169e-10 2.0732005e-09 6.935729e-10 8.4825186e-10 1.3118935e-08 2.5177335e-10 1.8750566e-09
4.260578e-11 2.3692032e-10 1.417409e-09 4.6294885e-11 9.849842e-10 2.5984357e-11 7.067842e-10 5.8093785e-10
6.1922308e-12 1.9172468e-09 5.8633038e-12 1.7862387e-09 3.027606e-10 6.2766625e-11 2.7958472e-10 1.7662656e-11
1.1992921e-09 2.136529e-10 3.7381134e-10 6.8952566e-11 2.0677804e-09 3.8395398e-11 3.773938e-10 5.5720967e-10
2.835828e-10 1.1820976e-10 7.6731614e-11 1.2032521e-10 4.619914e-09 3.5087214e-11 1.14104684e-10 1.7430132e-11
8.591569e-11 3.9728706e-12 2.8087819e-09 4.1292347e-10 1.1046572e-10 3.2091582e-10 4.0783772e-11 2.7817486e-09
1.2472526e-10 1.1265028e-09 1.1652797e-10 3.2464562e-10 8.4964996e-10 4.33184e-10 2.340217e-11 3.7748216e-10
1.6050928e-09 1.887796e-10 9.6507254e-11 1.3277877e-09 2.069413e-09 1.5123959e-10 8.4189333e-10 4.8823376e-11
1.5300952e-09 1.1051052e-10 6.0425465e-10 8.169415e-12 5.514761e-10 4.00352e-10 4.178678e-10 1.9587053e-10
