Project specific/results/ppo/JumperAgent/JumperAgent-2233.onnx (onnx, 94240 bytes, 8 tensors)

network_body._body_endoder.seq_layers.0.weight f4 [128, 44]
000000 37 08 7a bc 78 74 3b 3e e1 20 4d be a5 43 98 3d
       -0.015260748 0.18306148 -0.20032074 0.07434777
000010 6c dc fc 3d e9 46 b0 3e 74 37 3b bd 15 3d e4 3d
       0.1234673 0.344291 -0.04570718 0.11144463
000020 35 c7 e4 3d e8 3c 24 bc 50 c5 c4 be 04 6b dd 3d
       0.11170808 -0.010024287 -0.38431787 0.10811427
000030 04 b7 61 be c7 a8 00 3c 20 e5 80 3c 6e c2 06 be
       -0.22042471 0.00785274 0.015734255 -0.13160107
000040 2b 2e e0 3d 59 9a af 3d 72 f8 39 3d 08 fa b9 bb
       0.10946306 0.08574361 0.04540295 -0.005675558
000050 94 f7 02 3e 66 88 04 bd 1a 6d 02 3e 55 de e2 bd
       0.12789756 -0.032356642 0.12736931 -0.11077563
000060 d4 8d 9b 3e fb 22 16 be cc 2e a0 bd 9b e0 c9 be
       0.30381644 -0.14661781 -0.07821426 -0.39429173
000070 95 43 27 be 44 0b 96 3e 0c 92 1e 3e 8a b5 5c 3e
       -0.16334374 0.2930547 0.154854 0.21553627
000080 18 07 55 bd 06 87 92 3b 39 32 64 3d 2c 00 14 3e
       -0.05200872 0.0044716625 0.05571196 0.1445319
000090 56 75 69 3d 85 e6 91 3d ad 20 08 be 94 79 a6 3c
       0.056996666 0.07124046 -0.13293715 0.020321645
0000a0 59 e3 8c 3d e6 e5 7b 3e 1f 88 26 be b6 6f 63 3e
       0.068793006 0.24599418 -0.16262864 0.22210583
0000b0 b2 33 11 3c f3 58 2f 3e 6c 28 81 3e 68 98 1b bd
       0.008862423 0.17123775 0.25226152 -0.037987143
0000c0 5d 36 6f bd 66 27 fe bd e3 e8 4d bd 68 d0 ce be
       -0.058401454 -0.124098584 -0.050270926 -0.40393376
0000d0 19 53 2c be 26 2d 09 3f d2 cd c9 bc de 03 d6 bd
       -0.16828574 0.53584516 -0.024634276 -0.10449956
0000e0 71 bf 60 3e fb cd 1b 3e 7a c6 49 3e 0d 0a f9 bd
       0.21948029 0.15215294 0.19704619 -0.1216012
0000f0 dc 39 d8 bd da 14 54 bd 2c 09 a1 3c ab ce 3c 3d
       -0.10557911 -0.051777698 0.019657694 0.04609553
000100 57 41 3d be 17 1a cc bd ea 77 e0 bd c7 0a 75 3d
       -0.18481956 -0.09965914 -0.10960372 0.05982473
000110 c9 a6 63 3e 67 05 ba bd dc d4 27 be 67 91 f2 bd
       0.22231592 -0.09083062 -0.16389793 -0.118441395
000120 18 fc fd 3d 27 ed fd 3c bd 4b c7 be 28 59 e7 bd
       0.12401599 0.030996872 -0.3892497 -0.11296302
000130 a7 71 e3 bd ce 39 8f 3d b1 a5 ae 3d b0 c8 df 3d
       -0.11105662 0.06993447 0.08527697 0.1092695
000140 33 7b 95 3d e5 b7 82 bd 51 df 1f be 07 94 2c be
       0.07298889 -0.06382731 -0.15612532 -0.16853343
000150 a8 81 d3 bd 50 a1 4e be b5 47 6d be ed af 1a 3e
       -0.10327464 -0.20178723 -0.23171885 0.15106173
000160 ce c8 25 3d 93 c9 fc 3d ba 9b 3a bd a8 9b a5 be
       0.040474705 0.12343135 -0.04555867 -0.3234532
000170 f9 99 7a be bb f1 56 3e ce f4 b6 bd 70 aa 2f 3e
       -0.24472798 0.2099065 -0.089334115 0.1715486
000180 ef 49 aa 3d 58 a0 88 be 89 0b ef bd 84 23 8c be
       0.08314883 -0.26684833 -0.11672122 -0.27370846
000190 f1 14 bd bc 88 75 fc bd 06 c6 96 bd 70 a5 08 3e
       -0.023081275 -0.12327105 -0.07361989 0.1334436
0001a0 96 96 a9 bd 2a 9c c3 3c 0c f2 c0 3c a3 b9 02 be
       -0.08280675 0.023878176 0.023552917 -0.12766127
0001b0 f1 60 ee bc 48 41 1a 3e f7 79 b9 bd f7 bc 00 3e
       -0.02909896 0.15063965 -0.09056466 0.12572084
0001c0 3d 13 3d be 33 32 84 bd 5f 62 1f 3e 69 c5 b6 bd
       -0.1846437 -0.06454887 0.1556487 -0.08924372
0001d0 b8 14 24 be d1 01 99 bd c9 17 2e bd 42 11 1c 3c
       -0.16023529 -0.074710496 -0.042503152 0.009525599
0001e0 cf af 15 be 31 51 84 be 88 17 22 3e 0a 88 81 3e
       -0.14617847 -0.25843194 0.15829289 0.25299102
0001f0 f3 ed 19 3d 44 81 40 bd b0 ab 2f 3d b0 65 92 bd
       0.03758044 -0.046998277 0.042888343 -0.071483016
000200 86 a3 cd 3d 41 52 6b bd 37 d6 ae 3d ac 0d 88 bd
       0.10040955 -0.05745149 0.08536952 -0.06643233
000210 8a e0 0a 3e 22 61 91 be a1 9a 9c be 90 ed 38 be
       0.13562217 -0.2839442 -0.30586722 -0.18059373
000220 76 17 6a 3e 58 16 68 bd d1 b0 a2 bc 00 6d ef 3c
       0.22860512 -0.056661934 -0.019859703 0.02922678
000230 9d 63 88 3d 92 d6 2c 3e ae 99 40 3d 6b 41 51 bc
       0.06659625 0.16878727 0.04702156 -0.0127719445
000240 71 0b 98 3d 35 ac 7d be af c5 b8 3d 03 f1 1e be
       0.07424057 -0.24772723 0.0902208 -0.15521626
000250 71 8d 9b 3e 4e ac 67 3e 2b 6f ea 3c f6 72 97 3d
       0.3038135 0.22624323 0.028617462 0.07394974
000260 78 ef 77 3d 3b fc 3a bd 9b 7e 49 be e1 07 39 3c
       0.06053111 -0.045650702 -0.19677202 0.011293382
000270 33 07 af 3c fa 80 1f be 87 e7 bc be 61 c2 92 be
       0.021365738 -0.15576544 -0.3689539 -0.28663924
000280 72 42 56 3d fe d2 71 be e6 6a 19 be 7e 0f f7 bd
       0.05230946 -0.23615643 -0.14982185 -0.12063502
000290 6a d4 8e bd ab e6 1e be 64 92 f6 bc e1 ec 87 be
       -0.069741085 -0.1551768 -0.030099101 -0.26547912
0002a0 c0 d5 19 be ba 55 97 3d 7b 7e 31 be 00 11 f9 3d
       -0.15022945 0.07389398 -0.17333405 0.121614456
0002b0 c5 73 42 3e ec 05 0d bd 3e f5 d0 3d 8c be e6 bd
       0.18989475 -0.034429476 0.10203026 -0.11266813
0002c0 1d 01 88 bd 43 6d b6 be de 74 16 be 10 82 37 3c
       -0.06640837 -0.35630235 -0.14693019 0.011200443
0002d0 2a 49 77 be 98 bb 12 bd 81 fb 15 bd 20 e5 fe 3d
       -0.24149004 -0.035823435 -0.036616806 0.12446046
0002e0 c4 b0 41 be 8b 6c ef bc 7a d6 6a bd 08 f1 3d bd
       -0.18915087 -0.029226562 -0.057333447 -0.046372443
0002f0 1b 7b 78 3e 06 ac d2 bd 37 07 1f be 64 dc 62 3e
       0.24265711 -0.10286717 -0.15530096 0.22154385
000300 1f 21 d5 bd b0 85 64 be 6d 41 6e be c3 48 44 be
       -0.10406708 -0.22316623 -0.23267145 -0.19168381
000310 3a fd ab bd 76 2f 21 bc 9f 85 69 bd 0b 7a 89 3c
       -0.083979085 -0.009837976 -0.057012197 0.016781827
000320 05 26 89 bd e8 4b 59 bd da f3 ae bd e1 e9 44 be
       -0.06696705 -0.053050905 -0.08542605 -0.19229843
000330 9d 9a e1 3c c7 88 95 bc 11 48 7a be 13 57 2a 3e
       0.027539546 -0.018253697 -0.24441554 0.16634779
000340 ee f3 82 3d ea 67 86 3e 8b 2e 81 3d 32 e1 47 be
       0.06394182 0.26251155 0.063077055 -0.19519499
000350 9e 0d 18 3d a4 ab ba bd 32 c1 1c be dc c9 ba 3c
       0.03712236 -0.09114769 -0.15308073 0.022801332
000360 0e 9a 5b 3e d7 13 b5 3c 8b 09 62 3c 79 67 59 bd
       0.21445486 0.022104187 0.0137962205 -0.053077195
000370 0a a1 97 3d 57 6d 85 bd 06 f5 99 be 69 8a 4d bd
       0.07403763 -0.065149955 -0.3006975 -0.050180826
000380 96 e3 1d be cb a2 0a 3e 98 8b 02 be a9 65 1f be
       -0.15418848 0.13538663 -0.12748563 -0.15566124
000390 84 ea 42 bc 8a 84 66 3e 01 4a 74 be c0 f5 b8 bd
       -0.011896733 0.22511497 -0.23856355 -0.09031248
0003a0 7b 3a c0 bc e0 ab 39 3d 93 55 85 3c c1 fa 32 be
       -0.023465386 0.04532993 0.016276157 -0.17478468
0003b0 e4 81 92 3e 87 be 81 be 45 1c 8e bd e0 8f 34 be
       0.28614724 -0.25340673 -0.06938986 -0.17633009
0003c0 d8 d4 4a 3c f4 7e 80 bd 88 fc bd 3d 76 ae f5 3d
       0.0123798475 -0.062742144 0.09276682 0.119961664
0003d0 d6 2c e5 3c 51 ab 81 3e e5 f7 ba bd 5c 07 57 3d
       0.027975481 0.25326017 -0.091293134 0.052497253
0003e0 21 79 ee bd 5a fb 86 3d 63 0f 5d be 0b cc 30 3c
       -0.11644197 0.0659091 -0.21587901 0.010790835
0003f0 70 4c 59 bd 41 e4 23 3e 21 e1 22 bd 3f b2 8b 3e
       -0.053051412 0.1600504 -0.03976548 0.27284428

network_body._body_endoder.seq_layers.0.bias f4 [128]
000000 00 00 00 00 00 00 00 00 00 00 00 00 00 00 00 00
       0.0 0.0 0.0 0.0
000010 00 00 00 00 00 00 00 00 00 00 00 00 00 00 00 00
       0.0 0.0 0.0 0.0
000020 00 00 00 00 00 00 00 00 00 00 00 00 00 00 00 00
       0.0 0.0 0.0 0.0
000030 00 00 00 00 00 00 00 00 00 00 00 00 00 00 00 00
       0.0 0.0 0.0 0.0
000040 00 00 00 00 00 00 00 00 00 00 00 00 00 00 00 00
       0.0 0.0 0.0 0.0
000050 00 00 00 00 00 00 00 00 00 00 00 00 00 00 00 00
       0.0 0.0 0.0 0.0
000060 00 00 00 00 00 00 00 00 00 00 00 00 00 00 00 00
       0.0 0.0 0.0 0.0
000070 00 00 00 00 00 00 00 00 00 00 00 00 00 00 00 00
       0.0 0.0 0.0 0.0
000080 00 00 00 00 00 00 00 00 00 00 00 00 00 00 00 00
       0.0 0.0 0.0 0.0
000090 00 00 00 00 00 00 00 00 00 00 00 00 00 00 00 00
       0.0 0.0 0.0 0.0
0000a0 00 00 00 00 00 00 00 00 00 00 00 00 00 00 00 00
       0.0 0.0 0.0 0.0
0000b0 00 00 00 00 00 00 00 00 00 00 00 00 00 00 00 00
       0.0 0.0 0.0 0.0
0000c0 00 00 00 00 00 00 00 00 00 00 00 00 00 00 00 00
       0.0 0.0 0.0 0.0
0000d0 00 00 00 00 00 00 00 00 00 00 00 00 00 00 00 00
       0.0 0.0 0.0 0.0
0000e0 00 00 00 00 00 00 00 00 00 00 00 00 00 00 00 00
       0.0 0.0 0.0 0.0
0000f0 00 00 00 00 00 00 00 00 00 00 00 00 00 00 00 00
       0.0 0.0 0.0 0.0
000100 00 00 00 00 00 00 00 00 00 00 00 00 00 00 00 00
       0.0 0.0 0.0 0.0
000110 00 00 00 00 00 00 00 00 00 00 00 00 00 00 00 00
       0.0 0.0 0.0 0.0
000120 00 00 00 00 00 00 00 00 00 00 00 00 00 00 00 00
       0.0 0.0 0.0 0.0
000130 00 00 00 00 00 00 00 00 00 00 00 00 00 00 00 00
       0.0 0.0 0.0 0.0
000140 00 00 00 00 00 00 00 00 00 00 00 00 00 00 00 00
       0.0 0.0 0.0 0.0
000150 00 00 00 00 00 00 00 00 00 00 00 00 00 00 00 00
       0.0 0.0 0.0 0.0
000160 00 00 00 00 00 00 00 00 00 00 00 00 00 00 00 00
       0.0 0.0 0.0 0.0
000170 00 00 00 00 00 00 00 00 00 00 00 00 00 00 00 00
       0.0 0.0 0.0 0.0
000180 00 00 00 00 00 00 00 00 00 00 00 00 00 00 00 00
       0.0 0.0 0.0 0.0
000190 00 00 00 00 00 00 00 00 00 00 00 00 00 00 00 00
       0.0 0.0 0.0 0.0
0001a0 00 00 00 00 00 00 00 00 00 00 00 00 00 00 00 00
       0.0 0.0 0.0 0.0
0001b0 00 00 00 00 00 00 00 00 00 00 00 00 00 00 00 00
       0.0 0.0 0.0 0.0
0001c0 00 00 00 00 00 00 00 00 00 00 00 00 00 00 00 00
       0.0 0.0 0.0 0.0
0001d0 00 00 00 00 00 00 00 00 00 00 00 00 00 00 00 00
       0.0 0.0 0.0 0.0
0001e0 00 00 00 00 00 00 00 00 00 00 00 00 00 00 00 00
       0.0 0.0 0.0 0.0
0001f0 00 00 00 00 00 00 00 00 00 00 00 00 00 00 00 00
       0.0 0.0 0.0 0.0

network_body._body_endoder.seq_layers.2.weight f4 [128, 128]
000000 5d ad 19 bc d4 5a 3d bd 8f c5 89 3c ca 1d 29 bd
       -0.009379712 -0.0462292 0.016817836 -0.041288175
000010 28 68 d0 3d d8 b6 85 be 51 e7 43 3d 3d 36 04 3e
       0.10176116 -0.2611606 0.047828022 0.12911315
000020 7b 3b bb 3b dc 19 4d 3b f0 68 15 bd 83 b9 26 bb
       0.0057138777 0.003129593 -0.03647703 -0.0025440163
000030 1b 84 87 bc af f6 45 3e 40 33 1b 3e 56 8c 83 3c
       -0.016542485 0.19332384 0.15156269 0.016058128
000040 d1 25 c6 3d 0e 45 4d 3d ba 02 8a bd 84 c8 88 bd
       0.09675182 0.050114684 -0.06738801 -0.0667887
000050 0a e4 83 3e d5 79 de 3d b8 3d f7 3b 24 45 86 bd
       0.25759917 0.10863081 0.0075451992 -0.06556156
000060 7c c4 9a 3d 1a 26 3f be bc 44 16 3e 4a 2a 7a 3d
       0.07557008 -0.18666878 0.14674658 0.061075486
000070 45 62 4b bd 08 59 0f bd 95 92 7d bd 36 29 9f bd
       -0.049654264 -0.034997016 -0.06190737 -0.07771532
000080 6b 43 28 be c4 bf cf 3c 71 2f 7e bd 34 6d ba bd
       -0.16431968 0.025359996 -0.062056962 -0.0910286
000090 0c 01 fb 3c 88 88 33 3d a8 40 28 3d c0 9f 6a 3d
       0.030640148 0.04383138 0.041077286 0.057281256
0000a0 6a bc 97 3d b8 68 4a bc 69 18 c5 3d 51 5b 71 bd
       0.07408984 -0.012354068 0.096237965 -0.058924977
0000b0 27 3c 41 be 14 4c 35 bc 99 a5 59 bc 2a 98 5c bd
       -0.18870603 -0.011065502 -0.01328411 -0.053856052
0000c0 c8 c7 de 3d 1b 7a e7 bd 83 10 01 3e a6 12 c1 3d
       0.10877949 -0.11302587 0.12603955 0.09427385
0000d0 03 b3 6f bd e1 27 b6 3d c9 d9 ea 3d 8c 04 49 be
       -0.05852033 0.08894325 0.114673205 -0.19630641
0000e0 a3 66 c9 bd 04 73 0b be 1d 6c 94 3b 6a 6e 46 3d
       -0.098340295 -0.13618094 0.0045294897 0.048445143
0000f0 88 71 e5 3c da 8d 5d 3d ba bc 89 3d 81 d5 ad 3d
       0.028008237 0.05409036 0.0672545 0.08487988
000100 52 44 76 3c 18 6b a8 bd 66 5e 8a 3d cc ae db bc
       0.015030937 -0.082235515 0.06756286 -0.026816748
000110 b5 20 d5 bc 3c 74 42 bd dd e3 41 bd 47 b6 70 3d
       -0.026016572 -0.04747413 -0.047336448 0.058767583
000120 bf 5c 19 be 54 05 55 3d 3c b2 4e be 89 3a 0b 3d
       -0.14976786 0.052007034 -0.20185179 0.03399137
000130 6f 6f 7b bd 53 75 29 3e 59 f8 05 be d2 aa 16 3d
       -0.06138557 0.16548662 -0.13083018 0.036784
000140 e6 9b 14 bd 3f e0 f6 3c 34 a1 a8 bd e3 ba 02 3d
       -0.03628149 0.030136226 -0.08233872 0.03191651
000150 26 b1 7b 3b e1 5e 24 bd ab 38 14 bd ed fc 7c 3a
       0.003840515 -0.040129546 -0.036186855 0.0009650726
000160 b1 25 38 bd 10 50 2c 3d d7 6e 18 3e 14 2b dc bd
       -0.04495782 0.04206854 0.14886032 -0.10750404
000170 4a 22 da bc c5 18 b2 3d 4d 75 de bd 44 c2 56 3d
       -0.026627678 0.08696131 -0.10862217 0.05243136
000180 71 5a 19 3d db d0 17 3e 4b db 50 bd ab fd 9b bd
       0.037439767 0.14825766 -0.050990384 -0.07616743
000190 4e a2 56 3d 30 f6 94 bd 4c b2 95 3d 81 50 88 bd
       0.05240088 -0.07273519 0.07309398 -0.0665598
0001a0 c5 9c 21 bc 07 f3 72 bd 92 3b a9 bd d3 e3 06 bd
       -0.009864037 -0.0593138 -0.08263315 -0.032932114
0001b0 a8 de 14 be b3 50 35 bd 23 64 18 3c c7 87 75 3d
       -0.14538062 -0.044266414 0.009301218 0.05994394
0001c0 9a 22 e6 3b 01 2e 33 3d 99 ba e0 bc 21 d6 45 3d
       0.007023168 0.043745045 -0.027432727 0.048299912
0001d0 a4 d8 36 3d 23 9c 1c 3c 35 72 a6 3d dc ef 4e 3d
       0.0446402 0.00955871 0.08127252 0.050521716
0001e0 5e 39 a8 bd 75 1a b7 bd 7b 77 9a 3d a3 2c 8c 3d
       -0.08214067 -0.08940593 0.0754232 0.06844451
0001f0 94 09 ad bb 37 51 ec bc ae 8a 71 3d 73 f7 11 3d
       -0.005280683 -0.02884732 0.058970146 0.035636377
000200 69 f3 71 bd 29 2e 9c 3d 59 1d 83 3d ef e2 bb bc
       -0.059070025 0.07625992 0.06402082 -0.022935359
000210 6c ae ee bd 74 3e d5 3d f8 fd 8d bd 4d 1f 1d 3c
       -0.11654362 0.104123026 -0.06933206 0.009589982
000220 c2 9e ab bd a3 38 68 bd d9 83 29 3e 7e fd 59 bd
       -0.0837989 -0.056694638 0.16554202 -0.053220265
000230 42 a9 e4 bb 84 70 8f bc 10 06 e2 bd 33 32 cd 3d
       -0.006978185 -0.017509706 -0.110363126 0.1001934
000240 86 29 ad bd eb 56 02 be 16 9f d4 bc 7f e4 51 bd
       -0.084551856 -0.12728469 -0.025954764 -0.0512433
000250 db a9 65 3e de 66 a8 bd 31 0b c2 bc 0f a8 32 39
       0.22428076 -0.08222745 -0.023686977 0.0001703801
000260 e2 71 25 bd 42 4a 0d 3e 9b a0 22 3d 60 7f 90 3b
       -0.04039181 0.13797858 0.039703947 0.0044097155
000270 30 73 a4 bc 28 14 02 bb 2e 83 51 3e d4 ee 3d 3e
       -0.020074457 -0.001984844 0.20460197 0.18548137
000280 1f c6 03 3e f1 d6 78 bc 32 1c 97 bd 82 9e 12 3e
       0.12868546 -0.015187965 -0.07378425 0.14318278
000290 12 d0 ff bd af c7 53 bd c7 4e 8f bc 1e 6b 3a bd
       -0.12490858 -0.051704105 -0.017493619 -0.04551231
0002a0 14 81 9a bc c7 f7 bb 3d bf 7d 69 3b 0b 79 03 3d
       -0.018860377 0.09178119 0.003562793 0.032097857
0002b0 d6 2b b1 bd 82 e9 4d bc 27 d5 05 3d eb d4 cd bc
       -0.08650939 -0.01256788 0.03267398 -0.025125941
0002c0 6d df 83 bd 3d 0e d4 3c 36 d0 3d 3e e3 f6 f8 3c
       -0.064390995 0.025885696 0.18536457 0.030391162
0002d0 d9 75 08 3d 03 00 7c 3c 39 9f be bd 1b b5 28 bd
       0.033315513 0.015380862 -0.09307713 -0.04118834
0002e0 15 39 93 3d 3e 42 95 3c 4d a3 22 3e 36 f1 6d bd
       0.07188622 0.018220063 0.15882607 -0.058091365
0002f0 9a 4b ff 3d f5 02 50 3c 28 65 d1 bc fe ae 92 3c
       0.12465592 0.0126960175 -0.02556093 0.017905708
000300 e8 27 af 3d 81 f7 65 bc 1d 98 78 3c 5b 9e 42 3e
       0.085525334 -0.01403606 0.015172985 0.1900572
000310 55 95 4f bd b2 95 c5 3d 3c 2b 8d bd 20 dd eb 3d
       -0.050679523 0.09647693 -0.06893012 0.115167856
000320 33 7f 7b bd c5 7e df bc 89 64 ec bd b1 34 10 3e
       -0.061400604 -0.027282128 -0.11542613 0.140826
000330 1e a4 f6 3b 46 52 be 3d 62 b8 2e 3d 38 79 bb 3d
       0.0075268885 0.09293036 0.04265631 0.0915398
000340 c4 ce fc 3c 59 7d 9c 3b 50 44 cd 3b 6e 09 9f 3d
       0.030860312 0.004775685 0.006264247 0.077654704
000350 06 32 09 bd ce 3e 04 be 29 08 92 bd 3a 5a fd bc
       -0.03349497 -0.12914583 -0.07130463 -0.030926812
000360 e3 6f f4 bd a4 c9 9b bd 1b c7 5e be c4 18 2e 3e
       -0.11935403 -0.07606819 -0.2175564 0.17001635
000370 bf 7a d9 bb ec d0 a7 3d 86 15 d4 bd 24 ee f9 3d
       -0.006636947 0.081941456 -0.10355668 0.12203625
000380 2f d3 bd 3d 0f d9 6b 3d 86 5a 25 be d5 8d e1 bd
       0.09268796 0.05758005 -0.16147813 -0.110133804
000390 c7 ce 2d 3e c5 ca 0c 3e 2f 5e cf bd 7a 44 e6 3b
       0.1697341 0.13749225 -0.10125386 0.007027206
0003a0 e2 99 b7 bd aa e8 da 3b fa 1a 2e be 17 5d 23 be
       -0.08964898 0.0066805677 -0.17002478 -0.1595348
0003b0 76 3c 1e bc 76 8b 3c 3e 9a 85 e6 bd ad 6f 45 be
       -0.00965797 0.18412575 -0.11255951 -0.19280882
0003c0 9b 6b 82 bd 89 51 1e be 75 27 7b 3d 75 42 f6 3d
       -0.0636818 -0.1546079 0.061316926 0.120243944
0003d0 20 e2 08 3e c5 71 af bd 49 33 c3 bd 50 c7 82 bd
       0.1336751 -0.08566622 -0.09531266 -0.06385672
0003e0 e6 fc 5c bd 94 e1 b7 bd 1a a2 e7 bc 15 5b 8f 3d
       -0.05395212 -0.089785725 -0.028275538 0.069997944
0003f0 68 13 2c bc 87 42 1b bd 69 4c 5c 3e 69 ea 27 3d
       -0.010502674 -0.037905242 0.21513523 0.040995035

network_body._body_endoder.seq_layers.2.bias f4 [128]
000000 00 00 00 00 00 00 00 00 00 00 00 00 00 00 00 00
       0.0 0.0 0.0 0.0
000010 00 00 00 00 00 00 00 00 00 00 00 00 00 00 00 00
       0.0 0.0 0.0 0.0
000020 00 00 00 00 00 00 00 00 00 00 00 00 00 00 00 00
       0.0 0.0 0.0 0.0
000030 00 00 00 00 00 00 00 00 00 00 00 00 00 00 00 00
       0.0 0.0 0.0 0.0
000040 00 00 00 00 00 00 00 00 00 00 00 00 00 00 00 00
       0.0 0.0 0.0 0.0
000050 00 00 00 00 00 00 00 00 00 00 00 00 00 00 00 00
       0.0 0.0 0.0 0.0
000060 00 00 00 00 00 00 00 00 00 00 00 00 00 00 00 00
       0.0 0.0 0.0 0.0
000070 00 00 00 00 00 00 00 00 00 00 00 00 00 00 00 00
       0.0 0.0 0.0 0.0
000080 00 00 00 00 00 00 00 00 00 00 00 00 00 00 00 00
       0.0 0.0 0.0 0.0
000090 00 00 00 00 00 00 00 00 00 00 00 00 00 00 00 00
       0.0 0.0 0.0 0.0
0000a0 00 00 00 00 00 00 00 00 00 00 00 00 00 00 00 00
       0.0 0.0 0.0 0.0
0000b0 00 00 00 00 00 00 00 00 00 00 00 00 00 00 00 00
       0.0 0.0 0.0 0.0
0000c0 00 00 00 00 00 00 00 00 00 00 00 00 00 00 00 00
       0.0 0.0 0.0 0.0
0000d0 00 00 00 00 00 00 00 00 00 00 00 00 00 00 00 00
       0.0 0.0 0.0 0.0
0000e0 00 00 00 00 00 00 00 00 00 00 00 00 00 00 00 00
       0.0 0.0 0.0 0.0
0000f0 00 00 00 00 00 00 00 00 00 00 00 00 00 00 00 00
       0.0 0.0 0.0 0.0
000100 00 00 00 00 00 00 00 00 00 00 00 00 00 00 00 00
       0.0 0.0 0.0 0.0
000110 00 00 00 00 00 00 00 00 00 00 00 00 00 00 00 00
       0.0 0.0 0.0 0.0
000120 00 00 00 00 00 00 00 00 00 00 00 00 00 00 00 00
       0.0 0.0 0.0 0.0
000130 00 00 00 00 00 00 00 00 00 00 00 00 00 00 00 00
       0.0 0.0 0.0 0.0
000140 00 00 00 00 00 00 00 00 00 00 00 00 00 00 00 00
       0.0 0.0 0.0 0.0
000150 00 00 00 00 00 00 00 00 00 00 00 00 00 00 00 00
       0.0 0.0 0.0 0.0
000160 00 00 00 00 00 00 00 00 00 00 00 00 00 00 00 00
       0.0 0.0 0.0 0.0
000170 00 00 00 00 00 00 00 00 00 00 00 00 00 00 00 00
       0.0 0.0 0.0 0.0
000180 00 00 00 00 00 00 00 00 00 00 00 00 00 00 00 00
       0.0 0.0 0.0 0.0
000190 00 00 00 00 00 00 00 00 00 00 00 00 00 00 00 00
       0.0 0.0 0.0 0.0
0001a0 00 00 00 00 00 00 00 00 00 00 00 00 00 00 00 00
       0.0 0.0 0.0 0.0
0001b0 00 00 00 00 00 00 00 00 00 00 00 00 00 00 00 00
       0.0 0.0 0.0 0.0
0001c0 00 00 00 00 00 00 00 00 00 00 00 00 00 00 00 00
       0.0 0.0 0.0 0.0
0001d0 00 00 00 00 00 00 00 00 00 00 00 00 00 00 00 00
       0.0 0.0 0.0 0.0
0001e0 00 00 00 00 00 00 00 00 00 00 00 00 00 00 00 00
       0.0 0.0 0.0 0.0
0001f0 00 00 00 00 00 00 00 00 00 00 00 00 00 00 00 00
       0.0 0.0 0.0 0.0

action_model._continuous_distribution.log_sigma f4 [1, 2]
000000 00 00 00 00 00 00 00 00
       0.0 0.0

action_model._continuous_distribution.mu.weight f4 [2, 128]
000000 eb c4 bb bb 88 9f cb 3b 2a 2b 5a bc d3 1a 0f bc
       -0.0057302616 0.006214086 -0.013315955 -0.008734423
000010 3c 8e a9 3c e8 86 5f 3c 10 b3 b8 3b bb 68 0e bd
       0.020697705 0.013643004 0.0056365803 -0.034767848
000020 06 86 bc 3b b0 6e bc 3c 1d c5 f9 bb 0b 3d a1 3b
       0.0057532815 0.023001999 -0.0076223747 0.004920607
000030 22 35 38 3d 27 fc 4a bc d0 0a b7 bb 9a 83 d4 ba
       0.044972546 -0.012389219 -0.0055860057 -0.0016213537
000040 a5 89 e1 3b d8 42 70 bc eb 24 4d 3c 4a 2b 2c bc
       0.0068828636 -0.014664374 0.012521009 -0.010508368
000050 b0 f8 b5 3c a0 f9 cd bc e6 d3 c7 3b 5b 0d 98 ba
       0.02221331 -0.025143445 0.0060982583 -0.001160066
000060 01 5e 3b 3b 15 17 1c bc e8 fb 3e 3c bb 27 e1 3a
       0.0028589966 -0.009526988 0.011656739 0.0017177978
000070 67 26 93 bc 19 54 a3 3c c2 15 e8 3c e6 45 a7 bb
       -0.017962648 0.019937562 0.028330687 -0.005104768
000080 1b 69 1a 3c 42 ed d2 3b 45 97 1e 3d 47 bc 0e bc
       0.009424473 0.0064369747 0.03871848 -0.008711881
000090 76 ea 30 bc 6a 30 1c 3c 98 9f ab bc 8b 09 57 bc
       -0.010798087 0.009533027 -0.020950124 -0.013124834
0000a0 71 02 13 3c 3a 1e 88 3b 25 34 f1 39 2b e5 1b 3b
       0.00897275 0.004153994 0.00046005953 0.0023787718
0000b0 3b 97 88 39 3b fd 00 3c 6f ae d2 ba 8d 1b 05 bc
       0.00026052617 0.007872875 -0.0016073714 -0.008124244
0000c0 07 a2 82 3c 2a d4 6e 3c b5 b7 bf 3b 87 16 90 bc
       0.015946401 0.014576951 0.005850757 -0.017588867
0000d0 9f 3e a6 bb 5e 04 26 3d 03 b7 95 3c cd 66 76 bb
       -0.005073383 0.04053151 0.018275743 -0.0037597895
0000e0 b2 d5 34 3c 4c 0c c8 3c 64 1c 16 3c a3 92 98 bc
       0.011037277 0.024419926 0.009162042 -0.01862461
0000f0 5b 4d d2 3b 6d d4 aa 3c 1b d0 ae bc dc 95 a2 bc
       0.006417913 0.020853246 -0.021339467 -0.01984685
000100 3d 19 c1 bc 50 5f 8f 3b 32 14 e9 3b 82 c2 17 3d
       -0.023571605 0.004375376 0.007113003 0.03705073
000110 b3 93 59 bc 6a 00 df bc 95 e8 76 bb f7 fd 19 3c
       -0.013279843 -0.027221877 -0.003767525 0.009398929
000120 8f 5e 3c 3c ba 69 0a 3b 2d 8f f6 3c f1 d7 b0 3c
       0.011497154 0.0021120147 0.030097568 0.021587344
000130 18 ac d5 bc af 15 80 3c 8f dc 6a bc 80 ec f8 3c
       -0.026083037 0.01563534 -0.014334812 0.03038621
000140 cb f4 91 3c 32 fe e5 bb af 23 24 bd db a4 65 3c
       0.017816922 -0.007018828 -0.040073093 0.014016355
000150 73 e7 39 bc a9 93 11 3c 03 cd 4f bc 45 ad 06 bd
       -0.011346686 0.008885303 -0.012683156 -0.032880086
000160 cd 18 40 bb 32 74 85 3a f8 76 8e 3b af 5c a2 bc
       -0.0029311657 0.0010181724 0.0043476783 -0.019819586
000170 c5 b1 09 bc 38 66 7e bb fa ec 6b bc af d1 00 bc
       -0.0084042 -0.0038818251 -0.014399761 -0.007862492
000180 de 60 95 ba 97 2b 33 bb a0 f1 ce 3c 3f 0a 68 3c
       -0.0011396667 -0.0027339214 0.0252617 0.014162599
000190 a5 21 68 3c 01 5a ae 3b bf e4 8e bc d3 7c 3d bb
       0.014168178 0.005320788 -0.017443059 -0.0028913512
0001a0 f2 8c 7c 3b b3 df e4 bb 73 fc 95 bc 08 1e 28 bc
       0.0038536158 -0.006984675 -0.018308854 -0.010261066
0001b0 c2 60 d1 bc 6b a1 ec bb bd b3 86 3c c7 6e 13 bc
       -0.025558833 -0.007221391 0.016443128 -0.008998579
0001c0 75 e2 07 bd 87 c6 e7 bc 94 88 25 bd f3 44 a0 bc
       -0.03317495 -0.028292907 -0.040413454 -0.019564128
0001d0 6b 27 05 bc b2 06 11 bc 3d 7e 49 bc c2 7c f9 3b
       -0.008127074 -0.008851694 -0.012298164 0.0076137492
0001e0 be 66 33 bc bb 68 c4 3c 17 a3 01 bc bf 4e f4 bb
       -0.010949789 0.02397572 -0.007912419 -0.0074556763
0001f0 37 bb 9f 3c 48 8c 0d 3d c3 79 27 bc ca fe b6 3b
       0.01949845 0.03455761 -0.010221901 0.0055845724
000200 62 88 92 3c 2f 91 b7 3c 4c 22 38 bc ba 9a d5 bb
       0.017887298 0.022408096 -0.011238646 -0.006518689
000210 62 12 58 bc fd c3 68 bc 03 1a 0a 3c 5f 82 8b 3b
       -0.013187977 -0.0142068835 0.008429053 0.004257485
000220 b0 3f e6 3b b3 5f 2e 38 3a 57 04 3c 59 0d 8a bc
       0.007026635 4.157396e-05 0.008077437 -0.016852068
000230 06 ff 9e bc fe 8f 34 bc c3 5c 43 bc c5 a3 6c bc
       -0.019408714 -0.011020659 -0.011923972 -0.014443343
000240 d9 ba 13 bc 5f 32 99 bb f4 4e 45 bc f2 ec 9e bb
       -0.009016716 -0.004675194 -0.01204275 -0.0048500234
000250 c8 56 06 3c 6b 0f 92 bb 87 fd 74 3c 65 d3 87 3c
       0.008199401 -0.0044574044 0.014953024 0.016580293
000260 4b 02 68 bc 20 eb 16 3c b0 16 ff 3a bf ae bd 3c
       -0.014160703 0.009211332 0.0019461717 0.023154614
000270 db 67 ec 3c 38 7d e1 bc 82 7c 9d bc 07 b7 10 3c
       0.028858116 -0.02752553 -0.019224409 0.0088327
000280 5b e3 0c 3c 78 58 ea bc 0f 8f 0a 3c 5f 2f 01 3c
       0.008599128 -0.028606638 0.008456959 0.007884829
000290 23 3a 98 3c 3c 11 0f 3b 98 b6 32 bc c2 59 c3 3b
       0.01858241 0.002183034 -0.010907792 0.0059616277
0002a0 70 e3 55 3c 83 89 bc 3c c7 ee 9e ba 9e 91 c9 3c
       0.013054714 0.02301479 -0.0012125605 0.024605568
0002b0 87 2e ad bb ab fe 66 bc b7 d9 16 3d cb a7 eb 3c
       -0.0052850875 -0.0140988035 0.036828723 0.028766533
0002c0 a8 f9 dd bb 96 c4 8a bb 2f fe 12 bd d7 1c 6b bc
       -0.006774146 -0.0042348607 -0.03588694 -0.014350138
0002d0 e3 17 c9 3b 51 e5 b7 3c 22 cb d8 3b bb 25 cb bb
       0.0061368807 0.022448214 0.006616012 -0.006199566
0002e0 0b c3 18 bc 5d 01 5d bc da 0d 4d 3c 00 3f 55 3c
       -0.009323846 -0.013489095 0.0125155095 0.013015509
0002f0 6f 82 88 3b 79 53 a3 3a 13 dd 46 bc 7f 57 14 3c
       0.0041659395 0.001246079 -0.012137669 0.009054064
000300 bd cc 7e bc d2 0a 0a 3d e3 7d 19 bc cb 62 4b 3b
       -0.015551743 0.033701725 -0.009368393 0.0031034227
000310 e0 40 0e 3b 85 c0 00 bc 11 32 46 3c bf 0d 57 3b
       0.002170615 -0.0078584 0.012096898 0.003281459
000320 fa 7f cf b9 fb 82 f5 ba 27 e6 76 3c b3 10 2c 3c
       -0.00039577467 -0.0018731052 0.015069521 0.010502028
000330 57 0b aa b9 8b b4 d1 3c 8f 62 f0 3c 73 37 07 3d
       -0.00032433376 0.025598785 0.029343871 0.033011865
000340 0d 6c af bb 0b 7f 2b bc 71 a9 95 bc f8 81 78 3b
       -0.005353457 -0.010467301 -0.018269273 0.0037919264
000350 76 fb 84 3b e3 a9 2d bc 0a 8e ff 39 55 1c e2 3b
       0.004058297 -0.010599586 0.00048743217 0.00690035
000360 cf 87 37 39 82 11 d0 3b d7 34 3b 3c 02 89 3e 3c
       0.00017502833 0.0063497433 0.011426172 0.011629345
000370 08 2d 21 bc 1f 7a 30 3d 98 46 6a 3c 9c 09 41 3c
       -0.009837396 0.043085214 0.014299057 0.011782076
000380 dd 3d a1 bb 0d aa f3 bb 8b 1d ef bc bc f2 be 3c
       -0.0049207048 -0.007436043 -0.029188892 0.023309104
000390 90 55 52 3c 45 24 28 bc b7 8a 95 3c 8f 15 67 3b
       0.0128377825 -0.010262554 0.018254621 0.0035260653
0003a0 32 17 39 ba b5 16 d2 3c 8b 56 dd 3c 66 2d af 3c
       -0.00070606463 0.025645593 0.027018806 0.021383952
0003b0 90 c5 6b 3c d1 9f 48 bc 79 62 91 bb 02 65 33 3d
       0.014390364 -0.012245134 -0.0044367877 0.0437975
0003c0 55 5a ab 3b c6 61 0f 3d 18 bf c8 bb 17 19 2e 3b
       0.0052292743 0.035005353 -0.006126296 0.0026565248
0003d0 56 ab 1c bc ab 6a d6 bc 7e 74 c5 3c 4b 0d 43 bd
       -0.009562334 -0.02617391 0.0241034 -0.0476201
0003e0 67 d2 a9 3b b2 2f 25 bc 53 1f 9a 3c 63 72 71 bc
       0.0051825526 -0.010082172 0.018813765 -0.014736745
0003f0 4a 73 c7 3c 5a 28 d7 3b e8 bb 93 3c c3 57 b5 3c
       0.024346966 0.0065660896 0.018033937 0.022136575

action_model._continuous_distribution.mu.bias f4 [2]
000000 00 00 00 00 00 00 00 00
       0.0 0.0

action_model._discrete_distribution.branches.0.weight f4 [1, 128]
000000 97 1e 06 bc e5 0f f7 38 00 c6 50 3c df d6 b4 3b
       -0.008186004 0.000117808384 0.012742519 0.0055187787
000010 4f 9e f3 bb af bc d0 3a 3e 0c 9f 3b 2f 6f 90 bb
       -0.0074346433 0.0015925373 0.0048537543 -0.0044077854
000020 fa 6d 9b bb 97 e0 8e 3a 1f 04 ba 3b 40 bc 2d bc
       -0.004743335 0.0010900673 0.005676761 -0.010603964
000030 3b 6f 27 bb d7 02 70 bb 17 00 75 3c 4f 43 05 3c
       -0.0025548476 -0.0036622786 0.014953635 0.008133723
000040 cf de 4f ba 78 c5 5b 3c 38 5b 21 bc 86 8f a7 39
       -0.00079296244 0.013413779 -0.009848408 0.00031959655
000050 e0 ed 51 3c f6 3d 00 3b dc 8c b5 bc 35 88 75 bc
       0.0128130615 0.0019568182 -0.022161894 -0.014986088
000060 8f ca 61 ba 76 b9 83 3b 96 39 36 bb cd d9 ad bc
       -0.00086132524 0.0040199114 -0.002780532 -0.02122202
000070 4a 95 50 3c 5b aa 74 bc 4f e2 c4 3a 8a 5e b7 bb
       0.012730906 -0.014933194 0.0015021058 -0.0055959867
000080 24 35 09 bc 6f 9b ef bb 6a f8 82 3b 69 46 16 bb
       -0.008374486 -0.0073122303 0.0039968984 -0.0022930151
000090 9a c9 29 3c f0 28 50 3c b4 ff 02 3c 02 4a 61 3c
       0.010363007 0.012705073 0.007995535 0.013750555
0000a0 37 00 d7 bb 18 6c cc 3b 4f cc 44 bb 4e 28 bc bb
       -0.006561305 0.0062384717 -0.0030029004 -0.0057421094
0000b0 8d c9 8b 3a f3 b0 ff 3b d9 67 2c bb 31 4a 04 3c
       0.0010664925 0.0078030764 -0.0026307015 0.008074329
0000c0 1b 67 34 bc 60 7c 8f 3b 8b ae 7e bc b8 a1 5d bb
       -0.01101091 0.0043788403 -0.015544544 -0.0033818316
0000d0 73 8b 8f 3c 8a a1 d1 ba a7 36 8b bb 58 16 80 3a
       0.01752255 -0.0015993577 -0.0042484584 0.0009772284
0000e0 6a fe b4 b9 42 47 39 bc a8 91 64 bb 97 d1 23 bb
       -0.0003452183 -0.011308493 -0.0034876857 -0.0024996751
0000f0 32 16 ac bb 95 d8 6c 3b 35 81 d7 bb ed 5e bd 3a
       -0.0052516693 0.0036139835 -0.006576682 0.0014447846
000100 1b 76 bd 3c c3 1a f7 bb 56 46 c6 bb 57 9a 36 3b
       0.023127606 -0.007541032 -0.006050865 0.002786299
000110 27 c0 3d bb 7b 48 45 bc 1f 57 ca bb 45 ca 02 bc
       -0.0028953643 -0.0120412065 -0.0061749364 -0.007982795
000120 82 32 fb ba e7 1f 60 3c 27 7b 5d bc d4 a4 3f 3b
       -0.0019164833 0.013679481 -0.013518131 0.0029242532
000130 c7 e8 c8 bb e3 29 46 bc 44 81 2b 3c 3e 2c 27 bb
       -0.006131265 -0.0120949475 0.010467831 -0.0025508548
000140 cd f8 e7 3b 75 10 23 3a e7 40 1b 3c e4 f2 b9 3a
       0.00707922 0.0006220409 0.009475923 0.0014186767
000150 63 d2 92 3c dc 69 b3 3a 31 c1 01 bb a2 7d 55 3b
       0.017922586 0.0013688165 -0.001979899 0.0032576104
000160 c5 c8 ba 3b 85 de 9a bc 50 d6 4f bc 83 8f b4 3b
       0.005700203 -0.018904934 -0.012685373 0.005510272
000170 b0 32 04 bb aa cf 6e bc 9d c8 5b 3c 97 c7 90 3b
       -0.0020171814 -0.014575878 0.013414529 0.004418324
000180 cd bc 63 bb 52 cb 3c 3c 75 5e 91 bc 61 ca 91 3c
       -0.0034749985 0.011523085 -0.017745236 0.017796697
000190 fb 46 be 3b 3a 3c 74 3a 43 af 10 3b 90 75 fa bb
       0.0058068014 0.0009316836 0.002207712 -0.007643409
0001a0 43 65 18 bb 41 82 95 3b 42 70 8d bb 76 f6 84 3b
       -0.0023253716 0.0045626466 -0.0043163607 0.0040577007
0001b0 1b 65 cb 3a 13 40 9e 3b 4f b6 09 bb d1 ed 3e 3c
       0.0015517803 0.0048294156 -0.0021013205 0.01165338
0001c0 0d e4 07 bc 3d 9a 15 3b 73 ac 1a bc 77 7f 79 3c
       -0.008294118 0.002282753 -0.009440529 0.015228144
0001d0 b1 ad 02 bc 37 07 4b 3c 1b cd 47 bb 85 57 d5 3b
       -0.007975982 0.012391857 -0.0030487243 0.0065106773
0001e0 8f e1 5c 3b 89 ee 89 3a bb b6 84 bc 56 b8 24 3b
       0.003370378 0.001052336 -0.016200414 0.0025134287
0001f0 3d dc 6d 3a 8f 52 96 bc bb 08 c5 ba 1f 9d 63 b8
       0.00090736506 -0.018349914 -0.0015032509 -5.4267348e-05
