Project specific/results/ppo/JumperAgent/JumperAgent-141883.onnx (onnx, 94240 bytes, 8 tensors)

network_body._body_endoder.seq_layers.0.weight f4 [128, 44]
-0.08500826 0.24502504 -0.089870214 -0.10534903 -0.25152072 0.3309499 -0.22587968 0.029853849
-0.1179807 -0.037542805 0.08399979 0.20609155 -0.29188675 0.16791728 0.1882494 -0.102105305
-0.3227535 0.13980107 -0.17655885 0.07422587 0.21041545 -0.09026032 0.06227833 0.23292404
0.043661658 0.17199175 0.0031316134 -0.043864638 -0.078415476 -0.069429114 -0.18706237 0.06890116
0.14043733 0.23870513 0.257757 0.044849563 0.09393454 -0.1398494 -0.006660684 -0.045971386
0.1376948 -0.06730415 -0.0056698103 -0.08844401 0.119620524 -0.15955025 -0.07067002 0.050755035
0.24608634 0.008123865 -0.099541835 -0.12993796 0.15384743 0.094004795 -0.18843514 0.11870215
-0.22150217 0.05248626 0.07563171 -0.038426384 0.20746589 0.20572297 0.038784064 -0.08250682
0.19508807 -0.20007883 0.091410175 -0.17682694 -0.0012007913 -0.042020984 0.16914426 -0.101971
-0.09707764 0.10195655 0.30829805 0.3435625 0.07638491 -0.19927038 -0.13662884 0.011645091
0.081060275 -0.077748336 0.19750848 0.009647846 0.029551167 -0.12497236 -0.0808347 0.019717019
0.04255169 -0.13651232 -0.25295264 -0.021505706 -0.027703065 0.013653481 -0.21328172 0.14183187
0.04655955 -0.009859151 0.1636124 0.03768849 -0.09610907 0.015320732 -0.11795973 -0.3615687
-0.12355759 -0.081064954 0.063939646 -0.06292246 0.079972774 0.27019784 -0.018225633 0.28743976
-0.25219464 0.019255303 -0.0014725036 -0.26462975 -0.19517502 0.11895004 -0.14048329 0.015846845
-0.05653653 -0.16150548 -0.1040423 -0.27787676 0.23172103 -0.05563046 -0.20535815 -0.14117722
0.046645418 -0.1325211 0.0055087577 0.13288158 0.011250572 0.38963312 0.10868891 0.03849781
0.17907606 0.112771355 0.20725407 -0.097447485 -0.0897824 -0.019122703 0.13428545 -0.050452914
0.035375267 0.10447776 0.26727954 0.15631294 0.1671502 -0.0080775665 0.14202483 -0.22066346
-0.112402394 -0.20855473 -0.23090862 -0.0075354795 0.07530477 0.14466164 -0.3498771 -0.027627654
-0.2349247 -0.325655 0.020941341 0.027615363 -0.113581695 0.058087368 0.0053415247 0.1377692
-0.07718933 0.08066851 0.123459205 -0.040428784 -0.16294095 0.048325226 -0.0015559898 -0.032335997
0.05584561 0.10430662 -0.0012352957 -0.18830386 -0.03597771 -0.06557871 0.019460853 0.10778477
-0.018015247 -0.047496654 0.052367825 0.14593999 0.057040356 -0.097081445 0.011383269 0.079771645
-0.16823275 -0.14781481 0.17501937 -0.0033740613 0.011599787 0.1757285 0.06675778 -0.42985076
0.073250175 -0.41525632 -0.19465683 0.15129218 -0.1871519 0.039232153 -0.006639891 -0.08005537
-0.16604057 -0.18108723 -0.098845206 0.08910576 0.0028553826 -0.035790317 -0.10786415 -0.14289407
-0.035309047 -0.052075785 -0.043412425 0.3358113 -0.2184939 -0.085007116 0.2067649 -0.12289377
-0.06365802 -0.065386556 -0.1188849 0.2983793 -0.24030519 -0.25248533 0.042723093 -0.030567328
-0.34450167 0.27488098 0.15944122 -0.13604309 -0.063598424 0.0394879 0.04661305 0.027718367
0.16341388 0.04380148 0.15243927 0.15456377 -0.0064542396 0.16075316 -0.06377052 -0.19176127
0.32458982 0.09987105 0.06212545 0.020378433 -0.098673195 -0.02863465 -0.069580436 -0.019211361
00000000: d018 aebd d8e7 7a3e e00d b8bd 3bc1 d7bd
00000010: 53c7 80be 4472 a93e 014d 67be 0f90 f43c
00000020: de9f f1bd 7cc6 19bd 1508 ac3d aa09 533e
00000030: 2e72 95be 82f2 2b3e 73c4 403e 961c d1bd
00000040: f23f a5be 0328 0f3e d8cb 34be bc03 983d
00000050: 2677 573e 67da b8bd 9017 7f3d a483 6e3e
00000060: 91d6 323d 9b1e 303e c13b 4d3b 68ab 33bd
00000070: 4b98 a0bd da30 8ebd 478d 3fbe 0d1c 8d3d
00000080: cece 0f3e 1e6f 743e baf8 833e 2db4 373d
00000090: c160 c03d ae34 0fbe de41 dabb 7e4c 3cbd
000000a0: deff 0c3e c2d6 89bd d1c9 b9bb 2222 b5bd
000000b0: 9bfb f43d 2461 23be 72bb 90bd 83e4 4f3d
000000c0: 0ffe 7b3e f619 053c 97dc cbbd 750e 05be
000000d0: 2e8a 1d3e 9685 c03d 24f5 40be 1d1a f33d
000000e0: 77d1 62be d5fb 563d cce4 9a3d fc64 1dbd
000000f0: f071 543e 0ba9 523e 0adc 1e3d 56f9 a8bd
00000100: 2bc5 473e 77e1 4cbe 4235 bb3d 1f12 35be
00000110: df63 9dba 321e 2cbd 2734 2d3e 2cd6 d0bd
00000120: a4d0 c6bd 98ce d03d 3ed9 9d3e 6de7 af3e
00000130: b16f 9c3d 890d 4cbe 6ee8 0bbe 0dcb 3e3c
00000140: ee02 a63d 853a 9fbd aa3f 4a3e 0012 1e3c
00000150: 4a15 f23c 82f1 ffbd aa8c a5bd 9685 a13c
00000160: ae4a 2e3d e3c9 0bbe 0283 81be bc2c b0bc
00000170: 8af1 e2bc dab2 5f3c 8666 5abe 603c 113e
00000180: 3ab5 3e3d 4788 21bc 028a 273e 3f5f 1a3d
00000190: d5d4 c4bd cf03 7b3c df94 f1bd 881f b9be
000001a0: c30b fdbd 6205 a6bd caf2 823d 7edd 80bd
000001b0: c4c8 a33d 5f57 8a3e ec4d 95bc 4e2b 933e
000001c0: a81f 81be 4cbd 9d3c 0601 c1ba 8d7d 87be
000001d0: f6db 47be 149c f33d dada 0fbe 3ed1 813c
000001e0: d992 67bd b161 25be 2114 d5bd dd45 8ebe
000001f0: 4748 6d3e c4dc 63bd 6849 52be c390 10be
00000200: 440f 3f3d 9cb3 07be cf82 b43b 1c12 083e
00000210: 5254 383c fe7d c73e 4b98 de3d e1af 1d3d
00000220: b75f 373e abf4 e63d 693a 543e 8c92 c7bd
00000230: d6df b7bd 37a7 9cbc 2082 093e b7a7 4ebd
00000240: a8e5 103d 70f8 d53d ddd8 883e 8010 203e
00000250: 6c29 2b3e c557 04bc f56e 113e 9af5 61be
00000260: 3a33 e6bd 5f8f 55be 4f73 6cbe 2fec f6bb
00000270: 6339 9a3d 2e22 143e 1723 b3be 6453 e2bc
00000280: 1a90 70be 41bc a6be 2d8d ab3c 9d39 e23c
00000290: 859d e8bd 05ed 6d3d f507 af3b 5f13 0d3e
000002a0: 7015 9ebd 8835 a53d 2ed8 fc3d a798 25bd
000002b0: fed9 26be acf0 453d 5bf2 cbba c072 04bd
000002c0: 5ebe 643d b69e d53d a5e9 a1ba bad2 40be
000002d0: 5d5d 13bd 214e 86bd 5e6c 9f3c 43be dc3d
000002e0: b694 93bc da8b 42bd a57f 563d 4b71 153e
000002f0: 26a3 693d a3d2 c6bd e480 3a3c 515f a33d
00000300: 3545 2cbe c45c 17be 4738 333e 5b1f 5dbb
00000310: 080d 3e3c 2cf2 333e 4eb8 883d 6615 dcbe
00000320: 3004 963d 7a9c d4be 1f54 47be 56ec 1a3e
00000330: bfa4 3fbe e5b1 203d 7193 d9bb 12f4 a3bd
00000340: 8a06 2abe ee6e 39be 5b6f cabd 157d b63d
00000350: 5f21 3b3b de98 12bd e1e7 dcbd d352 12be
00000360: 38a0 10bd 6b4d 55bd 3ad1 31bd 75ef ab3e
00000370: ddbc 5fbe 3618 aebd 2eba 533e bbaf fbbd
00000380: 235f 82bd 63e9 85bd ed79 f3bd 2cc5 983e
00000390: 9012 76be c245 81be 69fe 2e3d 5568 fabc
000003a0: 8662 b0be 33bd 8c3e 8f44 233e e14e 0bbe
000003b0: e43f 82bd 10be 213d 53ed 3e3d a111 e33c
000003c0: f855 273e 2e69 333d 0a19 1c3e f745 1e3e
000003d0: 167e d3bb 7a9c 243e 1e9a 82bd 115d 44be
000003e0: a330 a63e 3189 cc3d 4177 7e3d acf0 a63c
000003f0: 2c15 cabd 3793 eabc 3080 8ebd 2561 9dbc

network_body._body_endoder.seq_layers.0.bias f4 [128]
0.008126776 0.007716195 -0.008524267 0.0032247647 -0.00717333 0.0031018055 -0.006867563 0.0040502464
0.00033297297 -0.0117289405 -0.0018767867 -0.003929712 0.00060944445 -0.020417586 -0.013064718 0.002614572
0.0019247432 0.009153514 -0.0077951695 -0.0004890799 -0.0049162493 -0.011251777 -0.0011517142 -0.009784799
0.007814903 0.012117852 0.003922825 -0.010276954 -0.0022064764 0.006348906 0.010746865 -0.009730214
-0.004125686 0.01596181 -0.0031516051 -0.0072445967 8.837968e-05 0.014927307 -0.010582845 0.0132931955
-0.0072842753 0.005165986 0.012152877 -0.009074442 -0.0033651502 0.0038120092 -0.01551394 -0.006008833
0.0074622347 -0.014146374 0.0068635 0.0083150305 -0.010546449 -0.0062028794 -0.010571047 -0.004953772
-0.0053937873 0.0091973515 -0.007020436 -0.011325394 0.009772056 0.007472441 -0.0056126425 0.0061313184
-0.007872199 0.0026975796 -0.009326499 -0.008200895 0.015238454 -0.0025821677 0.00044517338 0.0058552925
0.003118003 0.012486556 0.008475359 0.0162085 -0.004079981 0.010486016 -0.005340511 -0.011434453
-0.0029650065 0.004200262 0.008950397 -0.010410778 -0.006482883 0.0045453655 -0.005433208 0.014248636
-0.0038581633 0.010074337 -0.009181012 0.0016356154 -0.0073647797 -0.008539478 0.009368812 0.002792397
0.0038380763 -0.007025937 -0.01171903 0.010940689 0.0038684506 0.011519205 -0.005183865 -0.007200376
0.00608021 -0.002555642 -0.0061522205 -0.0016227635 0.003354496 0.007644749 -0.0019062128 0.0041137803
0.005321442 0.006464948 -0.0065244883 0.002555836 -0.0053574997 -0.0023065628 0.0042274827 -0.00040201365
0.009903797 0.0037601073 0.009703096 -0.00012785943 0.008647557 -0.008438701 0.009933802 -0.009683893
00000000: 2b26 053c 23d8 fc3b 5ea9 0bbc 9356 533b
00000010: 410e ebbb a947 4b3b 4b09 e1bb eeb7 843b
00000020: e092 ae39 be2a 40bc 83fe f5ba d0c4 80bb
00000030: 20c3 1f3a c842 a7bc 660d 56bc 3d59 2b3b
00000040: aa47 fc3a 9ff8 153c 9f6e ffbb 9935 00ba
00000050: 7d18 a1bb 6059 38bc 1ef5 96ba 6c50 20bc
00000060: 140a 003c f589 463c 0b8b 803b ab60 28bc
00000070: 889a 10bb 7c0a d03b 9e13 303c 7a6b 1fbc
00000080: c330 87bb 57c2 823c 298b 4ebb 1564 edbb
00000090: 7b58 b938 aa91 743c ab63 2dbc b4cb 593c
000000a0: eeb0 eebb 6e47 a93b dc1c 473c f8ac 14bc
000000b0: da89 5cbb e7d2 793b 2e2e 7ebc bfe5 c4bb
000000c0: c385 f43b 31c6 67bc 36e7 e03b c43b 083c
000000d0: 03cb 2cbc 8641 cbbb 2f32 2dbc 4053 a2bb
000000e0: 5ebe b0bb 7db0 163c b00b e6bb 258e 39bc
000000f0: f91a 203c 61db f43b 42ea b7bb 3ae9 c83b
00000100: 65fa 00bc e0c9 303b 2cce 18bc 0c5d 06bc
00000110: b5aa 793c 9639 29bb 2966 e939 c1dd bf3b
00000120: 6957 4c3b 6994 4c3c 3bdc 0a3c b0c7 843c
00000130: 5cb1 85bb 8acd 2b3c 74ff aebb 9257 3bbc
00000140: 8e50 42bb 5aa2 893b b0a4 123c f891 2abc
00000150: 5d6e d4bb 4af1 943b 0d09 b2bb 1c73 693c
00000160: 3dd9 7cbb d50e 253c f56b 16bc 2562 d63a
00000170: 4054 f1bb 2be9 0bbc a57f 193c a600 373b
00000180: 3c88 7b3b d539 e6bb 2d01 40bc 9340 333c
00000190: d585 7d3b 0cbb 3c3c 69dd a9bb 22f1 ebbb
000001a0: 803c c73b 8f7c 27bb 9198 c9bb e8b2 d4ba
000001b0: 1bd7 5b3b cd80 fa3b e3d9 f9ba e4cc 863b
000001c0: 7e5f ae3b ead7 d33b 60cb d5bb d07f 273b
000001d0: f78d afbb b429 17bb b286 8a3b 5cc5 d2b9
000001e0: 8943 223c 226c 763b bcf9 1e3c 0112 06b9
000001f0: 7cae 0d3c 7a42 0abc 63c1 223c 31a9 1ebc

network_body._body_endoder.seq_layers.2.weight f4 [128, 128]
-0.025268205 0.02480739 -0.01419171 0.07324813 -0.19999777 -0.12234027 0.042704023 -0.09007485
-0.007618384 -0.086998105 0.011463214 -0.00838628 -0.10336434 -0.07213176 0.02826413 0.013432369
-0.03875792 -0.049493305 0.029807242 0.041139875 0.004198306 0.078765884 -0.1315039 0.010344737
0.027910791 0.0564734 0.081591256 -0.06112908 0.017033124 -0.018167129 0.05649655 -0.20196083
0.10526596 -0.049283687 -0.05245929 -0.19308281 -0.070142314 0.13265428 -0.04382274 0.03417589
0.025441607 0.012084142 -0.016034922 -0.08888723 0.18830383 -0.17835721 -0.1339033 -0.0030976385
0.11218057 -0.004489639 -0.15735033 0.057084598 0.08600783 -0.11385117 0.055413175 -0.1233311
-0.0050768172 -0.008105244 0.10946571 -0.14271753 -0.0062550637 0.06244587 -0.060695123 0.030942732
0.04948621 -0.076558456 0.0070654284 -0.07308667 0.14136554 -0.21340916 0.050277594 0.15312107
0.121156015 0.090038344 -0.00019424554 0.09040587 -0.11221992 0.019045847 -0.054399766 0.036401033
0.0015406233 0.12270773 0.027930075 0.02557247 0.0731034 -0.048148084 0.12715887 0.08082142
-0.08802385 0.12126411 -0.093004905 -0.015329342 -0.04482348 -0.21438062 0.12023004 -0.033791587
0.031469062 0.014422148 -0.018614572 -0.032328416 0.13096565 0.038536094 0.033382643 0.0026851976
0.15972605 -0.13870037 0.03437292 0.009092857 0.0067560477 0.21782675 -0.058066342 0.1042722
0.12661508 0.20985052 -0.051274985 0.13356425 -0.05584481 0.024888283 -0.047266036 0.053153478
0.03740945 -0.097452044 0.041199196 0.01817118 -0.070971034 -0.08917314 -0.04077293 -0.23395838
-0.104587756 0.043568186 -0.10151837 0.042689007 -0.022537049 0.17029749 0.03130822 -0.035919897
0.037858136 -0.028145652 -0.04355685 -0.042466614 0.09494391 0.045852248 -0.043198932 0.031026855
-0.012100136 -0.058751643 -0.05635948 0.020413177 0.03011748 -0.02064882 0.07701934 0.08119787
0.17407125 0.1470539 -0.10978513 0.060548052 -0.0745325 -0.021597058 -0.02714885 0.03057611
-0.09949032 -0.05706057 -0.030008446 -0.115553506 0.015955407 -0.022814639 0.12869157 -0.0042280694
0.08088149 -0.061779868 0.12737828 -0.08290779 -0.05505381 -0.015580687 0.017010584 -0.019955615
-0.11634737 0.037876446 0.0426273 -0.20657286 -0.061517585 -0.046872027 0.0684432 -0.011389467
0.09655187 -0.02490467 -0.16609117 -0.15895647 -0.16164798 -0.028726846 0.028984586 -0.13020425
0.0072907265 0.06904658 0.10930413 0.11099495 -0.040511876 -0.12247363 0.16559505 -0.0035976581
0.1496341 -0.034445077 0.035528548 0.13953732 0.0026743494 -0.05102673 0.057529617 -0.14778173
-0.035027787 0.06988019 -0.15746708 -0.0017526266 0.047038198 0.050614256 0.016527161 -0.16736436
-0.016745426 0.1351846 -0.07860984 -0.091619164 -0.077439204 -0.07419017 0.20420392 -0.2141773
0.07915224 0.060703974 -0.039468434 0.08591067 -0.095906615 -0.09501357 0.07459652 0.1692608
-0.09682685 0.1165462 -0.01313008 -0.002451676 -0.048733797 -0.00027667495 0.08205715 -0.25993803
0.012922192 0.08990321 0.10888558 0.092333555 -0.016660089 0.053703234 -0.06136049 -0.016192717
-0.0020440486 0.05914646 0.05471994 -0.06040728 0.073315345 0.017146196 -0.16614988 -0.090920046
00000000: 44ff cebc de38 cb3c 5984 68bc 1e03 963d
00000010: 37cc 4cbe 898d fabd 6aea 2e3d 2a79 b8bd
00000020: a3a3 f9bb 102c b2bd 34d0 3b3c 9c66 09bc
00000030: afb0 d3bd d1b9 93bd 2d8a e73c 7013 5c3c
00000040: a0c0 1ebd 7eb9 4abd 512e f43c 4982 283d
00000050: f191 893b 0250 a13d f5a8 06be f97c 293c
00000060: 2ca5 e43c a750 673d 5119 a73d 7c62 7abd
00000070: 0d89 8b3c 3bd3 94bc ed68 673d d2ce 4ebe
00000080: ae95 d73d b1dd 49bd 8ddf 56bd 80b7 45be
00000090: c6a6 8fbd 86d6 073e 797f 33bd 05fc 0b3d
000000a0: eb6a d03c 91fc 453c ab5b 83bc 820a b6bd
000000b0: b8d2 403e 46a3 36be f21d 09be c001 4bbb
000000c0: edbe e53d d21d 93bb 7220 21be 8ad1 693d
000000d0: e024 b03d cd2a e9bd edf8 623d 0495 fcbd
000000e0: 6e5b a6bb dbcb 04bc 8f2f e03d 8b24 12be
000000f0: 47f7 ccbb 3ec7 7f3d 739b 78bd 9d7b fd3c
00000100: 0db2 4a3d aeca 9cbd 1c85 e73b 77ae 95bd
00000110: 21c2 103e ee87 5abe e1ef 4d3d c5cb 1c3e
00000120: a520 f83d 0666 b83d 64ae 4bb9 b626 b93d
00000130: 8fd3 e5bd 0906 9c3c 4ad2 5ebd 4019 153d
00000140: bdee c93a 314e fb3d 9dcd e43c 5b7d d13c
00000150: 3cb7 953d ed36 45bd ef35 023e b385 a53d
00000160: d945 b4bd 5159 f83d 5b79 bebd ec27 7bbc
00000170: d398 37bd 9886 5bbe 2b3b f63d 0c69 0abd
00000180: b4e5 003d df4a 6c3c 967d 98bc cd6a 04bd
00000190: dc1b 063e 06d8 1d3d 3dbc 083d 24fa 2f3b
000001a0: 3a8f 233e 7807 0ebe 9eca 0c3d 35fa 143c
000001b0: d661 dd3b fa0d 5f3e f9d6 6dbd aa8c d53d
000001c0: 62a7 013e 0ee3 563e b805 52bd 11c5 083e
000001d0: 87bd 64bd 83e2 cb3c 089a 41bd 76b7 593d
000001e0: a73a 193d f094 c7bd 7dc0 283d badb 943c
000001f0: 4359 91bd 68a0 b6bd 8401 27bd c992 6fbe
00000200: 1b32 d6bd 8e74 323d dde8 cfbd abda 2e3d
00000210: 9e9f b8bc 7762 2e3e 0c3d 003d be20 13bd
00000220: 2211 1b3d b691 e6bc ab68 32bd 79f1 2dbd
00000230: f471 c23d 91cf 3b3d 5df1 30bd 082c fe3c
00000240: a63f 46bc 90a5 70bd 33d9 66bd 8939 a73c
00000250: efb8 f63c b727 a9bc 51bc 9d3d 124b a63d
00000260: bc3f 323e 4c95 163e 07d7 e0bd 3c01 783d
00000270: 7fa4 98bd 50ec b0bc 4467 debc c07a fa3c
00000280: 95c1 cbbd 58b8 69bd 46d4 f5bc 51a7 ecbd
00000290: eab4 823c c4e5 babc b9c7 033e 9e8b 8abb
000002a0: 32a5 a53d e30c 7dbd 746f 023e 8fcb a9bd
000002b0: 1b80 61bd 2346 7fbc c859 8b3c f579 a3bc
000002c0: 8847 eebd 5524 1b3d f799 2e3d d687 53be
000002d0: ddf9 7bbd e2fc 3fbd f32b 8c3d e39a 3abc
000002e0: fdbc c53d e104 ccbc ce13 2abe 7cc5 22be
000002f0: 0c87 25be 9054 ebbc 1571 ed3c 4354 05be
00000300: 0ce7 ee3b 4b68 8d3d d8da df3d 5251 e33d
00000310: c8ef 25bd 74d3 fabd c091 293e b0c6 6bbb
00000320: ae39 193e 4816 0dbd 6286 113d dfe2 0e3e
00000330: 2344 2f3b 6801 51bd 2da4 6b3d 1854 17be
00000340: 4c79 0fbd 581d 8f3d 0d3f 21be 64b8 e5ba
00000350: 20ab 403d e550 4f3d f863 873c 9061 2bbe
00000360: b42d 89bc d56d 0a3e 32fe a0bd d4a2 bbbd
00000370: 7298 9ebd 04f1 97bd d51a 513e 4b51 5bbe
00000380: 921a a23d bba4 783d a7a9 21bd eff1 af3d
00000390: b06a c4bd 7996 c2bd 0fc6 983d b452 2d3e
000003a0: 284d c6bd c6af ee3d 8c1f 57bc 4cac 20bb
000003b0: 179d 47bd af0e 91b9 940d a83d 9916 85be
000003c0: 9ab7 533c 2d1f b83d 67ff de3d 6019 bd3d
000003d0: bd7a 88bc ecf7 5b3d 2355 7bbd 97a6 84bc
000003e0: 72f5 05bb 8f43 723d 0422 603d a06d 77bd
000003f0: 5b26 963d 2e76 8c3c 3223 2abe 4a34 babd

network_body._body_endoder.seq_layers.2.bias f4 [128]
0.011820797 -0.0042461394 0.0029927911 -0.009944122 -0.00843103 0.002836655 0.009406454 0.014453224
0.010115779 -0.0020340106 0.0069375727 -0.0110440515 -0.007779116 -0.009564829 0.0063058254 0.00578676
-0.008765866 0.0055289357 -0.008116467 0.010965765 0.011066985 0.0068701454 0.0063618924 -0.009489504
-0.0022440462 0.0020424938 0.011611825 0.0059659854 0.0015871366 0.012164672 0.012553629 -0.00012375426
-0.005890775 -0.0114501715 0.007004728 0.012057783 -0.009955456 0.012189233 -0.009175882 0.010340345
-0.0059370934 0.010733559 0.005564603 -0.006358728 -0.0036927755 -0.0018701752 -0.008427053 -0.0019388683
-0.010644848 0.010298405 -0.0003700942 0.006879841 -0.0044473037 0.006625489 0.004752681 0.0128150005
-0.005682314 0.0011543036 0.006849906 -0.011225163 0.0037604237 -0.0012515541 -0.0061043617 -4.9671868e-05
-0.011133175 -0.0015468514 -0.010978873 -0.0005032385 0.0003363553 -0.009445237 -0.007345803 -0.0050458233
-0.013232915 0.010771679 -0.0075901924 0.0059742373 0.012822743 -0.00037609547 0.011510299 0.0029994438
0.006831758 -0.010476639 -0.009964256 -0.00035646188 0.010494523 0.0126645295 -0.0037424609 -0.009497906
0.013483129 0.0075207404 -0.009593531 0.006717396 -0.012074492 -0.010208795 -0.0068046944 0.009225552
-0.0026920196 -0.002037864 0.005574222 -0.01106887 0.004306935 0.00030128335 -0.0043204892 0.0042739687
-0.0033056133 -0.002101612 -0.009771945 0.0084945755 -0.0068973675 -0.010404245 0.007254059 0.0065771486
0.007984216 0.0010302354 0.005265722 -9.830678e-05 -0.0050534266 -0.006155026 0.0072448803 -0.0112376725
0.0037756162 -0.005017764 -0.011893152 -0.005744858 0.0037718527 -0.0067189415 0.012905356 -0.003730095
00000000: 04ac 413c 3323 8bbb b422 443b acec 22bc
00000010: 4e22 0abc 2ce7 393b 871d 1a3c 37cd 6c3c
00000020: a7bc 253c 094d 05bb 9454 e33b 1cf2 34bc
00000030: f4e7 febb cdb5 1cbc 19a1 ce3b dc9e bd3b
00000040: b59e 0fbc 132c b53b eefa 04bc c1a9 333c
00000050: 4d52 353c f51e e13b 6c77 d03b dd79 1bbc
00000060: d910 13bb 5cdb 053b 863f 3e3c 507e c33b
00000070: 7807 d03a 554e 473c bdad 4d3c 08c4 01b9
00000080: 6707 c1bb 8099 3bbc eb87 e53b 028e 453c
00000090: 351c 23bc 59b5 473c 7056 16bc 8d6a 293c
000000a0: f38b c2bb cfdb 2f3c 4657 b63b e05c d0bb
000000b0: 7e02 72bb ab20 f5ba 9f11 0abc a021 feba
000000c0: bb67 2ebc a4ba 283c 3409 c2b9 4a70 e13b
000000d0: b0ba 91bb a11a d93b 61bc 9b3b 02f6 513c
000000e0: b432 babb 004c 973a 2d75 e03b bfe9 37bc
000000f0: 7171 763b 300b a4ba 1907 c8bb c356 50b8
00000100: ec67 36bc b8bf caba bbe0 33bc c4eb 03ba
00000110: d858 b039 32c0 1abc 10b5 f0bb 6f57 a5bb
00000120: dece 58bc b27b 303c 26b7 f8bb 89c3 c33b
00000130: 7b16 523c ae2e c5b9 b195 3c3c 5192 443b
00000140: f1dc df3b 35a6 2bbc 1e41 23bc 81e3 bab9
00000150: 38f1 2b3c e37e 4f3c 1344 75bb 1b9d 1bbc
00000160: 58e8 5c3c 8b70 f63b 2f2e 1dbc 9a1d dc3b
00000170: 17d4 45bc ca42 27bc eaf9 debb c526 173c
00000180: 986c 30bb af8d 05bb f7a7 b63b 355a 35bc
00000190: 3021 8d3b 91f5 9d39 e492 8dbb a60c 8c3b
000001a0: fda2 58bb 33bb 09bb 821a 20bc d52c 0b3c
000001b0: 5003 e2bb 9176 2abc 75b3 ed3b 1f85 d73b
000001c0: 3bd0 023c f708 873a 148c ac3b 0d2a ceb8
000001d0: 3797 a5bb 1ab0 c9bb 7666 ed3b 371e 38bc
000001e0: 5470 773b 0e6c a4bb 7fdb 42bc 5d3f bcbb
000001f0: 3031 773b 912a dcbb fc70 533c 9c74 74bb

action_model._continuous_distribution.log_sigma f4 [1, 2]
0.006381585 0.011959862
00000000: 9d1c d13b 4cf3 433c

action_model._continuous_distribution.mu.weight f4 [2, 128]
0.03179219 -0.0025265235 0.0029260914 -0.023649814 -0.030217322 -0.0014845383 0.020259226 0.012587692
0.019642726 0.0035729606 0.013703708 -0.037469044 -0.009907612 -0.019231508 0.01679191 0.010999797
-0.011241961 0.006033321 -0.007928947 0.0035732405 0.032103047 0.0047724457 0.008270627 -0.025291866
0.00046941245 -0.0038672218 0.03308161 0.0075114644 -0.0043378333 0.04174504 0.046678115 -0.0056957295
-0.02035955 -0.02014654 0.015215553 0.055338938 -0.054635447 0.024914397 -0.017532015 0.020233683
-0.028440202 0.042713206 0.020017125 -0.024287302 -0.011668702 0.0060816305 -0.019149559 0.006641342
-0.032196973 0.019321466 -0.0076202923 0.017148279 -0.022791568 0.026541505 0.007403011 0.032110874
-0.0073755304 -0.011233259 0.021065932 -0.008704706 0.009430961 -0.00277353 -0.030876765 0.0044076634
-0.03447995 0.005862714 -0.026492266 -0.011397914 -0.010854796 -0.027029792 -0.039175153 -0.007901584
-0.015750825 0.010254267 -0.026215669 0.02394439 0.024662359 0.0013399682 0.015482199 0.0038744034
0.03510899 -0.041603703 -0.020603862 0.0020004066 0.011128211 0.034895595 -0.0017564299 -0.045964945
0.030682655 0.0026501205 -0.019119086 0.033147994 -0.011883848 -0.062155046 -0.0059632882 0.030385064
-0.023099672 -0.0023430863 0.007663764 -0.024147963 0.010804727 -0.003311374 0.003467493 0.022227585
-0.01163675 0.011043956 -0.017942568 0.042029493 -0.040971518 -0.011724713 0.010867152 0.010769007
0.019151637 0.004759396 0.005634401 0.012493408 -0.028111296 -0.0108807925 0.021877034 -0.027367728
0.007865423 -0.007469656 -0.027520426 -0.020406723 0.002375596 -0.005276315 0.04707238 -0.0051828725
0.02772931 -0.02096299 0.033145696 -0.0028697175 -0.02343343 0.0197774 0.004654126 0.0075516934
0.02051965 -0.04352521 -0.0043431157 -0.021995367 -0.027293617 -0.013330889 -0.011648319 0.0308471
-0.014889024 -0.004563393 -0.01325785 0.011725297 0.009016204 0.022824742 0.015233882 0.0009351343
-0.030173548 0.017968208 0.021484159 0.04401591 0.001649105 0.01119931 0.010311658 0.033588447
-0.03128508 -0.008525069 0.02756754 -0.0050318367 -0.044377767 0.00761345 -0.01595161 0.030668674
0.017098336 -0.0034427955 -0.027418822 -0.024947587 0.014842812 -0.0082406765 -0.020240337 -0.016593438
-0.016535802 0.015576887 0.03672529 -0.012527995 0.009913429 -0.004858759 0.027257374 0.02074429
-0.010864174 0.043463804 -0.004681307 -0.0010665869 0.038573124 -0.015673716 0.014401388 0.001996006
-0.016203264 -0.010127494 -0.013703758 0.010856721 0.03369452 -0.027162783 0.01185201 -0.035171248
-0.0043876017 0.030959701 0.0111301625 -0.006798099 0.02142966 -0.023994641 0.013781635 -0.007050232
-0.011486297 -0.0028849617 -0.020257296 -0.02281651 -0.0017080962 0.008818092 -0.005496946 0.0019943088
0.0106199775 0.014773132 0.0039588283 -0.021826224 -0.006161249 -0.028746333 -0.014539707 -0.011030154
0.027208293 -0.0124682775 0.038999423 -0.0022592677 -0.006037024 0.019183217 -0.019733075 -0.025550842
0.020120969 -0.036145054 -0.010014095 -0.012894793 0.02089329 -0.00048494604 -0.003211234 -0.004901754
-0.005121033 -0.01605429 0.039235152 -0.015105027 0.029222304 0.0003017708 -0.005191941 -0.0047557764
-0.011043568 -0.018424029 -0.0070958147 0.020205565 0.041575864 -0.020164369 -0.0032413334 -0.013808411
00000000: 8738 023d 0894 25bb abc3 3f3b 41bd c1bc
00000010: 518a f7bc d794 c2ba adf6 a53c 9b3c 4e3c
00000020: c8e9 a03c 5528 6a3b 8485 603c 2479 19bd
00000030: 8953 22bc 658b 9dbc 308f 893c 7e38 343c
00000040: 3430 38bc 2ab3 c53b 6ae8 01bc 072d 6a3b
00000050: 7c7e 033d 2d62 9c3b 8681 073c e330 cfbc
00000060: 791b f639 3771 7dbb 9580 073d bb22 f63b
00000070: 6224 8ebb d9fc 2a3d 8d31 3f3d 3ea3 babb
00000080: 12c9 a6bc 5b0a a5bc a84a 793c 15ab 623d
00000090: 6bc9 5fbd 4719 cc3c 4d9f 8fbc 1cc1 a53c
000000a0: 6dfb e8bc 0bf4 2e3d f4fa a33c 2af6 c6bc
000000b0: 152e 3fbc 6a48 c73b 89df 9cbc 9d9f d93b
000000c0: f9e0 03bd 0d48 9e3c a5b3 f9bb 8c7a 8c3c
000000d0: 62b5 babc 926d d93c f594 f23b b186 033d
000000e0: 6fae f1bb b40b 38bc 7692 ac3c 2f9e 0ebc
000000f0: 5184 1a3c 1dc4 35bb 45f1 fcbc 296e 903b
00000100: d93a 0dbd 021c c03b 4f06 d9bc 51be 3abc
00000110: 50d8 31bc 956d ddbc 2076 20bd a575 01bc
00000120: e007 81bc 8301 283c 3ec2 d6bc 0627 c43c
00000130: b708 ca3c dfa1 af3a 0da9 7d3c b4e9 7d3b
00000140: 72ce 0f3d a568 2abd 6ec9 a8bc 4119 033b
00000150: 1a53 363c afee 0e3d 0238 e6ba bd45 3cbd
00000160: 315a fb3c a5ad 2d3b a19f 9cbc 31c6 073d
00000170: 79b4 42bc 4a96 7ebd b067 c3bb 19ea f83c
00000180: 863b bdbc 778e 19bb 5020 fb3b f3d1 c5bc
00000190: 4f06 313c a303 59bb e13e 633b a016 b63c
000001a0: 11a8 3ebc b5f1 343c 4bfc 92bc 1e27 2c3d
000001b0: c0d1 27bd 0319 40bc 240c 323c 7d70 303c
000001c0: e5e3 9c3c b5f4 9b3b c8a0 b83b 27b1 4c3c
000001d0: a949 e6bc 5a45 32bc 7737 b33c 4932 e0bc
000001e0: fadd 003c 04c4 f4bb 8472 e1bc 002c a7bc
000001f0: e3af 1b3b f0e4 acbb f8ce 403d 16d5 a9bb
00000200: 9428 e33c 94ba abbc c8c3 073d df11 3cbb
00000210: 77f7 bfbc 3704 a23c a381 983b 3274 f73b
00000220: d318 a83c 7e47 32bd b250 8ebb a12f b4bc
00000230: dd96 dfbc cd69 5abc 97d8 3ebc 0fb3 fc3c
00000240: 18f1 73bc 8488 95bb 7437 59bc 761b 403c
00000250: b3b8 133c f4fa ba3c 8897 793c cd23 753a
00000260: 842e f7bc 1032 933c 8cff af3c 074a 343d
00000270: c826 d83a 507d 373c 3af2 283c 0a94 093d
00000280: c924 00bd bbac 0bbc 52d5 e13c 1be2 a4bb
00000290: 76c5 35bd 3f7a f93b f3ac 82bc df3c fb3c
000002a0: cf11 8c3c 86a0 61bb 709d e0bc e25e ccbc
000002b0: 442f 733c e703 07bc 10cf a5bc f6ee 87bc
000002c0: 1776 87bc 3336 7f3c 426d 163d 3842 4dbc
000002d0: ef6b 223c 3a36 9fbb db4a df3c eeef a93c
000002e0: a6ff 31bc 1a07 323d a665 99bb b8cc 8bba
000002f0: dafe 1d3d 2a66 80bc cdf3 6b3c 6ccf 023b
00000300: b5bc 84bc caed 25bc ba85 60bc 63e0 313c
00000310: 4403 0a3d 7c84 debc ef2e 423c ba0f 10bd
00000320: dfc5 8fbb 339f fd3c 495b 363c 96c2 debb
00000330: 418d af3c 6990 c4bc 5ecc 613c a205 e7bb
00000340: 0531 3cbc a011 3dbb a1f2 a5bc b1e9 babc
00000350: 33e2 dfba c279 103c ba1f b4bb f3b2 023b
00000360: 6aff 2d3c 020b 723c 0fb9 813b e9cc b2bc
00000370: 4de4 c9bb 6e7d ebbc f437 6ebc d2b7 34bc
00000380: ede3 de3c bf47 4cbc dcbd 1f3d 3910 14bb
00000390: 3ad2 c5bb 1f26 9d3c 42a7 a1bc 0050 d1bc
000003a0: bbd4 a43c d60c 14bd 2912 24bc af44 53bc
000003b0: 6828 ab3c 5b40 feb9 9173 52bb e59e a0bb
000003c0: 57ce a7bb 4984 83bc 0ab5 203d 137b 77bc
000003d0: 9d63 ef3c fe36 9e39 2821 aabb 58d6 9bbb
000003e0: 15f0 34bc fded 96bc 0284 e8bb 2486 a53c
000003f0: 744b 2a3d bf2f a5bc 8d6c 54bb ac3c 62bc

action_model._continuous_distribution.mu.bias f4 [2]
0.011117909 0.003485153
00000000: e427 363c 2a67 643b

action_model._discrete_distribution.branches.0.weight f4 [1, 128]
-0.0045209196 0.0047420426 -0.0025650905 0.0078121633 -0.003136372 -0.011264306 0.010164382 -0.010171685
0.0001632559 0.0057239686 0.005417747 -0.0034532584 -0.0064285337 0.008508413 0.0073276707 -0.007833921
0.0039526015 -0.0045661125 0.014668318 0.012450638 -0.0009181479 0.014329987 0.00053457444 0.010618716
-0.0060131825 -0.002411006 -0.0123545015 -0.00870006 0.017720671 0.00045249175 -0.0046944735 -0.005424212
0.0024036134 0.019814478 -0.0071583907 0.00504045 -0.010913891 -0.014682256 0.0037125405 0.0063638166
0.006417399 -0.013906705 -0.0025752764 -0.0030800079 0.0055696475 -0.012874928 0.004379257 -0.012910657
-0.0035844434 0.014200275 0.0078013428 0.00039722337 0.002837053 -0.002288112 -0.016605502 0.012348291
-0.010140394 -0.0035144493 -0.006003154 0.005903378 -0.004923524 -0.0023344855 -0.0064088316 -0.0044776704
-0.0016925046 0.008980105 0.004074108 -0.010164105 0.009490288 -0.0017504267 -2.3042498e-05 -0.0070064026
0.014782458 0.015923526 0.0075494954 0.000788775 -0.0028188773 -0.0076538245 0.0061760326 -0.0007754493
-0.0028203265 0.0053278306 0.008670925 -0.012255416 0.006387753 -0.0053565917 0.012731524 -0.00504044
0.013487137 -0.01093258 0.0010358755 -0.011725225 -0.011420847 0.02134031 0.006217839 0.0020969354
0.010115799 0.0057956353 -0.004759526 -0.0018103278 -0.00011917277 0.009080642 -0.0040435833 -0.007104502
0.0073426813 -0.010951033 -0.004044168 0.023805704 -0.00903896 -0.008203092 0.0013373224 -0.0038100432
0.0018345731 0.0059384564 -0.0017111052 0.004774684 0.002288593 -0.002230918 0.014857279 -0.00078208646
-0.015920611 -0.01934068 -0.004184326 0.0005702354 -0.00056538865 -0.025877804 0.0033013683 0.0009823048
00000000: 3924 94bb 2363 9b3b 141b 28bb 2dfd ff3b
00000010: 978b 4dbb ec8d 38bc 8288 263c 24a7 26bc
00000020: ac2f 2b39 2190 bb3b 5b87 b13b 1050 62bb
00000030: 73a6 d2bb df66 0b3c f51c f03b d959 00bc
00000040: d384 813b 549f 95bb 6353 703c c3fd 4b3c
00000050: ddaf 70ba 52c8 6a3c af22 0c3a 1ffa 2d3c
00000060: 3b0a c5bb f801 1ebb 896a 4abc b28a 0ebc
00000070: f12a 913c 6a3c ed39 19d4 99bb 97bd b1bb
00000080: f185 1d3b f951 a23c ef90 eabb 5c2a a53b
00000090: 2dd0 32bc d88d 70bc 184e 733b 9087 d03b
000000a0: 0b49 d23b f3d8 63bc f8c5 28bb f5d9 49bb
000000b0: 9781 b63b 5df1 52bc df7f 8f3b 3887 53bc
000000c0: fbe8 6abb 45a8 683c 68a2 ff3b 6b42 d039
000000d0: daed 393b 26f4 15bb 4308 88bc 7d50 4a3c
000000e0: e523 26bc ad52 66bb 1bb6 c4bb 2071 c13b
000000f0: 8355 a1bb 2bfe 18bb 2d01 d2bb 6cb9 92bb
00000100: 08d7 ddba 4a21 133c 1880 853b 5987 26bc
00000110: 277d 1b3c 936e e5ba 634b c1b7 f795 e5bb
00000120: 1f32 723c 0e72 823c c261 f73b cbc5 4e3a
00000130: eabc 38bb efcc fabb 5160 ca3b 8647 4bba
00000140: 3ad5 38bb 1595 ae3b 7f10 0e3c f1ca 48bc
00000150: 5b50 d13b 5986 afbb e297 503c 462a a5bb
00000160: 27f9 5c3c 901e 33bc 37c6 873a 281b 40bc
00000170: 811e 3bbc e0d1 ae3c 04bf cb3b bd6c 093b
00000180: bcbc 253c 50e9 bd3b ccf5 9bbb 8548 edba
00000190: 65ec f9b8 f9c6 143c 0980 84bb e2cc e8bb
000001a0: e09a f03b f66b 33bc f184 84bb 2e04 c33c
000001b0: 2518 14bc 4366 06bc 1849 af3a ebb1 79bb
000001c0: 0f76 f03a 6297 c23b 2a47 e0ba f474 9c3b
000001d0: 38fc 153b 9834 12bb f26b 733c ef04 4dba
000001e0: f16b 82bc 5970 9ebc ac1c 89bb da7b 153a
000001f0: 9736 14ba b0fd d3bc c55b 583b aec0 803a
