Project specific/results/ppo/JumperAgent/JumperAgent-10286.pt (torch, 557577 bytes, 39 tensors)

network_body._body_endoder.seq_layers.0.weight f4 [128, 44]
0.058320615 -0.25270796 -0.045194995 -0.35863617 0.07706681 0.052700873 -0.031127775 0.091326654
-0.117897995 0.045573197 -0.12374153 0.078003615 -0.04015335 -0.011425883 -0.18002118 -0.082472056
0.012724704 0.09026068 -0.17604096 0.0009203501 -0.20392027 -0.34446868 -0.05442645 -0.075758815
0.040360887 -0.021703059 0.10340806 -0.016807405 -0.09821914 0.113548756 0.10156649 -0.0691495
0.19280359 0.31016695 0.013447433 0.13119973 0.22986197 -0.08290283 0.035528775 0.100185536
-0.15210204 -0.10139864 -0.09166301 0.20499423 0.058103852 -0.24420066 -0.19226629 0.043034617
-0.45624006 -0.10169877 -0.11724496 0.028840438 -0.47915873 0.031404186 0.09649873 0.08480945
0.030774578 -0.14126629 -0.042121083 0.14685084 -0.08576095 0.21415246 0.037245993 -0.3207144
-0.12659264 -0.029485561 -0.07614055 0.07043718 -0.1955361 -0.048986603 0.2619302 0.0155957965
-0.047592513 0.04873189 -0.13182946 -0.260183 0.10628362 -0.19816281 -0.07316013 -0.035821076
-0.15440398 0.23114151 0.20464972 -0.1266201 0.19285192 0.10245318 0.019675886 -0.019314295
-0.08617063 -0.029436277 0.08649363 -0.33986223 0.0006854659 0.027977977 -0.26290712 0.11276232
0.1470159 -0.0058435826 0.021510517 0.26257062 -0.28997377 0.1160118 0.15349825 0.108893126
-0.19144174 0.022111496 0.15291475 -0.037523735 0.25188068 -0.15073329 -0.1083931 -0.075246684
-0.26653185 0.15453176 -0.05790594 -0.27586833 0.057692077 -0.2412863 0.2950205 0.08171481
-0.14724486 0.019721217 -0.13554153 0.009505181 0.09898605 -0.25094286 0.30354816 0.0050553926
0.18683743 0.055996202 -0.23222898 -0.017096201 0.15821251 -0.08907591 -0.14015499 0.070047714
0.23376296 -0.1042503 0.0533199 -0.09169286 0.12021518 0.012169803 0.03777533 0.044308122
0.04223976 -0.16893542 -0.095337085 0.10963355 0.16666484 -0.10037996 0.0902952 0.09430095
-0.14136729 -0.06966668 0.15492636 -0.123402916 0.0354108 -0.28867146 0.053267967 0.038670458
-0.09891576 -0.01192484 0.13832977 0.20349173 0.00278787 0.18749744 -0.13671957 0.21215679
0.024305368 0.021961104 -0.06582584 0.12243655 0.19079165 -0.06226524 -0.022415511 0.016494347
0.01807929 -0.044333022 -0.09204384 0.040208865 0.1265022 -0.2133613 0.09009598 -0.12505192
0.19215111 0.05564512 0.18939252 0.27378342 0.1672173 0.11355701 -0.16284184 0.07097428
-0.18283486 0.2950649 0.06449469 -0.0020477937 0.059842933 0.26050174 -0.06692602 0.16845861
0.008363298 -0.015208639 -0.014349749 -0.041554473 0.0998366 0.34764233 -0.08499362 -0.036070608
-0.072817616 0.20913948 0.08325084 0.18855348 0.15311387 0.21482114 0.39773467 -0.076314114
-0.027352415 0.2505719 0.052256934 0.1905942 0.051262658 -0.1992276 -0.0918513 -0.3265804
-0.12645787 -0.030500263 0.0010843365 0.044598687 0.14290528 0.17971586 -0.26472047 0.10936917
-0.2277799 0.04884995 0.0314339 -0.12903635 0.14528914 0.10238368 -0.18850043 -0.023516156
-0.16203569 0.013048129 -0.06423963 -0.019464932 0.21611191 -0.015401382 0.06927124 0.23469132
-0.033936534 -0.27549767 0.08414534 -0.013101042 -0.044545017 -0.1376425 -0.29420945 -0.09626402
00000000: 99e1 6e3d f062 81be 631e 39bd 299f b7be
00000010: 34d5 9d3d dfdc 573d adff febc 7809 bb3d
00000020: 8174 f1bd f6aa 3a3d 336c fdbd 5cc0 9f3d
00000030: d777 24bd a033 3bbc 7957 38be 1ce7 a8bd
00000040: 477b 503c 97da b83d 1544 34be a643 713a
00000050: 7ad0 50be 335e b0be 45ee 5ebd 7027 9bbd
00000060: 7551 253d 9dca b1bc 9bc7 d33d afaf 89bc
00000070: 1e27 c9bd 408c e83d 1802 d03d 419e 8dbd
00000080: 4e6e 453e 34ce 9e3e 9f52 5c3c 3959 063e
00000090: f060 6b3e f5c8 a9bd 9f86 113d 132e cd3d
000000a0: a3c0 1bbe 17aa cfbd d1b9 bbbd 02ea 513e
000000b0: 4efe 6d3d bd0f 7abe 74e1 44be 1145 303d
000000c0: 4c98 e9be 7247 d0bd 201e f0bd c842 ec3c
000000d0: 4b54 f5be ada1 003d 20a1 c53d 94b0 ad3d
000000e0: f81a fc3c 1ca8 10be 2887 2cbd 1160 163e
000000f0: 70a3 afbd c84a 5b3e 418f 183d ae34 a4be
00000100: 80a1 01be b48b f1bc 94ef 9bbd 5e41 903d
00000110: 9e3a 48be 2da6 48bd b71b 863e 8385 7f3c
00000120: 5ef0 42bd 179b 473d 4dfe 06be b536 85be
00000130: 3aab d93d 31eb 4abe fad4 95bd 1fb9 12bd
00000140: 141c 1ebe 5cb0 6c3e b28f 513e b3a8 01be
00000150: f97a 453e f9d2 d13d 532f a13c 0339 9ebc
00000160: 3a7a b0bd 5924 f1bc 9323 b13d 6c02 aebe
00000170: d6b0 333a 1232 e53c c39b 86be eeef e63d
00000180: 568b 163e 867b bfbb d336 b03c a86f 863e
00000190: 7177 94be 9897 ed3d a52e 1d3e 5c03 df3d
000001a0: 4e09 44be 2b23 b53c af95 1c3e 7db2 19bd
000001b0: 81f6 803e d459 1abe 34fd ddbd ef1a 9abd
000001c0: dd76 88be 933d 1e3e c72e 6dbd 9d3e 8dbe
000001d0: 874e 6c3d c113 77be ed0c 973e 185a a73d
000001e0: 5bc7 16be 648e a13c 66cb 0abe 9ebb 1b3c
000001f0: 33b9 ca3d 957b 80be aa6a 9b3e b5a7 a53b
00000200: 5052 3f3e 465c 653d 6fcd 6dbe 550d 8cbc
00000210: 7602 223e 6e6d b6bd ca84 0fbe 2d75 8f3d
00000220: 8f5f 6f3e 2e81 d5bd f865 5a3d 77c9 bbbd
00000230: 6033 f63d da63 473c 4eba 1a3d 6f7c 353d
00000240: 9903 2d3d 68fd 2cbe 1740 c3bd 8e87 e03d
00000250: 30aa 2a3e 0294 cdbd b1ec b83d db20 c13d
00000260: 96c2 10be 68ad 8ebd 04a5 1e3e abba fcbd
00000270: ea0a 113d bfcc 93be 832f 5a3d ea64 1e3d
00000280: 5994 cabd 6760 43bc 52a6 0d3e 2360 503e
00000290: b2b4 363b 54ff 3f3e 3700 0cbe a13f 593e
000002a0: 0d1c c73c c6e7 b33c b3cf 86bd 04c0 fa3d
000002b0: e35e 433e d609 7fbd bca0 b7bc 271f 873c
000002c0: 051b 943c 8b96 35bd 7b81 bcbd 0db2 243d
000002d0: cb89 013e 627b 5abe 3e84 b83d 9c0d 00be
000002e0: 43c3 443e 23ec 633d 1df0 413e 572d 8c3e
000002f0: 033b 2b3e 9490 e83d 03c0 26be f75a 913d
00000300: 1039 3bbe bf12 973e cb15 843d 4734 06bb
00000310: dd1d 753d 7c60 853e 8210 89bd 6a80 2c3e
00000320: 3706 093c a82d 79bc 361b 6bbc 0635 2abd
00000330: 2277 cc3d 2dfe b13e 2311 aebd c6be 13bd
00000340: 6721 95bd a928 563e 6b7f aa3d 2a14 413e
00000350: e2c9 1c3e 13fa 5b3e e1a3 cb3e 934a 9cbd
00000360: 2c12 e0bc f64a 803e 5e0b 563d 202b 433e
00000370: cbf8 513d 5202 4cbe 891c bcbd 8c35 a7be
00000380: 2c7e 01be b0db f9bc 4c20 8e3a 1dad 363d
00000390: c355 123e 6f07 383e 7189 87be f2fc df3d
000003a0: 223f 69be e316 483d d5c0 003d 1b22 04be
000003b0: adc6 143e 89ae d13d 4206 41be f4a4 c0bc
000003c0: afec 25be d2c7 553c 1190 83bd ec74 9fbc
000003d0: 714c 5d3e 1456 7cbc 14de 8d3d ec52 703e
000003e0: 0901 0bbd 080e 8dbe 6454 ac3d c1a5 56bc
000003f0: d674 36bd 28f2 0cbe 9fa2 96be 1226 c5bd

network_body._body_endoder.seq_layers.0.bias f4 [128]
0.0038011444 -0.0034823648 0.00048868614 0.0029527985 0.0031316609 -0.004323795 0.004511088 0.0030101612
-0.004012896 -0.0004110774 -0.0036426808 0.0004749764 -0.0044346764 0.0041819117 0.0044063744 -0.0027104588
-0.0032927054 0.0022306948 0.0006308345 -0.0019255397 0.0005769411 -0.0028717108 -0.004312741 0.0035234313
-0.003253133 0.005096954 -0.0034157862 -0.0036115795 -0.0035180731 0.0013255322 -0.0024334032 0.0001173611
0.001473451 -0.0018753402 0.00023486919 -0.001969438 0.0054407394 -0.004349861 -0.0011488764 -0.0007184366
-0.004275771 -0.004022685 0.003205933 -0.0030068627 -0.0023618715 -0.0015756901 0.0052600643 0.0041085603
0.0022369602 0.002640757 0.0031003612 2.3503217e-06 -0.00027689443 0.0032184776 0.0025726445 -0.0030890799
-0.0021372298 -0.0024817279 -0.003719797 -0.0049162535 0.0036247899 0.0053244694 -0.00015719929 0.0015020609
0.002657377 0.0037678217 0.004608112 -0.002956119 -0.0036387418 0.0040002503 0.002320683 0.0030104895
-0.0033921378 -0.005285972 0.0023638867 0.0044700345 0.0036227494 -0.0047614076 -0.0031120195 -0.00048326628
0.0017550047 -0.0015881407 -0.001711468 0.0015267632 -0.002294691 -0.0038060055 0.0010801211 0.001034836
-0.004287891 0.0036774636 0.0025411586 -0.0041886684 0.0016578519 0.003735919 0.001632174 -0.0022012137
-0.0029027842 0.0021366295 -0.001861843 -0.0050857207 -0.003444428 0.003450862 -0.00075018976 -0.0011194783
-0.005195486 0.0018172615 -0.0027350842 0.0026886128 0.0009932343 -0.00030591007 -0.0017348622 0.0016329
0.0023269295 -0.0020043384 0.002535429 0.002371917 0.0037754243 -0.0006646169 0.004320204 0.001915721
-0.0048574987 -0.0027561155 -0.0035319994 -0.0047722845 0.0014698086 0.0028582898 0.0027403235 0.001087924
00000000: 9f1c 793b 6338 64bb 2c1b 003a bd83 413b
00000010: 8d3c 4d3b 9fae 8dbb c0d1 933b 2046 453b
00000020: 9d7e 83bb e085 d7b9 0bba 6ebb 4106 f939
00000030: c350 91bb 6b08 893b 5963 903b f4a1 31bb
00000040: 6eca 57bb d930 123b 965e 253a 6462 fcba
00000050: dd3d 173a 5033 3cbb e551 8dbb 5ee9 663b
00000060: 8432 55bb 5904 a73b 62db 5fbb 40b0 6cbb
00000070: 798f 66bb 7bbd ad3a bb79 1fbb c31f f638
00000080: d020 c13a facd f5ba 3847 7639 b011 01bb
00000090: 3b48 b23b 4789 8ebb e595 96ba 7755 3cba
000000a0: c41b 8cbb bad0 83bb a11a 523b c90e 45bb
000000b0: a1c9 1abb 6387 ceba 9e5c ac3b 1aa1 863b
000000c0: f799 123b 8d10 2d3b 6e2f 4b3b 38ba 1d36
000000d0: 242c 91b9 18ed 523b d099 283b 2972 4abb
000000e0: c410 0cbb 7ca4 22bb d6c7 73bb 8618 a1bb
000000f0: e28d 6d3b e378 ae3b ddd5 24b9 cde0 c43a
00000100: 6327 2e3b 8fed 763b a5ff 963b 72bb 41bb
00000110: f577 6ebb 8814 833b 9a16 183b a24b 453b
00000120: a14e 5ebb f235 adbb 70eb 1a3b 5e79 923b
00000130: a66b 6d3b 9505 9cbb 06f3 4bbb e75e fdb9
00000140: 3008 e63a 2929 d0ba 5653 e0ba ac1d c83a
00000150: 8762 16bb 2d6e 79bb da92 8d3a 56a3 873a
00000160: 7081 8cbb 9a01 713b 9189 263b 1941 89bb
00000170: 474c d93a 52d6 743b acee d53a 3d42 10bb
00000180: a33c 3ebb b206 0c3b 1609 f4ba 1ea6 a6bb
00000190: eabb 61bb db27 623b 62a8 44ba 75bb 92ba
000001a0: e53e aabb 2d31 ee3a 193f 33bb 7033 303b
000001b0: 6a2f 823a 8e62 a0b9 5164 e3ba 0807 d63a
000001c0: 667f 183b 385b 03bb 7129 263b 2a72 1b3b
000001d0: 1c6d 773b af39 2eba 7f90 8d3b ee18 fb3a
000001e0: a72b 9fbb f29f 34bb 1e79 67bb d360 9cbb
000001f0: 98a6 c03a 2552 3b3b 0097 333b ac98 8e3a

network_body._body_endoder.seq_layers.2.weight f4 [128, 128]
0.13616782 -0.005038074 -0.13853344 -0.06886048 -0.04858622 0.088403784 0.019068042 0.06622062
0.15802209 -0.062522344 -0.022370296 0.037719212 0.08079126 0.08742491 -0.024687864 0.13485353
-0.08197176 0.0159386 -0.016643677 0.06501408 0.06931666 -0.009206326 0.027640708 0.07166608
-0.0567937 -0.018836193 -0.102635235 -0.07845534 0.013777249 -0.035445902 -0.027632229 0.14509527
-0.16210748 0.10941669 -0.080083184 0.048021372 0.022894757 0.054011602 -0.027743487 -0.0788686
-0.11387271 0.05592771 -0.060831845 0.033531446 0.13187109 0.002206789 -0.08869225 0.14472957
-0.033826362 0.0024392835 0.060961507 -0.10359729 -0.10177482 -0.007517552 0.002995165 -0.11976404
0.067017324 -0.1375448 0.013078758 -0.011508737 -0.028016781 0.071194224 -0.013903391 -0.09501641
-0.019721935 0.1022034 0.072746105 0.06231089 -0.032812614 -0.03614054 -0.071762435 -0.13585766
-0.17246017 0.06577506 0.2019304 -0.0752422 0.013115248 0.037978344 -0.03062253 -0.051256627
0.020071607 0.10896937 0.048426762 0.039130334 -0.038545243 0.17789741 -0.00040128958 -0.022435287
-0.071651086 0.091825835 0.090202615 0.05734138 0.060811132 -0.05221129 -0.16482309 0.007989084
-0.0034574855 0.04154732 0.13142824 -0.043631155 -0.04394572 0.0697867 0.07221034 -0.021282526
0.07933888 0.050292052 0.022736466 0.03044717 -0.05105734 -0.001761439 0.036160793 0.047487613
-0.020995393 -0.14451508 0.0017482324 -0.001329704 0.0073103104 0.06444318 0.041945513 0.07730756
-0.015357212 -0.049062308 0.0078086695 0.0537007 -0.014804512 0.08225404 -0.020908011 -0.012802086
-0.0968426 -0.1630383 -0.19832532 -0.18831317 0.029597413 -0.0055111637 0.08308474 -0.019803848
-0.10232852 -0.09340489 -0.13666554 -0.11041275 0.063100636 -0.10211878 -0.12527867 -0.0047988235
-0.047285937 -0.033603728 0.029602338 0.122283176 0.10954476 0.0011708221 -0.06835617 0.10426407
0.01223808 0.1579716 -0.0901703 0.075550295 -0.04201036 0.001586545 -0.089372255 0.008704643
-0.009244617 -0.078255884 -0.116433516 0.109423436 -0.26243925 -0.07142165 0.011965997 0.049568944
0.08005695 0.09333223 -0.06703546 -0.07349544 0.05583204 -0.07473838 -0.10940158 -0.0020191264
0.07831235 -0.008439583 0.13464023 -0.118077256 0.008099239 -0.113422036 0.16823187 -0.10701813
-0.2396366 0.032712497 0.010005795 0.08904885 -0.080974825 -0.07006338 0.03359156 0.059111074
0.052842546 -0.04573159 -0.009583467 0.034944054 0.03670864 -0.07265211 -0.0013928667 -0.119579166
-0.004093322 -0.10422214 -0.10760313 0.0418191 -0.16158532 2.241136e-05 0.09854709 0.111545056
0.028641168 0.040949196 0.037601348 -0.006679611 0.099469796 0.0068522925 -0.08581621 -0.100241035
-0.09690924 0.06367052 0.06855699 -0.0893083 -0.027816324 -0.12431069 -0.061602976 -0.09509342
0.05342915 -0.0008221985 0.062225223 -0.0038980558 -0.08105928 -0.0016131348 -0.09927634 0.20836374
-0.042090498 -0.024750805 -0.1014274 0.088702835 -0.07030598 0.085436754 -0.15410084 -0.057403173
-0.16750254 -0.09828135 0.14921086 -0.021339687 0.040312927 -0.09643246 0.028394615 0.04163777
0.0071747103 0.011010007 -0.078527436 -0.032092012 -0.020972474 0.077208035 -0.07986893 0.0036382857
00000000: 946f 0b3e 6e16 a5bb b6db 0dbe b906 8dbd
00000010: 5802 47bd 0b0d b53d 9534 9c3c ad9e 873d
00000020: 8bd0 213e b70b 80bd e941 b7bc 767f 1a3d
00000030: e375 a53d d50b b33d 343e cabc 0b17 0a3e
00000040: cfe0 a7bd ab91 823c 5258 88bc 1a26 853d
00000050: e5f5 8d3d 21d6 16bc c46e e23c aac5 923d
00000060: 83a0 68bd 5c4e 9abc 6c32 d2bd 31ad a0bd
00000070: f8b9 613c b92f 11bd fc5c e2bc db93 143e
00000080: 81ff 25be dc15 e03d a702 a4bd 0fb2 443d
00000090: c98d bb3c 453b 5d3d 4f46 e3bc dc85 a1bd
000000a0: 1836 e9bd 7414 653d d02a 79bd 4558 093d
000000b0: 3709 073e c79f 103b 48a4 b5bd fd33 143e
000000c0: 838d 0abd 63dc 1f3b c6b2 793d d12a d4bd
000000d0: 516f d0bd cc55 f6bb 884a 443b d946 f5bd
000000e0: 6140 893d 8bd8 0cbe 4948 563c 248f 3cbc
000000f0: 7383 e5bc 47ce 913d 0ccb 63bc f797 c2bd
00000100: e58f a1bc 0450 d13d e9fb 943d b439 7f3d
00000110: 8566 06bd 1a08 14bd 2ff8 92bd 451e 0bbe
00000120: 6699 30be 13b5 863d d8c6 4e3e 9518 9abd
00000130: 56e1 563c 2e8f 1b3d 1adc fabc 78f2 51bd
00000140: 366d a43c 552b df3d 245b 463d 2147 203d
00000150: 9ee1 1dbd bd2a 363e 2d64 d2b9 35ca b7bc
00000160: cebd 92bd 2f0f bc3d 26bc b83d cbde 6a3d
00000170: 1815 793d 81db 55bd 62c7 28be a6e4 023c
00000180: fb96 62bb 862d 2a3d 2095 063e 95b6 32bd
00000190: 6d00 34bd 54ec 8e3d 04e3 933d b158 aebc
000001a0: 6c7c a23d 0aff 4d3d d341 ba3c 586c f93c
000001b0: 8021 51bd 16e0 e6ba 571d 143d 5f82 423d
000001c0: 88fe abbc c3fb 13be f224 e53a 7649 aeba
000001d0: 548b ef3b c9fa 833d 0fcf 2b3d 6d53 9e3d
000001e0: d19c 7bbc 8ff5 48bd dedf ff3b 44f5 5b3d
000001f0: a08e 72bc ce74 a83d 4747 abbc d7bf 51bc
00000200: 6a55 c6bd 83f3 26be cb15 4bbe 2bd5 40be
00000210: 4676 f23c fe96 b4bb 5528 aa3d ae3b a2bc
00000220: 9d91 d1bd 104b bfbd 0df2 0bbe 1420 e2bd
00000230: e83a 813d a723 d1bd 0d49 00be 733f 9dbb
00000240: e6ae 41bd 10a4 09bd 9a80 f23c 9a6f fa3d
00000250: 0159 e03d 4576 993a 52fe 8bbd 6788 d53d
00000260: 3a82 483c 4fc3 213e 35ab b8bd 1dba 9a3d
00000270: 0e13 2cbd 9ef3 cf3a cd08 b7bd eb9d 0e3c
00000280: bc76 17bc 9f44 a0bd b274 eebd 6519 e03d
00000290: 705e 86be 8445 92bd 070d 443c ce08 4b3d
000002a0: e6f4 a33d f824 bf3d e349 89bd c784 96bd
000002b0: 23b0 643d 7010 99bd f00d e0bd 5253 04bb
000002c0: 3a62 a03d 2d46 0abc 21df 093e 7dd2 f1bd
000002d0: acb2 043c d049 e8bd fa44 2c3e 522c dbbd
000002e0: 4c63 75be 8afd 053d 59ef 233c 3e5f b63d
000002f0: 21d6 a5bd 647d 8fbd 4e97 093d 741e 723d
00000300: 6d71 583d 0c51 3bbd f903 1dbc 7f21 0f3d
00000310: cd5b 163d a1ca 94bd da90 b6ba ece5 f4bd
00000320: 4621 86bb 6b72 d5bd 085f dcbd 814a 2b3d
00000330: 9f76 25be 0700 bc37 0fd3 c93d bc71 e43d
00000340: e2a0 ea3c 58ba 273d df03 1a3d a3e0 dabb
00000350: d2b6 cb3d 3289 e03b 69c0 afbd 2c4b cdbd
00000360: 5a78 c6bd b165 823d 9b67 8c3d 45e7 b6bd
00000370: 0fdf e3bc 9a96 febd 6753 7cbd 57c0 c2bd
00000380: 86d8 5a3d cf88 57ba e0df 7e3d 8676 7fbb
00000390: 6802 a6bd d26f d3ba 6551 cbbd 4e5d 553e
000003a0: 1667 2cbd 33c2 cabc 2bb9 cfbd d5a9 b53d
000003b0: 95fc 8fbd 77f9 ae3d 9ccc 1dbe 971f 6bbd
000003c0: c985 2bbe bc47 c9bd bbca 183e 91d0 aebc
000003d0: 2b1f 253d 627e c5bd d39b e83c 5e8c 2a3d
000003e0: d519 eb3b 5163 343c fed2 a0bd ea72 03bd
000003f0: 77ce abbc 3f1f 9e3d 5292 a3bd 4e70 6e3b

network_body._body_endoder.seq_layers.2.bias f4 [128]
-0.00039246134 0.001817296 -0.0030844023 0.0023955167 0.00455974 0.0048102806 -0.004239241 0.002842035
0.0031337196 0.0013438715 -0.0028304746 -0.002154113 -0.0036238795 0.0010855986 -0.0037901036 -0.0048059714
-0.0041124253 0.0024519549 -0.0021337322 0.0041800435 0.003099148 -0.00259557 0.0036701278 0.004457483
0.0018883399 -0.004010785 -0.003396336 0.0043688756 -0.0045228545 5.663986e-05 -0.0019389834 -0.004254831
0.0042672013 -0.003810872 -0.0038563847 0.004111403 -0.002994589 0.0004843522 -0.0015503659 -0.0013942944
-0.0015569138 -0.003334685 -0.0036427118 0.0036050547 -0.0021247494 -0.002929814 -0.0041895164 0.004435481
-0.004346459 0.0045875963 -0.0029111367 -0.0037785005 0.002642737 0.0015250607 0.0040747877 0.0037408674
1.1695865e-05 0.004317689 0.0046839365 -0.0025934083 -0.001601374 0.00033147854 0.004400723 0.0031270208
-0.0042691105 -0.0021405395 0.00015916303 -0.0023401761 0.0034305756 0.0021887887 0.003132224 0.0033597893
-0.00022600708 -0.004311983 0.0046253894 -0.0034474095 -0.00092190143 -0.0009838946 0.0046005556 0.0009982588
-0.0033496232 0.0017102954 0.0025614689 0.0010682686 0.004505021 -0.0044870707 0.0042221113 -0.0037844381
-0.003349919 -0.0045165303 0.0019929553 0.004173246 0.004212596 0.0034138917 0.0023435557 0.0032830085
0.0011283482 0.0043762745 0.0019461241 -0.0026157568 -0.0043289717 -0.004100374 -0.0032574306 0.0019906678
0.004414877 0.0042790235 -0.004206064 0.0008303833 -0.001964467 -0.003336894 0.0009872254 -0.0034704278
0.00092716777 0.0030943975 0.0037882861 -0.001210603 -0.0015573034 -0.0046972916 -0.0014820069 -0.0009692208
-0.0025335157 -0.0038145478 0.0026834123 0.0032546788 0.00052036124 -0.0046363147 -0.0012896671 0.0032579438
00000000: 45c3 cdb9 5632 ee3a af23 4abb 1afe 1c3b
00000010: df69 953b 8f9f 9d3b 55e9 8abb 6f41 3a3b
00000020: 175f 4d3b d824 b03a 7c7f 39bb 052c 0dbb
00000030: 9c7e 6dbb a54a 8e3a 6363 78bb 697b 9dbb
00000040: 86c1 86bb fab0 203b 16d6 0bbb bff8 883b
00000050: 131b 4b3b 701a 2abb 8786 703b 1410 923b
00000060: 2c82 f73a e76c 83bb 1095 5ebb c928 8f3b
00000070: 7434 94bb 9690 6d38 7d25 feba 1c6c 8bbb
00000080: e1d3 8b3b d3bf 79bb 66bb 7cbb f3b8 863b
00000090: de40 44bb a7f0 fd39 a635 cbba c2c0 b6ba
000000a0: 5c11 ccba bb8a 5abb 90ba 6ebb c842 6c3b
000000b0: 613f 0bbb 1f02 40bb 3648 89bb 8357 913b
000000c0: be6c 8ebb 8c53 963b c5c8 3ebb b8a0 77bb
000000d0: c531 2d3b 8ce4 c73a cc85 853b 5729 753b
000000e0: 5c39 4437 677b 8d3b b57b 993b 2cf6 29bb
000000f0: 32e5 d1ba 4cca ad39 f133 903b b4ee 4c3b
00000100: e5e3 8bbb 4b48 0cbb 00e5 2639 a45d 19bb
00000110: 82d3 603b c871 0f3b 0046 4d3b e92f 5c3b
00000120: 50fc 6cb9 894b 8dbb 9490 973b efed 61bb
00000130: c2ab 71ba 06f6 80ba 42c0 963b 02d8 823a
00000140: 5a85 5bbb fe2b e03a 51de 273b 2505 8c3a
00000150: db9e 933b 4708 93bb a359 8a3b 5604 78bb
00000160: 518a 5bbb 67ff 93bb 3e9c 023b babf 883b
00000170: d109 8a3b 99bb 5f3b 5796 193b be27 573b
00000180: 15e5 933a da66 8f3b 1715 ff3a 1e6d 2bbb
00000190: 0cda 8dbb 6e5c 86bb 9e7a 55bb dd75 023b
000001a0: acaa 903b 0d37 8c3b 06d3 89bb 14ae 593a
000001b0: 4abe 00bb cbaf 5abb ca65 813a 1e70 63bb
000001c0: 2d0d 733a 60cb 4a3b e544 783b 19ad 9eba
000001d0: 6e1e ccba bdeb 99bb e63f c2ba 4f13 7eba
000001e0: 5709 26bb 7efd 79bb 30dc 2f3b 734c 553b
000001f0: da68 083a 3aec 97bb 0c0a a9ba 3a83 553b

action_model._continuous_distribution.log_sigma f4 [1, 2]
0.0026367484 -0.0022878603
00000000: 4ccd 2c3b edef 15bb

action_model._continuous_distribution.mu.weight f4 [2, 128]
-0.0040074806 0.031496067 -0.0047901296 0.0039937305 0.0050733625 0.022615246 -0.013393524 0.008242983
0.0066255033 0.007688938 -0.020301431 -0.020580184 -0.0064668376 -0.0024908828 -0.024907367 -0.015012148
-0.013949152 0.012019741 -0.0129911825 0.028076958 0.010232431 -0.004156631 0.024951085 0.03483243
0.004409579 -0.017297763 -0.015510313 0.027273105 -0.013937372 0.009056888 -0.0111249 -0.026425537
0.021736778 -0.019083716 -0.031592976 0.014423035 -0.02584246 0.0043986854 0.0019146114 -0.0028651922
-0.018081045 -0.024156442 -0.01850835 0.011456963 -0.027806966 -0.02809414 -0.017454404 0.0132761225
-0.0142279295 0.011228774 -0.025140643 -0.03367979 0.020468319 0.014622659 0.015662886 0.02291438
-0.007120716 0.016307691 0.03507959 -0.0035159132 -0.00015749811 -0.008683971 0.021980656 0.011033034
-0.015257761 -0.008682943 -0.006193672 -0.0182545 0.012767806 -0.00033388438 0.02311228 0.009296635
-6.397109e-05 -0.03684973 0.0074580284 -0.018903863 0.0068196207 0.0033726923 0.017686382 -0.007944735
-0.028541334 0.014933996 0.01813797 -0.012099889 0.008633465 -0.00969088 0.019993024 -0.025833547
-0.018481782 -0.020174772 0.01154149 0.016348187 0.02261611 0.006950241 0.0032824166 0.034566674
-0.0003598877 0.027185021 0.01834371 -0.025103312 -0.018172711 -0.032455564 -0.01661437 0.019469162
0.014268039 0.02465102 -0.016736953 0.010623833 -0.025747834 -0.016669169 0.01147785 -0.013342003
0.01523702 0.014839417 0.00058252044 0.0032950977 -0.015233914 -0.022107966 0.0029551014 -0.00013720573
-0.012608379 -0.0091481935 0.02408515 0.010790259 -0.005551325 -0.021149097 -0.0058258423 0.02054701
0.025557231 -0.026450932 0.0012377391 0.018578703 0.0022998734 0.009050239 -0.008103184 0.014184602
0.008235064 -0.013143937 0.00560702 0.012028845 0.00022512494 0.015910579 -0.010083643 -0.004842882
-0.00977541 0.03209056 0.013860978 -0.0009929752 -0.0043897354 0.0003750125 0.029784812 0.007287952
0.025962433 -0.015106276 -0.02510388 0.0035085822 -0.004806176 -0.04618787 -0.059278 -0.028970644
0.01808945 -0.022209348 -0.0005897562 0.008042965 0.019015253 -0.0149940895 -0.028319044 0.0040657762
0.02581017 0.00724202 0.0022479892 0.015733536 0.029246965 0.011764906 -0.010859968 0.0027778677
-0.014336019 -0.00088521716 0.0116508575 -0.03572504 -0.012087909 -0.016096119 0.0008778524 0.018529253
0.017069083 0.012732721 0.021961335 0.0016169043 -0.022848092 0.021337522 0.012375734 -0.0032985334
0.00058115803 -0.042200483 0.032465603 0.016774483 0.011966151 0.014492604 -0.009345107 0.009138402
0.013288115 -0.0044323085 0.0033753752 0.0075311805 -0.04251291 -0.034039747 0.0048213056 0.017958423
-0.043170523 -0.013561055 -0.010293416 0.05493764 0.0064971386 -0.007882039 0.018602515 0.004700996
-0.02370087 -0.020034822 -0.014104871 0.0013568166 0.006581337 0.013940645 0.018805271 -0.01727441
0.021074729 0.018305829 -0.018672349 0.02258681 -0.009541251 -0.02245026 0.0035378058 -0.020217376
0.0052816304 0.003947865 -0.0014247997 -0.01673989 0.028345363 0.0066040177 -0.016474105 -0.023677533
-0.029126298 -0.009683719 0.0028611582 -0.012521224 0.014767413 -0.003999192 -0.012330907 -0.015305763
0.010118313 -0.0047655804 -0.013425997 -0.0022819368 0.017243689 -0.014124772 0.010031164 0.043273352
00000000: 2f51 83bb 0502 013d 85f6 9cbb d7dd 823b
00000010: 733e a63b 9c43 b93c 8370 5bbc 940d 073c
00000020: c01a d93b 7df3 fb3b 304f a6bc c697 a8bc
00000030: c4e7 d3bb 143e 23bb 890a ccbc 83f5 75bc
00000040: fc8a 64bc 73ee 443c f8d8 54bc a601 e63c
00000050: eda5 273c 5934 88bb 3866 cc3c 73ac 0e3d
00000060: 3b7e 903b 0ab4 8dbc f81e 7ebc d96b df3c
00000070: 9359 64bc 5763 143c 3645 36bc 5e7a d8bc
00000080: 5411 b23c 7455 9cbc a367 01bd 984e 6c3c
00000090: 91b3 d3bc d922 903b b3f3 fa3a f3c5 3bbb
000000a0: b31e 94bc bbe3 c5bc d39e 97bc fcb5 3b3c
000000b0: 6fcb e3bc af25 e6bc 8afc 8ebc 1884 593c
000000c0: 431c 69bc e4f8 373c c0f3 cdbc d2f3 09bd
000000d0: 2dad a73c e193 6f3c 744f 803c f0b6 bb3c
000000e0: e554 e9bb b597 853c 9eaf 0f3d 3c6b 66bb
000000f0: 1426 25b9 3747 0ebc c710 b43c e6c3 343c
00000100: b0fb 79bc e742 0ebc 49f4 cabb 768a 95bc
00000110: 0f30 513c 340d afb9 f755 bd3c ea50 183c
00000120: 3828 86b8 beef 16bd 7a62 f43b 46dc 9abc
00000130: 2077 df3b 6308 5d3b 08e3 903c a22a 02bc
00000140: 84cf e9bc b8ad 743c 1496 943c 9d3e 46bc
00000150: 6073 0d3c 7fc6 1ebc 69c8 a33c e0a0 d3bc
00000160: 1b67 97bc 9045 a5bc 8518 3d3c a2ec 853c
00000170: 6c45 b93c d9be e33b d01d 573b c995 0d3d
00000180: 4faf bcb9 1fb3 de3c 8c45 963c 76a5 cdbc
00000190: f0de 94bc 20f0 04bd dc1a 88bc cb7d 9f3c
000001a0: 7ec4 693c f0f0 c93c ef1b 89bc 960f 2e3c
000001b0: 1fed d2bc c88d 88bc 980d 3c3c 6b98 5abc
000001c0: b2a4 793c 0721 733c 49b4 183a 91f2 573b
000001d0: ab97 79bc c41b b5bc 60aa 413b e2de 0fb9
000001e0: 6093 4ebc 4ee2 15bc 384e c53c a0c9 303c
000001f0: e4e7 b5bb df40 adbc b5e6 bebb 3452 a83c
00000200: 665d d13c a0af d8bc a23b a23a 5d32 983c
00000210: 79b9 163b 7447 143c 38c3 04bc 8866 683c
00000220: 5dec 063c ab59 57bc 18bb b73b a214 453c
00000230: 840f 6c39 e756 823c dd35 25bc 0ab1 9ebb
00000240: 0b29 20bc 6471 033d 2819 633c b826 82ba
00000250: c5d7 8fbb 539d c439 47ff f33c c6cf ee3b
00000260: 2baf d43c 5080 77bc a7a6 cdbc 3ef0 653b
00000270: 207d 9dbb 7e2f 3dbd 7dcd 72bd d853 edbc
00000280: 5430 943c 61f0 b5bc de99 1aba a4c6 033c
00000290: e0c5 9b3c c5a9 75bc 57fd e7bc 343a 853b
000002a0: da6f d33c 784e ed3b 0053 133b 9ee3 803c
000002b0: 5597 ef3c 98c1 403c 02ee 31bc e30c 363b
000002c0: 9fe1 6abc eb0d 68ba 3de3 3e3c 6b54 12bd
000002d0: 5d0c 46bc 02dc 83bc ad1f 663a a9ca 973c
000002e0: 76d4 8b3c e79c 503c 42e8 b33c 4eee d33a
000002f0: ec2b bbbc 07cc ae3c 97c3 4a3c 352c 58bb
00000300: db58 183a 6ada 2cbd a7fa 043d a46a 893c
00000310: ad0d 443c 6372 6d3c 381c 19bc 3cb9 153c
00000320: 65b6 593c e63c 91bb 6635 5d3b 1fc8 f63b
00000330: 0422 2ebd 436d 0bbd 0bfc 9d3b 8b1d 933c
00000340: 93d3 30bd 302f 5ebc b7a5 28bc 4a06 613d
00000350: f3e5 d43b ab23 01bc 4d64 983c d00a 9a3b
00000360: 5428 c2bc 1120 a4bc 1e18 67bc 36d7 b13a
00000370: 42a8 d73b 4e67 643c 830d 9a3c 1083 8dbc
00000380: e9a4 ac3c 1bf6 953c c1f6 98bc f907 b93c
00000390: e852 1cbc 9ce9 b7bc 88da 673b e99e a5bc
000003a0: 8711 ad3b 185d 813b 58c0 baba 1822 89bc
000003b0: 8934 e83c 8466 d83b b4f4 86bc 63f7 c1bc
000003c0: 469a eebc 76a8 1ebc 4582 3b3b d225 4dbc
000003d0: 05f3 713c a70b 83bb 9307 4abc 06c5 7abc
000003e0: 48c7 253c 9628 9cbb b7f8 5bbc 8c8c 15bb
000003f0: a342 8d3c 966b 67bc c059 243c 663f 313d

action_model._continuous_distribution.mu.bias f4 [2]
0.0042155255 0.001611871
00000000: 6422 8a3b 6a45 d33a

action_model._discrete_distribution.branches.0.weight f4 [1, 128]
-0.018339328 -0.0065055336 -0.0056184405 0.008463969 -0.01007889 0.008165137 -0.0060623414 0.0007778929
0.009646579 0.0011585801 -0.018445287 -0.016272785 0.011752614 0.010254796 0.0010036113 -0.010004385
0.00025689809 0.0026243257 -0.009536974 -0.0036766876 -0.018600639 -0.010946854 0.010974838 -0.015689032
-0.0045458768 0.0057133418 -0.015997468 -0.0021577207 0.017492216 0.0020221265 -0.02314947 -0.010426103
0.0030590133 0.012020118 0.0007178649 0.012508849 -0.0045218407 -0.008504593 -0.00054560247 0.0003444077
0.012496139 -0.0012520686 -0.006944497 0.008763361 0.0058469106 0.0068346015 -0.0060280734 0.0030479112
0.00425904 0.0022016542 -0.0035266825 -0.012293199 0.0021199242 0.0022098494 0.0055834865 0.004872033
0.0041645407 0.009234279 -0.0016126093 -0.013294977 0.0084400615 0.0212026 -0.005156753 -3.3248823e-05
-3.8095433e-05 -0.007361566 0.005852717 -0.0005129626 -0.008285435 -0.0075913756 -0.010347392 0.00076619623
-0.0013810031 0.01923701 -0.013687219 0.00026377098 0.00712047 0.0067465412 -0.00034783967 0.0038135701
0.013204174 0.004345007 0.005805141 -0.0115442565 0.0018018984 -0.0067317667 0.00623713 -0.0015942112
-0.01688148 0.01970248 0.0038235858 -0.0029391863 0.01224121 0.008160602 -0.01257537 0.0046817875
-0.0034659267 -0.0031927412 -0.005179421 0.0024473425 -0.0045534587 0.009404284 0.00785519 0.0043798047
-0.0008184689 -0.0095495405 0.004747183 0.007718154 0.0055419444 -0.016817238 -0.00013669855 0.013489857
0.002203752 -0.0053803786 0.009792605 -0.007509193 -0.004581693 0.0030618052 -0.013620454 0.020676056
-0.007241722 -0.0091623645 -0.0064383433 -0.0039303936 0.010349468 -0.010210761 0.0035384323 0.0017975614
00000000: 5c3c 96bc 5f2c d5bb e51a b8bb 76ac 0a3c
00000010: ee21 25bc 11c7 053c 9ba6 c6bb 82eb 4b3a
00000020: af0c 1e3c 7fdb 973a 921a 97bc 814e 85bc
00000030: 098e 403c bb03 283c 9b8b 833a 6fe9 23bc
00000040: 47b0 8639 e1fc 2b3b f840 1cbc 95f4 70bb
00000050: 5e60 98bc 6f5a 33bc cfcf 333c 4986 80bc
00000060: 94f5 94bb fc36 bb3b 1f0d 83bc 8c68 0dbb
00000070: d64b 8f3c a785 043b f5a3 bdbc 3fd2 2abc
00000080: ba79 483b 07f0 443c 192f 3c3a eaf1 4c3c
00000090: f32b 94bb d956 0bbc c306 0fba 9e91 b439
000000a0: 9bbc 4c3c 731c a4ba aa8e e3bb 3394 0f3c
000000b0: 7197 bf3b cbf4 df3b 2587 c5bb 77bf 473b
000000c0: 6b8f 8b3b a149 103b ea1f 67bb 6a69 49bc
000000d0: 6dee 0a3b 1fd3 103b aef5 b63b 93a5 9f3b
000000e0: b376 883b 604b 173c 305e d3ba 2dd3 59bc
000000f0: 2f48 0a3c 13b1 ad3c fbf9 a8bb a774 0bb8
00000100: a9c8 1fb8 4b39 f1bb 26c8 bf3b 5678 06ba
00000110: a2bf 07bc 13c1 f8bb 1c88 29bc 8fda 483a
00000120: c602 b5ba ef96 9d3c 5b40 60bc be4a 8a39
00000130: d552 e93b 1712 dd3b 405e b6b9 17ed 793b
00000140: 5256 583c 8f60 8e3b 0d39 be3b 1f24 3dbc
00000150: ad2d ec3a 2796 dcbb d760 cc3b daf4 d0ba
00000160: 084b 8abc 1867 a13c 2095 7a3b 5d9f 40bb
00000170: 5b8f 483c 0cb4 053c ed08 4ebc ae69 993b
00000180: 9a24 63bb 4f3d 51bb 22b8 a9bb 9863 203b
00000190: 2e35 95bb 6d14 1a3c 0eb3 003c 7784 8f3b
000001a0: 858e 56ba ad75 1cbc 428e 9b3b 92e8 fc3b
000001b0: 3399 b53b 4ec4 89bc bd56 0fb9 9004 5d3c
000001c0: d36c 103b e34d b0bb 2a71 203c ad0f f6bb
000001d0: 0722 96bb 91a8 483b 5328 5fbc d560 a93c
000001e0: f84b edbb be1d 16bc bdf8 d2bb 88ca 80bb
000001f0: d190 293c 094b 27bc 0be5 673b 279c eb3a

exp_avg f4 [128, 44]
0.0 5.175943e-07 -3.7395887e-06 0.0 4.3342965e-09 4.7438564e-07 -1.0107307e-06 2.1694714e-06
-4.1201183e-06 0.0 -2.5628145e-07 -1.5399334e-07 0.0 -4.4161375e-06 1.5428936e-06 5.3473094e-08
-3.978878e-07 5.037952e-07 4.027097e-07 6.365301e-07 -4.1201183e-06 0.0 -1.3677983e-07 -9.590228e-08
0.0 -2.53544e-06 -2.3412122e-06 1.0309328e-06 6.2806e-07 1.3638089e-06 -2.2842414e-06 2.5697085e-07
-1.0536104e-06 0.0 -1.3677983e-07 -1.15999285e-07 0.0 -2.7261035e-06 -4.1201183e-06 3.6285624e-06
0.0 2.2115822e-07 0.0 0.0 0.0 5.29289e-06 8.9112e-07 0.0
-6.799628e-08 -3.210276e-07 6.615895e-06 -1.7050522e-06 1.4557213e-06 0.0 -2.5055004e-07 -2.6264513e-07
0.0 9.2122755e-06 -3.4924371e-06 2.080452e-08 3.753716e-07 -2.927749e-07 5.0367175e-06 -5.405266e-07
1.4557213e-06 0.0 1.6410306e-07 1.2654114e-07 0.0 7.4786585e-06 1.9693152e-07 -9.394004e-07
-6.2017506e-07 -1.1600456e-06 6.439221e-06 -5.624647e-07 7.5154674e-08 0.0 1.6410306e-07 1.344028e-07
0.0 7.4304867e-06 1.4557213e-06 -2.7701929e-06 0.0 -1.3042309e-07 0.0 0.0
0.0 -2.5233197e-05 -2.2913511e-05 0.0 2.7037397e-06 2.9932153e-08 -2.610075e-05 5.7522357e-08
-2.218219e-05 0.0 2.7824472e-06 2.0471266e-06 0.0 -1.8491864e-05 -2.79354e-05 -9.142687e-07
1.898563e-06 -6.5027166e-07 -1.6918428e-05 -6.588033e-06 -2.218219e-05 0.0 2.456802e-07 -1.3928229e-08
0.0 -1.767102e-05 -3.2249307e-05 1.323185e-06 3.154168e-06 8.1933985e-07 -4.46816e-05 -3.8296457e-06
2.8226004e-06 0.0 2.456802e-07 -1.149408e-08 0.0 -1.4278091e-05 -2.218219e-05 -8.982694e-06
0.0 -1.1722484e-06 0.0 0.0 0.0 -1.319991e-05 -1.5951002e-05 0.0
5.1909083e-06 3.316741e-06 -1.7399956e-05 4.3589735e-06 -1.24014305e-05 0.0 1.4824113e-06 8.662234e-07
0.0 -1.9448462e-05 -7.0635506e-06 -6.876169e-07 3.23963e-06 2.6988014e-06 -8.147002e-06 -3.2151322e-06
-1.24014305e-05 0.0 -1.9643699e-07 -4.1856885e-07 0.0 -1.4855102e-05 -1.6571932e-05 3.880857e-07
7.0789497e-06 6.731099e-06 -2.1707845e-05 -1.5342092e-06 -5.2151404e-07 0.0 -1.9643699e-07 -4.141713e-07
0.0 -1.3417666e-05 -1.24014305e-05 1.8590936e-06 0.0 3.0699482e-08 0.0 0.0
0.0 -1.0834575e-05 -6.8906666e-06 0.0 -3.2546693e-06 -1.2147084e-06 -2.1514456e-05 1.2711707e-05
-8.556972e-06 0.0 -3.6201923e-06 -3.1154486e-06 0.0 -2.6785045e-05 1.0104129e-05 4.549245e-07
-4.753909e-06 -1.3395858e-06 -2.1502903e-05 9.266943e-06 -8.556972e-06 0.0 -1.8697807e-07 -2.5706981e-08
0.0 -2.1962118e-05 7.6547246e-07 2.2677893e-06 -2.0510456e-06 8.316149e-07 -2.4008732e-05 6.6854773e-06
-3.469674e-06 0.0 -1.8697807e-07 -4.68973e-08 0.0 -2.2905408e-05 -8.556972e-06 1.0482483e-05
0.0 5.031309e-07 0.0 0.0 0.0 1.4229096e-05 1.0699685e-05 0.0
-8.0982954e-07 -3.4003165e-08 2.0235788e-05 -4.7946533e-06 8.766592e-06 0.0 -8.8773845e-08 2.0659954e-07
0.0 1.9770161e-05 3.7819664e-06 2.5063267e-07 3.1619214e-07 3.334432e-07 1.5330055e-05 -3.097673e-07
8.766592e-06 0.0 3.3207564e-07 4.4679433e-07 0.0 1.6483576e-05 8.552519e-06 -1.2837357e-07
-7.8877093e-07 -1.2388963e-06 2.451979e-05 -7.6355843e-07 3.0648472e-08 0.0 3.3207564e-07 4.3395798e-07
00000000: 0000 0000 cff0 0a35 a5f5 7ab6 0000 0000
00000010: e0ec 9431 11af fe34 71a8 87b5 3c97 1136
00000020: 8c3f 8ab6 0000 0000 0e97 89b4 5e59 25b4
00000030: 0000 0000 552e 94b6 6c15 cf35 4aaa 6533
00000040: 489d d5b4 8b3c 0735 0034 d834 04de 2a35
00000050: 8c3f 8ab6 0000 0000 c1dd 12b4 d6f2 cdb3
00000060: 0000 0000 8726 2ab6 b81d 1db6 955e 8a35
00000070: f497 2835 1e0c b735 f84a 19b6 cef5 8934
00000080: c769 8db5 0000 0000 c1dd 12b4 481b f9b3
00000090: 0000 0000 1af2 36b6 8c3f 8ab6 3a82 7336
000000a0: 0000 0000 8277 6d34 0000 0000 0000 0000
000000b0: 0000 0000 9499 b136 4d35 6f35 0000 0000
000000c0: 5a05 92b3 b359 acb4 1bfe dd36 26d9 e4b5
000000d0: 3462 c335 0000 0000 5683 86b4 ac01 8db4
000000e0: 0000 0000 6c8e 1a37 9d5f 6ab6 a0b5 b232
000000f0: ae86 c934 ad2e 9db4 1301 a936 b518 11b5
00000100: 3462 c335 0000 0000 4e34 3034 5ddf 0734
00000110: 0000 0000 30f1 fa36 2074 5334 1b2b 7cb5
00000120: 1b7a 26b5 ddb2 9bb5 7d10 d836 48fc 16b5
00000130: b864 a133 0000 0000 4e34 3034 5c50 1034
00000140: 0000 0000 6553 f936 3462 c335 8de7 39b6
00000150: 0000 0000 6d0a 0cb4 0000 0000 0000 0000
00000160: 0000 0000 e1ab d3b7 6436 c0b7 0000 0000
00000170: e571 3536 c08e 0033 eff2 dab7 800e 7733
00000180: e413 bab7 0000 0000 14ba 3a36 5e61 0936
00000190: 0000 0000 fa1e 9bb7 d156 eab7 116c 75b5
000001a0: 21d2 fe35 548e 2eb5 0cec 8db7 c60e ddb6
000001b0: e413 bab7 0000 0000 08e6 8334 0049 6fb2
000001c0: 0000 0000 3a3c 94b7 6e43 07b8 4a98 b135
000001d0: 32ac 5336 9bf0 5b35 8168 3bb8 6880 80b6
000001e0: e86b 3d36 0000 0000 08e6 8334 8077 45b2
000001f0: 0000 0000 ef8b 6fb7 e413 bab7 61b4 16b7
00000200: 0000 0000 2656 9db5 0000 0000 0000 0000
00000210: 0000 0000 2f75 5db7 84ce 85b7 0000 0000
00000220: 902d ae36 2d95 5e36 1ff6 91b7 4c43 9236
00000230: bd0f 50b7 0000 0000 44f7 c635 6b86 6835
00000240: 0000 0000 4125 a3b7 7003 edb6 ac94 38b5
00000250: 6b68 5936 0e1d 3536 1baf 08b7 8dc3 57b6
00000260: bd0f 50b7 0000 0000 30ec 52b4 aab7 e0b4
00000270: 0000 0000 2d3a 79b7 f403 8bb7 185a d034
00000280: b787 ed36 b3db e136 3e19 b6b7 07eb cdb5
00000290: 2cfe 0bb5 0000 0000 30ec 52b4 455b deb4
000002a0: 0000 0000 701c 61b7 bd0f 50b7 f885 f935
000002b0: 0000 0000 70da 0333 0000 0000 0000 0000
000002c0: 0000 0000 25c6 35b7 6036 e7b6 0000 0000
000002d0: cb6a 5ab6 1009 a3b5 f179 b4b7 5e44 5537
000002e0: ea8f 0fb7 0000 0000 6ef2 72b6 0013 51b6
000002f0: 0000 0000 72b0 e0b7 e784 2937 593c f434
00000300: c483 9fb6 d1cb b3b5 2261 b4b7 3879 1b37
00000310: ea8f 0fb7 0000 0000 24c4 48b4 40d2 dcb2
00000320: 0000 0000 4a3b b8b7 de7a 4d35 5330 1836
00000330: b2a4 09b6 243c 5f35 5c66 c9b7 d053 e036
00000340: 8cd8 68b6 0000 0000 24c4 48b4 206c 49b3
00000350: 0000 0000 fd24 c0b7 ea8f 0fb7 ecdd 2f37
00000360: 0000 0000 e40e 0735 0000 0000 0000 0000
00000370: 0000 0000 81b9 6e37 cc82 3337 0000 0000
00000380: 1063 59b5 e00a 12b3 06c0 a937 c2e1 a0b6
00000390: 3a14 1337 0000 0000 f0a3 beb3 a6d5 5d34
000003a0: 0000 0000 19d8 a537 b0cd 7d36 b18e 8634
000003b0: 1ec1 a934 1604 b334 0b99 8037 184e a6b4
000003c0: 3a14 1337 0000 0000 2148 b234 f2de ef34
000003d0: 0000 0000 3646 8a37 ca7c 0f37 0fd7 09b4
000003e0: edbb 53b5 2748 a6b5 d9af cd37 56f7 4cb5
000003f0: 5aa2 0333 0000 0000 2148 b234 bbfa e834

exp_avg_sq f4 [128, 44]
0.0 5.334675e-12 1.0789502e-11 0.0 5.2815113e-14 1.752375e-13 5.696158e-12 2.7908617e-12
8.174579e-12 0.0 4.4194309e-13 4.9514006e-13 0.0 5.5567083e-12 1.3301661e-11 1.6348593e-14
1.0731038e-13 2.7224729e-13 7.502018e-12 1.5902085e-12 8.174579e-12 0.0 1.0820146e-12 1.1036241e-12
0.0 3.5479768e-12 1.1515948e-11 1.7529058e-12 3.4906355e-13 4.77194e-13 1.6764071e-11 3.0634151e-13
2.3528269e-13 0.0 1.0820146e-12 1.0965752e-12 0.0 2.3241747e-12 8.174579e-12 6.3958756e-12
0.0 3.949904e-14 0.0 0.0 0.0 8.334147e-12 4.884274e-13 0.0
3.522939e-15 9.059367e-14 9.718865e-12 4.1630485e-13 2.9259372e-13 0.0 5.3141156e-13 5.7317345e-13
0.0 9.445921e-12 3.5827211e-12 2.7843616e-15 2.773167e-14 1.699885e-13 9.626085e-12 4.1283217e-14
2.9259372e-13 0.0 7.168155e-13 7.420154e-13 0.0 7.8657835e-12 2.339788e-12 4.798052e-13
1.6602105e-13 2.8979802e-13 1.0024878e-11 3.466316e-14 5.6080124e-15 0.0 7.168155e-13 7.3631335e-13
0.0 7.812708e-12 2.9259372e-13 3.7861576e-12 0.0 2.5924838e-14 0.0 0.0
0.0 2.8578406e-10 1.7988154e-10 0.0 3.1023334e-13 1.2921951e-12 2.7614133e-10 2.976634e-11
1.9884207e-10 0.0 5.5903663e-12 5.3905886e-12 0.0 2.9430114e-10 1.4600103e-10 1.0374432e-13
4.724649e-13 2.081545e-12 2.637825e-10 1.4518938e-11 1.9884207e-10 0.0 7.341311e-12 7.2002426e-12
0.0 2.3161607e-10 1.9054669e-10 1.5677282e-11 5.5082323e-12 5.6119237e-12 4.150999e-10 6.851433e-12
1.0386014e-12 0.0 7.341311e-12 7.2100026e-12 0.0 2.1454588e-10 1.9884207e-10 5.1627345e-11
0.0 3.1748305e-13 0.0 0.0 0.0 1.2980429e-10 4.893557e-11 0.0
1.5692708e-12 4.1969835e-12 1.5776988e-10 1.621322e-11 2.8328385e-11 0.0 7.578596e-12 8.1173375e-12
0.0 9.030736e-11 1.0204693e-10 2.2253872e-13 2.2491546e-12 6.284184e-12 1.5758182e-10 5.457365e-12
2.8328385e-11 0.0 1.088719e-11 1.1331649e-11 0.0 6.7141945e-11 7.172536e-11 2.5733115e-11
1.0948954e-11 1.18154375e-11 1.8462654e-10 5.2106644e-12 2.493012e-13 0.0 1.088719e-11 1.1237609e-11
0.0 6.5740934e-11 2.8328385e-11 8.62428e-11 0.0 5.614208e-13 0.0 0.0
0.0 2.694321e-10 6.5188015e-11 0.0 7.57043e-13 2.04538e-12 2.6917715e-10 1.9344071e-11
5.843789e-11 0.0 2.295611e-11 2.3164505e-11 0.0 3.4155956e-10 9.38461e-11 2.513936e-14
1.5024351e-12 3.7341215e-12 2.7884753e-10 1.2751618e-11 5.843789e-11 0.0 3.0145025e-11 3.0146483e-11
0.0 2.685217e-10 8.5040794e-11 5.7491746e-12 1.4204954e-11 1.6804504e-11 3.1526398e-10 4.3528323e-12
2.1396812e-12 0.0 3.0145025e-11 3.0141178e-11 0.0 2.5599842e-10 5.843789e-11 7.40207e-11
0.0 5.309709e-13 0.0 0.0 0.0 6.149868e-11 1.7901297e-11 0.0
7.503092e-14 7.968138e-13 7.968088e-11 4.814557e-12 1.3053251e-11 0.0 1.04911786e-13 2.1960556e-13
0.0 5.818641e-11 2.5361357e-11 4.047059e-14 3.795329e-13 1.4117143e-12 7.720482e-11 2.0985553e-12
1.3053251e-11 0.0 2.9443223e-13 3.6545943e-13 0.0 5.0099033e-11 1.8048668e-11 8.172274e-12
2.703173e-13 6.310532e-13 9.4323965e-11 1.4643895e-12 9.045278e-14 0.0 2.9443223e-13 3.466883e-13
00000000: 0000 0000 7bb2 bb2c 99cf 3d2d 0000 0000
00000010: aedb 6d29 c54c 452a 6e6a c82c b263 442c
00000020: 08cf 0f2d 0000 0000 b6ca f82a 9a5e 0b2b
00000030: 0000 0000 6182 c32c 5b01 6a2d 4a41 9328
00000040: 39a4 f129 f842 992a 16fa 032d 4dcd df2b
00000050: 08cf 0f2d 0000 0000 af47 982b 4052 9b2b
00000060: 0000 0000 abaa 792c 3897 4a2d 16b3 f62b
00000070: 5c81 c42a 7451 062b 5575 932d 7774 ac2a
00000080: cf73 842a 0000 0000 af47 982b 4954 9a2b
00000090: 0000 0000 9c8c 232c 08cf 0f2d ed08 e12c
000000a0: 0000 0000 4be3 3129 0000 0000 0000 0000
000000b0: 0000 0000 a99d 122d e77a 092b 0000 0000
000000c0: c1da 7d27 b2ff cb29 e0f9 2a2d da5b ea2a
000000d0: 33b7 a42a 0000 0000 3d94 152b 8055 212b
000000e0: 0000 0000 a52c 262d 911c 7c2c 68a2 4827
000000f0: e1c8 f928 d963 3f2a 0858 292d 4fec 3929
00000100: 33b7 a42a 0000 0000 00c4 492b d8db 502b
00000110: 0000 0000 5760 0a2d e0a5 242c 9c0d 072b
00000120: 4fec 3a2a 4c24 a32a 095c 302d e71b 1c29
00000130: c90c ca27 0000 0000 00c4 492b f840 4f2b
00000140: 0000 0000 4f71 092d 33b7 a42a ad36 852c
00000150: 0000 0000 9b82 e928 0000 0000 0000 0000
00000160: 0000 0000 881c 9d2f 27c8 452f 0000 0000
00000170: 56a5 ae2a 3cdc b52b 70cf 972f ebe9 022e
00000180: 11a1 5a2f 0000 0000 8bb1 c42c 1baa bd2c
00000190: 0000 0000 34cb a12f a387 202f 879c e929
000001a0: affc 042b c879 122c 1604 912f 7c6b 7f2d
000001b0: 11a1 5a2f 0000 0000 5326 012d 0556 fd2c
000001c0: 0000 0000 21aa 7e2f 2082 512f 1ae6 892d
000001d0: bfcd c12c b773 c52c 1e34 e42f 3910 f12c
000001e0: 8f2b 922b 0000 0000 5326 012d eead fd2c
000001f0: 0000 0000 4ce5 6b2f 11a1 5a2f 390f 632e
00000200: 0000 0000 21ba b22a 0000 0000 0000 0000
00000210: 0000 0000 a9b8 0e2f 8e38 572e 0000 0000
00000220: f0da dc2b 11ab 932c 4678 2d2f ed9c 8e2d
00000230: da2d f92d 0000 0000 f652 052d 3dcd 0e2d
00000240: 0000 0000 8696 c62e 5167 e02e 6b8e 7a2a
00000250: 2b45 1e2c e61a dd2c 5743 2d2f 9303 c02c
00000260: da2d f92d 0000 0000 8b87 3f2d 3659 472d
00000270: 0000 0000 8ea5 932e cab9 9d2e d359 e22d
00000280: b59d 402d 00dc 4f2d c0ff 4a2f 7e55 b72c
00000290: 1758 8c2a 0000 0000 8b87 3f2d b1b1 452d
000002a0: 0000 0000 db90 902e da2d f92d 61a6 bd2e
000002b0: 0000 0000 a206 1e2b 0000 0000 0000 0000
000002c0: 0000 0000 321f 942f 9759 8f2e 0000 0000
000002d0: b216 552b 4aee 0f2c 51fb 932f fa26 aa2d
000002e0: 9c81 802e 0000 0000 90ec c92d d4c1 cb2d
000002f0: 0000 0000 3cc6 bb2f a85e ce2e 6b6f e228
00000300: ee72 d32b fa61 832c 4d4c 992f 2f54 602d
00000310: 9c81 802e 0000 0000 4894 042e ec95 042e
00000320: 0000 0000 129f 932f b601 bb2e f647 ca2c
00000330: 6de5 792d 61d0 932d 7651 ad2f d426 992c
00000340: 1291 162c 0000 0000 4894 042e f38f 042e
00000350: 0000 0000 93bc 8c2f 9c81 802e f3c5 a22e
00000360: 0000 0000 7c74 152b 0000 0000 0000 0000
00000370: 0000 0000 ae3c 872e 2376 9d2d 0000 0000
00000380: 61f4 a829 7c48 602b 5938 af2e ad65 a92c
00000390: 9ea2 652d 0000 0000 873d ec29 fe40 772a
000003a0: 0000 0000 13e8 7f2e b314 df2d 6a43 3629
000003b0: 75a8 d52a 5eae c62b 73c6 a92e 36ac 132c
000003c0: 9ea2 652d 0000 0000 28c0 a52a 41bc cd2a
000003d0: 0000 0000 7f56 5c2e fdc1 9e2d a6c4 0f2d
000003e0: d42c 982a 2da0 312b ac6b cf2e 3118 ce2b
000003f0: 7aae cb29 0000 0000 28c0 a52a 0d2b c32a

exp_avg f4 [128]
-3.2176592e-06 6.116015e-06 -4.5442965e-05 -2.3960005e-05 -2.0979902e-05 2.411895e-05 -1.9929044e-05 -2.8005232e-05
2.9225019e-05 3.280362e-05 1.6046777e-05 2.3944305e-05 2.0507012e-05 -7.2999883e-06 -1.4655797e-05 1.3800903e-05
5.973858e-05 -4.5632364e-06 -2.043994e-05 4.377312e-06 2.6358017e-05 4.4324035e-05 3.4768058e-05 -6.8084075e-05
2.7899605e-05 -8.712936e-05 1.0926501e-05 1.3704878e-05 9.0183485e-06 1.9382992e-06 -5.156478e-06 3.2869225e-06
-6.621704e-06 1.9129632e-06 8.842258e-06 3.301219e-05 -4.655496e-05 4.9793627e-05 7.911267e-06 1.108708e-05
6.34866e-05 2.8607017e-05 -3.841381e-06 6.385731e-06 1.4122517e-05 1.2554112e-06 -1.3280288e-05 -2.6843143e-05
-2.472932e-06 -2.3208078e-05 -1.3925913e-05 -7.798914e-06 -1.117181e-05 -9.831068e-06 -1.7875309e-05 3.187074e-05
-1.0028814e-05 2.75863e-05 2.878589e-06 3.3912347e-05 -5.6534445e-06 -2.7868286e-05 -4.1481007e-06 -9.088272e-06
-2.3479997e-06 -1.4836185e-05 -3.2141517e-05 5.1982856e-06 7.885975e-06 -1.2033104e-05 -1.0367189e-05 -4.4992146e-05
2.7685575e-05 4.725914e-05 -1.941866e-06 -3.737057e-05 -2.7354217e-05 4.0148578e-05 2.1999585e-05 2.0590722e-05
1.9179633e-06 -9.636016e-06 3.4442544e-06 -5.101297e-05 7.844448e-06 1.0084904e-05 2.2161632e-06 1.4361291e-05
2.5898506e-05 -7.637483e-06 -1.2695762e-06 4.2131272e-05 1.2547172e-06 -2.5944872e-05 3.8531562e-07 1.46494385e-05
1.1698222e-05 -2.2632523e-05 3.0186438e-06 2.6620623e-05 4.537338e-06 -1.41352375e-05 6.6652024e-06 -2.0484863e-06
2.3519557e-05 -5.3826584e-06 6.880658e-06 -3.01696e-05 -1.2352474e-06 1.1457747e-05 -2.0040004e-06 -1.4396203e-05
-1.9248288e-05 1.063812e-05 -4.954835e-06 -4.2906424e-05 -2.693923e-05 -1.2940198e-05 -2.714274e-05 -2.8635895e-05
3.0448164e-05 2.2584363e-05 3.404947e-05 1.5340367e-05 -2.4619907e-05 -3.2059692e-05 -4.138493e-05 -2.4417957e-05
00000000: f7ee 57b6 2b38 cd36 039a 3eb8 b8fd c8b7
00000010: fffd afb7 0d53 ca37 4c2d a7b7 c7ec eab7
00000020: 4028 f537 9e96 0938 319c 8637 01dc c837
00000030: 7906 ac37 6cf2 f4b6 2be2 75b7 6d8a 6737
00000040: d08f 7a38 e71d 99b6 7076 abb7 d3e0 9236
00000050: 691b dd37 92e8 3938 ebd3 1138 5cc8 8eb8
00000060: f209 ea37 38b9 b6b8 f750 3737 01ee 6537
00000070: 834d 1737 ba13 0236 cf05 adb6 e694 5c36
00000080: 0130 deb6 7560 0036 3559 1437 9276 0a38
00000090: 0244 43b8 80d9 5038 a2ba 0437 a502 3a37
000000a0: 1c24 8538 1af9 ef37 36e5 80b6 0345 d636
000000b0: c0ef 6c37 9a7f a835 67ce 5eb7 362d e1b7
000000c0: a6f4 25b6 f8ae c2b7 57a3 69b7 15d8 02b7
000000d0: 8f6e 3bb7 1ef0 24b7 eff2 95b7 f2ac 0538
000000e0: 6e41 28b7 2169 e737 c82d 4136 1b3d 0e38
000000f0: b8b2 bdb6 b0c6 e9b7 ea2f 8bb6 d579 18b7
00000100: 5492 1db6 eee8 78b7 b1cf 06b8 ef6c ae36
00000110: 014e 0437 cae1 49b7 bdee 2db7 f3b5 3cb8
00000120: 523e e837 1d38 4638 0151 02b6 58be 1cb8
00000130: bc76 e5b7 3565 2838 c08b b837 3dba ac37
00000140: 5cb6 0036 60aa 21b7 d723 6736 c2f6 55b8
00000150: a69b 0337 5532 2937 65b9 1436 46f1 7037
00000160: 9e40 d937 bd22 00b7 4e66 aab5 1cb6 3038
00000170: c167 a835 30a4 d9b7 60dd ce34 dcc6 7537
00000180: 7b43 4437 f9da bdb7 e893 4a36 5a4f df37
00000190: 703f 9836 6226 6db7 a7a5 df36 ba78 09b6
000001a0: dd4b c537 af9c b4b6 67e0 e636 b914 fdb7
000001b0: c7ca a5b5 a63a 4037 777c 06b6 3987 71b7
000001c0: 6277 a1b7 617a 3237 b541 a6b6 6cf6 33b8
000001d0: 8efb e1b7 ba19 59b7 97b0 e3b7 1e37 f0b7
000001e0: ef6a ff37 8d73 bd37 57d0 0e38 30af 8037
000001f0: d986 ceb7 d577 06b8 bb94 2db8 2ad5 ccb7

exp_avg_sq f4 [128]
1.736392e-11 1.02866205e-11 4.14527e-10 2.2571206e-10 2.7793515e-10 9.765904e-11 8.7436405e-11 1.761006e-10
1.2751074e-10 3.0351474e-10 1.9610284e-10 5.488261e-10 1.919733e-10 5.108406e-11 7.242979e-11 4.0183256e-11
7.137974e-10 1.81224e-10 1.05027584e-10 9.0362534e-10 5.246185e-10 3.380702e-10 1.9962836e-10 6.1937205e-10
1.3988752e-10 8.96997e-10 8.002298e-11 5.1888195e-11 6.434096e-11 6.05911e-12 1.1845046e-10 1.6267986e-10
1.5143565e-11 5.212089e-11 1.0706022e-10 4.5566564e-10 2.7556224e-10 3.6525383e-10 1.6882868e-11 9.5267676e-11
7.886766e-10 1.52206e-10 7.914776e-12 5.1993816e-11 7.290743e-10 8.571054e-11 2.6351052e-11 1.1785524e-10
2.4832443e-11 1.3253303e-10 4.2992974e-11 2.8290428e-10 3.903477e-11 3.7360972e-11 9.3579075e-11 2.405167e-10
2.1663665e-10 2.1025981e-10 7.6269616e-11 2.2850652e-10 8.3124674e-11 1.0331727e-10 1.0907261e-11 3.479708e-11
1.2793178e-11 7.414952e-11 1.4220786e-10 2.3370203e-11 8.526136e-12 4.341305e-11 2.820868e-11 1.2570981e-09
1.192952e-10 2.5453734e-10 7.665665e-11 5.1781057e-10 1.51844e-10 2.5550984e-10 1.5090405e-10 1.70481e-10
7.160244e-10 2.2878938e-10 2.5477568e-11 5.224638e-10 1.6286147e-10 3.112788e-11 4.0356334e-12 2.7366245e-10
1.0779668e-10 4.195499e-11 4.0492904e-11 4.2195922e-10 1.0727153e-12 1.2305705e-10 2.4999317e-10 2.1699761e-10
9.681662e-11 1.2988877e-10 1.6349924e-10 2.0032952e-10 6.714891e-11 3.7994895e-11 3.566233e-11 2.3354879e-11
9.449615e-11 4.680516e-12 1.8034878e-10 1.7671721e-10 1.3749483e-11 5.987302e-11 5.759502e-11 5.2714628e-11
1.108902e-10 2.3915342e-11 9.261747e-11 3.214074e-10 1.4257946e-10 1.2291188e-10 5.17219e-10 1.475409e-10
1.8651722e-10 9.477785e-11 2.6587393e-10 4.471828e-11 3.0297825e-10 1.215613e-10 4.4123993e-10 2.2826556e-10
00000000: 12bc 982d d2f6 342d 7de3 e32f 4c2c 782f
00000010: e5cb 982f 27c1 d62e 5246 c02e ea9f 412f
00000020: 1533 0c2f e7db a62f 0b9e 572f 34dc 1630
00000030: ae13 532f 8aab 602e 5946 9f2e 53ba 302e
00000040: 0735 4430 0542 472f 46f5 e62e fb62 7830
00000050: bf34 1030 27db b92f 637e 5b2f 6f40 2a30
00000060: d6ce 192f 8d90 7630 eff8 af2e ea34 642e
00000070: be7c 8d2e 9c2f d52c d73c 022f 4fde 322f
00000080: 4734 852d e83a 652e 8c6d eb2e 3d81 fa2f
00000090: f07d 972f e8cc c82f d780 942d ef7e d12e
000000a0: 2fca 5830 2e5a 272f fb3c 0b2d d5ab 642e
000000b0: 0b68 4830 bf7a bc2e 4bc9 e72d 4d95 012f
000000c0: b16d da2d bbb8 112f c915 3d2e 3d87 9b2f
000000d0: 3ead 2b2e b750 242e 56c8 cd2e b739 842f
000000e0: cc31 6e2f e02e 672f fab7 a72e de3e 7b2f
000000f0: 08cb b62e 7432 e32e f0e1 3f2d 070a 192e
00000100: 5a0f 612d 780e a32e f45b 1c2f 0591 cd2d
00000110: 4efe 152d c0ee 3e2e 4d20 f82d 35c6 ac30
00000120: 9d2a 032f f2ee 8b2f dc91 a82e ae55 0e30
00000130: 49f4 262f d077 8c2f b7eb 252f 2372 3b2f
00000140: bdd1 4430 7c8e 7b2f 621a e02d 1f9d 0f30
00000150: 6e11 332f e1e6 082e c1fd 8d2c 9172 962f
00000160: 230c ed2e 1f85 382e f516 322e 7bf9 e72f
00000170: a4f8 962b 7b4d 072f 696f 892f 6697 6e2f
00000180: e9e6 d42e 70d0 0e2f f2c4 332f bf43 5c2f
00000190: 7aa9 932e 731a 272e 37d8 1c2e 836e cd2d
000001a0: 9acc cf2e 57ae a42c ab4b 462f 794d 422f
000001b0: 2be2 712d 84a9 832e 3a4e 7d2e 65d7 672e
000001c0: a2d9 f32e 905c d22d 00ab cb2e 12b2 b02f
000001d0: 8dc4 1c2f 9e24 072f 0d2c 0e30 1239 222f
000001e0: ee13 4d2f 306b d02e 6e2a 922f 4fac 442e
000001f0: 6690 a62f 77a8 052f 0093 f22f 0bfb 7a2f
