Project specific/results/ppo/JumperAgent/JumperAgent-27525.onnx (onnx, 127520 bytes, 8 tensors)

network_body._body_endoder.seq_layers.0.weight f4 [128, 109]
00000000: b6d5 d0bd 4569 803c df78 05bb b66e 3f3d
00000010: 99ce 973c 526a ea3c 4687 1fbe 54cc 00be
00000020: f9e4 62bd 5932 9ebc b858 ca3d f12a 313d
00000030: 44cf a63d 73da c53d 1fef 8cbd 9469 0b3d
00000040: c60b b7bc a710 80bd 48ee 693b 12f7 c7bd
00000050: ae79 d4bd 8fad 023d 8e06 223d c2fc cc3c
00000060: 7234 01be f00b 8e3d 9462 2d3c 7477 6ebd
00000070: 4229 553b 9f01 343e 0050 a6bd d12f 94bd
00000080: 8613 ccbb 5576 123e 9e59 bcbd 2d53 30be
00000090: c30f c8bd 3f50 fb3c d325 23bc f3d5 dcbc
000000a0: 3fd2 1cbe 5d3e 04be 25ad af3d 868f 78bb
000000b0: 142a 0e3e 6ad0 08be 831a 813d 754f 0bbd
000000c0: 7da5 d43d bee9 163e ecde e3bd 1ef6 e8bd
000000d0: 660e f53c 42b2 8d3a 9e00 3abe f5b4 b1bd
000000e0: 85e8 4fbd cbab 2ebd f6e0 963d dbfe 113e
000000f0: 6f72 0c3d 407a d03b 7127 7d3d d1f2 11bd
00000100: f0af ad3d 6155 c03c e058 1bbe 3501 b33b
00000110: 8533 8ebd 2326 e53b ea72 bf3c 7b09 c9bb
00000120: 8dfc 50be 4d59 63bd 671c 9f3d 946a a63d
00000130: 2ae2 963d 15cc cfbc 6239 0e3e e652 74bd
00000140: 6c1a b83d b40c 673d 088e db3b c5cc 19bd
00000150: 00da 3d3e 0b08 973d 256b e6bc 7613 4a3c
00000160: 1cc2 ef3d 6869 083e f7ff ddbc be52 97bd
00000170: 6a1b ffbd c66a 7abe faf1 ae3c 8585 d2bd
00000180: 8801 793d 75a9 fbbb e2c6 c5bc 5e1f cbbd
00000190: c059 bebd 0fde 123e 7bef 3cbe def6 963d
000001a0: eb18 c2bd 0267 833b de9b dcbc ffda 033c
000001b0: c48c 0bbd 52e3 2dbe 0c6f 8b3d 4434 5dbe
000001c0: 6051 65be 6e51 0cbe 9988 ddbd f364 88be
000001d0: c800 e93d 02b0 9abc aa15 033c 68ea 62bd
000001e0: fb72 92bc a5e2 a93c 1033 bdbb 6389 0abd
000001f0: 445d 21bd 5fbc 933d fe8d 2a3d e91e 97bd
00000200: 6042 da3d bf81 903c 85a8 24be c9e8 d7bb
00000210: 7c17 c93b e9c2 8b3d b136 41be 7835 833d
00000220: b55e 60bd cd68 bdbd 9338 0e3d 87b6 2abd
00000230: f5b1 a0bd 8ed1 98bd 2dcb 46bd b9ae d5bc
00000240: 5fc0 8fbd 7884 643d 4ace f53c d370 fa3c
00000250: b333 a43d ae5c a4bc c14b 8c3c 686d bbbd
00000260: bba4 babd 2196 1cbd 18d6 13bc 7ab6 46be
00000270: e71a cd3c 46c4 523d 3675 723d 077a ce3d
00000280: 833f dd3b faee b23c c9de 6c3d 9aa1 ba3d
00000290: 7d19 bc3d f40c a1bd bc40 59bb 1307 053d
000002a0: ce48 abbc f481 87bd 41f1 033d eba8 813d
000002b0: a067 883e bf1e 963d bac2 073e 14c0 043e
000002c0: d1f7 083e 9b54 14be f3c6 27bd ae3e 4cbe
000002d0: ed91 08be ab4c 113c ff6c 0e3e c8fd d5bb
000002e0: 8384 e8bc 2451 a23d 57f0 aa3d a9c9 253e
000002f0: 291d 113e aab0 013d d29c c33d a79c d8bd
00000300: cff3 56bd 2df5 8a3d 3891 a03d b7f5 37be
00000310: 264a 32bd 8091 cabd 4aec 02be 433f 4b3d
00000320: 00ae d43c a19b 42bd 8af8 cebd d6ae 6c3d
00000330: 9325 d5bd ccf2 333e bea2 e8bc 06c8 0d3d
00000340: 8e2c 7bbd 3746 6e3c 35cc e8bd e742 35be
00000350: e7f8 33be f31c 143e 89b6 253e bb58 093d
00000360: 1132 5f3d b1e7 5abd 614d 603d 54da 903b
00000370: 5b39 cabd 8b40 11be 5020 dcbd 6b21 373d
00000380: 68c6 3cbd 83c5 2fbe 35f8 773d 75e5 50bc
00000390: b0c5 69be cc97 573d 8653 9abc 872e 8a3d
000003a0: b728 2e3c 2568 3a3d 1cb7 70bc e1fc 7bbd
000003b0: 6cf3 763e ae4d c93c 94cb f73d d09d 30bc
000003c0: 3c91 d5bd 2695 eebd dffd 13be 1f19 09be
000003d0: 33d2 f4bd 6867 42bd 822f 383c 3021 75bd
000003e0: 491e ddbd b3b3 6e3e b09d 093e 1828 cf3b
000003f0: 193b 93bd 4faf e43d f665 d0bc bd4b 473d
-0.10197012 0.015675196 -0.0020366234 0.04673644 0.01853113 0.02861515 -0.15578946 -0.12577945
-0.055394147 -0.019311117 0.09880203 0.043253843 0.081450015 0.096608065 -0.06881546 0.034036234
-0.022344481 -0.06253176 0.0035695005 -0.09763922 -0.10374771 0.0319038 0.039557032 0.025022868
-0.12617663 0.06935871 0.010582585 -0.058219388 0.0032525812 0.17578743 -0.081207275 -0.07235683
-0.0062279133 0.14302953 -0.091967806 -0.17219229 -0.09768631 0.030677913 -0.009957748 -0.026957488
-0.15314578 -0.12914415 0.085779466 -0.0037927344 0.13883239 -0.13360754 0.06303885 -0.034011323
0.10383127 0.14737603 -0.11126503 -0.11375068 0.029914092 0.0010810571 -0.18164298 -0.08677093
-0.050758857 -0.042644303 0.07367127 0.14257376 0.03428882 0.0063622296 0.061805192 -0.03563196
0.08480823 0.023478212 -0.15170622 0.0054627904 -0.0694342 0.0069930716 0.023370225 -0.0061351634
-0.2040884 -0.055505086 0.07769089 0.08125797 0.07367356 -0.025365869 0.13889077 -0.05964937
0.089894146 0.0564086 0.006700281 -0.0375488 0.18540192 0.07374581 -0.028127262 0.012333741
0.11706945 0.1332146 -0.027099593 -0.07388829 -0.12456401 -0.24454793 0.021355618 -0.10279373
0.060792476 -0.007680113 -0.024142686 -0.09918092 -0.09294462 0.14342521 -0.1845073 0.07371305
-0.09477409 0.004010082 -0.026929792 0.008047818 -0.03406979 -0.16981247 0.0680829 -0.21601969
-0.22394323 -0.13702938 -0.108170696 -0.26639518 0.11377102 -0.018882755 0.008000771 -0.05539933
-0.017877093 0.020737955 -0.0057739094 -0.03382243 -0.039395586 0.07213663 0.04163932 -0.073789425
0.10657191 0.017639993 -0.1607991 -0.0065890294 0.0061368328 0.068242855 -0.1886852 0.06406683
-0.05477782 -0.09248505 0.034721922 -0.041677978 -0.078464426 -0.074618444 -0.048533607 -0.02608429
-0.07019114 0.055790395 0.030005593 0.030571377 0.08017673 -0.020063724 0.017125966 -0.09151727
-0.09113451 -0.03822911 -0.009023212 -0.19405547 0.025037242 0.051456712 0.059193812 0.100818686
0.006751956 0.021842469 0.057829652 0.09112854 0.09184549 -0.07863799 -0.0033150157 0.03247745
-0.02090874 -0.066165835 0.0322125 0.06331047 0.2664156 0.07330083 0.13257876 0.12963897
0.13375784 -0.144854 -0.040961217 -0.19945785 -0.13336916 0.008868377 0.13908766 -0.006530497
-0.028383499 0.079256326 0.083466224 0.16190208 0.1417128 0.03166262 0.095513955 -0.10576754
-0.052478608 0.06785045 0.07840198 -0.17964827 -0.043527745 -0.09891033 -0.1278545 0.049620878
0.025961876 -0.0475117 -0.10105999 0.057783924 -0.10407557 0.17573088 -0.028397914 0.034614585
-0.061321788 0.014543108 -0.113670744 -0.17701302 -0.17575417 0.14464168 0.16182913 0.033531886
0.054491106 -0.053443614 0.054761294 0.004420558 -0.09874221 -0.14184777 -0.107483506 0.044709604
-0.046087652 -0.17165188 0.060539443 -0.012750019 -0.22829318 0.052635 -0.018838655 0.06747156
0.010629824 0.045509476 -0.014692094 -0.06152046 0.24116296 0.024573173 0.12099376 -0.010779813
-0.10428092 -0.116495416 -0.14452313 -0.13388489 -0.11954155 -0.047461897 0.0112417955 -0.059846103
-0.10796792 0.23310737 0.1343906 0.006321918 -0.07189006 0.1116625 -0.025439244 0.048656214

network_body._body_endoder.seq_layers.0.bias f4 [128]
00000000: fc2c c23a 92c7 013b 9e63 88b9 5b28 e239
00000010: 9ea9 003b bc50 b23a 31ed bd3a ea08 083a
00000020: d579 f6bb 2661 b8ba 10a4 1dba 0fe3 493a
00000030: c138 1d3a fe38 6c39 ef28 3cbb 1bad 9339
00000040: 2212 66bb 99b8 b8ba 9082 743a e159 033b
00000050: 6805 f2ba 5cc3 343a 8cb8 13ba 3eb1 1bba
00000060: 7143 7cba 2172 3fb9 c890 8d39 c941 e2bb
00000070: 6b97 abb8 20ce 9cba efa2 56ba 12d2 67b9
00000080: b407 f238 1cd1 323a 6a8e b4ba b903 a1bb
00000090: de5d af3b 2978 573a 4c09 743a 421a 3abb
000000a0: 5983 8abb f760 d13a bc79 9ab9 0b29 81ba
000000b0: bd0f 923b ea7f d7ba 6567 d3bb 8c6b 8e3a
000000c0: 3014 96ba b75c 38bb 68ee 79b7 5e45 ebba
000000d0: 1610 b9ba 3296 7dbb d480 11ba 352e f3ba
000000e0: 20e4 64ba e34a da3a 07c9 a2ba 1774 db3b
000000f0: d752 e4b9 f220 ca3b 9c08 9cba ad06 8a3a
00000100: ce39 de3a 1fc2 bbba c954 563a a6b0 8fba
00000110: 3c81 283a a1f6 94ba b3fb 6fbb 6c73 cd3a
00000120: 2549 c639 271c c1bb ef81 9e39 ebde 9539
00000130: dcbc 6cba 8748 7139 e96a 383a cc67 f83a
00000140: ed86 733a 070f 9dba ca98 abb8 2a01 0cba
00000150: 4474 45bb b1b3 9f39 eca3 d5ba 660b 853a
00000160: 4c05 bfba 163d 3bbb 36a7 823a e187 d0ba
00000170: 45fa beba 8821 8a3a 66e2 82ba 272a 583b
00000180: de08 0eba ec6c f9ba 3818 4738 81d9 dbba
00000190: 73b2 0b3a cb27 113b 2cf9 d5ba 6ba2 093b
000001a0: 4e12 b73a d9b1 b2ba 9ac2 8739 f115 c2ba
000001b0: 5936 a539 a0b6 adba cd37 a23a e188 2b3b
000001c0: b0ff 183a 0308 e93a 973d 28bb b9b3 593b
000001d0: 494a 0fba 7c81 833a 7db5 d538 7436 3bba
000001e0: b15f 8d3b 52d0 99ba 501f 3f3b eca2 c0ba
000001f0: ea5f 333a 8967 98ba 6807 98ba a7ed afb9
0.0014814432 0.001980279 -0.00026014162 0.00043136146 0.001963235 0.0013604383 0.0014490244 0.00051893166
-0.0075218477 -0.0014067038 -0.0006013522 0.0007701376 0.00059975317 0.00022527945 -0.0028710922 0.00028166999
-0.0035106023 -0.00140931 0.00093273167 0.0020042586 -0.0018464746 0.0006895566 -0.00056351046 -0.0005939192
-0.00096230867 -0.00018257696 0.00027001486 -0.006904815 -8.182119e-05 -0.0011963286 -0.0008187731 -0.00022108134
0.00011540894 0.0006821321 -0.0013775353 -0.004913774 0.005351766 0.00082195044 0.00093092467 -0.0028396999
-0.0042270836 0.0015974332 -0.00029463868 -0.0009854151 0.0044574426 -0.001644132 -0.0064515346 0.0010865792
-0.0011450108 -0.0028131434 -1.4897065e-05 -0.001794975 -0.0014119174 -0.003869426 -0.0005550508 -0.00185532
-0.0008731503 0.0016654398 -0.001241953 0.0066971886 -0.0004354927 0.006168478 -0.0011904421 0.0010530554
0.0016954483 -0.001432482 0.0008176086 -0.001096268 0.0006427949 -0.0011365005 -0.003661853 0.0015674657
0.0003782 -0.0058932486 0.00030232916 0.00028585581 -0.0009030828 0.0002301057 0.0007034974 0.0018951832
0.000928982 -0.0011982628 -8.1823746e-05 -0.00053407496 -0.0030129114 0.00030460724 -0.0016299463 0.0010150492
-0.0014573722 -0.0028570346 0.0009968046 -0.0015909636 -0.0014570436 0.0010538558 -0.0009985685 0.003298411
-0.00054181914 -0.0019029654 4.7467853e-05 -0.0016773195 0.000532902 0.0022148963 -0.0016324869 0.002100135
0.0013967247 -0.0013633325 0.00025894196 -0.0014807564 0.00031511745 -0.0013253279 0.0012376249 0.0026174115
0.000583644 0.0017778877 -0.0025671476 0.0033218695 -0.00054660864 0.0010033096 0.00010190436 -0.0007141598
0.004314386 -0.0011735058 0.002916295 -0.0014696992 0.00068426004 -0.0011627536 -0.0011598887 -0.00033555666

network_body._body_endoder.seq_layers.2.weight f4 [128, 128]
00000000: 830c 553d a7ff 003e 1fc5 0f3c 8851 7fbd
00000010: 1f61 fe3d 5669 1e3e 6bb0 02bd 7917 0dbd
00000020: d5f8 adbd 9466 e2bc b2d8 aabc 8275 533d
00000030: f2b1 8e3a 1e7d 313d aa4e 00bd 41db ab3d
00000040: dd42 ae3d d22e 51bd 1c8e 2bbe 34e5 4fbd
00000050: b26a 25bd 5242 86bc 3e8b 71be e337 193e
00000060: d84a 0a3e 2a7d e43d cf26 a3bd daf4 843d
00000070: 3e1c a93d c483 6cbd 874e 39bc 7762 7fbd
00000080: 36cf 0a3d 4b63 3ebd baf0 a53d 4d1e 0ebe
00000090: 460d c83c 0045 1ebc e4c9 51bd d3b7 b0bc
000000a0: 895b 923d 0fa8 cf3c 49db 0abd d41d 9d3d
000000b0: 0f39 1c3c d261 85bd b47e 9cbe b978 64bd
000000c0: efb5 14be fa99 2b3d 74f9 b43c 494f 123b
000000d0: 9852 0b3c 0711 533b 76f7 98bd 4d87 0cbe
000000e0: a99c b5bd 5961 5abc 583d afbc 3fda 993d
000000f0: 2af0 c03d 0867 fe3c bb98 3d3e 54b8 00bd
00000100: 3bb3 3bbe 482f c3bc ef17 8d3d 876d 4fbd
00000110: 789b c03d 4ffb f4bc 8cb1 fb3c 8151 fd3c
00000120: 8017 10be b8cf 6c3d 651c e33b 7d21 6fbd
00000130: 1fb0 9d3b db4f db3b 77d4 76bd b402 f0bd
00000140: 0804 dd3d d11f 313d 620d 273e 1a5c 4a3c
00000150: 565b 2a3e d3ca ef3c 71f3 8f3d c913 3a3d
00000160: 87c5 933b 49a6 0ebb 5d6a 18bd 45a0 5cbd
00000170: a085 763c 8426 0dbc 2762 dbbd bcc0 8abd
00000180: 3fcd 073e 9987 063e 69c7 dd3d 63a4 29bc
00000190: aba9 01bd adeb 463d c2f2 ed3c 0890 40bc
000001a0: f7f6 11be 2a2c 82bd 3e4c 20bd 3acc 9239
000001b0: 91b1 9d3d 5673 ecbc 657e d4bd 0390 ecbd
000001c0: a73d 3c3c 815d 083d b69e ea3d 355b babd
000001d0: 7fd1 0c3e a6aa cf3c c9e5 063e ddc6 333e
000001e0: ce0e 893c 1405 8d3b bda3 31bd 05c1 703e
000001f0: 8b94 2e3e 629f b3bd 465e 10bd ffdf cebd
00000200: 4a40 c13b fe61 1cbd d441 023e 5c6d b13d
00000210: dec1 d9bd 5e53 8f3d 29fa a13d f847 0d3e
00000220: 17fe 14bd 57d7 d03c 5b10 403e 1e06 19bd
00000230: a79a 763e 4038 1f3d d68f af3d b010 163d
00000240: 2d87 513d 3832 08be ec3c dcbb 1d9e 013e
00000250: b475 a83c 9a33 593e 207f 8c3d 4f17 38be
00000260: 43aa 08be 4854 2c3d 8802 be3c 865f ef3d
00000270: fd0f 7ebd a7e7 ccbd e344 cb3d b690 18be
00000280: a5f6 73bd 0646 533d c18a 0dbe e0d8 bdbc
00000290: acf4 183d c653 353d 7e3e 06bd 3467 463d
000002a0: 3230 0bbd b76b 063e 7546 69bd 1055 6d3d
000002b0: 3034 dd3d 2bf8 173c e955 8bbd d9e6 55bd
000002c0: fad4 193e 2f7e b9bd aa6b 6cbd 0532 843d
000002d0: 3855 98bd 9339 b6bb 16df 41b9 850e 47bd
000002e0: 58f7 f7bd fbc3 413e ab26 e33d a911 b9bc
000002f0: dab7 18bd bed2 cd3d 4061 2fbe 3782 09be
00000300: c25a 2abd 0822 30be 1e64 863d 7ee7 adbd
00000310: 772e a83d d73a b5bd ea37 2fbd 5795 713d
00000320: e026 d2bd 6194 21bc 5738 53bd 7b23 263b
00000330: 28de bbbc d491 55b9 ac04 c73c fd4e 2bbd
00000340: 7991 98bc 89c6 b7bd 03b1 9cbd 61f4 36be
00000350: bcae b33d 28b4 c5bc 5b53 a93d 9387 d03d
00000360: c9c1 efbd 22a2 82be 8cff 9d3d d948 b1bd
00000370: b8ac 1b3d dbd6 3d3c 58f1 db3d 234b 36bc
00000380: 7085 1bbd d42a 30be 31aa 023d 812f a53d
00000390: 0b28 9cbc f3c5 8cbd 4b06 43bd e3c7 9bbd
000003a0: 075d e83a 0f4e d83d da4e 673d 10fe 073e
000003b0: 2f0a 03be 9933 aa3d b6c3 963d 6883 bfbc
000003c0: 2e15 46bd 6bbc 0a3b 8c9d d4bc 91a6 ffbd
000003d0: 4fd7 31be a95e e8bd 9a8e 46bc 2de6 c9bd
000003e0: 56a4 80bc ab58 5e3d adf3 1bbe 6576 24bd
000003f0: b26b 953b 781a 65bd f978 443d 99a6 b83d
0.052013885 0.12597524 0.008775025 -0.062333614 0.12420868 0.1546987 -0.031906527 -0.034446213
-0.084947266 -0.027636804 -0.020855282 0.051625736 0.0010886772 0.04333221 -0.03132502 0.08391429
0.08508847 -0.051070042 -0.16753429 -0.050755695 -0.040384956 -0.016389046 -0.23588273 0.14962725
0.13505113 0.11156686 -0.079663865 0.06492014 0.0825734 -0.05774285 -0.011310226 -0.062349763
0.033889018 -0.046481412 0.081025556 -0.13878746 0.024420392 -0.009660006 -0.05121793 -0.02157203
0.07146365 0.025348691 -0.033900533 0.07671705 0.009535088 -0.06512798 -0.30565417 -0.055779193
-0.14522527 0.04189489 0.022091605 0.002232509 0.008503579 0.0032206194 -0.074690744 -0.13723488
-0.08867771 -0.013328874 -0.021391556 0.0751233 0.09420808 0.031054989 0.18515293 -0.03142579
-0.1833009 -0.023826256 0.068893306 -0.050641563 0.09404653 -0.02990499 0.03072431 0.030922653
-0.14071465 0.057815284 0.006930875 -0.058381546 0.004812255 0.006692869 -0.060261216 -0.117192656
0.107917845 0.043243233 0.16313699 0.01235106 0.16636404 0.029271519 0.07028855 0.045429025
0.004509631 -0.0021766594 -0.03721081 -0.053863782 0.015046507 -0.00861514 -0.107120804 -0.067750424
0.13261889 0.13137664 0.1082905 -0.010354134 -0.03165595 0.0485646 0.02904642 -0.01175309
-0.14254366 -0.0635608 -0.03913521 0.0002799945 0.07699884 -0.02886359 -0.1037567 -0.115509056
0.011489308 0.033292297 0.11456053 -0.090994276 0.13751791 0.025349926 0.13173594 0.17556329
0.016730692 0.004303584 -0.043369044 0.23511131 0.17048852 -0.08770634 -0.035246156 -0.101013176
0.0058975564 -0.03817939 0.12720424 0.08663437 -0.1063268 0.06998323 0.079090424 0.13796985
-0.03637513 0.025493307 0.18756239 -0.03735935 0.24082433 0.038872004 0.085723564 0.03663701
0.051154304 -0.13300407 -0.0067211296 0.12657972 0.020563938 0.2121109 0.06860185 -0.17977642
-0.133462 0.042072564 0.023194566 0.116881415 -0.062026966 -0.10005122 0.099252485 -0.14898953
-0.05956139 0.05158045 -0.13822462 -0.023174703 0.037342712 0.044269346 -0.03277444 0.048438266
-0.03398151 0.13127027 -0.05695196 0.05794245 0.108009696 0.009275476 -0.068034954 -0.052222107
0.1502265 -0.09057271 -0.057719864 0.06454853 -0.07438129 -0.0055610626 -0.0001848902 -0.04859783
-0.12107724 0.18922417 0.1109136 -0.022591429 -0.03728471 0.100499615 -0.17126942 -0.1342858
-0.04159046 -0.17200482 0.065620646 -0.08491419 0.082119875 -0.088491134 -0.042777933 0.058980312
-0.10261321 -0.009862036 -0.0515674 0.0025350738 -0.02293308 -0.00020367588 0.02429422 -0.041823376
-0.018624054 -0.089734145 -0.0765095 -0.1786666 0.08773562 -0.024133757 0.08267852 0.10182109
-0.117068835 -0.25514323 0.07714757 -0.08656473 0.038006514 0.01158687 0.10739392 -0.011126312
-0.037969053 -0.17203838 0.03190059 0.08065701 -0.019062063 -0.06873693 -0.047613423 -0.07606485
0.001772792 0.105617635 0.056471683 0.13280511 -0.12796853 0.08310623 0.07361548 -0.02337809
-0.048360042 0.0021169435 -0.02595403 -0.12482942 -0.1736729 -0.1134618 -0.01211896 -0.09858356
-0.015703361 0.05428378 -0.15229674 -0.040151972 0.0045599574 -0.055933446 0.04796693 0.09016151

network_body._body_endoder.seq_layers.2.bias f4 [128]
00000000: 80ff 2b35 c948 81ba 8542 6c3a 09aa 7a3a
00000010: ae92 72ba a26e be3b 5946 8cb8 466c 3439
00000020: 7015 1d3a 896e bdba 8ae4 613a 22de dfba
00000030: e02a 9eba 94f6 453a f94b 203a 6315 6fbb
00000040: 7051 daba 7f98 80ba db56 a0ba 2de0 3b3a
00000050: 95f9 943a 882f 34bb e4f8 6c3a 2097 04bb
00000060: f971 a6b9 a74f 95b9 62fc f1ba 59cd 5a3a
00000070: e21e 8f3a 0dbd d0b9 c14f 303b febd a0ba
00000080: b91b 04bb c27b a93a 3c7c acbb 647b 043a
00000090: e5d4 a5ba 6eca 7a3b 9dda c938 9c82 c4ba
000000a0: e629 c2ba defa 78ba f4c1 163a 46b7 333a
000000b0: 53c1 603a 159f b03a 2489 d8ba f088 eb3a
000000c0: 7fb6 88ba ec0b 81ba b1e7 c8ba 72ad 5139
000000d0: 02fb 15ba 14b5 abba 140a 693a de1e cdba
000000e0: 8451 15bb af73 c139 1d84 30bb 2c13 a53a
000000f0: 6966 773a 1b53 133a 7699 6dba 2e75 833a
00000100: 0733 82ba e1d7 e7ba 9c5f d5ba 755c 4dbb
00000110: 7c4d ae3b a5cc a639 3ad9 a33a 4f63 bb3a
00000120: d646 503a 0e8b b9ba 26cd b4ba 7c38 21bb
00000130: ac50 acbb 5e91 5fba 46ea 8f3a 38b3 94ba
00000140: caf6 86ba 16c7 9cba 829e ce3b e71b 8b3a
00000150: 1e70 92ba 81ec 02ba 3e44 13b9 5521 83bb
00000160: ccb7 e9ba bf08 08bb 8ddf c1ba ebad 383a
00000170: bf7a 83ba f260 a0ba 8945 baba 86b9 633a
00000180: 38ef d639 aa3a 0f3b 1ba4 09ba b82b 86ba
00000190: fc48 86bb 67e9 c73a be3b c2ba aaf7 733a
000001a0: 84f3 8b3a 87f6 453a 89fc b4b9 4cf2 59ba
000001b0: 4d53 6d3a 893e 9a39 784e 04ba 14ec 3b3a
000001c0: fec6 a03a 3ce6 623a d3b1 8dba b12d 8d3b
000001d0: 0415 2c39 2b33 19bb 02ae 173a d2c6 83ba
000001e0: 8a9f f539 3e50 5839 dc6c d0ba ac0c b2b9
000001f0: 2b47 71b9 5b49 5b3a cd9b 88ba acba aaba
6.4074266e-07 -0.0009863611 0.0009012598 0.00095620804 -0.00092534244 0.0058115283 -6.6888235e-05 0.00017206473
0.0005992269 -0.0014452498 0.0008617124 -0.001707975 -0.0012067221 0.00075516966 0.00061148364 -0.0036481253
-0.001665635 -0.0009811072 -0.0012232916 0.00071668887 0.0011365885 -0.002749415 0.0009039773 -0.002023168
-0.00031746904 -0.0002847884 -0.0018462057 0.0008346639 0.0010919238 -0.00039813705 0.0026903006 -0.0012263653
-0.0020158126 0.001293056 -0.0052638333 0.0005053787 -0.0012651948 0.003826763 9.625147e-05 -0.0014992538
-0.0014813512 -0.00094978313 0.0005750947 0.0006855618 0.00085737294 0.0013475145 -0.0016520363 0.0017969888
-0.0010430365 -0.0009845472 -0.0015327838 0.00019996407 -0.0005721302 -0.001310023 0.00088897464 -0.0015649458
-0.0022784183 0.0003689802 -0.0026934214 0.0012594215 0.00094375625 0.00056199887 -0.00090637 0.0010029429
-0.000993342 -0.0017688238 -0.0016279104 -0.0031335626 0.0053192955 0.0003181446 0.0012500652 0.0014296564
0.00079451257 -0.0014155821 -0.0013794049 -0.0024600318 -0.0052586403 -0.00085284363 0.0010979853 -0.0011344915
-0.0010296938 -0.0011961188 0.0063055167 0.0010613174 -0.001117233 -0.0004994348 -0.00014044435 -0.004001776
-0.0017831265 -0.0020757166 -0.0014791355 0.0007044959 -0.0010031088 -0.0012235923 -0.0014211397 0.0008687008
0.00040995493 0.0021855035 -0.0005250589 -0.0010236418 -0.004098056 0.0015252054 -0.001481883 0.0009306619
0.0010677432 0.0007551689 -0.0003452043 -0.0008313998 0.00090532453 0.0002941976 -0.0005047093 0.0007168662
0.0012266336 0.00086555234 -0.0010810442 0.0043084254 0.00016411027 -0.0023376446 0.0005786122 -0.001005376
0.00046848907 0.00020629258 -0.0015901583 -0.00033960247 -0.00023010063 0.0008365118 -0.0010422409 -0.0013025603

action_model._continuous_distribution.log_sigma f4 [1, 2]
00000000: c3e6 743c bd57 773b
0.014947596 0.0037741505

action_model._continuous_distribution.mu.weight f4 [2, 128]
00000000: beda af3c d2bc 65bc 7df0 013d abe0 f43c
00000010: 300a 48bd 8eb7 093b 539c aaba 1ada 8f3c
00000020: e19f 043c d613 c7bb 11d0 b73b 8336 d33c
00000030: 6668 47bd 51da 373c edb6 9a3c 383c c5b9
00000040: 5f9d aabc 95c7 e53b ffe8 d03c 4054 abb9
00000050: d39e c23c e090 843a 756a d13b 2ac9 bdbc
00000060: 328d fb3c 9629 c3bb 421a 74bc 1b09 9c3c
00000070: 477c 7cbd 171b 4dbb b726 b03a e416 afbc
00000080: 55a2 3ebc 94b0 a23c 8a75 9dbc ac94 a73b
00000090: e761 ca3c 59cb 33bb b83f f4ba b189 62bc
000000a0: 4b16 c6bc e24f 0cbd e13d 343c b1cd 313a
000000b0: de4a 1a3c fb4c 013d efb7 79bb b4a4 743c
000000c0: 43a8 9d3c e9f6 1ebd 9a4d b33b dca9 a63b
000000d0: b18a 56bc b96b 04bc 2adb e33b d504 f1bb
000000e0: d220 8a3a 03ce 3c3c 6fc4 d5ba 92f4 d03a
000000f0: 2463 493c ccbf ab3b 9409 e63a d6a2 833a
00000100: 25c6 1d3d 6a86 b6bc dd48 143c d2e6 67bc
00000110: aa8c 20bc 764c 3abb fafb d93c bb62 833b
00000120: 5759 003b 2d0a f2bb 0ee3 093b a45c ddbc
00000130: acdf 003d 44e2 903c a754 10bd 5e56 0a3b
00000140: e2bf 753b fa1d 2bbb d829 60bb 4e83 76bc
00000150: e12b 12bd 4494 87bc 3d28 053c 9a3b 9cbb
00000160: bfb2 abbb 2eeb 44ba b2fd 58bc 2ade c43b
00000170: 71b0 54bb 28ce 0abd cc3f ad3c 48aa 883c
00000180: e372 38bb 3b8c c4bb 1346 41bc a243 f33a
00000190: 2125 4b3a 52fa c9bc be9c 92bc c588 943c
000001a0: 1f57 523b d540 173b 73b0 65bc 9a9d 49bc
000001b0: 4c89 013d 5c2e 023c 7619 fbbb 617f 913c
000001c0: 8c90 2f3b 989a f23b d114 02bd 283f 04bb
000001d0: d8de 703c eceb 34bd 04b6 723c fce9 43bc
000001e0: 2c1c ed3b 9b98 633c 69cd bbbb 06f9 5abc
000001f0: 5ea4 3e3c 1d5b 333c b2a2 95bc cb06 56bc
00000200: 0311 59bb fb07 803c 3a69 24bd d3ea fdbc
00000210: b3b5 043d 0e0b 5e3c 9258 3bbc 92c6 2e3c
00000220: 0310 863b d7b6 a5bc 37cf a2bc b731 96bb
00000230: 5a46 0f3c 5300 8abc bf9c a4b9 3463 1dbc
00000240: 9993 683c 33d7 39ba b2ab 853c e50d 95bc
00000250: 154e 0dbc d957 52bb 3b69 e63c ea85 ee3c
00000260: 346c 95bc 36dc d03c 57ce db3c 7072 07bd
00000270: c0b3 b9ba a302 7e3c 7c83 023c a3cd 7f3c
00000280: 8dc1 8fbc 89b4 1e3c 50b5 75bc 5c26 cf3b
00000290: 9efb 0abc fec1 bb3b e154 613c faf7 843c
000002a0: 9336 19bc 690a e7bb f643 86bc 4dd3 333c
000002b0: 0126 333c 3d39 cabc 1f28 443b 525a f33b
000002c0: 9a6a 2abb 93c1 3e3d 1c32 623c 67a5 00bc
000002d0: 5306 b23b f8e0 0abd e4d3 d43c e307 4abb
000002e0: 19fa 713c 26e1 a6ba 9757 2cbb 39fe 63bc
000002f0: eeb6 35bb b3ac d33b 6bfe 3c3a 131c 6a3c
00000300: 7d99 fabc a48e 103c b53a f53b 267f 31bc
00000310: 9c52 d03c 7444 f1bb fd79 0ebc 02e1 c0bc
00000320: 3fec 993b 46cb 863a 2edb 12bc 1b12 f2bc
00000330: 4e37 213b 004d 41bd 2a20 28bc 2e06 06bc
00000340: 6a53 89bc 1c69 27bd 4304 2eba fd81 2abc
00000350: 54b8 d9bb a05b ca3b 2600 433c 6c4f c6bb
00000360: c524 933c 5b37 a83b 515d 95bb 6e44 ae3c
00000370: 6057 e93c f4e6 1b3c 456f 45bc a9af 2fbc
00000380: 3821 25bc dfdb 213c d30a cbbc 57e7 9bbb
00000390: 76f1 99b7 e694 dab4 944f e8bc 49e4 6b3c
000003a0: 85b1 92bb 91e4 963c c17e 45bc a567 103d
000003b0: eb59 60bb 1edd 48bc 9aa0 da3c 4af4 853c
000003c0: e348 dd3c 84ae c03c faea 263d a3da 0c3d
000003d0: f06b 163c d2a8 02bb 87f7 9a3c ca19 933c
000003e0: 0250 12bc 75ba 6f3c d082 30bc 100a 203b
000003f0: b2d7 99bc d821 433c 740b 43bc 450f 86ba
0.02146661 -0.014022069 0.031723488 0.029892286 -0.04883784 0.0021013948 -0.0013016559 0.017560054
0.008094759 -0.0060753627 0.0056095202 0.02578283 -0.048683546 0.011221484 0.018886054 -0.00037619635
-0.020826994 0.0070123174 0.025501726 -0.00032678433 0.023757374 0.0010113977 0.0063908645 -0.023167212
0.030706976 -0.005955885 -0.0148988385 0.01904731 -0.061641958 -0.0031296664 0.0013439272 -0.02137322
-0.011635383 0.01985959 -0.019221086 0.0051141586 0.024704887 -0.0027434437 -0.0018634712 -0.0138267735
-0.024180552 -0.03425587 0.011001081 0.00067826646 0.009417264 0.031567555 -0.0038104018 0.014931846
0.019245273 -0.03880969 0.0054718973 0.005086167 -0.01309459 -0.008082324 0.0069536166 -0.0073553124
0.0010538346 0.011523726 -0.0016309152 0.0015942028 0.012291703 0.00524137 0.0017550462 0.0010043036
0.038519043 -0.02228089 0.009050575 -0.014154153 -0.009799162 -0.0028426922 0.02660941 0.0040095723
0.00195845 -0.007386467 0.0021039876 -0.027021714 0.03146331 0.017686017 -0.03523698 0.0021108608
0.0037498404 -0.0026110397 -0.0034204628 -0.015045954 -0.035686377 -0.01655019 0.008127269 -0.0047678472
-0.005239814 -0.0007511851 -0.013244079 0.0060079293 -0.00324538 -0.033888012 0.021148585 0.016682759
-0.002814465 -0.005998162 -0.011796492 0.0018559585 0.0007749368 -0.024655495 -0.017897006 0.018131623
0.0032095385 0.0023079414 -0.01401912 -0.012305642 0.031625077 0.007945623 -0.0076629473 0.017760934
0.0026789038 0.007403683 -0.031758133 -0.0020179246 0.014701568 -0.044170305 0.014813904 -0.011957642
0.0072360244 0.013891364 -0.005731274 -0.013365036 0.011635868 0.010947016 -0.018266056 -0.013063143
-0.0033121712 0.015628805 -0.040139414 -0.030995762 0.032399844 0.01355244 -0.011434691 0.01066746
0.004091264 -0.020228786 -0.019874198 -0.004583563 0.0087448 -0.016845858 -0.00031397303 -0.009606171
0.014195346 -0.0007089257 0.016317222 -0.018195102 -0.008624573 -0.0032095818 0.02812635 0.02911659
-0.018240072 0.02549563 0.026831789 -0.03306812 -0.001416795 0.015503558 0.007965919 0.015612992
-0.017548347 0.009686598 -0.014996842 0.0063217115 -0.008482842 0.005729913 0.013753147 0.016231526
-0.00935139 -0.0070508015 -0.016389828 0.010975671 0.010934354 -0.024685496 0.002993114 0.0074265385
-0.002600348 0.046571326 0.013805892 -0.007851935 0.005432883 -0.033905953 0.025979944 -0.0030827455
0.014769101 -0.0012731894 -0.0026297325 -0.013915592 -0.0027727443 0.0064597963 0.0007209542 0.01428892
-0.030590767 0.008823071 0.007483805 -0.010833537 0.025430016 -0.0073628966 -0.008696076 -0.023544792
0.004697352 0.0010283969 -0.008963389 -0.029549649 0.0024599615 -0.047192574 -0.010261575 -0.008180184
-0.016763408 -0.040871724 -0.0006638208 -0.010406968 -0.006644288 0.0061754733 0.011901891 -0.0060519483
0.017961869 0.005133552 -0.0045582433 0.021272864 0.028484046 0.009515513 -0.0120504545 -0.010723033
-0.010078721 0.0098790815 -0.024785435 -0.0047578025 -1.835146e-05 -4.0714002e-07 -0.028358258 0.014397689
-0.0044767284 0.018419536 -0.012054146 0.035255093 -0.0034233283 -0.01225975 0.026687909 0.016351838
0.027012294 0.023520716 0.040751435 0.034388196 0.009181008 -0.001993705 0.018916858 0.017956633
-0.008930208 0.014631857 -0.010773376 0.002442006 -0.01877961 0.011909924 -0.011904586 -0.0010227939

action_model._continuous_distribution.mu.bias f4 [2]
00000000: 3d42 963a 7522 833a
0.0011463832 0.0010004776

action_model._discrete_distribution.branches.0.weight f4 [1, 128]
00000000: ceff a23b 23ee 913b 1ce4 233c 845d 9abb
00000010: 7430 0d3c 0e33 49bc d9c7 99bb dba3 8e3c
00000020: 1d28 8fbc ba38 86bc 5038 ecbb 650c d6ba
00000030: 3f65 9c3b 8f96 c938 a782 c23b f932 a2ba
00000040: cdad 14bc 32ef 093a 1f05 24bc 4a81 483b
00000050: 3a3d 7fbb 146b 46ba 412d 0d3c 2d82 f53a
00000060: 2efb 8b3b f262 50bb c625 0fbb 855f 08bb
00000070: 15e4 a5bb 8de2 c9bb 1b1d af3b 65e7 88bb
00000080: ddd0 923c 405f fc3b 63ce 083c 97d6 6e3b
00000090: 6b5e a13b e70c 4d3a cf1f c4bb 73da 263c
000000a0: 52cd 2739 a0db 463b 00ce fa3b 0d64 623c
000000b0: 7335 e6bb 0f5d fd3a 8e38 aebb 34ac 8c3b
000000c0: 29e6 00bb bac3 1e3c 3309 c53b db8b 08bc
000000d0: d75a 8dbc 6512 133c 2651 97bb 60a9 ae3b
000000e0: 6083 d0bb 153b 3cbc 1f60 89bc 2279 1fba
000000f0: eaed e63b 3890 813c f51b 553b e79c b0bb
00000100: d952 0b3a db44 893c c764 8abb a5d0 0238
00000110: 132b eebb ad70 adbb 534a 6cbb f528 d53b
00000120: 3b76 863b 5e5b 813b 1dc6 4b3c 101b 0e3b
00000130: b030 a0b9 cf65 f0b9 df59 c53c fd3f 5b3b
00000140: 23ea 203c 161a 323c ff5b d2bb 3769 d53b
00000150: 9d45 963a b716 993b 7b4a 003c 73f8 2abc
00000160: f49c 3ebc 7de0 febb 52fb 5dba 6aad b0bb
00000170: c7b3 09bb e8e0 4cbc 0048 7d38 45ae cf3b
00000180: 8969 873c 19d3 343b 4336 88bb 5b30 debb
00000190: 6188 1fbc 5890 62bc 5c04 903c 7aca e8bb
000001a0: 7356 be3b 927e f93b 2037 2c3b ef8d 5fbb
000001b0: 42be 703b 0af6 513c af5d 2d3c 6c62 143c
000001c0: 47a9 633c 2b5f 993c 0e7c a93b 75a3 41bc
000001d0: 72bf b7bb 2558 8e3b d025 463c fa19 3bbc
000001e0: 90ab 3abc 7887 f63a e32a a2bb ea90 6ebc
000001f0: c4aa 0c3c 8079 38bc c776 1c3c 7ab3 783c
0.004974342 0.004453437 0.010003116 -0.004710855 0.008617509 -0.012280239 -0.004693013 0.017412117
-0.017475182 -0.016384471 -0.0072088614 -0.0016330598 0.0047728117 9.6124706e-05 0.005935985 -0.001237481
-0.00907464 0.0005261778 -0.010010987 0.003059464 -0.0038946406 -0.00075690565 0.008616746 0.0018730812
0.0042718863 -0.0031797257 -0.0021842583 -0.0020808887 -0.00506259 -0.00616104 0.005344046 -0.004177975
0.01792186 0.0077017844 0.008349988 0.0036443823 0.0049245856 0.0007822052 -0.005985237 0.010183918
0.00016002849 0.003034331 0.0076539516 0.013817799 -0.0070254146 0.0019330102 -0.0053168004 0.004292989
-0.0019668436 0.00969022 0.0060130595 -0.008334125 -0.01725523 0.008976554 -0.004617828 0.0053302497
-0.0063633174 -0.011488696 -0.016769467 -0.0006083419 0.0070474045 0.01581584 0.0032517884 -0.005389798
0.00053147745 0.016756466 -0.0042234394 3.118873e-05 -0.0072683184 -0.005292973 -0.0036055043 0.0065051266
0.0041034496 0.0039476594 0.012437371 0.002168361 -0.00030553853 -0.0004585222 0.024090705 0.0033454888
0.009821448 0.010870477 -0.006419658 0.0065127867 0.0011464838 0.0046718973 0.0078302575 -0.0104352115
-0.0116341 -0.007778226 -0.00084679306 -0.0053917663 -0.0021011697 -0.012504794 6.0386956e-05 0.006337913
0.016529815 0.0027591644 -0.004156859 -0.0067806668 -0.009737105 -0.01382836 0.017580204 -0.007104215
0.0058086454 0.0076139653 0.0026277974 -0.0034111699 0.0036734496 0.012815008 0.010581418 0.009056669
0.013895339 0.018722137 0.005172259 -0.011818756 -0.005607539 0.0043440037 0.012093976 -0.0114197675
-0.011393443 0.0018808683 -0.00494896 -0.014560917 0.008585636 -0.011259437 0.009549803 0.015179509
