Project specific/results/ppo/JumperAgent/JumperAgent-8494.pt (torch, 189091 bytes, 13 tensors)

network_body._body_endoder.seq_layers.0.weight f4 [128, 44]
-0.08500826 0.23642462 -0.09242958 -0.10534903 -0.24842466 0.32245934 -0.23460051 0.024696684
-0.116996266 -0.037542805 0.08189179 0.20329918 -0.29188675 0.16164424 0.18381292 -0.10303634
-0.316861 0.13155727 -0.18830732 0.076371714 0.2116141 -0.09026032 0.057289198 0.227701
0.043661658 0.16772465 0.0009923283 -0.047089115 -0.093985066 -0.0864204 -0.19565712 0.07232887
0.1296909 0.23870513 0.25300187 0.03992336 0.09393454 -0.14274226 -0.005999715 -0.05510115
0.1376948 -0.077942595 -0.0056698103 -0.08844401 0.119620524 -0.1661125 -0.07130828 0.050755035
0.24341016 -0.00043949604 -0.10863479 -0.13719487 0.16087496 0.094004795 -0.19178814 0.1116808
-0.22150217 0.048317704 0.07010077 -0.033456042 0.20952192 0.19774517 0.026224855 -0.075408444
0.20206372 -0.20007883 0.08231247 -0.18661354 -0.0012007913 -0.045205448 0.1722738 -0.108211026
-0.11311912 0.086095735 0.2997081 0.34755728 0.083551034 -0.19927038 -0.14564022 0.0023578205
0.081060275 -0.07988077 0.20006943 0.0003350491 0.029551167 -0.13484307 -0.0808347 0.019717019
0.04255169 -0.1285833 -0.24660681 -0.021505706 -0.029094364 0.021811903 -0.21317202 0.15826249
0.048260823 -0.009859151 0.15973632 0.034069166 -0.09610907 0.0210967 -0.11281284 -0.35329342
-0.123286076 -0.07253379 0.06860763 -0.052484967 0.08157897 0.27019784 -0.021363378 0.28489554
-0.25219464 0.021275174 0.0058829966 -0.26136395 -0.18517576 0.13022496 -0.13556069 0.026562613
-0.050521687 -0.16150548 -0.1055457 -0.27875406 0.23172103 -0.057510838 -0.20281988 -0.12793534
0.046645418 -0.11892028 0.0055087577 0.13288158 0.011250572 0.38585415 0.1091811 0.03849781
0.173191 0.11324367 0.20268187 -0.092674196 -0.08951701 -0.019122703 0.13501413 -0.053817004
0.035375267 0.099115714 0.2672751 0.16864702 0.16492027 -0.0068634665 0.13717522 -0.21231578
-0.11269154 -0.20855473 -0.23307654 -0.010627463 0.07530477 0.1385295 -0.34319794 -0.03196035
-0.23788734 -0.32646945 0.016683562 0.03564942 -0.11136886 0.058087368 0.0043509197 0.13613391
-0.07718933 0.0728805 0.11896645 -0.03758994 -0.16294095 0.050369464 -0.0015559898 -0.032335997
0.05584561 0.11160633 0.0013729759 -0.18830386 -0.04029553 -0.058176573 0.027418135 0.115211025
-0.021404384 -0.047496654 0.057633914 0.15230627 0.057040356 -0.09519176 0.017788101 0.08268879
-0.17582053 -0.14073676 0.1863145 -0.009137215 0.0075878752 0.1757285 0.070732005 -0.42432556
0.073250175 -0.4152224 -0.19212307 0.1563959 -0.17329127 0.05618229 0.0004716549 -0.08091693
-0.15633039 -0.18108723 -0.09443601 0.09471465 0.0028553826 -0.037422467 -0.1112969 -0.13249005
-0.035309047 -0.04110977 -0.043412425 0.3358113 -0.2184939 -0.08223871 0.19895898 -0.12289377
-0.064757004 -0.06726279 -0.11485606 0.2901776 -0.24484093 -0.25248533 0.051090863 -0.024658093
-0.34450167 0.2772344 0.15320796 -0.13600306 -0.06660351 0.0371471 0.04676016 0.023706138
0.15877362 0.04380148 0.16009556 0.16155818 -0.0064542396 0.16701216 -0.070066564 -0.19380897
0.32295707 0.09943936 0.059585907 0.012000106 -0.088098966 -0.02863465 -0.06273883 -0.012935276
00000000: d018 aebd 4c19 723e b84b bdbd 3bc1 d7bd
00000010: 0963 7ebe 6419 a53e 1e3b 70be b350 ca3c
00000020: bd9b efbd 7cc6 19bd e2b6 a73d a92d 503e
00000030: 2e72 95be 1186 253e 7439 3c3e b704 d3bd
00000040: 9b3b a2be f3b6 063e a2d3 40be c668 9c3d
00000050: 5eb1 583e 67da b8bd 14a8 6a3d 732a 693e
00000060: 91d6 323d 03c0 2b3e 0311 823a 84e0 40bd
00000070: 3e7b c0bd 2efd b0bd 575a 48be 2921 943d
00000080: b1cd 043e 1e6f 743e 7689 813e ad86 233d
00000090: c160 c03d 072b 12be 4299 c4bb beb1 61bd
000000a0: deff 0c3e 5ea0 9fbd d1c9 b9bb 2222 b5bd
000000b0: 9bfb f43d 6519 2abe 130a 92bd 83e4 4f3d
000000c0: 8340 793e 296c e6b9 eb7b debd d07c 0cbe
000000d0: 68bc 243e 9685 c03d 1c64 44be e7b8 e43d
000000e0: 77d1 62be c9e8 453d fe90 8f3d 3409 09bd
000000f0: ea8c 563e b67d 4a3e 82d5 d63c be6f 9abd
00000100: cbe9 4e3e 77e1 4cbe 7193 a83d 9f17 3fbe
00000110: df63 9dba 5929 39bd 8b68 303e be9d ddbd
00000120: ffaa e7bd f652 b03d 5773 993e 07f3 b13e
00000130: ce1c ab3d 890d 4cbe b622 15be aa85 1a3b
00000140: ee02 a63d 8798 a3bd 00df 4c3e 87a9 af39
00000150: 4a15 f23c 4d14 0abe aa8c a5bd 9685 a13c
00000160: ae4a 2e3d 57ab 03be 7f86 7cbe bc2c b0bc
00000170: 4e57 eebc e0ae b23c c449 5abe 900f 223e
00000180: 24ad 453d 4788 21bc eb91 233e 1c8c 0b3d
00000190: d5d4 c4bd fdd2 ac3c 6b0a e7bd e0e2 b4be
000001a0: 697d fcbd 988c 94bd 2882 8c3d 7afa 56bd
000001b0: e012 a73d 5f57 8a3e 4002 afbc d4dd 913e
000001c0: a81f 81be 4649 ae3c 27c6 c03b 7fd1 85be
000001d0: b79e 3dbe b159 053e 6cd0 0abe d699 d93c
000001e0: d4ef 4ebd b161 25be 5828 d8bd dab8 8ebe
000001f0: 4748 6d3e 7c90 6bbd 04b0 4fbe 7b01 03be
00000200: 440f 3f3d 7a8c f3bd cf82 b43b 1c12 083e
00000210: 5254 383c ad8e c53e 579a df3d e1af 1d3d
00000220: fb58 313e 4cec e73d d68b 4f3e f8cb bdbd
00000230: b254 b7bd 37a7 9cbc 2541 0a3e 386f 5cbd
00000240: a8e5 103d 2efd ca3d 48d8 883e ceb1 2c3e
00000250: dce0 283e eee6 e0bb a977 0c3e 4f69 59be
00000260: d2ca e6bd 5f8f 55be 9eab 6ebe d01e 2ebc
00000270: 6339 9a3d adda 0d3e a4b7 afbe dbe8 02bd
00000280: bd98 73be 0127 a7be f7ab 883c 2005 123d
00000290: 5b15 e4bd 05ed 6d3d 2992 8e3b b066 0b3e
000002a0: 7015 9ebd 5f42 953d afa4 f33d e9f7 19bd
000002b0: fed9 26be 3650 4e3d 5bf2 cbba c072 04bd
000002c0: 5ebe 643d dc91 e43d 6df5 b33a bad2 40be
000002d0: ed0c 25bd 8f4a 6ebd ff9b e03c c2f3 eb3d
000002e0: 3f58 afbc da8b 42bd 8a11 6c3d 2df6 1b3e
000002f0: 26a3 693d e6f3 c2bd 5ab8 913c be58 a93d
00000300: 4c0a 34be 4c1d 10be 3ac9 3e3e 42b4 15bc
00000310: b6a3 f83b 2cf2 333e f1db 903d 3341 d9be
00000320: 3004 963d 0898 d4be e9bb 44be 3f26 203e
00000330: 4473 31be 671f 663d 7348 f739 c7b7 a5bd
00000340: 1315 20be ee6e 39be ab67 c1bd c1f9 c13d
00000350: 5f21 3b3b 4d48 19bd a1ef e3bd 79ab 07be
00000360: 38a0 10bd b862 28bd 3ad1 31bd 75ef ab3e
00000370: ddbc 5fbe c56c a8bd e7bb 4b3e bbaf fbbd
00000380: 529f 84bd 13c1 89bd a739 ebbd 2992 943e
00000390: 95b7 7abe c245 81be a744 513d c5ff c9bc
000003a0: 8662 b0be abf1 8d3e 8ce2 1c3e 6344 0bbe
000003b0: 6c67 88bd 8f27 183d 9587 3f3d 6033 c23c
000003c0: 8d95 223e 2e69 333d 17f0 233e 826f 253e
000003d0: 167e d3bb 3c05 2b3e 0f7f 8fbd dc75 46be
000003e0: a15a a53e dda6 cb3d 5a10 743d 189c 443c
000003f0: 3b6d b4bd 3793 eabc 377d 80bd 7bee 53bc

network_body._body_endoder.seq_layers.0.bias f4 [128]
0.0 0.0 0.0 0.0 0.0 0.0 0.0 0.0
0.0 0.0 0.0 0.0 0.0 0.0 0.0 0.0
0.0 0.0 0.0 0.0 0.0 0.0 0.0 0.0
0.0 0.0 0.0 0.0 0.0 0.0 0.0 0.0
0.0 0.0 0.0 0.0 0.0 0.0 0.0 0.0
0.0 0.0 0.0 0.0 0.0 0.0 0.0 0.0
0.0 0.0 0.0 0.0 0.0 0.0 0.0 0.0
0.0 0.0 0.0 0.0 0.0 0.0 0.0 0.0
0.0 0.0 0.0 0.0 0.0 0.0 0.0 0.0
0.0 0.0 0.0 0.0 0.0 0.0 0.0 0.0
0.0 0.0 0.0 0.0 0.0 0.0 0.0 0.0
0.0 0.0 0.0 0.0 0.0 0.0 0.0 0.0
0.0 0.0 0.0 0.0 0.0 0.0 0.0 0.0
0.0 0.0 0.0 0.0 0.0 0.0 0.0 0.0
0.0 0.0 0.0 0.0 0.0 0.0 0.0 0.0
0.0 0.0 0.0 0.0 0.0 0.0 0.0 0.0
00000000: 0000 0000 0000 0000 0000 0000 0000 0000
00000010: 0000 0000 0000 0000 0000 0000 0000 0000
00000020: 0000 0000 0000 0000 0000 0000 0000 0000
00000030: 0000 0000 0000 0000 0000 0000 0000 0000
00000040: 0000 0000 0000 0000 0000 0000 0000 0000
00000050: 0000 0000 0000 0000 0000 0000 0000 0000
00000060: 0000 0000 0000 0000 0000 0000 0000 0000
00000070: 0000 0000 0000 0000 0000 0000 0000 0000
00000080: 0000 0000 0000 0000 0000 0000 0000 0000
00000090: 0000 0000 0000 0000 0000 0000 0000 0000
000000a0: 0000 0000 0000 0000 0000 0000 0000 0000
000000b0: 0000 0000 0000 0000 0000 0000 0000 0000
000000c0: 0000 0000 0000 0000 0000 0000 0000 0000
000000d0: 0000 0000 0000 0000 0000 0000 0000 0000
000000e0: 0000 0000 0000 0000 0000 0000 0000 0000
000000f0: 0000 0000 0000 0000 0000 0000 0000 0000
00000100: 0000 0000 0000 0000 0000 0000 0000 0000
00000110: 0000 0000 0000 0000 0000 0000 0000 0000
00000120: 0000 0000 0000 0000 0000 0000 0000 0000
00000130: 0000 0000 0000 0000 0000 0000 0000 0000
00000140: 0000 0000 0000 0000 0000 0000 0000 0000
00000150: 0000 0000 0000 0000 0000 0000 0000 0000
00000160: 0000 0000 0000 0000 0000 0000 0000 0000
00000170: 0000 0000 0000 0000 0000 0000 0000 0000
00000180: 0000 0000 0000 0000 0000 0000 0000 0000
00000190: 0000 0000 0000 0000 0000 0000 0000 0000
000001a0: 0000 0000 0000 0000 0000 0000 0000 0000
000001b0: 0000 0000 0000 0000 0000 0000 0000 0000
000001c0: 0000 0000 0000 0000 0000 0000 0000 0000
000001d0: 0000 0000 0000 0000 0000 0000 0000 0000
000001e0: 0000 0000 0000 0000 0000 0000 0000 0000
000001f0: 0000 0000 0000 0000 0000 0000 0000 0000

network_body._body_endoder.seq_layers.2.weight f4 [128, 128]
-0.013922362 0.023016704 -0.0016581055 0.060614295 -0.2040354 -0.13852344 0.046563663 -0.100491025
-0.014256151 -0.07150763 0.008475748 -0.024070842 -0.11485902 -0.056781583 0.026190465 -0.00039962184
-0.0475398 -0.053195227 0.017819863 0.04553517 0.012676491 0.07427139 -0.12451317 0.011817358
0.008532192 0.042396653 0.06418067 -0.04609801 0.018862592 -0.028345272 0.044374183 -0.18959136
0.1170986 -0.06371229 -0.0687332 -0.18133633 -0.056038465 0.11733088 -0.02866537 0.022071408
0.013654271 0.009349915 -0.021174585 -0.09210041 0.20327444 -0.18625468 -0.121018775 -0.007055223
0.09883141 0.0020665529 -0.17198871 0.04700306 0.09088746 -0.0978302 0.051969387 -0.12428493
-0.005574443 -0.014142253 0.12136753 -0.13332687 -0.02108411 0.065228194 -0.05893718 0.019454103
0.06436484 -0.086941265 0.020841356 -0.07560494 0.13028473 -0.21572492 0.05813403 0.14155287
0.1211116 0.077898294 -0.007410719 0.078213036 -0.099288784 0.028556798 -0.03941929 0.045765623
0.015438074 0.12148765 0.015872361 0.03902221 0.09040074 -0.058748145 0.12273851 0.06747633
-0.09639845 0.114518076 -0.087128974 -0.017113606 -0.033609804 -0.20931755 0.11128332 -0.016419351
0.040650964 0.027650487 -0.023954451 -0.03313574 0.13733996 0.024672741 0.025880922 0.006031895
0.15560155 -0.13706304 0.048977565 0.0020812796 -0.0015202295 0.203863 -0.06720978 0.09729129
0.121812545 0.21179077 -0.046222452 0.13402532 -0.04658165 0.016145796 -0.05954416 0.03352515
0.022197947 -0.0817619 0.025870988 0.014940773 -0.09123525 -0.09063929 -0.05016994 -0.23006558
-0.11197582 0.040983576 -0.10749657 0.05231787 -0.017682109 0.17550011 0.02870709 -0.02478068
0.038724862 -0.035882715 -0.040623404 -0.03296282 0.09913693 0.034336515 -0.04148347 0.04319945
-0.007287917 -0.059784133 -0.052231535 0.025116187 0.01720756 -0.017371869 0.075507134 0.07499802
0.18383935 0.15738857 -0.10134293 0.050581306 -0.08027294 -0.01848756 -0.024358246 0.023945542
-0.10373942 -0.052019242 -0.022495322 -0.118053034 0.005316009 -0.009729439 0.11884194 0.0033491137
0.08618922 -0.060502797 0.1283809 -0.08424012 -0.06700174 -0.0047200886 0.01200239 -0.018135302
-0.111613944 0.039725166 0.051014185 -0.20201676 -0.07049877 -0.058715217 0.073605 -0.014140691
0.09427054 -0.018233776 -0.17060761 -0.16476817 -0.15386003 -0.023611262 0.020758217 -0.12067878
0.0012300871 0.07230386 0.103269525 0.116592765 -0.036120247 -0.12396571 0.16231012 0.0012634331
0.1452802 -0.030646453 0.037069615 0.14510262 -0.0066597145 -0.052618537 0.049463883 -0.15123841
-0.040191934 0.07735522 -0.14833754 -0.0076012965 0.035533447 0.04986542 0.026795609 -0.1597752
-0.020170888 0.13961673 -0.07591025 -0.08390963 -0.08075782 -0.07607571 0.20991337 -0.22695626
0.073144145 0.056004252 -0.033762097 0.09133481 -0.10009546 -0.08846861 0.07763906 0.16429496
-0.0936645 0.11025078 -0.019733638 -0.0034451291 -0.045061734 0.007401951 0.08837874 -0.2583723
0.020607455 0.08162521 0.10138101 0.0845575 -0.022196684 0.055444583 -0.052879043 -0.0044211764
0.007163385 0.04814337 0.06775238 -0.057656813 0.084192194 0.018998982 -0.16413736 -0.08548147
00000000: 9e1a 64bc 878d bc3c ca54 d9ba b246 783d
00000010: a8ee 50be 17d9 0dbe 8ab9 3e3d 3dce cdbd
00000020: a292 69bc 9872 92bd dddd 0a3c 3730 c5bc
00000030: 353b ebbd ce93 68bd 638d d63c 5684 d1b9
00000040: 18b9 42bd 3de3 59bd f6fa 913c 1683 3a3d
00000050: 0fb1 4f3c 991b 983d c300 ffbd 989d 413c
00000060: 9bca 0b3c 1da8 2d3d 2871 833d 44d1 3cbd
00000070: b985 9a3c 5834 e8bc b4c1 353d 3d24 42be
00000080: 64d1 ef3d 977b 82bd fec3 8cbd 3bb0 39be
00000090: 9788 65bd 2c4b f03d a3d3 eabc 19cf b43c
000000a0: 2ab6 5f3c 6330 193c 5376 adbc 249f bcbd
000000b0: 2d27 503e 8cb9 3ebe b1d8 f7bd 802f e7bb
000000c0: 1f68 ca3d 016f 073b cf1d 30be 4886 403d
000000d0: 3423 ba3d 335b c8bd dadd 543d 1989 febd
000000e0: d1a9 b6bb e9b4 67bc 8a8f f83d d786 08be
000000f0: 95b8 acbc 5c96 853d 1d68 71bd 365e 9f3c
00000100: b7d1 833d 430e b2bd 7ebb aa3c c3d6 9abd
00000110: 5c69 053e fee6 5cbe f31d 6e3d 3cf3 103e
00000120: 5c09 f83d 2489 9f3d 9ed5 f2bb 282e a03d
00000130: eb57 cbbd f2ef e93c 1f76 21bd bc74 3b3d
00000140: faef 7c3c 84ce f83d c106 823c c1d5 1f3d
00000150: 0624 b93d e5a1 70bd 545e fb3d 0831 8a3d
00000160: 8d6c c5bd 7488 ea3d ad70 b2bd d531 8cbc
00000170: 6faa 09bd 5757 56be 82e8 e33d e081 86bc
00000180: a081 263d 4683 e23c 203c c4bc 57b9 07bd
00000190: d9a2 0c3e 7d1e ca3c 3a04 d43c 34a7 c53b
000001a0: 0356 1f3e 415a 0cbe b39c 483d 1466 083b
000001b0: 7042 c7ba 76c1 503e 48a5 89bd a840 c73d
000001c0: db78 f93d aedf 583e c153 3dbd ef3d 093e
000001d0: 66cc 3ebd 3044 843c 94e4 73bd ab51 093d
000001e0: 78d8 b53c c872 a7bd 65ef d33c 25ca 743c
000001f0: 8cd9 babd 18a1 b9bd ff7e 4dbd 5096 6bbe
00000200: 9453 e5bd 65de 273d 2927 dcbd 434b 563d
00000210: 12da 90bc 4db6 333e 222b eb3c da00 cbbc
00000220: f69d 1e3d c1f9 12bd ba64 26bd 0604 07bd
00000230: 4e08 cb3d 72a4 0c3d 92ea 29bd e8f1 303d
00000240: 7bcf eebb 35e0 74bd bcf0 55bd 76c0 cd3c
00000250: def6 8c3c 734f 8ebc 7ca3 9a3d 9098 993d
00000260: 6240 3c3e 782a 213e e28c cfbd 582e 4f3d
00000270: 2466 a4bd 3973 97bc f28a c7bc 7129 c43c
00000280: 5575 d4bd 2112 55bd 1c48 b8bc cac5 f1bd
00000290: ea31 ae3b 3a68 1fbc 6763 f33d ce7c 5b3b
000002a0: f983 b03d c8d1 77bd 4876 033e 1686 acbd
000002b0: 3538 89bd f9aa 9abb aca5 443c 7c90 94bc
000002c0: da95 e4bd dbb6 223d 40f4 503d 7bdd 4ebe
000002d0: a961 90bd 5e7f 70bd 38be 963d 5bae 67bc
000002e0: ea10 c13d 005f 95bc c3b3 2ebe fdb8 28be
000002f0: 7c8d 1dbe 686c c1bc 230d aa3c 7026 f7bd
00000300: e03a a13a 0c14 943d f97e d33d 30c8 ee3d
00000310: d3f2 13bd bce1 fdbd a034 263e c899 a53a
00000320: 55c4 143e 450e fbbc 4fd6 173d c895 143e
00000330: bc39 dabb 8986 57bd a49a 4a3d 3ede 1abe
00000340: 4ca0 24bd 6a6c 9e3d cce5 17be 4c14 f9bb
00000350: 858b 113d af3f 4c3d 7782 db3c 1c9c 23be
00000360: 6b3d a5bc b0f7 0e3e d576 9bbd d0d8 abbd
00000370: 5b64 a5bd 95cd 9bbd 88f3 563e 3967 68be
00000380: 99cc 953d b764 653d 204a 0abd bf0d bb3d
00000390: d9fe ccbd 082f b5bd 3a01 9f3d f03c 283e
000003a0: 2cd3 bfbd 29cb e13d 70a8 a1bc adc7 61bb
000003b0: a792 38bd 118c f23b eaff b43d 6049 84be
000003c0: f7d0 a83c 1e2b a73d d9a0 cf3d 7c2c ad3d
000003d0: d2d5 b5bc dc19 633d b297 58bd 84df 90bb
000003e0: d4ba ea3b fb31 453d c3c1 8a3d 8d29 6cbd
000003f0: f56c ac3d c1a3 9b3c a013 28be e910 afbd

network_body._body_endoder.seq_layers.2.bias f4 [128]
0.0 0.0 0.0 0.0 0.0 0.0 0.0 0.0
0.0 0.0 0.0 0.0 0.0 0.0 0.0 0.0
0.0 0.0 0.0 0.0 0.0 0.0 0.0 0.0
0.0 0.0 0.0 0.0 0.0 0.0 0.0 0.0
0.0 0.0 0.0 0.0 0.0 0.0 0.0 0.0
0.0 0.0 0.0 0.0 0.0 0.0 0.0 0.0
0.0 0.0 0.0 0.0 0.0 0.0 0.0 0.0
0.0 0.0 0.0 0.0 0.0 0.0 0.0 0.0
0.0 0.0 0.0 0.0 0.0 0.0 0.0 0.0
0.0 0.0 0.0 0.0 0.0 0.0 0.0 0.0
0.0 0.0 0.0 0.0 0.0 0.0 0.0 0.0
0.0 0.0 0.0 0.0 0.0 0.0 0.0 0.0
0.0 0.0 0.0 0.0 0.0 0.0 0.0 0.0
0.0 0.0 0.0 0.0 0.0 0.0 0.0 0.0
0.0 0.0 0.0 0.0 0.0 0.0 0.0 0.0
0.0 0.0 0.0 0.0 0.0 0.0 0.0 0.0
00000000: 0000 0000 0000 0000 0000 0000 0000 0000
00000010: 0000 0000 0000 0000 0000 0000 0000 0000
00000020: 0000 0000 0000 0000 0000 0000 0000 0000
00000030: 0000 0000 0000 0000 0000 0000 0000 0000
00000040: 0000 0000 0000 0000 0000 0000 0000 0000
00000050: 0000 0000 0000 0000 0000 0000 0000 0000
00000060: 0000 0000 0000 0000 0000 0000 0000 0000
00000070: 0000 0000 0000 0000 0000 0000 0000 0000
00000080: 0000 0000 0000 0000 0000 0000 0000 0000
00000090: 0000 0000 0000 0000 0000 0000 0000 0000
000000a0: 0000 0000 0000 0000 0000 0000 0000 0000
000000b0: 0000 0000 0000 0000 0000 0000 0000 0000
000000c0: 0000 0000 0000 0000 0000 0000 0000 0000
000000d0: 0000 0000 0000 0000 0000 0000 0000 0000
000000e0: 0000 0000 0000 0000 0000 0000 0000 0000
000000f0: 0000 0000 0000 0000 0000 0000 0000 0000
00000100: 0000 0000 0000 0000 0000 0000 0000 0000
00000110: 0000 0000 0000 0000 0000 0000 0000 0000
00000120: 0000 0000 0000 0000 0000 0000 0000 0000
00000130: 0000 0000 0000 0000 0000 0000 0000 0000
00000140: 0000 0000 0000 0000 0000 0000 0000 0000
00000150: 0000 0000 0000 0000 0000 0000 0000 0000
00000160: 0000 0000 0000 0000 0000 0000 0000 0000
00000170: 0000 0000 0000 0000 0000 0000 0000 0000
00000180: 0000 0000 0000 0000 0000 0000 0000 0000
00000190: 0000 0000 0000 0000 0000 0000 0000 0000
000001a0: 0000 0000 0000 0000 0000 0000 0000 0000
000001b0: 0000 0000 0000 0000 0000 0000 0000 0000
000001c0: 0000 0000 0000 0000 0000 0000 0000 0000
000001d0: 0000 0000 0000 0000 0000 0000 0000 0000
000001e0: 0000 0000 0000 0000 0000 0000 0000 0000
000001f0: 0000 0000 0000 0000 0000 0000 0000 0000

action_model._continuous_distribution.log_sigma f4 [1, 2]
0.0 0.0
00000000: 0000 0000 0000 0000

action_model._continuous_distribution.mu.weight f4 [2, 128]
0.023315577 -0.00045573624 -0.008225357 -0.027007425 -0.0171497 -0.010754852 0.02523522 0.007041578
0.004256809 -0.0007141053 0.026903583 -0.02766583 -0.0131333815 -0.0247983 0.02763294 0.0010370228
-0.018210283 0.013159516 -0.001267281 -0.00014801566 0.02624062 0.0054675643 -0.006493242 -0.014139906
0.006751443 0.0037966368 0.026658764 -0.001437978 0.009735148 0.04382424 0.03419601 -0.015765686
-0.006009652 -0.015665798 0.004582092 0.04108535 -0.045056157 0.018284451 -0.015361187 0.021526746
-0.023544183 0.028985519 0.02868233 -0.0144575555 0.00017556788 -0.0018426705 -0.009503107 -0.005008237
-0.01760543 0.012293639 -0.010819687 0.01895692 -0.014349326 0.014089788 -0.007482385 0.023191253
-0.00032444324 -0.018700203 0.009538208 -0.011066725 -0.006583241 0.010218175 -0.014261362 -0.008417809
-0.017505856 -0.0012022614 -0.014596221 -0.0026710154 -0.017181242 -0.03487089 -0.031355236 -0.005908678
-0.008719561 0.004217913 -0.014544951 0.019994143 0.007790462 0.015826367 0.010885605 0.012230904
0.010840598 -0.027157396 -0.01576375 0.011538104 0.016068114 0.0308777 -0.0011982367 -0.042774323
0.01726093 0.009458338 -0.028991431 0.042373203 -0.0014250088 -0.051194753 -0.010796985 0.04089158
-0.02256455 0.009213711 0.005209021 -0.011368456 0.0009590901 -0.0011505528 -0.005431238 0.031326685
-0.020423606 0.004416463 -0.013594883 0.029905682 -0.037217047 -0.014271098 0.010952971 0.014311393
0.02198433 0.0070306617 -0.0024945207 0.0044597364 -0.040074635 -0.002288919 0.019363685 -0.012799973
0.012637486 0.0036575485 -0.01515525 -0.026393352 -0.0033341532 -0.010636752 0.02948979 0.0029127689
0.015673708 -0.016651 0.027197856 0.008395839 -0.015825368 0.007681099 0.004607865 0.005511192
0.015015477 -0.03608227 -0.0039402763 -0.017789427 -0.03415222 -0.0092842085 -0.0071932706 0.028061057
-0.019426463 0.0045105657 -0.0048369067 0.0025981532 0.005602038 0.0125096915 0.0066317976 0.0068912627
-0.02447929 0.025244469 0.015372782 0.03319805 0.0090731885 0.008714295 0.010433826 0.029535577
-0.023567868 -0.009128994 0.025082564 -0.008031753 -0.034189355 0.00063653936 -0.011796006 0.019022396
0.022446219 -0.008395071 -0.02119069 -0.0146564115 0.023792543 -0.009294224 -0.006737787 -0.015152133
-0.004535895 0.011608904 0.040089183 0.0009473497 0.010294664 -0.018057274 0.020142075 0.014639427
-0.0020590127 0.03373145 -0.012310006 -0.0077383737 0.03549886 -0.00866793 0.020056201 -0.0025940933
-0.0033302929 -0.010338614 -0.0021084815 0.004665423 0.030074138 -0.029311901 0.014542644 -0.038186394
-0.0021838096 0.015005926 0.020967565 -0.0040921136 0.0100333495 -0.01961078 0.0011887425 -0.014184795
-0.021655856 0.007717301 -0.010454825 -0.011306561 -0.0005427198 -0.005355529 -0.0026890317 0.0128112035
0.0032030318 0.01618409 0.004652437 -0.01841542 1.7519451e-05 -0.016836092 -0.013505812 -0.00795332
0.024525426 -0.0062243748 0.031551916 0.0018039037 -0.0033660226 0.026152918 -0.026242927 -0.016328987
0.0133346915 -0.038556173 -0.0077176318 -0.014973113 0.0124014905 -0.007946345 -0.008367006 -0.0046781525
-0.0050540413 -0.012747876 0.029695405 -0.020263968 0.024250928 -0.0016979695 -0.0042034993 0.003497278
-0.00983942 -0.0064169937 -0.009845379 0.01777608 0.03523234 -0.015150922 -0.007404588 -0.014152611
00000000: 4f00 bf3c e2ef eeb9 a6c3 06bc ad3e ddbc
00000010: 877d 8cbc 1e35 30bc 18ba ce3c 0abd e63b
00000020: b47c 8b3b cc32 3bba e764 dc3c 73a3 e2bc
00000030: 652d 57bc ce25 cbbc 7a5e e23c b6ec 873a
00000040: bb2d 95bc 039b 573c e51a a6ba a734 1bb9
00000050: 92f6 d63c 4129 b33b 43c5 d4bb 10ab 67bc
00000060: 353b dd3b ffd0 783b 7b63 da3c 897a bcba
00000070: 2c80 1f3c 0c81 333d 1e11 0c3d 0a27 81bc
00000080: 9dec c4bb 8f55 80bc 6025 963b 1d49 283d
00000090: ce8c 38bd 46c9 953c 7dad 7bbc dc58 b03c
000000a0: bbdf c0bc 0a73 ed3c 35f7 ea3c 62df 6cbc
000000b0: a518 3839 c385 f1ba ebb2 1bbc 231c a4bb
000000c0: 4339 90bc 426b 493c 0e45 31bc 8b4b 9b3c
000000d0: 6f19 6bbc dbd8 663c cb2e f5bb 95fb bd3c
000000e0: 091a aab9 2b31 99bc 2546 1c3c 3551 35bc
000000f0: 3ab8 d7bb 226a 273c 7da8 69bc daea 09bc
00000100: 7168 8fbc 3395 9dba fd24 6fbc 340c 2fbb
00000110: adbf 8cbc c7d4 0ebd 596e 00bd 959d c1bb
00000120: 7ddc 0ebc 6b36 8a3b f24d 6ebc c2ca a33c
00000130: 2247 ff3b 4ca6 813c 8959 323c 2164 483c
00000140: c39c 313c 3079 debc fb22 81bc 510a 3d3c
00000150: 47a1 833c 3bf3 fc3c 270e 9dba 2134 2fbd
00000160: cb66 8d3c 25f7 1a3c 707f edbc 868f 2d3d
00000170: 5cc7 baba 97b1 51bd d6e5 30bc ee7d 273d
00000180: 4bd9 b8bc 1bf5 163c 6fb0 aa3b c342 3abc
00000190: 726b 7b3a 25ce 96ba 87f8 b1bb 6950 003d
000001a0: 684f a7bc fab7 903b 12bd 5ebc c3fc f43c
000001b0: e770 18bd 53d1 69bc 1774 333c 557a 6a3c
000001c0: 7b18 b43c 7761 e63b 1d7b 23bb fb22 923b
000001d0: 4d25 24bd b001 16bb 97a0 9e3c fab6 51bc
000001e0: 750d 4f3c 7bb3 6f3b ba4d 78bc df36 d8bc
000001f0: cf81 5abb c545 2ebc 9294 f13c 27e4 3e3b
00000200: 2666 803c ae67 88bc 0ace de3c b38e 093c
00000210: 34a4 81bc bbb1 fb3b 93fd 963b 3b97 b43b
00000220: 7a03 763c 01cb 13bd 6f1d 81bb 22bb 91bc
00000230: 33e3 0bbd cb1c 18bc 87b5 ebbb 4de0 e53c
00000240: 3f24 9fbc 5ecd 933b ea7e 9ebb c745 2a3b
00000250: 4d91 b73b 73f5 4c3c 8d4f d93b 1ad0 e13b
00000260: cb88 c8bc 7dcd ce3c 1fde 7b3c aefa 073d
00000270: b6a7 143c 67c6 0e3c a3f2 2a3c 98f4 f13c
00000280: 6711 c1bc c791 15bc f379 cd3c 9d97 03bc
00000290: 230a 0cbd 6fdd 263a 0944 41bc dbd4 9b3c
000002a0: 22e1 b73c 7b8b 09bc 1998 adbc 7221 70bc
000002b0: 94e8 c23c cd46 18bc a7c8 dcbb a740 78bc
000002c0: d8a1 94bb 4633 3e3c 8e34 243d 9057 783a
000002d0: f3aa 283c d9ec 93bc fe00 a53c 35da 6f3c
000002e0: 80f0 06bb fd29 0a3d e8af 49bc 2f92 fdbb
000002f0: 4167 113d ef03 0ebc e74c a43c aa01 2abb
00000300: 0b41 5abb 4a63 29bc 732e 0abb 68e0 983b
00000310: 0a5e f63c 831f f0bc 4544 6e3c 5669 1cbd
00000320: 3f1e 0fbb 6adb 753c 2cc4 ab3c 2317 86bb
00000330: eb62 243c c9a6 a0bc 94cf 9b3a 5867 68bc
00000340: 9f67 b1bc 6ae1 fc3b b74a 2bbc 273f 39bc
00000350: 4f45 0eba 6f7d afbb 773a 30bb 15e6 513c
00000360: f5e9 513b 7f94 843c 7873 983b efdb 96bc
00000370: bcf6 9237 d8eb 89bc 7b47 5dbc a44e 02bc
00000380: 8ce9 c83c d7f5 cbbb 953c 013d f770 ec3a
00000390: 7d98 5cbb a53e d63c 68fb d6bc 5ec4 85bc
000003a0: c079 5a3c 14ed 1dbd 30e4 fcbb ca51 75bc
000003b0: 9f2f 4b3c 6331 02bc c415 09bc 304b 99bb
000003c0: 5f9c a5bb 78dc 50bc c743 f33c 9f00 a6bc
000003d0: e2a9 c63c 678e deba 82bd 89bb 9732 653b
000003e0: 8535 21bc a545 d2bb 834e 21bc 249f 913c
000003f0: c94f 103d 933b 78bc 30a2 f2bb 5ae0 67bc

action_model._continuous_distribution.mu.bias f4 [2]
0.0 0.0
00000000: 0000 0000 0000 0000

action_model._discrete_distribution.branches.0.weight f4 [1, 128]
-0.0045209196 0.0047420426 -0.0025650905 0.0078121633 -0.003136372 -0.011264306 0.010164382 -0.010171685
0.0001632559 0.0057239686 0.005417747 -0.0034532584 -0.0064285337 0.008508413 0.0073276707 -0.007833921
0.0039526015 -0.0045661125 0.014668318 0.012450638 -0.0009181479 0.014329987 0.00053457444 0.010618716
-0.0060131825 -0.002411006 -0.0123545015 -0.00870006 0.017720671 0.00045249175 -0.0046944735 -0.005424212
0.0024036134 0.019814478 -0.0071583907 0.00504045 -0.010913891 -0.014682256 0.0037125405 0.0063638166
0.006417399 -0.013906705 -0.0025752764 -0.0030800079 0.0055696475 -0.012874928 0.004379257 -0.012910657
-0.0035844434 0.014200275 0.0078013428 0.00039722337 0.002837053 -0.002288112 -0.016605502 0.012348291
-0.010140394 -0.0035144493 -0.006003154 0.005903378 -0.004923524 -0.0023344855 -0.0064088316 -0.0044776704
-0.0016925046 0.008980105 0.004074108 -0.010164105 0.009490288 -0.0017504267 -2.3042498e-05 -0.0070064026
0.014782458 0.015923526 0.0075494954 0.000788775 -0.0028188773 -0.0076538245 0.0061760326 -0.0007754493
-0.0028203265 0.0053278306 0.008670925 -0.012255416 0.006387753 -0.0053565917 0.012731524 -0.00504044
0.013487137 -0.01093258 0.0010358755 -0.011725225 -0.011420847 0.02134031 0.006217839 0.0020969354
0.010115799 0.0057956353 -0.004759526 -0.0018103278 -0.00011917277 0.009080642 -0.0040435833 -0.007104502
0.0073426813 -0.010951033 -0.004044168 0.023805704 -0.00903896 -0.008203092 0.0013373224 -0.0038100432
0.0018345731 0.0059384564 -0.0017111052 0.004774684 0.002288593 -0.002230918 0.014857279 -0.00078208646
-0.015920611 -0.01934068 -0.004184326 0.0005702354 -0.00056538865 -0.025877804 0.0033013683 0.0009823048
00000000: 3924 94bb 2363 9b3b 141b 28bb 2dfd ff3b
00000010: 978b 4dbb ec8d 38bc 8288 263c 24a7 26bc
00000020: ac2f 2b39 2190 bb3b 5b87 b13b 1050 62bb
00000030: 73a6 d2bb df66 0b3c f51c f03b d959 00bc
00000040: d384 813b 549f 95bb 6353 703c c3fd 4b3c
00000050: ddaf 70ba 52c8 6a3c af22 0c3a 1ffa 2d3c
00000060: 3b0a c5bb f801 1ebb 896a 4abc b28a 0ebc
00000070: f12a 913c 6a3c ed39 19d4 99bb 97bd b1bb
00000080: f185 1d3b f951 a23c ef90 eabb 5c2a a53b
00000090: 2dd0 32bc d88d 70bc 184e 733b 9087 d03b
000000a0: 0b49 d23b f3d8 63bc f8c5 28bb f5d9 49bb
000000b0: 9781 b63b 5df1 52bc df7f 8f3b 3887 53bc
000000c0: fbe8 6abb 45a8 683c 68a2 ff3b 6b42 d039
000000d0: daed 393b 26f4 15bb 4308 88bc 7d50 4a3c
000000e0: e523 26bc ad52 66bb 1bb6 c4bb 2071 c13b
000000f0: 8355 a1bb 2bfe 18bb 2d01 d2bb 6cb9 92bb
00000100: 08d7 ddba 4a21 133c 1880 853b 5987 26bc
00000110: 277d 1b3c 936e e5ba 634b c1b7 f795 e5bb
00000120: 1f32 723c 0e72 823c c261 f73b cbc5 4e3a
00000130: eabc 38bb efcc fabb 5160 ca3b 8647 4bba
00000140: 3ad5 38bb 1595 ae3b 7f10 0e3c f1ca 48bc
00000150: 5b50 d13b 5986 afbb e297 503c 462a a5bb
00000160: 27f9 5c3c 901e 33bc 37c6 873a 281b 40bc
00000170: 811e 3bbc e0d1 ae3c 04bf cb3b bd6c 093b
00000180: bcbc 253c 50e9 bd3b ccf5 9bbb 8548 edba
00000190: 65ec f9b8 f9c6 143c 0980 84bb e2cc e8bb
000001a0: e09a f03b f66b 33bc f184 84bb 2e04 c33c
000001b0: 2518 14bc 4366 06bc 1849 af3a ebb1 79bb
000001c0: 0f76 f03a 6297 c23b 2a47 e0ba f474 9c3b
000001d0: 38fc 153b 9834 12bb f26b 733c ef04 4dba
000001e0: f16b 82bc 5970 9ebc ac1c 89bb da7b 153a
000001f0: 9736 14ba b0fd d3bc c55b 583b aec0 803a

network_body._body_endoder.seq_layers.0.weight f4 [128, 44]
0.08473411 0.045602366 0.01312739 0.052740566 -0.062123697 0.16497673 0.08079414 0.056560356
0.1927974 0.13967419 -0.07242729 -0.21658261 -0.1186358 0.15937822 0.067235604 0.31071615
0.14878772 0.1202058 -0.09568429 0.17020877 -0.023251912 0.011540658 0.12541886 -0.09508808
-0.027311226 -0.022992436 -0.112047 0.1702706 -0.17722411 -0.26972684 0.18975163 0.022286907
-0.0042073485 0.15047815 -0.13346018 -0.053009044 -0.008278129 0.0031183078 -0.24439843 -0.043778125
0.019142637 -0.22789007 -0.07882629 0.04802868 -0.02725187 -0.0779236 0.23583467 0.12402712
0.24019016 0.0063860225 0.018313833 -0.039558757 0.15315433 -0.035807807 0.1428322 -0.040995404
-0.16237977 0.008127451 0.072090074 0.11152948 -0.23212612 -0.1846666 0.054682992 0.030619625
-0.08602949 0.06622341 0.14556183 0.20489566 -0.13620183 0.34334463 -0.29531452 0.04315499
0.13613607 0.34397098 0.07806275 -0.0061142026 -0.16527615 -0.11428339 0.33371434 0.091954894
0.17789732 -0.059425145 -0.013188561 0.29227397 0.23787415 0.012067373 0.19378272 -0.06056156
-0.0218013 -0.04255113 -0.023605352 0.15738976 0.12980352 -0.032045625 0.10333608 0.14568464
0.03187712 0.01395403 0.10629588 -0.18422051 0.06621193 -0.1852787 -0.08094487 -0.15658097
-0.24930966 0.1070002 0.069722556 -0.09708691 0.049879614 0.24210957 -0.079688504 0.049382158
0.0782986 0.03484017 0.028094405 0.024505721 0.10111191 0.14222421 -0.10913255 -0.075759076
-0.059898425 -0.17674544 0.18710093 -0.029527526 0.015274038 0.11097819 -0.04761992 0.13674334
-0.012042796 0.23933788 -0.24766377 0.0022427372 -0.066796705 -0.10320576 -0.035469666 0.06263495
0.18937191 0.07446105 0.3393548 -0.1695721 -0.36232525 -0.10490998 0.044903502 -0.07372359
0.19477005 -0.047313023 0.21109545 -0.14097385 0.19479333 -0.08111932 0.11343413 -0.08127328
-0.12313245 0.07938956 0.085801005 0.048372623 0.018898828 -0.113573276 -0.09822937 -0.054614995
-0.1838431 -0.0581495 -0.18502259 -0.20675077 -0.17981194 0.2574085 0.084456064 0.18633746
0.14135066 0.08859914 -0.034052007 -0.04252903 -0.15758151 0.1926132 -0.0044503044 0.083115004
0.116904825 -0.020838158 -0.072644606 -0.1534826 0.1192172 0.045971513 -0.043422025 -0.16973053
0.13384175 0.07260962 0.10076141 -0.09169925 0.083083816 -0.2617977 0.31054312 -0.06574578
0.06785169 0.17020874 0.07053266 0.08368688 0.090419926 -2.8022005e-05 -0.009734146 0.07180865
-0.04214711 -0.016719127 -0.20266925 0.23536123 0.11886536 0.11250567 -0.15419766 0.14326625
-0.25068462 0.2533007 0.08510747 -0.38075843 0.03566639 -0.4893576 0.14900002 0.070046656
0.35998726 -0.07141769 0.08342667 -0.027703406 -0.23857914 -0.13414612 -0.2090274 -0.10456828
-0.062869474 0.20769744 0.25649634 0.034053758 -0.10354149 -0.12679 0.13248172 0.059195507
-0.27352574 0.0363636 -0.12891455 -0.037569642 0.13941991 0.003108858 0.20782699 -0.06061354
-0.32219005 0.15623121 0.15886158 -0.046551723 0.14190394 0.18277808 0.19257548 -0.3274886
-0.29788065 0.03841169 -0.049189713 0.018975344 0.20807277 -0.021718476 -0.053379055 0.23616207
00000000: 1489 ad3d 8cc9 3a3d 4414 573c 7e06 583d
00000010: 6b75 7ebd a9ef 283e 6677 a53d d5ab 673d
00000020: ae6c 453e c006 0f3e c254 94bd d5c7 5dbe
00000030: 54f7 f2bd 0b34 233e d2b2 893d 3016 9f3e
00000040: cf5b 183e 752e f63d 20f6 c3bd 354b 2e3e
00000050: cb7a bebc 0715 3d3c cd6d 003e 8abd c2bd
00000060: cbbb dfbc a25a bcbc e678 e5bd 6b5b 2e3e
00000070: 3d7a 35be a319 8abe 404e 423e 0893 b63c
00000080: ccdd 89bb f216 1a3e c9a9 08be 0320 59bd
00000090: fda0 07bc 865c 4c3b 9543 7abe b150 33bd
000000a0: 05d1 9c3c 045c 69be ae6f a1bd b9b9 443d
000000b0: 503f dfbc 6996 9fbd a57e 713e ee01 fe3d
000000c0: 69f4 753e d741 d13b e406 963c 5d08 22bd
000000d0: 7dd4 1c3e 35ab 12bd 9b42 123e ccea 27bd
000000e0: e246 26be 0029 053c f6a3 933d 9169 e43d
000000f0: 78b2 6dbe 3e19 3dbe 46fb 5f3d 02d6 fa3c
00000100: 3b30 b0bd 24a0 873d 290e 153e 2bd0 513e
00000110: 7e78 0bbe deca af3e 7733 97be 49c3 303d
00000120: 4167 0b3e f71c b03e 5ddf 9f3d a659 c8bb
00000130: 273e 29be 690d eabd 9bdc aa3e d952 bc3d
00000140: b72a 363e c867 73bd d614 58bc efa4 953e
00000150: 4895 733e 3bb6 453c fa6e 463e 660f 78bd
00000160: a498 b2bc 184a 2ebd 0360 c1bc c82a 213e
00000170: 37eb 043e 4642 03bd dea1 d33d 5b2e 153e
00000180: 9591 023d 729f 643c a8b1 d93d 4da4 3cbe
00000190: 1f9a 873d b3b9 3dbe 6dc6 a5bd c356 20be
000001a0: 084b 7fbe ec22 db3d b3ca 8e3d 80d5 c6bd
000001b0: 914e 4c3d 92eb 773e ba33 a3bd f244 4a3d
000001c0: 045b a03d 91b4 0e3d 3d26 e63c 39c0 c83c
000001d0: c313 cf3d 39a3 113e e380 dfbd 9327 9bbd
000001e0: 0d58 75bd c2fc 34be 6397 3f3e b6e3 f1bc
000001f0: f53f 7a3c 8948 e33d 1b0d 43bd 7206 0c3e
00000200: 264f 45bc fd14 753e 929b 7dbe e3fa 123b
00000210: b6cc 88bd 8b5d d3bd a448 11bd c146 803d
00000220: b6ea 413e 097f 983d eabf ad3e 4fa4 2dbe
00000230: b282 b9be 0bdb d6bd bcec 373d 65fc 96bd
00000240: cd71 473e 4dcb 41bd 6829 583e 735b 10be
00000250: e777 473e e321 a6bd 2750 e83d 9b72 a6bd
00000260: de2c fcbd fe96 a23d 70b8 af3d 5f22 463d
00000270: b7d1 9a3c 1b99 e8bd 7b2c c9bd f9b3 5fbd
00000280: 5e41 3cbe 2c2e 6ebd 9076 3dbe 79b6 53be
00000290: 9f20 38be 0ccb 833e 4df7 ac3d 3fcf 3e3e
000002a0: 3abe 103e 7773 b53d 1e7a 0bbd ec32 2ebd
000002b0: 0c5d 21be 653c 453e dcd3 91bb 3338 aa3d
000002c0: cc6b ef3d c9b4 aabc b2c6 94bd 8b2a 1dbe
000002d0: 2628 f43d a04c 3c3d 4bdb 31bd d7cd 2dbe
000002e0: d00d 093e 5ab4 943d 005c ce3d d1cc bbbd
000002f0: d927 aa3d 590a 86be 82ff 9e3e b9a5 86bd
00000300: d4f5 8a3d 334b 2e3e 6d73 903d 0764 ab3d
00000310: 152e b93d cc10 ebb7 f87b 1fbc 6a10 933d
00000320: 73a2 2cbd 8df6 88bc 8788 4fbe 8902 713e
00000330: af6f f33d 5f69 e63d fee5 1dbe 63b4 123e
00000340: bc59 80be a1b0 813e d34c ae3d c5f2 c2be
00000350: ec16 123d 148d fabe 7693 183e 9f74 8f3d
00000360: 4050 b83e 7043 92bd 9adb aa3d 41f2 e2bc
00000370: 174e 74be 9a5d 09be 470b 56be e527 d6bd
00000380: b6c1 80bd a3ae 543e 7d53 833e f47b 0b3d
00000390: 900d d4bd 3dd5 01be 4aa9 073e fd76 723d
000003a0: 910b 8cbe 00f2 143d 2d02 04be a0e2 19bd
000003b0: 18c4 0e3e fbbd 4b3b 99d0 543e e745 78bd
000003c0: 18f6 a4be 13fb 1f3e 9cac 223e 05ad 3ebd
000003d0: 444f 113e 2d2a 3b3e 8232 453e 96ac a7be
000003e0: d083 98be 9455 1d3d 277b 49bd 2e72 9b3c
000003f0: 0711 553e f2ea b1bc ffa3 5abd 78d4 713e

network_body._body_endoder.seq_layers.0.bias f4 [128]
0.0 0.0 0.0 0.0 0.0 0.0 0.0 0.0
0.0 0.0 0.0 0.0 0.0 0.0 0.0 0.0
0.0 0.0 0.0 0.0 0.0 0.0 0.0 0.0
0.0 0.0 0.0 0.0 0.0 0.0 0.0 0.0
0.0 0.0 0.0 0.0 0.0 0.0 0.0 0.0
0.0 0.0 0.0 0.0 0.0 0.0 0.0 0.0
0.0 0.0 0.0 0.0 0.0 0.0 0.0 0.0
0.0 0.0 0.0 0.0 0.0 0.0 0.0 0.0
0.0 0.0 0.0 0.0 0.0 0.0 0.0 0.0
0.0 0.0 0.0 0.0 0.0 0.0 0.0 0.0
0.0 0.0 0.0 0.0 0.0 0.0 0.0 0.0
0.0 0.0 0.0 0.0 0.0 0.0 0.0 0.0
0.0 0.0 0.0 0.0 0.0 0.0 0.0 0.0
0.0 0.0 0.0 0.0 0.0 0.0 0.0 0.0
0.0 0.0 0.0 0.0 0.0 0.0 0.0 0.0
0.0 0.0 0.0 0.0 0.0 0.0 0.0 0.0
00000000: 0000 0000 0000 0000 0000 0000 0000 0000
00000010: 0000 0000 0000 0000 0000 0000 0000 0000
00000020: 0000 0000 0000 0000 0000 0000 0000 0000
00000030: 0000 0000 0000 0000 0000 0000 0000 0000
00000040: 0000 0000 0000 0000 0000 0000 0000 0000
00000050: 0000 0000 0000 0000 0000 0000 0000 0000
00000060: 0000 0000 0000 0000 0000 0000 0000 0000
00000070: 0000 0000 0000 0000 0000 0000 0000 0000
00000080: 0000 0000 0000 0000 0000 0000 0000 0000
00000090: 0000 0000 0000 0000 0000 0000 0000 0000
000000a0: 0000 0000 0000 0000 0000 0000 0000 0000
000000b0: 0000 0000 0000 0000 0000 0000 0000 0000
000000c0: 0000 0000 0000 0000 0000 0000 0000 0000
000000d0: 0000 0000 0000 0000 0000 0000 0000 0000
000000e0: 0000 0000 0000 0000 0000 0000 0000 0000
000000f0: 0000 0000 0000 0000 0000 0000 0000 0000
00000100: 0000 0000 0000 0000 0000 0000 0000 0000
00000110: 0000 0000 0000 0000 0000 0000 0000 0000
00000120: 0000 0000 0000 0000 0000 0000 0000 0000
00000130: 0000 0000 0000 0000 0000 0000 0000 0000
00000140: 0000 0000 0000 0000 0000 0000 0000 0000
00000150: 0000 0000 0000 0000 0000 0000 0000 0000
00000160: 0000 0000 0000 0000 0000 0000 0000 0000
00000170: 0000 0000 0000 0000 0000 0000 0000 0000
00000180: 0000 0000 0000 0000 0000 0000 0000 0000
00000190: 0000 0000 0000 0000 0000 0000 0000 0000
000001a0: 0000 0000 0000 0000 0000 0000 0000 0000
000001b0: 0000 0000 0000 0000 0000 0000 0000 0000
000001c0: 0000 0000 0000 0000 0000 0000 0000 0000
000001d0: 0000 0000 0000 0000 0000 0000 0000 0000
000001e0: 0000 0000 0000 0000 0000 0000 0000 0000
000001f0: 0000 0000 0000 0000 0000 0000 0000 0000

network_body._body_endoder.seq_layers.2.weight f4 [128, 128]
-0.013016204 -0.03825507 -0.023371167 -0.059362374 -0.06637237 -0.041844714 0.06970267 -0.008116891
0.16823709 0.0701939 -0.09160819 0.11979773 0.00533085 0.032915138 0.10788724 0.017575407
0.03781478 -0.026367195 -0.0724464 0.01565481 0.028367534 -0.049689263 0.052462857 0.023695685
-0.037711214 -0.048774984 0.011502391 -0.011025141 -0.004252845 -0.054233104 0.12871832 -0.10466981
0.022167204 -0.009368364 0.17511465 -0.05156738 0.0095102005 0.04152575 -0.023722325 0.043037698
-0.04624397 0.04581504 0.054620035 -0.021698803 0.13505259 -0.014248661 0.13684863 0.0124456575
0.15860768 -0.15123104 -0.14569661 -0.038683575 0.033742897 -0.053964857 -0.009318055 0.10324983
-0.043618485 -0.10315752 0.050380494 -0.08216056 0.07701096 -0.044779394 0.094982274 -0.118810974
-0.045994706 -0.21919733 0.058631163 0.06403894 0.1735368 -0.052213896 0.054259166 0.02426077
-0.119690366 0.10765496 -0.08756192 -0.061773885 0.041157372 0.049392123 -0.040315922 0.062482107
-0.0036128317 -0.050765883 0.047697425 0.098305866 -0.052534617 0.060367752 -0.104490615 0.08773249
-0.008294932 0.16425219 0.0084805945 0.07938428 -0.14400005 0.01406765 0.033027686 -0.023841424
0.04559633 0.038332462 0.01577039 -0.048957106 0.009709825 -0.04676924 0.007546671 -0.046301574
-0.1750813 0.027396576 0.012695616 -0.015267931 0.025231617 -0.21285148 -0.028497886 -0.039304417
0.055085547 -0.06283349 0.05224274 0.020203171 -0.02899837 -0.050142728 -0.10395284 -0.11088305
-0.15142272 0.018723685 -0.056804206 0.09436192 0.04845926 0.11791709 0.09774655 0.062908396
0.06973805 0.037503164 -0.044365354 -0.15149318 -0.13422069 -0.11657433 -0.13600837 0.003960547
-0.016940298 0.026747802 -0.07968531 0.19940561 -0.018775718 0.022095997 -0.07947011 -0.052182175
0.030339042 -0.06667698 -0.1592332 -0.08319169 0.09431882 -0.07436821 -0.06884127 -0.03108815
-0.034537103 -0.14215064 0.06651439 0.08041443 0.022424966 0.026163733 0.035291858 -0.102869466
0.11311941 0.05294083 0.14362532 0.097087234 -0.056013104 0.0063330354 -0.21942782 0.019207722
-0.052137967 -0.11556513 -0.15292823 0.002689608 -0.010952453 0.053100813 -0.05937866 -0.027527582
-0.043348152 -0.04238246 0.11248074 -0.058029756 0.14819758 0.0018047139 -0.015638815 0.017570091
0.027983466 -0.011701164 -0.09615237 0.049310166 0.006183014 -0.03849863 -0.2372334 -0.054229185
-0.08207435 -0.08628679 -0.10306412 0.020600142 0.028597238 -0.06687042 -0.08535405 -0.13922542
0.040050875 -0.028945902 -0.09612321 0.10489598 -0.10172835 0.055732593 0.06712489 -0.12044897
0.009113092 -0.08748653 -0.20072784 0.055950467 -0.018395245 0.11624245 -0.019493232 0.04870961
-0.009182109 0.013181185 -0.0018236204 0.041532148 -0.08585403 -0.13119692 0.047860842 -0.21096231
-0.029025061 -0.0021322223 -0.14632034 -0.04970498 -0.025721869 -0.18554501 -0.059991945 0.08852542
0.25363883 0.1210718 -0.04495334 0.026852556 -0.021480523 -0.17209616 -0.03916627 -0.12136056
-0.0069773085 0.072998844 0.015216615 0.0060984506 -0.123478465 0.09417816 -0.2051242 -0.018665293
0.007509852 0.093777515 0.09375713 -0.06455886 -0.095875196 -0.114938356 0.03722607 -0.019431842
00000000: eb41 55bc 59b1 1cbd e474 bfbc f625 73bd
00000010: 3dee 87bd 5d65 2bbd 46c0 8e3d b5fc 04bc
00000020: 5846 2c3e d2c1 8f3d 139d bbbd 8358 f53d
00000030: 69ae ae3b 06d2 063d fcf3 dc3d 4dfa 8f3c
00000040: ace3 1a3d 0400 d8bc c75e 94bd 843e 803c
00000050: 0863 e83c f886 4bbd 4be3 563d 741d c23c
00000060: 1377 1abd 47c8 47bd 8674 3c3c cba2 34bc
00000070: 735b 8bbb 8823 5ebd bcce 033e 205d d6bd
00000080: ff97 b53c c47d 19bc 4151 333e 5138 53bd
00000090: acd0 1b3c e816 2a3d 5255 c2bc 4c48 303d
000000a0: 516a 3dbd 8da8 3b3d 42b9 5f3d b0c1 b1bc
000000b0: 3a4b 0a3e 3773 69bc 0c22 0c3e dfe8 4b3c
000000c0: 0d6a 223e 4fdc 1abe 7e31 15be ab72 1ebd
000000d0: fe35 0a3d 410a 5dbd c1aa 18bc a674 d33d
000000e0: 4ca9 32bd 4044 d3bd c75b 4e3d cc43 a8bd
000000f0: ecb7 9d3d 996a 37bd 1186 c23d 2b53 f3bd
00000100: f264 3cbd 4475 60be 3b27 703d d926 833d
00000110: a2b3 313e 3dde 55bd dc3e 5e3d 86be c63c
00000120: 3920 f5bd 347a dc3d aa53 b3bd 9d06 7dbd
00000130: a294 283d 654f 4a3d 4f22 25bd 3ded 7f3d
00000140: 42c5 6cbb e3ef 4fbd 605e 433d 9654 c93d
00000150: 8a2e 57bd 2d44 773d 2dff d5bd 17ad b33d
00000160: 77e7 07bc ba31 283e 31f2 0a3c 3a94 a23d
00000170: c074 13be 007c 663c 0a48 073d 174f c3bc
00000180: 38c3 3a3d 8002 1d3d e830 813c 3f87 48bd
00000190: f515 1f3c 1a91 3fbd 114a f73b b8a6 3dbd
000001a0: 8348 33be c96e e03c 4601 503c 5826 7abc
000001b0: 89b2 ce3c bdf5 59be 6674 e9bc abfd 20bd
000001c0: 62a1 613d d8ae 80bd 7cfc 553d 1f81 a53c
000001d0: fd8d edbc 7662 4dbd 3ae5 d4bd a716 e3bd
000001e0: 8f0e 1bbe 6a62 993c 87ab 68bd d340 c13d
000001f0: 387d 463d 847e f13d 582f c83d 1ed6 803d
00000200: d3d2 8e3d eb9c 193d 72b8 35bd 0721 1bbe
00000210: 2671 09be 86be eebd c745 0bbe 7ac7 813b
00000220: 61c6 8abc 351e db3c 0d32 a3bd fc30 4c3e
00000230: 89cf 99bc aa02 b53c 3ac1 a2bd fabc 55bd
00000240: 9589 f83c f18d 88bd 070e 23be 6860 aabd
00000250: 3a2a c13d 5c4e 98bd a7fc 8cbd 93ac febc
00000260: c776 0dbd f08f 11be b238 883d 52b0 a43d
00000270: 90b4 b73c 5355 d63c 328e 103d 3aad d2bd
00000280: 26ab e73d 7cd8 583d 8412 133e acd5 c63d
00000290: ff6d 65bd 5a85 cf3b b0b1 60be 8359 9d3c
000002a0: 9f8e 55bd 69ad ecbd 3899 1cbe 2244 303b
000002b0: eb71 33bc 3d80 593d 0a37 73bd 8681 e1bc
000002c0: d58d 31bd 3b99 2dbd 4d5c e63d 9cb0 6dbd
000002d0: 1bc1 173e 268c ec3a f91c 80bc 27ef 8f3c
000002e0: 953d e53c 3db6 3fbc 89eb c4bd 75f9 493d
000002f0: e19a ca3b bdb0 1dbd 50ed 72be 6c1f 5ebd
00000300: 9916 a8bd 21b7 b0bd 4813 d3bd a1c1 a83c
00000310: c144 ea3c 5cf3 88bd 1bce aebd 1c91 0ebe
00000320: 630c 243d f51f edbc 3fdc c4bd b4d3 d63d
00000330: f456 d0bd dc47 643d c678 893d f3ad f6bd
00000340: 144f 153c 232c b3bd 998b 4dbe 512c 653d
00000350: a0b1 96bc 8610 ee3d 45b0 9fbc ba83 473d
00000360: 8e70 16bc e6f5 573c 8c06 efba 9d1d 2a3d
00000370: 3dd4 afbd 7c58 06be bb09 443d 8106 58be
00000380: f7c5 edbc c1bc 0bbb 00d5 15be 7397 4bbd
00000390: abb6 d2bc 83ff 3dbe 1dba 75bd d14c b53d
000003a0: f3dc 813e 7ef4 f73d fe20 38bd e4f9 db3c
000003b0: ecf7 afbc fa39 30be d06c 20bd e38b f8bd
000003c0: e8a1 e4bb 6b80 953d 1c4f 793c 83d5 c73b
000003d0: 47e2 fcbd 7be0 c03d 140c 52be f5e7 98bc
000003e0: 3415 f63b 6d0e c03d bd03 c03d 7037 84bd
000003f0: 375a c4bd cd64 ebbd 5d7a 183d 872f 9fbc

network_body._body_endoder.seq_layers.2.bias f4 [128]
0.0 0.0 0.0 0.0 0.0 0.0 0.0 0.0
0.0 0.0 0.0 0.0 0.0 0.0 0.0 0.0
0.0 0.0 0.0 0.0 0.0 0.0 0.0 0.0
0.0 0.0 0.0 0.0 0.0 0.0 0.0 0.0
0.0 0.0 0.0 0.0 0.0 0.0 0.0 0.0
0.0 0.0 0.0 0.0 0.0 0.0 0.0 0.0
0.0 0.0 0.0 0.0 0.0 0.0 0.0 0.0
0.0 0.0 0.0 0.0 0.0 0.0 0.0 0.0
0.0 0.0 0.0 0.0 0.0 0.0 0.0 0.0
0.0 0.0 0.0 0.0 0.0 0.0 0.0 0.0
0.0 0.0 0.0 0.0 0.0 0.0 0.0 0.0
0.0 0.0 0.0 0.0 0.0 0.0 0.0 0.0
0.0 0.0 0.0 0.0 0.0 0.0 0.0 0.0
0.0 0.0 0.0 0.0 0.0 0.0 0.0 0.0
0.0 0.0 0.0 0.0 0.0 0.0 0.0 0.0
0.0 0.0 0.0 0.0 0.0 0.0 0.0 0.0
00000000: 0000 0000 0000 0000 0000 0000 0000 0000
00000010: 0000 0000 0000 0000 0000 0000 0000 0000
00000020: 0000 0000 0000 0000 0000 0000 0000 0000
00000030: 0000 0000 0000 0000 0000 0000 0000 0000
00000040: 0000 0000 0000 0000 0000 0000 0000 0000
00000050: 0000 0000 0000 0000 0000 0000 0000 0000
00000060: 0000 0000 0000 0000 0000 0000 0000 0000
00000070: 0000 0000 0000 0000 0000 0000 0000 0000
00000080: 0000 0000 0000 0000 0000 0000 0000 0000
00000090: 0000 0000 0000 0000 0000 0000 0000 0000
000000a0: 0000 0000 0000 0000 0000 0000 0000 0000
000000b0: 0000 0000 0000 0000 0000 0000 0000 0000
000000c0: 0000 0000 0000 0000 0000 0000 0000 0000
000000d0: 0000 0000 0000 0000 0000 0000 0000 0000
000000e0: 0000 0000 0000 0000 0000 0000 0000 0000
000000f0: 0000 0000 0000 0000 0000 0000 0000 0000
00000100: 0000 0000 0000 0000 0000 0000 0000 0000
00000110: 0000 0000 0000 0000 0000 0000 0000 0000
00000120: 0000 0000 0000 0000 0000 0000 0000 0000
00000130: 0000 0000 0000 0000 0000 0000 0000 0000
00000140: 0000 0000 0000 0000 0000 0000 0000 0000
00000150: 0000 0000 0000 0000 0000 0000 0000 0000
00000160: 0000 0000 0000 0000 0000 0000 0000 0000
00000170: 0000 0000 0000 0000 0000 0000 0000 0000
00000180: 0000 0000 0000 0000 0000 0000 0000 0000
00000190: 0000 0000 0000 0000 0000 0000 0000 0000
000001a0: 0000 0000 0000 0000 0000 0000 0000 0000
000001b0: 0000 0000 0000 0000 0000 0000 0000 0000
000001c0: 0000 0000 0000 0000 0000 0000 0000 0000
000001d0: 0000 0000 0000 0000 0000 0000 0000 0000
000001e0: 0000 0000 0000 0000 0000 0000 0000 0000
000001f0: 0000 0000 0000 0000 0000 0000 0000 0000

value_heads.value_heads.extrinsic.weight f4 [1, 128]
0.0842171 0.010539368 0.11303368 0.10032451 -0.0796013 -0.045689166 -0.02206324 0.21269259
0.1833272 0.05289191 -0.09638639 -0.08495113 0.089818686 -0.0190527 -0.16497314 -0.09943189
0.041077733 0.1609605 0.17947829 -0.17607911 0.20870751 -0.10050134 -0.018607885 0.13112986
0.07345086 -0.08374837 0.0473077 -0.1702782 -0.20930769 0.03971702 -0.14618415 -0.18815458
-0.13254642 -0.075066715 0.1175842 -0.21512257 -0.10790643 -0.18751171 0.047733933 -0.16743615
0.009222373 0.024875447 0.054134786 0.20456839 -0.05185254 0.13824663 -0.083590284 0.13656989
-0.1941628 0.058140248 0.083336204 -0.079848185 0.15610373 -0.14552763 0.049378186 0.09693551
0.057038218 -0.085005015 -0.14026612 0.05300343 0.13912058 -0.072004706 0.14715967 -0.13478084
-0.063188866 -0.059729367 -0.1789827 -0.12462915 -0.014569506 0.2034933 0.079767376 -0.21316187
0.18461758 -0.13496672 0.16738379 -0.03848204 0.18671799 0.0058621615 0.08830595 -4.7311187e-05
-0.06815326 0.16742334 -0.1463308 -0.13211411 0.18325475 0.028706402 -0.15647803 0.08001867
-0.1291481 0.1638321 -0.20501006 -0.07557507 0.03200072 -0.072622865 -0.1683208 -0.18544315
0.16350552 -0.14253956 -0.07330282 0.206372 0.21232718 -0.16866723 0.09994957 0.19144043
0.120120674 0.066067964 0.093908906 -0.12949243 -0.07727021 0.10796848 -0.076724395 -0.009562612
0.1538941 -0.120496064 -0.19576238 0.2129978 -0.12726183 -0.02922833 -0.11958117 0.084257305
0.121198416 -0.16438521 0.11486581 0.19408709 -0.03193976 -0.1595286 -0.098933645 -0.09304726
00000000: 047a ac3d 50ad 2c3c 347e e73d f076 cd3d
00000010: 0206 a3bd 9024 3bbd f8bd b4bc 16cc 593e
00000020: 20ba 3b3e 30a5 583d 3a66 c5bd dcfa adbd
00000030: dcf2 b73d 6814 9cbc b8ee 28be f2a2 cbbd
00000040: 2041 283d d4d2 243e 28c9 373e 154e 34be
00000050: 6cb7 553e a6d3 cdbd 906f 98bc e846 063e
00000060: 686d 963d 4484 abbd b8c5 413d 695d 2ebe
00000070: c154 56be 50ae 223d 4cb1 15be 98ab 40be
00000080: 40ba 07be 94bc 99bd fccf f03d 1749 5cbe
00000090: 0cfe dcbd 1203 40be a884 433d 6274 2bbe
000000a0: 7019 173c 98c7 cb3c 70bc 5d3d 607a 513e
000000b0: 5463 54bd 8690 0d3e 6231 abbd fad8 0b3e
000000c0: 9dd2 46be 7824 6e3d 2cac aa3d 7287 a3bd
000000d0: a8d9 1f3e 3205 15be c840 4a3d 2086 c63d
000000e0: e8a0 693d 1c17 aebd eca1 0fbe 201a 593d
000000f0: a075 0e3e 3477 93bd 06b1 163e fd03 0abe
00000100: 2a69 81bd c8a6 74bd 3e47 37be 913d ffbd
00000110: f0b4 6ebc 8c60 503e 145d a33d 1b47 5abe
00000120: 640c 3d3e b734 0abe a866 2b3e 589f 1dbd
00000130: 0033 3f3e 6017 c03b c0d9 b43d 0070 46b8
00000140: f093 8bbd 0671 2b3e bed7 15be ec48 07be
00000150: 22a7 3b3e b029 eb3c c73b 20be d4e0 a33d
00000160: 663f 04be 9ac3 273e 28ee 51be 1ac7 9abd
00000170: 3013 033d 4cbb 94bd 4a5c 2cbe cfe4 3dbe
00000180: fe6d 273e e4f5 11be ca1f 96bd 2e53 533e
00000190: 4c6c 593e 1ab7 2cbe 5cb2 cc3d f608 443e
000001a0: d401 f63d a44e 873d 5053 c03d aa99 04be
000001b0: d83f 9ebd 941e dd3d ae21 9dbd 80ac 1cbc
000001c0: 6a96 1d3e a4c6 f6bd ef75 48be 181c 5a3e
000001d0: ed50 02be 4070 efbc f9e6 f4bd 188f ac3d
000001e0: e036 f83d 9954 28be c43e eb3d c4be 463e
000001f0: 44d3 02bd 775b 23be b99d cabd 908f bebd
