Project specific/results/ppo/JumperAgent/JumperAgent-10304.onnx (onnx, 127008 bytes, 8 tensors)

network_body._body_endoder.seq_layers.0.weight f4 [128, 108]
000000 be e8 f8 3c 12 63 a2 bb 18 ec 8f 3e 22 24 b5 bd
       0.030384418 -0.0049556578 0.28109813 -0.088447824
000010 cf 0b 09 3e 6b 71 03 bd dc e3 0a 3d 44 84 0c 3e
       0.13383411 -0.032090586 0.03390871 0.1372233
000020 78 52 55 3e 96 ad 21 3e 02 03 16 3e 97 e1 12 3c
       0.2083224 0.15788874 0.14649585 0.008964918
000030 80 0e fe bc 8e 26 83 3d d0 13 45 3e ba f0 04 3d
       -0.031012774 0.06403838 0.19245839 0.032456137
000040 8b a4 ca 3c 0c 86 52 bd a1 79 1f bd 23 cc ae bd
       0.024736663 -0.05139737 -0.038934354 -0.0853503
000050 b9 93 61 3d 81 97 c6 3d 42 e7 20 3d aa 03 9b bd
       0.05507252 0.09696866 0.039283045 -0.07569058
000060 6b b4 33 3e 92 2f 41 3d b9 dd 81 bc a4 d2 26 bd
       0.17549293 0.047164507 -0.015852796 -0.040728226
000070 67 89 7a bd 0b b2 a1 3d 9b cf 9b bd f9 6b 5d be
       -0.061166193 0.07895287 -0.07607957 -0.2162322
000080 af 94 4e bd 08 3f 28 3e 2b fa be 3d d4 1c 0e bd
       -0.050434764 0.16430295 0.093250595 -0.03469546
000090 11 62 ed 3d 5b b2 b2 3c d6 99 92 3d f8 24 f7 3d
       0.1159097 0.021813562 0.07158248 0.12067598
0000a0 51 33 cf bd de a4 97 bc 5f 17 fe bd d3 17 91 bd
       -0.1011721 -0.018511232 -0.124068014 -0.07084622
0000b0 dc 6a 62 3c 33 55 01 bd c4 b9 c5 bd bd 78 71 bd
       0.013819423 -0.031575393 -0.096545726 -0.058953036
0000c0 4c 67 da bc b3 a0 64 bd f5 e4 16 bb cd 84 d1 3b
       -0.026660584 -0.055817317 -0.0023024653 0.006394005
0000d0 47 82 0f bd 6a ff ce bd 4a 36 48 bd 32 e8 25 be
       -0.03503635 -0.1010731 -0.0488799 -0.16201857
0000e0 93 83 b1 3b 6a 18 5b 3c 6f d2 c5 3d 69 c4 98 3d
       0.005417296 0.01337252 0.09659278 0.07459337
0000f0 5c e0 17 3e 0e a3 0d bc fc 8a f0 bd f9 81 05 bd
       0.1483168 -0.008644832 -0.11745259 -0.032594655
000100 7f 6b 4b bd a6 0a 05 3e f4 ff 67 3d 18 e7 c7 3d
       -0.049663063 0.12992343 0.05664058 0.097608745
000110 df 87 d1 3d 87 56 0f 3e ec 1e 55 bd 7f 5d b9 3d
       0.102309935 0.13997851 -0.052031443 0.09051036
000120 cd e6 9d bd 72 a9 8b 3d c4 9d 9f 3c 34 e9 95 bd
       -0.077100374 0.068194285 0.019484408 -0.073198706
000130 eb 8b 8f bd c6 e6 0c 3d e6 c0 bd 3d 08 03 3e 3b
       -0.07009109 0.03439977 0.09265308 0.0028993506
000140 ad 01 22 3e 2c 3d 59 bc 6e 35 9f 3d 3e cd fc bd
       0.15820952 -0.013259213 0.07773863 -0.12343834
000150 07 bd 20 3d 33 cf c7 bd 2b 75 a2 bd 08 62 32 bd
       0.03924277 -0.09756317 -0.07932504 -0.04355052
000160 86 5f 5e be df 32 38 3c ef 48 13 3e f9 ed 51 3d
       -0.21716127 0.011242597 0.1438329 0.05125234
000170 40 f1 8f 3c f2 7b 59 3d f3 7a c3 3c 89 af 19 be
       0.017571092 0.05309672 0.023862338 -0.15008368
000180 96 b4 90 3d 9f a2 09 3e dd 5c 95 3d 8d bb 0e 3e
       0.07065694 0.13440941 0.07293103 0.13938732
000190 8d 1f 64 bc d9 cc 4b bd 3e 42 d7 bc 63 5a 48 be
       -0.013923538 -0.049755905 -0.026276704 -0.1956573
0001a0 ce ab 94 3c d4 75 6c bd ed 50 2b bd 48 59 f2 bc
       0.01814833 -0.057729557 -0.041825224 -0.029583588
0001b0 46 2f 75 bc 67 21 64 3d 3c 37 34 bc 68 dd f3 3c
       -0.014964884 0.055695917 -0.010999497 0.02976866
0001c0 17 6d b9 3d a6 23 ab 3c a9 70 9e bd 90 ea 02 3e
       0.0905401 0.020891022 -0.07736332 0.12784791
0001d0 e7 56 6a bd f0 a2 9c bd 26 43 00 be 44 cb 8b bd
       -0.057211783 -0.07648265 -0.12525615 -0.06825879
0001e0 d8 16 34 3c f9 3d f6 3d a8 08 ca 3d 3d 56 c9 bd
       0.0109917745 0.12023539 0.09864932 -0.09830902
0001f0 e1 ff 86 bc 56 b6 9c bd 4c 55 a8 3d f5 49 da 3d
       -0.016479434 -0.07651965 0.08219394 0.106586374
000200 4d d2 69 3d aa e4 cc bc 7e a4 2e 3d db 99 50 3e
       0.057085324 -0.02501138 0.04263734 0.20371191
000210 ef 91 2d 3d 80 f3 2a 3e 4c e8 83 3d 68 42 c7 3c
       0.0423755 0.1669445 0.064407915 0.024323657
000220 8e ce 22 3e ec f1 d9 3d 52 b8 1d be 5c 13 35 3e
       0.15899107 0.10641846 -0.15402344 0.17683166
000230 04 0f 95 bd 2a 72 44 3e fa 01 d5 bd eb 07 b9 3d
       -0.07278255 0.19184175 -0.104007676 0.09034713
000240 47 84 7a bd 3b e5 0e be 32 db ea 3d 49 3f 39 be
       -0.061161306 -0.13954632 0.114675894 -0.18090548
000250 ca c9 59 bd 5a 9c 08 bc 51 12 0f bc fa 68 2f 3d
       -0.053170957 -0.008338058 -0.008732394 0.042824723
000260 24 04 87 bc 3a d0 2a bc 99 a9 7c 3d 52 04 02 3e
       -0.016481467 -0.010425622 0.06168518 0.1269696
000270 21 6c 21 be 2f eb 0e 3e a6 48 e9 bc d7 f6 fa bd
       -0.15763904 0.13956903 -0.028477024 -0.12254112
000280 a9 ba c8 bd 88 a8 03 be 57 83 63 3e a7 ef 84 3d
       -0.098012276 -0.12857258 0.22218071 0.064910226
000290 08 f4 77 3d 48 3a 2c bd 8e 2b db 3d c6 66 28 3d
       0.06053546 -0.04204777 0.10701667 0.041113637
0002a0 6b 22 a3 3d b4 d3 8b 3d fc b2 1e be e1 30 2b 3d
       0.07965549 0.068274885 -0.15497965 0.04179466
0002b0 da 1f ec bb 61 c7 af 3c e4 1f c6 bd da e4 8e bc
       -0.0072059454 0.021457376 -0.096740514 -0.01744311
0002c0 a8 92 26 3d 29 12 2d bd 61 42 31 3c da c7 08 3e
       0.040667206 -0.042253647 0.010819049 0.13357487
0002d0 26 c9 85 3e e4 69 a8 3b 7a c8 95 bd 43 5e 7f be
       0.26130027 0.0051395763 -0.073136285 -0.24938302
0002e0 8f cc cc 3b f3 55 bb bd 3f 3a 6f 3c 03 3e da bd
       0.006249971 -0.09147253 0.014601289 -0.10656359
0002f0 92 63 34 be 59 ce e8 bd 05 df d1 3d c9 6c 64 bd
       -0.17616108 -0.11367483 0.10247616 -0.055767808
000300 3f e4 1e 3e 17 23 31 bd 67 e6 ea bc 73 55 86 bc
       0.15516756 -0.043246355 -0.028674318 -0.016398167
000310 0a bc cb 3d 69 b7 15 bd ce 72 ad bc 09 28 be bd
       0.09947975 -0.036551867 -0.021172907 -0.0928498
000320 a8 f4 b2 bc 7e a2 69 3e 49 7c c0 3c 63 31 16 3e
       -0.021845177 0.22815892 0.023496764 0.14667277
000330 d1 98 4f bd 6a b4 81 3c 58 5f 1c bc db 94 65 3d
       -0.050682846 0.015833098 -0.009544216 0.056050163
000340 3b cb 32 3d 7f b5 92 bd 2d 93 2a 3d 77 5c 7a bd
       0.043650847 -0.07163524 0.041644264 -0.061123338
000350 9e 03 be bd 09 5e 27 3d 00 94 1d bd c3 ac 08 be
       -0.09278034 0.040861163 -0.038471222 -0.13347153
000360 d7 15 c2 3c 86 3b bc bd 33 a0 46 be e4 88 3b bc
       0.023692055 -0.09191041 -0.19397049 -0.0114462115
000370 c6 f4 b1 bd d9 2c ca 3d 01 95 ac bc 1b 95 bc 3c
       -0.08689265 0.09871835 -0.021067144 0.023020318
000380 2e 13 6f 3d be 2b 69 3c 9b 36 2e bd 84 f6 c3 3d
       0.0583679 0.01423162 -0.042532545 0.095685035
000390 89 8e 10 bc a4 9c 98 3d 7c 56 4a be 93 5c d6 bc
       -0.0088230455 0.07451752 -0.19759554 -0.02616719
0003a0 27 a3 1c 3d 55 89 ca bc 72 dd 2e 3b 48 5d e2 3d
       0.03824153 -0.024723688 0.0026682285 0.11052948
0003b0 d8 91 84 bd 8e 9c 79 bc 41 a8 e3 3b 8b 52 e0 3d
       -0.0647313 -0.015235079 0.0069475477 0.10953244
0003c0 bd 06 9d 3c 5f 7e a7 3d 21 0d 5a 3d dd 3d 35 3d
       0.019168252 0.081784 0.053235177 0.04424845
0003d0 f5 a5 e0 bc 80 e9 ca bc 89 06 07 3e 03 91 00 be
       -0.027422884 -0.024769545 0.13186087 -0.12555318
0003e0 45 5a b0 3b 0b b2 5a be 9a 5a 31 bd 09 52 9d bc
       0.0053818547 -0.2135698 -0.043299295 -0.019204156
0003f0 9c 0d 0d bd b6 8a 9e bd 62 48 06 3d cc b1 83 3b
       -0.034436807 -0.07741301 0.032783873 0.004018998

network_body._body_endoder.seq_layers.0.bias f4 [128]
000000 f8 8f cd 3a fd 87 0b bb e1 d5 77 ba c0 c3 04 3b
       0.0015683165 -0.0021290772 -0.00094541727 0.0020258278
000010 a5 3b c1 39 ab 8b c2 3a 34 06 38 b9 1c 1e 37 3a
       0.00036856267 0.001484265 -0.00017549918 0.00069853826
000020 de 15 46 3a da f5 21 3b 2d 67 b0 ba 82 3e a1 3a
       0.0007556359 0.002471319 -0.0013458483 0.0012301954
000030 dd 7e c2 ba 47 dc e6 39 70 17 84 ba b0 f4 a2 3a
       -0.0014838834 0.00044033138 -0.0010077786 0.0012432542
000040 8d 66 c7 3a 3c 1b 01 b8 a1 7e 89 3a 92 34 b1 3a
       0.0015213058 -3.078136e-05 0.0010490009 0.0013519695
000050 85 f5 0d bb 5c b6 09 3b 84 a9 d5 ba 78 62 db b9
       -0.0021661234 0.0021013236 -0.001630113 -0.000418443
000060 1b 02 c9 ba a1 3f 33 3b db bc 11 3a 4c 1c 97 ba
       -0.001533571 0.0027351158 0.00055594527 -0.0011528819
000070 01 93 10 bb eb 0e ba 3a 00 46 b3 ba 5e ce 0b 3b
       -0.0022060277 0.001419512 -0.0013677478 0.0021332721
000080 5a 5a 37 3a 74 ca f0 3a b8 6c 32 3b f8 78 d9 37
       0.00069943594 0.0018370883 0.0027225446 2.5924746e-05
000090 85 3e 1f 3a bc 37 c0 b9 8c 89 0e 3b 50 ef 0f bb
       0.0006074685 -0.0003666262 0.0021749465 -0.002196271
0000a0 9d 23 e0 ba e8 1b fc 3a fc 33 dc 3a 4f 15 98 3a
       -0.0017100457 0.0019234391 0.001680016 0.001160303
0000b0 4a e7 6b 3a b9 0c a6 ba aa ac 25 bb 08 de 83 b9
       0.00089990033 -0.0012668587 -0.0025279918 -0.00025151693
0000c0 6e 56 74 b8 5e 61 93 3a 9a 42 2f 3a a5 9a 1d ba
       -5.8254627e-05 0.0011244228 0.00066856446 -0.00060121185
0000d0 9f ce 2c bb 31 c2 99 b9 88 cd d7 39 8e 81 62 3a
       -0.0026368273 -0.00029327118 0.00041161128 0.0008640521
0000e0 78 16 ca b9 dc 61 52 3b 6d 18 37 bb 10 16 42 bb
       -0.00038545183 0.0032101786 -0.0027938143 -0.00296152
0000f0 71 65 22 bb fd 10 7b ba 5c 36 14 ba c2 07 8c ba
       -0.0024779702 -0.00095774216 -0.0005653852 -0.0010683464
000100 f3 30 88 ba a8 b2 02 3a bf 11 3a 3a 0f 92 bf b9
       -0.0010390565 0.00049857283 0.0007097981 -0.0003653918
000110 f7 30 5d 3b 6a e5 2a ba ac 03 51 ba 26 70 b9 ba
       0.003375111 -0.0006519171 -0.00079732644 -0.0014147803
000120 90 ba 26 3b 2e 1a a8 3a 08 44 3a 39 16 8d 3e 3a
       0.002544079 0.0012825185 0.00017763686 0.0007268948
000130 a1 eb a2 b9 cb a1 96 39 97 cd a3 ba b2 2a 0f 3a
       -0.00031074605 0.00028730775 -0.0012497184 0.0005461379
000140 c7 a5 5c ba 8e 4c 8b b9 4a 6d 17 ba 46 6d d4 ba
       -0.0008417037 -0.00026569184 -0.0005776478 -0.0016206882
000150 51 b8 bc 3a f4 6d 21 b9 ac 64 89 ba 61 df eb 3a
       0.0014398192 -0.00015395117 -0.0010482273 0.0017995649
000160 ed 4d a2 39 2a e3 c1 b9 25 a0 40 3a cd 0d f7 39
       0.00030957107 -0.0003698108 0.0007348082 0.00047121794
000170 8c 5d dc 39 e6 c0 a3 39 6a 1d 00 bb 98 c0 3f 3a
       0.00042031368 0.00031233503 -0.0019548782 0.00073147705
000180 b6 0f 1c b9 06 86 8c 3a fc 51 3c bb e8 59 ba b9
       -0.00014883172 0.0010721094 -0.002873539 -0.0003554367
000190 ad 27 15 3b c7 85 a6 ba 4a 3b 00 bb 32 70 c8 ba
       0.0022759244 -0.0012704664 -0.001956659 -0.0015292226
0001a0 b2 19 d7 3a af f7 ac 3a 6b 2e c4 3a d4 59 0e bb
       0.0016410856 0.0013196374 0.0014967447 -0.0021721022
0001b0 d2 db d9 38 b7 fd cc 3a e2 09 16 ba c4 ef d7 38
       0.00010388311 0.0015639578 -0.00057235186 0.00010296659
0001c0 10 27 04 ba 85 e9 8c ba ee 7a f9 3a 0f 3c 16 bb
       -0.0005041221 -0.0010750747 0.0019033828 -0.0022923981
0001d0 ee ee ad 3a f2 08 8c 3a e2 28 dd 3a f8 da 8d 39
       0.0013270059 0.0010683818 0.0016873146 0.0002705676
0001e0 96 e4 14 ba 4a 40 70 3a f2 43 05 3b 2f 6d c5 3a
       -0.0005679814 0.0009164853 0.0020334688 0.0015062446
0001f0 86 ef 09 3b 64 85 7c 3a 42 af 16 39 cf c6 c9 39
       0.0021047308 0.0009632914 0.00014370403 0.00038485831

network_body._body_endoder.seq_layers.2.weight f4 [128, 128]
000000 31 05 95 bd 91 be 7c 3d b3 3a fe bc d6 09 da 3d
       -0.07276381 0.061705176 -0.03103385 0.10646407
000010 74 e2 d9 3d 2b bb 35 be a9 20 5f 3d da e4 33 bd
       0.10638896 -0.1774718 0.054474507 -0.04391942
000020 bc e9 96 bd dc 97 c1 3c 02 12 bb bd cd 29 b8 3d
       -0.073688 0.023631983 -0.09134294 0.08992348
000030 2f 5a a6 3c 66 9b ee bd a6 f5 75 3c 70 50 c0 3c
       0.020306675 -0.11650734 0.01501218 0.023475856
000040 16 8c 5f bd a5 5a 18 3c c8 4c c1 bc b8 ab ba bb
       -0.054576956 0.009298955 -0.023596182 -0.00569674
000050 90 21 05 3e 78 c5 c0 39 21 63 a7 3b ce 9f a8 3d
       0.13001084 0.0003676822 0.0051082526 0.08233605
000060 81 9b fc 3c 9b cb e0 3c 41 b6 36 3d 02 24 ed 3c
       0.030835869 0.027440837 0.044607405 0.028947834
000070 0f ef 98 bd 92 5c 69 bd c3 d1 2e bd f8 c3 ec bb
       -0.07467472 -0.056973048 -0.042680513 -0.0072255097
000080 d0 57 88 3c b2 13 c9 3d 51 72 cb bc 47 84 59 3c
       0.016643435 0.0981821 -0.024834784 0.013276166
000090 fa 79 d3 3c b7 bf 23 bd fe 28 73 bd 30 7d 9f 3d
       0.025814999 -0.039977755 -0.059365265 0.077875495
0000a0 cb b4 f9 bb 6e 17 5e bd c7 2b b0 bd 1a d6 e8 bd
       -0.007620429 -0.054221563 -0.086021 -0.11368962
0000b0 4f 1c a9 bc 9d e4 17 bd 8d 88 b4 3d 39 26 39 bc
       -0.020643381 -0.037083257 0.088151075 -0.011300617
0000c0 8a 1c c7 bd 96 e6 31 bd 8c fb 4c bd 2b ca b7 bb
       -0.0972224 -0.043432795 -0.05004458 -0.005608817
0000d0 bd 22 2c ba d1 b7 61 bd ff e4 93 3d 06 a4 85 3d
       -0.00065664557 -0.05510694 0.07221412 0.065254256
0000e0 6a 53 e8 bb 88 24 34 3c 3b 2a ed bc af b6 c3 3b
       -0.007090022 0.010995038 -0.028950801 0.0059727053
0000f0 03 3b 1c 3e 96 b6 7c be b4 3d ef 3b 5e 5e 03 bc
       0.15256886 -0.24679026 0.0073010568 -0.008018104
000100 be b5 20 3d d2 69 8b 3c 57 75 68 bc 00 24 97 bd
       0.039235823 0.017018232 -0.014188132 -0.07379913
000110 1b 37 b7 3d 63 0c 3a 3e a2 ac 52 bd 35 67 10 be
       0.089460574 0.18168788 -0.051434167 -0.1410187
000120 d4 0d 8c 3d 13 8c 00 3d 7d 03 9b 3d fc 14 94 3d
       0.06838575 0.031383585 0.07569025 0.07230565
000130 35 dc d1 bd 2d 69 ac 3c 01 68 98 3c f6 94 95 bb
       -0.10247079 0.021046245 0.01860428 -0.0045648767
000140 9d 00 a5 bb f5 1e 1a 3d e9 94 15 3e 3d 36 57 be
       -0.0050354735 0.03762718 0.14607586 -0.21016784
000150 a4 1d 96 3d 7d 5e c5 3d 65 3f d3 3d 11 0a 74 3b
       0.07329872 0.09637163 0.10314826 0.0037237445
000160 0a d6 88 bd 3c 45 13 3e 6d c2 ba 3c ca a5 1f be
       -0.0668145 0.1438188 0.022797788 -0.15590587
000170 53 80 03 3e 6f ff 58 3d 9c e2 df bc 5a 4d ae bb
       0.1284192 0.052977975 -0.027329735 -0.0053192796
000180 b7 b2 53 bd 75 eb 03 3e 90 df 78 3d ae fd da 3d
       -0.051684108 0.12882788 0.06076008 0.10692917
000190 1a 10 3f bd 87 1a ca bb b0 59 86 3d f2 35 08 3e
       -0.046646215 -0.006167713 0.06560075 0.13301829
0001a0 8e d6 0e 3d 9f e6 89 3d d2 a2 d2 3d 77 71 29 3d
       0.034872584 0.067334406 0.10284962 0.041367974
0001b0 ed 42 c7 3c 54 63 c5 bd 8f d4 44 3e 3d 6e fa 3c
       0.024323905 -0.09638086 0.1922171 0.030570144
0001c0 ac c3 1d 3e a1 df ac bd ae 98 b3 bd bf 42 b7 bc
       0.15406674 -0.08441091 -0.08769356 -0.022370694
0001d0 33 d2 1c bd 82 47 40 3d 5c 5a 94 bd c7 67 35 3d
       -0.0382864 0.046943195 -0.07243797 0.044288423
0001e0 ae 23 06 be ee 0d eb 3d 91 79 37 3e 5e 37 d7 bc
       -0.13099548 0.11477266 0.17917468 -0.026271518
0001f0 af db 83 bc f1 b1 49 bd 59 6b f7 bc c4 e4 72 bd
       -0.016095964 -0.049241964 -0.030202555 -0.0593002
000200 99 0c a4 3a 2d d5 48 be 3c 9f ca 3d fe a4 8d 3c
       0.0012515961 -0.1961257 0.09893653 0.017290588
000210 b7 ad 8f 3c 5b 9d 3d 3e 1c 6b dc bd 34 13 84 bd
       0.017538888 0.18517058 -0.10762617 -0.06448975
000220 86 17 23 3d 07 33 3c bc a4 92 15 bd 51 09 3a bd
       0.039817356 -0.011486775 -0.0365168 -0.04541904
000230 0e 6c 3e bd 07 5b 0c 3e 84 09 71 3d 7e 19 30 bd
       -0.046489768 0.13706599 0.058846965 -0.04299306
000240 9b 44 bc 3c 59 cb e3 3d 32 39 59 3d ff 91 a3 38
       0.022981932 0.1112277 0.05303306 7.7996396e-05
000250 18 89 11 3d f8 bf 57 3d b2 51 b6 bd e5 de b0 3c
       0.035531133 0.05267331 -0.08902301 0.02159066
000260 4f 0c 58 3e d7 ff 5e 3b 5f cd 80 bc fb be 00 bd
       0.21098445 0.0034027004 -0.015722929 -0.031432133
000270 86 5c 77 bd 74 e3 18 3d 3a 7f 44 be 64 3a ee bd
       -0.06039097 0.03732629 -0.19189158 -0.11632231
000280 43 cd 9d bd c7 ce be 3d 91 9a cd 3a 7a 2e 9c bd
       -0.07705166 0.093167834 0.0015686323 -0.07626052
000290 88 16 91 bd d4 8c b8 3c 37 19 c1 bb e5 09 3d bd
       -0.070843756 0.02252809 -0.0058928984 -0.046152014
0002a0 21 fd 48 bd c9 42 ff 3d c7 d6 0c 3d 00 da 27 3e
       -0.049069528 0.1246391 0.034384515 0.16391754
0002b0 a9 2c 1f be 99 b7 48 3e a7 19 a6 3d 90 a5 95 3d
       -0.1554438 0.19601287 0.081103615 0.07306969
0002c0 34 85 a1 3d 39 03 67 3d 41 aa 12 3e 79 7e 3b bd
       0.078867346 0.056399558 0.14322759 -0.04577491
0002d0 ae c5 89 3d 4c ff c8 3d 3a bc 24 be 82 d4 d9 3c
       0.067271575 0.09814319 -0.16087428 0.02659059
0002e0 7b 8d ef bd df a1 14 3d a4 0c 9c 3d c2 bb ae bc
       -0.11696907 0.036287185 0.076195985 -0.021329764
0002f0 1a 5c 1b 3d 60 b6 c8 3c 37 51 6d bd 5d 13 6c bd
       0.03792963 0.024501026 -0.05793878 -0.057635654
000300 d1 85 a9 bd 2d 46 a2 bd f4 26 71 3c 52 cc ca 3d
       -0.082774766 -0.07923541 0.01471876 0.09902252
000310 1f b0 d4 bc 6a 6c 24 bc f1 2c d3 bd 11 0d 52 ba
       -0.025962887 -0.010035614 -0.10311306 -0.00080128113
000320 bd e0 42 be a2 4d 39 bd 62 98 d6 3d 3f 23 82 3d
       -0.19031043 -0.045240052 0.104782835 0.06354379
000330 56 3c 06 3c 5f 28 cc 39 78 48 89 3e 48 4d 0c be
       0.008193096 0.0003893999 0.26813102 -0.13701355
000340 8f 70 4c 3d cd 0a b4 bc e0 f9 43 3d b4 b1 4f bd
       0.04991203 -0.021977806 0.04784572 -0.05070658
000350 77 0a 9a 3c 5f 26 61 bc ff ce 9c bd 8b 4d d3 bc
       0.018803818 -0.013742059 -0.07656669 -0.025793811
000360 1f 90 d5 3d da 32 78 3d b6 73 9f bd ea d4 0a be
       0.104278795 0.06059537 -0.07785742 -0.13557783
000370 a8 a2 e7 3b 55 9c 74 bd 11 d4 4a bc 5c 66 0e be
       0.0070689507 -0.059719402 -0.012379662 -0.13906235
000380 bf d4 dd bc 19 e2 e8 bb 1f a2 95 bc 66 9f d5 3d
       -0.027078984 -0.007107031 -0.018265782 0.104307935
000390 10 b1 9c bd 05 98 d3 3c b1 24 f4 3d f5 24 26 3d
       -0.076509595 0.025829324 0.11921061 0.04056259
0003a0 ef 94 c9 3c b6 28 36 3d 83 c7 5b bd 6a 4f 50 bb
       0.02460715 0.04447242 -0.053657066 -0.0031785616
0003b0 1b f2 71 bd fa d4 19 bc 86 22 44 3c 3f 47 31 3e
       -0.05906878 -0.0093891565 0.011971122 0.17312334
0003c0 6b 22 67 3d 69 d7 ac bd 77 31 25 3d b8 d9 ae bd
       0.056429308 -0.08439524 0.040330376 -0.0853762
0003d0 d3 cd 24 3d 7e f4 45 bd 39 92 a1 bd 96 c7 25 bd
       0.04023535 -0.04832887 -0.07889218 -0.040473543
0003e0 24 94 1a 3c 61 fc bf 3b 37 9d 2a bd 75 97 0c bd
       0.009434734 0.0058589433 -0.041653838 -0.03432413
0003f0 1a b9 f7 3c b9 ad 1f bd f2 e8 36 3b ca 70 b2 bb
       0.03023963 -0.038984034 0.0027909842 -0.0054455744

network_body._body_endoder.seq_layers.2.bias f4 [128]
000000 0c 7f 67 ba 92 72 ed 3a c9 fa d7 3a 36 cb 0e bb
       -0.0008830882 0.001811581 0.0016477938 -0.0021788604
000010 63 a2 f2 38 86 74 d4 3a 6f 1c 01 bb f6 af e4 3a
       0.00011569706 0.0016209043 -0.0019700786 0.001744746
000020 a2 68 46 3a 8c 24 f6 ba 2e 1f 9c 3a f0 4b ee 39
       0.0007568692 -0.0018779202 0.0011911148 0.00045451475
000030 0d 05 00 bb ec 8c 7c b7 dc a3 c1 39 61 f1 00 ba
       -0.001953426 -1.5053181e-05 0.00036933913 -0.0004918781
000040 5a 80 b5 b9 84 a4 ab 3a 8e bf d7 ba ca 0b 85 ba
       -0.0003461864 0.0013095294 -0.0016460286 -0.0010150608
000050 dc 17 4b 3a 6b 5d e2 ba c0 6c f9 38 0c 1e cf ba
       0.0007747391 -0.0017270272 0.000118935015 -0.0015801801
000060 8d 42 80 3a 47 c0 40 ba 84 26 8c ba ec f5 09 bb
       0.0009785459 -0.00073528703 -0.0010692631 -0.0021051122
000070 4c 5f 86 3a c8 bd 97 3a ad 68 b9 b9 e3 51 0a bb
       0.0010251789 0.0011576945 -0.0003536394 -0.0021105937
000080 0d b1 15 3b bb 8e fb 3a 52 16 c4 ba 71 ff e1 3a
       0.0022841126 0.0019192317 -0.0014960265 0.0017242265
000090 a9 0f 5b ba e0 4c 31 ba 9c 66 d3 ba ea 82 90 3a
       -0.00083565206 -0.00067634694 -0.0016128602 0.0011025344
0000a0 44 d8 c5 b9 b9 a9 be 3a 30 a6 0d bb 89 a4 19 b9
       -0.00037735899 0.0014546431 -0.0021613948 -0.00014652511
0000b0 1c 2f 0c 3b 4e 9a 0a bb 9e 7a 25 39 6c d3 a1 b9
       0.0021390384 -0.0021149102 0.00015781305 -0.00030865835
0000c0 f6 55 0d 3b 88 14 0d bb 19 f3 eb ba 55 4b a9 3a
       0.002156613 -0.002152713 -0.0018001526 0.0012916127
0000d0 2d 8b fb ba e0 c9 e1 ba 88 db b0 39 ce 30 cd b9
       -0.0019191258 -0.0017226301 0.000337329 -0.0003913701
0000e0 bc 5e 91 3a f0 d0 ac ba c4 b4 fb 3a d5 b7 fe 3a
       0.0011090855 -0.0013184827 0.0019203653 0.0019433448
0000f0 28 7c fd 3a 81 03 03 bb 2f 87 08 bb 1a b1 a2 b9
       0.001933937 -0.0019991102 -0.0020832529 -0.00031031
000100 47 59 fb 3a d5 b9 80 3a 1e d5 ed ba e1 45 b5 ba
       0.0019176387 0.0009821007 -0.0018145179 -0.001383003
000110 7f ce dd 3a 89 5d b3 ba a9 7c ae 39 30 23 07 bb
       0.0016922503 -0.0013684492 0.00033280745 -0.0020620339
000120 56 8c 07 bb 34 6d 6d 3a 9c 46 5e 39 e6 93 be ba
       -0.0020683012 0.0009057105 0.00021197874 -0.0014539927
000130 86 eb cf 39 09 e4 5c 39 55 51 a5 b9 6e 12 01 3b
       0.00039657595 0.00021065785 -0.0003153185 0.0019694823
000140 ba 68 00 3b 69 50 b8 38 9e 26 80 ba 9a f2 ee 3a
       0.0019593672 8.788781e-05 -0.0009777134 0.001823026
000150 75 b6 05 bb 49 03 80 3a 6b f6 00 3b 04 e3 96 3a
       -0.0020402942 0.0009766604 0.0019678127 0.0011511748
000160 70 d3 0b 3b 8a 0c 91 ba c2 c1 d4 3a 66 e5 9f 39
       0.0021335743 -0.0011066359 0.0016232061 0.00030497758
000170 9a 36 c9 3a 4b c3 80 ba f0 e1 af b9 56 0e b1 3a
       0.0015351356 -0.0009823827 -0.00033546938 0.0013508301
000180 8d 81 54 3a 21 bb be ba a0 18 b9 ba c9 70 0c bb
       0.0008106463 -0.0014551618 -0.0014121719 -0.002142953
000190 6c 2c 87 ba 08 19 71 3a 02 2d c4 39 f1 57 0d bb
       -0.0010312921 0.00091971504 0.00037417567 -0.002156731
0001a0 6d 3f 7f b9 bc 3e 9f 3a de 7d 28 ba c9 fe d5 b8
       -0.00024342323 0.0012149434 -0.0006427447 -0.00010204089
0001b0 67 c8 01 bb a8 06 0d b7 34 a4 0d bb 09 f6 db 3a
       -0.0019803287 -8.405805e-06 -0.0021612765 0.0016781698
0001c0 4e fa ed ba 1b 4d e9 3a 90 1b d0 ba 0c fd f7 b9
       -0.0018156262 0.0017799468 -0.0015877355 -0.00047300046
0001d0 43 30 ce 3a 31 b5 cf 39 d6 e1 0f 3b c1 fb 8e 3a
       0.0015730936 0.00039617115 0.0021954677 0.0010908769
0001e0 56 20 9e 39 d4 47 02 bb 84 52 d3 3a 4d 32 03 bb
       0.000301602 -0.0019879239 0.0016122614 -0.0020018995
0001f0 47 f1 b2 ba e2 f8 0a bb 2b 22 f2 ba 1d 52 ee 3a
       -0.0013652229 -0.0021205475 -0.0018473318 0.0018182431

action_model._continuous_distribution.log_sigma f4 [1, 2]
000000 7d 16 5b 3b 42 66 21 bb
       0.0033430152 -0.00246276

action_model._continuous_distribution.mu.weight f4 [2, 128]
000000 10 ab 54 3c fc de 32 bb 3d 08 88 bc e1 d1 f6 3a
       0.012980238 -0.0027293554 -0.01660549 0.0018830859
000010 64 63 93 bc a1 ec d5 bc c3 0e 46 ba 83 68 97 3a
       -0.01799173 -0.02611381 -0.00075553 0.0011551533
000020 6e db c9 3b f6 8f 50 3c 04 8f fc bc 3f ce a4 3c
       0.0061601913 0.012729635 -0.030829914 0.020117877
000030 86 b5 22 3c eb 8c 7a bc 81 00 b6 3c 25 7d 1e bb
       0.009930974 -0.0152923865 0.022217037 -0.0024183479
000040 e6 ac 89 bc d2 5c d7 3c 49 d3 f5 3b 39 79 66 bc
       -0.016806077 0.026289377 0.007501994 -0.014066988
000050 b7 19 05 3c 91 dc a4 ba b3 73 00 bd e1 0d 37 3a
       0.008123807 -0.0012577941 -0.03136034 0.0006982964
000060 93 06 30 3c 64 43 41 3d 6b 52 ce 3c d4 c1 a1 39
       0.010743755 0.04718341 0.025185784 0.00030852726
000070 2d 0c 97 bc 5b 15 be 3b be 4c e6 bc 3b f6 02 3b
       -0.018438423 0.0058008856 -0.028112765 0.001998319
000080 df 6e 31 3a bc 11 6d bc db fc 92 3b 4f ec 4d 3b
       0.0006768535 -0.01446956 0.004485709 0.0031421368
000090 de a6 e3 3c 64 3c 07 3d 3c a6 30 bb ef 46 db bc
       0.02778953 0.033016577 -0.0026954552 -0.026767222
0000a0 d5 b5 c6 bc 49 87 ac 3b a6 b4 91 3b 82 65 d1 bc
       -0.024256626 0.0052651507 0.004446584 -0.025561098
0000b0 50 80 8d bb 16 68 8f 3b 3b 90 8c bc e0 26 6a 3c
       -0.0043182746 0.0043764217 -0.017158618 0.014291495
0000c0 fa ae 59 bc 53 16 c9 3b 9e 3e 20 3c 70 3b 5f b7
       -0.013286347 0.0061366945 0.009780554 -1.3305675e-05
0000d0 6b 2d 6c 3b 73 be 48 ba 7d 62 e1 bb fa de bf 3c
       0.0036037813 -0.00076577737 -0.006878196 0.023421753
0000e0 78 15 13 bd 1e 4a bb 3b 20 97 22 3a ea 25 ba 3a
       -0.035909146 0.0057156226 0.0006202329 0.0014201973
0000f0 72 7a bb bb f8 46 ea 3b 9c 3a 4a 3b ca 55 8d 3c
       -0.0057213837 0.0071495734 0.0030857688 0.017252821
000100 b2 ae 9a 3c 87 6d b8 3b c6 27 71 3c 04 2a b9 bc
       0.01888213 0.005628291 0.014718955 -0.022603042
000110 b1 8b 31 bc 54 71 6c bc 70 be fe bc 44 f4 14 3c
       -0.010836528 -0.014431316 -0.031096667 0.009091441
000120 5d 48 6f bb 26 79 96 bc 0a ba 9f 3c 57 ef 11 bc
       -0.0036511638 -0.018368315 0.01949789 -0.008907161
000130 02 83 15 3c b9 39 32 bc 43 1c cd bc 94 d1 bb ba
       0.009125473 -0.01087802 -0.02503789 -0.0014329427
000140 99 2a e3 ba 8c 54 e0 3c d4 7a 71 3c 09 e0 76 bb
       -0.0017331421 0.027384065 0.014738757 -0.0037670156
000150 03 14 d8 3b 89 d6 ca 3b 2f 76 1f bc 7c 81 9f 3b
       0.0065941825 0.0061901254 -0.009732767 0.0048677307
000160 29 5c 99 bb c7 f7 17 3d 2a 88 71 3c 2d 49 de bc
       -0.004680176 0.037101533 0.014741937 -0.027134502
000170 a9 70 5c bc 0b a1 b1 3b c3 bf d1 3b 38 49 84 3c
       -0.013454595 0.005420809 0.0064010336 0.016148195
000180 d8 7f b3 bc a1 42 0e bc 85 1e 4d 3c 8c 9c 82 bb
       -0.021911547 -0.008682878 0.012519483 -0.003985947
000190 c1 c8 f2 3c 11 1c 99 bc 17 95 75 bc e3 e4 a8 3a
       0.029636743 -0.01869014 -0.014989159 0.0012885596
0001a0 91 7d da 3c 97 e4 13 3c 1d 78 54 3c b1 7f 9b 3c
       0.026671203 0.009026668 0.01296809 0.018981786
0001b0 5a 4e 6f ba 3e 99 55 3c 5c e0 6f 3a cf a5 68 bc
       -0.0009128802 0.013037024 0.00091505586 -0.014199688
0001c0 e6 e1 86 3b 92 9b 66 39 9d 41 2c bb d7 96 81 bb
       0.0041162847 0.00021992464 -0.0026284226 -0.003954749
0001d0 84 2f c4 3a 87 a6 55 bc 07 ef 60 3b 90 fa 1e 3c
       0.0014967774 -0.0130401915 0.003432216 0.009703293
0001e0 9c 54 d4 3b e0 52 f1 3b c2 b9 2b 3c 12 ce bd 3b
       0.006479813 0.007364616 0.0104813 0.0057923878
0001f0 33 98 5c bc 83 b4 5d 3b 62 51 80 3c 78 69 1e bb
       -0.0134640215 0.0033829517 0.015663806 -0.002417175
000200 df 77 2b 3b 7e 5f be ba fd b5 1b bd 59 0d 0f 3c
       0.0026163978 -0.0014524308 -0.038015354 0.00873121
000210 33 0b fa 3b b4 fb 18 bc fe 4c 4b b8 e1 c0 56 bc
       0.0076307296 -0.009337354 -4.8470676e-05 -0.013107509
000220 83 7b 87 bb e1 45 39 3d 79 98 87 bc e7 b5 08 bc
       -0.004134597 0.045232657 -0.016552197 -0.00834415
000230 90 a0 90 3c b9 c4 c8 3b a9 62 30 bc 80 0f 06 3b
       0.017654687 0.006126967 -0.01076571 0.0020456016
000240 f7 bf 7d 3c 1b 44 2f bd 4c 49 93 3c 83 6d 4e 3c
       0.0154876625 -0.04278956 0.017979287 0.012599352
000250 09 81 ea bb 51 79 27 3c 9d d1 da 3b b7 6b a4 3c
       -0.0071564955 0.010221795 0.00667782 0.020070894
000260 87 b7 86 bc 22 13 74 3b a3 6d 74 3c 7c 62 14 3c
       -0.016444935 0.003724285 0.014918718 0.009056684
000270 12 e3 9b bb 7c 73 3c bc f7 16 92 3c 09 c1 04 3d
       -0.0047572935 -0.011502143 0.017833216 0.032410655
000280 c5 b2 98 bc cb 82 e0 bc ed 37 e5 3b f8 7e a7 bc
       -0.018639931 -0.027406117 0.0069951923 -0.020446286
000290 1e f5 79 3a 66 b0 f1 ba f8 24 f2 3b 8a cf 54 bc
       0.00095351215 -0.0018439412 0.007389661 -0.012988934
0002a0 5c 8b 84 3c c8 3f 6d bc f3 1f d0 3b 3f 2e 81 3c
       0.016179733 -0.014480539 0.006351465 0.015769122
0002b0 f5 c9 83 bc 33 8a 44 3c a4 d5 f9 3b 6f ce 0f 3b
       -0.016087512 0.01199584 0.007624345 0.0021943112
0002c0 cb bd 14 bc 3b 01 33 3c 73 63 84 3c b5 63 d3 bb
       -0.009078453 0.010925586 0.016160702 -0.006451095
0002d0 60 75 ba 3c 0c 57 49 ba ac 15 c7 ba 7d c5 ea bb
       0.022761047 -0.00076805125 -0.0015188954 -0.0071646557
0002e0 5e 59 c0 3a bc 64 8e 3a 1a 4b 6f bb c3 18 47 bc
       0.0014675071 0.0010863761 -0.003651327 -0.0121519
0002f0 1b da a4 bc 37 39 bb 3c c7 d6 82 3c e0 78 92 bb
       -0.020123532 0.02285443 0.015971554 -0.004469976
000300 d1 97 e2 bc d2 ad ce bb 01 4d a9 3c c2 c8 36 3d
       -0.027660282 -0.006307342 0.020666601 0.04462505
000310 c0 21 22 bc 35 3d 18 3d bb f9 aa 3b 8a 9f 07 3d
       -0.009895742 0.037167747 0.0052177585 0.033111133
000320 af 24 ee 3c c9 7b b3 bb bf 68 85 bc 37 fa 32 3c
       0.029070226 -0.005477403 -0.016285298 0.010923914
000330 bb 35 d7 bb 9e 97 9a 3a b0 3e 6c 3c 0b fd d1 bc
       -0.0065676845 0.0011794453 0.014419243 -0.025633356
000340 5b fe de bc 61 44 6b bc 3c 37 f0 b9 2f a0 1d bc
       -0.027220896 -0.0143595645 -0.0004581752 -0.00962071
000350 0e 3e c8 3c 7f 20 27 bc a2 dd ca bc 44 d1 a4 bb
       0.024443652 -0.010200619 -0.024763886 -0.005029829
000360 8c a1 65 bc 27 63 76 3c 13 9a 11 bd e0 5a 57 3b
       -0.014015567 0.015038288 -0.035547327 0.0032860562
000370 45 fd 48 bc bc 04 5f 3b d5 da 65 bb 03 c9 cb bc
       -0.012267415 0.0034029922 -0.003507306 -0.024876123
000380 a7 2c 2b bc cd f3 67 3c 7b b7 8f 3c a8 86 bc 3c
       -0.010447658 0.014157248 0.017543545 0.023013428
000390 a1 9c db 3b c4 dc 1e 3b b2 c5 0f 3b 37 2b 0f 3b
       0.006702021 0.0024240473 0.0021937904 0.0021845826
0003a0 b9 df 7e bc 54 06 41 bc 1c 4e 4a b9 4b 4e 5e bb
       -0.015556269 -0.011781294 -0.00019293319 -0.0033921178
0003b0 64 8f 97 3c 9b 7c 95 ba 79 ea 15 3d b1 e6 83 bc
       0.018500991 -0.0011404933 0.036600564 -0.016101213
0003c0 c5 0d a4 3c 1c 35 63 bc 00 20 1c 3b cd 8f 9f 3b
       0.020026097 -0.013867643 0.0023822784 0.0048694373
0003d0 c6 89 19 ba 21 48 4f 3b c2 ac 38 bd 58 5a 0a bc
       -0.00058570167 0.0031628686 -0.04508663 -0.008444391
0003e0 cb c4 ca bb 04 d7 14 3c 3c 1c 63 bc 18 62 ba 3b
       -0.0061880103 0.009084467 -0.013861712 0.005687963
0003f0 55 73 a8 3c b3 ba 6a 3c 51 07 d7 3c 12 38 4a bc
       0.020562807 0.014326739 0.026248606 -0.01234247

action_model._continuous_distribution.mu.bias f4 [2]
000000 88 0f 2b ba a0 20 02 bb
       -0.00065254467 -0.0019855872

action_model._discrete_distribution.branches.0.weight f4 [1, 128]
000000 9a f5 89 bc 7b 85 9c 3b d6 33 b1 3b 3b d3 a7 3b
       -0.016840745 0.0047766543 0.0054077907 0.005121616
000010 33 f5 4d bc 0b c5 f8 bb 0f 11 8c 3b 02 ed 56 3b
       -0.012570667 -0.0075918487 0.0042744945 0.0032795076
000020 52 b6 4d 3b ca 55 d2 ba af dd a6 bb 4b e8 1a bc
       0.003138919 -0.0016047296 -0.0050923447 -0.009454797
000030 46 a8 16 bc 30 7e 3e bc a0 78 f5 bb 5f bd 85 bc
       -0.009195393 -0.011626765 -0.0074911863 -0.01632565
000040 2c 38 12 3c 32 6b e9 bb 4a f8 6c 3c 61 f3 86 bb
       0.008924525 -0.0071233744 0.014463494 -0.0041183685
000050 1f 2f 5d bb 19 61 1e 3c 23 41 95 ba 49 4f 10 3c
       -0.003375001 0.009666705 -0.001138721 0.008807966
000060 1a ed c8 bb 4b 21 fe 3c 7e 36 11 3c 02 6b 66 3b
       -0.0061317803 0.031021735 0.00886309 0.0035158996
000070 30 ab d5 ba 88 0f 58 bb bf c6 2d bb b1 85 9b bb
       -0.0016301628 -0.0032968242 -0.0026516167 -0.004746162
000080 a7 11 27 3c 9b e5 98 bb 57 f0 14 bb 82 9e 62 3b
       0.01019708 -0.004666043 -0.0022726262 0.0034579341
000090 33 4a 25 3c 1d d7 55 3c 39 98 1f bb 95 0b 06 3c
       0.010088491 0.013051775 -0.0024352206 0.008181472
0000a0 b0 98 d3 3b 47 a1 3e b9 25 b1 1f bc cd 95 1e 3c
       0.0064574108 -0.00018179893 -0.009746824 0.00967927
0000b0 da 62 61 3b 06 87 91 3b eb 55 19 ba e1 64 84 39
       0.0034391196 0.004441145 -0.00058492896 0.00025252163
0000c0 07 ee 30 3b 75 36 7e 3c bf e0 9d bc 3d 2a fc bb
       0.0026997344 0.015515913 -0.019272206 -0.007695465
0000d0 a3 9b 16 bc fe 0f 8f 3b 4b 84 13 bc 0d 4c 85 bc
       -0.00919238 0.00436592 -0.009003709 -0.016271615
0000e0 ae 0e 24 3c 53 f4 53 3b 3e 75 40 3c 80 d4 12 bc
       0.010013266 0.0032341674 0.011746703 -0.008961797
0000f0 05 27 49 bc ed d5 7c 39 f1 5f 94 bc 6f c2 f8 3a
       -0.012277369 0.00024112286 -0.018112155 0.0018978844
000100 88 7a d3 3b 67 b1 2b 3a 0f 47 24 3b 6f 8c 0f 3b
       0.006453816 0.00065495673 0.0025066768 0.0021903773
000110 fa e8 6c bc 45 89 fa bb aa 9d db 3b 29 77 8f bb
       -0.014459843 -0.0076457583 0.0067021446 -0.0043782187
000120 fb 2c 80 3b cd ad 81 3b 4b 88 00 3a 2f 05 58 bb
       0.003911612 0.0039574862 0.0004903122 -0.0032962074
000130 26 31 1d bc 65 9f 72 3b 33 ad 4b ba a4 7c be bb
       -0.009594237 0.0037021276 -0.0007769644 -0.005813198
000140 d0 53 a7 ba 6f 13 4c bc 37 08 2e 3c 05 9d fb 3b
       -0.0012766067 -0.012455805 0.010622076 0.0076786303
000150 f0 6a c3 bb f4 c0 0a bc 53 b4 dc bb ba 6f 42 bc
       -0.0059636757 -0.008468855 -0.0067353635 -0.011867458
000160 98 00 55 3c 0a 82 18 3c cb 0a 7e bc 95 62 2c 3a
       0.01300063 0.0093083475 -0.015505503 0.0006575969
000170 ea 78 5b 3c 4d ee 50 bc dc 1b af 3b 33 e0 a4 ba
       0.013395527 -0.012752128 0.0053438973 -0.0012579024
000180 03 a1 26 bb fd 79 ee bb d2 5e f5 bb f1 d2 b3 3c
       -0.002542556 -0.0072777257 -0.00748811 0.02195117
000190 1b db 71 bc 83 2a 85 bb 3d ff db ba 8e f8 14 3c
       -0.0147617115 -0.0040639057 -0.0016784441 0.009092463
0001a0 0a b9 51 bb 54 1a 8a bc 87 fe 7f 39 d7 dd 55 3a
       -0.003200116 -0.016858257 0.00024413514 0.0008158362
0001b0 cb 83 06 bc 8d 26 8c bc 1d 25 4a 3c 73 ff 93 3a
       -0.008210133 -0.017108226 0.01233795 0.001129134
0001c0 2f e5 ee bb df 96 0d 3c 60 8d f9 bb c5 35 ce 3b
       -0.0072905044 0.0086419275 -0.00761573 0.006293031
0001d0 17 9a 5a ba 5c 74 ae bb 3e 51 3c bc fe 16 8e 3c
       -0.0008339001 -0.0053239297 -0.011493979 0.017344948
0001e0 f3 c5 4d bc fb 0a 9f 3b 46 d0 18 3c bf 59 9b b9
       -0.012559402 0.004853604 0.009327 -0.0002963077
0001f0 e8 ff cc 3b 63 92 c0 bb 0d ca ce 3b 8a 7e fa 37
       0.0062560923 -0.0058768257 0.0063107074 2.9861247e-05
