Project specific/results/ppo/JumperAgent/JumperAgent-19550.pt (torch, 754185 bytes, 39 tensors)

network_body._body_endoder.seq_layers.0.weight f4 [128, 108]
0.0064942287 -0.031666346 0.0653502 0.0029024968 -0.0494158 0.02289906 0.13728651 -0.044089504
-0.124178745 0.13219939 -0.04236093 -0.03717949 0.13429058 0.11767043 -0.02884074 0.0045289216
-0.110709235 0.07470678 -0.017804109 -0.100761324 -0.016301522 0.038165383 0.006827461 -0.06762394
0.2000371 -0.14525618 0.016903862 0.050930556 -0.016864894 0.033439964 -0.02733596 -0.19422606
-0.009781588 -0.020408057 -0.034797724 0.0009074218 0.03362149 0.093016624 0.055537067 0.12659912
0.102485344 -0.06889179 0.08264333 -0.0357827 0.067729905 -0.10162337 -0.0055003 -0.16242835
0.07295579 0.11168493 -0.017096978 0.07352346 -0.26485923 0.08598886 0.02894564 -0.15854107
0.06565309 0.108449526 0.08087487 0.06616077 0.013760909 -0.06235854 0.12393335 -0.10891973
0.14763951 -0.013573481 0.03112206 0.03291015 -0.06779613 0.04048073 -0.00031258678 -0.11315523
-0.22997177 0.03400656 0.0120157935 -0.030553428 -0.13881773 0.047431573 0.04928856 0.22886702
-0.04640937 0.13044433 -0.09783563 0.008613032 -0.023582594 0.005081305 0.06341974 -0.029265681
-0.0064136437 0.030132322 0.046353664 0.006486608 0.07571854 -0.16243541 0.05970276 0.061085638
-0.06175857 0.07188903 0.04061263 0.0011406689 -0.08696191 -0.03795769 0.003517858 -0.015989196
-0.1485683 -0.15593968 -0.060102373 -0.034867812 -0.09527577 0.06310728 -0.1161604 0.18960269
0.13155113 0.05439835 0.004635465 0.28989545 -0.032241117 0.019048082 -0.015248811 -0.066507205
0.075205676 -0.0103633 -0.0206372 -0.1046647 0.035776637 0.056120347 -0.060491636 -0.063703984
0.06408157 0.085036695 -0.0029543845 -0.14448082 -0.1383719 0.07616395 0.022576135 0.17130971
-0.1342472 -0.040420357 -0.0074356063 0.08347861 0.058885712 -0.08689082 -0.10300235 0.18016982
0.09819944 0.10952591 -0.107898615 0.034203205 -0.093740895 -0.057161067 -0.045183897 0.10260081
-0.01703276 -0.12246251 -0.014483265 0.08416091 -0.030330565 0.0076943086 -0.10683969 -0.104857415
0.06489296 0.108503744 -0.019114152 0.08772141 -0.045966376 0.05236532 0.047898144 -0.034843322
0.038466066 -0.12795652 -0.03504965 -0.04274111 0.07661605 -0.051408254 -0.021902472 -0.04445695
-0.032265246 0.03645236 0.057562318 -0.0664946 -0.15719762 -0.007458526 0.01629071 -0.024124049
-0.12433361 0.06223585 0.15225296 -0.02963851 0.073138006 0.023489604 -0.048066072 -0.019948106
-0.0024634714 -0.09158917 -0.029231109 -0.08650648 -0.047025114 0.090408005 -0.10127839 0.20384805
0.035577975 -0.17778958 0.07419126 0.025303593 0.113403186 -0.034851342 0.16650546 0.09557834
-0.18234657 0.06921335 -0.089116216 0.046955314 0.028691739 -0.024349174 -0.10206367 0.16850074
-0.0068534603 0.009028034 -0.089676216 0.032984864 -0.12399251 0.055682126 -0.0740173 -0.09017813
-0.06253139 -0.031107968 -0.019937951 0.00449517 -0.12543625 -0.044335727 0.0534815 0.030400025
0.042730905 0.009300831 0.10798049 -0.13411827 0.095786184 0.022674458 0.028990436 -0.1582568
0.0150794005 -0.029703146 -0.11122232 -0.09316285 0.029547628 0.06641766 -0.0013605034 -0.11741598
-0.005535223 0.007037984 -0.18754438 -0.091356054 0.19130804 -0.052890047 -0.0025572903 -0.000766617
00000000: 8acd d43b 92b4 01bd 53d6 853d d137 3e3b
00000010: 3968 4abd cf96 bb3c d694 0c3e 3297 34bd
00000020: 6d51 febd 475f 073e a882 2dbd 8549 18bd
00000030: 7883 093e 32fd f03d 6a43 ecbc 5967 943b
00000040: 86bb e2bd deff 983d ecd9 91bc f45b cebd
00000050: c58a 85bc 4e53 1c3d e5b8 df3b 6c7e 8abd
00000060: 87d6 4c3e 09be 14be f879 8a3c 8f9c 503d
00000070: 3f28 8abc 58f8 083d aaef dfbc 32e3 46be
00000080: f442 20bc cc2e a7bc 0f88 0ebd 0ce0 6d3a
00000090: b0b6 093d 807f be3d d67a 633d 33a3 013e
000000a0: d6e3 d13d 2417 8dbd e840 a93d e190 12bd
000000b0: fab5 8a3d ea1f d0bd dc3b b4bb 9e53 26be
000000c0: d869 953d 12bb e43d f60e 8cbc 7893 963d
000000d0: a19b 87be ed1a b03d 681f ed3c 9758 22be
000000e0: 2175 863d c91a de3d b9a1 a53d 4c7f 873d
000000f0: 7075 613c ab6b 7fbd c5d0 fd3d 4f11 dfbd
00000100: d02e 173e 4e63 5ebc b1f3 fe3c cbcc 063d
00000110: b3d8 8abd 1fcf 253d b0e2 a3b9 eebd e7bd
00000120: b87d 6bbe 764a 0b3d e4dd 443c 2f4b fabc
00000130: 3c26 0ebe 9c47 423d cde2 493d 1e5c 6a3e
00000140: c017 3ebd 3393 053e 0c5e c8bd ad1d 0d3c
00000150: 4930 c1bc 1381 a63b 35e2 813d 95be efbc
00000160: 8b29 d2bb 0fd8 f63c 57dd 3d3d 9d8d d43b
00000170: 5212 9b3d 7855 26be e28a 743d ef34 7a3d
00000180: 8ef6 7cbd 8e3a 933d 6e59 263d 7f82 953a
00000190: 1619 b2bd 8679 1bbd dd8b 663b c6fb 82bc
000001a0: 4a22 18be a7ae 1fbe e82d 76bd 8dd1 0ebd
000001b0: f11f c3bd 643e 813d 81e5 edbd 3527 423e
000001c0: 57b5 063e ced0 5e3d 19e5 973b 2d6d 943e
000001d0: 430f 04bd b90a 9c3c 26d6 79bc ee34 88bd
000001e0: 6f05 9a3d d5ca 29bc 580f a9bc 725a d6bd
000001f0: 868a 123d 73de 653d 14c6 77bd 3c77 82bd
00000200: 333d 833d b827 ae3d 599e 41bb c8f2 13be
00000210: 5db1 0dbe d8fb 9b3d 96f1 b83c d06b 2f3e
00000220: 1978 09be d18f 25bd 63a6 f3bb d5f6 aa3d
00000230: 2532 713d d0f3 b1bd e5f2 d2bd 707e 383e
00000240: ca1c c93d 1f4f e03d f3f9 dcbd a918 0c3d
00000250: 3afb bfbd b921 6abd c012 39bd 6020 d23d
00000260: 4988 8bbc a0cd fabd 374b 6dbc 8e5c ac3d
00000270: ce77 f8bc 8a20 fc3b c4ce dabd 7cbf d6bd
00000280: 9ae6 843d 3637 de3d 4895 9cbc 48a7 b33d
00000290: 3d47 3cbd 057d 563d d830 443d dfb7 0ebd
000002a0: 988e 1d3d 0907 03be 3990 0fbd 4d11 2fbd
000002b0: e0e8 9c3d 7691 52bd d06c b3bc 7e18 36bd
000002c0: 9028 04bd 124f 153d 77c6 6b3d 522e 88bd
000002d0: 6af8 20be a766 f4bb 1874 853c cc9f c5bc
000002e0: 9fa2 febd 05eb 7e3d 33e8 1b3e 76cc f2bc
000002f0: 61c9 953d 456d c03c eee0 44bd 366a a3bc
00000300: 3172 21bb 1a93 bbbd 1476 efbc 4f2a b1bd
00000310: 689d 40bd d527 b93d 0b6b cfbd 8bbd 503e
00000320: 36ba 113d 790e 36be 96f1 973d 7b49 cf3c
00000330: ee3f e83d 48c0 0ebd 6880 2a3e 94be c33d
00000340: 0fb9 3abe bbbf 8d3d 9082 b6bd 3754 403d
00000350: f00a eb3c eb77 c7bc c206 d1bd 758b 2c3e
00000360: fe92 e0bb 52ea 133c 2aa8 b7bd 231b 073d
00000370: c9ef fdbd f112 643d 6296 97bd 50af b8bd
00000380: 7510 80bd 23d6 febc ea54 a3bc 384c 933b
00000390: 5c72 00be 6199 35bd 6b0f 5b3d 7909 f93c
000003a0: 9a06 2f3d 8362 183c e024 dd3d 4d56 09be
000003b0: 8c2b c43d c9bf b93c 5a7d ed3c 120e 22be
000003c0: 970f 773c 0354 f3bc 87c8 e3bd 2acc bebd
000003d0: de0d f23c fb05 883d eb52 b2ba ca77 f0bd
000003e0: d160 b5bb e49e e63b a20b 40be e218 bbbd
000003f0: 41e6 433e 3ca3 58bd 3698 27bb ccf6 48ba

network_body._body_endoder.seq_layers.0.bias f4 [128]
7.829662e-05 0.0021518087 0.0015708507 0.0036273475 -0.0019251244 0.0035027498 0.0023765827 0.0032493933
-0.0021309587 0.0017776381 0.0021270544 0.0021256919 -0.001944491 0.0016968469 0.0028504475 0.0017819107
-0.0012147082 0.0020856168 0.0028485307 -0.002684979 -0.002402571 0.002253753 -0.0025580232 0.0024688113
0.0020817304 0.0023219036 -0.0016993971 0.0012243901 0.0021603035 0.001972683 0.0017736891 0.0024641051
-0.0005825178 0.0018426804 0.0018451997 0.002574828 -0.00375976 -0.00053287495 -0.0032025697 -0.0021823177
0.001781995 0.002334423 0.0023145368 0.0003058886 0.0026777426 -0.0016255723 0.0027050737 0.0022047572
-0.0020572576 0.0019931265 0.0014880224 -0.0019824035 -0.0011194086 -0.0014988822 0.0011614353 0.0024545197
0.0014834673 -0.00021682837 0.0016602131 0.002239676 0.0020066914 -0.0035616697 -0.0024189167 -0.0015484953
-0.0020475108 0.001069748 -0.00026450158 -0.0015500727 -0.0016509983 0.0018019216 -0.0019329101 0.0003221692
-0.001217885 0.00018214887 -0.0032861251 0.0028044507 -0.0012507518 -0.003251063 -0.0027309635 -0.0024248473
0.002663889 -0.0007297351 0.0029583802 0.0023592745 0.0010197898 0.0030618727 -0.0019636333 -0.0030187534
-0.0022446788 -0.0020901633 -0.002308926 0.0007723768 0.0028010462 0.00033153547 -0.002309452 0.0025452767
0.0037503196 0.0010633413 0.0004597903 -0.0024777944 -0.0015051363 -0.0019258927 -0.0019188911 0.0015021431
-0.0018797026 -0.00070004904 -0.00091549073 0.0012181344 0.001504132 -0.002760062 0.00227095 0.0027065384
0.0024163038 0.0019985826 -0.001494282 -0.001852776 -0.0029294635 -0.0021784625 0.0020818324 -0.00217851
0.0036941296 -0.0013717994 0.0026071805 -0.002381167 0.0020612315 -0.0032301373 -0.001463426 0.0018421665
00000000: 2e33 a438 5c05 0d3b 01e5 cd3a cbb8 6d3b
00000010: 7554 fcba 648e 653b 71c0 1b3b c6f3 543b
00000020: 8ea7 0bbb a3ff e83a 0d66 0b3b 314f 0b3b
00000030: 4bde feba bc68 de3a 93ce 3a3b 008f e93a
00000040: d836 9fba d8ae 083b 6aae 3a3b 79f6 2fbb
00000050: 7474 1dbb b3b3 133b 82a4 27bb c8cb 213b
00000060: a46d 083b 142b 183b 4ebe deba b77b a03a
00000070: e193 0d3b 2148 013b 217b e83a d37c 213b
00000080: 1cb4 18ba 1886 f13a a1da f13a 72be 283b
00000090: 4e66 76bb a2b0 0bba 34e2 51bb 3705 0fbb
000000a0: d491 e93a 1efd 183b 7caf 173b ac5f a039
000000b0: 117d 2f3b 2811 d5ba 9b47 313b b07d 103b
000000c0: 0ed3 06bb 1d9f 023b bf09 c33a 36eb 01bb
000000d0: 1fb9 92ba 2476 c4ba 4d3b 983a 02dc 203b
000000e0: e770 c23a 6c5c 63b9 829b d93a 87c7 123b
000000f0: b282 033b e76a 69bb b086 1ebb e1f6 caba
00000100: 882f 06bb c936 8c3a cdac 8ab9 cf2b cbba
00000110: 4f66 d8ba 752e ec3a b359 fdba d1e8 a839
00000120: 70a1 9fba 37ff 3e39 085c 57bb e0ca 373b
00000130: 44f0 a3ba c90f 55bb f7f9 32bb 30ea 1ebb
00000140: a494 2e3b b24b 3fba 62e1 413b 0f9e 1a3b
00000150: 78aa 853a b3a9 483b 4db0 00bb 47d6 45bb
00000160: 761b 13bb 1ffb 08bb 5a51 17bb 5479 4a3a
00000170: c291 373b f0d1 ad39 2d5a 17bb a8ce 263b
00000180: ecc7 753b d05f 8b3a 0210 f139 7e62 22bb
00000190: fe47 c5ba 3c6e fcba 4d83 fbba 8fe3 c43a
000001a0: 5a60 f6ba 7f83 37ba 8bfd 6fba cfa9 9f3a
000001b0: 4b26 c53a 28e2 34bb 38d4 143b 2e60 313b
000001c0: da5a 1e3b a7fa 023b c9db c3ba d9d8 f2ba
000001d0: 3efc 3fbb 89c4 0ebb 5a6f 083b 55c5 0ebb
000001e0: 3619 723b f3cd b3ba 3bdd 2a3b 5a0d 1cbb
000001f0: ba15 073b b6b0 53bb 6ed0 bfba da74 f13a

network_body._body_endoder.seq_layers.2.weight f4 [128, 128]
0.0616157 -0.069206975 0.056287456 0.02475548 -0.020472594 0.031864505 0.006081929 0.031827163
0.07717869 0.0038855255 -0.05649682 -0.031467695 0.093744695 -0.098660015 -0.114507385 -0.063671075
0.030255776 -0.0018173947 -0.07237693 0.14768015 -0.102353886 0.01528641 -0.08588332 -0.019286366
0.022767724 0.056311764 -0.09997364 -0.12569208 0.20781921 0.20974784 -0.09769599 -0.064354524
0.010721558 0.0067487974 0.049831364 -0.06966958 -0.13101791 0.078185014 0.045407254 -0.18156582
-0.15271495 0.05606672 -0.14244822 0.080102004 -0.062402464 0.052649163 0.07496524 0.047970075
-0.075907566 -0.121421866 -0.0603679 0.037070446 -0.018592702 -0.073949784 -0.12995693 0.091902256
-0.0017327607 -0.060921624 -0.115743615 0.033085752 0.12185186 -0.082454205 -0.043562494 0.014806198
0.03297002 -0.10762898 0.019430239 0.0011650918 0.11004742 -0.03491931 0.24318011 0.12954824
0.03532438 0.032543357 -0.029952625 -0.0030855301 -0.018902062 0.037073653 -0.060839154 0.05131622
0.07694856 -0.06587695 -0.012161952 -0.04267014 -0.13405547 0.04888466 -0.10210617 0.028419692
0.065120086 -0.076459244 0.07301861 -0.07948985 -0.08052691 -0.040054712 -0.058973968 -0.12326343
-0.008921088 0.0026819988 0.11331375 0.10775884 0.13843909 -0.0776567 0.13832931 0.1298411
0.08411812 -0.11225036 0.06710489 0.1409856 0.0316711 -0.008047858 0.050091263 0.07397334
-0.010081299 0.0048780004 -0.02150827 -0.2041034 -0.0076069506 0.04278453 -0.06588155 -0.025949072
0.108402625 0.19006194 0.06563267 0.054910906 0.10537888 -0.014456918 0.10894912 0.11743658
0.08684107 0.0334165 0.038805176 -0.086986594 -0.1327823 -0.0644856 -0.061728913 -0.098083265
-0.005096664 -0.07211604 0.030939246 0.0148366755 -0.080986895 0.039390698 0.099359974 0.028688632
-0.014779014 -0.09778971 -0.028753411 -0.0009397915 0.13678992 -0.05237857 0.004973091 -0.029164504
0.028311756 0.009606926 -0.018662242 -0.07327458 -0.074167006 0.21287104 0.02844683 -0.044896726
-0.044647224 0.06825996 -0.013451587 -0.000115898765 -0.08740874 -0.0012782388 -0.16465473 -0.17480808
-0.02878219 -0.04286429 -0.096349135 0.11642449 -0.05519984 -0.049902946 0.08200305 0.0467337
0.065651454 -0.21253498 0.018491918 -0.09459373 -0.113745615 -0.020181172 0.057375867 0.12724395
0.01646548 0.029942954 -0.084014416 -0.20825687 0.13259155 -0.007083977 0.011654868 0.018581321
0.008431514 0.15484665 -0.13918342 0.06719686 0.23076858 -0.079211876 -0.03387718 -0.016904388
0.16742362 -0.058760315 -0.010920422 0.014998724 -0.093398236 -0.21762386 -0.073304065 -0.099021606
-0.106692396 0.047297917 0.23566346 0.08101353 -0.09075648 0.07241943 -0.087519705 -0.04003579
0.014915126 -0.059642345 -0.016369147 0.058244072 0.11017846 -0.04370617 0.13986592 -0.14449091
0.036930714 -0.09319029 0.14951503 -0.035564538 -0.06450743 0.03060253 -0.020162795 -0.029848509
0.035549145 0.19102392 -0.02501717 0.17867984 0.06467187 0.15548444 -0.12479975 -0.02683587
0.06646411 0.044479467 0.019920869 0.1911944 0.09431444 -0.070834145 0.24156488 0.06927241
-0.007065619 -0.1198366 0.14263132 -0.058867928 -0.14886186 0.024101794 -0.06789214 0.024896154
00000000: bf60 7c3d 63bc 8dbd ad8d 663d 01cc ca3c
00000010: 24b6 a7bc 5b84 023d eb4a c73b 335d 023d
00000020: dc0f 9e3d 4da4 7e3b 3669 67bd 45e4 00bd
00000030: 38fd bf3d 430e cabd d982 eabd fb65 82bd
00000040: f6da f73c a635 eeba 5b3a 94bd 7739 173e
00000050: ea9e d1bd da73 7a3c 98e3 afbd 71fe 9dbc
00000060: 6183 ba3c 2aa7 663d fbbe ccbd 6db5 00be
00000070: 8fce 543e 23c8 563e d614 c8bd 4ecc 83bd
00000080: 79a9 2f3c 0425 dd3b f91b 4c3d edae 8ebd
00000090: 8f29 06be 771f a03d f5fc 393d 64ec 39be
000000a0: 4f61 1cbe 38a6 653d f2dd 11be 850c a43d
000000b0: ba99 7fbd a6a6 573d 6087 993d 457c 443d
000000c0: 6d75 9bbd 07ac f8bd 5544 77bd 2ed7 173d
000000d0: b94f 98bc fc72 97bd 6e13 05be 4037 bc3d
000000e0: cd1d e3ba f488 79bd fd0a edbd ed84 073d
000000f0: 788d f93d c0dd a8bd 966e 32bd b295 723c
00000100: 920b 073d 956c dcbd 2a2c 9f3c feb5 983a
00000110: 8b60 e13d 8d07 0fbd 3504 793e 4ba8 043e
00000120: 4cb0 103d 2f4c 053d 355f f5bc 9b36 4abb
00000130: 7fd8 9abc 8bda 173d 7a32 79bd f530 523d
00000140: 3597 9d3d 7fea 86bd ed42 47bc e2c6 2ebd
00000150: d645 09be 483b 483d 0a1d d1bd 6ad0 e83c
00000160: ae5d 853d aa96 9cbd c88a 953d 93cb a2bd
00000170: 4beb a4bd 6910 24bd b08e 71bd 8a71 fcbd
00000180: c129 12bc 79c4 2f3b 0a11 e83d abb0 dc3d
00000190: fac2 0d3e 7a0a 9fbd 33a6 0d3e 11f5 043e
000001a0: 1f46 ac3d 84e3 e5bd 4a6e 893d 875e 103e
000001b0: 8eb9 013d 2adb 03bc 7f2c 4d3d 567f 973d
000001c0: 082c 25bc a2d7 9f3b 1d32 b0bc 7b00 51be
000001d0: ba43 f9bb d53e 2f3d e8ec 86bd 2693 d4bc
000001e0: 3202 de3d 999f 423e 6c6a 863d 42ea 603d
000001f0: e2d0 d73d b6dc 6cbc b720 df3d 9782 f03d
00000200: bbd9 b13d bddf 083d 2df2 1e3d 0726 b2bd
00000210: 15f8 07be 0711 84bd 75d7 7cbd e1df c8bd
00000220: eb01 a7bb 93b1 93bd 4d74 fd3c 8715 733c
00000230: 75dc a5bd 2458 213d 3e7d cb3d 6c04 eb3c
00000240: ad23 72bc f945 c8bd 468c ebbc 575c 76ba
00000250: a812 0c3e e98a 56bd 50f5 a23b 66ea eebc
00000260: 0eee e73c 5e66 1d3c 8fe1 98bc fc10 96bd
00000270: dfe4 97bd defa 593e 5409 e93c a1e5 37bd
00000280: 02e0 36bd e1cb 8b3d 0c64 5cbc ad0e f3b8
00000290: 5a03 b3bd 948a a7ba 409b 28be e400 33be
000002a0: a1c8 ebbc 7792 2fbd b252 c5bd f76f ee3d
000002b0: 3a19 62bd 0867 4cbd 37f1 a73d d66b 3f3d
000002c0: 4574 863d c5a2 59be 5d7c 973c 5cba c1bd
000002d0: 76f3 e8bd fc52 a5bc f502 6b3d 3d4c 023e
000002e0: 9de2 863c ed4a f53c c00f acbd 4a41 55be
000002f0: 14c6 073e b520 e8bb 0ff4 3e3c db37 983c
00000300: 5524 0a3c 1f90 1e3e 1986 0ebe 829e 893d
00000310: 994e 6c3e d639 a2bd ccc2 0abd 127b 8abc
00000320: 1971 2b3e a8ae 70bd 92eb 32bc 35bd 753c
00000330: 9347 bfbd cad8 5ebe 7120 96bd d7cb cabd
00000340: 8b81 dabd 76bb 413d c351 713e 6cea a53d
00000350: 89de b9bd a350 943d 883d b3bd 92fc 23bd
00000360: 935e 743c 884b 74bd 9718 86bc 5691 6e3d
00000370: 3fa5 e13d 3e05 33bd 0339 0f3e 6df5 13be
00000380: a944 173d 8dda bebd 781a 193e 1fac 11bd
00000390: 791c 84bd 28b2 fa3c 722c a5bc dc84 f4bc
000003a0: fb9b 113d c69b 433e cff0 ccbc d9f7 363e
000003b0: af72 843d 5037 1f3e 0397 ffbd e6d6 dbbc
000003c0: 561e 883d 1a30 363d 1731 a33c 77c8 433e
000003d0: ee27 c13d 7e11 91bd c95c 773e b1de 8d3d
000003e0: b586 e7bb e46c f5bd f20d 123e 7f1f 71bd
000003f0: 3e6f 18be 2071 c53c 090b 8bbd 05f3 cb3c

network_body._body_endoder.seq_layers.2.bias f4 [128]
0.0025948996 0.0005963228 0.0030332461 0.002028554 0.0022886184 -0.0025292498 -0.00077621033 0.0018959136
0.001718987 -0.0019951968 0.0019347713 -0.0023791164 -0.0015067152 0.0019118013 -0.002608397 -0.0012014118
-0.0018396537 -0.002651312 -0.0019339218 -0.0010354852 -0.0005248626 -0.0025323972 -0.0021918542 0.0022357851
0.0023885584 0.0028157795 -7.948742e-05 0.002232565 -0.0010035071 -0.0007012808 0.002275536 0.0019670937
-0.0021885964 -0.0025464937 0.0026379353 0.002326616 -0.00053701125 -0.0022198176 0.0024176328 -0.0022136762
0.0028262276 -0.0026757973 0.002339252 -0.0024380295 -0.0023227134 0.0026066152 -0.0012637253 -0.00075968157
0.002604894 -0.00019647763 0.0018920193 -0.0015845901 -0.0019784626 0.0015999917 -0.0023442088 -0.0026423985
-0.0021180413 0.002756668 0.0018209411 0.0022225776 0.0021642647 -0.0022184101 -0.0020007282 0.0024397483
0.001185706 0.0025308952 0.0017920961 0.0026258726 -0.00078372675 0.0013697207 -0.0014891383 0.002200986
-0.0025021324 -0.0015606448 0.0022172134 0.0020341058 0.0020889675 -0.0020064057 0.0024510766 -0.0018504912
0.0025144587 -0.002314149 0.0016888465 0.0013185918 -0.0023937267 -0.001968207 -0.000612708 -0.00034361912
0.0021775851 -0.0026296924 -0.0021635077 0.0019092821 0.0020037005 9.8158904e-05 0.0009286518 1.5041824e-05
0.0016318643 0.0007594909 0.0011686092 -0.0024739066 0.002240587 0.0021895494 0.00064397004 -0.0021015045
-0.0025716003 0.0010555101 -0.0020424193 -6.9564645e-05 0.0019537488 -0.00257642 0.0016734854 -0.002099242
-0.002116455 0.001571973 -0.0017134224 -0.0025419253 0.0025888358 -0.0010363257 -0.0021927669 0.0015735747
0.002465697 0.0022050312 -0.0016942781 -0.002631783 0.0015075061 -0.00039913238 -0.0011039986 -0.0027657181
00000000: 310f 2a3b 8c52 1c3a 6dc9 463b 7df1 043b
00000010: a5fc 153b c5c1 25bb 987a 4bba 4e80 f83a
00000020: a24f e13a d9c1 02bb 2798 fd3a f3ea 1bbb
00000030: f97c c5ba 6895 fa3a a4f1 2abb b178 9dba
00000040: 8920 f1ba a2c1 2dbb a67b fdba 1eb9 87ba
00000050: ef96 09ba 93f6 25bb 36a5 0fbb 4086 123b
00000060: 5c89 1c3b f188 383b 7cb2 a6b8 3a50 123b
00000070: 1c88 83ba 28d6 37ba 2921 153b 5bea 003b
00000080: 8e6e 0fbb 13e3 26bb 36e1 2c3b 247a 183b
00000090: 37c6 0cba 5c7a 11bb 2671 1e3b 5313 11bb
000000a0: 3b38 393b 6e5c 2fbb 234e 193b 59c7 1fbb
000000b0: aa38 18bb bfd3 2a3b 96a3 a5ba 5e25 47ba
000000c0: dfb6 2a3b 9005 4eb9 a2fd f73a 05b2 cfba
000000d0: 18a9 01bb d0b6 d13a 4ca1 19bb 172c 2dbb
000000e0: d6ce 0abb 37a9 343b a5ac ee3a aaa8 113b
000000f0: 56d6 0d3b bf62 11bb a61e 03bb 2fe4 1f3b
00000100: b169 9b3a 60dd 253b c4e4 ea3a d516 2c3b
00000110: 0373 4dba 3388 b33a 312f c3ba 6b3e 103b
00000120: d1fa 23bb 8d8e ccba ab4e 113b a24e 053b
00000130: 0fe7 083b e77d 03bb 3ea2 203b 2e8c f2ba
00000140: 9ec9 243b faa8 17bb 495c dd3a 99d4 ac3a
00000150: 12e0 1cbb 09fd 00bb 239e 20ba c727 b4b9
00000160: d1b5 0e3b eb56 2cbb a3c9 0dbb e040 fa3a
00000170: 8450 033b a9da cd38 c470 733a 245c 7c37
00000180: 48e4 d53a 9218 473a 052c 993a 4421 22bb
00000190: d0d6 123b 8b7e 0f3b 19d0 283a 65b9 09bb
000001a0: 4b88 28bb 0b59 8a3a 1cda 05bb 3ce3 91b8
000001b0: 770a 003b 28d9 28bb da58 db3a 7093 09bb
000001c0: 39b4 0abb a90a ce3a ea94 e0ba 6e96 26bb
000001d0: 75a9 293b 52d5 87ba 86b4 0fbb 6840 ce3a
000001e0: 8897 213b 4982 103b 8a12 deba fe79 2cbb
000001f0: 8397 c53a a442 d1b9 0cb4 90ba 0d41 35bb

action_model._continuous_distribution.log_sigma f4 [1, 2]
-0.0074399225 -0.000581875
00000000: 98ca f3bb f888 18ba

action_model._continuous_distribution.mu.weight f4 [2, 128]
0.018258259 0.012731093 0.051112663 0.022545336 0.009983728 -0.017765902 0.012215626 0.008249433
0.023307038 -0.016385516 0.0078622345 -0.013824215 -0.021216238 -0.00796537 -0.018600907 0.013630246
-0.0041490146 -0.0022199964 -0.016371733 -0.025531048 -0.02075566 -0.023839869 -0.031766143 0.031393908
0.037869032 0.016024662 0.017115723 0.0023148104 -0.0377279 -0.01011592 0.005868409 0.020467978
-0.009612971 -0.011710825 0.030672641 0.022433706 -0.027439158 0.00742837 0.0050041587 -0.024788884
0.020936871 -0.014978333 0.028130459 -0.013638511 0.004217987 0.015139245 -0.029862398 0.009513997
0.0072411764 0.021552043 0.026570728 0.00035666718 -0.019581191 0.010386025 0.0017151809 -0.012579413
-0.0205203 0.033961732 0.03209598 0.0016786511 0.004214089 -0.02988381 -0.00589927 0.01548725
0.036184516 0.034835786 0.0065159868 0.010145974 0.018452264 -0.011418375 -0.044769496 0.012026532
-0.029053982 -0.0004011581 0.023708045 0.026118886 0.012161487 -0.012248695 -0.006108154 -0.010818782
0.010026032 -0.013763859 -0.0037988764 -0.009472413 -0.03427126 -0.013528409 -0.031078512 -0.027100407
-0.0035639394 -0.026531188 0.0003372208 0.009369474 -0.0030702439 0.025082769 -0.009018757 0.006774788
-0.005517658 -0.0044885986 0.016364045 -0.0120688025 0.0022912729 -0.0007789492 0.007614154 -0.023708928
-0.0255022 -0.005563249 -0.0027261751 -0.0006951826 0.018265853 -0.019873656 -0.0021282008 -0.0075374474
-0.020280499 0.017127447 0.008482547 -0.017661393 0.019873552 -0.004188838 -0.036347978 -0.0074398164
0.01628562 0.011797909 -0.00020448375 -0.009790574 0.022025844 0.020770816 -0.031983625 -0.015335177
-0.017951226 0.016143026 -0.028253447 0.008009805 -0.009038971 0.013727562 0.021152074 -0.00080899964
0.0034866212 -0.006490774 -0.033912636 -0.00016548579 -0.004413407 -0.017235052 0.010490667 0.024037914
0.012596422 0.018918913 -0.0068520703 -0.012520539 -0.016491225 0.023712495 0.022210142 -0.024750287
-0.012393705 -0.013313646 0.020946253 -0.016419308 -0.021418862 -0.01150891 -0.05883263 -0.0025606663
-0.0025636763 0.011204487 -0.019149026 0.005607591 -0.024206702 0.03942271 -0.009363018 0.0058498518
-0.0125239175 0.02260186 -0.01367431 0.00838873 0.04176245 -0.012177088 -0.014908497 0.01401245
-0.0154355 0.022505134 0.0037597306 0.010142938 -0.006063843 -0.033452634 0.016401917 0.0046102274
-0.0012998931 -0.0005232642 0.00519682 -0.01739291 -0.0034158775 -0.0043643103 0.011630387 -0.014288146
0.021912396 0.0046190955 0.0023673633 -0.0075604133 0.028724551 -0.021037953 -0.010151336 -0.0014416083
0.015375221 -0.0015779652 0.0003352369 -0.03394031 0.003224544 -0.004862225 -0.028400395 0.004496362
-0.00848248 0.016813003 -0.006007433 -0.0134123145 0.021639967 -0.0010343667 -0.026293155 -0.021295283
-0.028162537 0.011024635 0.019134574 -0.016702672 -0.0037110432 0.02451038 -0.011642756 0.009727139
-0.018818503 -0.013380152 0.0055458914 0.011664125 -0.012257414 -0.02971473 0.0041139335 0.04873958
0.016329946 -0.01604875 0.0124887 0.0024586453 0.0031350537 0.016857527 -0.005004322 0.015403552
0.0008488619 0.005955 0.015098809 0.0052996823 -0.0045527755 -0.005917403 0.027125772 -0.016225077
-0.017797338 -0.029687317 0.005088923 0.0010880269 0.010820842 0.025066854 -0.012115939 0.015956612
00000000: 5892 953c 1396 503c 835b 513d ffb0 b83c
00000010: ca92 233c cc89 91bc 0d24 483c a128 073c
00000020: 67ee be3c eb3a 86bc 9ad0 003c f67e 62bc
00000030: adcd adbc 2f81 02bc ee60 98bc 6551 5f3c
00000040: 75f4 87bb 5c7d 11bb 031e 86bc 7d26 d1bc
00000050: c607 aabc d44b c3bc 371d 02bd e696 003d
00000060: 8f1c 1b3d 2746 833c 4636 8c3c 13b4 173b
00000070: 9288 1abd 3ebd 25bc c84b c03b 76ac a73c
00000080: b97f 1dbc c3de 3fbc 3145 fb3c e4c6 b73c
00000090: 16c8 e0bc af69 f33b edf9 a33b 0f12 cbbc
000000a0: cd83 ab3c af67 75bc d971 e63c 1074 5fbc
000000b0: 0a37 8a3b 990a 783c fda1 f4bc 98e0 1b3c
000000c0: 6447 ed3b e98d b03c dbaa d93c 0fff ba39
000000d0: bc68 a0bc 252a 2a3c eccf e03a e219 4ebc
000000e0: 301a a8bc 751b 0b3d 1377 033d 2f06 dc3a
000000f0: 5716 8a3b e4ce f4bc aa4e c1bb 3cbe 7d3c
00000100: 3736 143d f8af 0e3d 0f84 d53b 4d3b 263c
00000110: 3429 973c 2314 3bbc 3860 37bd ee0a 453c
00000120: 9e02 eebc 8752 d2b9 6037 c23c 46f7 d53c
00000130: f940 473c c0ae 48bc e926 c8bb 4341 31bc
00000140: 3a44 243c cf81 61bc 92f6 78bb 2e32 1bbc
00000150: 0560 0cbd 43a6 5dbc 5d98 febc ac01 debc
00000160: fb90 69bb ef57 d9bc 02cd b039 6c82 193c
00000170: 2536 49bb 617a cd3c 69c3 13bc 0aff dd3b
00000180: 78cd b4bb 1815 93bb e40d 863c 3abc 45bc
00000190: 2e29 163b 6532 4cba 2780 f93b 3a39 c2bc
000001a0: fde9 d0bc ea4b b6bb a1a9 32bb ea3c 36ba
000001b0: 45a2 953c 14ce a2bc 4979 0bbb b1fc f6bb
000001c0: 4a23 a6bc dc4e 8c3c 61fa 0a3c a0ae 90bc
000001d0: dccd a23c 8542 89bb 9ee1 14bd b4c9 f3bb
000001e0: 6c69 853c 044c 413c b06a 56b9 a568 20bc
000001f0: 8b6f b43c 8f27 aa3c 4301 03bd 6540 7bbc
00000200: 730e 93bc 613e 843c c673 e7bc 8f3b 033c
00000210: 3118 14bc 91e9 603c 1d47 ad3c 0c13 54ba
00000220: cc7f 643b 8fb0 d4bb fae7 0abd 4186 2db9
00000230: 579e 90bb 8630 8dbc 0ce1 2b3c 29eb c43c
00000240: 3961 4e3c d6fb 9a3c 5587 e0bb f222 4dbc
00000250: 9b18 87bc b540 c23c 0bf2 b53c 1dc1 cabc
00000260: f70e 4bbc 7b21 5abc 7a97 ab3c c981 86bc
00000270: 9c76 afbc de8f 3cbc 7cfa 70bd dad0 27bb
00000280: 5a03 28bb 0693 373c 6bde 9cbc e2bf b73b
00000290: 224d c6bc b579 213d 5867 19bc 1db0 bf3b
000002a0: 1e31 4dbc 8927 b93c 370a 60bc e270 093c
000002b0: 1a0f 2b3d 6982 47bc c542 74bc 7a94 653c
000002c0: 2ee5 7cbc b05c b83c d065 763b 912e 263c
000002d0: 34b3 c6bb a105 09bd 505d 863c 6411 973b
000002e0: 2d61 aaba ab2b 09ba 164a aa3b 937b 8ebc
000002f0: eadc 5fbb 7d02 8fbb 618d 3e3c d418 6abc
00000300: a081 b33c c85b 973b c425 1b3b 58bd f7bb
00000310: c04f eb3c c957 acbc ca51 26bc 59f4 bcba
00000320: 5ae8 7b3c bad3 ceba bcc2 af39 ff04 0bbd
00000330: df52 533b 4d53 9fbb f2a7 e8bc 3856 933b
00000340: 1afa 0abc 6cbb 893c 00da c4bb 53bf 5bbc
00000350: 4d46 b13c 9693 87ba be64 d7bc 7273 aebc
00000360: 1fb5 e6bc aca0 343c 1cc0 9c3c 0bd4 88bc
00000370: f934 73bb fec9 c83c 42c1 3ebc 945e 1f3c
00000380: 4329 9abc 6d38 5bbc 4fba b53b e31a 3f3c
00000390: 52d3 48bc 4e6c f3bc 2dce 863b 27a3 473d
000003a0: 61c6 853c ab78 83bc 689d 4c3c 3921 213b
000003b0: 7975 4d3b cc18 8a3c 4cfb a3bb 2e5f 7c3c
000003c0: 2886 5e3a 2922 c33b ff60 773c f5a8 ad3b
000003d0: 732f 95bb c6e6 c1bb de36 de3c 74ea 84bc
000003e0: b9cb 91bc d132 f3bc fbc0 a63b 209c 8e3a
000003f0: e749 313c 0159 cd3c ee81 46bc 71b7 823c

action_model._continuous_distribution.mu.bias f4 [2]
0.0021933054 -0.002264125
00000000: 8fbd 0f3b b761 14bb

action_model._discrete_distribution.branches.0.weight f4 [1, 128]
0.008741047 0.0026302903 -0.0063505257 0.007257002 0.014640309 0.005837498 0.00024077231 0.008292419
-0.0061594346 0.004152592 0.002049466 -0.01572167 0.00880614 0.0018286536 -0.008145961 0.00045870928
0.005445769 -0.0015167338 0.0008798004 0.009532813 -0.008667956 0.015351606 -0.0074739866 0.005541423
-0.008545346 0.0064072283 0.0038244897 -0.014129098 0.004226347 0.0028649494 -0.0026727167 -0.018205455
-0.007141477 0.010026881 0.0014347875 0.0027333796 -0.0042766985 0.0012403225 0.016219879 0.010112628
0.015557513 -0.007768622 -0.00097342534 0.004235068 0.0017369211 -0.011366609 0.004089004 0.014311439
0.004900408 0.0046374756 0.017822782 0.00059452956 0.011343898 -0.011767059 0.0055775833 0.000859071
0.0036851892 0.009274554 -0.002941461 -0.0015144779 -0.009792796 -0.0068709874 0.00477348 -0.00022268035
-0.002261177 0.01562571 -0.006962975 0.0039511286 0.0073294886 -0.019407725 0.004227797 0.017556235
0.008690987 -0.002958181 -0.0042106486 -0.004177702 -0.0034701673 0.0014017284 0.010786465 -0.011428283
-0.0019786048 -0.0055898917 -0.010402405 -0.009395469 -0.002100889 0.0035869384 -0.0044603343 4.1941483e-05
-0.013948837 0.00036546812 -0.005733151 8.010098e-05 -0.00082403386 0.006808338 -0.006555161 -0.00995776
0.010712013 0.0009607953 0.0146971345 0.004000332 -0.010323002 -0.007397213 0.01443362 -0.010666715
0.012241194 0.0038135068 0.0031876357 -0.011129475 0.009024639 -0.019974187 -0.013861506 0.010839494
-2.583851e-05 -0.0187912 0.0071353144 0.0056393826 -0.009020818 0.008957003 -0.0075597973 0.0011674123
0.009005534 -0.008671958 -0.008883158 0.0026685607 0.0034656252 -0.005022926 -0.009679438 0.0053360644
00000000: 9c36 0f3c f360 2c3b 1218 d0bb 25cc ed3b
00000010: e8dd 6f3c 7c48 bf3b d377 7c39 eddc 073c
00000020: 15d5 c9bb 7712 883b 5550 063b bbca 80bc
00000030: a147 103c 6faf ef3a a376 05bc eb7e f039
00000040: 6c72 b23b 24cd c6ba 68a2 663a 842f 1c3c
00000050: 0b04 0ebc 4d85 7b3c 58e8 f4bb d394 b53b
00000060: c701 0cbc baf3 d13b 4aa4 7a3b bb7d 67bc
00000070: 2b7d 8a3b e0c1 3b3b bf28 2fbb 9b23 95bc
00000080: 0d03 eabb c947 243c 7b0f bc3a 8022 333b
00000090: 8c23 8cbb 5192 a23a 8ddf 843c 70af 253c
000000a0: f0e4 7e3c ed8f febb 782d 7fba 53c6 8a3b
000000b0: 67a9 e33a 033b 3abc 0dfd 853b 877a 6a3c
000000c0: 9a93 a03b f7f5 973b 1501 923c 34da 1b3a
000000d0: c2db 393c 9fca 40bc 29c4 b63b 4733 613a
000000e0: 3783 713b 4df4 173c 87c5 40bb 7281 c6ba
000000f0: f771 20bc 0526 e1bb da6a 9c3b 4d7f 69b9
00000100: 4130 14bb 7d01 803c ab29 e4bb 7878 813b
00000110: 352c f03b f3fc 9ebc 5589 8a3b 18d2 8f3c
00000120: a464 0e3c 0bde 41bb 7bf9 89bb 1be5 88bb
00000130: bf6b 63bb 33ba b73a b7b9 303c b13d 3bbc
00000140: 7bab 01bb 692b b7bb d96e 2abc 74ef 19bc
00000150: 12af 09bb d712 6b3b ff27 92bb 53ea 2f38
00000160: aa89 64bc 4d9c bf39 28dd bbbb e3fb a738
00000170: fa03 58ba 7b18 df3b adcc d6bb df25 23bc
00000180: 7081 2f3c e2dd 7b3a 40cc 703c 3815 833b
00000190: cf21 29bc 5264 f2bb fd7a 6c3c 72c3 2ebc
000001a0: 4a8f 483c 07ec 793b a7e7 503b 6758 36bc
000001b0: 14dc 133c e8a0 a3bc 5f1b 63bc 2298 313c
000001c0: c7bf d8b7 01f0 99bc 5bcf e93b 92ca b83b
000001d0: 0ecc 13bc 65c0 123c 2db8 f7bb db03 993a
000001e0: f38b 133c d414 0ebc aa8a 11bc 05e3 2e3b
000001f0: 8b1f 633b 5b97 a4bb 8196 1ebc 27da ae3b

exp_avg f4 [128, 108]
5.1250163e-06 -2.9163873e-06 0.0 -9.5246534e-08 1.3270406e-06 6.26763e-06 -8.577365e-09 0.0
-4.145668e-06 7.847758e-07 0.0 2.4475823e-06 0.0 -3.34196e-07 1.6098381e-06 1.5933999e-06
0.0 0.0 5.1998586e-07 5.131324e-07 0.0 4.6058653e-06 0.0 -2.492478e-06
6.181911e-07 1.5933999e-06 0.0 0.0 5.1998586e-07 5.153209e-07 0.0 6.222728e-06
0.0 -4.1093426e-06 -1.5922217e-06 1.5933999e-06 0.0 0.0 5.1998586e-07 5.163829e-07
0.0 4.9860187e-06 0.0 -2.8726347e-06 -1.7972707e-07 1.5933999e-06 0.0 0.0
5.1998586e-07 5.16991e-07 0.0 2.0101088e-06 0.0 1.03276136e-07 1.3566296e-06 1.5933999e-06
0.0 0.0 5.1998586e-07 5.17368e-07 0.0 6.013297e-07 -3.789682e-06 5.3017384e-06
4.9170094e-06 1.5933999e-06 0.0 0.0 5.1998586e-07 5.1760884e-07 0.0 -2.0948478e-06
4.5114293e-06 -3.0319632e-07 1.1426828e-06 1.5933999e-06 0.0 0.0 5.1998586e-07 5.177591e-07
0.0 -1.4111556e-06 3.5245396e-06 0.0 1.2273603e-06 1.5933999e-06 0.0 0.0
5.1998586e-07 5.178415e-07 0.0 -4.7739136e-06 6.8872982e-06 0.0 1.7279926e-06 1.5933999e-06
0.0 0.0 5.1998586e-07 5.1786793e-07 0.0 -1.819966e-06 3.93335e-06 0.0
1.369131e-06 0.0 1.0578187e-06 2.1133864e-08 -2.8616355e-06 1.0743111e-06 0.0 -7.6179094e-07
-1.7724633e-06 -3.080929e-06 1.1878881e-08 0.0 5.19935e-07 -9.119658e-07 0.0 -2.376003e-08
0.0 -2.525356e-06 -2.685808e-06 -2.3989112e-06 0.0 0.0 -1.5020439e-07 -5.183761e-07
0.0 1.4437134e-07 0.0 -2.6934872e-06 -2.7462638e-06 -2.3989112e-06 0.0 0.0
-1.5020439e-07 -4.0080727e-07 0.0 -1.3069852e-06 0.0 -1.2421303e-06 -2.1800656e-06 -2.3989112e-06
0.0 0.0 -1.5020439e-07 -3.4376373e-07 0.0 -1.79019e-07 0.0 -2.3700966e-06
-2.4845122e-06 -2.3989112e-06 0.0 0.0 -1.5020439e-07 -3.1110145e-07 0.0 5.7358216e-07
0.0 -3.1226978e-06 -2.9673547e-06 -2.3989112e-06 0.0 0.0 -1.5020439e-07 -2.908335e-07
0.0 7.277665e-07 5.915603e-07 -3.8684425e-06 -3.5070773e-06 -2.3989112e-06 0.0 0.0
-1.5020439e-07 -2.77893e-07 0.0 7.4065474e-07 -2.517692e-06 -7.720775e-07 -1.7686655e-06 -2.3989112e-06
0.0 0.0 -1.5020439e-07 -2.6983068e-07 0.0 -9.755026e-07 -1.573613e-06 0.0
-1.097579e-06 -2.3989112e-06 0.0 0.0 -1.5020439e-07 -2.6539396e-07 0.0 -6.3152646e-07
-1.917589e-06 0.0 -1.1385199e-06 -2.3989112e-06 0.0 0.0 -1.5020439e-07 -2.6397578e-07
0.0 1.7716206e-07 -2.7262777e-06 0.0 -1.1814698e-06 0.0 -2.6652801e-06 -2.5491143e-08
8.257013e-06 -1.9981385e-06 0.0 -6.848811e-06 -3.0554859e-06 3.6212996e-06 -4.7672277e-08 0.0
-4.1635644e-06 -9.863934e-07 0.0 -1.79682e-06 0.0 1.2068823e-06 1.7825737e-06 -7.3063586e-07
0.0 0.0 1.4069781e-07 -6.322111e-07 0.0 -1.7019515e-06 0.0 1.1120148e-06
9.1389063e-07 -7.3063586e-07 0.0 0.0 1.4069781e-07 -3.85397e-07 0.0 2.2432619e-06
0.0 -2.8332e-06 -1.0673089e-06 -7.3063586e-07 0.0 0.0 1.4069781e-07 -2.6564433e-07
00000000: 8ef7 ab36 27b7 43b6 0000 0000 568a ccb3
00000010: c51c b235 884e d236 a65b 13b2 0000 0000
00000020: 041b 8bb6 62a9 5235 0000 0000 2541 2436
00000030: 0000 0000 8c6b b3b4 9e11 d835 cedc d535
00000040: 0000 0000 0000 0000 2895 0b35 31be 0935
00000050: 0000 0000 158c 9a36 0000 0000 7244 27b6
00000060: c5f1 2535 cedc d535 0000 0000 0000 0000
00000070: 2895 0b35 9554 0a35 0000 0000 d4cc d036
00000080: 0000 0000 fce2 89b6 52b4 d5b5 cedc d535
00000090: 0000 0000 0000 0000 2895 0b35 909d 0a35
000000a0: 0000 0000 934d a736 0000 0000 7dc7 40b6
000000b0: 00fb 40b4 cedc d535 0000 0000 0000 0000
000000c0: 2895 0b35 5ac7 0a35 0000 0000 68e5 0636
000000d0: 0000 0000 a8c8 dd33 7015 b635 cedc d535
000000e0: 0000 0000 0000 0000 2895 0b35 42e1 0a35
000000f0: 0000 0000 106b 2135 3e52 7eb6 96e5 b136
00000100: cafc a436 cedc d535 0000 0000 0000 0000
00000110: 2895 0b35 cff1 0a35 0000 0000 3695 0cb6
00000120: e260 9736 fcc6 a2b4 485e 9935 cedc d535
00000130: 0000 0000 0000 0000 2895 0b35 22fc 0a35
00000140: 0000 0000 f066 bdb5 2187 6c36 0000 0000
00000150: c7bb a435 cedc d535 0000 0000 0000 0000
00000160: 2895 0b35 cc01 0b35 0000 0000 9b2f a0b6
00000170: 7119 e736 0000 0000 60ed e735 cedc d535
00000180: 0000 0000 0000 0000 2895 0b35 9d03 0b35
00000190: 0000 0000 8e45 f4b5 38fb 8336 0000 0000
000001a0: fcc2 b735 0000 0000 60fa 8d35 dc89 b532
000001b0: 860a 40b6 0c31 9035 0000 0000 e07d 4cb5
000001c0: 60e5 edb5 f5c1 4eb6 df13 4c32 0000 0000
000001d0: a991 0b35 d0cd 74b5 0000 0000 dc18 ccb2
000001e0: 0000 0000 4979 29b6 d53d 34b6 fbfc 20b6
000001f0: 0000 0000 0000 0000 de47 21b4 8926 0bb5
00000200: 0000 0000 7e04 1b34 0000 0000 c2c1 34b6
00000210: 744c 38b6 fbfc 20b6 0000 0000 0000 0000
00000220: de47 21b4 882e d7b4 0000 0000 ab6b afb5
00000230: 0000 0000 46b7 a6b5 3e4d 12b6 fbfc 20b6
00000240: 0000 0000 0000 0000 de47 21b4 878e b8b4
00000250: 0000 0000 5e38 40b4 0000 0000 f30d 1fb6
00000260: 98bb 26b6 fbfc 20b6 0000 0000 0000 0000
00000270: de47 21b4 7505 a7b4 0000 0000 44f8 1935
00000280: 0000 0000 8a8f 51b6 c422 47b6 fbfc 20b6
00000290: 0000 0000 0000 0000 de47 21b4 da23 9cb4
000002a0: 0000 0000 bc5b 4335 b7cb 1e35 abcd 81b6
000002b0: 215b 6bb6 fbfc 20b6 0000 0000 0000 0000
000002c0: de47 21b4 5331 95b4 0000 0000 68d1 4635
000002d0: 9ff5 28b6 c340 4fb5 e262 edb5 fbfc 20b6
000002e0: 0000 0000 0000 0000 de47 21b4 3fdd 90b4
000002f0: 0000 0000 04ee 82b5 ee34 d3b5 0000 0000
00000300: 8750 93b5 fbfc 20b6 0000 0000 0000 0000
00000310: de47 21b4 787b 8eb4 0000 0000 2b86 29b5
00000320: eeaf 00b6 0000 0000 3fcf 98b5 fbfc 20b6
00000330: 0000 0000 0000 0000 de47 21b4 8eb8 8db4
00000340: 0000 0000 f039 3e34 18f5 36b6 0000 0000
00000350: fe92 9eb5 0000 0000 2add 32b6 9ef7 dab2
00000360: 9a87 0a37 c217 06b6 0000 0000 d7ce e5b6
00000370: d90c 4db6 7405 7336 39c0 4cb3 0000 0000
00000380: bfb4 8bb6 3864 84b5 0000 0000 442a f1b5
00000390: 0000 0000 29fc a135 c440 ef35 ea20 44b5
000003a0: 0000 0000 0000 0000 b812 1734 37b5 29b5
000003b0: 0000 0000 9c6e e4b5 0000 0000 8a40 9535
000003c0: 1652 7535 ea20 44b5 0000 0000 0000 0000
000003d0: b812 1734 8fe8 ceb4 0000 0000 f28a 1636
000003e0: 0000 0000 0122 3eb6 7440 8fb5 ea20 44b5
000003f0: 0000 0000 0000 0000 b812 1734 e19d 8eb4

exp_avg_sq f4 [128, 108]
1.4916601e-11 2.0826448e-12 0.0 1.5798416e-11 2.0151204e-11 2.9873822e-11 7.451589e-17 0.0
5.6164886e-12 7.503576e-12 0.0 4.291328e-12 0.0 2.6208551e-11 3.1101788e-11 3.6974014e-11
0.0 0.0 5.612212e-14 2.2093438e-12 0.0 4.665146e-12 0.0 2.2778786e-11
3.085887e-11 3.6974014e-11 0.0 0.0 5.612212e-14 1.0317078e-12 0.0 8.190732e-12
0.0 3.231507e-11 3.2731894e-11 3.6974014e-11 0.0 0.0 5.612212e-14 6.2599557e-13
0.0 5.1028457e-12 0.0 3.3547744e-11 3.3303034e-11 3.6974014e-11 0.0 0.0
5.612212e-14 4.4242341e-13 0.0 3.2758332e-12 0.0 3.4530854e-11 3.4378018e-11 3.6974014e-11
0.0 0.0 5.612212e-14 3.4635492e-13 0.0 3.6078902e-12 5.745872e-12 2.729509e-11
2.9239146e-11 3.6974014e-11 0.0 0.0 5.612212e-14 2.921652e-13 0.0 4.250207e-12
1.1337482e-11 2.4874016e-11 2.6721311e-11 3.6974014e-11 0.0 0.0 5.612212e-14 2.6121995e-13
0.0 4.217666e-12 3.891659e-11 0.0 7.5148126e-12 3.6974014e-11 0.0 0.0
5.612212e-14 2.4511288e-13 0.0 4.9446705e-12 3.6632548e-11 0.0 6.790369e-12 3.6974014e-11
0.0 0.0 5.612212e-14 2.4010248e-13 0.0 2.101927e-12 3.3562632e-11 0.0
6.5757543e-12 0.0 6.0230654e-11 3.604626e-15 1.4572672e-12 1.9865147e-13 0.0 3.0867097e-12
3.833287e-12 5.1036007e-12 5.334554e-17 0.0 2.653473e-13 6.5005455e-13 0.0 1.2198154e-12
0.0 4.1855057e-12 4.4129873e-12 5.748388e-12 0.0 0.0 1.5286343e-15 1.8524612e-13
0.0 1.8760664e-12 0.0 2.5423804e-12 3.866189e-12 5.748388e-12 0.0 0.0
1.5286343e-15 8.72724e-14 0.0 2.6769977e-12 0.0 3.083813e-12 3.9081095e-12 5.748388e-12
0.0 0.0 1.5286343e-15 5.302467e-14 0.0 6.31352e-13 0.0 4.431277e-12
4.8944876e-12 5.748388e-12 0.0 0.0 1.5286343e-15 3.7323816e-14 0.0 2.3495236e-13
0.0 5.3611018e-12 5.4080724e-12 5.748388e-12 0.0 0.0 1.5286343e-15 2.9012224e-14
0.0 2.91508e-13 2.4277772e-13 5.234596e-12 5.3325313e-12 5.748388e-12 0.0 0.0
1.5286343e-15 2.4278788e-14 0.0 3.1300667e-13 1.2278374e-12 4.833788e-12 4.908695e-12 5.748388e-12
0.0 0.0 1.5286343e-15 2.1555643e-14 0.0 6.745809e-13 5.906191e-12 0.0
1.2434272e-12 5.748388e-12 0.0 0.0 1.5286343e-15 2.0131054e-14 0.0 1.0439903e-12
5.9177567e-12 0.0 1.1468526e-12 5.748388e-12 0.0 0.0 1.5286343e-15 1.9686767e-14
0.0 8.2644265e-13 5.7050445e-12 0.0 1.1192576e-12 0.0 5.872155e-12 5.719482e-16
1.2684423e-11 3.7487045e-12 0.0 3.826881e-11 3.7826405e-11 4.0664375e-11 9.988795e-16 0.0
4.6097882e-12 5.3707178e-12 0.0 8.373854e-12 0.0 3.3487556e-11 3.5696557e-11 4.8985607e-11
0.0 0.0 2.2305217e-15 1.6137029e-12 0.0 9.295373e-12 0.0 3.325535e-11
3.8812585e-11 4.8985607e-11 0.0 0.0 2.2305217e-15 7.430939e-13 0.0 7.1211374e-12
0.0 4.4163544e-11 4.3704033e-11 4.8985607e-11 0.0 0.0 2.2305217e-15 4.4103805e-13
00000000: 3335 832d 988d 122c 0000 0000 dff6 8a2d
00000010: 7a40 b12d ef62 032e 6bd2 ab24 0000 0000
00000020: d59c c52c 1a01 042d 0000 0000 d9fc 962c
00000030: 0000 0000 6988 e62d 80c9 082e 0a9d 222e
00000040: 0000 0000 0000 0000 66c0 7c29 0078 1b2c
00000050: 0000 0000 e623 a42c 0000 0000 445d c82d
00000060: 00b8 072e 0a9d 222e 0000 0000 0000 0000
00000070: 66c0 7c29 3133 912b 0000 0000 c717 102d
00000080: 0000 0000 891f 0e2e d6f4 0f2e 0a9d 222e
00000090: 0000 0000 0000 0000 66c0 7c29 bc33 302b
000000a0: 0000 0000 598a b32c 0000 0000 678b 132e
000000b0: e277 122e 0a9d 222e 0000 0000 0000 0000
000000c0: 66c0 7c29 ef0f f92a 0000 0000 2a84 662c
000000d0: 0000 0000 49de 172e 3532 172e 0a9d 222e
000000e0: 0000 0000 0000 0000 66c0 7c29 01fb c22a
000000f0: 0000 0000 f9e1 7d2c 372a ca2c 1417 f02d
00000100: 5a98 002e 0a9d 222e 0000 0000 0000 0000
00000110: 66c0 7c29 7179 a42a 0000 0000 768a 952c
00000120: 7b73 472d 4ecb da2d 0b0b eb2d 0a9d 222e
00000130: 0000 0000 0000 0000 66c0 7c29 c30d 932a
00000140: 0000 0000 5c65 942c 2f28 2b2e 0000 0000
00000150: b533 042d 0a9d 222e 0000 0000 0000 0000
00000160: 66c0 7c29 7dfc 892a 0000 0000 a2f9 ad2c
00000170: 951c 212e 0000 0000 35ea ee2c 0a9d 222e
00000180: 0000 0000 0000 0000 66c0 7c29 6a2a 872a
00000190: 0000 0000 f3e8 132c 2a9c 132e 0000 0000
000001a0: 215d e72c 0000 0000 d872 842e cfde 8127
000001b0: 9617 cd2b 63a9 5f2a 0000 0000 3835 592c
000001c0: 2edf 862c 2691 b32c 4c03 7624 0000 0000
000001d0: 9360 952a 5ef9 362b 0000 0000 7bac ab2b
000001e0: 0000 0000 af43 932c a844 9b2c e040 ca2c
000001f0: 0000 0000 0000 0000 a74c dc26 8f91 502a
00000200: 0000 0000 3504 042c 0000 0000 74e7 322c
00000210: 8907 882c e040 ca2c 0000 0000 0000 0000
00000220: a74c dc26 1d85 c429 0000 0000 8160 3c2c
00000230: 0000 0000 0901 592c 1f81 892c e040 ca2c
00000240: 0000 0000 0000 0000 a74c dc26 48cd 6e29
00000250: 0000 0000 b5b5 312b 0000 0000 65e9 9b2c
00000260: a035 ac2c e040 ca2c 0000 0000 0000 0000
00000270: a74c dc26 6e17 2829 0000 0000 3444 842a
00000280: 0000 0000 83a0 bc2c 9647 be2c e040 ca2c
00000290: 0000 0000 0000 0000 a74c dc26 d1a8 0229
000002a0: 0000 0000 bb1a a42a f5ab 882a 0d2d b82c
000002b0: 2c9f bb2c e040 ca2c 0000 0000 0000 0000
000002c0: a74c dc26 13af da28 0000 0000 0435 b02a
000002d0: 81cd ac2b e412 aa2c 98b5 ac2c e040 ca2c
000002e0: 0000 0000 0000 0000 a74c dc26 ee27 c228
000002f0: 0000 0000 ade0 3d2b 3dce cf2c 0000 0000
00000300: 30ff ae2b e040 ca2c 0000 0000 0000 0000
00000310: a74c dc26 0d53 b528 0000 0000 b7ed 922b
00000320: 6a36 d02c 0000 0000 b867 a12b e040 ca2c
00000330: 0000 0000 0000 0000 a74c dc26 9852 b128
00000340: 0000 0000 789f 682b 79ba c82c 0000 0000
00000350: 8185 9d2b 0000 0000 ac9b ce2c 54da 2426
00000360: 9025 5f2d 54e5 832c 0000 0000 da4e 282e
00000370: bf5c 262e 04d8 322e 26f4 8f26 0000 0000
00000380: 4831 a22c 20f7 bc2c 0000 0000 7c50 132d
00000390: 0000 0000 a347 132e c0fe 1c2e e470 572e
000003a0: 0000 0000 0000 0000 ddb9 2027 c61b e32b
000003b0: 0000 0000 a386 232d 0000 0000 3242 122e
000003c0: 16b3 2a2e e470 572e 0000 0000 0000 0000
000003d0: ddb9 2027 8f29 512b 0000 0000 818d fa2c
000003e0: 0000 0000 bb3b 422e 5e36 402e e470 572e
000003f0: 0000 0000 0000 0000 ddb9 2027 4848 f82a

exp_avg f4 [128]
2.1133847e-06 -2.549115e-06 -5.8993544e-07 -1.8921553e-06 4.3016973e-07 -3.4173415e-06 -3.053341e-05 -7.65668e-06
9.311608e-06 -1.5645466e-05 -9.075767e-06 -2.0744705e-05 3.9445463e-06 7.397623e-07 -1.8071185e-05 1.0780327e-06
7.655741e-06 -8.538672e-06 -4.010748e-05 6.0648968e-06 1.4483337e-05 -1.4460091e-05 6.135489e-05 -1.7164635e-05
6.7780456e-07 -1.1800001e-05 -3.006619e-06 -2.7169608e-05 -2.6200722e-05 -2.7722268e-07 -2.804944e-06 -5.881244e-06
3.0374272e-06 -7.5844616e-07 -4.019024e-06 -1.2836243e-05 1.5505111e-06 -5.3915655e-06 1.0170716e-05 2.8723389e-06
-1.619612e-05 -3.3888475e-06 -4.8526135e-06 7.4835516e-06 -8.690566e-06 1.6025677e-05 -2.2465103e-06 -2.8714207e-05
3.9727397e-06 -1.0467303e-05 -1.8658273e-05 3.9875667e-06 2.885595e-06 -3.7537147e-06 -1.00369725e-05 -3.0854633e-05
-6.4213873e-06 -3.683725e-06 -8.012388e-06 -9.9603585e-06 -1.565501e-06 6.9382195e-06 7.883163e-06 2.4692265e-05
3.1960884e-05 7.54329e-06 3.6785983e-07 9.33497e-06 1.3592888e-05 -6.620295e-06 -1.9086942e-06 2.6230286e-06
9.621716e-06 2.463712e-06 3.1029434e-05 -8.665078e-06 1.2258239e-06 1.9510962e-06 4.926296e-06 2.6628732e-06
-3.129347e-06 3.0852862e-06 -1.9046702e-05 -1.5004567e-05 1.3198597e-06 -2.867592e-06 1.937103e-06 2.6199234e-06
6.7887677e-06 3.1841007e-06 1.4016487e-05 2.0023717e-06 -1.7559539e-06 -3.77344e-06 4.2060874e-06 -1.02114855e-05
-4.398223e-06 -1.6551796e-05 4.8952543e-06 6.2862555e-06 -4.345956e-06 1.2351404e-06 2.4571755e-05 1.0470887e-06
3.0962783e-05 5.638676e-06 -6.591464e-06 -8.3565476e-07 -2.2154422e-06 8.22334e-06 -1.42421595e-05 -2.6023383e-05
-9.707574e-06 1.236546e-06 -1.9742215e-06 -1.9031431e-06 5.1910565e-06 2.687943e-06 -5.9529943e-06 2.371639e-05
-1.8788262e-05 3.3882732e-06 -2.4944754e-06 1.6650632e-05 -3.2258857e-05 1.4651416e-05 -5.200848e-07 -1.7117165e-06
00000000: acd3 0d36 7611 2bb6 0e5c 1eb5 f6f5 fdb5
00000010: 14f2 e634 7b55 65b6 0011 00b8 3175 00b7
00000020: 0d39 1c37 623e 83b7 1f44 18b7 ea04 aeb7
00000030: 655b 8436 1494 4635 9397 97b7 ecb0 9035
00000040: 2871 0037 5141 0fb7 1439 28b8 1181 cb36
00000050: 75fd 7237 9e99 72b7 a8ab 8038 c6fc 8fb7
00000060: 60f2 3535 9ef8 45b7 52c5 49b6 4aea e3b7
00000070: 9fc9 dbb7 32d5 94b4 923c 3cb6 8057 c5b6
00000080: 9ad6 4b36 0698 4bb5 27db 86b6 3e5b 57b7
00000090: 281b d035 32e9 b4b6 e5a2 2a37 68c2 4036
000000a0: e7dc 87b7 f56b 63b6 a2d3 a2b6 381b fb36
000000b0: b2cd 11b7 e16e 8637 c1c2 16b6 4adf f0b7
000000c0: 934d 8536 b99c 2fb7 5684 9cb7 f0cc 8536
000000d0: 25a6 4136 54e8 7bb6 7864 28b7 e969 01b8
000000e0: 4c77 d7b6 ea35 77b6 f26c 06b7 6a1b 27b7
000000f0: 341e d2b5 dace e836 ed41 0437 3c22 cf37
00000100: bd0d 0638 5e1c fd36 457e c534 649d 1c37
00000110: 020d 6437 e723 deb6 1e17 00b6 4a07 3036
00000120: f56c 2137 4056 2536 9a25 0238 3a60 11b7
00000130: fd86 a435 94ef 0236 8f4c a536 d0b3 3236
00000140: c601 52b6 d00c 4f36 7bc6 9fb7 20bc 7bb7
00000150: 0926 b135 db70 40b6 2dff 0136 f1d1 2f36
00000160: 12cb e336 6fae 5536 5a28 6b37 7c60 0636
00000170: 1eae ebb5 353b 7db6 0422 8d36 ff51 2bb7
00000180: 7394 93b6 b6d8 8ab7 ea41 a436 86ee d236
00000190: 7ad3 91b6 1ac7 a535 711f ce37 b289 8c35
000001a0: 09de 0138 dc33 bd36 3f2c ddb6 c251 60b5
000001b0: 02ad 14b6 faf6 0937 9cf1 6eb7 ca4c dab7
000001c0: b6dd 22b7 66f7 a535 de7c 04b6 806f ffb5
000001d0: d62e ae36 8262 3436 d5bf c7b6 8ff2 c637
000001e0: 7c9b 9db7 1762 6336 c366 27b6 f6ac 8b37
000001f0: af4d 07b8 5acf 7537 f59b 0bb5 22be e5b5

exp_avg_sq f4 [128]
3.6046263e-11 5.7194813e-12 4.890278e-11 2.0853946e-12 3.8949772e-12 8.549154e-12 3.6522063e-10 4.1235012e-11
2.88863e-10 1.5019455e-10 1.942739e-10 1.798078e-10 1.4222717e-11 4.3436615e-11 3.1136652e-10 8.591623e-11
7.3353566e-11 9.460614e-11 1.1010217e-09 8.289228e-11 1.1083355e-10 9.9657296e-11 4.0075325e-09 4.5357462e-10
1.3785345e-10 1.9138252e-10 4.5429684e-11 2.6609004e-10 2.51614e-10 6.852142e-11 1.3764409e-10 7.5374824e-11
2.5893987e-12 2.70003e-12 6.622433e-11 3.1547914e-10 1.3484147e-12 3.2706327e-10 4.563333e-11 5.198687e-11
1.9202873e-10 5.8751046e-11 4.485369e-10 8.6794995e-11 7.5241605e-11 1.7161679e-10 2.9675119e-12 8.363529e-10
7.1826004e-12 2.5781257e-11 2.6584598e-10 1.944353e-10 1.0346749e-11 2.7203316e-11 7.486251e-11 9.546892e-10
3.1929796e-11 5.7025096e-11 2.2337608e-10 7.7126756e-11 7.9261285e-11 1.2462382e-11 2.1019637e-10 4.0493342e-10
8.4289753e-10 2.2369201e-10 5.3860855e-13 1.0031297e-10 1.0476699e-10 5.959716e-10 2.0806575e-11 7.539784e-12
4.5077105e-11 2.4055338e-11 5.2362054e-10 2.404733e-11 3.788095e-12 1.0216684e-11 5.8307447e-12 6.3820433e-12
8.848416e-12 1.3607955e-11 2.0688706e-10 1.105413e-10 5.8691715e-12 5.4779293e-12 6.0042266e-12 1.98169e-12
4.6446735e-11 3.1500096e-12 1.1894494e-10 7.747068e-12 3.1099803e-11 1.0098122e-10 4.2739822e-11 1.3787337e-10
1.7943058e-11 2.3560326e-10 3.6516977e-11 6.284236e-11 2.0147603e-10 1.0498807e-12 3.2731046e-10 1.8693734e-10
8.22272e-10 2.6439571e-11 7.786384e-11 1.7052897e-11 5.548372e-12 3.53651e-11 3.2829187e-10 5.2693233e-10
9.291857e-11 8.226324e-11 3.912968e-11 2.2869732e-10 3.644589e-12 8.59286e-12 1.3774311e-10 1.1330543e-09
1.0284379e-10 7.741067e-11 6.406126e-12 3.3045824e-10 6.4845496e-10 7.695325e-11 2.7951586e-12 3.997156e-12
00000000: 7c88 1e2e 823c c92c a313 572e 21bf 122c
00000010: d60a 892c f765 162d 3cc8 c82f 7f5a 352e
00000020: dacd 9e2f 0224 252f 3e9b 552f 65b3 452f
00000030: 6c35 7a2d 4809 3f2e f12c ab2f 8aee bc2e
00000040: 634e a12e 860a d02e c252 9730 3548 b62e
00000050: beb9 f32e 1226 db2e a1b2 8931 f45a f92f
00000060: 4c92 172f 646d 522f 47cd 472e d848 922f
00000070: 8653 8a2f 21ae 962e 5e57 172f 41c0 a52e
00000080: 7636 362c 6bff 3d2c fca0 912e be6f ad2f
00000090: c2c5 bd2b 10ce b32f 90b2 482e 03a4 642e
000000a0: 4823 532f e631 812e f595 f62f 3ddd be2e
000000b0: 4275 a52e d5b1 3c2f f1d1 502c 1ae5 6530
000000c0: 1db7 fc2c 3bc6 e22d 7f26 922f acc8 552f
000000d0: 9d05 362d 6c48 ef2d d99f a42e 2436 8330
000000e0: c16d 0c2e 8dcc 7a2e c79a 752f 819a a92e
000000f0: 234c ae2e 943d 5b2d 051d 672f 509d de2f
00000100: a4b1 6730 b4f3 752f d69a 172b 2f97 dc2e
00000110: 9262 e62e c6d1 2330 3e04 b72d 2ba4 042d
00000120: 4f40 462e ce97 d32d 85ee 0f30 c685 d32d
00000130: 2048 852c dbbb 332d ae26 cd2c 568c e02c
00000140: b9a9 1b2d c864 6f2d 8879 632f 3815 f32e
00000150: cc80 ce2c cdbc c02c 4441 d32c f472 0b2c
00000160: 6046 4c2e 87a9 5d2c 06c8 022f b149 082d
00000170: 44c7 082e 600f de2e c3f8 3b2e e797 172f
00000180: 2dd4 9d2d 3686 812f 769a 202e 1b31 8a2e
00000190: 7686 5d2f f0c1 932b daf0 b32f 2f8a 4d2f
000001a0: 3f06 6230 9f90 e82d 7239 ab2e b6ff 952d
000001b0: 4b37 c32c 9089 1b2e f97a b42f 91d7 1030
000001c0: 8154 cc2e 16e6 b42e 1a18 2c2e 9374 7b2f
000001d0: 8a3b 802c cd2a 172d 3d73 172f ceb9 9b30
000001e0: e827 e22e 553a aa2e 4165 e12c ddab b52f
000001f0: f63e 3230 d438 a92e 1ab1 442c 2ea3 8c2c
