Project specific/results/ppo/JumperAgent/JumperAgent-141883.pt (torch, 557577 bytes, 39 tensors)

network_body._body_endoder.seq_layers.0.weight f4 [128, 44]
000000 d0 18 ae bd d8 e7 7a 3e e0 0d b8 bd 3b c1 d7 bd
       -0.08500826 0.24502504 -0.089870214 -0.10534903
000010 53 c7 80 be 44 72 a9 3e 01 4d 67 be 0f 90 f4 3c
       -0.25152072 0.3309499 -0.22587968 0.029853849
000020 de 9f f1 bd 7c c6 19 bd 15 08 ac 3d aa 09 53 3e
       -0.1179807 -0.037542805 0.08399979 0.20609155
000030 2e 72 95 be 82 f2 2b 3e 73 c4 40 3e 96 1c d1 bd
       -0.29188675 0.16791728 0.1882494 -0.102105305
000040 f2 3f a5 be 03 28 0f 3e d8 cb 34 be bc 03 98 3d
       -0.3227535 0.13980107 -0.17655885 0.07422587
000050 26 77 57 3e 67 da b8 bd 90 17 7f 3d a4 83 6e 3e
       0.21041545 -0.09026032 0.06227833 0.23292404
000060 91 d6 32 3d 9b 1e 30 3e c1 3b 4d 3b 68 ab 33 bd
       0.043661658 0.17199175 0.0031316134 -0.043864638
000070 4b 98 a0 bd da 30 8e bd 47 8d 3f be 0d 1c 8d 3d
       -0.078415476 -0.069429114 -0.18706237 0.06890116
000080 ce ce 0f 3e 1e 6f 74 3e ba f8 83 3e 2d b4 37 3d
       0.14043733 0.23870513 0.257757 0.044849563
000090 c1 60 c0 3d ae 34 0f be de 41 da bb 7e 4c 3c bd
       0.09393454 -0.1398494 -0.006660684 -0.045971386
0000a0 de ff 0c 3e c2 d6 89 bd d1 c9 b9 bb 22 22 b5 bd
       0.1376948 -0.06730415 -0.0056698103 -0.08844401
0000b0 9b fb f4 3d 24 61 23 be 72 bb 90 bd 83 e4 4f 3d
       0.119620524 -0.15955025 -0.07067002 0.050755035
0000c0 0f fe 7b 3e f6 19 05 3c 97 dc cb bd 75 0e 05 be
       0.24608634 0.008123865 -0.099541835 -0.12993796
0000d0 2e 8a 1d 3e 96 85 c0 3d 24 f5 40 be 1d 1a f3 3d
       0.15384743 0.094004795 -0.18843514 0.11870215
0000e0 77 d1 62 be d5 fb 56 3d cc e4 9a 3d fc 64 1d bd
       -0.22150217 0.05248626 0.07563171 -0.038426384
0000f0 f0 71 54 3e 0b a9 52 3e 0a dc 1e 3d 56 f9 a8 bd
       0.20746589 0.20572297 0.038784064 -0.08250682
000100 2b c5 47 3e 77 e1 4c be 42 35 bb 3d 1f 12 35 be
       0.19508807 -0.20007883 0.091410175 -0.17682694
000110 df 63 9d ba 32 1e 2c bd 27 34 2d 3e 2c d6 d0 bd
       -0.0012007913 -0.042020984 0.16914426 -0.101971
000120 a4 d0 c6 bd 98 ce d0 3d 3e d9 9d 3e 6d e7 af 3e
       -0.09707764 0.10195655 0.30829805 0.3435625
000130 b1 6f 9c 3d 89 0d 4c be 6e e8 0b be 0d cb 3e 3c
       0.07638491 -0.19927038 -0.13662884 0.011645091
000140 ee 02 a6 3d 85 3a 9f bd aa 3f 4a 3e 00 12 1e 3c
       0.081060275 -0.077748336 0.19750848 0.009647846
000150 4a 15 f2 3c 82 f1 ff bd aa 8c a5 bd 96 85 a1 3c
       0.029551167 -0.12497236 -0.0808347 0.019717019
000160 ae 4a 2e 3d e3 c9 0b be 02 83 81 be bc 2c b0 bc
       0.04255169 -0.13651232 -0.25295264 -0.021505706
000170 8a f1 e2 bc da b2 5f 3c 86 66 5a be 60 3c 11 3e
       -0.027703065 0.013653481 -0.21328172 0.14183187
000180 3a b5 3e 3d 47 88 21 bc 02 8a 27 3e 3f 5f 1a 3d
       0.04655955 -0.009859151 0.1636124 0.03768849
000190 d5 d4 c4 bd cf 03 7b 3c df 94 f1 bd 88 1f b9 be
       -0.09610907 0.015320732 -0.11795973 -0.3615687
0001a0 c3 0b fd bd 62 05 a6 bd ca f2 82 3d 7e dd 80 bd
       -0.12355759 -0.081064954 0.063939646 -0.06292246
0001b0 c4 c8 a3 3d 5f 57 8a 3e ec 4d 95 bc 4e 2b 93 3e
       0.079972774 0.27019784 -0.018225633 0.28743976
0001c0 a8 1f 81 be 4c bd 9d 3c 06 01 c1 ba 8d 7d 87 be
       -0.25219464 0.019255303 -0.0014725036 -0.26462975
0001d0 f6 db 47 be 14 9c f3 3d da da 0f be 3e d1 81 3c
       -0.19517502 0.11895004 -0.14048329 0.015846845
0001e0 d9 92 67 bd b1 61 25 be 21 14 d5 bd dd 45 8e be
       -0.05653653 -0.16150548 -0.1040423 -0.27787676
0001f0 47 48 6d 3e c4 dc 63 bd 68 49 52 be c3 90 10 be
       0.23172103 -0.05563046 -0.20535815 -0.14117722
000200 44 0f 3f 3d 9c b3 07 be cf 82 b4 3b 1c 12 08 3e
       0.046645418 -0.1325211 0.0055087577 0.13288158
000210 52 54 38 3c fe 7d c7 3e 4b 98 de 3d e1 af 1d 3d
       0.011250572 0.38963312 0.10868891 0.03849781
000220 b7 5f 37 3e ab f4 e6 3d 69 3a 54 3e 8c 92 c7 bd
       0.17907606 0.112771355 0.20725407 -0.097447485
000230 d6 df b7 bd 37 a7 9c bc 20 82 09 3e b7 a7 4e bd
       -0.0897824 -0.019122703 0.13428545 -0.050452914
000240 a8 e5 10 3d 70 f8 d5 3d dd d8 88 3e 80 10 20 3e
       0.035375267 0.10447776 0.26727954 0.15631294
000250 6c 29 2b 3e c5 57 04 bc f5 6e 11 3e 9a f5 61 be
       0.1671502 -0.0080775665 0.14202483 -0.22066346
000260 3a 33 e6 bd 5f 8f 55 be 4f 73 6c be 2f ec f6 bb
       -0.112402394 -0.20855473 -0.23090862 -0.0075354795
000270 63 39 9a 3d 2e 22 14 3e 17 23 b3 be 64 53 e2 bc
       0.07530477 0.14466164 -0.3498771 -0.027627654
000280 1a 90 70 be 41 bc a6 be 2d 8d ab 3c 9d 39 e2 3c
       -0.2349247 -0.325655 0.020941341 0.027615363
000290 85 9d e8 bd 05 ed 6d 3d f5 07 af 3b 5f 13 0d 3e
       -0.113581695 0.058087368 0.0053415247 0.1377692
0002a0 70 15 9e bd 88 35 a5 3d 2e d8 fc 3d a7 98 25 bd
       -0.07718933 0.08066851 0.123459205 -0.040428784
0002b0 fe d9 26 be ac f0 45 3d 5b f2 cb ba c0 72 04 bd
       -0.16294095 0.048325226 -0.0015559898 -0.032335997
0002c0 5e be 64 3d b6 9e d5 3d a5 e9 a1 ba ba d2 40 be
       0.05584561 0.10430662 -0.0012352957 -0.18830386
0002d0 5d 5d 13 bd 21 4e 86 bd 5e 6c 9f 3c 43 be dc 3d
       -0.03597771 -0.06557871 0.019460853 0.10778477
0002e0 b6 94 93 bc da 8b 42 bd a5 7f 56 3d 4b 71 15 3e
       -0.018015247 -0.047496654 0.052367825 0.14593999
0002f0 26 a3 69 3d a3 d2 c6 bd e4 80 3a 3c 51 5f a3 3d
       0.057040356 -0.097081445 0.011383269 0.079771645
000300 35 45 2c be c4 5c 17 be 47 38 33 3e 5b 1f 5d bb
       -0.16823275 -0.14781481 0.17501937 -0.0033740613
000310 08 0d 3e 3c 2c f2 33 3e 4e b8 88 3d 66 15 dc be
       0.011599787 0.1757285 0.06675778 -0.42985076
000320 30 04 96 3d 7a 9c d4 be 1f 54 47 be 56 ec 1a 3e
       0.073250175 -0.41525632 -0.19465683 0.15129218
000330 bf a4 3f be e5 b1 20 3d 71 93 d9 bb 12 f4 a3 bd
       -0.1871519 0.039232153 -0.006639891 -0.08005537
000340 8a 06 2a be ee 6e 39 be 5b 6f ca bd 15 7d b6 3d
       -0.16604057 -0.18108723 -0.098845206 0.08910576
000350 5f 21 3b 3b de 98 12 bd e1 e7 dc bd d3 52 12 be
       0.0028553826 -0.035790317 -0.10786415 -0.14289407
000360 38 a0 10 bd 6b 4d 55 bd 3a d1 31 bd 75 ef ab 3e
       -0.035309047 -0.052075785 -0.043412425 0.3358113
000370 dd bc 5f be 36 18 ae bd 2e ba 53 3e bb af fb bd
       -0.2184939 -0.085007116 0.2067649 -0.12289377
000380 23 5f 82 bd 63 e9 85 bd ed 79 f3 bd 2c c5 98 3e
       -0.06365802 -0.065386556 -0.1188849 0.2983793
000390 90 12 76 be c2 45 81 be 69 fe 2e 3d 55 68 fa bc
       -0.24030519 -0.25248533 0.042723093 -0.030567328
0003a0 86 62 b0 be 33 bd 8c 3e 8f 44 23 3e e1 4e 0b be
       -0.34450167 0.27488098 0.15944122 -0.13604309
0003b0 e4 3f 82 bd 10 be 21 3d 53 ed 3e 3d a1 11 e3 3c
       -0.063598424 0.0394879 0.04661305 0.027718367
0003c0 f8 55 27 3e 2e 69 33 3d 0a 19 1c 3e f7 45 1e 3e
       0.16341388 0.04380148 0.15243927 0.15456377
0003d0 16 7e d3 bb 7a 9c 24 3e 1e 9a 82 bd 11 5d 44 be
       -0.0064542396 0.16075316 -0.06377052 -0.19176127
0003e0 a3 30 a6 3e 31 89 cc 3d 41 77 7e 3d ac f0 a6 3c
       0.32458982 0.09987105 0.06212545 0.020378433
0003f0 2c 15 ca bd 37 93 ea bc 30 80 8e bd 25 61 9d bc
       -0.098673195 -0.02863465 -0.069580436 -0.019211361

network_body._body_endoder.seq_layers.0.bias f4 [128]
000000 2b 26 05 3c 23 d8 fc 3b 5e a9 0b bc 93 56 53 3b
       0.008126776 0.007716195 -0.008524267 0.0032247647
000010 41 0e eb bb a9 47 4b 3b 4b 09 e1 bb ee b7 84 3b
       -0.00717333 0.0031018055 -0.006867563 0.0040502464
000020 e0 92 ae 39 be 2a 40 bc 83 fe f5 ba d0 c4 80 bb
       0.00033297297 -0.0117289405 -0.0018767867 -0.003929712
000030 20 c3 1f 3a c8 42 a7 bc 66 0d 56 bc 3d 59 2b 3b
       0.00060944445 -0.020417586 -0.013064718 0.002614572
000040 aa 47 fc 3a 9f f8 15 3c 9f 6e ff bb 99 35 00 ba
       0.0019247432 0.009153514 -0.0077951695 -0.0004890799
000050 7d 18 a1 bb 60 59 38 bc 1e f5 96 ba 6c 50 20 bc
       -0.0049162493 -0.011251777 -0.0011517142 -0.009784799
000060 14 0a 00 3c f5 89 46 3c 0b 8b 80 3b ab 60 28 bc
       0.007814903 0.012117852 0.003922825 -0.010276954
000070 88 9a 10 bb 7c 0a d0 3b 9e 13 30 3c 7a 6b 1f bc
       -0.0022064764 0.006348906 0.010746865 -0.009730214
000080 c3 30 87 bb 57 c2 82 3c 29 8b 4e bb 15 64 ed bb
       -0.004125686 0.01596181 -0.0031516051 -0.0072445967
000090 7b 58 b9 38 aa 91 74 3c ab 63 2d bc b4 cb 59 3c
       8.837968e-05 0.014927307 -0.010582845 0.0132931955
0000a0 ee b0 ee bb 6e 47 a9 3b dc 1c 47 3c f8 ac 14 bc
       -0.0072842753 0.005165986 0.012152877 -0.009074442
0000b0 da 89 5c bb e7 d2 79 3b 2e 2e 7e bc bf e5 c4 bb
       -0.0033651502 0.0038120092 -0.01551394 -0.006008833
0000c0 c3 85 f4 3b 31 c6 67 bc 36 e7 e0 3b c4 3b 08 3c
       0.0074622347 -0.014146374 0.0068635 0.0083150305
0000d0 03 cb 2c bc 86 41 cb bb 2f 32 2d bc 40 53 a2 bb
       -0.010546449 -0.0062028794 -0.010571047 -0.004953772
0000e0 5e be b0 bb 7d b0 16 3c b0 0b e6 bb 25 8e 39 bc
       -0.0053937873 0.0091973515 -0.007020436 -0.011325394
0000f0 f9 1a 20 3c 61 db f4 3b 42 ea b7 bb 3a e9 c8 3b
       0.009772056 0.007472441 -0.0056126425 0.0061313184
000100 65 fa 00 bc e0 c9 30 3b 2c ce 18 bc 0c 5d 06 bc
       -0.007872199 0.0026975796 -0.009326499 -0.008200895
000110 b5 aa 79 3c 96 39 29 bb 29 66 e9 39 c1 dd bf 3b
       0.015238454 -0.0025821677 0.00044517338 0.0058552925
000120 69 57 4c 3b 69 94 4c 3c 3b dc 0a 3c b0 c7 84 3c
       0.003118003 0.012486556 0.008475359 0.0162085
000130 5c b1 85 bb 8a cd 2b 3c 74 ff ae bb 92 57 3b bc
       -0.004079981 0.010486016 -0.005340511 -0.011434453
000140 8e 50 42 bb 5a a2 89 3b b0 a4 12 3c f8 91 2a bc
       -0.0029650065 0.004200262 0.008950397 -0.010410778
000150 5d 6e d4 bb 4a f1 94 3b 0d 09 b2 bb 1c 73 69 3c
       -0.006482883 0.0045453655 -0.005433208 0.014248636
000160 3d d9 7c bb d5 0e 25 3c f5 6b 16 bc 25 62 d6 3a
       -0.0038581633 0.010074337 -0.009181012 0.0016356154
000170 40 54 f1 bb 2b e9 0b bc a5 7f 19 3c a6 00 37 3b
       -0.0073647797 -0.008539478 0.009368812 0.002792397
000180 3c 88 7b 3b d5 39 e6 bb 2d 01 40 bc 93 40 33 3c
       0.0038380763 -0.007025937 -0.01171903 0.010940689
000190 d5 85 7d 3b 0c bb 3c 3c 69 dd a9 bb 22 f1 eb bb
       0.0038684506 0.011519205 -0.005183865 -0.007200376
0001a0 80 3c c7 3b 8f 7c 27 bb 91 98 c9 bb e8 b2 d4 ba
       0.00608021 -0.002555642 -0.0061522205 -0.0016227635
0001b0 1b d7 5b 3b cd 80 fa 3b e3 d9 f9 ba e4 cc 86 3b
       0.003354496 0.007644749 -0.0019062128 0.0041137803
0001c0 7e 5f ae 3b ea d7 d3 3b 60 cb d5 bb d0 7f 27 3b
       0.005321442 0.006464948 -0.0065244883 0.002555836
0001d0 f7 8d af bb b4 29 17 bb b2 86 8a 3b 5c c5 d2 b9
       -0.0053574997 -0.0023065628 0.0042274827 -0.00040201365
0001e0 89 43 22 3c 22 6c 76 3b bc f9 1e 3c 01 12 06 b9
       0.009903797 0.0037601073 0.009703096 -0.00012785943
0001f0 7c ae 0d 3c 7a 42 0a bc 63 c1 22 3c 31 a9 1e bc
       0.008647557 -0.008438701 0.009933802 -0.009683893

network_body._body_endoder.seq_layers.2.weight f4 [128, 128]
000000 44 ff ce bc de 38 cb 3c 59 84 68 bc 1e 03 96 3d
       -0.025268205 0.02480739 -0.01419171 0.07324813
000010 37 cc 4c be 89 8d fa bd 6a ea 2e 3d 2a 79 b8 bd
       -0.19999777 -0.12234027 0.042704023 -0.09007485
000020 a3 a3 f9 bb 10 2c b2 bd 34 d0 3b 3c 9c 66 09 bc
       -0.007618384 -0.086998105 0.011463214 -0.00838628
000030 af b0 d3 bd d1 b9 93 bd 2d 8a e7 3c 70 13 5c 3c
       -0.10336434 -0.07213176 0.02826413 0.013432369
000040 a0 c0 1e bd 7e b9 4a bd 51 2e f4 3c 49 82 28 3d
       -0.03875792 -0.049493305 0.029807242 0.041139875
000050 f1 91 89 3b 02 50 a1 3d f5 a8 06 be f9 7c 29 3c
       0.004198306 0.078765884 -0.1315039 0.010344737
000060 2c a5 e4 3c a7 50 67 3d 51 19 a7 3d 7c 62 7a bd
       0.027910791 0.0564734 0.081591256 -0.06112908
000070 0d 89 8b 3c 3b d3 94 bc ed 68 67 3d d2 ce 4e be
       0.017033124 -0.018167129 0.05649655 -0.20196083
000080 ae 95 d7 3d b1 dd 49 bd 8d df 56 bd 80 b7 45 be
       0.10526596 -0.049283687 -0.05245929 -0.19308281
000090 c6 a6 8f bd 86 d6 07 3e 79 7f 33 bd 05 fc 0b 3d
       -0.070142314 0.13265428 -0.04382274 0.03417589
0000a0 eb 6a d0 3c 91 fc 45 3c ab 5b 83 bc 82 0a b6 bd
       0.025441607 0.012084142 -0.016034922 -0.08888723
0000b0 b8 d2 40 3e 46 a3 36 be f2 1d 09 be c0 01 4b bb
       0.18830383 -0.17835721 -0.1339033 -0.0030976385
0000c0 ed be e5 3d d2 1d 93 bb 72 20 21 be 8a d1 69 3d
       0.11218057 -0.004489639 -0.15735033 0.057084598
0000d0 e0 24 b0 3d cd 2a e9 bd ed f8 62 3d 04 95 fc bd
       0.08600783 -0.11385117 0.055413175 -0.1233311
0000e0 6e 5b a6 bb db cb 04 bc 8f 2f e0 3d 8b 24 12 be
       -0.0050768172 -0.008105244 0.10946571 -0.14271753
0000f0 47 f7 cc bb 3e c7 7f 3d 73 9b 78 bd 9d 7b fd 3c
       -0.0062550637 0.06244587 -0.060695123 0.030942732
000100 0d b2 4a 3d ae ca 9c bd 1c 85 e7 3b 77 ae 95 bd
       0.04948621 -0.076558456 0.0070654284 -0.07308667
000110 21 c2 10 3e ee 87 5a be e1 ef 4d 3d c5 cb 1c 3e
       0.14136554 -0.21340916 0.050277594 0.15312107
000120 a5 20 f8 3d 06 66 b8 3d 64 ae 4b b9 b6 26 b9 3d
       0.121156015 0.090038344 -0.00019424554 0.09040587
000130 8f d3 e5 bd 09 06 9c 3c 4a d2 5e bd 40 19 15 3d
       -0.11221992 0.019045847 -0.054399766 0.036401033
000140 bd ee c9 3a 31 4e fb 3d 9d cd e4 3c 5b 7d d1 3c
       0.0015406233 0.12270773 0.027930075 0.02557247
000150 3c b7 95 3d ed 36 45 bd ef 35 02 3e b3 85 a5 3d
       0.0731034 -0.048148084 0.12715887 0.08082142
000160 d9 45 b4 bd 51 59 f8 3d 5b 79 be bd ec 27 7b bc
       -0.08802385 0.12126411 -0.093004905 -0.015329342
000170 d3 98 37 bd 98 86 5b be 2b 3b f6 3d 0c 69 0a bd
       -0.04482348 -0.21438062 0.12023004 -0.033791587
000180 b4 e5 00 3d df 4a 6c 3c 96 7d 98 bc cd 6a 04 bd
       0.031469062 0.014422148 -0.018614572 -0.032328416
000190 dc 1b 06 3e 06 d8 1d 3d 3d bc 08 3d 24 fa 2f 3b
       0.13096565 0.038536094 0.033382643 0.0026851976
0001a0 3a 8f 23 3e 78 07 0e be 9e ca 0c 3d 35 fa 14 3c
       0.15972605 -0.13870037 0.03437292 0.009092857
0001b0 d6 61 dd 3b fa 0d 5f 3e f9 d6 6d bd aa 8c d5 3d
       0.0067560477 0.21782675 -0.058066342 0.1042722
0001c0 62 a7 01 3e 0e e3 56 3e b8 05 52 bd 11 c5 08 3e
       0.12661508 0.20985052 -0.051274985 0.13356425
0001d0 87 bd 64 bd 83 e2 cb 3c 08 9a 41 bd 76 b7 59 3d
       -0.05584481 0.024888283 -0.047266036 0.053153478
0001e0 a7 3a 19 3d f0 94 c7 bd 7d c0 28 3d ba db 94 3c
       0.03740945 -0.097452044 0.041199196 0.01817118
0001f0 43 59 91 bd 68 a0 b6 bd 84 01 27 bd c9 92 6f be
       -0.070971034 -0.08917314 -0.04077293 -0.23395838
000200 1b 32 d6 bd 8e 74 32 3d dd e8 cf bd ab da 2e 3d
       -0.104587756 0.043568186 -0.10151837 0.042689007
000210 9e 9f b8 bc 77 62 2e 3e 0c 3d 00 3d be 20 13 bd
       -0.022537049 0.17029749 0.03130822 -0.035919897
000220 22 11 1b 3d b6 91 e6 bc ab 68 32 bd 79 f1 2d bd
       0.037858136 -0.028145652 -0.04355685 -0.042466614
000230 f4 71 c2 3d 91 cf 3b 3d 5d f1 30 bd 08 2c fe 3c
       0.09494391 0.045852248 -0.043198932 0.031026855
000240 a6 3f 46 bc 90 a5 70 bd 33 d9 66 bd 89 39 a7 3c
       -0.012100136 -0.058751643 -0.05635948 0.020413177
000250 ef b8 f6 3c b7 27 a9 bc 51 bc 9d 3d 12 4b a6 3d
       0.03011748 -0.02064882 0.07701934 0.08119787
000260 bc 3f 32 3e 4c 95 16 3e 07 d7 e0 bd 3c 01 78 3d
       0.17407125 0.1470539 -0.10978513 0.060548052
000270 7f a4 98 bd 50 ec b0 bc 44 67 de bc c0 7a fa 3c
       -0.0745325 -0.021597058 -0.02714885 0.03057611
000280 95 c1 cb bd 58 b8 69 bd 46 d4 f5 bc 51 a7 ec bd
       -0.09949032 -0.05706057 -0.030008446 -0.115553506
000290 ea b4 82 3c c4 e5 ba bc b9 c7 03 3e 9e 8b 8a bb
       0.015955407 -0.022814639 0.12869157 -0.0042280694
0002a0 32 a5 a5 3d e3 0c 7d bd 74 6f 02 3e 8f cb a9 bd
       0.08088149 -0.061779868 0.12737828 -0.08290779
0002b0 1b 80 61 bd 23 46 7f bc c8 59 8b 3c f5 79 a3 bc
       -0.05505381 -0.015580687 0.017010584 -0.019955615
0002c0 88 47 ee bd 55 24 1b 3d f7 99 2e 3d d6 87 53 be
       -0.11634737 0.037876446 0.0426273 -0.20657286
0002d0 dd f9 7b bd e2 fc 3f bd f3 2b 8c 3d e3 9a 3a bc
       -0.061517585 -0.046872027 0.0684432 -0.011389467
0002e0 fd bc c5 3d e1 04 cc bc ce 13 2a be 7c c5 22 be
       0.09655187 -0.02490467 -0.16609117 -0.15895647
0002f0 0c 87 25 be 90 54 eb bc 15 71 ed 3c 43 54 05 be
       -0.16164798 -0.028726846 0.028984586 -0.13020425
000300 0c e7 ee 3b 4b 68 8d 3d d8 da df 3d 52 51 e3 3d
       0.0072907265 0.06904658 0.10930413 0.11099495
000310 c8 ef 25 bd 74 d3 fa bd c0 91 29 3e b0 c6 6b bb
       -0.040511876 -0.12247363 0.16559505 -0.0035976581
000320 ae 39 19 3e 48 16 0d bd 62 86 11 3d df e2 0e 3e
       0.1496341 -0.034445077 0.035528548 0.13953732
000330 23 44 2f 3b 68 01 51 bd 2d a4 6b 3d 18 54 17 be
       0.0026743494 -0.05102673 0.057529617 -0.14778173
000340 4c 79 0f bd 58 1d 8f 3d 0d 3f 21 be 64 b8 e5 ba
       -0.035027787 0.06988019 -0.15746708 -0.0017526266
000350 20 ab 40 3d e5 50 4f 3d f8 63 87 3c 90 61 2b be
       0.047038198 0.050614256 0.016527161 -0.16736436
000360 b4 2d 89 bc d5 6d 0a 3e 32 fe a0 bd d4 a2 bb bd
       -0.016745426 0.1351846 -0.07860984 -0.091619164
000370 72 98 9e bd 04 f1 97 bd d5 1a 51 3e 4b 51 5b be
       -0.077439204 -0.07419017 0.20420392 -0.2141773
000380 92 1a a2 3d bb a4 78 3d a7 a9 21 bd ef f1 af 3d
       0.07915224 0.060703974 -0.039468434 0.08591067
000390 b0 6a c4 bd 79 96 c2 bd 0f c6 98 3d b4 52 2d 3e
       -0.095906615 -0.09501357 0.07459652 0.1692608
0003a0 28 4d c6 bd c6 af ee 3d 8c 1f 57 bc 4c ac 20 bb
       -0.09682685 0.1165462 -0.01313008 -0.002451676
0003b0 17 9d 47 bd af 0e 91 b9 94 0d a8 3d 99 16 85 be
       -0.048733797 -0.00027667495 0.08205715 -0.25993803
0003c0 9a b7 53 3c 2d 1f b8 3d 67 ff de 3d 60 19 bd 3d
       0.012922192 0.08990321 0.10888558 0.092333555
0003d0 bd 7a 88 bc ec f7 5b 3d 23 55 7b bd 97 a6 84 bc
       -0.016660089 0.053703234 -0.06136049 -0.016192717
0003e0 72 f5 05 bb 8f 43 72 3d 04 22 60 3d a0 6d 77 bd
       -0.0020440486 0.05914646 0.05471994 -0.06040728
0003f0 5b 26 96 3d 2e 76 8c 3c 32 23 2a be 4a 34 ba bd
       0.073315345 0.017146196 -0.16614988 -0.090920046

network_body._body_endoder.seq_layers.2.bias f4 [128]
000000 04 ac 41 3c 33 23 8b bb b4 22 44 3b ac ec 22 bc
       0.011820797 -0.0042461394 0.0029927911 -0.009944122
000010 4e 22 0a bc 2c e7 39 3b 87 1d 1a 3c 37 cd 6c 3c
       -0.00843103 0.002836655 0.009406454 0.014453224
000020 a7 bc 25 3c 09 4d 05 bb 94 54 e3 3b 1c f2 34 bc
       0.010115779 -0.0020340106 0.0069375727 -0.0110440515
000030 f4 e7 fe bb cd b5 1c bc 19 a1 ce 3b dc 9e bd 3b
       -0.007779116 -0.009564829 0.0063058254 0.00578676
000040 b5 9e 0f bc 13 2c b5 3b ee fa 04 bc c1 a9 33 3c
       -0.008765866 0.0055289357 -0.008116467 0.010965765
000050 4d 52 35 3c f5 1e e1 3b 6c 77 d0 3b dd 79 1b bc
       0.011066985 0.0068701454 0.0063618924 -0.009489504
000060 d9 10 13 bb 5c db 05 3b 86 3f 3e 3c 50 7e c3 3b
       -0.0022440462 0.0020424938 0.011611825 0.0059659854
000070 78 07 d0 3a 55 4e 47 3c bd ad 4d 3c 08 c4 01 b9
       0.0015871366 0.012164672 0.012553629 -0.00012375426
000080 67 07 c1 bb 80 99 3b bc eb 87 e5 3b 02 8e 45 3c
       -0.005890775 -0.0114501715 0.007004728 0.012057783
000090 35 1c 23 bc 59 b5 47 3c 70 56 16 bc 8d 6a 29 3c
       -0.009955456 0.012189233 -0.009175882 0.010340345
0000a0 f3 8b c2 bb cf db 2f 3c 46 57 b6 3b e0 5c d0 bb
       -0.0059370934 0.010733559 0.005564603 -0.006358728
0000b0 7e 02 72 bb ab 20 f5 ba 9f 11 0a bc a0 21 fe ba
       -0.0036927755 -0.0018701752 -0.008427053 -0.0019388683
0000c0 bb 67 2e bc a4 ba 28 3c 34 09 c2 b9 4a 70 e1 3b
       -0.010644848 0.010298405 -0.0003700942 0.006879841
0000d0 b0 ba 91 bb a1 1a d9 3b 61 bc 9b 3b 02 f6 51 3c
       -0.0044473037 0.006625489 0.004752681 0.0128150005
0000e0 b4 32 ba bb 00 4c 97 3a 2d 75 e0 3b bf e9 37 bc
       -0.005682314 0.0011543036 0.006849906 -0.011225163
0000f0 71 71 76 3b 30 0b a4 ba 19 07 c8 bb c3 56 50 b8
       0.0037604237 -0.0012515541 -0.0061043617 -4.9671868e-05
000100 ec 67 36 bc b8 bf ca ba bb e0 33 bc c4 eb 03 ba
       -0.011133175 -0.0015468514 -0.010978873 -0.0005032385
000110 d8 58 b0 39 32 c0 1a bc 10 b5 f0 bb 6f 57 a5 bb
       0.0003363553 -0.009445237 -0.007345803 -0.0050458233
000120 de ce 58 bc b2 7b 30 3c 26 b7 f8 bb 89 c3 c3 3b
       -0.013232915 0.010771679 -0.0075901924 0.0059742373
000130 7b 16 52 3c ae 2e c5 b9 b1 95 3c 3c 51 92 44 3b
       0.012822743 -0.00037609547 0.011510299 0.0029994438
000140 f1 dc df 3b 35 a6 2b bc 1e 41 23 bc 81 e3 ba b9
       0.006831758 -0.010476639 -0.009964256 -0.00035646188
000150 38 f1 2b 3c e3 7e 4f 3c 13 44 75 bb 1b 9d 1b bc
       0.010494523 0.0126645295 -0.0037424609 -0.009497906
000160 58 e8 5c 3c 8b 70 f6 3b 2f 2e 1d bc 9a 1d dc 3b
       0.013483129 0.0075207404 -0.009593531 0.006717396
000170 17 d4 45 bc ca 42 27 bc ea f9 de bb c5 26 17 3c
       -0.012074492 -0.010208795 -0.0068046944 0.009225552
000180 98 6c 30 bb af 8d 05 bb f7 a7 b6 3b 35 5a 35 bc
       -0.0026920196 -0.002037864 0.005574222 -0.01106887
000190 30 21 8d 3b 91 f5 9d 39 e4 92 8d bb a6 0c 8c 3b
       0.004306935 0.00030128335 -0.0043204892 0.0042739687
0001a0 fd a2 58 bb 33 bb 09 bb 82 1a 20 bc d5 2c 0b 3c
       -0.0033056133 -0.002101612 -0.009771945 0.0084945755
0001b0 50 03 e2 bb 91 76 2a bc 75 b3 ed 3b 1f 85 d7 3b
       -0.0068973675 -0.010404245 0.007254059 0.0065771486
0001c0 3b d0 02 3c f7 08 87 3a 14 8c ac 3b 0d 2a ce b8
       0.007984216 0.0010302354 0.005265722 -9.830678e-05
0001d0 37 97 a5 bb 1a b0 c9 bb 76 66 ed 3b 37 1e 38 bc
       -0.0050534266 -0.006155026 0.0072448803 -0.0112376725
0001e0 54 70 77 3b 0e 6c a4 bb 7f db 42 bc 5d 3f bc bb
       0.0037756162 -0.005017764 -0.011893152 -0.005744858
0001f0 30 31 77 3b 91 2a dc bb fc 70 53 3c 9c 74 74 bb
       0.0037718527 -0.0067189415 0.012905356 -0.003730095

action_model._continuous_distribution.log_sigma f4 [1, 2]
000000 9d 1c d1 3b 4c f3 43 3c
       0.006381585 0.011959862

action_model._continuous_distribution.mu.weight f4 [2, 128]
000000 87 38 02 3d 08 94 25 bb ab c3 3f 3b 41 bd c1 bc
       0.03179219 -0.0025265235 0.0029260914 -0.023649814
000010 51 8a f7 bc d7 94 c2 ba ad f6 a5 3c 9b 3c 4e 3c
       -0.030217322 -0.0014845383 0.020259226 0.012587692
000020 c8 e9 a0 3c 55 28 6a 3b 84 85 60 3c 24 79 19 bd
       0.019642726 0.0035729606 0.013703708 -0.037469044
000030 89 53 22 bc 65 8b 9d bc 30 8f 89 3c 7e 38 34 3c
       -0.009907612 -0.019231508 0.01679191 0.010999797
000040 34 30 38 bc 2a b3 c5 3b 6a e8 01 bc 07 2d 6a 3b
       -0.011241961 0.006033321 -0.007928947 0.0035732405
000050 7c 7e 03 3d 2d 62 9c 3b 86 81 07 3c e3 30 cf bc
       0.032103047 0.0047724457 0.008270627 -0.025291866
000060 79 1b f6 39 37 71 7d bb 95 80 07 3d bb 22 f6 3b
       0.00046941245 -0.0038672218 0.03308161 0.0075114644
000070 62 24 8e bb d9 fc 2a 3d 8d 31 3f 3d 3e a3 ba bb
       -0.0043378333 0.04174504 0.046678115 -0.0056957295
000080 12 c9 a6 bc 5b 0a a5 bc a8 4a 79 3c 15 ab 62 3d
       -0.02035955 -0.02014654 0.015215553 0.055338938
000090 6b c9 5f bd 47 19 cc 3c 4d 9f 8f bc 1c c1 a5 3c
       -0.054635447 0.024914397 -0.017532015 0.020233683
0000a0 6d fb e8 bc 0b f4 2e 3d f4 fa a3 3c 2a f6 c6 bc
       -0.028440202 0.042713206 0.020017125 -0.024287302
0000b0 15 2e 3f bc 6a 48 c7 3b 89 df 9c bc 9d 9f d9 3b
       -0.011668702 0.0060816305 -0.019149559 0.006641342
0000c0 f9 e0 03 bd 0d 48 9e 3c a5 b3 f9 bb 8c 7a 8c 3c
       -0.032196973 0.019321466 -0.0076202923 0.017148279
0000d0 62 b5 ba bc 92 6d d9 3c f5 94 f2 3b b1 86 03 3d
       -0.022791568 0.026541505 0.007403011 0.032110874
0000e0 6f ae f1 bb b4 0b 38 bc 76 92 ac 3c 2f 9e 0e bc
       -0.0073755304 -0.011233259 0.021065932 -0.008704706
0000f0 51 84 1a 3c 1d c4 35 bb 45 f1 fc bc 29 6e 90 3b
       0.009430961 -0.00277353 -0.030876765 0.0044076634
000100 d9 3a 0d bd 02 1c c0 3b 4f 06 d9 bc 51 be 3a bc
       -0.03447995 0.005862714 -0.026492266 -0.011397914
000110 50 d8 31 bc 95 6d dd bc 20 76 20 bd a5 75 01 bc
       -0.010854796 -0.027029792 -0.039175153 -0.007901584
000120 e0 07 81 bc 83 01 28 3c 3e c2 d6 bc 06 27 c4 3c
       -0.015750825 0.010254267 -0.026215669 0.02394439
000130 b7 08 ca 3c df a1 af 3a 0d a9 7d 3c b4 e9 7d 3b
       0.024662359 0.0013399682 0.015482199 0.0038744034
000140 72 ce 0f 3d a5 68 2a bd 6e c9 a8 bc 41 19 03 3b
       0.03510899 -0.041603703 -0.020603862 0.0020004066
000150 1a 53 36 3c af ee 0e 3d 02 38 e6 ba bd 45 3c bd
       0.011128211 0.034895595 -0.0017564299 -0.045964945
000160 31 5a fb 3c a5 ad 2d 3b a1 9f 9c bc 31 c6 07 3d
       0.030682655 0.0026501205 -0.019119086 0.033147994
000170 79 b4 42 bc 4a 96 7e bd b0 67 c3 bb 19 ea f8 3c
       -0.011883848 -0.062155046 -0.0059632882 0.030385064
000180 86 3b bd bc 77 8e 19 bb 50 20 fb 3b f3 d1 c5 bc
       -0.023099672 -0.0023430863 0.007663764 -0.024147963
000190 4f 06 31 3c a3 03 59 bb e1 3e 63 3b a0 16 b6 3c
       0.010804727 -0.003311374 0.003467493 0.022227585
0001a0 11 a8 3e bc b5 f1 34 3c 4b fc 92 bc 1e 27 2c 3d
       -0.01163675 0.011043956 -0.017942568 0.042029493
0001b0 c0 d1 27 bd 03 19 40 bc 24 0c 32 3c 7d 70 30 3c
       -0.040971518 -0.011724713 0.010867152 0.010769007
0001c0 e5 e3 9c 3c b5 f4 9b 3b c8 a0 b8 3b 27 b1 4c 3c
       0.019151637 0.004759396 0.005634401 0.012493408
0001d0 a9 49 e6 bc 5a 45 32 bc 77 37 b3 3c 49 32 e0 bc
       -0.028111296 -0.0108807925 0.021877034 -0.027367728
0001e0 fa dd 00 3c 04 c4 f4 bb 84 72 e1 bc 00 2c a7 bc
       0.007865423 -0.007469656 -0.027520426 -0.020406723
0001f0 e3 af 1b 3b f0 e4 ac bb f8 ce 40 3d 16 d5 a9 bb
       0.002375596 -0.005276315 0.04707238 -0.0051828725
000200 94 28 e3 3c 94 ba ab bc c8 c3 07 3d df 11 3c bb
       0.02772931 -0.02096299 0.033145696 -0.0028697175
000210 77 f7 bf bc 37 04 a2 3c a3 81 98 3b 32 74 f7 3b
       -0.02343343 0.0197774 0.004654126 0.0075516934
000220 d3 18 a8 3c 7e 47 32 bd b2 50 8e bb a1 2f b4 bc
       0.02051965 -0.04352521 -0.0043431157 -0.021995367
000230 dd 96 df bc cd 69 5a bc 97 d8 3e bc 0f b3 fc 3c
       -0.027293617 -0.013330889 -0.011648319 0.0308471
000240 18 f1 73 bc 84 88 95 bb 74 37 59 bc 76 1b 40 3c
       -0.014889024 -0.004563393 -0.01325785 0.011725297
000250 b3 b8 13 3c f4 fa ba 3c 88 97 79 3c cd 23 75 3a
       0.009016204 0.022824742 0.015233882 0.0009351343
000260 84 2e f7 bc 10 32 93 3c 8c ff af 3c 07 4a 34 3d
       -0.030173548 0.017968208 0.021484159 0.04401591
000270 c8 26 d8 3a 50 7d 37 3c 3a f2 28 3c 0a 94 09 3d
       0.001649105 0.01119931 0.010311658 0.033588447
000280 c9 24 00 bd bb ac 0b bc 52 d5 e1 3c 1b e2 a4 bb
       -0.03128508 -0.008525069 0.02756754 -0.0050318367
000290 76 c5 35 bd 3f 7a f9 3b f3 ac 82 bc df 3c fb 3c
       -0.044377767 0.00761345 -0.01595161 0.030668674
0002a0 cf 11 8c 3c 86 a0 61 bb 70 9d e0 bc e2 5e cc bc
       0.017098336 -0.0034427955 -0.027418822 -0.024947587
0002b0 44 2f 73 3c e7 03 07 bc 10 cf a5 bc f6 ee 87 bc
       0.014842812 -0.0082406765 -0.020240337 -0.016593438
0002c0 17 76 87 bc 33 36 7f 3c 42 6d 16 3d 38 42 4d bc
       -0.016535802 0.015576887 0.03672529 -0.012527995
0002d0 ef 6b 22 3c 3a 36 9f bb db 4a df 3c ee ef a9 3c
       0.009913429 -0.004858759 0.027257374 0.02074429
0002e0 a6 ff 31 bc 1a 07 32 3d a6 65 99 bb b8 cc 8b ba
       -0.010864174 0.043463804 -0.004681307 -0.0010665869
0002f0 da fe 1d 3d 2a 66 80 bc cd f3 6b 3c 6c cf 02 3b
       0.038573124 -0.015673716 0.014401388 0.001996006
000300 b5 bc 84 bc ca ed 25 bc ba 85 60 bc 63 e0 31 3c
       -0.016203264 -0.010127494 -0.013703758 0.010856721
000310 44 03 0a 3d 7c 84 de bc ef 2e 42 3c ba 0f 10 bd
       0.03369452 -0.027162783 0.01185201 -0.035171248
000320 df c5 8f bb 33 9f fd 3c 49 5b 36 3c 96 c2 de bb
       -0.0043876017 0.030959701 0.0111301625 -0.006798099
000330 41 8d af 3c 69 90 c4 bc 5e cc 61 3c a2 05 e7 bb
       0.02142966 -0.023994641 0.013781635 -0.007050232
000340 05 31 3c bc a0 11 3d bb a1 f2 a5 bc b1 e9 ba bc
       -0.011486297 -0.0028849617 -0.020257296 -0.02281651
000350 33 e2 df ba c2 79 10 3c ba 1f b4 bb f3 b2 02 3b
       -0.0017080962 0.008818092 -0.005496946 0.0019943088
000360 6a ff 2d 3c 02 0b 72 3c 0f b9 81 3b e9 cc b2 bc
       0.0106199775 0.014773132 0.0039588283 -0.021826224
000370 4d e4 c9 bb 6e 7d eb bc f4 37 6e bc d2 b7 34 bc
       -0.006161249 -0.028746333 -0.014539707 -0.011030154
000380 ed e3 de 3c bf 47 4c bc dc bd 1f 3d 39 10 14 bb
       0.027208293 -0.0124682775 0.038999423 -0.0022592677
000390 3a d2 c5 bb 1f 26 9d 3c 42 a7 a1 bc 00 50 d1 bc
       -0.006037024 0.019183217 -0.019733075 -0.025550842
0003a0 bb d4 a4 3c d6 0c 14 bd 29 12 24 bc af 44 53 bc
       0.020120969 -0.036145054 -0.010014095 -0.012894793
0003b0 68 28 ab 3c 5b 40 fe b9 91 73 52 bb e5 9e a0 bb
       0.02089329 -0.00048494604 -0.003211234 -0.004901754
0003c0 57 ce a7 bb 49 84 83 bc 0a b5 20 3d 13 7b 77 bc
       -0.005121033 -0.01605429 0.039235152 -0.015105027
0003d0 9d 63 ef 3c fe 36 9e 39 28 21 aa bb 58 d6 9b bb
       0.029222304 0.0003017708 -0.005191941 -0.0047557764
0003e0 15 f0 34 bc fd ed 96 bc 02 84 e8 bb 24 86 a5 3c
       -0.011043568 -0.018424029 -0.0070958147 0.020205565
0003f0 74 4b 2a 3d bf 2f a5 bc 8d 6c 54 bb ac 3c 62 bc
       0.041575864 -0.020164369 -0.0032413334 -0.013808411

action_model._continuous_distribution.mu.bias f4 [2]
000000 e4 27 36 3c 2a 67 64 3b
       0.011117909 0.003485153

action_model._discrete_distribution.branches.0.weight f4 [1, 128]
000000 39 24 94 bb 23 63 9b 3b 14 1b 28 bb 2d fd ff 3b
       -0.0045209196 0.0047420426 -0.0025650905 0.0078121633
000010 97 8b 4d bb ec 8d 38 bc 82 88 26 3c 24 a7 26 bc
       -0.003136372 -0.011264306 0.010164382 -0.010171685
000020 ac 2f 2b 39 21 90 bb 3b 5b 87 b1 3b 10 50 62 bb
       0.0001632559 0.0057239686 0.005417747 -0.0034532584
000030 73 a6 d2 bb df 66 0b 3c f5 1c f0 3b d9 59 00 bc
       -0.0064285337 0.008508413 0.0073276707 -0.007833921
000040 d3 84 81 3b 54 9f 95 bb 63 53 70 3c c3 fd 4b 3c
       0.0039526015 -0.0045661125 0.014668318 0.012450638
000050 dd af 70 ba 52 c8 6a 3c af 22 0c 3a 1f fa 2d 3c
       -0.0009181479 0.014329987 0.00053457444 0.010618716
000060 3b 0a c5 bb f8 01 1e bb 89 6a 4a bc b2 8a 0e bc
       -0.0060131825 -0.002411006 -0.0123545015 -0.00870006
000070 f1 2a 91 3c 6a 3c ed 39 19 d4 99 bb 97 bd b1 bb
       0.017720671 0.00045249175 -0.0046944735 -0.005424212
000080 f1 85 1d 3b f9 51 a2 3c ef 90 ea bb 5c 2a a5 3b
       0.0024036134 0.019814478 -0.0071583907 0.00504045
000090 2d d0 32 bc d8 8d 70 bc 18 4e 73 3b 90 87 d0 3b
       -0.010913891 -0.014682256 0.0037125405 0.0063638166
0000a0 0b 49 d2 3b f3 d8 63 bc f8 c5 28 bb f5 d9 49 bb
       0.006417399 -0.013906705 -0.0025752764 -0.0030800079
0000b0 97 81 b6 3b 5d f1 52 bc df 7f 8f 3b 38 87 53 bc
       0.0055696475 -0.012874928 0.004379257 -0.012910657
0000c0 fb e8 6a bb 45 a8 68 3c 68 a2 ff 3b 6b 42 d0 39
       -0.0035844434 0.014200275 0.0078013428 0.00039722337
0000d0 da ed 39 3b 26 f4 15 bb 43 08 88 bc 7d 50 4a 3c
       0.002837053 -0.002288112 -0.016605502 0.012348291
0000e0 e5 23 26 bc ad 52 66 bb 1b b6 c4 bb 20 71 c1 3b
       -0.010140394 -0.0035144493 -0.006003154 0.005903378
0000f0 83 55 a1 bb 2b fe 18 bb 2d 01 d2 bb 6c b9 92 bb
       -0.004923524 -0.0023344855 -0.0064088316 -0.0044776704
000100 08 d7 dd ba 4a 21 13 3c 18 80 85 3b 59 87 26 bc
       -0.0016925046 0.008980105 0.004074108 -0.010164105
000110 27 7d 1b 3c 93 6e e5 ba 63 4b c1 b7 f7 95 e5 bb
       0.009490288 -0.0017504267 -2.3042498e-05 -0.0070064026
000120 1f 32 72 3c 0e 72 82 3c c2 61 f7 3b cb c5 4e 3a
       0.014782458 0.015923526 0.0075494954 0.000788775
000130 ea bc 38 bb ef cc fa bb 51 60 ca 3b 86 47 4b ba
       -0.0028188773 -0.0076538245 0.0061760326 -0.0007754493
000140 3a d5 38 bb 15 95 ae 3b 7f 10 0e 3c f1 ca 48 bc
       -0.0028203265 0.0053278306 0.008670925 -0.012255416
000150 5b 50 d1 3b 59 86 af bb e2 97 50 3c 46 2a a5 bb
       0.006387753 -0.0053565917 0.012731524 -0.00504044
000160 27 f9 5c 3c 90 1e 33 bc 37 c6 87 3a 28 1b 40 bc
       0.013487137 -0.01093258 0.0010358755 -0.011725225
000170 81 1e 3b bc e0 d1 ae 3c 04 bf cb 3b bd 6c 09 3b
       -0.011420847 0.02134031 0.006217839 0.0020969354
000180 bc bc 25 3c 50 e9 bd 3b cc f5 9b bb 85 48 ed ba
       0.010115799 0.0057956353 -0.004759526 -0.0018103278
000190 65 ec f9 b8 f9 c6 14 3c 09 80 84 bb e2 cc e8 bb
       -0.00011917277 0.009080642 -0.0040435833 -0.007104502
0001a0 e0 9a f0 3b f6 6b 33 bc f1 84 84 bb 2e 04 c3 3c
       0.0073426813 -0.010951033 -0.004044168 0.023805704
0001b0 25 18 14 bc 43 66 06 bc 18 49 af 3a eb b1 79 bb
       -0.00903896 -0.008203092 0.0013373224 -0.0038100432
0001c0 0f 76 f0 3a 62 97 c2 3b 2a 47 e0 ba f4 74 9c 3b
       0.0018345731 0.0059384564 -0.0017111052 0.004774684
0001d0 38 fc 15 3b 98 34 12 bb f2 6b 73 3c ef 04 4d ba
       0.002288593 -0.002230918 0.014857279 -0.00078208646
0001e0 f1 6b 82 bc 59 70 9e bc ac 1c 89 bb da 7b 15 3a
       -0.015920611 -0.01934068 -0.004184326 0.0005702354
0001f0 97 36 14 ba b0 fd d3 bc c5 5b 58 3b ae c0 80 3a
       -0.00056538865 -0.025877804 0.0033013683 0.0009823048

exp_avg f4 [128, 44]
000000 00 00 00 00 fa 31 82 b7 fa a8 b1 b5 00 00 00 00
       0.0 -1.552048e-05 -1.3236706e-06 0.0
000010 72 a7 89 35 aa c4 b9 b3 38 d2 78 b7 ee 1a 3f b5
       1.0256028e-06 -8.650507e-08 -1.4830897e-05 -7.119223e-07
000020 03 40 40 b2 00 00 00 00 a8 05 8e b4 c6 e8 35 b4
       -1.11904255e-08 0.0 -2.6453677e-07 -1.6941621e-07
000030 00 00 00 00 89 02 d9 b6 80 8e 2f b7 10 69 55 32
       0.0 -6.467399e-06 -1.0463991e-05 1.242212e-08
000040 32 b2 93 35 03 7d 89 b5 98 71 80 b7 61 64 c3 33
       1.1004215e-06 -1.0243679e-06 -1.5311685e-05 9.098654e-08
000050 51 9d 40 b2 00 00 00 00 82 79 1d b5 3e 4a 0c b5
       -1.12116405e-08 0.0 -5.8663875e-07 -5.22621e-07
000060 00 00 00 00 0a f4 98 36 6c ca 9c b7 65 c8 bf 35
       0.0 4.558363e-06 -1.869091e-05 1.4288931e-06
000070 70 09 51 b6 8c c8 bb b6 e2 96 7c b7 8f 02 ab b3
       -3.114892e-06 -5.596381e-06 -1.5055501e-05 -7.9632734e-08
000080 df 53 30 32 00 00 00 00 37 35 3a b5 bd e6 2c b5
       1.0263618e-08 0.0 -6.936784e-07 -6.441076e-07
000090 00 00 00 00 60 fc 4b b4 8c 62 0c 36 6c a6 94 b7
       0.0 -1.8997662e-07 2.0918988e-06 -1.7720471e-05
0000a0 00 00 00 00 ce 88 f9 b5 00 00 00 00 00 00 00 00
       0.0 -1.8591761e-06 0.0 0.0
0000b0 00 00 00 00 4f 15 7a b7 2e 45 34 b6 00 00 00 00
       0.0 -1.49061225e-05 -2.6862358e-06 0.0
0000c0 76 77 4e b7 8c 51 3f b7 f2 94 f6 b7 e9 0a 19 b5
       -1.2306371e-05 -1.1403474e-05 -2.9394843e-05 -5.701282e-07
0000d0 78 6f c5 31 00 00 00 00 c4 ec 81 33 77 81 9c 33
       5.746127e-09 0.0 6.050098e-08 7.2878656e-08
0000e0 00 00 00 00 87 c0 22 b7 c3 ac 47 b7 c5 13 28 33
       0.0 -9.700779e-06 -1.19015485e-05 3.913353e-08
0000f0 d3 d8 0b b7 6a 83 42 b7 5c 2d fb b7 50 c0 28 33
       -8.335529e-06 -1.1593898e-05 -2.9942654e-05 3.9290455e-08
000100 9b 35 c5 31 00 00 00 00 60 bf 97 b0 5c 9c 27 32
       5.739549e-09 0.0 -1.1041088e-09 9.756231e-09
000110 00 00 00 00 8d 88 83 36 85 57 61 b7 20 19 87 35
       0.0 3.920001e-06 -1.3431422e-05 1.0065596e-06
000120 fa 76 b3 b7 1d 62 bc b7 b4 ed f9 b7 53 53 d7 b3
       -2.1393866e-05 -2.2457034e-05 -2.9793802e-05 -1.0026874e-07
000130 47 13 79 32 00 00 00 00 87 78 a4 b2 10 14 3c b2
       1.4498091e-08 0.0 -1.9146922e-08 -1.0947602e-08
000140 00 00 00 00 82 39 fa b1 e2 f1 84 b6 ec 82 d9 b7
       0.0 -7.2824955e-09 -3.9620654e-06 -2.5929381e-05
000150 00 00 00 00 76 65 59 b6 00 00 00 00 00 00 00 00
       0.0 -3.2394578e-06 0.0 0.0
000160 00 00 00 00 16 30 96 37 6e 58 cb 35 00 00 00 00
       0.0 1.7903785e-05 1.5150415e-06 0.0
000170 5b 2f 3a b6 50 c7 f0 b5 4e 54 80 37 96 ae 4d 35
       -2.7743724e-06 -1.7939401e-06 1.5298046e-05 7.6622507e-07
000180 74 85 af b2 00 00 00 00 d3 39 21 35 0d 35 0d 35
       -2.0433369e-08 0.0 6.006132e-07 5.260379e-07
000190 00 00 00 00 01 07 14 37 50 e2 37 37 64 f1 d7 2f
       0.0 8.823118e-06 1.09603425e-05 3.927979e-10
0001a0 83 ae 52 b6 86 2e 5f b5 07 8e 83 37 f2 b6 45 34
       -3.1394018e-06 -8.3141674e-07 1.5682554e-05 1.841361e-07
0001b0 cb 7c af b2 00 00 00 00 6a 43 56 35 da 28 49 35
       -2.042943e-08 0.0 7.981931e-07 7.493778e-07
0001c0 00 00 00 00 1a 60 6e b6 be 81 ac 37 83 26 e8 b5
       0.0 -3.5520702e-06 2.0564414e-05 -1.7296555e-06
0001d0 de c5 b6 35 2c 74 85 36 83 47 82 37 d7 4c 35 34
       1.3617644e-06 3.977233e-06 1.5530508e-05 1.6884893e-07
0001e0 a0 86 7b b2 00 00 00 00 51 d0 80 35 b1 cc 77 35
       -1.4640733e-08 0.0 9.597371e-07 9.2312536e-07
0001f0 00 00 00 00 be 70 32 34 a4 eb be b5 88 29 96 37
       0.0 1.6618557e-07 -1.4224684e-06 1.7900733e-05
000200 00 00 00 00 51 13 fe 35 00 00 00 00 00 00 00 00
       0.0 1.8930097e-06 0.0 0.0
000210 00 00 00 00 13 fe 0d 38 2c d5 3d b6 00 00 00 00
       0.0 3.3853645e-05 -2.8287277e-06 0.0
000220 48 1a 14 b8 3b fb 09 b8 da 06 b4 b6 b1 70 5e b5
       -3.5310426e-05 -3.2897322e-05 -5.3652157e-06 -8.286543e-07
000230 d1 f0 4c b4 00 00 00 00 5b e0 0c 36 7f 8e a7 35
       -1.9086589e-07 0.0 2.0992218e-06 1.2483941e-06
000240 00 00 00 00 10 8f 0b 36 6d f4 c2 37 f2 8b dc 32
       0.0 2.0795887e-06 2.3240422e-05 2.567501e-08
000250 7d 90 f8 b7 d0 e8 eb b7 5c 32 e6 b6 70 e8 0e 35
       -2.9631186e-05 -2.8122595e-05 -6.8603968e-06 5.3237363e-07
000260 98 f4 4c b4 00 00 00 00 47 e1 15 36 b0 36 eb 35
       -1.9087963e-07 0.0 2.2333859e-06 1.752478e-06
000270 00 00 00 00 04 d5 3d 36 cd 39 42 38 b4 e2 47 b7
       0.0 2.8287186e-06 4.6307036e-05 -1.1914108e-05
000280 fa 17 2e b8 fb 5a 0a b8 fa 8a e7 b6 00 82 34 34
       -4.1507163e-05 -3.2986496e-05 -6.9005155e-06 1.68111e-07
000290 a3 2a 23 b3 00 00 00 00 e1 c1 26 36 df eb 0d 36
       -3.7990173e-08 0.0 2.484878e-06 2.1147932e-06
0002a0 00 00 00 00 fd 99 c6 35 cc 58 d8 b7 1b fc a7 37
       0.0 1.4796966e-06 -2.5790556e-05 2.0025347e-05
0002b0 00 00 00 00 20 93 95 34 00 00 00 00 00 00 00 00
       0.0 2.786046e-07 0.0 0.0
0002c0 00 00 00 00 b3 3c 0f 37 18 c3 62 35 00 00 00 00
       0.0 8.537597e-06 8.447546e-07 0.0
0002d0 46 95 fc b5 af 85 07 b6 60 e6 f0 36 11 5f 2e 34
       -1.8818907e-06 -2.0194382e-06 7.1793766e-06 1.6239598e-07
0002e0 4a 7f 57 32 00 00 00 00 e5 eb 1c 34 69 ff f2 b2
       1.2543589e-08 0.0 1.461445e-07 -2.8288655e-08
0002f0 00 00 00 00 16 a9 43 36 f7 a9 eb 36 0c 76 de b2
       0.0 2.9155685e-06 7.0233323e-06 -2.5897883e-08
000300 21 e7 21 b6 dd ba bb b5 ee 1e f6 36 6f 4f 7f b3
       -2.4125404e-06 -1.398697e-06 7.334972e-06 -5.944406e-08
000310 d5 a9 57 32 00 00 00 00 a2 0a 64 34 0d 2f f3 33
       1.2553262e-08 0.0 2.1238023e-07 1.1324128e-07
000320 00 00 00 00 b2 3c 9b b5 b6 a9 3e 37 94 df 26 b6
       0.0 -1.1566065e-06 1.1364396e-05 -2.4866067e-06
000330 eb ff 6c b4 42 d1 ad 35 2e 0e f2 36 da 04 48 33
       -2.2072315e-07 1.2950406e-06 7.2138128e-06 4.657054e-08
000340 65 60 7b b0 00 00 00 00 76 61 81 34 61 68 30 34
       -9.1450253e-10 0.0 2.4099035e-07 1.642925e-07
000350 00 00 00 00 7e ca 9f 33 68 82 b2 b5 f4 e6 12 37
       0.0 7.4408476e-08 -1.3299987e-06 8.756051e-06
000360 00 00 00 00 d3 bf 7a 35 00 00 00 00 00 00 00 00
       0.0 9.34114e-07 0.0 0.0
000370 00 00 00 00 a7 0b f7 b7 d0 48 a5 b6 00 00 00 00
       0.0 -2.945012e-05 -4.9258597e-06 0.0
000380 68 3c 37 b7 0a 1d 3a b7 84 34 3b b8 bc 1c 89 b5
       -1.0921714e-05 -1.1093225e-05 -4.4633183e-05 -1.0215658e-06
000390 8b 5e 31 32 00 00 00 00 6a 25 ba 34 d8 a3 0f 35
       1.0324253e-08 0.0 3.4672422e-07 5.3510075e-07
0003a0 00 00 00 00 85 5e 35 b7 50 3b f4 b7 ca a6 24 33
       0.0 -1.0810448e-05 -2.9114686e-05 3.833592e-08
0003b0 44 8f b5 b6 c4 0d 4e b7 ab f5 3f b8 8d 20 7b 34
       -5.4108987e-06 -1.2281762e-05 -4.5766745e-05 2.3388039e-07
0003c0 38 8d 31 32 00 00 00 00 4d 69 71 34 6c 85 b3 34
       1.0334865e-08 0.0 2.2483182e-07 3.3438425e-07
0003d0 00 00 00 00 a3 5f 22 37 c9 40 c5 b7 b0 67 47 36
       0.0 9.67822e-06 -2.3514398e-05 2.9713665e-06
0003e0 06 6c 10 b8 3c 68 18 b8 f9 7e 3e b8 19 63 d7 b3
       -3.443288e-05 -3.63367e-05 -4.5417783e-05 -1.00297434e-07
0003f0 ab aa 5a 32 00 00 00 00 89 f7 5e 34 b0 46 9d 34
       1.27280755e-08 0.0 2.0765414e-07 2.929496e-07

exp_avg_sq f4 [128, 44]
000000 00 00 00 00 1d cd c9 30 a3 cc 8b 2f 00 00 00 00
       0.0 1.4682972e-09 2.5429356e-10 0.0
000010 28 57 a0 2b ad c9 93 2d e7 df 93 30 16 b9 ea 2f
       1.1392874e-12 1.6801527e-11 1.0759295e-09 4.2695864e-10
000020 fd 9f 07 2f 00 00 00 00 41 e0 67 2e 38 49 7a 2e
       1.2335018e-10 0.0 5.2722497e-11 5.690845e-11
000030 00 00 00 00 00 7b 2e 30 aa d9 9a 30 45 38 8f 2b
       0.0 6.3475625e-10 1.1266839e-09 1.0176379e-12
000040 c7 19 ee 2b c1 b2 f9 2d b9 8c 9e 30 79 2e 8c 2f
       1.6918072e-12 2.8387405e-11 1.1536009e-09 2.5498872e-10
000050 e4 ee 05 2f 00 00 00 00 e5 7f 0a 2f 93 3d 0b 2f
       1.218115e-10 0.0 1.2596464e-10 1.2663852e-10
000060 00 00 00 00 ff 2b d5 2f 97 93 68 30 4c 64 dd 2f
       0.0 3.8775735e-10 8.4610846e-10 4.027093e-10
000070 19 93 6b 2e 9d ed aa 2e 34 16 b9 30 b1 bd 6a 2f
       5.3563463e-11 7.7729136e-11 1.3466832e-09 2.1349568e-10
000080 f0 f2 9e 2c 00 00 00 00 eb a9 08 2f cd 3e 09 2f
       4.5176016e-12 0.0 1.2429495e-10 1.2482389e-10
000090 00 00 00 00 81 ec b7 2f 06 65 10 2f aa 73 ae 30
       0.0 3.3455552e-10 1.3132614e-10 1.269304e-09
0000a0 00 00 00 00 32 10 24 2d 00 00 00 00 00 00 00 00
       0.0 9.325917e-12 0.0 0.0
0000b0 00 00 00 00 9d 0d 33 30 bd 9a 2a 2f 00 00 00 00
       0.0 6.5139166e-10 1.5516384e-10 0.0
0000c0 58 3a 96 2e 10 5a b4 2e fd 28 4f 30 1e f4 63 2e
       6.831574e-11 8.2014506e-11 7.536441e-10 5.1830644e-11
0000d0 53 c0 0a 2e 00 00 00 00 f6 82 12 2c ca 62 59 2c
       3.1548385e-11 0.0 2.0820546e-12 3.0892394e-12
0000e0 00 00 00 00 ef c2 66 2f 83 82 0d 30 2e 72 08 2b
       0.0 2.0987632e-10 5.148097e-10 4.847536e-13
0000f0 9e fd aa 2e a9 e9 c7 2e 24 4b 52 30 55 7e 8b 2d
       7.7757564e-11 9.090979e-11 7.6504336e-10 1.5858573e-11
000100 50 e3 0a 2e 00 00 00 00 75 2c 80 2c b2 44 95 2c
       3.157946e-11 0.0 3.6429145e-12 4.2424614e-12
000110 00 00 00 00 b2 9c 1d 2e 58 6f f9 2f 1e a0 68 2f
       0.0 3.583684e-11 4.537195e-10 2.1157162e-10
000120 f5 d4 ea 2e c0 36 0a 2f 84 25 5b 30 53 70 65 2d
       1.0678917e-10 1.2570478e-10 7.972505e-10 1.3042084e-11
000130 5b 55 4d 2b 00 00 00 00 d7 ff 6b 2c f0 14 85 2c
       7.2949085e-13 0.0 3.3537528e-12 3.782412e-12
000140 00 00 00 00 88 5e 23 2e e3 7c d5 2e 74 95 43 30
       0.0 3.714587e-11 9.708303e-11 7.115297e-10
000150 00 00 00 00 43 6f e7 2c 00 00 00 00 00 00 00 00
       0.0 6.5777674e-12 0.0 0.0
000160 00 00 00 00 0a e1 15 30 ba 79 9a 2e 00 00 00 00
       0.0 5.4525684e-10 7.024732e-11 0.0
000170 49 58 92 2d b4 4e b5 2d 4a 9b 02 30 46 ba 36 2f
       1.6637485e-11 2.0612269e-11 4.7514404e-10 1.6618981e-10
000180 9e 27 b4 2d 00 00 00 00 bb d0 27 2d f9 73 33 2d
       2.0481224e-11 0.0 9.539198e-12 1.0200723e-11
000190 00 00 00 00 bb 58 a7 2f e6 1f 9e 2f 19 2e 8c 2a
       0.0 3.044017e-10 2.8762698e-10 2.4900982e-13
0001a0 fd 51 8f 2d 98 e6 d4 2d 13 bf 0d 30 62 e0 bd 2e
       1.6293628e-11 2.4204014e-11 5.1567034e-10 8.634583e-11
0001b0 cd 32 b3 2d 00 00 00 00 94 c6 a9 2d f2 c7 ad 2d
       2.0372504e-11 0.0 1.9301262e-11 1.9756616e-11
0001c0 00 00 00 00 79 58 39 2f c8 3c c8 2f 05 f0 b8 2e
       0.0 1.6857084e-10 3.6422976e-10 8.409987e-11
0001d0 5b 5d 18 2e 26 05 43 2e f2 78 17 30 dd b8 a2 2e
       3.4643715e-11 4.434244e-11 5.5105354e-10 7.3997454e-11
0001e0 57 fe 4f 2b 00 00 00 00 9a c4 a3 2d 6e a4 a6 2d
       7.389414e-13 0.0 1.8618263e-11 1.8945037e-11
0001f0 00 00 00 00 55 7b 1f 2f 4e 23 f6 2d d3 02 09 30
       0.0 1.4504782e-10 2.798264e-11 4.9844323e-10
000200 00 00 00 00 61 fb 91 2c 00 00 00 00 00 00 00 00
       0.0 4.1490565e-12 0.0 0.0
000210 00 00 00 00 a4 5d 3a 32 04 e9 36 31 00 00 00 00
       0.0 1.0847916e-08 2.661694e-09 0.0
000220 a6 78 7a 2f 83 fb f1 2f 74 1f 5a 32 a4 51 a1 30
       2.278023e-10 4.4016354e-10 1.2696422e-08 1.1737495e-09
000230 99 ac 6e 2f 00 00 00 00 d6 1d 88 2e c0 f9 e1 2e
       2.1707293e-10 0.0 6.189864e-11 1.027618e-10
000240 00 00 00 00 bc 94 6e 31 81 0e 25 32 c7 88 be 2d
       0.0 3.4718104e-09 9.607562e-09 2.166124e-11
000250 c4 74 90 2f 88 23 1d 30 7b 1a 62 32 90 d6 7b 2f
       2.6276414e-10 5.716676e-10 1.3160952e-08 2.2904545e-10
000260 4e 76 6d 2f 00 00 00 00 f8 2b ac 2e ad d8 cb 2e
       2.1597055e-10 0.0 7.829465e-11 9.2698606e-11
000270 00 00 00 00 b5 5c 1b 31 52 e7 a7 31 5c fa d4 31
       0.0 2.2608166e-09 4.8866378e-09 6.1984746e-09
000280 f9 6c 3d 30 52 48 77 30 5c cc 67 32 8e 4d 39 2f
       6.891266e-10 8.996085e-10 1.3492436e-08 1.6853205e-10
000290 65 c1 8f 2c 00 00 00 00 ea 5a aa 2e 8b a4 be 2e
       4.0857756e-12 0.0 7.7468545e-11 8.6694284e-11
0002a0 00 00 00 00 a0 bf 11 31 04 93 25 30 04 2c 42 32
       0.0 2.1209203e-09 6.023557e-10 1.1302294e-08
0002b0 00 00 00 00 9f a2 bf 2e 00 00 00 00 00 00 00 00
       0.0 8.714562e-11 0.0 0.0
0002c0 00 00 00 00 1e 48 05 30 ff 5f 5e 2f 00 00 00 00
       0.0 4.8487603e-10 2.0224887e-10 0.0
0002d0 f3 5b 3b 2c 39 2e 86 2d 9d b0 14 30 22 dc 18 2f
       2.662534e-12 1.5254563e-11 5.409307e-10 1.3902526e-10
0002e0 6c 53 a2 2d 00 00 00 00 ec 94 55 2c bf 4b c9 2c
       1.8454314e-11 0.0 3.0351789e-12 5.721173e-12
0002f0 00 00 00 00 0a 84 c4 2e be 5a 26 30 14 ee b0 2c
       0.0 8.936503e-11 6.05194e-10 5.028653e-12
000300 04 ab 8a 2c e6 65 c0 2d 03 5e 30 30 6b 50 cd 2d
       3.9411824e-12 2.1873125e-11 6.4162026e-10 2.3341514e-11
000310 11 a7 9e 2d 00 00 00 00 f9 39 bd 2c 78 6f e0 2c
       1.8036713e-11 0.0 5.3781393e-12 6.3788384e-12
000320 00 00 00 00 09 65 42 2e d0 7a 37 2f 29 75 f9 2f
       0.0 4.420023e-11 1.6687385e-10 4.5376083e-10
000330 9d b9 a7 2d b6 46 ee 2d 4b 4c 38 30 6d 3f 9f 2d
       1.906813e-11 2.708887e-11 6.704723e-10 1.8104374e-11
000340 4b 3c ae 2a 00 00 00 00 a3 7a bb 2c 97 e6 d2 2c
       3.0950446e-13 0.0 5.328475e-12 5.9941596e-12
000350 00 00 00 00 eb 31 39 2e 39 12 cf 2d 59 9c 30 30
       0.0 4.2108466e-11 2.3541268e-11 6.425061e-10
000360 00 00 00 00 f5 24 86 2c 00 00 00 00 00 00 00 00
       0.0 3.812612e-12 0.0 0.0
000370 00 00 00 00 63 60 a0 30 10 34 13 30 00 00 00 00
       0.0 1.1668927e-09 5.3552274e-10 0.0
000380 85 56 b6 2e 8c 18 f9 2e a5 c0 aa 30 24 51 a4 2f
       8.291771e-11 1.13275694e-10 1.2423881e-09 2.988908e-10
000390 f9 ea 61 2f 00 00 00 00 1e 8f 2d 2d fd dd 62 2d
       2.054711e-10 0.0 9.86569e-12 1.2895904e-11
0003a0 00 00 00 00 c0 57 3f 30 cc 66 8f 30 04 b2 9c 2c
       0.0 6.9610095e-10 1.0433836e-09 4.4535504e-12
0003b0 89 d7 f1 2e 68 31 0c 2f c2 4b bf 30 17 91 21 2f
       1.0997698e-10 1.2750478e-10 1.3918611e-09 1.4694411e-10
0003c0 7e 82 60 2f 00 00 00 00 04 4d 1d 2e 41 2d 23 2e
       2.0419041e-10 0.0 3.576607e-11 3.7102103e-11
0003d0 00 00 00 00 e0 59 bf 2f 46 2f 71 30 09 2a c8 2f
       0.0 3.4806558e-10 8.774247e-10 3.6409656e-10
0003e0 7a 9e 5b 2f 44 86 76 2f 75 f5 e0 30 8d 2e ff 2e
       1.9974236e-10 2.242127e-10 1.6367908e-09 1.16043265e-10
0003f0 d9 16 34 2c 00 00 00 00 fa 3c 1a 2e 70 ef 1d 2e
       2.5592221e-12 0.0 3.5069704e-11 3.591033e-11

exp_avg f4 [128]
000000 10 b2 84 b7 06 cf fa b7 b3 9f 8b 37 24 cc 8f b6
       -1.5818543e-05 -2.9898725e-05 1.6644457e-05 -4.285497e-06
000010 7a ac fb 36 06 fe 3d b8 d4 13 c2 37 7e f5 c9 b6
       7.500462e-06 -4.529769e-05 2.3135835e-05 -6.018846e-06
000020 08 58 d3 b6 e6 31 e9 37 68 22 54 37 cb 27 09 b7
       -6.298538e-06 2.7799e-05 1.26441955e-05 -8.175101e-06
000030 5b d9 5d b7 b1 d7 b8 37 e8 4e c8 35 e0 27 33 b4
       -1.32232335e-05 2.2034948e-05 1.4924126e-06 -1.668518e-07
000040 0c c5 49 b5 b3 f8 e8 b7 f0 dc 19 35 30 c6 57 36
       -7.5165076e-07 -2.7772365e-05 5.731845e-07 3.2152857e-06
000050 f7 1d 60 36 fc c2 ab 37 fc cc 15 36 76 61 34 37
       3.3396043e-06 2.0475585e-05 2.2322047e-06 1.0751528e-05
000060 de df 99 b7 d2 76 49 b8 4c 06 05 b8 19 a3 b5 37
       -1.8343268e-05 -4.8032794e-05 -3.1715535e-05 2.165283e-05
000070 b1 a4 73 b6 f4 7b 19 b8 31 db 1c b8 b0 64 95 37
       -3.6305685e-06 -3.6593483e-05 -3.7397436e-05 1.780907e-05
000080 03 1a 51 37 46 45 57 b8 fd 27 23 b7 09 05 f7 36
       1.2463427e-05 -5.132451e-05 -9.724868e-06 7.36176e-06
000090 c8 24 28 35 d6 1a 20 b8 f0 c7 48 37 a3 82 dc b7
       6.26384e-07 -3.8171966e-05 1.19674805e-05 -2.6286876e-05
0000a0 c2 01 ea b5 66 4e aa b7 03 ec aa b7 38 a8 1d 38
       -1.743487e-06 -2.0302086e-05 -2.037548e-05 3.7588383e-05
0000b0 6a 69 6a 37 1a b4 0b b6 c9 e2 94 37 b4 11 ee 37
       1.39720305e-05 -2.0817447e-06 1.774858e-05 2.8380055e-05
0000c0 9b 43 52 b7 40 2c 4b 37 a9 99 f7 b7 4a 8a c6 b7
       -1.2532716e-05 1.2110046e-05 -2.9516248e-05 -2.3667835e-05
0000d0 a6 cc 7d 37 14 23 37 37 fc 86 90 37 c4 97 87 b6
       1.5127624e-05 1.0915817e-05 1.7228995e-05 -4.0409814e-06
0000e0 c4 13 2f 37 51 b4 87 b7 85 04 66 37 c4 7c 5d 37
       1.0435415e-05 -1.617722e-05 1.3710121e-05 1.3201676e-05
0000f0 55 05 1f b8 94 8a 6c 35 e6 b8 be 37 b4 e3 62 b6
       -3.791352e-05 8.811851e-07 2.2735865e-05 -3.3809165e-06
000100 22 32 9d 37 71 e6 8e b7 85 3a d6 37 9b 31 1e 38
       1.8739203e-05 -1.7035027e-05 2.5538038e-05 3.7716334e-05
000110 a5 e5 10 b8 c0 06 53 b5 08 cb c0 36 67 cd 45 b7
       -3.454615e-05 -7.861345e-07 5.745682e-06 -1.1789939e-05
000120 c8 7e bd b7 76 90 ab b8 9b 9a d2 b7 16 7f 30 b8
       -2.2589593e-05 -8.180823e-05 -2.5105945e-05 -4.2080028e-05
000130 69 57 26 37 20 2c a4 b3 be 98 c9 b6 3a 0b 14 38
       9.914723e-06 -7.6448714e-08 -6.0080483e-06 3.5296405e-05
000140 6a 82 b8 36 f0 d8 65 35 ae 25 a2 b7 4c 53 df 36
       5.4988095e-06 8.5624833e-07 -1.932945e-05 6.655615e-06
000150 40 ce 54 37 76 91 0a b8 b0 6a 67 b4 70 66 3f b8
       1.2684206e-05 -3.3037235e-05 -2.1552364e-07 -4.563335e-05
000160 1f f4 7a b7 0a 09 02 b8 9a c2 c5 37 bb d9 83 b6
       -1.4958e-05 -3.1002834e-05 2.3574848e-05 -3.9294514e-06
000170 94 f8 45 37 3e 33 33 37 a7 04 d0 b7 9a 55 99 b7
       1.1799992e-05 1.0681162e-05 -2.4797699e-05 -1.8278883e-05
000180 7f 10 ef b6 6e 28 d4 37 75 b7 81 37 79 ec 69 b6
       -7.1246754e-06 2.5291196e-05 1.5463427e-05 -3.485735e-06
000190 a5 e8 82 b6 f5 a2 cf b8 9a b1 06 37 8f ba 53 35
       -3.9013853e-06 -9.900882e-05 8.0283735e-06 7.8875104e-07
0001a0 78 3b 45 b7 8e 78 03 37 b3 6e 80 37 14 72 8d b7
       -1.1755961e-05 7.836277e-06 1.5310337e-05 -1.6861632e-05
0001b0 c1 a8 13 b7 e5 ee 26 b8 11 36 43 38 8e 45 cd b8
       -8.801174e-06 -3.9799972e-05 4.6541976e-05 -9.788117e-05
0001c0 eb 6c 67 37 0a 5d b8 b7 1e 99 4a 36 18 0a 51 b3
       1.3794032e-05 -2.1977834e-05 3.0189472e-06 -4.8670785e-08
0001d0 e3 5a 73 37 ec 1f 1d b7 6c 6e 66 b7 80 f1 bf 33
       1.450509e-05 -9.365362e-06 -1.3734778e-05 8.938059e-08
0001e0 c8 07 fd b7 1e e8 b5 b7 9a 72 cb b7 c0 a4 9e 34
       -3.0163574e-05 -2.168497e-05 -2.4252851e-05 2.9549665e-07
0001f0 89 e1 ea b7 09 bc 1b 37 bb f7 29 b8 f4 40 8b 37
       -2.7999997e-05 9.2825e-06 -4.0523457e-05 1.6600337e-05
