Project specific/results/ppo/JumperAgent/JumperAgent-448.onnx (onnx, 94240 bytes, 8 tensors)

network_body._body_endoder.seq_layers.0.weight f4 [128, 44]
0.053943533 -0.042836584 -0.10440595 0.2702709 0.120373204 0.2553837 0.0031240124 0.044313867
-0.17386007 -0.17547627 0.026083177 0.1509511 0.12348671 0.03082066 -0.0052064783 -0.015628984
-0.18878335 -0.016390942 -0.20358 -0.03225979 0.026752932 0.13901792 0.04200081 -0.078711905
-0.065038696 0.06171743 0.17753896 -0.060857918 0.042264383 -0.031373944 0.04394115 -0.0015715997
0.17301139 0.09496144 -0.15522702 0.21885014 0.2183588 -0.106655896 0.26364523 -0.049278047
0.14693832 0.07853897 0.0872257 -0.02388972 -0.22516961 0.15238093 0.052065905 -0.0485252
0.49559546 -0.11037918 -0.22980653 0.071541496 -0.004501558 0.028526342 0.23985982 0.05311118
-0.03144541 0.19580625 0.018320581 0.2230731 0.01485779 0.322276 0.16281684 0.006005019
-0.02524859 0.08424414 0.11121624 0.11827296 0.0688936 0.13130774 0.030332373 -0.08011479
0.008024579 0.090754986 0.061478674 0.08115322 0.083884746 0.037998796 -0.09770496 0.0053622923
-0.20283137 -0.029557975 -0.02595504 -0.099802405 -0.09904939 -0.21504486 -0.1283003 0.052894425
0.060718987 0.019848555 -0.22478999 0.053615183 0.20637876 0.1873933 -0.2144241 -0.0026063977
0.21535152 -0.13219395 -0.08558385 -0.0983436 0.062978126 -0.05252764 -0.24555247 -0.16536056
-0.049361765 0.13372692 0.015922679 0.027978998 0.24384382 0.22489607 0.1840753 -0.02208535
-0.08533423 -0.045090288 0.14904319 -0.054631248 0.0077988245 0.1343911 0.108608596 0.16787192
-0.057968885 0.08015847 0.03761367 -0.22610581 0.15451902 -0.06556114 0.09717772 -0.16411619
-0.11286279 0.014059332 0.10049223 0.025646122 0.08965323 -0.03819722 -0.041325707 -0.36045223
-0.2434204 -0.27157474 0.24159798 -0.016697638 -0.08609037 0.11577587 0.050282706 0.087384224
-0.006526442 0.11486346 -0.13740155 0.11881433 -0.02973074 -0.0057281577 0.29934123 -0.18111098
-0.05436108 -0.05926897 0.15590826 0.34265974 0.0301508 -0.142507 0.13500176 0.09118926
0.13146254 -0.22099565 -0.12793943 -0.28331152 -0.11399763 -0.13078612 -0.05825534 0.058750883
-0.07698716 0.137884 -0.39013493 0.09630389 0.012806901 0.17673665 -0.012985753 -0.08625668
0.09044475 -0.03699403 0.09975172 0.12804292 0.17027304 0.078939736 0.18745944 0.09591659
-0.17537901 -0.10264255 -0.008540901 -0.08405518 0.10043745 0.060380492 0.05912494 0.085865326
0.0579631 0.05096735 0.14992182 0.12369726 -0.009566813 -0.055570416 0.119463615 -0.043779574
0.0750231 0.10446013 -0.19487038 0.09312661 -0.42687505 -0.018943654 0.053304676 -0.053230807
-0.07074099 -0.25005266 0.009502865 0.16730794 0.0059839385 -0.027962552 -0.18409519 -0.14541446
-0.18165085 -0.14507541 0.07939951 0.04800482 0.014362103 -0.19059418 0.11604342 0.09404453
0.14332522 -0.10222321 0.03234489 -0.13415559 -0.26499927 0.12141194 0.016686587 -0.08416178
-0.20077662 -0.13709588 -0.08604177 -0.028355872 -0.06674427 0.032066304 -0.3048964 -0.027755281
0.0922316 0.003929125 -0.005366453 -0.0882309 -0.027438136 0.1131787 -0.05503374 -0.05376298
0.315107 0.20332207 0.2604208 -0.048276212 0.08962967 0.21580368 -0.005517061 0.08649367
00000000: e5f3 5c3d 6a75 2fbd c9d2 d5bd f360 8a3e
00000010: 3a86 f63d a7c1 823e 3bbc 4c3b 7582 353d
00000020: 6008 32be 0db0 33be 63ac d53c ed92 1a3e
00000030: 9ae6 fc3d 9c7b fc3c 1b9b aabb 5b08 80bc
00000040: 6c50 41be 4c46 86bc 4777 50be d722 04bd
00000050: f728 db3c b75a 0e3e 0b09 2c3d b533 a1bd
00000060: 0233 85bd 6acb 7c3d c6cc 353e 2746 79bd
00000070: 6b1d 2d3d f781 00bd a3fb 333d 23fe cdba
00000080: e629 313e 257b c23d d5f3 1ebe 401a 603e
00000090: 7399 5f3e 686e dabd 82fc 863e c7d7 49bd
000000a0: 0077 163e 0ad9 a03d 63a3 b23d 60b4 c3bc
000000b0: dd92 66be bf09 1c3e 0f43 553d 5cc2 46bd
000000c0: b0be fd3e 7b0e e2bd 6752 6bbe 5984 923d
000000d0: ce81 93bb 13b0 e93c d09d 753e 1c8b 593d
000000e0: e7cc 00bd 6f81 483e 0b15 963c 466d 643e
000000f0: 176e 733c 5c01 a53e 75b9 263e c0c5 c43b
00000100: 22d6 cebc 3188 ac3d 57c5 e33d 1839 f23d
00000110: 1618 8d3d 8975 063e 997b f83c 3913 a4bd
00000120: 8679 033c c0dd b93d 10d1 7b3d a933 a63d
00000130: c4cb ab3d a0a4 1b3d 8a19 c8bd 2bb6 af3b
00000140: 07b3 4fbe 9123 f2bc aa9f d4bc 3465 ccbd
00000150: 68da cabd b834 5cbe 2761 03be d3a7 583d
00000160: 79b4 783d 7099 a23c 592f 66be 989b 5b3d
00000170: f454 533e 07e4 3f3e fe91 5bbe 19d0 2abb
00000180: 1c85 5c3e da5d 07be 9646 afbd 5f68 c9bd
00000190: adfa 803d 3927 57bd 1b72 7bbe 4754 29be
000001a0: 902f 4abd b6ef 083e 4770 823c 3634 e53c
000001b0: 32b2 793e 284b 663e 3c7e 3c3e 56ec b4bc
000001c0: b6c3 aebd 98b0 38bd c79e 183e 04c5 5fbd
000001d0: 488d ff3b d29d 093e 2f6e de3d 9ee6 2b3e
000001e0: c870 6dbd 202a a43d cb10 1a3d 4888 67be
000001f0: 3c3a 1e3e eb44 86bd 1d05 c73d 130e 28be
00000200: 9b24 e7bd 1d59 663c dfce cd3d d117 d23c
00000210: 1d9c b73d b074 1cbd 2545 29bd 328d b8be
00000220: 3343 79be d80b 8bbe 7665 773e 7cc9 88bc
00000230: 2650 b0bd e61b ed3d 3df5 4d3d 80f6 b23d
00000240: c3db d5bb 893d eb3d feb2 0cbe ed54 f33d
00000250: e18d f3bc 45b3 bbbb 4143 993e 2875 39be
00000260: b9a9 5ebd 05c4 72bd 6aa6 1f3e 1971 af3e
00000270: cffe f63c 5bed 11be e73d 0a3e 6fc1 ba3d
00000280: 1e9e 063e af4c 62be 8e02 03be 350e 91be
00000290: 9777 e9bd ccec 05be 279d 6ebd c4a4 703d
000002a0: 72ab 9dbd 7731 0d3e c4bf c7be f93a c53d
000002b0: 09d4 513c 74fa 343e 32c2 54bc 58a7 b0bd
000002c0: 193b b93d 0d87 17bd a14a cc3d af1d 033e
000002d0: 0e5c 2e3e 28ab a13d 5ef5 3f3e eb6f c43d
000002e0: 8e96 33be 4236 d2bd 23ef 0bbc 1f25 acbd
000002f0: 26b2 cd3d 8951 773d fe2c 723d 29da af3d
00000300: b76a 6d3d 24c3 503d 1b85 193e fd54 fd3d
00000310: 1fbe 1cbc ce9d 63bd 57a9 f43d 3652 33bd
00000320: b6a5 993d 31ef d53d 1a8c 47be 2ab9 be3d
00000330: 5e8f dabe b92f 9bbc 0156 5a3d 8c08 5abd
00000340: a7e0 90bd e706 80be e8b1 1b3c c652 2b3e
00000350: ea14 c43b b911 e5bc 7383 3cbe 87e7 14be
00000360: ae02 3abe a68e 14be 369c a23d b4a0 443d
00000370: 074f 6b3c 1f2b 43be 2ca8 ed3d 6b9a c03d
00000380: d9c3 123e 675a d1bd 137c 043d 1560 09be
00000390: fcad 87be d3a6 f83d 4fb2 883c 035d acbd
000003a0: 6398 4dbe dd62 0cbe ab36 b0bd 934a e8bc
000003b0: 38b1 88bd f557 033d 621b 9cbe 0b5f e3bc
000003c0: ece3 bc3d e4bf 803b 12d9 afbb 67b2 b4bd
000003d0: f1c5 e0bc 3cca e73d 0f6b 61bd 9236 5cbd
000003e0: b455 a13e a933 503e e055 853e 47bd 45bd
000003f0: c38f b73d a4fb 5c3e 76c8 b4bb 9823 b13d

network_body._body_endoder.seq_layers.0.bias f4 [128]
0.0 0.0 0.0 0.0 0.0 0.0 0.0 0.0
0.0 0.0 0.0 0.0 0.0 0.0 0.0 0.0
0.0 0.0 0.0 0.0 0.0 0.0 0.0 0.0
0.0 0.0 0.0 0.0 0.0 0.0 0.0 0.0
0.0 0.0 0.0 0.0 0.0 0.0 0.0 0.0
0.0 0.0 0.0 0.0 0.0 0.0 0.0 0.0
0.0 0.0 0.0 0.0 0.0 0.0 0.0 0.0
0.0 0.0 0.0 0.0 0.0 0.0 0.0 0.0
0.0 0.0 0.0 0.0 0.0 0.0 0.0 0.0
0.0 0.0 0.0 0.0 0.0 0.0 0.0 0.0
0.0 0.0 0.0 0.0 0.0 0.0 0.0 0.0
0.0 0.0 0.0 0.0 0.0 0.0 0.0 0.0
0.0 0.0 0.0 0.0 0.0 0.0 0.0 0.0
0.0 0.0 0.0 0.0 0.0 0.0 0.0 0.0
0.0 0.0 0.0 0.0 0.0 0.0 0.0 0.0
0.0 0.0 0.0 0.0 0.0 0.0 0.0 0.0
00000000: 0000 0000 0000 0000 0000 0000 0000 0000
00000010: 0000 0000 0000 0000 0000 0000 0000 0000
00000020: 0000 0000 0000 0000 0000 0000 0000 0000
00000030: 0000 0000 0000 0000 0000 0000 0000 0000
00000040: 0000 0000 0000 0000 0000 0000 0000 0000
00000050: 0000 0000 0000 0000 0000 0000 0000 0000
00000060: 0000 0000 0000 0000 0000 0000 0000 0000
00000070: 0000 0000 0000 0000 0000 0000 0000 0000
00000080: 0000 0000 0000 0000 0000 0000 0000 0000
00000090: 0000 0000 0000 0000 0000 0000 0000 0000
000000a0: 0000 0000 0000 0000 0000 0000 0000 0000
000000b0: 0000 0000 0000 0000 0000 0000 0000 0000
000000c0: 0000 0000 0000 0000 0000 0000 0000 0000
000000d0: 0000 0000 0000 0000 0000 0000 0000 0000
000000e0: 0000 0000 0000 0000 0000 0000 0000 0000
000000f0: 0000 0000 0000 0000 0000 0000 0000 0000
00000100: 0000 0000 0000 0000 0000 0000 0000 0000
00000110: 0000 0000 0000 0000 0000 0000 0000 0000
00000120: 0000 0000 0000 0000 0000 0000 0000 0000
00000130: 0000 0000 0000 0000 0000 0000 0000 0000
00000140: 0000 0000 0000 0000 0000 0000 0000 0000
00000150: 0000 0000 0000 0000 0000 0000 0000 0000
00000160: 0000 0000 0000 0000 0000 0000 0000 0000
00000170: 0000 0000 0000 0000 0000 0000 0000 0000
00000180: 0000 0000 0000 0000 0000 0000 0000 0000
00000190: 0000 0000 0000 0000 0000 0000 0000 0000
000001a0: 0000 0000 0000 0000 0000 0000 0000 0000
000001b0: 0000 0000 0000 0000 0000 0000 0000 0000
000001c0: 0000 0000 0000 0000 0000 0000 0000 0000
000001d0: 0000 0000 0000 0000 0000 0000 0000 0000
000001e0: 0000 0000 0000 0000 0000 0000 0000 0000
000001f0: 0000 0000 0000 0000 0000 0000 0000 0000

network_body._body_endoder.seq_layers.2.weight f4 [128, 128]
-0.016377436 0.18792967 -0.10085121 0.057326898 -0.0037558791 -0.028461777 -0.12171417 -0.13795193
0.10388045 0.04983731 -0.11211577 0.01599414 0.020916654 0.11020928 0.056510735 -0.13612475
-0.020379787 -0.070192106 -0.036517497 -0.00055145635 -0.019287419 0.016970845 -0.10935847 -0.12993427
0.028642068 -0.024163023 0.095243886 0.021395123 0.067789696 0.122996464 -0.14218585 0.07455516
-0.023735758 0.059301756 -0.11087855 0.039278653 0.07150235 -0.047584064 -0.09688865 -0.058455456
-0.09130899 -0.041413024 0.062519066 0.049515817 -0.0040899045 0.02583125 -0.08172606 -0.027071236
-0.1983794 0.13866712 -0.027743803 -0.018380906 -0.17497014 0.017188348 0.007125974 -0.014174492
-0.113074966 0.01048558 0.07778247 0.06736296 0.11986393 -0.035976294 0.055563964 0.0347455
-0.0639778 -0.048635572 -0.1220284 0.08891908 -0.09660148 0.03918984 0.1474489 -0.010377161
-0.18794398 0.14327 0.058484737 0.009222688 -0.06588828 -0.029934987 -0.036555506 0.0038444349
-0.081697084 -0.05278281 0.017149251 0.0644419 0.048071392 -0.14268848 -0.1500746 -0.0054835365
0.052431885 0.006184583 -0.001043943 -0.02645796 0.07534395 0.03701293 0.15834416 -0.08121936
-0.057216763 0.04659374 0.044245172 0.06900772 0.06934776 0.07164381 0.087091096 -0.0631961
-0.017139813 -0.09640441 -0.03102992 -0.14732766 0.028069315 -0.045920413 -0.012844756 0.10145463
0.08835483 0.09835672 -0.08418444 -0.010499323 -0.065572105 0.0887314 -0.07112079 -0.09686901
0.04801329 -0.023970142 -0.043508187 0.032937985 0.029729916 -0.057850357 -0.008310989 -0.06634641
0.07407526 -0.027248664 -0.12736054 0.031313468 0.053689674 -0.040429663 0.07303542 -0.004203614
0.13910455 -0.012951343 0.10915768 0.0018837305 0.12650982 -0.06753004 -0.020133516 -0.056483515
-0.08613456 0.1121985 -0.14330927 0.06102622 0.041425273 0.0102938665 -0.055213988 -0.11562873
0.056058154 0.013576261 -0.031013157 0.16492078 0.07094845 -0.08722037 -0.03717112 0.060711198
-0.1265763 0.0066586034 0.0069151972 0.117893554 -0.109002694 -0.014480216 -0.017721033 -0.034500457
-0.16457003 -0.07077091 0.11564719 -0.050538786 -0.0041168435 0.04193913 0.053056292 0.03822693
-0.05219998 0.11863232 0.062320426 0.18344492 0.08672194 0.09363598 0.18992975 -0.19729312
0.0680501 -0.08697625 0.23215681 -0.07904993 0.17734453 0.05741912 0.09886485 0.052056115
-0.021160513 0.05288472 -0.0015088017 0.12214751 -0.09939957 0.06164237 0.048796594 -0.17791627
-0.013448503 0.033206128 -0.005827958 -0.06739682 -0.08282907 -0.029798059 -0.027587377 0.09436212
-0.06277086 0.028537033 0.07582288 -0.014919632 -0.107073225 -0.022127535 -0.027656743 0.069667205
0.00010506907 -0.07714481 -0.016171535 0.005620619 -0.11080835 -0.08157206 -0.064890474 -0.25963512
-0.06313811 0.0013710648 0.07498 -0.04841469 -0.14214101 0.022410842 0.0821332 0.072776206
0.10662105 -0.0857543 0.13918036 -0.016557524 0.032373738 0.054799963 0.13132873 0.18460163
0.08807454 -0.17999391 -0.021462327 0.04651333 -0.07943422 -0.07641382 0.016445424 -0.0045404066
0.14217588 -0.089411534 -0.012212128 -0.06529172 0.01822515 -0.023629704 0.066377714 0.036148522
00000000: f929 86bc a370 403e 148b cebd 9ccf 6a3d
00000010: 3225 76bb ac28 e9bc 4745 f9bd 4543 0dbe
00000020: 46bf d43d 3522 4c3d f49c e5bd 2506 833c
00000030: 6759 ab3c 67b5 e13d cd77 673d 4964 0bbe
00000040: 83f3 a6bc e1c0 8fbd 5f93 15bd 9c8f 10ba
00000050: a600 9ebc 7106 8b3c 55f7 dfbd 7d0d 05be
00000060: c5a2 ea3c 88f1 c5bc 3a0f c33d d344 af3c
00000070: 53d5 8a3d 92e5 fb3d 2b99 11be 60b0 983d
00000080: 7e71 c2bc 66e6 723d 4b14 e3bd a7e2 203d
00000090: d36f 923d 82e7 42bd 8e6d c6bd fd6e 6fbd
000000a0: 3500 bbbd b4a0 29bd ff09 803d 19d1 4a3d
000000b0: 9b04 86bb 0f9c d33c fe5f a7bd 7fc4 ddbc
000000c0: f823 4bbe c1fe 0d3e f946 e3bc 8e93 96bc
000000d0: 5f2b 33be 94ce 8c3c 0181 e93b 213c 68bc
000000e0: d993 e7bd b6cb 2b3c 6a4c 9f3d 97f5 893d
000000f0: 387b f53d e15b 13bd 0a97 633d 4c51 0e3d
00000100: cb06 83bd 1836 47bd 07ea f9bd 351b b63d
00000110: ffd6 c5bd 8785 203d d8fc 163e f804 2abc
00000120: 6374 40be 5fb5 123e b18d 6f3d c21a 173c
00000130: 6ff0 86bd 383a f5bc 3abb 15bd eaf2 7b3b
00000140: cd50 a7bd ca32 58bd 967c 8c3c 1dfa 833d
00000150: 82e6 443d ee1c 12be 28ad 19be 3daf b3bb
00000160: d1c2 563d 0ba8 ca3b ead4 88ba 5dbe d8bc
00000170: ee4d 9a3d df9a 173d f924 223e 5656 a6bd
00000180: 205c 6abd 14d9 3e3d 6d3a 353d eb53 8d3d
00000190: 3306 8e3d fdb9 923d d15c b23d f56c 81bd
000001a0: cb68 8cbc ad6f c5bd 7532 febc 10dd 16be
000001b0: 9ff1 e53c 0b17 3cbd d072 52bc 72c7 cf3d
000001c0: 61f3 b43d 3f6f c93d e468 acbd 5a05 2cbc
000001d0: ab4a 86bd cfb8 b53d c7a7 91bd 4263 c6bd
000001e0: 95a9 443d 085d c4bc a435 32bd fbe9 063d
000001f0: 278c f33c 7ff4 6cbd d02a 08bc a0e0 87bd
00000200: c5b4 973d 9738 dfbc cd6a 02be 8d42 003d
00000210: b4e9 5b3d 9399 25bd 9893 953d 78be 89bb
00000220: 6c71 0e3e df31 54bc 108e df3d 82e7 f63a
00000230: ca8b 013e 314d 8abd 0bef a4bc 425b 67bd
00000240: 5167 b0bd 54c8 e53d aabf 12be a1f6 793d
00000250: 8cad 293d 9ba7 283c 1028 62bd c1ce ecbd
00000260: 3c9d 653d f76e 5e3c 4e0f febc fee0 283e
00000270: 6c4d 913d 98a0 b2bd bf40 18bd 4eac 783d
00000280: 389d 01be 6a30 da3b e198 e23b 2d72 f13d
00000290: ce3c dfbd 6e3e 6dbc b32b 91bc 5a50 0dbd
000002a0: 0c85 28be 57f0 90bd 6fd8 ec3d c201 4fbd
000002b0: 96e6 86bb 5dc8 2b3d 8e51 593d d793 1c3d
000002c0: a5cf 55bd 80f5 f23d b443 7f3d fcd8 3b3e
000002d0: 469b b13d 38c4 bf3d f27c 423e 3507 4abe
000002e0: da5d 8b3d 9b20 b2bd 84ba 6d3e eee4 a1bd
000002f0: ce99 353e 5030 6b3d a879 ca3d cb38 553d
00000300: d058 adbc a69d 583d fcc2 c5ba 7928 fa3d
00000310: 0092 cbbd b67c 7c3d f0de 473d af2f 36be
00000320: 1c57 5cbc 2603 083d 75f8 bebb 5807 8abd
00000330: 4aa2 a9bd 0f1b f4bc ecfe e1bc ed40 c13d
00000340: 028e 80bd 7fc6 e93c 0749 9b3d 7971 74bc
00000350: 3549 dbbd ce44 b5bc 6590 e2bc aead 8e3d
00000360: 8758 dc38 19fe 9dbd 2b7a 84bc 2b2d b83b
00000370: 7def e2bd 410f a7bd 4ce5 84bd e5ee 84be
00000380: 8e4e 81bd 4db5 b33a 1d8f 993d 7b4e 46bd
00000390: 6a8d 11be f196 b73c 7335 a83d b10b 953d
000003a0: 235c da3d f39f afbd 4c85 0e3e a5a3 87bc
000003b0: 539a 043d ed75 603d 0a7b 063e 3608 3d3e
000003c0: 6d60 b43d 5350 38be c3d1 afbc c384 3e3d
000003d0: 69ae a2bd d97e 9cbd 8eb8 863c b1c7 94bb
000003e0: 8e96 113e 651d b7bd 6115 48bc aab7 85bd
000003f0: e94c 953c 1593 c1bc 0af1 873d 7910 143d

network_body._body_endoder.seq_layers.2.bias f4 [128]
0.0 0.0 0.0 0.0 0.0 0.0 0.0 0.0
0.0 0.0 0.0 0.0 0.0 0.0 0.0 0.0
0.0 0.0 0.0 0.0 0.0 0.0 0.0 0.0
0.0 0.0 0.0 0.0 0.0 0.0 0.0 0.0
0.0 0.0 0.0 0.0 0.0 0.0 0.0 0.0
0.0 0.0 0.0 0.0 0.0 0.0 0.0 0.0
0.0 0.0 0.0 0.0 0.0 0.0 0.0 0.0
0.0 0.0 0.0 0.0 0.0 0.0 0.0 0.0
0.0 0.0 0.0 0.0 0.0 0.0 0.0 0.0
0.0 0.0 0.0 0.0 0.0 0.0 0.0 0.0
0.0 0.0 0.0 0.0 0.0 0.0 0.0 0.0
0.0 0.0 0.0 0.0 0.0 0.0 0.0 0.0
0.0 0.0 0.0 0.0 0.0 0.0 0.0 0.0
0.0 0.0 0.0 0.0 0.0 0.0 0.0 0.0
0.0 0.0 0.0 0.0 0.0 0.0 0.0 0.0
0.0 0.0 0.0 0.0 0.0 0.0 0.0 0.0
00000000: 0000 0000 0000 0000 0000 0000 0000 0000
00000010: 0000 0000 0000 0000 0000 0000 0000 0000
00000020: 0000 0000 0000 0000 0000 0000 0000 0000
00000030: 0000 0000 0000 0000 0000 0000 0000 0000
00000040: 0000 0000 0000 0000 0000 0000 0000 0000
00000050: 0000 0000 0000 0000 0000 0000 0000 0000
00000060: 0000 0000 0000 0000 0000 0000 0000 0000
00000070: 0000 0000 0000 0000 0000 0000 0000 0000
00000080: 0000 0000 0000 0000 0000 0000 0000 0000
00000090: 0000 0000 0000 0000 0000 0000 0000 0000
000000a0: 0000 0000 0000 0000 0000 0000 0000 0000
000000b0: 0000 0000 0000 0000 0000 0000 0000 0000
000000c0: 0000 0000 0000 0000 0000 0000 0000 0000
000000d0: 0000 0000 0000 0000 0000 0000 0000 0000
000000e0: 0000 0000 0000 0000 0000 0000 0000 0000
000000f0: 0000 0000 0000 0000 0000 0000 0000 0000
00000100: 0000 0000 0000 0000 0000 0000 0000 0000
00000110: 0000 0000 0000 0000 0000 0000 0000 0000
00000120: 0000 0000 0000 0000 0000 0000 0000 0000
00000130: 0000 0000 0000 0000 0000 0000 0000 0000
00000140: 0000 0000 0000 0000 0000 0000 0000 0000
00000150: 0000 0000 0000 0000 0000 0000 0000 0000
00000160: 0000 0000 0000 0000 0000 0000 0000 0000
00000170: 0000 0000 0000 0000 0000 0000 0000 0000
00000180: 0000 0000 0000 0000 0000 0000 0000 0000
00000190: 0000 0000 0000 0000 0000 0000 0000 0000
000001a0: 0000 0000 0000 0000 0000 0000 0000 0000
000001b0: 0000 0000 0000 0000 0000 0000 0000 0000
000001c0: 0000 0000 0000 0000 0000 0000 0000 0000
000001d0: 0000 0000 0000 0000 0000 0000 0000 0000
000001e0: 0000 0000 0000 0000 0000 0000 0000 0000
000001f0: 0000 0000 0000 0000 0000 0000 0000 0000

action_model._continuous_distribution.log_sigma f4 [1, 2]
0.0 0.0
00000000: 0000 0000 0000 0000

action_model._continuous_distribution.mu.weight f4 [2, 128]
0.015017879 -0.010146091 0.007858015 0.0021022165 0.01689039 0.02248673 0.012515286 -0.0031023568
0.0025072165 -0.00199524 -0.031013792 -0.026350344 -0.0024554657 -0.022527648 -0.027795488 -0.00835585
0.0018148924 0.010951313 0.028014395 0.00954505 -0.026788542 -0.03468074 0.0071967267 -0.0469131
-0.0064717117 0.026136417 -0.020514531 0.007388747 0.0030519613 0.0034638483 0.02663953 0.015137508
-0.0072378824 -0.027176192 -0.013187799 -0.03286128 0.006216909 -0.036892843 0.019837266 0.008727566
0.03208306 -0.008827136 0.041077252 0.0023420327 -0.0030190672 -0.0005495614 0.0070310584 0.02751555
0.025689809 -0.0031561155 -0.025768775 0.021755297 -0.013883024 0.015603249 0.014131801 -0.02008849
0.005366621 -0.011002352 0.0053636804 0.016463965 0.017421378 0.010108665 0.017833434 0.0024053107
-0.003245915 0.01054811 0.009920898 -0.017084358 0.009565885 -0.0028352912 0.016125642 -0.032442007
0.02343431 0.00047150647 -0.0153649915 -0.0054022428 0.0008333476 -0.010078247 0.01321252 0.005442231
0.00275763 0.022020586 -0.002120054 0.0025839827 -0.02715416 -1.5819796e-05 -0.025377173 -0.0038254855
-0.013522014 0.008224239 -0.013045358 0.004372129 -0.026913686 0.023399306 0.008040758 -0.014316059
-0.04251686 -0.011075675 0.017365642 0.00033621877 -0.013581348 -0.0010449257 -0.01650202 0.01017216
0.0042474982 -0.039625373 0.00361751 0.012311428 -0.025505904 0.01428756 -0.014928432 0.0053365165
-0.013231582 -0.016286664 -0.00043883486 0.013284326 0.005932513 0.022556238 0.01961234 -0.019112157
-0.008229324 -0.010189994 -0.014989751 -0.006398283 0.0043216613 -0.012973311 -0.015654312 0.015606104
0.0016916487 0.0039380556 0.008230732 -0.031318646 0.010213318 -0.010612802 0.014678473 -0.0064077987
-0.008613351 0.011925164 -0.0028721567 0.007000312 0.008727493 -0.018573685 -0.021346843 -0.008927361
0.000114753006 -0.004900848 0.009569704 -0.0102715995 -0.0014698185 -0.022805743 -0.01607511 -0.004257837
0.015326406 0.00077327405 -0.007894385 -0.02575828 -0.014086227 0.016148493 0.007844582 0.028277386
0.016967308 0.00639626 0.008426412 0.004814153 0.045151994 -0.0071624736 -0.029219812 -0.023736617
-0.007608216 -0.03047349 -0.04221322 0.016536823 0.012514466 0.0040412676 -0.022455355 -0.0017235697
-0.0014861268 -0.011460065 -0.011813655 0.002066973 0.004466397 -0.027421419 0.016512921 0.033515513
-0.018046543 -0.00023211911 -0.0059456746 -0.007906342 0.007609798 0.0308264 -0.006774019 -0.013978503
-0.032023676 -0.024411527 0.02225385 0.003819023 0.009537416 0.014963935 -0.0083916895 0.018999191
0.0040188953 -0.013851044 0.021361692 0.01563611 0.027623741 0.0015245018 -0.008684753 0.02186734
-0.030716315 -0.020111045 -0.015238126 0.019934572 0.0052735363 -0.038956176 0.013602142 0.014557347
-0.019080212 0.0020332045 0.009601621 -0.021969339 0.013907203 0.016669866 -0.006112649 0.0058835144
-0.008228271 -0.01300395 0.0123165585 0.018311227 0.017032906 -0.025264123 0.008078764 0.013369093
0.008902191 0.0026417829 0.0034212165 -0.02621985 -0.0013329084 -0.0068069412 0.021009488 -0.003733317
0.007860489 0.008000254 -0.011980338 -0.015984252 -0.026356215 0.008526051 0.018373447 0.008315074
-0.0014973896 -0.003953728 -0.001521196 -0.012824403 0.0019178734 -0.0025380475 0.017979404 0.0063628177
00000000: 8d0d 763c ca3b 26bc e7be 003c 57c5 093b
00000010: b75d 8a3c 1736 b83c ea0c 4d3c e950 4bbb
00000020: 1d50 243b 93c2 02bb a310 febc addc d7bc
00000030: e1eb 20bb e78b b8bc 5db3 e3bc fae6 08bc
00000040: afe1 ed3a 236d 333c 727e e53c d762 1c3c
00000050: a573 dbbc 640d 0ebd 85d2 eb3b f327 40bd
00000060: a710 d4bb 0a1c d63c 170e a8bc 4d1d f23b
00000070: 6a03 483b bb01 633b 253b da3c 4f03 783c
00000080: c22b edbb 9ba0 debc a311 58bc 8d99 06bd
00000090: 36b7 cb3b f31c 17bd c381 a23c 11fe 0e3c
000000a0: 8769 033d b19f 10bc 9f40 283d ca7c 193b
000000b0: 8bdb 45bb 7110 10ba cb64 e63b 4a68 e13c
000000c0: 6f73 d23c d5d6 4ebb 0a19 d3bc 2a38 b23c
000000d0: a075 63bc c5a4 7f3c 1289 673c 9e90 a4bc
000000e0: 7bda af3b 3643 34bc d0c1 af3b 70df 863c
000000f0: 47b7 8e3c d09e 253c 6c17 923c 6ba2 1d3b
00000100: 6bb9 54bb fbd1 2c3c 438b 223c 7ff4 8bbc
00000110: 3bba 1c3c 4bd0 39bb ec19 843c e9e1 04bd
00000120: 4ff9 bf3c 8734 f739 72bd 7bbc 4c05 b1bb
00000130: 0375 5a3a 3b1f 25bc 5379 583c be54 b23b
00000140: 5bb9 343b 8464 b43c 9bf0 0abb 0958 293b
00000150: 6772 debc c1b4 84b7 cae3 cfbc ffb4 7abb
00000160: 708b 5dbc f5be 063c 32bc 55bc 1444 8f3b
00000170: 177a dcbc e7af bf3c 62bd 033c e78d 6abc
00000180: 2926 2ebd bf76 35bc 6442 8e3c 8546 b039
00000190: 4d84 5ebc e3f5 88ba 3f2f 87bc 22a9 263c
000001a0: 992e 8b3b 374e 22bd bf13 6d3b dfb5 493c
000001b0: c2f1 d0bc 5f16 6a3c 6296 74bc f2dd ae3b
000001c0: 47c9 58bc 9c6b 85bc 6b13 e6b9 80a6 593c
000001d0: 8765 c23b dcc7 b83c 0faa a03c 1991 9cbc
000001e0: 49d4 06bc eff3 26bc 9397 75bc b0a8 d1bb
000001f0: b99c 8d3b 038e 54bc 793d 80bc bfb0 7f3c
00000200: 50ba dd3a ce0a 813b 31da 063c fb47 00bd
00000210: c355 273c 51e1 2dbc fa7d 703c 83f8 d1bb
00000220: 031f 0dbc c361 433c cb3a 3cbb e062 e53b
00000230: c2fd 0e3c d727 98bc 93df aebc 1144 12bc
00000240: 8da7 f038 4b97 a0bb 3fca 1c3c 364a 28bc
00000250: eda6 c0ba 1cd3 babc f3af 83bc 5385 8bbb
00000260: 9b1b 7b3c 8bb5 4a3a 7357 01bc 0703 d3bc
00000270: ebc9 66bc d849 843c 9086 003c faa5 e73c
00000280: 06ff 8a3c b897 d13b ef0e 0a3c 0bc0 9d3b
00000290: 4cf1 383d 2fb3 eabb 635e efbc 4b73 c2bc
000002a0: 574e f9bb 8aa3 f9bc c5e7 2cbd 3b78 873c
000002b0: 7a09 4d3c 9c6c 843b 4bf4 b7bc 67e9 e1ba
000002c0: 24ca c2ba ffc2 3bbc 0f8e 41bc 0d76 073b
000002d0: db5a 923b e2a2 e0bc 1b46 873c 9047 093d
000002e0: 58d6 93bc 0065 73b9 efd3 c2bb 9a89 01bc
000002f0: 9d5b f93b a587 fc3c 97f8 ddbb 1706 65bc
00000300: 422b 03bd affa c7bc b54d b63c 9348 7a3b
00000310: d242 1c3c 4b2b 753c 4c7d 09bc 31a4 9b3c
00000320: f0b0 833b 7def 62bc b7fe ae3c 4d17 803c
00000330: 2f4b e23c cbd1 c73a 7f4a 0ebc 2323 b33c
00000340: c8a0 fbbc ebbf a4bc 55a9 79bc d44d a33c
00000350: a1cd ac3b 8390 1fbd 85db 5e3c f081 6e3c
00000360: 1b4e 9cbc 833f 053b 1e50 1d3c 0bf9 b3bc
00000370: 0adb 633c 3e8f 883c 9e4c c8bb 7fca c03b
00000380: dfcf 06bc 850e 55bc 64cb 493c 6d01 963c
00000390: 9888 8b3c b5f6 cebc cb5c 043c 0a0a 5b3c
000003a0: 7fda 113c c321 2d3b 7d36 603b 03cb d6bc
000003b0: fcb4 aeba c30c dfbb 171c ac3c aaaa 74bb
000003c0: 48c9 003c 7f13 033c 2e49 44bc 68f1 82bc
000003d0: fde8 d7bc dab0 0b3c e983 963c f33b 083c
000003e0: 0f44 c4ba 468e 81bb de62 c7ba 721d 52bc
000003f0: 2761 fb3a 5f55 26bb 8b49 933c 2f7f d03b

action_model._continuous_distribution.mu.bias f4 [2]
0.0 0.0
00000000: 0000 0000 0000 0000

action_model._discrete_distribution.branches.0.weight f4 [1, 128]
0.0003311326 -0.011883985 -0.008889637 -0.010217066 -0.0068794857 -0.0052390285 0.0034408018 0.014671179
0.001838242 -0.014993194 -0.004442478 -0.0012054449 0.01197942 0.0036554188 0.011616125 0.009746759
0.013454609 0.011050607 0.008544154 0.001580533 0.01150221 -0.012796757 -0.0050737024 -0.010319221
0.006137152 0.011736702 -0.020220242 -0.00755202 0.00017813161 -0.009251223 -0.020478 -0.005216341
0.00095846195 0.00986766 -0.0016007405 -0.006182831 -0.006172944 0.0038977303 0.010495784 -0.012890545
0.008644724 0.0068361736 0.0014705142 -0.005546676 -0.0014074071 0.00940518 -9.2253635e-05 0.019425048
0.0060275174 -0.0016824947 -0.011747053 -0.0014232144 0.021823132 0.009615418 -0.00022439026 0.015473953
0.006705455 0.01016255 0.010223201 0.0054651415 0.016861884 -0.0054817735 0.0048886724 0.0075856843
-0.004902323 0.0059694336 -0.001460466 0.013019815 0.004439338 -0.010369572 -0.020069452 0.012086906
0.007591902 0.011310309 -0.010028315 -0.000115624745 -0.002129781 -0.0045984625 0.0007601606 0.014046572
-0.0011346771 0.0005903484 -0.005882263 -0.0041577406 -0.00992575 0.0036497747 -0.009695016 0.0019618233
0.0012093624 -0.0047231214 0.011489107 -0.0013280166 -0.0027780791 0.009925958 0.00055482297 -0.0010997973
0.017150369 -0.009603175 -0.00242448 -0.0108740805 -0.017178636 -0.00065880286 -0.014940375 0.002431166
-0.009119041 -0.0032476343 0.003208374 7.5714066e-05 -0.0033101279 0.014814085 0.011355734 0.0036491086
-0.008764808 -0.0065351725 7.8452795e-05 -0.007845977 0.007499655 0.0015538651 0.01597937 -0.009542136
-0.0001164704 -0.0055491044 -0.0027346255 0.016484162 -0.001365515 0.022465592 -0.0042184996 0.002598431
00000000: de9b ad39 0cb5 42bc d7a5 11bc 7b65 27bc
00000010: 4f6d e1bb 28ac abbb 137f 613b 625f 703c
00000020: 2bf1 f03a 03a6 75bc 3592 91bb 0500 9eba
00000030: 5445 443c c08f 6f3b 8f51 3e3c dfb0 1f3c
00000040: b870 5c3c 9b0d 353c c8fc 0b3c e329 cf3a
00000050: c473 3c3c 7da9 51bc 4d41 a6bb f311 29bc
00000060: 2a1a c93b 4c4b 403c eca4 a5bc ef76 f7bb
00000070: d7c8 3a39 7192 17bc 7bc1 a7bc d7ed aabb
00000080: 4b41 7b3a f7ab 213c f0cf d1ba 5899 cabb
00000090: 6846 cabb 1071 7f3b 82f6 2b3c dd32 53bc
000000a0: 9aa2 0d3c fb01 e03b 45be c03a e4c0 b5bb
000000b0: bf78 b8ba 2f18 1a3c 4b78 c1b8 4721 9f3c
000000c0: 7b82 c53b 2787 dcba b676 40bc 278b baba
000000d0: 6dc6 b23c fc89 1d3c 4d4a 6bb9 7786 7d3c
000000e0: 6fb9 db3b d380 263c 367f 273c ee14 b33b
000000f0: ef21 8a3c 73a0 b3bb 2831 a03b 5591 f83b
00000100: aaa3 a0bb 3d9b c33b 1b6d bfba 1051 553c
00000110: de77 913b 23e5 29bc b168 a4bc 2808 463c
00000120: 7dc5 f83b e04e 393c cd4d 24bc 907b f2b8
00000130: cc93 0bbb b3ae 96bb 8445 473a 9823 663c
00000140: 72b9 94ba 9cc1 1a3a 00c0 c0bb a83d 88bb
00000150: 9d9f 22bc 0f31 6f3b d8d7 1ebc ef91 003b
00000160: 7883 9e3a 6ac4 9abb cf3c 3c3c d810 aeba
00000170: 6f10 36bb 7ca0 223c 8a71 113a 1327 90ba
00000180: ee7e 8c3c a356 1dbc 06e4 1ebb 3329 32bc
00000190: 36ba 8cbc 83b3 2cba 7ac8 74bc 3254 1f3b
000001a0: 0868 15bc 43d6 54bb 9543 523b aec8 9e38
000001b0: bbee 58bb c7b6 723c 670d 3a3c e225 6f3b
000001c0: 459a 0fbc 0025 d6bb 0687 a438 6a8c 00bc
000001d0: aabf f53b 10ab cb3a 2be7 823c 9f56 1cbc
000001e0: 9241 f4b8 43d5 b5bb 6737 33bb cb09 873c
000001f0: 15fb b2ba c309 b83c 573b 8abb 704a 2a3b
