Project specific/results/ppo/JumperAgent/JumperAgent-6553.onnx (onnx, 94240 bytes, 8 tensors)

network_body._body_endoder.seq_layers.0.weight f4 [128, 44]
00000000: 419e f9bc e590 0fbd 4346 993e a7a8 233d
00000010: 8f4b 3a3d b10b 493e 335c c9bd 6f10 68bd
00000020: 3dc8 8c3e 6624 163d c071 5b3e 820e 55ba
00000030: 7353 9cbe b848 bfbe 2bdd 183d 8a73 3abe
00000040: b44e ec3d d7fb 1fbe 0d52 b9bb cfd8 1abd
00000050: d653 c4bd 7054 b33d 71b3 e3bc 4498 e5bd
00000060: bc2b bfbd 0319 0dbe c776 09bd f13c b73d
00000070: 83d2 00be 3e58 a6bd 0f7f e9bc 7ab1 79be
00000080: e0b9 6abd 1cd1 48bd 8bb3 ba3b f2f2 253c
00000090: d50f c93d 7bf2 adbd c956 c73e fce9 0c3e
000000a0: f502 60be beea a0be 11d1 21bd fd0e 233d
000000b0: 0c2d 08be 936b f1bd cb08 8ebc 60b3 733e
000000c0: 72ca 01bf 9802 1a3c 1f4f b7bd 2e70 56bd
000000d0: 2c2d 59be e111 f33d 3030 923d 4240 69bd
000000e0: a9e3 073e 5301 a93e 0109 47bd 75b1 393e
000000f0: ec13 b0be 8bff 8d3d 8374 ed3c 1411 c2bd
00000100: e7d8 70be fbbc bb3c ba6b b9bd e446 24be
00000110: 18d9 9d3e d2eb 1e3e 109a 79bd b827 303e
00000120: e300 5cbd bcec b03d 3b80 a3be 74a1 573c
00000130: 6943 9c3e 9d6b 2dbe a11d d0bd 03e1 023e
00000140: e34b 9bbe 7ba5 07be 6b3d febc e91d ad3e
00000150: c6a6 acbe dcae de3d 6d53 e73e b77b b5bd
00000160: 751c 733e c2ae 45be d816 8dbe 3c3c 163e
00000170: ea10 7ebd 7d68 5d3e bdf3 a2be dfd9 9bbc
00000180: fcf4 bc3d d934 d13c 81d4 cf3c 14d3 a33e
00000190: d861 80bc d94d 15be 7c8c 023e e342 88bd
000001a0: 63d7 81be c4b5 73bd 7e59 a1be 4744 863e
000001b0: 1882 3cbe f530 9b3d 16c0 64bd 5dd4 8a3e
000001c0: 3bc2 993d 8b6f 393d f681 563d ebb3 6cbe
000001d0: 3500 7abe 83ee 923d c890 a03e 473c 913e
000001e0: 13d7 5cbe ef50 a3be 96b9 7f3c d65a 373c
000001f0: 973d e8bb 69f6 90be 3acb 603e d7c9 6c3c
00000200: 7e44 d2bc a093 42be 2930 bb3e bd1a 4e3d
00000210: 2a5f f0bd 7981 3abc 8667 89bd 2c19 033e
00000220: 8904 43be 2607 a1bd 8ead 4c3c 7d6b 1c3e
00000230: 55aa 55bb 3b12 163d 7cd1 e03d eb64 843d
00000240: 0583 babe 71a2 1bbd d0e4 9dbd cc45 403e
00000250: 04a5 003e 3bc9 103d e038 723e 731a 803d
00000260: ed4c 473e 57e6 273b 6394 c6bc 6ecf 52be
00000270: 7845 243d 096e 6f3c 7b40 8ebe f0fa d93d
00000280: df13 07bd e975 0d3d e7f4 9e3d 7b2a 39be
00000290: b790 23be 408a a73d 31ad 433e a9b6 37be
000002a0: b17a 94be 28c4 a13d 5830 bdbd 3fec 25bd
000002b0: 7e57 2bbe 43fa b33d b5d9 b3bd 7be7 fdbd
000002c0: 6ee6 babc cb0b dc3c d40d c43e c42c 4a3d
000002d0: b601 6fbe 4ee5 78be e498 ed3d 6b34 8cbe
000002e0: 0592 68be af5f a73d 69b5 8abd 127f a1be
000002f0: 5efe 98ba 1c5a 413d c984 1f3e 9a69 4e3e
00000300: c46e 933e 95ff 8cbd a085 163d e849 44bd
00000310: 9cdb 96bd 17f3 2e3e 38a8 1a3d b13b d53d
00000320: fce2 be3e 6794 883d d535 87be f676 00be
00000330: 7d42 7cbd 01cf 2dbe e463 6a3e bdfc c6ba
00000340: c4c6 333e e286 083e 296f 2f3d b45e 22bc
00000350: 44c3 a8bd 894e 85be e59f 9cbd 9401 0bbe
00000360: 6a4f d63c c9cd 9f3b 7507 2bbd e8e9 d63d
00000370: e68d a6bc 8c73 0c3e e702 043e 0b03 483d
00000380: e3d6 6e3e 6c27 10be e130 babc 3e76 363e
00000390: 92b5 0fbd 7945 803d 8d24 0dbe 6d16 c9bb
000003a0: 7873 82be 42d6 79bd 6eb7 36be f146 483e
000003b0: 51b7 313d aba4 a6be d2f6 803d 5127 253d
000003c0: b388 d83d 42b4 8ebe 91a8 813c 162f 9fbe
000003d0: ecce 603d 1ec2 373e 429b ad3d f785 ac3d
000003e0: 6501 92bd a272 28be 03ff 0abe 5035 42bd
000003f0: 8640 38be 60ae 0c3d 6a2b d33d e39d 9abd
-0.03047097 -0.03505029 0.29936418 0.03995576 0.045482215 0.19633366 -0.09832039 -0.056656297
0.2749652 0.036655806 0.21430111 -0.0008127467 -0.30532417 -0.37360168 0.037320297 -0.18208137
0.11538449 -0.15623413 -0.005655533 -0.03780442 -0.09586303 0.087563396 -0.027795525 -0.11210683
-0.093345135 -0.13779072 -0.03356054 0.089471705 -0.12580304 -0.081222996 -0.02850297 -0.24384108
-0.05730617 -0.049027547 0.0056976727 0.010128723 0.09817473 -0.08493515 0.389334 0.13761133
-0.21876128 -0.31429094 -0.039506022 0.039809216 -0.13298434 -0.11788096 -0.017338177 0.23798895
-0.5069953 0.009400032 -0.08950638 -0.052353077 -0.21208638 0.118686445 0.07138097 -0.056946047
0.13270439 0.33008823 -0.04859257 0.181341 -0.343902 0.069335066 0.028986221 -0.09475914
-0.23520242 0.022917261 -0.0905375 -0.16042668 0.30829692 0.15519646 -0.06093794 0.17202652
-0.053711783 0.086389035 -0.3193377 0.013161052 0.3052018 -0.16935582 -0.10161901 0.12781148
-0.30331334 -0.1324672 -0.031035146 0.33811882 -0.33720988 0.108731955 0.45180836 -0.08861487
0.23741324 -0.19304946 -0.2755649 0.14671415 -0.06202785 0.2162189 -0.31826583 -0.019024787
0.092264146 0.025537895 0.025369884 0.31996977 -0.015671656 -0.14580478 0.12748903 -0.06653383
-0.2535964 -0.059499517 -0.3151359 0.26223966 -0.18409002 0.07577697 -0.05584725 0.27115145
0.0750775 0.04527239 0.052370034 -0.23115508 -0.24414141 0.07174399 0.3136046 0.283663
-0.2156642 -0.31897685 0.015608212 0.011191091 -0.00708742 -0.28312996 0.21952525 0.014452419
-0.025667425 -0.19001627 0.3656018 0.05031847 -0.11736901 -0.011383408 -0.06709199 0.12802571
-0.19044699 -0.078626916 0.012492551 0.15275379 -0.0032602747 0.03663848 0.10977456 0.06464561
-0.36428085 -0.037996713 -0.07709658 0.18776625 0.12562948 0.03534816 0.23654509 0.06255045
0.19462939 0.002561947 -0.024240678 -0.2058694 0.040105313 0.014613637 -0.2778357 0.10643566
-0.032977935 0.034536276 0.07761555 -0.18082611 -0.15973173 0.08180666 0.19109036 -0.17940773
-0.28999856 0.07898742 -0.092377365 -0.040508505 -0.16732594 0.08787968 -0.08781759 -0.12397667
-0.022814956 0.026861092 0.382918 0.049359098 -0.23340496 -0.24306223 0.11601427 -0.27383742
-0.22711952 0.08172547 -0.067728825 -0.3154226 -0.0011672487 0.047205076 0.15577997 0.20157471
0.28795445 -0.06884686 0.03674853 -0.047922045 -0.07366106 0.17084919 0.037758082 0.10411776
0.3728255 0.066689305 -0.26408258 -0.1254538 -0.061586846 -0.16973497 0.22889668 -0.0015181523
0.17556292 0.13332704 0.04283062 -0.009910274 -0.08240369 -0.2603648 -0.07647685 -0.13574821
0.026160914 0.0048768264 -0.04175516 0.10493833 -0.020331334 0.13715953 0.12891732 0.048831027
0.2332416 -0.14077538 -0.022728385 0.17818543 -0.03508527 0.06263251 -0.13783474 -0.0061367066
-0.2547872 -0.060995348 -0.1784341 0.19558312 0.043387715 -0.32547507 0.06297077 0.0403207
0.10572948 -0.278719 0.015827449 -0.3109061 0.054884836 0.17945144 0.08476879 0.08423989
-0.07129172 -0.16449979 -0.13573842 -0.047414124 -0.17993364 0.034345984 0.10311015 -0.07549646

network_body._body_endoder.seq_layers.0.bias f4 [128]
00000000: 0000 0000 0000 0000 0000 0000 0000 0000
00000010: 0000 0000 0000 0000 0000 0000 0000 0000
00000020: 0000 0000 0000 0000 0000 0000 0000 0000
00000030: 0000 0000 0000 0000 0000 0000 0000 0000
00000040: 0000 0000 0000 0000 0000 0000 0000 0000
00000050: 0000 0000 0000 0000 0000 0000 0000 0000
00000060: 0000 0000 0000 0000 0000 0000 0000 0000
00000070: 0000 0000 0000 0000 0000 0000 0000 0000
00000080: 0000 0000 0000 0000 0000 0000 0000 0000
00000090: 0000 0000 0000 0000 0000 0000 0000 0000
000000a0: 0000 0000 0000 0000 0000 0000 0000 0000
000000b0: 0000 0000 0000 0000 0000 0000 0000 0000
000000c0: 0000 0000 0000 0000 0000 0000 0000 0000
000000d0: 0000 0000 0000 0000 0000 0000 0000 0000
000000e0: 0000 0000 0000 0000 0000 0000 0000 0000
000000f0: 0000 0000 0000 0000 0000 0000 0000 0000
00000100: 0000 0000 0000 0000 0000 0000 0000 0000
00000110: 0000 0000 0000 0000 0000 0000 0000 0000
00000120: 0000 0000 0000 0000 0000 0000 0000 0000
00000130: 0000 0000 0000 0000 0000 0000 0000 0000
00000140: 0000 0000 0000 0000 0000 0000 0000 0000
00000150: 0000 0000 0000 0000 0000 0000 0000 0000
00000160: 0000 0000 0000 0000 0000 0000 0000 0000
00000170: 0000 0000 0000 0000 0000 0000 0000 0000
00000180: 0000 0000 0000 0000 0000 0000 0000 0000
00000190: 0000 0000 0000 0000 0000 0000 0000 0000
000001a0: 0000 0000 0000 0000 0000 0000 0000 0000
000001b0: 0000 0000 0000 0000 0000 0000 0000 0000
000001c0: 0000 0000 0000 0000 0000 0000 0000 0000
000001d0: 0000 0000 0000 0000 0000 0000 0000 0000
000001e0: 0000 0000 0000 0000 0000 0000 0000 0000
000001f0: 0000 0000 0000 0000 0000 0000 0000 0000
0.0 0.0 0.0 0.0 0.0 0.0 0.0 0.0
0.0 0.0 0.0 0.0 0.0 0.0 0.0 0.0
0.0 0.0 0.0 0.0 0.0 0.0 0.0 0.0
0.0 0.0 0.0 0.0 0.0 0.0 0.0 0.0
0.0 0.0 0.0 0.0 0.0 0.0 0.0 0.0
0.0 0.0 0.0 0.0 0.0 0.0 0.0 0.0
0.0 0.0 0.0 0.0 0.0 0.0 0.0 0.0
0.0 0.0 0.0 0.0 0.0 0.0 0.0 0.0
0.0 0.0 0.0 0.0 0.0 0.0 0.0 0.0
0.0 0.0 0.0 0.0 0.0 0.0 0.0 0.0
0.0 0.0 0.0 0.0 0.0 0.0 0.0 0.0
0.0 0.0 0.0 0.0 0.0 0.0 0.0 0.0
0.0 0.0 0.0 0.0 0.0 0.0 0.0 0.0
0.0 0.0 0.0 0.0 0.0 0.0 0.0 0.0
0.0 0.0 0.0 0.0 0.0 0.0 0.0 0.0
0.0 0.0 0.0 0.0 0.0 0.0 0.0 0.0

network_body._body_endoder.seq_layers.2.weight f4 [128, 128]
00000000: c452 b43a 4ba4 fc3d ce92 1c3e 9f0b 083e
00000010: 1574 0cbe c885 5abd a907 aa3d 3d69 263e
00000020: f7e5 363c 7078 923c 4c9f 1dbe b8c1 ef3c
00000030: 9cb2 43bd e357 0e3e 266e 9ebd 0ef0 e6bd
00000040: 4c68 a63c b190 72bd 962e 08be 51c0 92bd
00000050: d605 943d 4b83 40bc 54d0 c6bd 605b 67be
00000060: 02bf 2d3d 906a b5bb f370 e63c eb44 dabd
00000070: 6e3c e0bc f054 7e3d df00 143b a79d 01bd
00000080: 297c d7bc f825 ef3c 5728 993c 6d8c 8a3c
00000090: 0557 bf3d ef89 273e 1be8 b0bd bc6c 2fbd
000000a0: d5d9 1ebe c181 bd3d 7f20 7bbe feff 00bc
000000b0: fc4d 15bd eb30 a5bd 96e9 303b 8c9f b0bc
000000c0: 813c 993c f130 8fbc 5840 dabd 0d56 3bbe
000000d0: a9d6 59bd fd59 8b3c 9ce2 29bd 7eae 913d
000000e0: a422 593e eebe f03d 08e8 9abd a6e5 b83d
000000f0: 9ab6 babd c98b a13d 68e3 c6bc 9c61 0bbe
00000100: 1706 7e3d 992f 25bd 5437 e8bc 58d6 25bc
00000110: 8de7 e43b fcf6 0ebd bbc2 dcbd 3229 f5bd
00000120: 23f3 9dbd 1b0d 96bb a267 edbd 61bc 2ebd
00000130: 35f8 0e3e eb62 12be 550c 08be d5b2 19bd
00000140: d964 d53d 5d87 1b3d 5317 8d3d de14 c43c
00000150: 83ff 1abc cd96 e23d 52b2 cf3d dd28 1a3e
00000160: 315f 0a3c 2077 ca3d 6efc 973d 5d71 1abd
00000170: 4a63 383e e841 bd3c 1bf2 93bd bba6 00be
00000180: 3607 e0bb f8b6 f43c b0ab 1c3d b2b8 1c3e
00000190: a60c ab3d bcf7 04be c5e1 25bb 7ddf e0bd
000001a0: c47d 7b3d 90f7 6f3d 5b15 d6ba 7c2c 263d
000001b0: 2419 15bd 7904 26bd 1e33 713d 66d7 fcbc
000001c0: f7b5 113d 09b2 58bd fcb3 433e d399 99bd
000001d0: d21c ba3d b1cb 3c3d d7fe 1bbd 070d b4bd
000001e0: 3f13 ae3d d6e3 efbd a142 1fbc 9fc0 d03d
000001f0: 447e 88bd 30b2 9b3d f985 fd3d 85ef 71bc
00000200: de8b f3bd ede4 f63b fb13 723c 2539 d3bd
00000210: cd2b 743d 3654 4ebd a1f5 43bd df32 f1bc
00000220: 100e 91bc 2a6a fe3d 15c5 1d3e 1b5c 143d
00000230: e4bd 92bd d8d2 58bd d4fa d4bd 6bbc fb3b
00000240: 8fda 9dbd fe09 9139 4a44 ef3d b6a4 56bd
00000250: 0988 87bd 822a d9bd 630a cdbd a10d 0c3e
00000260: c50b a73d db7a f2bd 8e4d f5bd 55cc 5cbd
00000270: a596 b43c eecf 833e 91f0 95bc 67b7 a73b
00000280: 198e fe3a 2489 d4bb 380d 0f3d 5280 ba3d
00000290: 04ac a03d fb17 513d 6486 bf3d c526 13bd
000002a0: e247 fabb 7b13 243d 2df6 bf3a c9d9 52bd
000002b0: d5ad 2fbd 2a05 ea3c 5eae df3d 96b5 d2bd
000002c0: 69bc 1b3d d960 763c a2a0 92bd 9aaf cb3d
000002d0: 78c6 47bd 7e1d 663d 4d68 c73d 7b62 273d
000002e0: 8c53 c43d 576f 533d 1c40 b33b 138b fcbc
000002f0: ccb0 2dbe dd98 7f3d 2c99 89bc 79e4 123e
00000300: 08ab 763c 41ff 313c 46d6 5b3b 8dc1 ae3d
00000310: 69e6 d6bd 19cf 9e3d aeec 213d 8bad 55bc
00000320: 6de1 9c3d b5c6 e93d 1593 d3bc 1eea d73d
00000330: 1b00 a6bd 5382 0c3e c881 013e f15e 3fbc
00000340: 96d9 4c3c 7124 4abe ee06 93bc 7fba 903c
00000350: 33cd e73d ee5d 46bd 51cf 17be e2e0 0fbd
00000360: 0e38 93bd 27be 0a3e 759d 083d fa01 ddbb
00000370: fb6c 9a3d e1c1 cc3d 4b8e 173d a785 70bd
00000380: 73b3 84bd 1b23 603d a225 3bbd 2056 3abd
00000390: c466 00bc dd92 9e3c 42c6 023e 5351 e63b
000003a0: db82 aabd d18e 6cbd a407 07be 7119 01be
000003b0: 6f86 19be 8532 f0bc 6843 8e3d db5f e03c
000003c0: 78da 3e3d 0e28 0b3e d20b 2c3d 2652 64be
000003d0: 24cb d03d a0ca b73c 5fc0 6fbd 1a0d 30be
000003e0: f5cb 25be cca9 ef3c f2cb 90bc cf53 073d
000003f0: 0e4b 1f3d 3b92 6f3c 6cad 9e3c 84aa 5a3d
0.0013757576 0.12336024 0.15290377 0.13285683 -0.13716157 -0.05335024 0.08302242 0.16251083
0.011163226 0.017879695 -0.15392798 0.029267177 -0.047777757 0.13900714 -0.07735853 -0.112762555
0.020313405 -0.05922002 -0.13299021 -0.07165588 0.072276756 -0.011750053 -0.09707704 -0.2259345
0.042418487 -0.005536385 0.02813003 -0.10657676 -0.027372565 0.06209272 0.0022583527 -0.03164449
-0.026304321 0.02919291 0.018695993 0.016912663 0.093427695 0.16361211 -0.086380206 -0.042828307
-0.15512784 0.09253264 -0.24524115 -0.007873533 -0.036451325 -0.08065971 0.0026994697 -0.021560453
0.018705608 -0.017479392 -0.10656804 -0.18294545 -0.05318323 0.017010683 -0.041475877 0.0711336
0.2120462 0.11755167 -0.07563788 0.09028177 -0.0911686 0.0788799 -0.024278358 -0.13611454
0.062017526 -0.040328596 -0.028346695 -0.010121904 0.006985611 -0.03490351 -0.107793294 -0.11970748
-0.0771239 -0.004579199 -0.11592032 -0.04266012 0.13961871 -0.14295547 -0.13285954 -0.037524063
0.10419626 0.03797089 0.06889214 0.023935732 -0.009460333 0.11063919 0.10141434 0.1505465
0.008445547 0.098860025 0.07421194 -0.037705768 0.18006626 0.023102716 -0.07223912 -0.12563603
-0.006836797 0.029872403 0.03824967 0.1530483 0.08352022 -0.12985128 -0.002531157 -0.10980127
0.061399236 0.058585703 -0.0016333269 0.040569767 -0.03640093 -0.04053161 0.05888664 -0.030864429
0.035573926 -0.052904163 0.19111627 -0.07500043 0.09087528 0.046092693 -0.03808483 -0.08791547
0.08499765 -0.11713378 -0.009720475 0.101929896 -0.06664708 0.07602346 0.12379069 -0.014766579
-0.11891912 0.0075346143 0.0147752715 -0.10313634 0.059612084 -0.05037328 -0.04784167 -0.029443203
-0.0177069 0.12422593 0.15407212 0.03622065 -0.07165125 -0.05293545 -0.10399404 0.0076823733
-0.07707702 0.00027664 0.11682947 -0.052403174 -0.066177435 -0.10603811 -0.10011747 0.13677074
0.08156542 -0.11839839 -0.11977683 -0.053905804 0.02204449 0.25744575 -0.018303188 0.005118299
0.001942101 -0.006486075 0.034924716 0.091065064 0.078453094 0.05104826 0.09351805 -0.035925645
-0.0076379636 0.04005764 0.001464551 -0.051477227 -0.04289039 0.028566916 0.1092193 -0.10288541
0.03802148 0.015037739 -0.071595445 0.09945603 -0.04877326 0.05618047 0.09736691 0.040865403
0.09586248 0.051619854 0.005470289 -0.030828035 -0.16961974 0.06240164 -0.01679667 0.14344968
0.015055425 0.01086408 0.0033544465 0.08533011 -0.10493166 0.077543445 0.039532356 -0.013041864
0.07660184 0.114148535 -0.02582697 0.10542701 -0.08105489 0.1372159 0.12647164 -0.011680351
0.012503048 -0.19740464 -0.01794764 0.017667053 0.113184355 -0.048429422 -0.14825179 -0.035126574
-0.07188426 0.135491 0.033353288 -0.0067446204 0.075403176 0.09997917 0.037000936 -0.05872121
-0.0647954 0.05472098 -0.045690186 -0.04549229 -0.007837001 0.01935714 0.12770942 0.0070287376
-0.0832574 -0.057753388 -0.13186508 -0.12607361 -0.14992689 -0.029320965 0.069464505 0.027389457
0.046595067 0.13589498 0.04200346 -0.22296962 0.10194996 0.022435486 -0.05853307 -0.17192498
-0.16191085 0.02925577 -0.017675374 0.03303891 0.038889937 0.014622266 0.019369803 0.053385273

network_body._body_endoder.seq_layers.2.bias f4 [128]
00000000: 0000 0000 0000 0000 0000 0000 0000 0000
00000010: 0000 0000 0000 0000 0000 0000 0000 0000
00000020: 0000 0000 0000 0000 0000 0000 0000 0000
00000030: 0000 0000 0000 0000 0000 0000 0000 0000
00000040: 0000 0000 0000 0000 0000 0000 0000 0000
00000050: 0000 0000 0000 0000 0000 0000 0000 0000
00000060: 0000 0000 0000 0000 0000 0000 0000 0000
00000070: 0000 0000 0000 0000 0000 0000 0000 0000
00000080: 0000 0000 0000 0000 0000 0000 0000 0000
00000090: 0000 0000 0000 0000 0000 0000 0000 0000
000000a0: 0000 0000 0000 0000 0000 0000 0000 0000
000000b0: 0000 0000 0000 0000 0000 0000 0000 0000
000000c0: 0000 0000 0000 0000 0000 0000 0000 0000
000000d0: 0000 0000 0000 0000 0000 0000 0000 0000
000000e0: 0000 0000 0000 0000 0000 0000 0000 0000
000000f0: 0000 0000 0000 0000 0000 0000 0000 0000
00000100: 0000 0000 0000 0000 0000 0000 0000 0000
00000110: 0000 0000 0000 0000 0000 0000 0000 0000
00000120: 0000 0000 0000 0000 0000 0000 0000 0000
00000130: 0000 0000 0000 0000 0000 0000 0000 0000
00000140: 0000 0000 0000 0000 0000 0000 0000 0000
00000150: 0000 0000 0000 0000 0000 0000 0000 0000
00000160: 0000 0000 0000 0000 0000 0000 0000 0000
00000170: 0000 0000 0000 0000 0000 0000 0000 0000
00000180: 0000 0000 0000 0000 0000 0000 0000 0000
00000190: 0000 0000 0000 0000 0000 0000 0000 0000
000001a0: 0000 0000 0000 0000 0000 0000 0000 0000
000001b0: 0000 0000 0000 0000 0000 0000 0000 0000
000001c0: 0000 0000 0000 0000 0000 0000 0000 0000
000001d0: 0000 0000 0000 0000 0000 0000 0000 0000
000001e0: 0000 0000 0000 0000 0000 0000 0000 0000
000001f0: 0000 0000 0000 0000 0000 0000 0000 0000
0.0 0.0 0.0 0.0 0.0 0.0 0.0 0.0
0.0 0.0 0.0 0.0 0.0 0.0 0.0 0.0
0.0 0.0 0.0 0.0 0.0 0.0 0.0 0.0
0.0 0.0 0.0 0.0 0.0 0.0 0.0 0.0
0.0 0.0 0.0 0.0 0.0 0.0 0.0 0.0
0.0 0.0 0.0 0.0 0.0 0.0 0.0 0.0
0.0 0.0 0.0 0.0 0.0 0.0 0.0 0.0
0.0 0.0 0.0 0.0 0.0 0.0 0.0 0.0
0.0 0.0 0.0 0.0 0.0 0.0 0.0 0.0
0.0 0.0 0.0 0.0 0.0 0.0 0.0 0.0
0.0 0.0 0.0 0.0 0.0 0.0 0.0 0.0
0.0 0.0 0.0 0.0 0.0 0.0 0.0 0.0
0.0 0.0 0.0 0.0 0.0 0.0 0.0 0.0
0.0 0.0 0.0 0.0 0.0 0.0 0.0 0.0
0.0 0.0 0.0 0.0 0.0 0.0 0.0 0.0
0.0 0.0 0.0 0.0 0.0 0.0 0.0 0.0

action_model._continuous_distribution.log_sigma f4 [1, 2]
00000000: 0000 0000 0000 0000
0.0 0.0

action_model._continuous_distribution.mu.weight f4 [2, 128]
00000000: dc7d 1bbd 0356 6abc f830 01bc 8902 be3a
00000010: 8882 5bbc 4f12 d5bb d7fc 05bc ea98 28bc
00000020: dbb9 2d3c 3f3e aa3c 94b3 b53c c7cc 6cbc
00000030: 6329 8ab9 fe6b a33a 2ff9 cd3c 1692 3d3a
00000040: 1c5b 973c 694f 19bc ed5c abba 2fe6 713c
00000050: ccb9 c33a e232 b03b 909a 99bc 26c4 0f3d
00000060: 6c4a 35bc b370 603c 4a28 293c 45a6 833c
00000070: bc4d 283d da00 073c e21b 193c 1941 bcbb
00000080: 2333 483c 356b 33bd 83c7 30bc 4ba5 303c
00000090: ef51 963b b748 c83b 9d0e 8a3b 0048 e7bc
000000a0: 0b2f cfbc f0b9 5a3c 5e0e 09bc e3cd 563a
000000b0: 75af 933c 4804 cdbb d543 5b3c 9d79 08bd
000000c0: 236d 70bc dbc7 07bc 1e02 35bb 167d 243a
000000d0: 1efa 92bc 4d19 923c 6bde 883b 4d70 113b
000000e0: c7f3 6dbb 7900 12bd 09aa a13c 3921 14bc
000000f0: 930e 86bc 115e 2abc cf80 46bc 7867 f5bb
00000100: 2112 8b3b 93a3 2e3c 1d28 a2bc eddf a1bb
00000110: 0f9e 2b3c 9182 423c 078e 30bc 93e5 893b
00000120: 7391 4f3c 43a7 c23b c74e f03c 0d1a 69bc
00000130: 4b18 d8bc f427 c7bb d0a6 cdbc d8e0 123c
00000140: 6db6 58bd 7737 f23c cb7a 4b3c ebc4 2e3c
00000150: 4138 473c 33f9 ac3b f068 aabc 533a 26bb
00000160: 03d0 b03c f041 bf3b b8b3 cdbc 008b 953c
00000170: 00cf 12bc c190 14bd b801 db3c 88de 8a3c
00000180: f667 1e3d 47ff 4c3b 1485 89bc c311 503c
00000190: 1390 da3b 23f2 a23b 58a9 733c b3e0 8c3c
000001a0: b95b b83c 2714 95bc 185e b4bb 96eb 883b
000001b0: 37ea 313c aa2c 52bc 97b9 1f3c a30c 7f3c
000001c0: 6fdd a03c efdf 68bc bf2a febb bd0b 583c
000001d0: 9f2d 4fbb 7238 6ebc 816c 29bc 4248 8ebc
000001e0: 4d32 d43c 543a 99ba f5f8 dc3c a6b2 373c
000001f0: fc00 22bc 4c57 afbc 7fea 77bc 607e 65ba
00000200: f696 b4bc 1f78 3abc 67e7 77bc a07b 543a
00000210: 3bfb e73c d39a cd3c c3e8 9abc c3f9 cbbb
00000220: d825 763b 994b c1bc d2a6 85bc 602b 7439
00000230: c3c8 7a3c eef1 2fbd e9db 193a 7f68 313c
00000240: 57ba beba 49fd b7bc 3dac d9ba 867d 423b
00000250: 5232 de3c 4f48 0bbd 43d2 193c 1dee ceba
00000260: 1091 953b a4c5 38ba 92cf 58bd 9814 f3bc
00000270: afd7 fb3c 4097 653c c243 acbc 8328 a13b
00000280: b57c 873c 1f5f 90bb b8b2 1c3c bf02 cc3b
00000290: 3ed9 303b 2210 8dbb ec1f 20bc 4802 523c
000002a0: 2c90 233c 78eb 6f3c 6dd7 75bc 5727 c0bc
000002b0: 8007 f03a 3731 b7bc d736 3cbb 7832 c23b
000002c0: 705a bb3c 7715 7a3c 7d72 debc e593 d3bc
000002d0: bfb8 4fbc 4f5d 823a 6203 94bc e784 503b
000002e0: 25fd 013d 9224 e6ba 0564 bbbc e4b6 a23c
000002f0: f792 19bb cee3 823c e7c6 013d 9e05 a7bc
00000300: 87cb 79bc c05d 3abc 5f10 183d a7ea d3bc
00000310: e361 e93b 7dc3 70bc 8c5f aabc c7eb 583c
00000320: 4155 a1bc 7100 25bd 6189 19bc 3bf3 77bc
00000330: 44bd 94bc d709 20bc 4712 b0bb 1a43 b83c
00000340: ab3c 203c 8b2e 08bc 7be7 8abc ebfa b03c
00000350: ce10 be3b e886 d0bb 78f1 aa3b e349 ee3a
00000360: 1f0c 4b3c 7747 babc 42d6 6bbc 20a8 dabc
00000370: 475a 443c 106d f5bc f58d d23b 71ee 8c3b
00000380: 207f d5bc 9f55 0cbb 7b9f abbc f9cc c0bc
00000390: cf6d d83a 42c3 e43b 2284 7a3c 9e2b b3bc
000003a0: eb5a a13c 0a00 553d aabb 61bc 90e3 93bb
000003b0: 1752 17bc 7871 b9bc 02da f2bc 9183 1cbb
000003c0: a0ac 10bd 0e20 84bc 1212 1cbc e846 563b
000003d0: 483c e5bc ce8c 8b3a bf11 483c 865d 88bc
000003e0: 1f5b bc3b 4407 a33c ebe4 6abc d70e 993b
000003f0: 5f7b 0c3c 2a9a ce3c cf97 b13c e757 f5bc
-0.037961826 -0.014302733 -0.00788521 0.0014496605 -0.01339782 -0.0065024267 -0.0081779575 -0.010290364
0.010603393 0.020781634 0.022180356 -0.01445312 -0.00026352247 0.0012468097 0.025143234 0.00072315463
0.018476062 -0.009357312 -0.0013073959 0.014764353 0.0014932691 0.0053771595 -0.018750459 0.03509917
-0.011065107 0.013698745 0.010324547 0.016070494 0.04108976 0.008239949 0.009345027 -0.005745065
0.012219223 -0.043803412 -0.010789755 0.010781596 0.004587404 0.006112184 0.004213168 -0.028232574
-0.025290987 0.013349995 -0.008365242 0.00081941317 0.018028 -0.006256614 0.013382872 -0.033319104
-0.014674458 -0.008287395 -0.002761967 0.0006274743 -0.01794153 0.01783433 0.004176905 0.002219218
-0.0036308633 -0.035644982 0.0197344 -0.009041124 -0.016364371 -0.010398404 -0.012115671 -0.007489141
0.0042441045 0.010659116 -0.019794518 -0.004940024 0.010474696 0.01187195 -0.010776049 0.0042082756
0.012668955 0.0059403493 0.029334439 -0.014227402 -0.026378771 -0.006077761 -0.025103956 0.00896474
-0.05290835 0.029567463 0.012419413 0.010667066 0.012159408 0.0052787303 -0.020801991 -0.0025364354
0.021583563 0.005836718 -0.02511011 0.018254757 -0.008960485 -0.03627086 0.026734218 0.016951814
0.038673364 0.0031280087 -0.01678709 0.012699547 0.006670007 0.0049727126 0.014871918 0.017196989
0.022504674 -0.018198086 -0.005504381 0.0041784747 0.010859064 -0.012828032 0.009748838 0.015566978
0.019636838 -0.014213546 -0.0077565606 0.013186392 -0.0031612886 -0.014539825 -0.010340811 -0.01736844
0.025902892 -0.0011690357 0.02697418 0.011212027 -0.00988793 -0.021403931 -0.015131592 -0.0008754488
-0.02204464 -0.011381178 -0.015130854 0.000810558 0.028318038 0.02509824 -0.018909818 -0.0062248423
0.0037559178 -0.023595618 -0.016314898 0.00023285812 0.015306654 -0.04295533 0.0005869256 0.0108281365
-0.0014551383 -0.022459643 -0.0016607117 0.0029676869 0.027123604 -0.034004506 0.009388509 -0.0015787516
0.004564412 -0.0007048494 -0.05293233 -0.029672906 0.030742494 0.014013112 -0.021028403 0.0049181595
0.016538957 -0.0044058706 0.009564094 0.0062259133 0.0026984955 -0.0043049017 -0.009773236 0.012817927
0.009983104 0.0146435425 -0.015004975 -0.023456259 0.0018312782 -0.022362335 -0.002871921 0.0059264265
0.022870272 0.015263907 -0.027154202 -0.025827358 -0.012678324 0.0009946021 -0.01806802 0.0031817497
0.031735558 -0.0017558506 -0.022874841 0.0198626 -0.0023433545 0.015977766 0.03168383 -0.02038842
-0.015246279 -0.011374891 0.037124988 -0.025868727 0.0071222647 -0.014695046 -0.020797513 0.013239807
-0.019693973 -0.040283624 -0.009371133 -0.015133674 -0.018156655 -0.009767971 -0.0053732726 0.022492934
0.009780089 -0.008311878 -0.016956082 0.021604022 0.005800343 -0.0063637383 0.0052167736 0.0018179979
0.012393027 -0.022739155 -0.014394345 -0.026691496 0.011984414 -0.029959232 0.006425614 0.0043008854
-0.026061594 -0.002141334 -0.02095007 -0.023535239 0.0016512218 0.0069812844 0.015290292 -0.021871384
0.019696673 0.05200199 -0.013777653 -0.0045132115 -0.00923588 -0.022637114 -0.02964497 -0.002388213
-0.035320878 -0.016128566 -0.009525793 0.0032696072 -0.027982846 0.0010646821 0.012211262 -0.016646158
0.005748167 0.019900925 -0.014336805 0.0046709585 0.008574336 0.025219996 0.021678833 -0.029949142

action_model._continuous_distribution.mu.bias f4 [2]
00000000: 0000 0000 0000 0000
0.0 0.0

action_model._discrete_distribution.branches.0.weight f4 [1, 128]
00000000: 3a1b 9ebb 4339 6b3b 5bec da3b d6bf 37bb
00000010: abc5 973c 00c0 66ba 4ee6 483c 6a23 2e3b
00000020: affc 383b ca46 dcbb 5322 18bc a78c 673b
00000030: 76f4 87ba f81e f63b 5c6c 9f3b ebcb 2abc
00000040: 83b7 f6bb 4205 c63b fc2d 393c 8366 e1bb
00000050: 48b3 953b c92c 253c 73e4 223b 6bac 253c
00000060: 40f8 983b 832b 44bc bb63 3c3c 7751 bdba
00000070: c523 7abc f52a 053b c003 8b3c f453 b6b9
00000080: fbe6 a43b dba5 3ebb ba79 efbb adfd c03b
00000090: 08f1 353b a9d5 3b3a fb0f 50bc a774 5abc
000000a0: c097 0039 2ad4 9a3b adf8 6bba b57f 84bb
000000b0: f478 22bc 00fe 4e3b 8243 3abc 727c df3a
000000c0: 3726 4f3a 4db8 6f3c 933a 8bbb c1d9 1cbc
000000d0: f2d0 92bb 8b07 93b9 2301 e2bb 792d 1ebb
000000e0: a199 3ebc 2b56 fb3b b592 a9bc 67c3 e4ba
000000f0: e574 9b3b 9591 9eba 8351 093a e2a8 0d3c
00000100: 28fa 99bc a8e5 d83b 2fed 98ba 13d4 b93a
00000110: 2acb 0b3c e5f6 c5ba 698e a2bb 4ad3 de3b
00000120: 3736 afbb 3732 6ebc f87b 95bc f32d b7bb
00000130: 2ba0 23bc 5f81 083a 189c 513b 3114 45bc
00000140: 57ed 8b3b 0fc8 de3b 2fc9 1b3c 211e 1fbc
00000150: 38bf 713a eab7 01bb 1648 293c 0bc9 47bc
00000160: 8f25 b63b b89b 7fbc 003d e5bb 139f 2abc
00000170: 67e0 0dbb 25bb 3bbb 9bfa 0e3b 2517 213b
00000180: fd72 f7bb 4d73 bebb 4329 6d3a 6a69 1dbb
00000190: f8b8 6f3c 3640 043c cb46 b53b c327 443c
000001a0: 27d3 123b 9e9c 23bc 6a1c fcbb 89e2 96bc
000001b0: 5111 8ebb 6d15 ac3b 9508 08bb 1b78 51bc
000001c0: 8246 a4ba 18a0 6cbc fb54 2abc cf8b 9dbc
000001d0: 4020 87bb 6b94 cfbb 08ad 20bc d569 3f3c
000001e0: 9878 333c 1c1d 4a3c 2f5b b53b fc01 253c
000001f0: 8ac1 0a3c e8b3 b03b 0a2c d4bb d729 f3bb
-0.004825023 0.0035892285 0.006681008 -0.0028037927 0.018526873 -0.0008802414 0.01226194 0.0026571401
0.0028226783 -0.006722306 -0.009285527 0.0035331638 -0.0010372538 0.007511016 0.0048652124 -0.010424594
-0.0075292005 0.0060431072 0.011302467 -0.0068786754 0.004568491 0.010081478 0.0024855405 0.010111908
0.0046682656 -0.011973265 0.011498387 -0.0014443834 -0.015267317 0.0020319794 0.016969562 -0.00034776295
0.005032418 -0.0029090557 -0.007308212 0.0058896155 0.0027762074 0.0007165322 -0.012699123 -0.013333476
0.00012263563 0.004724999 -0.0009001594 -0.004043544 -0.009916533 0.0031584501 -0.011368634 0.0017050637
0.0007902118 0.014631343 -0.004248926 -0.009573401 -0.0044804746 -0.00028043645 -0.006897108 -0.002413599
-0.011633308 0.007670184 -0.020699838 -0.0017453254 0.0047441595 -0.001209783 0.00052382814 0.008646222
-0.018796042 0.006619174 -0.0011667366 0.0014177583 0.008532325 -0.0015103488 -0.0049608243 0.00680009
-0.005347039 -0.014538339 -0.01824759 -0.0055901944 -0.0099869175 0.0005207266 0.0031983908 -0.01202874
0.0042702365 0.006798751 0.009508415 -0.009711773 0.0009221914 -0.001979346 0.010332128 -0.0121939285
0.0055586766 -0.015601091 -0.006995797 -0.010413903 -0.0021648647 -0.0028645482 0.0021816853 0.0024580446
-0.0075515495 -0.005812085 0.0009046981 -0.002401913 0.014631502 0.00807195 0.005532121 0.011972371
0.0022403689 -0.009986071 -0.007693817 -0.018418567 -0.0043355604 0.0052515776 -0.0020757068 -0.012784983
-0.001253322 -0.014442466 -0.0103962375 -0.019231705 -0.0041237175 -0.0063348315 -0.009806879 0.011682947
0.010954045 0.012336042 0.0055345516 0.010071274 0.008468995 0.0053925402 -0.0064749764 -0.007420759
