Project specific/results/ppo/JumperAgent/JumperAgent-115701.pt (torch, 557577 bytes, 39 tensors)

network_body._body_endoder.seq_layers.0.weight f4 [128, 44]
00000000: d018 aebd d9b6 793e f1a9 bdbd 3bc1 d7bd
00000010: 7a92 7ebe 2342 a93e c0cc 67be 0e8c d63c
00000020: 989e f2bd 7cc6 19bd 9c0e af3d 3705 543e
00000030: 2e72 95be 8f66 293e dbe7 3f3e ab50 cebd
00000040: b582 a4be c09c 0e3e 2be9 36be 2c90 973d
00000050: b4f6 563e 67da b8bd 83de 7b3d 9f96 6d3e
00000060: 91d6 323d c1ff 2e3e d0a2 4a3b dd64 3dbd
00000070: ac1d a5bd 8444 91bd a76d 41be 8ca4 8b3d
00000080: be70 0f3e 1e6f 743e 978c 833e 1aee 333d
00000090: c160 c03d 918b 0fbe 1084 f1bb d0d8 44bd
000000a0: deff 0c3e c797 8ebd d1c9 b9bb 2222 b5bd
000000b0: 9bfb f43d 5f21 23be 1aa5 9fbd 83e4 4f3d
000000c0: 32da 793e ded6 8f3b 2b78 cebd b3e5 0ebe
000000d0: 8d23 1d3e 9685 c03d d6d8 3ebe ffef f03d
000000e0: 77d1 62be 7f0e 493d 7239 973d c78a 08bd
000000f0: e894 523e decf 4e3e 9587 0f3d db57 a9bd
00000100: 6a5e 473e 77e1 4cbe e6ed b43d d045 39be
00000110: df63 9dba 2649 32bd acca 2f3e da38 dcbd
00000120: 5cac d4bd dbf8 c63d 1f1a 9c3e 558b ae3e
00000130: 45e7 9d3d 890d 4cbe ed1b 0fbe 0298 fa3b
00000140: ee02 a63d 0856 a0bd 5e63 453e c950 e33b
00000150: 4a15 f23c 432f 03be aa8c a5bd 9685 a13c
00000160: ae4a 2e3d ba59 09be 6f7e 7ebe bc2c b0bc
00000170: d49e e9bc 83b5 5c3c 201c 5abe b06a 173e
00000180: d1eb 3e3d 4788 21bc ec2e 283e fa08 203d
00000190: d5d4 c4bd 83c0 a13c ab7c efbd ec21 b9be
000001a0: b880 febd 13ef a5bd 8ee1 863d b8fb 77bd
000001b0: 62e4 a33d 5f57 8a3e f4ff 52bc 61f9 953e
000001c0: a81f 81be 052b ae3c 7344 66b9 643b 86be
000001d0: 7fad 44be 7a83 f83d 8b9a 0dbe f3bb 8f3c
000001e0: 5df0 6abd b161 25be 7567 c9bd 5e49 8bbe
000001f0: 4748 6d3e 9b54 63bd 8d8b 51be c27a 0cbe
00000200: 440f 3f3d 8c31 03be cf82 b43b 1c12 083e
00000210: 5254 383c 6715 c83e 7d42 d53d e1af 1d3d
00000220: 3dfa 313e b1fa db3d cc4b 533e bd3f cdbd
00000230: 76c4 b9bd 37a7 9cbc 8409 0d3e 142d 4bbd
00000240: a8e5 103d 1dfe d53d ba38 883e 498d 213e
00000250: 20e2 273e e036 44bc 4d2a 0f3e 2fde 5fbe
00000260: 6519 e8bd 5f8f 55be e102 67be 5340 7fbb
00000270: 6339 9a3d de3e 143e 7c45 b2be a626 f8bc
00000280: f550 74be 7f25 a8be 2d06 9b3c 1b5f e33c
00000290: 44fc ebbd 05ed 6d3d 0273 2f3c e842 113e
000002a0: 7015 9ebd c81a a43d 25b8 f13d 295e 27bd
000002b0: fed9 26be 8678 443d 5bf2 cbba c072 04bd
000002c0: 5ebe 643d 5806 d93d 02ae f139 bad2 40be
000002d0: ab34 24bd d54f 86bd 30ee a63c be5e e23d
000002e0: 6889 8ebc da8b 42bd ad65 593d 0c92 163e
000002f0: 26a3 693d 2849 c3bd 9a38 593c 244c a13d
00000300: 45b0 2dbe e58d 16be 954d 353e 5a3d 8bbb
00000310: 8646 483c 2cf2 333e 335c 8f3d 416e dabe
00000320: 3004 963d c04c d4be d6e5 45be 9c76 1c3e
00000330: 92d6 3ebe b169 263d 5377 a0bb c7d5 a1bd
00000340: 6f77 29be ee6e 39be d7c0 c3bd a334 bd3d
00000350: 5f21 3b3b ab44 13bd d365 dbbd 8216 10be
00000360: 38a0 10bd 63f8 49bd 3ad1 31bd 75ef ab3e
00000370: ddbc 5fbe 40ed b2bd b461 4e3e bbaf fbbd
00000380: 81a2 84bd 1f2e 90bd c015 fbbd a3a0 953e
00000390: f6f6 75be c245 81be a8e7 3a3d caf8 f5bc
000003a0: 8662 b0be 2aff 8a3e d457 1f3e 9903 0abe
000003b0: a9c8 83bd 6ac3 0c3d cd7d 233d bba3 e63c
000003c0: c071 273e 2e69 333d dd35 1b3e 93c7 1c3e
000003d0: 167e d3bb 0e75 233e d761 82bd f9c6 49be
000003e0: 3ffd a13e 857a bd3d c2ee 673d 45e0 9e3c
000003f0: b600 c9bd 3793 eabc 595f 90bd 58b3 a8bc
-0.08500826 0.24386157 -0.092609294 -0.10534903 -0.24860564 0.3305827 -0.226367 0.02618983
-0.118466556 -0.037542805 0.085477084 0.20705114 -0.29188675 0.16543029 0.1874079 -0.1007398
-0.32130972 0.13926983 -0.17862384 0.074005455 0.20992547 -0.09026032 0.0614915 0.23201989
0.043661658 0.1708975 0.0030919798 -0.04623877 -0.080623 -0.070931464 -0.18889485 0.06818494
0.14007851 0.23870513 0.256932 0.043928243 0.09393454 -0.14018084 -0.0073704794 -0.04805833
0.1376948 -0.06962543 -0.0056698103 -0.08844401 0.119620524 -0.15930699 -0.077951625 0.050755035
0.24399641 0.004389628 -0.10081514 -0.13954811 0.15345593 0.094004795 -0.18637404 0.117645256
-0.22150217 0.04908609 0.07384004 -0.033335473 0.20564616 0.20196483 0.03504141 -0.0826871
0.1946961 -0.20007883 0.08834438 -0.18093038 -0.0012007913 -0.04352679 0.17167157 -0.10753031
-0.103844374 0.09715434 0.3048868 0.34090677 0.07710127 -0.19927038 -0.13975497 0.0076475153
0.081060275 -0.07828909 0.19276187 0.0069371206 0.029551167 -0.12810998 -0.0808347 0.019717019
0.04255169 -0.13413134 -0.24852918 -0.021505706 -0.028518118 0.01347101 -0.21299791 0.14786792
0.04661161 -0.009859151 0.1642415 0.03907106 -0.09610907 0.019745117 -0.116937004 -0.36158693
-0.12426895 -0.081022404 0.0658599 -0.060542792 0.08002545 0.27019784 -0.012878407 0.29291824
-0.25219464 0.021260748 -0.00021960009 -0.26217186 -0.19206809 0.12134452 -0.13828485 0.017545676
-0.057358135 -0.16150548 -0.09834186 -0.27204412 0.23172103 -0.055500608 -0.2046339 -0.13718703
0.046645418 -0.1281187 0.0055087577 0.13288158 0.011250572 0.3907883 0.10413072 0.03849781
0.17380615 0.10741175 0.20634383 -0.10021923 -0.09070675 -0.019122703 0.13773161 -0.049603537
0.035375267 0.10448859 0.2660578 0.15776552 0.16394854 -0.011975974 0.1398098 -0.218621
-0.113329686 -0.20855473 -0.22559692 -0.0038948252 0.07530477 0.14477107 -0.34818637 -0.030291867
-0.23859008 -0.32841107 0.018923843 0.02775531 -0.11522725 0.058087368 0.010708572 0.14185679
-0.07718933 0.080129206 0.11802701 -0.040861282 -0.16294095 0.047966503 -0.0015559898 -0.032335997
0.05584561 0.10596913 0.00046096748 -0.18830386 -0.04008929 -0.065581955 0.020377249 0.11053227
-0.017399505 -0.047496654 0.05307548 0.1470415 0.057040356 -0.09535438 0.013258124 0.07875851
-0.16961773 -0.14702566 0.17705376 -0.004249257 0.012223845 0.1757285 0.070000075 -0.42662242
0.073250175 -0.41464806 -0.19325957 0.15279621 -0.1863654 0.04062814 -0.004897037 -0.07902103
-0.16549467 -0.18108723 -0.09558266 0.09238555 0.0028553826 -0.03595416 -0.10712781 -0.14071086
-0.035309047 -0.049309146 -0.043412425 0.3358113 -0.2184939 -0.08736658 0.20154458 -0.12289377
-0.06476308 -0.07040047 -0.12260008 0.2922412 -0.2401999 -0.25248533 0.04563108 -0.030025858
-0.34450167 0.271478 0.15560848 -0.13477935 -0.06434757 0.03436605 0.039914895 0.028154245
0.16351986 0.04380148 0.15157266 0.15310507 -0.0064542396 0.15962622 -0.06366318 -0.19704808
0.31638524 0.09251884 0.05662418 0.01939405 -0.09814589 -0.02863465 -0.07049436 -0.02059333

network_body._body_endoder.seq_layers.0.bias f4 [128]
00000000: 4672 c43b 24a5 763b 595e 9fbb e7be d73a
00000010: 7d1d a4bb e3b0 26bb f856 46bb bbfa 103b
00000020: 9807 52ba 181d 02bc 302d acb9 8109 80bb
00000030: aefe c2b9 9a4d 8abc de59 2ebc 0e12 a53a
00000040: 9cbe c4b9 2783 9a3b c359 d7bb 3d11 f5b8
00000050: a7ef 3dbb 575d 06bc e223 9aba 21f6 e5bb
00000060: 01b2 663b e724 fb3b e2eb 29ba 232a aabb
00000070: a853 44bb c134 1b3b df9f de3b 2dac 88bb
00000080: 659a adb9 a399 2f3c a236 cbbb 0023 38bb
00000090: 4df8 cb3a 1bb8 113c becc adbb 6cba 343c
000000a0: fa37 d3bb 7666 853b 8a75 f93b 5c12 d6bb
000000b0: 4338 3aba e143 6a3b 85c5 35bc 4a22 87bb
000000c0: 6956 933b 9491 10bc 6a7f 313b 4f08 843b
000000d0: 1b08 e4bb 0133 84ba ca42 e2bb 5eb7 60bb
000000e0: 5dd1 71bb 33c8 bc3b 763d 91bb 032c cbbb
000000f0: f7a6 6b3b a22f d53b d298 89bb 55f3 8d3b
00000100: 9589 a2bb 2b03 c7ba 769f b3bb f21a dfbb
00000110: ff8c 343c 6ec6 b4ba aa57 243b 41ca 5b3b
00000120: 4125 9e3a 2b60 093c c03b 7b3b 4069 343c
00000130: 1027 66bb a816 1a3c 45b1 7bbb 24b8 04bc
00000140: fe57 c2b8 6a7d 813b 5014 b93b 5a10 d1bb
00000150: 95e0 50ba 97d9 273b 5557 8fbb 230d 423c
00000160: ead2 9cbb 4a08 f93b 4a11 ccbb ebd0 7539
00000170: 8c1e 74bb 042c a8bb 683a a23b 444b e43a
00000180: a243 313b e74d b0bb 20ce 0dbc 5a6d fa3b
00000190: 3a47 d13a ad41 043c ddaf 99bb 9612 c8bb
000001a0: 5cc9 793b 88d4 57ba 9695 f4ba 0f46 4aba
000001b0: 252b e73a fc87 433b 43e7 1aba c2b5 f33a
000001c0: afce bd3b 36ee 893a 633f 7fbb c697 703b
000001d0: 5f35 61bb 2828 bcba 6837 253b d493 7dba
000001e0: 35c6 a53b e8bd 313b 1520 c23b f305 733b
000001f0: 31c8 9b3b 335b a5bb 51fc cf3b 2fb9 d2bb
0.005995068 0.0037635053 -0.004863542 0.0016460092 -0.005008398 -0.0025435023 -0.003026424 0.0022122103
-0.0008011996 -0.007941507 -0.00032840064 -0.003907383 -0.00037192315 -0.016882706 -0.010641543 0.0012593882
-0.00037526048 0.0047153416 -0.0065719797 -0.00011685721 -0.0028981955 -0.008200965 -0.0011759961 -0.0070178662
0.0035201313 0.007664311 -0.00064819877 -0.0051930114 -0.002995709 0.0023682567 0.0067939605 -0.0041709156
-0.00033112164 0.010717782 -0.006201581 -0.0028097034 0.001556167 0.008893992 -0.005303948 0.011030775
-0.006445882 0.004071052 0.0076128887 -0.0065329503 -0.00071037206 0.0035746025 -0.011094456 -0.0041239606
0.004496385 -0.008823771 0.0027084001 0.004029311 -0.006958974 -0.0010086001 -0.0069049345 -0.0034288983
-0.0036898472 0.0057611703 -0.0044323755 -0.006200315 0.0035957673 0.0065059224 -0.004199126 0.004331986
-0.0049602487 -0.0015183439 -0.0054816557 -0.006808632 0.011019944 -0.0013792047 0.0025076666 0.00335373
0.0012065546 0.008384745 0.0038335174 0.011011422 -0.0035118498 0.009404816 -0.0038405221 -0.008100543
-9.267031e-05 0.003951718 0.0056481734 -0.006380123 -0.00079680356 0.0025611871 -0.0043744245 0.011843952
-0.004785885 0.007599865 -0.006227647 0.00023442849 -0.0037249653 -0.0051322 0.00495081 0.001741745
0.002704837 -0.0053803804 -0.008655101 0.0076424303 0.0015966662 0.008072299 -0.004690154 -0.0061057312
0.0038114404 -0.0008233269 -0.0018660303 -0.0007716128 0.001763676 0.0029835692 -0.00059090945 0.0018593597
0.005792461 0.0010523263 -0.0038947694 0.0036711558 -0.0034364087 -0.0014355229 0.0025210027 -0.0009673212
0.0050590285 0.002712125 0.0059242346 0.0037082403 0.0047540893 -0.005046272 0.006347217 -0.006430767

network_body._body_endoder.seq_layers.2.weight f4 [128, 128]
00000000: 69dc a6bc f6cc a93c 6406 2cbc b675 913d
00000010: f511 4fbe 0199 04be 24bc 1b3d bf00 b8bd
00000020: 64a0 17bc 14cd a6bd 05dc 473c c55c 67bc
00000030: f519 dcbd db5c 85bd 50cd c23c 8abd fe3b
00000040: c2dc 1dbd ef83 51bd e703 dc3c d3e2 2e3d
00000050: 9c44 833b c5c8 a33d 56ac 05be e3d5 193c
00000060: 35ba a83c 1362 503d 56dc 9e3d 9ace 75bd
00000070: 0a01 723c 9866 adbc 0885 563d 4676 4fbe
00000080: 2e81 d83d 5ea1 55bd a9dd 5fbd b892 42be
00000090: 9321 90bd e64b 003e 9b68 25bd d76b 163d
000000a0: af82 b53c 1610 353c 071a 5ebc ab55 bbbd
000000b0: 67b3 423e fc15 39be cd93 05be 39d0 61bb
000000c0: 347e dc3d 3f55 24bb 7114 25be 173b 4b3d
000000d0: c3d0 ae3d 4f39 e6bd a5f1 663d 9727 05be
000000e0: 0fa0 68bb 3927 4bbc 7e15 ea3d 4311 0fbe
000000f0: 32a5 3bbc dd45 8d3d 3fe8 68bd e580 e73c
00000100: de16 5f3d df4a a2bd 915c 383c 3bf4 8fbd
00000110: d795 0f3e bc42 5ebe 127a 563d 6007 193e
00000120: a91d f93d 4af0 b33d 15dd d6ba 823a b53d
00000130: 44f0 ddbd 3a7f bd3c d7fb 55bd 529f 203d
00000140: 8173 c73b 35fc f93d 3a3e d53c ad36 f63c
00000150: d1be 993d fd3a 53bd f306 053e db0c a63d
00000160: 59c9 babd 9ee5 003e e246 bdbd 7425 81bc
00000170: c466 2bbd 5a55 5bbe 7d9e eb3d c42c e1bc
00000180: 3ac7 013d da7f c63c 1337 a0bc 28e0 07bd
00000190: 4f89 063e 5a92 1b3d 4752 0a3d 9323 a03b
000001a0: 0563 203e 80e2 0ebe d265 173d 7cd8 633b
000001b0: decb 793b f9e0 573e 2a80 61bd 8f27 cf3d
000001c0: 38c9 023e bcff 503e 1ee5 5fbd 5a6f 083e
000001d0: a73e 62bd 51ed b03c b051 4dbd e089 3c3d
000001e0: 2c37 0d3d d1aa c0bd ca32 0f3d 5cf8 733c
000001f0: fb2c 9ebd f6e6 b6bd 6380 2bbd 44cb 6cbe
00000200: f73a e1bd c33f 413d 48fa d3bd 6606 343d
00000210: dc14 9fbc a277 303e 787a 133d 90e2 0ebd
00000220: 095e 1b3d a128 f6bc c98e 3cbd 58d8 1ebd
00000230: 46f1 c63d dfcf 2a3d d26c 27bd e3ae 103d
00000240: 1891 58bc 21ff 79bd 97ec 63bd 5fc9 a93c
00000250: 1957 ec3c 65fa b5bc 8f37 9e3d d0bd a53d
00000260: f593 363e 82e8 163e ae11 ddbd e8f9 773d
00000270: 73b1 94bd 7672 adbc e411 c6bc dfa3 023d
00000280: 813b c9bd 206a 66bd d60b efbc 81c4 edbd
00000290: f56f 883c 1101 88bc 04ad 013e a895 09bc
000002a0: 1109 a83d 2d25 76bd 3729 fd3d 0c31 a4bd
000002b0: f704 66bd 1f02 5abc d089 813c 06c0 a8bc
000002c0: 4a8f e8bd 664b 163d 2881 383d 0593 4cbe
000002d0: 8331 80bd 2972 46bd 4b6f 8a3d e49d e4bb
000002e0: 4799 c13d 0992 b5bc 6495 2cbe d4f1 24be
000002f0: b4eb 23be b0f8 0cbd efca d53c 344c 03be
00000300: a6ce 833b 09e6 8d3d a8e8 d93d 94cb de3d
00000310: 63ce 2bbd aad6 f1bd 5a21 283e 6007 69bb
00000320: 1307 183e 4908 0dbd c54b 113d 539b 103e
00000330: 1fa8 08b9 5f57 56bd 88e4 683d aa95 17be
00000340: 2501 1fbd b6b4 923d 806d 20be eaaf 94bb
00000350: 21b7 3c3d 92a0 543d fbee 723c 18a0 2dbe
00000360: 63cc 83bc b189 043e 6fef 9dbd be44 babd
00000370: 9c17 a1bd b6f8 95bd 7c4f 533e f56c 5fbe
00000380: ed25 a03d c618 5f3d 9f77 19bd 03e8 af3d
00000390: e93f c4bd 7761 c4bd a8e4 953d cd98 2b3e
000003a0: 7c34 c1bd a4f8 ef3d b6d0 59bc 3868 cc39
000003b0: d8c0 42bd 0ae6 943b 8b67 a03d 3c42 84be
000003c0: fb92 383c 2d31 bc3d bb8f e13d d4c4 b93d
000003d0: d91c 8cbc d2d3 643d 6608 74bd f332 40bc
000003e0: 833e ed39 6ebc 6b3d 9cff 733d 67e6 74bd
000003f0: 8f93 9e3d 4de2 833c 693e 2abe 3a92 bbbd
-0.020368772 0.020727616 -0.0104995705 0.0710253 -0.20221694 -0.12948991 0.03802122 -0.08984517
-0.009254549 -0.08144584 0.012198453 -0.014121239 -0.107471384 -0.065118514 0.023779541 0.0077740597
-0.03854061 -0.051151212 0.02685733 0.042696785 0.0040059816 0.07997278 -0.13054022 0.0093893735
0.020596603 0.05087478 0.077568695 -0.060011484 0.014770756 -0.021167085 0.052372962 -0.20259961
0.10571514 -0.052155845 -0.05465475 -0.19001281 -0.07037654 0.12528953 -0.040382963 0.036723938
0.022157041 0.0110511985 -0.01355601 -0.09147199 0.19013749 -0.18074793 -0.13044663 -0.0034456386
0.10766259 -0.0025075225 -0.16121079 0.0496169 0.08535912 -0.112413995 0.056382794 -0.13003384
-0.0035495793 -0.012399488 0.114298806 -0.13971429 -0.01145296 0.06898091 -0.056862112 0.028259704
0.054465167 -0.07924437 0.011252538 -0.07029005 0.14022003 -0.21705145 0.05236251 0.1494422
0.1216386 0.08786066 -0.0016392792 0.0884905 -0.10836843 0.023131955 -0.052242126 0.03921444
0.006086767 0.12206308 0.026030648 0.030055368 0.075070985 -0.051569927 0.12990932 0.08107921
-0.09120435 0.12587592 -0.092420354 -0.01576493 -0.04184605 -0.21419278 0.115048386 -0.027487166
0.031684138 0.024230886 -0.019557511 -0.033172756 0.13138317 0.03798137 0.033769872 0.0048870533
0.15662773 -0.1395359 0.036962338 0.0034766486 0.00381159 0.21081914 -0.055053867 0.10114967
0.12772071 0.20410055 -0.054661863 0.13323727 -0.05523553 0.021597536 -0.05012673 0.046029925
0.034476444 -0.09407581 0.034960546 0.014890756 -0.07723423 -0.08930771 -0.041870486 -0.23124415
-0.10997575 0.04717995 -0.10350472 0.043951415 -0.019419126 0.17233136 0.036005467 -0.034884036
0.037931476 -0.03004867 -0.046034608 -0.03878054 0.09713988 0.041702148 -0.040875264 0.035323035
-0.013218187 -0.061034326 -0.05564555 0.020725904 0.028850125 -0.022214124 0.07725441 0.080928445
0.17829879 0.14737132 -0.10794388 0.060541064 -0.07260408 -0.021172743 -0.024178453 0.03189456
-0.098258026 -0.056253552 -0.029180449 -0.11609746 0.016654948 -0.016602071 0.12663656 -0.008397497
0.08204854 -0.060094047 0.12361377 -0.080171674 -0.05615708 -0.01330617 0.015812784 -0.020599376
-0.11355455 0.036693 0.045045048 -0.19977959 -0.062594436 -0.048448715 0.06759509 -0.00697683
0.094530635 -0.022164362 -0.16853863 -0.16107875 -0.16007882 -0.034416854 0.026097743 -0.12822038
0.004022437 0.06928641 0.10640079 0.10878673 -0.041944873 -0.11808522 0.16418973 -0.0035557374
0.14846449 -0.03443173 0.03547265 0.14121751 -0.000130326 -0.052329417 0.05685857 -0.14803186
-0.03881945 0.07163374 -0.15666771 -0.004537572 0.046073083 0.051910944 0.014827485 -0.16955602
-0.01608867 0.1294315 -0.07711684 -0.09095143 -0.07865831 -0.073228285 0.2063579 -0.21818908
0.07819734 0.054466985 -0.037467595 0.085891746 -0.095825024 -0.095889024 0.07319003 0.16757508
-0.09433839 0.11717346 -0.0132943895 0.0003898756 -0.04754719 0.0045440244 0.07832249 -0.25831783
0.011265512 0.09189067 0.110137425 0.09070745 -0.0171036 0.05586607 -0.059578322 -0.011730897
0.00045250737 0.057552747 0.05956994 -0.05979004 0.07742988 0.01609912 -0.1662537 -0.0915875

network_body._body_endoder.seq_layers.2.bias f4 [128]
00000000: 9d01 073c 42ca 36bb 28b7 df3a ff3a ecbb
00000010: 21db c0bb 573b dc3a 5041 c53b 1160 213c
00000020: 49ff c53b 3472 3bba bccb a63b 8c04 e7bb
00000030: 62b0 afbb 6bd4 eabb 85e8 9b3b 3e6a 733b
00000040: 7a03 e0bb ee3c 863b 7754 b1bb 90f3 013c
00000050: e310 f33b a50c a13b 7004 703b 540f ddbb
00000060: 5c5e 1eba ca34 bf3a 5858 fd3b ff41 693b
00000070: bfff 103b 1a7e 123c c0a8 113c b6bd 15ba
00000080: 40ee 19bb b8fe f7bb a31f 853b 8055 0c3c
00000090: fc4f dbbb 2a6e 073c 71af ddbb 980e ee3b
000000a0: cc7b 97bb 6444 e53b 58cb 943b 1b0c 48bb
000000b0: 0c31 56bb 8ac9 afba 9c25 b7bb 0d68 e4ba
000000c0: 797b dfbb c23c f13b ff00 9eba 6c2a 9a3b
000000d0: 7b80 24bb 0eae 833b 8f28 383b 235b 153c
000000e0: ee33 52bb 86ff 0839 5f14 843b 3efe 05bc
000000f0: 9e70 c43a eabf d739 9f4f 83bb c136 11bb
00000100: d0c9 06bc 07c7 75ba 40d9 d6bb b279 403a
00000110: b09a 9138 5ceb d1bb 9176 90bb 02e5 67bb
00000120: 5c4c 19bc 9cf6 063c 44d6 a9bb 2b32 6a3b
00000130: d132 0e3c e3e9 e239 e207 e83b def6 373b
00000140: 8550 893b 9b39 f3bb 40fe e0bb 3f63 323a
00000150: 9926 053c 72fa 193c a5fc 23bb 4277 e0bb
00000160: 903f 123c 8417 a83b 3d81 f3bb 2561 8f3b
00000170: a300 e6bb b94e c8bb 2518 a4bb 6b36 e83b
00000180: c19e c5ba 4859 0fb8 dc7e 6a3b b5cd f4bb
00000190: d892 173b c15f 92b9 e7d2 64bb 0052 653b
000001a0: 7a49 37bb b481 bdba 5acb cebb 2ab9 b83b
000001b0: 7f49 92bb e81c e5bb bb47 9d3b 81a2 913b
000001c0: 306e bc3b b554 a13a 987c 733b 1125 5cba
000001d0: 26f7 81bb ba2a 7abb f1a3 903b 8ed1 ebbb
000001e0: b2c6 673b 2a9c 2fbb ff56 0dbc 609d 95bb
000001f0: 5475 133b b5b5 9abb beca 143c 4118 efba
0.008240131 -0.002789155 0.0017068135 -0.0072091813 -0.005885497 0.0016802353 0.0060197487 0.009849564
0.0060423953 -0.00071505015 0.005090205 -0.0070501026 -0.0053616026 -0.0071664355 0.004757943 0.0037142183
-0.006836352 0.004096619 -0.0054116803 0.007931605 0.0074177845 0.0049148374 0.0036623739 -0.006746212
-0.00060412823 0.0014587876 0.0077314787 0.0035592315 0.0022125093 0.008941198 0.008890331 -0.0005712168
-0.0023487955 -0.0075682066 0.0040626093 0.008565307 -0.0066928845 0.008266011 -0.006765299 0.0072649233
-0.004622912 0.006996678 0.004540842 -0.0030524794 -0.0032683043 -0.0013411504 -0.0055892 -0.0017426029
-0.006820139 0.007361979 -0.001205474 0.004704764 -0.0025100994 0.0040185517 0.0028100347 0.009115967
-0.003207441 0.0001306516 0.0040307487 -0.008178292 0.0014987176 0.00041150983 -0.0040072943 -0.002215788
-0.008226827 -0.00093756657 -0.00655666 0.0007342353 6.9429516e-05 -0.006406231 -0.0044086655 -0.0035384302
-0.009356584 0.008237507 -0.005183013 0.003573547 0.008679108 0.00043280338 0.007081018 0.0028070728
0.004190507 -0.0074226386 -0.0068662465 0.000680495 0.008126878 0.00939809 -0.0025022414 -0.006850154
0.008926287 0.0051297564 -0.007431178 0.004375594 -0.007019119 -0.0061129 -0.005007761 0.0070865653
-0.001507722 -3.4177006e-05 0.003578118 -0.0074708113 0.0023128297 -0.00027918632 -0.0034915747 0.0034991503
-0.002796738 -0.001445821 -0.0063108625 0.0056373077 -0.004464328 -0.0069919713 0.0047998107 0.004444421
0.00575044 0.001230857 0.003715312 -0.00083978573 -0.00396623 -0.003817244 0.0044140746 -0.0071966117
0.0035366234 -0.0026795962 -0.0086266985 -0.0045658797 0.0022500353 -0.004721368 0.009081541 -0.0018241481

action_model._continuous_distribution.log_sigma f4 [1, 2]
00000000: 3924 ae3a 1909 3f3c
0.0013285942 0.011659884

action_model._continuous_distribution.mu.weight f4 [2, 128]
00000000: 1a1d dc3c fc49 32bb 6994 f739 b53d c6bc
00000010: 7d39 d6bc 8a69 70bb 3167 883c 6bc2 033c
00000020: 2634 773c b014 a33a 49c4 883c 134b 10bd
00000030: ef91 31bc 1eb4 9cbc e5d8 983c 304d 273c
00000040: 5f22 21bc 6184 cc3b 7bd5 c6bb 4cac 00ba
00000050: 4fa3 ee3c b7bd 783b 62ec a43b 9b15 afbc
00000060: 1a7b ae3a 2507 6bbb df3c f33c 11a4 6d3b
00000070: ba40 edba 5fa1 2a3d 2a78 353d 3133 08bc
00000080: bda2 91bc 64b2 a4bc 6dec 493c 8fb5 523d
00000090: afca 57bd 6020 bc3c 46a1 72bc 08be 943c
000000a0: a507 d2bc 086d 1a3d 1699 be3c 9318 acbc
000000b0: 3e72 1ebc 5337 7e3b 28e9 80bc 0464 843b
000000c0: 0863 e9bc 2c74 913c 8c62 26bc 82ff 813c
000000d0: 1108 97bc 7021 b53c 5ac2 9d3b 2b97 e63c
000000e0: 4242 4fbb cbf6 50bc 784d 8e3c 64c9 14bc
000000f0: 2437 6a3b c615 8039 afe5 d7bc 1a85 423b
00000100: 74f8 eabc 90a5 b83b c489 c7bc 1e40 1dbc
00000110: b5aa 50bc 6948 f3bc 4d27 1cbd e9c8 a5bb
00000120: 2cc5 47bc 1ad1 173c dd2f c2bc 5327 a33c
00000130: 137e 9c3c 678a 8a3b b89b 313c 60ab f93b
00000140: 85c6 d73c 62c6 16bd 522a a4bc 3d1f 683b
00000150: 5d42 443c 51e1 053d 46e4 ed3a 1522 39bd
00000160: dc4c d53c bf3b 613b 452f b0bc fa8c 093d
00000170: 7864 11bc 99fb 77bd 775c d5bb 5460 083d
00000180: 589b b4bc b63d 42b9 894e 943b d3ec a8bc
00000190: 1f34 083c 8fe0 bcbb 0389 4a3a b09b be3c
000001a0: 0e9c 55bc 1ed6 073c 10e2 8cbc bb0b 1a3d
000001b0: 1cd4 2abd ab9e 2fbc e318 3f3c fc96 1d3c
000001c0: 0630 9e3c 279c de3b 9199 873b 8c88 2e3c
000001d0: 9942 eabc e8dc c3bb 51ab a23c 4654 c0bc
000001e0: 84c7 f83b 94fd bdbb 5f60 bbbc f6f3 b7bc
000001f0: 399b d338 dfb3 cebb 1e21 2f3d 9667 3fbb
00000200: ab60 e23c 3034 9bbc 8db3 053d 2af9 f139
00000210: 6633 acbc 0166 943c 745a 843a c5a5 ba3b
00000220: 1938 983c a28a 35bd 712f 55bb 13b3 acbc
00000230: f498 f2bc 6665 42bc fe99 42bc 3dea f83c
00000240: 31aa 7abc 8ce3 9ebb b9a7 33bc 7254 033c
00000250: e6ee 253c 5d8a b63c 7083 6a3c 0570 443b
00000260: 3345 02bd ed22 9e3c 621f 9a3c 4049 233d
00000270: 322b e23a 2f6f 5a3c 9b52 0f3c 2ef7 063d
00000280: 2b93 fdbc a57c 41bc bd52 d53c b131 c1bb
00000290: 9415 35bd 0c38 f73b bdfa 74bc fedf eb3c
000002a0: 0913 8f3c 126c dabb 977f cdbc f489 cabc
000002b0: a853 7c3c b13e 41bc 4743 90bc 3ae1 8abc
000002c0: fb60 83bc f2a7 873c bfc0 033d aa74 3bbc
000002d0: 02ba 4d3c 8dee 0ebc bf3f d93c 6b10 aa3c
000002e0: e431 1cbc 5c83 213d f046 f7bb 4b3b 1abb
000002f0: 8354 113d 32b2 73bc 2da6 753c 8461 433a
00000300: cd24 54bc 6b33 75bc 9dfb 5ebc 257e 3c3c
00000310: 89d3 063d f8d7 f8bc a5f5 703c b55b 07bd
00000320: a6c3 beba e1bd ec3c 3264 583c cc1c 45bc
00000330: 0698 aa3c 5d7b babc 454f 253c 6ce9 f9bb
00000340: 4e51 90bc a451 6eba ef39 96bc 398c b6bc
00000350: 4b39 5b38 686f 173c 89fa b1bb d39f 503b
00000360: 014e dc3b 1644 5f3c 3b06 8c3b 0b2a a4bc
00000370: 1eaa 9bbb 7266 ebbc 3a2e 7abc b23c 1fbc
00000380: 8042 f03c 3717 49bc c23b 1b3d 7e8d d6b9
00000390: a930 00bc 7e9b 983c b591 a8bc 024e dbbc
000003a0: fa68 9b3c 1495 1bbd bfe8 33bc 76e8 80bc
000003b0: d32e a13c a653 6dbb 1ff4 73bb 5342 9fbb
000003c0: a3ea 88bb 5713 72bc eda6 203d 7309 7bbc
000003d0: 0acb e73c fe9c bc3b b6aa bbbb d659 61bb
000003e0: ad7c 58bc fffd 81bc 9231 6fbb 42f3 993c
000003f0: c25f 233d cd32 a6bc 5f18 4ebb 66ac 3dbc
0.026869345 -0.0027204743 0.00047222085 -0.024199346 -0.02615046 -0.0036684 0.016650768 0.008041958
0.015088117 0.0012442078 0.016695159 -0.035227846 -0.010838016 -0.019128855 0.01865811 0.010211274
-0.009834855 0.0062413667 -0.0060679293 -0.0004908487 0.029130606 0.0037954876 0.005033062 -0.021372607
0.0013311834 -0.0035862413 0.029692112 0.0036261121 -0.0018100955 0.0416578 0.04430405 -0.008312986
-0.017777795 -0.020104595 0.012324435 0.05144268 -0.05268353 0.022964656 -0.014808958 0.01815702
-0.02563841 0.037701637 0.023266356 -0.021007812 -0.009670792 0.00387903 -0.015736178 0.004040243
-0.028489605 0.01775559 -0.010155331 0.015868906 -0.018436464 0.02211067 0.0048144283 0.028148254
-0.0031625186 -0.0127541525 0.017370924 -0.009081218 0.0035738433 0.00024430285 -0.026354639 0.0029681385
-0.028682925 0.005634971 -0.024357684 -0.009597806 -0.012736012 -0.029697614 -0.038123418 -0.0050593507
-0.0121930055 0.009266162 -0.023704464 0.019916212 0.019103086 0.0042279246 0.010840349 0.0076193064
0.026339779 -0.036810286 -0.020039711 0.003541901 0.011978713 0.03268558 0.0018149696 -0.04519852
0.026037626 0.0034367887 -0.021506915 0.03358171 -0.008874051 -0.060542677 -0.006511267 0.03329499
-0.02204673 -0.00018524271 0.0045259637 -0.02062074 0.008313208 -0.005764074 0.0007726105 0.023267597
-0.013037695 0.008290796 -0.017197639 0.037608843 -0.04170619 -0.010718982 0.011663648 0.009618517
0.019310009 0.006793517 0.0041381796 0.0106526725 -0.02859621 -0.005977262 0.01985708 -0.023477685
0.0075921435 -0.005798051 -0.022873102 -0.022455197 0.000100901765 -0.0063080634 0.042756192 -0.002920603
0.027633986 -0.018945783 0.032641936 0.00046152744 -0.021020602 0.018115046 0.0010097758 0.005696031
0.018581437 -0.044321664 -0.0032529498 -0.021081483 -0.02961395 -0.011864996 -0.011877535 0.030385131
-0.015299366 -0.004848903 -0.010965281 0.008015739 0.010127759 0.022282774 0.014313564 0.0029973995
-0.031804275 0.019303763 0.018813793 0.03986478 0.0017255305 0.013332172 0.008747722 0.032950573
-0.030953964 -0.011809503 0.02604043 -0.0058958163 -0.04421003 0.007544523 -0.014952359 0.028793331
0.017465131 -0.006665715 -0.025085254 -0.024723984 0.015400805 -0.011794732 -0.017610205 -0.0169531
-0.016037455 0.016559575 0.03216624 -0.011441389 0.012556555 -0.008723867 0.026519654 0.020759782
-0.009533379 0.039431915 -0.007546298 -0.0023533877 0.035480987 -0.014874028 0.014993233 0.00074531906
-0.012948227 -0.014965872 -0.013609794 0.011504685 0.03291658 -0.03037642 0.014707004 -0.033046443
-0.0014554157 0.028899135 0.013207482 -0.0120307915 0.020824444 -0.022763902 0.0100897 -0.007626703
-0.017616894 -0.0009091145 -0.018338172 -0.02228366 5.2267027e-05 0.00924287 -0.0054314774 0.0031833544
0.006723166 0.013627073 0.0042732037 -0.020039579 -0.004750504 -0.028735373 -0.01526981 -0.009719061
0.029328585 -0.012273601 0.037898786 -0.0004092268 -0.0078241015 0.018628832 -0.020577291 -0.026770595
0.018970955 -0.03798397 -0.010980784 -0.015735846 0.019675648 -0.0036213188 -0.0037224365 -0.0048602014
-0.0041783615 -0.014775119 0.039221693 -0.015322077 0.028295059 0.0057560196 -0.0057271374 -0.0034385822
-0.013213319 -0.015868185 -0.0036498052 0.018792752 0.039886244 -0.020287896 -0.0031447632 -0.0115767475

action_model._continuous_distribution.mu.bias f4 [2]
00000000: d8aa 043c c67d 103b
0.008097373 0.0022047623

action_model._discrete_distribution.branches.0.weight f4 [1, 128]
00000000: 3924 94bb 2363 9b3b 141b 28bb 2dfd ff3b
00000010: 978b 4dbb ec8d 38bc 8288 263c 24a7 26bc
00000020: ac2f 2b39 2190 bb3b 5b87 b13b 1050 62bb
00000030: 73a6 d2bb df66 0b3c f51c f03b d959 00bc
00000040: d384 813b 549f 95bb 6353 703c c3fd 4b3c
00000050: ddaf 70ba 52c8 6a3c af22 0c3a 1ffa 2d3c
00000060: 3b0a c5bb f801 1ebb 896a 4abc b28a 0ebc
00000070: f12a 913c 6a3c ed39 19d4 99bb 97bd b1bb
00000080: f185 1d3b f951 a23c ef90 eabb 5c2a a53b
00000090: 2dd0 32bc d88d 70bc 184e 733b 9087 d03b
000000a0: 0b49 d23b f3d8 63bc f8c5 28bb f5d9 49bb
000000b0: 9781 b63b 5df1 52bc df7f 8f3b 3887 53bc
000000c0: fbe8 6abb 45a8 683c 68a2 ff3b 6b42 d039
000000d0: daed 393b 26f4 15bb 4308 88bc 7d50 4a3c
000000e0: e523 26bc ad52 66bb 1bb6 c4bb 2071 c13b
000000f0: 8355 a1bb 2bfe 18bb 2d01 d2bb 6cb9 92bb
00000100: 08d7 ddba 4a21 133c 1880 853b 5987 26bc
00000110: 277d 1b3c 936e e5ba 634b c1b7 f795 e5bb
00000120: 1f32 723c 0e72 823c c261 f73b cbc5 4e3a
00000130: eabc 38bb efcc fabb 5160 ca3b 8647 4bba
00000140: 3ad5 38bb 1595 ae3b 7f10 0e3c f1ca 48bc
00000150: 5b50 d13b 5986 afbb e297 503c 462a a5bb
00000160: 27f9 5c3c 901e 33bc 37c6 873a 281b 40bc
00000170: 811e 3bbc e0d1 ae3c 04bf cb3b bd6c 093b
00000180: bcbc 253c 50e9 bd3b ccf5 9bbb 8548 edba
00000190: 65ec f9b8 f9c6 143c 0980 84bb e2cc e8bb
000001a0: e09a f03b f66b 33bc f184 84bb 2e04 c33c
000001b0: 2518 14bc 4366 06bc 1849 af3a ebb1 79bb
000001c0: 0f76 f03a 6297 c23b 2a47 e0ba f474 9c3b
000001d0: 38fc 153b 9834 12bb f26b 733c ef04 4dba
000001e0: f16b 82bc 5970 9ebc ac1c 89bb da7b 153a
000001f0: 9736 14ba b0fd d3bc c55b 583b aec0 803a
-0.0045209196 0.0047420426 -0.0025650905 0.0078121633 -0.003136372 -0.011264306 0.010164382 -0.010171685
0.0001632559 0.0057239686 0.005417747 -0.0034532584 -0.0064285337 0.008508413 0.0073276707 -0.007833921
0.0039526015 -0.0045661125 0.014668318 0.012450638 -0.0009181479 0.014329987 0.00053457444 0.010618716
-0.0060131825 -0.002411006 -0.0123545015 -0.00870006 0.017720671 0.00045249175 -0.0046944735 -0.005424212
0.0024036134 0.019814478 -0.0071583907 0.00504045 -0.010913891 -0.014682256 0.0037125405 0.0063638166
0.006417399 -0.013906705 -0.0025752764 -0.0030800079 0.0055696475 -0.012874928 0.004379257 -0.012910657
-0.0035844434 0.014200275 0.0078013428 0.00039722337 0.002837053 -0.002288112 -0.016605502 0.012348291
-0.010140394 -0.0035144493 -0.006003154 0.005903378 -0.004923524 -0.0023344855 -0.0064088316 -0.0044776704
-0.0016925046 0.008980105 0.004074108 -0.010164105 0.009490288 -0.0017504267 -2.3042498e-05 -0.0070064026
0.014782458 0.015923526 0.0075494954 0.000788775 -0.0028188773 -0.0076538245 0.0061760326 -0.0007754493
-0.0028203265 0.0053278306 0.008670925 -0.012255416 0.006387753 -0.0053565917 0.012731524 -0.00504044
0.013487137 -0.01093258 0.0010358755 -0.011725225 -0.011420847 0.02134031 0.006217839 0.0020969354
0.010115799 0.0057956353 -0.004759526 -0.0018103278 -0.00011917277 0.009080642 -0.0040435833 -0.007104502
0.0073426813 -0.010951033 -0.004044168 0.023805704 -0.00903896 -0.008203092 0.0013373224 -0.0038100432
0.0018345731 0.0059384564 -0.0017111052 0.004774684 0.002288593 -0.002230918 0.014857279 -0.00078208646
-0.015920611 -0.01934068 -0.004184326 0.0005702354 -0.00056538865 -0.025877804 0.0033013683 0.0009823048

exp_avg f4 [128, 44]
00000000: 0000 0000 6409 f9b6 2af3 c0b6 0000 0000
00000010: 6c73 5120 4bd6 6cb6 6eff 45b6 08b0 2fb5
00000020: 64b6 58b6 0000 0000 aaab d4b6 2106 e0b6
00000030: 0000 0000 f046 a937 fd76 0db8 9fac d434
00000040: c32d abb2 cd42 a5b6 385d 77b7 e6e0 ba35
00000050: 3981 59b6 0000 0000 7c8c 6536 2424 4336
00000060: 0000 0000 9668 0b37 b0ca 70b6 f054 80b7
00000070: 4c29 2eb6 6fd9 cdb6 c12c 86b7 01c5 4b35
00000080: 9b30 50b5 0000 0000 cc87 3e36 65dc 2336
00000090: 0000 0000 279f 3737 f7ef 59b6 ba10 afb7
000000a0: 0000 0000 685e d8b5 0000 0000 0000 0000
000000b0: 0000 0000 ac13 9eb7 e172 a0b6 0000 0000
000000c0: d17a c4a2 b842 8bb6 d68d 7fb7 da01 64b6
000000d0: 6660 1bb6 0000 0000 81e9 33b6 d571 5db6
000000e0: 0000 0000 db64 5337 b1d9 17b8 f066 9533
000000f0: 3cd8 c4b3 d53c c1b6 0a4d cdb7 66d4 4036
00000100: 469f 1bb6 0000 0000 2181 9d34 ce6f 58b4
00000110: 0000 0000 23ac b736 51b7 17b7 d9bc 86b7
00000120: b20b 86b6 4c8c 0fb7 dfb4 d1b7 d133 f835
00000130: 28ec dab4 0000 0000 ee13 93b3 e041 edb4
00000140: 0000 0000 5ac2 de36 f8ce 1bb6 1b67 eab7
00000150: 0000 0000 24ca 19b6 0000 0000 0000 0000
00000160: 0000 0000 608a 7b36 3418 3535 0000 0000
00000170: 93e1 05a2 38d2 9335 6cda adb6 1e4e d836
00000180: d934 ab35 0000 0000 409d fc35 d7d3 0736
00000190: 0000 0000 bbfd 0bb7 8e71 5637 a6f2 3ab3
000001a0: da72 f632 c87a dd35 f446 2136 30dc a9b3
000001b0: 1980 ab35 0000 0000 4a61 5c35 8a46 9035
000001c0: 0000 0000 0711 7bb6 29bb 8e36 4802 c536
000001d0: 6299 03b6 dc39 4fb4 ce14 fb35 1a9c 5235
000001e0: 941b 8f34 0000 0000 2277 c935 406b e435
000001f0: 0000 0000 dea0 d2b6 3637 ac35 a0fd 1d37
00000200: 0000 0000 fe5a 4635 0000 0000 0000 0000
00000210: 0000 0000 7a9f d5b7 0241 beb7 0000 0000
00000220: 79e8 02a3 4dd9 d8b6 8eb8 3bb8 01c5 2336
00000230: a3b3 86b5 0000 0000 0ff3 a1b6 3d35 f5b6
00000240: 0000 0000 d8e0 6c37 049b 8fb8 0680 bc36
00000250: 9065 1f35 0a5d 1bb7 a566 49b8 4211 1bb6
00000260: 42bb 87b5 0000 0000 7b55 5636 2e9e e735
00000270: 0000 0000 dd14 6b37 a02f 4c37 128f 51b8
00000280: 9664 ccb7 9883 f7b7 d8e4 62b8 c190 1e36
00000290: d93e 3cb1 0000 0000 e1e7 7036 addf 2436
000002a0: 0000 0000 49ef 5437 7f19 87b5 40f3 7ab8
000002b0: 0000 0000 ca65 91b6 0000 0000 0000 0000
000002c0: 0000 0000 0355 bc36 d04b a836 0000 0000
000002d0: 444a bda0 2aba 1036 e0a2 7f34 74c5 fb36
000002e0: a6f8 c235 0000 0000 7680 c035 b676 0636
000002f0: 0000 0000 4508 dab6 a5f4 8d37 2ba8 f933
00000300: c4f8 bb33 3186 3436 081a 4337 de0d 31b6
00000310: 84b1 c335 0000 0000 b0e9 4034 c8ae 3035
00000320: 0000 0000 da94 51b6 74c2 7436 d8bb 3d37
00000330: acb6 a1b5 1c68 2935 51f5 3337 e265 2db5
00000340: 2dd9 7634 0000 0000 ebc1 aa34 ec2c 3735
00000350: 0000 0000 8089 85b6 443e c435 5e8d 5c37
00000360: 0000 0000 5023 7235 0000 0000 0000 0000
00000370: 0000 0000 5e97 1bb7 68e4 81b6 0000 0000
00000380: 3078 96a0 2b9a 58b6 0b1a 58b6 9aca 03b7
00000390: 40be e134 0000 0000 b219 27b6 4564 52b6
000003a0: 0000 0000 15ac 5137 4098 d5b7 d066 12b4
000003b0: c48b 3bb3 22c9 91b6 c090 69b7 fed5 9c35
000003c0: e8e9 e434 0000 0000 5cae 5bb5 ba75 afb5
000003d0: 0000 0000 e7e5 0c37 7663 78b6 44f3 61b7
000003e0: afc6 92b6 ded2 f2b6 4155 4cb7 6047 8033
000003f0: 709c ea33 0000 0000 f750 98b5 8839 cab5
0.0 -7.4218715e-06 -5.750354e-06 0.0 1.7741178e-19 -3.5291475e-06 -2.9503967e-06 -6.544874e-07
-3.2292673e-06 0.0 -6.3380767e-06 -6.6764337e-06 0.0 2.0179403e-05 -3.3727836e-05 3.9613676e-07
-1.992783e-08 -4.92516e-06 -1.4744051e-05 1.3923534e-06 -3.2410737e-06 0.0 3.4205432e-06 2.90783e-06
0.0 8.309396e-06 -3.5880767e-06 -1.5298341e-05 -2.5952058e-06 -6.1347887e-06 -1.5994885e-05 7.591007e-07
-7.755677e-07 0.0 2.839125e-06 2.441718e-06 0.0 1.09447055e-05 -3.2475198e-06 -2.0869415e-05
0.0 -1.612073e-06 0.0 0.0 0.0 -1.8844228e-05 -4.7817452e-06 0.0
-5.3255943e-18 -4.15029e-06 -1.5232208e-05 -3.3975725e-06 -2.315291e-06 0.0 -2.6808996e-06 -3.2997825e-06
0.0 1.2600062e-05 -3.6203946e-05 6.9570774e-08 -9.166294e-08 -5.75893e-06 -2.4473778e-05 2.8733862e-06
-2.318951e-06 0.0 2.9337482e-07 -2.0157242e-07 0.0 5.4738643e-06 -9.042983e-06 -1.6061984e-05
-3.9948727e-06 -8.55613e-06 -2.4998966e-05 1.849252e-06 -4.077749e-07 0.0 -6.848846e-08 -4.419262e-07
0.0 6.638741e-06 -2.3217272e-06 -2.7942986e-05 0.0 -2.2916438e-06 0.0 0.0
0.0 3.748246e-06 6.7462975e-07 0.0 -1.814428e-18 1.1013535e-06 -5.1812294e-06 6.4463957e-06
1.2755874e-06 0.0 1.8821229e-06 2.0239875e-06 0.0 -8.344122e-06 1.2781833e-05 -4.3527187e-08
2.8690398e-08 1.6501517e-06 2.403217e-06 -7.9097276e-08 1.2777774e-06 0.0 8.209796e-07 1.0749366e-06
0.0 -3.7411826e-06 4.253718e-06 5.871323e-06 -1.9609802e-06 -1.9299426e-07 1.8707012e-06 7.8458254e-07
2.665589e-07 0.0 1.5010339e-06 1.7018538e-06 0.0 -6.277215e-06 1.2831067e-06 9.416981e-06
0.0 7.389316e-07 0.0 0.0 0.0 -2.546584e-05 -2.2680037e-05 0.0
-7.096542e-18 -6.462599e-06 -4.4756154e-05 2.4403564e-06 -1.0036059e-06 0.0 -4.8264696e-06 -7.3077667e-06
0.0 1.4119047e-05 -6.847645e-05 5.6177405e-06 5.937991e-07 -9.260382e-06 -4.801773e-05 -2.3106845e-06
-1.0112783e-06 0.0 3.193824e-06 1.7256878e-06 0.0 1.4011949e-05 1.2170436e-05 -4.9962728e-05
-2.4365534e-05 -2.9505973e-05 -5.4095726e-05 2.3628093e-06 -2.7393325e-09 0.0 3.5897758e-06 2.45681e-06
0.0 1.2691898e-05 -1.0065704e-06 -5.983119e-05 0.0 -4.3331866e-06 0.0 0.0
0.0 5.6127333e-06 5.015616e-06 0.0 -3.206699e-19 2.1566034e-06 2.3807979e-07 7.5033695e-06
1.4526493e-06 0.0 1.4342502e-06 2.0036655e-06 0.0 -6.497869e-06 1.6922431e-05 1.16255556e-07
8.753116e-08 2.69002e-06 1.1628967e-05 -2.6383127e-06 1.4580296e-06 0.0 1.7966408e-07 6.581945e-07
0.0 -3.123007e-06 3.647202e-06 1.1309014e-05 -1.2048599e-06 6.3108905e-07 1.0726349e-05 -6.459578e-07
2.2989543e-07 0.0 3.1806061e-07 6.823818e-07 0.0 -3.979716e-06 1.462126e-06 1.31459365e-05
0.0 9.020341e-07 0.0 0.0 0.0 -9.273963e-06 -3.8710896e-06 0.0
-2.5490522e-19 -3.2276246e-06 -3.2201667e-06 -7.85538e-06 4.204794e-07 0.0 -2.4899896e-06 -3.1350803e-06
0.0 1.2497437e-05 -2.5462476e-05 -1.3634713e-07 -4.3666446e-08 -4.3447517e-06 -1.39215845e-05 1.1685186e-06
4.26385e-07 0.0 -8.1837584e-07 -1.3072779e-06 0.0 8.398179e-06 -3.7012774e-06 -1.3467685e-05
-4.374269e-06 -7.23671e-06 -1.2179197e-05 5.9734475e-08 1.092493e-07 0.0 -1.1348446e-06 -1.5066917e-06

exp_avg_sq f4 [128, 44]
00000000: 0000 0000 e93b bc30 2277 852f 0000 0000
00000010: 2d5e 4b28 d705 822d a6f8 8830 64da e12f
00000020: 7b73 0f2f 0000 0000 96a2 692e 4e75 7e2e
00000030: 0000 0000 0a37 1f30 4cb3 9830 9e1e 972b
00000040: 1aa6 b32a 4294 e22d efd6 9330 c389 8b2f
00000050: 98a7 0d2f 0000 0000 8495 0b2f 7716 0c2f
00000060: 0000 0000 b65a d02f ce8d 5030 2aeb d32f
00000070: 8b42 472e bd22 942e f5ab ae30 e712 6f2f
00000080: dd1a 972c 0000 0000 27c3 092f 3633 0a2f
00000090: 0000 0000 9d12 b62f 42f3 0e2f fd58 a030
000000a0: 0000 0000 b467 0f2d 0000 0000 0000 0000
000000b0: 0000 0000 389d d92f 5b8f 932e 0000 0000
000000c0: c5ea 9b2b e292 062d 568f e52f 9fb2 e82d
000000d0: 8acf 102e 0000 0000 d841 062c c262 3b2c
000000e0: 0000 0000 c7d9 d02e f81a d02f 5a3a f32a
000000f0: dfa2 192c 072b 6a2d 8c01 e82f bca4 4d2d
00000100: b1f4 102e 0000 0000 620f 3f2c b095 542c
00000110: 0000 0000 7f5c f22d 6113 852f c196 122f
00000120: e8a5 d82d c9a9 1e2e 96d5 f52f 37d8 252d
00000130: 4a22 0d2b 0000 0000 1132 2f2c 9ef0 3f2c
00000140: 0000 0000 581d 0a2e afc6 102e a9cd dd2f
00000150: 0000 0000 31f4 4f2c 0000 0000 0000 0000
00000160: 0000 0000 038b ee2f ac4e 772e 0000 0000
00000170: 2e9f 302a 46b6 702c 1e38 bd2f 5018 1a2f
00000180: 53d3 bc2d 0000 0000 6b3d 232d e1f1 2f2d
00000190: 0000 0000 374a 792f 661d 912f 38d9 942a
000001a0: 8906 972a 0d91 dd2c aaa9 cf2f 9ad4 ad2e
000001b0: 5bcf bb2d 0000 0000 638f 842d c6e1 872d
000001c0: 0000 0000 f922 242f 828c 8d2f 417a 9f2e
000001d0: 00d8 882d cd25 c72d 8dfe df2f 4a55 9c2e
000001e0: 6ad5 342b 0000 0000 a6b5 7d2d 084e 812d
000001f0: 0000 0000 6e91 142f d2d6 bb2d b65a c52f
00000200: 0000 0000 3ce6 372c 0000 0000 0000 0000
00000210: 0000 0000 9252 2132 2fbf ed30 0000 0000
00000220: c994 092c f881 542f af4e 3232 3321 5c30
00000230: 99a4 7a2f 0000 0000 ff5d 742e 991f c22e
00000240: 0000 0000 15d2 3b31 c1e7 0e32 c20a c82d
00000250: 9def 742d 7b78 ad2f cfa8 3232 c964 602f
00000260: 195b 792f 0000 0000 a558 962e f62d b32e
00000270: 0000 0000 2f65 1131 f32c 5531 169f ab31
00000280: 4f72 b12f 7c9b 1130 50ea 3632 97d5 2d2f
00000290: e4aa 8b2c 0000 0000 04a9 952e 1ad0 a82e
000002a0: 0000 0000 1ab5 0c31 5986 782f 30e3 1d32
000002b0: 0000 0000 1d88 842e 0000 0000 0000 0000
000002c0: 0000 0000 a57a 0130 951a 472f 0000 0000
000002d0: f1ff 3129 5e91 552d 8c01 0e30 34e7 0b2f
000002e0: 2fd9 ab2d 0000 0000 3966 5b2c efeb c92c
000002f0: 0000 0000 e2d1 b02e ec50 2330 2250 ba2c
00000300: 88e7 902b 6f44 a42d 08c2 2630 5f9d cd2d
00000310: a4f2 a72d 0000 0000 a9b4 b32c 0f77 d52c
00000320: 0000 0000 9cf3 402e 7477 1f2f 5a0e ed2f
00000330: 0699 862d ca7d c92d 8858 2e30 e634 a12d
00000340: 58ee a72a 0000 0000 89e0 b22c 8fb3 c92c
00000350: 0000 0000 2c17 3b2e 6b9d a92d aa65 2830
00000360: 0000 0000 6dfd 732c 0000 0000 0000 0000
00000370: 0000 0000 865f 5030 9499 c62f 0000 0000
00000380: 7134 832a bcf8 382d ef83 3130 beb8 812f
00000390: 4ec0 6f2f 0000 0000 eede 202d d08f 4a2d
000003a0: 0000 0000 803d 0930 0149 4630 64a9 a42c
000003b0: 5657 ff2b 2c8f 922d fe02 4930 f789 1d2f
000003c0: 8a41 6e2f 0000 0000 fb97 1b2e 9ec1 1d2e
000003d0: 0000 0000 3305 b42f 786a 1930 4f3f 6f2f
000003e0: 60ce 342e d69a 652e d40e 8730 6481 032f
000003f0: 9ebc 3c2c 0000 0000 4e6b 182e c076 192e
0.0 1.3695828e-09 2.4277208e-10 0.0 1.1289185e-14 1.4781882e-11 9.965972e-10 4.1082437e-10
1.3046801e-10 0.0 5.312247e-11 5.78571e-11 0.0 5.792208e-10 1.1110415e-09 1.0737693e-12
3.1912044e-13 2.5759065e-11 1.0756745e-09 2.5381838e-10 1.2883417e-10 0.0 1.2695095e-10 1.2740907e-10
0.0 3.7899434e-10 7.5871476e-10 3.854777e-10 4.5306463e-11 6.7364316e-11 1.2709039e-09 2.1743639e-10
4.2946605e-12 0.0 1.252941e-10 1.256922e-10 0.0 3.3118833e-10 1.3001247e-10 1.1666824e-09
0.0 8.151636e-12 0.0 0.0 0.0 3.958378e-10 6.710251e-11 0.0
1.1078574e-12 7.649633e-12 4.1756704e-10 2.645467e-11 3.292614e-11 0.0 1.9079096e-12 2.662912e-12
0.0 9.49743e-11 3.7854142e-10 4.320596e-13 2.183302e-12 1.3310914e-11 4.2201653e-10 1.1689479e-11
3.295914e-11 0.0 2.7151272e-12 3.0210105e-12 0.0 2.7553291e-11 2.4206329e-10 1.3332181e-10
2.4630034e-11 3.607584e-11 4.4717002e-10 9.4271735e-12 5.014085e-13 0.0 2.4896788e-12 2.7276302e-12
0.0 3.140363e-11 3.2918276e-11 4.0345796e-10 0.0 2.9552023e-12 0.0 0.0
0.0 4.3390722e-10 5.6231172e-11 0.0 1.5687167e-13 3.4207233e-12 3.4418773e-10 1.4014856e-10
2.1466972e-11 0.0 9.279115e-12 1.0001306e-11 0.0 2.2672784e-10 2.6396235e-10 2.6440807e-13
2.6827523e-13 6.2973017e-12 3.7773634e-10 7.904895e-11 2.1351523e-11 0.0 1.5070339e-11 1.5447987e-11
0.0 1.4928138e-10 2.5747587e-10 7.2521995e-11 1.5557333e-11 2.2640468e-11 4.0744333e-10 7.109209e-11
6.424502e-13 0.0 1.4421719e-11 1.4700255e-11 0.0 1.3512189e-10 2.1354838e-11 3.5898545e-10
0.0 2.613367e-12 0.0 0.0 0.0 9.390208e-09 1.7298357e-09 0.0
1.9551463e-12 1.9327462e-10 1.0378854e-08 8.008271e-10 2.2795844e-10 0.0 5.5562662e-11 8.8277115e-11
0.0 2.73315e-09 8.318183e-09 2.2742145e-11 1.3922999e-11 3.1554123e-10 1.0399346e-08 2.0408487e-10
2.2678782e-10 0.0 6.836957e-11 8.148142e-11 0.0 2.1157793e-09 3.102113e-09 4.994841e-09
3.2277334e-10 5.297165e-10 1.0647071e-08 1.5810141e-10 3.9695903e-12 0.0 6.805759e-11 7.676722e-11
0.0 2.0475626e-09 2.2603198e-10 9.190259e-09 0.0 6.0268436e-11 0.0 0.0
0.0 4.7104215e-10 1.8108388e-10 0.0 3.952389e-14 1.2139926e-11 5.16615e-10 1.2724116e-10
1.9536898e-11 0.0 3.1178517e-12 5.7389575e-12 0.0 8.040836e-11 5.941405e-10 5.2953345e-12
1.0296078e-12 1.8675032e-11 6.0666183e-10 2.3375689e-11 1.9093456e-11 0.0 5.1075433e-12 6.0670423e-12
0.0 4.3872114e-11 1.4503404e-10 4.3120246e-10 1.5301992e-11 2.2906916e-11 6.342664e-10 1.8327072e-11
2.9830543e-13 0.0 5.0839927e-12 5.7326986e-12 0.0 4.2539458e-11 1.9282983e-11 6.126252e-10
0.0 3.4673057e-12 0.0 0.0 0.0 7.5805706e-10 3.6125114e-10 0.0
2.3306663e-13 1.0514419e-11 6.4579714e-10 2.359623e-10 2.1805244e-10 0.0 9.144447e-12 1.1514303e-11
0.0 4.9927706e-10 7.2135725e-10 4.6799665e-12 1.814308e-12 1.666186e-11 7.3127626e-10 1.4328082e-10
2.1669258e-10 0.0 3.5377905e-11 3.5869634e-11 0.0 3.2745504e-10 5.5812377e-10 2.1759415e-10
4.111056e-11 5.2206094e-11 9.826757e-10 1.196035e-10 2.682111e-12 0.0 3.4656104e-11 3.4893644e-11

exp_avg f4 [128]
00000000: 49fe 5cb7 6730 c6b7 3868 9436 41f0 49b8
00000010: 6750 3237 9589 5cb7 e067 2638 47d6 94b7
00000020: f2d1 9db7 b824 1338 76c3 fdb6 f97b 2c37
00000030: f556 8b36 ea6d 2637 a49d 8036 06ab 9ab6
00000040: 9e6d 73b7 90b2 beb7 7213 1337 fb84 0bb7
00000050: 1c90 f037 a022 8437 3c6f b6b6 4f21 b637
00000060: c6d2 08b7 4486 d3b7 08e2 31b8 be80 0338
00000070: ec3b e9b6 10e4 6cb8 b01b eab7 3ed5 0738
00000080: 2e1e 3437 8f34 05b8 00a1 7cb7 39d6 2936
00000090: bec6 9337 aac6 56b8 f830 2237 1953 0bb8
000000a0: efc4 4937 1890 40b6 4e64 c6b7 f2c0 5f38
000000b0: 751a 6e37 fc48 34b7 0812 2f37 58ce 1c37
000000c0: 1a3e e9b7 6e0e 5337 d0ef 4eb8 a802 72b7
000000d0: e6fb a737 8e1d 6637 babb 91b5 7e1b e837
000000e0: f700 b437 ac38 40b8 799e 8237 04a4 0a36
000000f0: a65a c0b7 8d86 d5b7 e162 3fb6 e00c 7bb7
00000100: d121 1b37 bf0f 95b7 8fc5 8437 8fd0 c237
00000110: 5e51 d2b7 9619 1838 e557 2b35 a640 98b7
00000120: 5aca afb6 452f 52b8 3406 e0b7 304b 51b8
00000130: 081f 1335 440f 17b7 6cce e335 a173 0538
00000140: 8ecc ba36 b296 1f36 f06f 5fb7 04a2 1a37
00000150: 441c 7b37 7cef c5b6 18ee 2436 b2c1 3cb8
00000160: e93f 4cb7 b6b4 6ab8 b559 d137 9a8b 1536
00000170: 77f8 9636 985f fa37 78eb 1fb8 346f 5db6
00000180: 1e42 e936 34dc 7237 2c07 0038 7441 61b7
00000190: 3621 6db7 082b 96b8 1e86 1a36 083b 2237
000001a0: a00d a5b7 e017 0d38 b498 6138 ef0d d237
000001b0: fcbe 92b7 56e3 41b8 1c1b 18b6 d32f 0cb8
000001c0: c7a1 0fb7 ca43 32b7 84cd 6d37 87e9 c935
000001d0: 0c27 3437 3ecc bc37 ee8c 9eb8 f23b 85b7
000001e0: 92f8 5cb8 c0c3 feb3 9163 b8b7 c1cc 1036
000001f0: a8b5 feb7 08c4 5637 bea7 0db8 6cd6 9337
-1.3172227e-05 -2.3625978e-05 4.4228764e-06 -4.814589e-05 1.0628347e-05 -1.3145055e-05 3.9674225e-05 -1.7742756e-05
-1.8813622e-05 3.5081728e-05 -7.562742e-06 1.02808635e-05 4.152646e-06 9.919962e-06 3.833049e-06 -4.6094674e-06
-1.4509451e-05 -2.2732915e-05 8.76641e-06 -8.316008e-06 2.8677336e-05 1.575175e-05 -5.436972e-06 2.1711601e-05
-8.155306e-06 -2.5215682e-05 -4.2410597e-05 3.1352734e-05 -6.950917e-06 -5.6479184e-05 -2.7907867e-05 3.2385105e-05
1.0735863e-05 -3.175862e-05 -1.5057856e-05 2.5307656e-06 1.7616312e-05 -5.1206596e-05 9.667354e-06 -3.3217573e-05
1.2026386e-05 -2.8694103e-06 -2.3650147e-05 5.3347037e-05 1.41920655e-05 -1.0745829e-05 1.0435011e-05 9.346368e-06
-2.7804683e-05 1.257994e-05 -4.933757e-05 -1.44249425e-05 2.002525e-05 1.37159495e-05 -1.0857977e-06 2.7669357e-05
2.1458121e-05 -4.5829147e-05 1.5571002e-05 2.0659072e-06 -2.2930395e-05 -2.5454234e-05 -2.8518773e-06 -1.49637635e-05
9.246593e-06 -1.7769516e-05 1.5827622e-05 2.322372e-05 -2.507184e-05 3.6263453e-05 6.383037e-07 -1.8149916e-05
-5.2389632e-06 -5.0111925e-05 -2.670577e-05 -4.9899507e-05 5.4806924e-07 -9.003856e-06 1.6972895e-06 3.181736e-05
5.5670453e-06 2.3780563e-06 -1.3317898e-05 9.2168375e-06 1.4967347e-05 -5.898937e-06 2.4576493e-06 -4.5003086e-05
-1.2174228e-05 -5.5958248e-05 2.4956515e-05 2.228399e-06 4.4992735e-06 2.9846837e-05 -3.812785e-05 -3.2996295e-06
6.951638e-06 1.4475594e-05 3.0524257e-05 -1.3426285e-05 -1.4134033e-05 -7.1605726e-05 2.3025855e-06 9.669697e-06
-1.9675877e-05 3.3639255e-05 5.3786396e-05 2.504044e-05 -1.749349e-05 -4.622651e-05 -2.2665545e-06 -3.342314e-05
-8.561131e-06 -1.062541e-05 1.4174151e-05 1.5043632e-06 1.0737927e-05 2.2506454e-05 -7.560277e-05 -1.588275e-05
-5.2683587e-05 -1.18634034e-07 -2.1980873e-05 2.1576855e-06 -3.036375e-05 1.2801036e-05 -3.377324e-05 1.7623614e-05

exp_avg_sq f4 [128]
00000000: f4d7 dd30 3627 0130 6a16 0830 f647 3c32
00000010: c395 3830 59b9 9930 4bed 4431 8ccb 9e30
00000020: 3951 9830 5110 2e31 7c22 0531 a3c7 8b30
00000030: d198 ec30 ed9e ea2f 9f4b 212f 18f4 b72f
00000040: 698d 5b30 95d9 f830 2ae6 2a30 7b8a 8930
00000050: a919 1331 fa6f b330 cf4f a830 7dcc 0631
00000060: d5ef 3130 9938 6331 8fee f730 2077 e930
00000070: 417b f730 57df 5c31 44d1 aa30 7627 ed30
00000080: 4f2a 6430 447f c230 1ba0 b62f 20cb 392f
00000090: d96d 0831 1cb9 2331 543c ab2f 6d25 e730
000000a0: 1b2c 4331 d5f3 4231 a84b 9630 4984 d931
000000b0: 8b51 f330 4894 8c30 5c8c fd2f cdb7 b131
000000c0: da4d e430 f3c2 2830 c1c9 4931 9e32 dc2f
000000d0: a133 8230 ba5e dc30 f160 1f30 9b9e 8f31
000000e0: 856c 2c31 17bd 4531 05bc b22f 53d9 7c2e
000000f0: 8b6e 9030 a27f 4231 a7ef 4831 3e12 8230
00000100: e762 bd30 4149 7530 54d1 e930 0133 ab31
00000110: 7a85 e730 aecc c231 1410 8e2e e026 da30
00000120: 874a 7630 905d 1d32 6c26 fb2f 5e82 db30
00000130: 74ca 3630 d01c e52f f69e b32f 3d8f 3531
00000140: 20df b32f 0ce4 f230 b392 7a30 1354 1b2f
00000150: 9632 5c30 329d 2231 c954 8f2f 864d b231
00000160: 156f 3331 b065 c231 a5f0 1a31 9bbb 4430
00000170: 0c27 0530 5e79 5630 bba5 2c31 5e41 9630
00000180: a9b8 9830 39d0 c130 50aa 0331 fdb7 bd2f
00000190: f000 4530 0871 2b32 6c13 6e31 2567 0930
000001a0: 2ea0 0f31 a77b 6231 e3a9 0a31 acad 3331
000001b0: f85c 9a30 865b 1131 ac31 9b31 abc4 8932
000001c0: e132 ad30 9648 ac2f ed46 f22f b1cd 232f
000001d0: b76d ed30 67a8 9231 2ed5 3c32 4ab2 ca31
000001e0: 201a 4831 9f06 c730 316f dc30 ec73 802f
000001f0: 8f72 0231 024a 1630 3427 db30 e115 9e30
1.6141244e-09 4.698565e-10 4.9508364e-10 1.0959402e-08 6.7151634e-10 1.1184894e-09 2.865664e-09 1.1553865e-09
1.108254e-09 2.5329607e-09 1.937365e-09 1.0170321e-09 1.7214693e-09 4.2677276e-10 1.4669731e-10 3.3460945e-10
7.987269e-10 1.8106215e-09 6.217272e-10 1.000742e-09 2.1405901e-09 1.305579e-09 1.2246292e-09 1.9615805e-09
6.4733047e-10 3.306502e-09 1.8039418e-09 1.6986839e-09 1.8006646e-09 3.2141168e-09 1.2428605e-09 1.7255235e-09
8.300604e-10 1.4151529e-09 3.321937e-10 1.6897816e-10 1.9853046e-09 2.3824844e-09 3.1147585e-10 1.6818099e-09
2.8401306e-09 2.8369318e-09 1.0935439e-09 6.3305703e-09 1.7703753e-09 1.0228485e-09 4.6120163e-10 5.1722737e-09
1.661131e-09 6.1395083e-10 2.9364033e-09 4.0053733e-10 9.473419e-10 1.603403e-09 5.7981625e-10 4.179879e-09
2.509098e-09 2.8774758e-09 3.2511607e-10 5.749119e-11 1.0508797e-09 2.8303266e-09 2.9240057e-09 9.46393e-10
1.377967e-09 8.923458e-10 1.7012476e-09 4.9825535e-09 1.6845398e-09 5.6694125e-09 6.4602684e-11 1.5872637e-09
8.960019e-10 9.159876e-09 4.5683934e-10 1.59714e-09 6.649892e-10 4.167533e-10 3.267286e-10 2.6420388e-09
3.271845e-10 1.7672632e-09 9.115794e-10 1.4127037e-10 8.010742e-10 2.3663458e-09 2.6071792e-10 5.189295e-09
2.611107e-09 5.6577036e-09 2.254674e-09 7.157099e-10 4.8440607e-10 7.802522e-10 2.51235e-09 1.0932515e-09
1.1111939e-09 1.4101779e-09 1.915982e-09 3.450963e-10 7.1669515e-10 9.97921e-09 3.4644598e-09 4.9986887e-10
2.090029e-09 3.2957617e-09 2.0178212e-09 2.614665e-09 1.1231398e-09 2.1152302e-09 4.5167408e-09 1.6038333e-08
1.2601867e-09 3.1338193e-10 4.406994e-10 1.489784e-10 1.7275202e-09 4.2683044e-09 1.0991512e-08 5.899243e-09
2.911868e-09 1.4481037e-09 1.6038709e-09 2.3365432e-10 1.8982609e-09 5.4674854e-10 1.5945489e-09 1.1502231e-09
