Project specific/results/ppo/JumperAgent/JumperAgent-5869.pt (torch, 189091 bytes, 13 tensors)

network_body._body_endoder.seq_layers.0.weight f4 [128, 44]
0	0xbdde4461	-0.10852886
1	0x3da9e3ef	0.08295428
2	0xbe2ba595	-0.16762383
3	0xbe388144	-0.18018061
4	0xbedadcb2	-0.42746502
5	0x3daa55a9	0.0831712
6	0x3d3a686c	0.04550974
7	0xbe6116ac	-0.21981305
8	0xbd849f6c	-0.0647572
9	0x3cca3ca8	0.024687126
10	0x3c4db25e	0.012554733
11	0x3b583e21	0.0032996016
12	0xbd3527ad	-0.04422729
13	0xbe1ef4de	-0.15523097
14	0x3d7b6d9b	0.061383825
15	0xbd9f9dcd	-0.0779377
16	0xbe012ac3	-0.12613969
17	0x3d5d0b62	0.053965934
18	0xbd2b8f2f	-0.041884597
19	0x3e97b14a	0.29627448
20	0x3e511f7f	0.20422171
21	0x3dad46fb	0.08460804
22	0xbe6c3481	-0.23066904
23	0x3e3aae14	0.18230468
24	0xbd5ed42b	-0.054401558
25	0xbdab4c1a	-0.083641246
26	0x3e8271b1	0.25477365
27	0x3df59359	0.11990995
28	0xbdbd8598	-0.092539966
29	0xbe881ca8	-0.26584363
30	0xbe73f65e	-0.2382445
31	0xbc19e2fa	-0.009392494
32	0xbe961de0	-0.29319668
33	0xbe757d12	-0.23973492
34	0x3e809f05	0.25121322
35	0x3db752ef	0.08951365
36	0xba96a2af	-0.0011492575
37	0x3e0a512d	0.13507529
38	0x3bd2f4c7	0.006437871
39	0xbd3e9423	-0.046527993
40	0x3e062618	0.13100469
41	0x3d038038	0.0321047
42	0xbe642dfe	-0.2228317
43	0xbd5dce8e	-0.054152064
44	0x3e5cd65e	0.2156615
45	0xbe56240e	-0.20912191
46	0x3e7b2aee	0.24528095
47	0x3e0bf23d	0.13666625
48	0xbe64c6c0	-0.22341442
49	0x3c8f4d9e	0.017493065
50	0x3e34436f	0.17603849
51	0xbe97de8c	-0.29661977
52	0x3d4d765e	0.050161712
53	0xbd093629	-0.033498917
54	0xbea24a7f	-0.3169746
55	0xbe1b1ce0	-0.15147734
56	0x3dcd6783	0.10029509
57	0xbe5f0b84	-0.21781737
58	0xbe0ded23	-0.13859992
59	0xbccc6343	-0.024949675
60	0x3bad1524	0.005282061
61	0x3b56c42c	0.0032770736
62	0x3e52297e	0.2052364
63	0x3e9579f6	0.2919461
64	0xbe40938e	-0.18806288
65	0xbe678a4b	-0.22611348
66	0xbebf3cd0	-0.37351084
67	0x3dfaab32	0.12239684
68	0xbdaab2bf	-0.08334874
69	0x3e552500	0.20814896
70	0x3dc03a62	0.09386136
71	0x3e0e3dfb	0.13890831
72	0x3c9b78f3	0.018978572
73	0xbddf1c1d	-0.10894034
74	0xbeab1e4d	-0.33421555
75	0xbe16aa50	-0.14713407
76	0xbcee4589	-0.029085891
77	0x3e453eac	0.19262189
78	0xbe06799e	-0.13132331
79	0xbe13bfa7	-0.14428578
80	0x3e85a54e	0.2610268
81	0xbd4efa9f	-0.05053198
82	0x3e35a628	0.17739165
83	0xbd48fa90	-0.04906708
84	0x3e9f738f	0.31142852
85	0xbe75e9e8	-0.2401501
86	0xbeb1a53b	-0.34696373
87	0x3eaedd13	0.3415304
88	0xbdbee497	-0.09320944
89	0x3e37a697	0.17934643
90	0xbdeca588	-0.1155501
91	0xbe83f2fd	-0.25771323
92	0xbc4a679e	-0.012353806
93	0x3e3eae5b	0.18621199
94	0xbd9dd6ed	-0.077070095
95	0x3e0e8063	0.13916163
96	0xbe95bc11	-0.29245046
97	0x3e0f812a	0.14014116
98	0x3df0df3c	0.117613286
99	0x3dd3784c	0.10325679
100	0xbc20f114	-0.0098231025
101	0xbd0432af	-0.0322749
102	0xbe185aad	-0.1487834
103	0x3d1122b7	0.035433497
104	0xbe53b06a	-0.20672765
105	0x3db3bf24	0.087766916
106	0x3e1159e8	0.14194453
107	0xbe7fb42d	-0.24971075
108	0x3db8d4d2	0.09024967
109	0x3e4af366	0.19819412
110	0xbe3f72d3	-0.18696146
111	0xbe1ce6fb	-0.15322487
112	0xbc9a15d0	-0.01880923
113	0x3c510421	0.012757332
114	0x3e4c6a3e	0.19962403
115	0xbe34634e	-0.17616007
116	0xbd84e9a3	-0.06489875
117	0xbe32f0a3	-0.17474608
118	0xbe6afd80	-0.22948265
119	0x3dc92b6b	0.098227344
120	0x3ce3ebaf	0.027822344
121	0xbbefa43a	-0.0073132785
122	0xbe3f78a0	-0.18698359
123	0xbded0181	-0.115725525
124	0xbd807532	-0.06272353
125	0x3e3c5328	0.18391097
126	0xbd910fe7	-0.07083111
127	0x3dacd5bb	0.08439203
128	0x3e3ea975	0.1861933
129	0x3d6673b3	0.056262683
130	0xbc9dbcdf	-0.0192551
131	0x3d507a00	0.0508976
132	0x3da948e8	0.08265859
133	0xbda65162	-0.08120991
134	0x3d85140d	0.06497965
135	0x3c216df9	0.00985288
136	0xbde61e7b	-0.112362824
137	0x3db20546	0.08692412
138	0xbcd47d5e	-0.025938686
139	0xbd843313	-0.06455054
140	0xbc8f47a7	-0.017490221
141	0x3dfa30e1	0.12216354
142	0x3e186035	0.1488045
143	0x3e3653bc	0.1780538
144	0xbd73290e	-0.059365325
145	0xbd155f0e	-0.036467604
146	0x3d57cafd	0.05268382
147	0xbe70bc49	-0.23509325
148	0xbec5214b	-0.38501963
149	0x3c8ec080	0.017425776
150	0xbe67dd5f	-0.2264304
151	0x3e101434	0.14070207
152	0x3e0654eb	0.13118331
153	0xbe45834f	-0.19288372
154	0x3dc593a4	0.09647301
155	0x3e00c3f8	0.12574756
156	0xbd209288	-0.039202243
157	0xbdb8e0f7	-0.09027284
158	0x3e3b8da2	0.18315747
159	0xbdd50a84	-0.10402396
160	0x3e205969	0.15659107
161	0xbdb10486	-0.08643441
162	0x3e74181c	0.23837322
163	0x3e69ac3f	0.22819613
164	0xbc949394	-0.018136777
165	0xbe1d2eaa	-0.15349832
166	0x3e0f6d75	0.14006598
167	0xbd157aa9	-0.03649393
168	0xbe0c9bc8	-0.13731301
169	0xbe08338a	-0.1330091
170	0x3d2c5db2	0.042081542
171	0x3dd31105	0.103059806
172	0x3dc2d99d	0.09514163
173	0x3e8ae2fe	0.27126306
174	0xbdb50d85	-0.08840469
175	0x3e013b10	0.12620187
176	0xbe05e7d9	-0.13076724
177	0xbe276023	-0.16345267
178	0x3e92924f	0.2862725
179	0x3ecebcba	0.40378362
180	0x3ca2fcc8	0.019895926
181	0x3d961530	0.0732826
182	0x3cae3d63	0.021269506
183	0xbe05850d	-0.13039036
184	0x3e1b7e28	0.15184844
185	0xbc6930b9	-0.014232808
186	0xbdf00e4d	-0.11721478
187	0x3e9a09ed	0.30085698
188	0x3dc40d30	0.09572828
189	0xbd747cac	-0.05968921
190	0x3c37921b	0.011204268
191	0xbe0e5d68	-0.13902819
192	0x3ccc560b	0.024943372
193	0xbd7ebe6a	-0.06219331
194	0x3e83da8b	0.25752673
195	0xbda75570	-0.08170593
196	0xbcceabbd	-0.025228376
197	0x3d9647cc	0.07337913
198	0xbc19f8be	-0.009397684
199	0xbe66c6ea	-0.22536817
200	0xbe46743e	-0.1938028
201	0x3df13ab7	0.11778777
202	0xbd577780	-0.0526042
203	0x3d00de5c	0.03146206
204	0xbe048cbd	-0.12944312
205	0xbddd7f61	-0.10815311
206	0x3d32a95c	0.043618545
207	0x3be35fd5	0.0069389143
208	0xbe1ae3f9	-0.15126027
209	0x3d09d44e	0.033649735
210	0x3ddb4a86	0.107075736
211	0x3dcae2d3	0.099065445
212	0xbebd612a	-0.36988193
213	0x3d8e141d	0.0693743
214	0xbe8225b8	-0.25419402
215	0x3d4fe8e6	0.05075922
216	0xbdc26392	-0.09491648
217	0xbdaec390	-0.08533394
218	0x3da85e03	0.08221056
219	0xbdf1065b	-0.1176879
220	0x3dc02841	0.09382678
221	0x3cc95827	0.024578167
222	0xbe13912b	-0.14410846
223	0x3e3b1f73	0.18273716
224	0x3e3996dd	0.18123956
225	0x3dc6d373	0.097082995
226	0xbd08a303	-0.033358585
227	0x3d4568a4	0.048195496
228	0x3d94b796	0.07261579
229	0x3e249869	0.16073765
230	0x3dabd5aa	0.083903626
231	0x3dd72417	0.105049305
232	0x3c8fe04f	0.017563013
233	0x3d1319e0	0.03591335
234	0xbd88d3ca	-0.066810206
235	0xbd07c781	-0.033149246
236	0x3e42decd	0.19030304
237	0xbd8c3036	-0.06845133
238	0x3d8e79a2	0.06956793
239	0x3e9b00f5	0.30274168
240	0x3e3ec6db	0.18630545
241	0x3d5f288e	0.054482035
242	0x3dd5930f	0.1042844
243	0xbd0f0c23	-0.034923684
244	0x3cdfeb75	0.027333954
245	0x3e05d572	0.13069704
246	0xbe260151	-0.1621144
247	0xbd6c07b0	-0.05762452
248	0x3c8c2edc	0.017112188
249	0xbbfa160c	-0.0076320227
250	0x3db657da	0.08903475
251	0xbe41a269	-0.18909611
252	0x3df76637	0.12080043
253	0x3dc2fd76	0.09521
254	0xbd9beb1b	-0.07613202
255	0xbc30a52f	-0.01078157

network_body._body_endoder.seq_layers.0.bias f4 [128]
0	0x00000000	0.0
1	0x00000000	0.0
2	0x00000000	0.0
3	0x00000000	0.0
4	0x00000000	0.0
5	0x00000000	0.0
6	0x00000000	0.0
7	0x00000000	0.0
8	0x00000000	0.0
9	0x00000000	0.0
10	0x00000000	0.0
11	0x00000000	0.0
12	0x00000000	0.0
13	0x00000000	0.0
14	0x00000000	0.0
15	0x00000000	0.0
16	0x00000000	0.0
17	0x00000000	0.0
18	0x00000000	0.0
19	0x00000000	0.0
20	0x00000000	0.0
21	0x00000000	0.0
22	0x00000000	0.0
23	0x00000000	0.0
24	0x00000000	0.0
25	0x00000000	0.0
26	0x00000000	0.0
27	0x00000000	0.0
28	0x00000000	0.0
29	0x00000000	0.0
30	0x00000000	0.0
31	0x00000000	0.0
32	0x00000000	0.0
33	0x00000000	0.0
34	0x00000000	0.0
35	0x00000000	0.0
36	0x00000000	0.0
37	0x00000000	0.0
38	0x00000000	0.0
39	0x00000000	0.0
40	0x00000000	0.0
41	0x00000000	0.0
42	0x00000000	0.0
43	0x00000000	0.0
44	0x00000000	0.0
45	0x00000000	0.0
46	0x00000000	0.0
47	0x00000000	0.0
48	0x00000000	0.0
49	0x00000000	0.0
50	0x00000000	0.0
51	0x00000000	0.0
52	0x00000000	0.0
53	0x00000000	0.0
54	0x00000000	0.0
55	0x00000000	0.0
56	0x00000000	0.0
57	0x00000000	0.0
58	0x00000000	0.0
59	0x00000000	0.0
60	0x00000000	0.0
61	0x00000000	0.0
62	0x00000000	0.0
63	0x00000000	0.0
64	0x00000000	0.0
65	0x00000000	0.0
66	0x00000000	0.0
67	0x00000000	0.0
68	0x00000000	0.0
69	0x00000000	0.0
70	0x00000000	0.0
71	0x00000000	0.0
72	0x00000000	0.0
73	0x00000000	0.0
74	0x00000000	0.0
75	0x00000000	0.0
76	0x00000000	0.0
77	0x00000000	0.0
78	0x00000000	0.0
79	0x00000000	0.0
80	0x00000000	0.0
81	0x00000000	0.0
82	0x00000000	0.0
83	0x00000000	0.0
84	0x00000000	0.0
85	0x00000000	0.0
86	0x00000000	0.0
87	0x00000000	0.0
88	0x00000000	0.0
89	0x00000000	0.0
90	0x00000000	0.0
91	0x00000000	0.0
92	0x00000000	0.0
93	0x00000000	0.0
94	0x00000000	0.0
95	0x00000000	0.0
96	0x00000000	0.0
97	0x00000000	0.0
98	0x00000000	0.0
99	0x00000000	0.0
100	0x00000000	0.0
101	0x00000000	0.0
102	0x00000000	0.0
103	0x00000000	0.0
104	0x00000000	0.0
105	0x00000000	0.0
106	0x00000000	0.0
107	0x00000000	0.0
108	0x00000000	0.0
109	0x00000000	0.0
110	0x00000000	0.0
111	0x00000000	0.0
112	0x00000000	0.0
113	0x00000000	0.0
114	0x00000000	0.0
115	0x00000000	0.0
116	0x00000000	0.0
117	0x00000000	0.0
118	0x00000000	0.0
119	0x00000000	0.0
120	0x00000000	0.0
121	0x00000000	0.0
122	0x00000000	0.0
123	0x00000000	0.0
124	0x00000000	0.0
125	0x00000000	0.0
126	0x00000000	0.0
127	0x00000000	0.0

network_body._body_endoder.seq_layers.2.weight f4 [128, 128]
0	0xbe1e18c2	-0.15439132
1	0xbe6bcb12	-0.23026684
2	0x3d8a79ac	0.06761488
3	0x3c0f87cf	0.008760407
4	0xbce9b117	-0.028526826
5	0xbbe3ca74	-0.0069516245
6	0x3dbe07ae	0.092788085
7	0x3dd75b72	0.10515489
8	0xbccfe0b3	-0.0253757
9	0xbdb11e38	-0.08648342
10	0xba6d20c3	-0.00090457144
11	0x3dfdfbb2	0.12401523
12	0xbdd0a23a	-0.10187192
13	0x3d620f22	0.055190213
14	0xbdee2271	-0.11627663
15	0x3da333ee	0.07968889
16	0x3e08bedb	0.13354056
17	0xbdf716a4	-0.12064865
18	0x3dfca29c	0.12335703
19	0x3d3f92a3	0.046770703
20	0x3e2b9ad7	0.16758285
21	0xbe4db631	-0.20089032
22	0xbdaa5118	-0.08316249
23	0xbdbb3858	-0.09141606
24	0x3e2a303d	0.16619964
25	0x3ddfdc3c	0.10930678
26	0xbd481b3f	-0.04885411
27	0x3d5af9a3	0.05346073
28	0x3db3d248	0.08780342
29	0x3d83e5b2	0.06440295
30	0x3d182b2b	0.037150543
31	0x3dddac2d	0.108238555
32	0xbc9986e8	-0.018741086
33	0xbd834f78	-0.06411642
34	0x3ad0d0d0	0.0015931372
35	0x3de7ce75	0.113186754
36	0xbd069409	-0.03285602
37	0x3cb3ae67	0.021933747
38	0x3e0763d7	0.1322168
39	0xbe00f575	-0.12593634
40	0x3e069b2d	0.13145132
41	0x3d85f7cd	0.06541405
42	0xbd152767	-0.03641453
43	0x3d6dc447	0.058048513
44	0x3da515c7	0.08060794
45	0x3ca874a1	0.020563425
46	0xbc365b14	-0.011130113
47	0xbcc273a3	-0.02373678
48	0x3d7eb08b	0.062180083
49	0x3d25ef90	0.040511668
50	0x38fd4fe8	0.00012078864
51	0x3d355092	0.04426629
52	0xbe51746d	-0.20454569
53	0x3dcb9e3b	0.099422894
54	0xbe320391	-0.17384173
55	0x3c715507	0.014729745
56	0x3d4f2fc5	0.050582666
57	0xbccd8206	-0.025086414
58	0x3b2e556f	0.0026601215
59	0xbd2f2b8a	-0.04276613
60	0xbdf65198	-0.120272815
61	0xbe110b85	-0.1416455
62	0x3d8f6f5f	0.07003664
63	0xbd564a70	-0.052317083
64	0x3dd01ad0	0.10161364
65	0x3e469eca	0.1939651
66	0x3cb7464c	0.022372387
67	0xbd3f1c14	-0.046657637
68	0x3d57e676	0.05271002
69	0x3d6ab870	0.0573048
70	0x3d7d19dd	0.061792243
71	0x3c68a6e1	0.014199943
72	0x3c8f15ba	0.017466415
73	0xbe3a030b	-0.18165223
74	0xbcd49b88	-0.02595307
75	0x3b6a6fcf	0.003577221
76	0xbd8a5592	-0.067546025
77	0x3db396a3	0.08768966
78	0xbdcb805b	-0.09936591
79	0x3d37a0da	0.044831134
80	0xbceb75d5	-0.02874271
81	0x3da765e1	0.08173729
82	0x3d262e93	0.04057176
83	0xbc971367	-0.018441869
84	0xbd9844fc	-0.07435033
85	0x3d49b3e4	0.049243823
86	0x3c63617b	0.013878222
87	0xbd9b3d9b	-0.0758011
88	0xbcbc3bdb	-0.02297776
89	0x3c8c8bfb	0.017156592
90	0x3c5c798d	0.013456714
91	0xbdd033b5	-0.10166112
92	0x3e15ca98	0.14628065
93	0x3df60c94	0.12014118
94	0x3db18312	0.08667578
95	0x3d2de0d4	0.04245074
96	0x3c85869e	0.016299542
97	0x3d66eacb	0.05637626
98	0xbd20638c	-0.039157435
99	0x3cabef6d	0.02098819
100	0xbccba575	-0.02485917
101	0xbca1b3bb	-0.019739022
102	0x3e43a343	0.19105248
103	0xbb944788	-0.0045251288
104	0xbdd30a22	-0.10304667
105	0x3dc40728	0.095716774
106	0x3d01c5f5	0.031682927
107	0x3ca56776	0.020190936
108	0x3e65fdc4	0.22460085
109	0xbe26048e	-0.16212675
110	0xbcaedadf	-0.0213446
111	0xbdf9dd07	-0.12200361
112	0xbe20e4aa	-0.15712228
113	0x3de224c9	0.110421725
114	0xbd9376ca	-0.072003916
115	0x3e2d51fc	0.16925806
116	0xbd8c0871	-0.068375476
117	0xbe14efc6	-0.14544591
118	0x3dc8fc62	0.09813763
119	0xbdd575e7	-0.10422879
120	0x3ab0cb69	0.0013488355
121	0xbc83bd8e	-0.016081598
122	0xbe0739cf	-0.13205646
123	0xbcba9830	-0.022777647
124	0x3be852d1	0.0070899506
125	0xbe442b5c	-0.19157165
126	0x3dddc9f9	0.10829539
127	0x3c28ac38	0.010294966
128	0x3bfa81dc	0.007644875
129	0xbd312a93	-0.043253493
130	0xbd1dea36	-0.03855344
131	0xbdc7c3f9	-0.09754176
132	0x3e7debda	0.24797001
133	0x3c1bda12	0.009512441
134	0x3df7f591	0.12107385
135	0xbbc7cbb8	-0.006097283
136	0xbd506c89	-0.050884757
137	0x3c9fce38	0.019507512
138	0xbc6d1a62	-0.014471622
139	0x3ddff658	0.10935658
140	0xbdb3cae1	-0.087789305
141	0xbd4d1e12	-0.050077505
142	0x3d3e2a4c	0.046427056
143	0xbdd35cf0	-0.10320461
144	0xbbbd5f1d	-0.0057791607
145	0x3d834a39	0.06410641
146	0x3e53ff54	0.20702869
147	0x3d9a0ccf	0.07521974
148	0xbdb89a8f	-0.09013855
149	0x3e63779e	0.22213599
150	0x3e24420c	0.1604082
151	0xbb288656	-0.0025714836
152	0x3d883caa	0.06652196
153	0x3d482a99	0.04886875
154	0xbe082b50	-0.13297772
155	0xbcab63cb	-0.020921608
156	0x3d49b5cc	0.04924564
157	0xbdb41f0f	-0.087949865
158	0x3c7a33e3	0.01527116
159	0xbe447944	-0.19186884
160	0xbda03a54	-0.07823625
161	0xbd24fa44	-0.040277734
162	0x3dcbacb9	0.099450536
163	0x3cb53805	0.022121439
164	0x3ccdbf77	0.025115712
165	0xbc49d5a4	-0.012319002
166	0x3c29c257	0.010361276
167	0x3e0aa2d1	0.13538672
168	0xbd13e952	-0.036111183
169	0xbdb54038	-0.088501394
170	0xbcb9a401	-0.022661211
171	0xbc9f58b7	-0.019451482
172	0xbe142fde	-0.14471385
173	0xbd18ce69	-0.037306223
174	0x3dc25b2d	0.09490047
175	0x3ca0a678	0.019610628
176	0xbd43b104	-0.047776237
177	0x3c90d58d	0.017679954
178	0x3d5b8932	0.053597637
179	0x3d5c3b32	0.05376739
180	0xbcede43c	-0.029039495
181	0x3e2b058f	0.16701339
182	0x3dbf8c6f	0.093529575
183	0x3c8f65be	0.01750457
184	0xbbf45f80	-0.0074576735
185	0xbd1dd7c7	-0.03853586
186	0xbdd66a32	-0.10469474
187	0xbb931b82	-0.004489363
188	0x3de4b246	0.111668155
189	0xbde96d94	-0.113978535
190	0xbddc48c7	-0.10756069
191	0x3e203ca9	0.1564814
192	0x3d544647	0.051824834
193	0xbca0d287	-0.019631637
194	0x3e092422	0.1339269
195	0x3c77aab8	0.015116386
196	0x3cac4363	0.021028226
197	0x3c7e10d9	0.0155069465
198	0xbcd3197f	-0.025768993
199	0x3d7980b5	0.06091376
200	0x3d9f6e68	0.0778473
201	0xbca1b773	-0.019740796
202	0x3e8694ea	0.26285487
203	0x3e1fb85d	0.15597673
204	0x3bb1e7f6	0.005429263
205	0x3b136672	0.0022491482
206	0xbd88465f	-0.06654047
207	0x3e0609e1	0.13089706
208	0xbd46779f	-0.048453923
209	0xba0ac881	-0.00052941596
210	0xbe162c17	-0.14665256
211	0xbd910220	-0.070804834
212	0x3d72a8bc	0.05924295
213	0xbd9dc4d0	-0.07703555
214	0x3ca0db42	0.0196358
215	0xbd9bc2fc	-0.0760555
216	0xbe2e2aaf	-0.1700847
217	0x3e1bb393	0.15205221
218	0xbd993343	-0.074804805
219	0x3d8f4a64	0.06996611
220	0x3d6feec8	0.05857733
221	0x3e175c42	0.14781287
222	0x3cb50150	0.022095352
223	0xbcd023d4	-0.02540771
224	0xbdbbccd6	-0.09169929
225	0xbc0c472d	-0.0085618915
226	0x3e0a9b3d	0.13535781
227	0xbd36e55a	-0.04465232
228	0x3cb093fe	0.021554943
229	0x3d680640	0.056646585
230	0x3da4606c	0.080262035
231	0x3d2f051b	0.04272948
232	0x3d3538a5	0.044243474
233	0xbbc2601c	-0.0059318673
234	0xbd3bb938	-0.045830935
235	0x3d612070	0.054962575
236	0x3dad3988	0.08458239
237	0x3dc74087	0.097291045
238	0xbbe0f2c5	-0.006864878
239	0xbd1267a4	-0.03574337
240	0x3e234780	0.15945244
241	0x3d88bd99	0.06676788
242	0x3d63229b	0.055452924
243	0xbd1d4c1e	-0.03840267
244	0x3d7b0535	0.061284263
245	0xbd4f90ba	-0.05067513
246	0x3d165270	0.036699712
247	0xbd03ac17	-0.03214654
248	0x3c20e2f3	0.009819734
249	0x3d95d3c4	0.07315782
250	0xbd45f5da	-0.048330165
251	0x3d1fdd4c	0.039029405
252	0xbc1993c0	-0.009373605
253	0xbd20a673	-0.03922124
254	0x3c132a59	0.008982264
255	0x3d6df1a7	0.058091786

network_body._body_endoder.seq_layers.2.bias f4 [128]
0	0x00000000	0.0
1	0x00000000	0.0
2	0x00000000	0.0
3	0x00000000	0.0
4	0x00000000	0.0
5	0x00000000	0.0
6	0x00000000	0.0
7	0x00000000	0.0
8	0x00000000	0.0
9	0x00000000	0.0
10	0x00000000	0.0
11	0x00000000	0.0
12	0x00000000	0.0
13	0x00000000	0.0
14	0x00000000	0.0
15	0x00000000	0.0
16	0x00000000	0.0
17	0x00000000	0.0
18	0x00000000	0.0
19	0x00000000	0.0
20	0x00000000	0.0
21	0x00000000	0.0
22	0x00000000	0.0
23	0x00000000	0.0
24	0x00000000	0.0
25	0x00000000	0.0
26	0x00000000	0.0
27	0x00000000	0.0
28	0x00000000	0.0
29	0x00000000	0.0
30	0x00000000	0.0
31	0x00000000	0.0
32	0x00000000	0.0
33	0x00000000	0.0
34	0x00000000	0.0
35	0x00000000	0.0
36	0x00000000	0.0
37	0x00000000	0.0
38	0x00000000	0.0
39	0x00000000	0.0
40	0x00000000	0.0
41	0x00000000	0.0
42	0x00000000	0.0
43	0x00000000	0.0
44	0x00000000	0.0
45	0x00000000	0.0
46	0x00000000	0.0
47	0x00000000	0.0
48	0x00000000	0.0
49	0x00000000	0.0
50	0x00000000	0.0
51	0x00000000	0.0
52	0x00000000	0.0
53	0x00000000	0.0
54	0x00000000	0.0
55	0x00000000	0.0
56	0x00000000	0.0
57	0x00000000	0.0
58	0x00000000	0.0
59	0x00000000	0.0
60	0x00000000	0.0
61	0x00000000	0.0
62	0x00000000	0.0
63	0x00000000	0.0
64	0x00000000	0.0
65	0x00000000	0.0
66	0x00000000	0.0
67	0x00000000	0.0
68	0x00000000	0.0
69	0x00000000	0.0
70	0x00000000	0.0
71	0x00000000	0.0
72	0x00000000	0.0
73	0x00000000	0.0
74	0x00000000	0.0
75	0x00000000	0.0
76	0x00000000	0.0
77	0x00000000	0.0
78	0x00000000	0.0
79	0x00000000	0.0
80	0x00000000	0.0
81	0x00000000	0.0
82	0x00000000	0.0
83	0x00000000	0.0
84	0x00000000	0.0
85	0x00000000	0.0
86	0x00000000	0.0
87	0x00000000	0.0
88	0x00000000	0.0
89	0x00000000	0.0
90	0x00000000	0.0
91	0x00000000	0.0
92	0x00000000	0.0
93	0x00000000	0.0
94	0x00000000	0.0
95	0x00000000	0.0
96	0x00000000	0.0
97	0x00000000	0.0
98	0x00000000	0.0
99	0x00000000	0.0
100	0x00000000	0.0
101	0x00000000	0.0
102	0x00000000	0.0
103	0x00000000	0.0
104	0x00000000	0.0
105	0x00000000	0.0
106	0x00000000	0.0
107	0x00000000	0.0
108	0x00000000	0.0
109	0x00000000	0.0
110	0x00000000	0.0
111	0x00000000	0.0
112	0x00000000	0.0
113	0x00000000	0.0
114	0x00000000	0.0
115	0x00000000	0.0
116	0x00000000	0.0
117	0x00000000	0.0
118	0x00000000	0.0
119	0x00000000	0.0
120	0x00000000	0.0
121	0x00000000	0.0
122	0x00000000	0.0
123	0x00000000	0.0
124	0x00000000	0.0
125	0x00000000	0.0
126	0x00000000	0.0
127	0x00000000	0.0

action_model._continuous_distribution.log_sigma f4 [1, 2]
0	0x00000000	0.0
1	0x00000000	0.0

action_model._continuous_distribution.mu.weight f4 [2, 128]
0	0x3d0a38ab	0.03374545
1	0x3bfd20e5	0.0077248686
2	0xbc9cf88a	-0.019161481
3	0x3ae3d728	0.0017382847
4	0xbcd25162	-0.025673572
5	0x3cc9a828	0.024616316
6	0xbc15bb6c	-0.009138923
7	0x3d01732b	0.031603973
8	0x3c788767	0.015169001
9	0x3bb872f3	0.0056289374
10	0xbc2e182d	-0.010625881
11	0x3baad8a2	0.005213813
12	0x3c03bdaf	0.00804083
13	0xbd0738cf	-0.03301316
14	0x3cedf475	0.02904723
15	0xbcbd035e	-0.023072895
16	0xb96d51e0	-0.00022632582
17	0x3d104782	0.035224445
18	0x3c482e63	0.012218091
19	0x3c4f4fca	0.012653301
20	0x3cc4c859	0.024021314
21	0xbc5c288b	-0.013437401
22	0xbce17d13	-0.02752546
23	0x3c88a195	0.01667861
24	0x3c59df82	0.013297917
25	0x3bfa3cf0	0.007636659
26	0x3d1a8511	0.03772456
27	0xbc93d106	-0.018044006
28	0xbb6874ba	-0.0035469965
29	0xbc8e8508	-0.017397419
30	0xbcdcebf2	-0.026967976
31	0x3b8f04c1	0.0043645804
32	0x3caf9302	0.021432403
33	0x3c4dc930	0.012560174
34	0xba44eb1a	-0.00075118395
35	0x3c43d70e	0.0119531285
36	0xbd287412	-0.04112632
37	0xbc0bfbcc	-0.00854392
38	0x3cc6d00a	0.024269123
39	0xbcd321aa	-0.025772888
40	0x3cafe577	0.021471722
41	0xbbf8d91a	-0.00759424
42	0x3c45cd2a	0.012072841
43	0x3d14b16a	0.036302008
44	0xbc09bf23	-0.008407387
45	0xbbb8cefe	-0.0056399098
46	0x3bee81f2	0.0072786743
47	0xbaab4f70	-0.0013069939
48	0xbc11e08e	-0.008903636
49	0xbd121f97	-0.035674658
50	0x3c0c5bcb	0.008566807
51	0x3c925ac7	0.017865552
52	0x3bff3c03	0.0077891364
53	0x3cd462d2	0.025926027
54	0x3c1019b6	0.008795192
55	0xbba0afff	-0.004903793
56	0xbcfd8d35	-0.030951122
57	0xbd13bb34	-0.036067203
58	0x3d044c9f	0.032299634
59	0x3c9d3615	0.019190827
60	0xbc1ce95d	-0.0095771225
61	0x3c7ebb1d	0.015547541
62	0xbc0c01a8	-0.008545317
63	0x3c566e92	0.013087885
64	0xbce1b68f	-0.027552871
65	0x3a4041b1	0.00073340075
66	0x3b09c2df	0.0021020693
67	0x3cd5af33	0.026084518
68	0x3c898679	0.016787754
69	0xbce99633	-0.028514003
70	0xbc7ee948	-0.015558548
71	0xbb2a55a4	-0.0025990987
72	0xbc199b43	-0.009375396
73	0x3c0659cd	0.008200121
74	0xbc20fb53	-0.009825545
75	0xbb03d247	-0.0020114349
76	0x3cb59694	0.022166528
77	0xbc2abf95	-0.010421653
78	0xbbb69a67	-0.0055726054
79	0xbc9b5558	-0.018961594
80	0xbd2098ff	-0.03920841
81	0xbc516e73	-0.012782681
82	0x3cfb0445	0.030641684
83	0xbc1ab8c4	-0.009443466
84	0x3c05519c	0.008137133
85	0xbac9393d	-0.0015352141
86	0x3c977f2a	0.018493254
87	0xbc9f211b	-0.019424966
88	0x3d3a150e	0.045430236
89	0x3cb126e7	0.021624995
90	0x3c496f2b	0.012294571
91	0x3c377a23	0.011198553
92	0x3a2042af	0.0006113452
93	0x3cb75ec6	0.022384059
94	0xbc8f7327	-0.017510964
95	0xbc0f2c69	-0.008738616
96	0x3c12cbea	0.00895975
97	0xbc90b7d8	-0.017665789
98	0xbc5451e2	-0.0129589755
99	0x3cc19f47	0.02363552
100	0xbbf2b07b	-0.007406292
101	0x3cafc996	0.021458428
102	0xbcc25cf8	-0.023725972
103	0xba820dcb	-0.0009922324
104	0xbc94d8b0	-0.01816973
105	0x3b1a05e7	0.0023502053
106	0xbcecc14f	-0.02890077
107	0x3c7589f5	0.014986505
108	0xbc4f1e6d	-0.012641531
109	0x3b2cb672	0.0026353863
110	0xbcba2ea3	-0.022727316
111	0xbc830458	-0.015993282
112	0x3c31c73d	0.010850725
113	0xbc9c5196	-0.019081872
114	0x3c80f66f	0.015742509
115	0xbae942a8	-0.0017796354
116	0x3d17b660	0.03703916
117	0x3cc7b4af	0.024378149
118	0x3c71f83f	0.014768659
119	0xbc55ab17	-0.013041279
120	0xbbb6ccf6	-0.0055786325
121	0xbc332429	-0.010933914
122	0xbc500878	-0.012697332
123	0x3cf9f512	0.030512366
124	0xbbb263a4	-0.005444007
125	0xbb8fab6f	-0.00438445
126	0x3c4b2a2e	0.012400193
127	0xbba4faf3	-0.0050347983
128	0x3bcbc6a8	0.00621875
129	0x3bbed40b	0.0058236173
130	0x3cf46037	0.029831035
131	0x3a0c01c3	0.00053408387
132	0x3b3f962f	0.0029233804
133	0xbbb55455	-0.005533735
134	0x3be17660	0.0068805665
135	0x3c90260c	0.017596267
136	0x3764e4af	1.3643104e-05
137	0x3b6c24aa	0.0036032596
138	0x3c969d77	0.018385632
139	0x3bc90aaf	0.006135307
140	0xbc3df2b5	-0.01159351
141	0xbd08ca44	-0.03339602
142	0x3ae3ec0b	0.0017389072
143	0x3cf0397f	0.029324291
144	0x396b8c83	0.00022463691
145	0x3ab40da2	0.0013736973
146	0xbc02394c	-0.007948231
147	0xbbc14cfc	-0.00589907
148	0x3d012b4c	0.03153543
149	0xbc8beddc	-0.017081194
150	0xbcb84c25	-0.022497246
151	0xbcdd31d7	-0.027001305
152	0x3c54018d	0.012939823
153	0xbc0e761f	-0.008695154
154	0x3bbc4850	0.005745925
155	0xbc4ead23	-0.012614521
156	0xbc464e75	-0.012103667
157	0xbcb83e02	-0.022490505
158	0xbc25d868	-0.010122396
159	0x3b2cefca	0.0026388043
160	0x3bd5c622	0.0065238634
161	0x3c0cc9f5	0.008593072
162	0xbcc1e9dc	-0.023671083
163	0xbccf6bba	-0.025319923
164	0xbc46c250	-0.012131289
165	0x3d18f743	0.037345182
166	0x3b026057	0.0019893849
167	0xbc1a10b9	-0.009403401
168	0x3cb1aa0f	0.021687536
169	0xbbc854f0	-0.006113641
170	0xba02ca73	-0.0004989274
171	0x3c1e5a8d	0.009665144
172	0xbbc61d2c	-0.006045958
173	0xbb8fe90f	-0.0043917964
174	0x3cf8999d	0.030346686
175	0x3c60664a	0.013696263
176	0xbc856bd4	-0.016286768
177	0x3c30deaf	0.010795279
178	0x3d0b323d	0.033983458
179	0xbcb35cf9	-0.021894919
180	0xbc1a6fc9	-0.009426066
181	0x3a0a0a75	0.00052658404
182	0xbccf9530	-0.025339693
183	0xbc40c514	-0.011765737
184	0xbd0984cc	-0.03357391
185	0xbbb69470	-0.0055718943
186	0x3d0daeea	0.03459064
187	0xbd16c10c	-0.036805198
188	0xbc104200	-0.008804798
189	0xbbddfec7	-0.0067747566
190	0x3ca1a96f	0.019734113
191	0x3c8b6e81	0.017020466
192	0xbc5b8a7a	-0.013399715
193	0x3c1b5d9e	0.009482769
194	0xbceb0ba0	-0.028692067
195	0xbc5a20fd	-0.013313529
196	0x3c9bbae9	0.019010024
197	0xbcca91cf	-0.02472773
198	0x3c08731d	0.008328226
199	0xbb9f220a	-0.0048563527
200	0xbd0c7100	-0.034287453
201	0xbc97bc17	-0.018522305
202	0x3c321ef8	0.010871641
203	0x3c93dd38	0.018049821
204	0xbca239c9	-0.019802945
205	0xbcb95501	-0.02262354
206	0xbcdf1ce3	-0.027235454
207	0xbbe75177	-0.007059272
208	0x3d1034a8	0.035206467
209	0xbb1cc0f3	-0.0023918718
210	0xb8a52b7d	-7.8759134e-05
211	0xbd10ecdf	-0.035382148
212	0xbc80e293	-0.015733039
213	0xbc67a008	-0.0141372755
214	0x3d10fccd	0.03539734
215	0xbd28e71b	-0.041236024
216	0x3ca6b4b0	0.02034983
217	0x3c42a81d	0.011880902
218	0x3cc79fa2	0.024368111
219	0x3d226091	0.039642874
220	0x3c874eaf	0.016517011
221	0x3b3deac1	0.0028979036
222	0x3c5a3c23	0.013320002
223	0xbcbdefce	-0.023185637
224	0x3c88a84e	0.016681816
225	0xbcb2520e	-0.021767642
226	0x3cba5860	0.022747219
227	0xb998a56e	-0.00029114954
228	0xbc301cf8	-0.010749094
229	0xbc90f44b	-0.017694613
230	0x3d5356d3	0.051596474
231	0x3c9e3143	0.0193106
232	0x3c969f23	0.01838643
233	0xbc2d048e	-0.010560168
234	0xbc0b82fd	-0.008515117
235	0xbcf42ab8	-0.029805526
236	0x3c37eeb9	0.0112263495
237	0x3cab8081	0.020935299
238	0xbd324479	-0.043522332
239	0x3c089273	0.008335697
240	0xbc11d4b0	-0.008900806
241	0xba56d7d2	-0.0008195612
242	0x3baa1f63	0.00519173
243	0xbc36428c	-0.011124264
244	0x3c81ddd5	0.015852848
245	0x3ce9e97f	0.028553722
246	0xbc73cfa7	-0.014881051
247	0x3c4da222	0.0125508625
248	0x3c0ef37a	0.0087250415
249	0xbd12832e	-0.035769634
250	0x3be586e7	0.007004607
251	0xbbbf9fcb	-0.005847906
252	0x3b14fad7	0.002273252
253	0x3ca430f4	0.020042874
254	0x3ce238af	0.02761492
255	0x3b9147f6	0.0044336272

action_model._continuous_distribution.mu.bias f4 [2]
0	0x00000000	0.0
1	0x00000000	0.0

action_model._discrete_distribution.branches.0.weight f4 [1, 128]
0	0x3c5e70d0	0.013576701
1	0xbcd4515b	-0.0259177
2	0xbb9d5bdf	-0.0048022117
3	0x3bd66c55	0.006543676
4	0xbbba97e9	-0.0056943786
5	0x3c3af971	0.0114120105
6	0x3c22ea2b	0.009943525
7	0x3ac2da51	0.0014866089
8	0xbb23a5c2	-0.0024970626
9	0xbab39d3f	-0.0013703479
10	0xbc45567f	-0.012044548
11	0xbc18840b	-0.009308825
12	0x3abe454c	0.0014516502
13	0x3c0082f9	0.007843726
14	0xbc80b9b8	-0.015713558
15	0x3c6a13b7	0.014286927
16	0x3c05eaab	0.008173625
17	0xbc618482	-0.0137645025
18	0x3adb3342	0.001672365
19	0xbc19e09f	-0.009391933
20	0x3b9a61c0	0.0047113597
21	0xbc4aca8f	-0.012377395
22	0x3cba0491	0.022707256
23	0xbb9fb345	-0.0048736655
24	0x3c5e0948	0.0135520175
25	0xbba42e3b	-0.005010394
26	0x3b8e462f	0.0043418626
27	0xbb91c087	-0.004448
28	0x3aa1aead	0.0012335383
29	0xbba47997	-0.0050193775
30	0xbb5ddf03	-0.003385485
31	0x3bad816e	0.0052949702
32	0xbbf01ca3	-0.0073276325
33	0x3bebb7e2	0.0071935514
34	0x3b53f67d	0.0032342963
35	0xbc784ea0	-0.015155464
36	0x3bbaa762	0.005696223
37	0xbbbc5c1d	-0.0057482854
38	0x3c003b61	0.007826657
39	0x3b7d0733	0.0038609027
40	0xbb4fe47d	-0.0031721883
41	0xbb941b74	-0.004519874
42	0xbc50ac42	-0.012736382
43	0xbbc1aaca	-0.005910252
44	0xbc1fa2ab	-0.009743373
45	0x3b9b682d	0.0047426433
46	0x3ba9da25	0.0051834756
47	0xbaee02db	-0.001815881
48	0x3ad51c5a	0.001625906
49	0xbc0a8b35	-0.008456041
50	0xb948f502	-0.00019164759
51	0x3bab766f	0.0052326242
52	0x39e902bd	0.00044443263
53	0xbb10b4a0	-0.0022080317
54	0xbc359eaa	-0.011085192
55	0xbbf29697	-0.0074032056
56	0x3ba97be2	0.0051722387
57	0xbb65dc10	-0.0035073794
58	0xbba8f048	-0.005155597
59	0xbb536b6d	-0.0032260076
60	0x3bb1997b	0.0054199076
61	0x3bfa0ec0	0.007631153
62	0x3c315727	0.010824001
63	0xbc1e7457	-0.009671292
64	0xbc10afa5	-0.008830939
65	0xbb386dc6	-0.0028141602
66	0xbb936f4e	-0.0044993525
67	0x3c141a37	0.009039453
68	0x3c24616d	0.010032994
69	0xbc24321e	-0.0100217145
70	0x3c480e8b	0.012210499
71	0xbbb931e0	-0.0056516975
72	0x3c563d58	0.013076149
73	0x3c171ecf	0.009223654
74	0xba82fe17	-0.0009993938
75	0xbb010faf	-0.0019693186
76	0xbb3915f4	-0.0028241845
77	0xbbfbd5bd	-0.0076853917
78	0xbc82c09f	-0.01596099
79	0x3c84259f	0.01613122
80	0x3ab47ee5	0.0013770728
81	0xbcac178d	-0.021007324
82	0xbb5259d2	-0.0032096994
83	0xbbf0a4eb	-0.0073438785
84	0x3b5eb46d	0.0033982054
85	0x3ba322fb	0.004978535
86	0xbcbd43ad	-0.02310356
87	0x3c483bf1	0.012221322
88	0x39acdf10	0.0003297259
89	0xba9c232f	-0.0011912341
90	0x3bebf00a	0.0072002457
91	0xbc11116b	-0.00885425
92	0xbca7dc72	-0.020490859
93	0x3aec4d60	0.0018028431
94	0xbb90c8f1	-0.0044184853
95	0xbb658ebb	-0.00350277
96	0x3c64fd1d	0.0139763625
97	0x3bb72912	0.0055896128
98	0xbc18c8cf	-0.00932522
99	0xb9a7d8a7	-0.0003201414
100	0xbb90cc17	-0.0044188607
101	0x3bd06a43	0.0063603236
102	0xbabd6ef6	-0.0014452625
103	0x3bdaf167	0.0066816094
104	0xbc5e75a0	-0.013577849
105	0xbc256923	-0.010095867
106	0xbbd82b13	-0.0065969317
107	0xbb38f9d7	-0.0028225088
108	0xbb315036	-0.0027055866
109	0x3b1693c6	0.0022976263
110	0x3bb6d464	0.005579518
111	0xbb3e4923	-0.0029035292
112	0xbc15b37e	-0.009137033
113	0xbaa09d3f	-0.0012253894
114	0x3c5fa1a7	0.013649381
115	0x3b494a4d	0.0030714453
116	0x3bc39cc9	0.005969618
117	0x3c9e1d4f	0.019301085
118	0xbab19259	-0.0013547643
119	0x3cc3dbd5	0.023908535
120	0xbc16adb4	-0.0091966875
121	0xba2d082e	-0.0006600645
122	0xbb82c54b	-0.0039908043
123	0xbc468102	-0.012115719
124	0xb8909fcc	-6.8962196e-05
125	0x3c9c0747	0.019046439
126	0x3c0bda25	0.008535896
127	0xbc13c55f	-0.009019225

network_body._body_endoder.seq_layers.0.weight f4 [128, 44]
0	0x3e1f575f	0.15560673
1	0xbe241e71	-0.16027237
2	0x3d8d0f52	0.06887688
3	0xbe422340	-0.1895876
4	0xbe03e1bd	-0.12879081
5	0xbe186c8c	-0.14885157
6	0xbdb7d488	-0.08976084
7	0x3e62682c	0.22110051
8	0xbe1eaa04	-0.15494543
9	0x3df81cb3	0.12114849
10	0xbe4b248e	-0.19838163
11	0xbdfa7cbe	-0.12230824
12	0x3dc7ae7d	0.09750078
13	0xbc5461c1	-0.0129627595
14	0xbce3e374	-0.027818419
15	0xbd3e5d96	-0.04647597
16	0xbcbc4edc	-0.022986822
17	0x3da9a706	0.0828381
18	0x3e1d17c9	0.15341105
19	0xbe43d615	-0.19124635
20	0xbe034045	-0.12817486
21	0xbc9990a1	-0.018745722
22	0x3e0ae08a	0.13562217
23	0xbe135c43	-0.14390664
24	0x3e8e461d	0.27787867
25	0x3d0dfad0	0.03466302
26	0x3c01a594	0.007913012
27	0x3e0f7cf2	0.14012507
28	0x3e26b2c3	0.1627913
29	0xbe403fc5	-0.18774326
30	0xbe383353	-0.17988329
31	0xbe20c2ef	-0.15699361
32	0xbcad42b0	-0.021149963
33	0x3ec5ed32	0.38657528
34	0x3cae6985	0.02129055
35	0xbe27ba8e	-0.16379759
36	0xbb5a9ffc	-0.0033359518
37	0x3d3c588d	0.045982886
38	0x3b849c15	0.0040469267
39	0x3d95d970	0.073168635
40	0x3d1cf71b	0.038321596
41	0x3dd83b40	0.10558176
42	0x3dc2341a	0.09482594
43	0xbe06fae6	-0.13181648
44	0x3dda4ec0	0.106595516
45	0xbe33629b	-0.17518084
46	0x3d6c0b55	0.057627995
47	0xbcc5dd73	-0.024153447
48	0xbe8c7c44	-0.27438557
49	0x3eb1656b	0.34647688
50	0x3ccc84b1	0.024965616
51	0xbe1df90f	-0.1542704
52	0xbe93c6b1	-0.28862527
53	0xbd1289e0	-0.03577602
54	0xbdb19c30	-0.086723685
55	0x3e3be402	0.18348697
56	0xbe987dba	-0.29783422
57	0xbd67d299	-0.056597326
58	0x3d924068	0.07141191
59	0x3dd8b102	0.105806366
60	0xbe0d1256	-0.13776526
61	0x3e9e5c23	0.3092967
62	0xba5dc454	-0.0008459736
63	0x3d80ff33	0.062986754
64	0xbe41a75a	-0.18911496
65	0xbe41dd44	-0.18932062
66	0x3e61754b	0.220174
67	0xbe769439	-0.2407998
68	0x3b92195d	0.00445859
69	0xbe9ab2f3	-0.30214652
70	0xbe938c1a	-0.28817827
71	0x3d77ca0e	0.06049543
72	0x3e2ae74c	0.16689795
73	0xbd2ebe0a	-0.042661704
74	0xbd58e706	-0.052954696
75	0x3e04e41c	0.12977642
76	0x3c6229dd	0.013803926
77	0xbdd73467	-0.10508042
78	0xbd4bb4c9	-0.049732957
79	0xbd320ff5	-0.04347225
80	0x3e988175	0.29786268
81	0x3d93f1e6	0.07223873
82	0x3db4098d	0.08790884
83	0xbe8d7525	-0.27628437
84	0xbde9e565	-0.11420707
85	0x3c7da56c	0.015481334
86	0x3ad2f25e	0.001609396
87	0x3d3a8c0b	0.04554371
88	0x3da3e16f	0.080019824
89	0xbe51abfe	-0.20475766
90	0x3cd5d17b	0.026100865
91	0x3db2072a	0.08692773
92	0x3e3d121e	0.18463942
93	0x3c014fa3	0.007892522
94	0xbc7d856f	-0.015473708
95	0x3ce15c2d	0.027509773
96	0xbec6c124	-0.3881923
97	0xbc800571	-0.015627595
98	0x3e7f25ea	0.24916807
99	0x3c0ffade	0.008787839
100	0x3e11586f	0.14193891
101	0xbcf9b33a	-0.03048097
102	0x3d32b6ce	0.043631367
103	0xbd745200	-0.059648514
104	0xbe76c21c	-0.24097484
105	0x3e2311ba	0.15924731
106	0xbd3fc85c	-0.046821937
107	0x3dc1fa8d	0.09471617
108	0xbdfa1ef0	-0.12212932
109	0x3cdb2b0e	0.026753929
110	0xbe9af847	-0.30267546
111	0xbd8cd117	-0.06875818
112	0x3e28b390	0.16474748
113	0xbe195630	-0.14974284
114	0xbe8f0566	-0.27933806
115	0xbe9bed36	-0.30454415
116	0xbd2c519f	-0.042070027
117	0x3dfcb79b	0.123397075
118	0xbdb734cb	-0.08945616
119	0x3df9df9e	0.12200855
120	0x3d9d9340	0.07694101
121	0xbdf2d90f	-0.11857807
122	0x3da3d529	0.079996414
123	0x3da9c090	0.082886815
124	0x3dac180e	0.084030256
125	0xbdc38e2b	-0.09548601
126	0xbdee5e85	-0.11639122
127	0xbb77388c	-0.0037722914
128	0x3e0bdd9d	0.13658758
129	0x3d297618	0.04137239
130	0xbe912875	-0.2835118
131	0x3e4b41ea	0.19849363
132	0xbd5bb1ff	-0.053636547
133	0x3da479e6	0.08031063
134	0xbc495d63	-0.012290332
135	0x3daeaf03	0.085294746
136	0xbd0819b4	-0.033227637
137	0xbd73454b	-0.059392255
138	0xbe78d9f5	-0.24301894
139	0x3cfa48c0	0.030552268
140	0xbe04e7fa	-0.12979117
141	0xbd419437	-0.04726049
142	0x3ec0cc08	0.37655663
143	0xbd9814ce	-0.07425843
144	0xbbe5cbfd	-0.0070128427
145	0x3d945a94	0.07243839
146	0x3e2cfe84	0.16893965
147	0xbe1f1786	-0.15536317
148	0x3e51291f	0.20425843
149	0xbdb0388a	-0.08604534
150	0x3dcd4116	0.1002218
151	0xbd06d228	-0.032915264
152	0x3d6cbb00	0.057795525
153	0x3e4eb0e9	0.20184673
154	0x3e368bc2	0.17826751
155	0x3d6afff1	0.05737299
156	0x3de81c5c	0.11333534
157	0xbe466541	-0.19374563
158	0xbdd00e27	-0.10158949
159	0xbdd33675	-0.10313121
160	0x3c425ca1	0.011862905
161	0xbe184b5c	-0.14872497
162	0x3dcafef1	0.099119075
163	0x3d62f1db	0.055406433
164	0xbda06e81	-0.07833577
165	0x3e942c70	0.28940153
166	0xbda8bde0	-0.08239341
167	0xbe7934e7	-0.24336587
168	0xbdfb42c5	-0.12268595
169	0xbe09ac58	-0.1344465
170	0xbd9cf03b	-0.07663008
171	0x3dfb4e01	0.122707374
172	0xbe5751e0	-0.21027327
173	0xbdb6efc4	-0.089324504
174	0x3db9ab87	0.09065919
175	0x3e11f276	0.14252648
176	0xbd6cff29	-0.057860527
177	0x3ce29347	0.027658118
178	0x3d99b1ba	0.07504602
179	0xbe3751d5	-0.1790231
180	0xbdc2e6c9	-0.09516675
181	0xbd9dc4c8	-0.07703549
182	0xbd307a78	-0.043085545
183	0xbe7f04c5	-0.24904163
184	0x3e0f0273	0.13965778
185	0xbdd9bbb1	-0.106315024
186	0x3dd1e77d	0.10249231
187	0xbc9d7a2b	-0.019223293
188	0x3d848413	0.06470504
189	0x3cc87138	0.02446805
190	0xbe069b69	-0.13145222
191	0x3d316155	0.043305714
192	0x3c7d9cd3	0.015479284
193	0x3d3f10dd	0.04664694
194	0x3bae44ce	0.0053182608
195	0x3db5b855	0.08873049
196	0x3ddd8bb9	0.108176656
197	0x3d85b03e	0.06527756
198	0xbd44ac6f	-0.048016008
199	0xbd9591a4	-0.07303169
200	0x3e0c7eee	0.13720295
201	0xbe18a422	-0.14906362
202	0x3d97ce75	0.074124254
203	0xbe1c5e79	-0.15270413
204	0xbe4c00b2	-0.1992214
205	0x3dec46e7	0.11536961
206	0xbe79207c	-0.24328798
207	0x3d048145	0.032349844
208	0xbd8c5f34	-0.06854096
209	0x3d59ce77	0.053175416
210	0x3ea100b9	0.31445864
211	0x3ae468b5	0.0017426225
212	0xbe150efa	-0.14556494
213	0xbd7f6fb9	-0.062362406
214	0x3c511c32	0.01276307
215	0xbd84b406	-0.06479649
216	0xbca79325	-0.020455906
217	0x3e36d986	0.17856416
218	0xbddfd5e2	-0.10929467
219	0x3e2a2f16	0.16619524
220	0x3e310969	0.17288746
221	0x3e6859b6	0.22690472
222	0x3e3006b7	0.17190062
223	0xbd99b9dd	-0.07506154
224	0x3db46fa7	0.088103585
225	0xbdaea2d0	-0.08527148
226	0x3d4c6ed5	0.049910385
227	0xbdca198b	-0.09868153
228	0xbbd29f83	-0.0064277067
229	0x3e8e0047	0.27734587
230	0xbe1e9b76	-0.15488991
231	0x3e0d5216	0.13800845
232	0x3d2ca2e6	0.04214754
233	0x3e6ffc11	0.23436
234	0xbd3a1c00	-0.04543686
235	0xbe1061a9	-0.14099754
236	0xbe13d402	-0.14436343
237	0x3e14fe64	0.14550167
238	0x3e0ebca2	0.13939145
239	0x3b3ced49	0.0028827956
240	0xbe8075e2	-0.25089937
241	0x3dc4ca5d	0.0960891
242	0x3e676a47	0.22599135
243	0x3e340a83	0.17582135
244	0xbdcc3c76	-0.099724695
245	0x3da6faed	0.08153329
246	0xbead610c	-0.33863103
247	0xbd4a5fd0	-0.04940778
248	0xbe6a368c	-0.2287237
249	0x3e16b3be	0.14717004
250	0x3e26786d	0.16256876
251	0x3cb88a47	0.022526873
252	0x3c9794b1	0.018503519
253	0xbe64122f	-0.22272561
254	0xbe1aa098	-0.15100324
255	0x3da0245b	0.07819434

network_body._body_endoder.seq_layers.0.bias f4 [128]
0	0x00000000	0.0
1	0x00000000	0.0
2	0x00000000	0.0
3	0x00000000	0.0
4	0x00000000	0.0
5	0x00000000	0.0
6	0x00000000	0.0
7	0x00000000	0.0
8	0x00000000	0.0
9	0x00000000	0.0
10	0x00000000	0.0
11	0x00000000	0.0
12	0x00000000	0.0
13	0x00000000	0.0
14	0x00000000	0.0
15	0x00000000	0.0
16	0x00000000	0.0
17	0x00000000	0.0
18	0x00000000	0.0
19	0x00000000	0.0
20	0x00000000	0.0
21	0x00000000	0.0
22	0x00000000	0.0
23	0x00000000	0.0
24	0x00000000	0.0
25	0x00000000	0.0
26	0x00000000	0.0
27	0x00000000	0.0
28	0x00000000	0.0
29	0x00000000	0.0
30	0x00000000	0.0
31	0x00000000	0.0
32	0x00000000	0.0
33	0x00000000	0.0
34	0x00000000	0.0
35	0x00000000	0.0
36	0x00000000	0.0
37	0x00000000	0.0
38	0x00000000	0.0
39	0x00000000	0.0
40	0x00000000	0.0
41	0x00000000	0.0
42	0x00000000	0.0
43	0x00000000	0.0
44	0x00000000	0.0
45	0x00000000	0.0
46	0x00000000	0.0
47	0x00000000	0.0
48	0x00000000	0.0
49	0x00000000	0.0
50	0x00000000	0.0
51	0x00000000	0.0
52	0x00000000	0.0
53	0x00000000	0.0
54	0x00000000	0.0
55	0x00000000	0.0
56	0x00000000	0.0
57	0x00000000	0.0
58	0x00000000	0.0
59	0x00000000	0.0
60	0x00000000	0.0
61	0x00000000	0.0
62	0x00000000	0.0
63	0x00000000	0.0
64	0x00000000	0.0
65	0x00000000	0.0
66	0x00000000	0.0
67	0x00000000	0.0
68	0x00000000	0.0
69	0x00000000	0.0
70	0x00000000	0.0
71	0x00000000	0.0
72	0x00000000	0.0
73	0x00000000	0.0
74	0x00000000	0.0
75	0x00000000	0.0
76	0x00000000	0.0
77	0x00000000	0.0
78	0x00000000	0.0
79	0x00000000	0.0
80	0x00000000	0.0
81	0x00000000	0.0
82	0x00000000	0.0
83	0x00000000	0.0
84	0x00000000	0.0
85	0x00000000	0.0
86	0x00000000	0.0
87	0x00000000	0.0
88	0x00000000	0.0
89	0x00000000	0.0
90	0x00000000	0.0
91	0x00000000	0.0
92	0x00000000	0.0
93	0x00000000	0.0
94	0x00000000	0.0
95	0x00000000	0.0
96	0x00000000	0.0
97	0x00000000	0.0
98	0x00000000	0.0
99	0x00000000	0.0
100	0x00000000	0.0
101	0x00000000	0.0
102	0x00000000	0.0
103	0x00000000	0.0
104	0x00000000	0.0
105	0x00000000	0.0
106	0x00000000	0.0
107	0x00000000	0.0
108	0x00000000	0.0
109	0x00000000	0.0
110	0x00000000	0.0
111	0x00000000	0.0
112	0x00000000	0.0
113	0x00000000	0.0
114	0x00000000	0.0
115	0x00000000	0.0
116	0x00000000	0.0
117	0x00000000	0.0
118	0x00000000	0.0
119	0x00000000	0.0
120	0x00000000	0.0
121	0x00000000	0.0
122	0x00000000	0.0
123	0x00000000	0.0
124	0x00000000	0.0
125	0x00000000	0.0
126	0x00000000	0.0
127	0x00000000	0.0

network_body._body_endoder.seq_layers.2.weight f4 [128, 128]
0	0xbd99f3a9	-0.075171776
1	0xbcb02a7b	-0.021504631
2	0xbca4ade3	-0.020102447
3	0x3c021849	0.00794036
4	0x3ad44e38	0.0016197627
5	0xbd998bbf	-0.074973576
6	0x3d3e8377	0.046512093
7	0xbd96046e	-0.07325064
8	0xbddc271b	-0.10749646
9	0x3cc0bc03	0.023527151
10	0x3c732eb9	0.0148426825
11	0x3cbfbee2	0.02340645
12	0xbd40ac7d	-0.047039498
13	0xbdd88032	-0.10571326
14	0x3e027a78	0.1274203
15	0xbde5a906	-0.11213879
16	0xbd3071fc	-0.043077454
17	0xbcd04d94	-0.025427617
18	0x3dac4723	0.08412006
19	0x3cc3a825	0.023883888
20	0x3d52b37c	0.0514407
21	0xbd80a97a	-0.06282325
22	0x3d16719a	0.036729433
23	0xbd9ac82e	-0.075577125
24	0xbcaf7072	-0.021415923
25	0x3d719b29	0.058985863
26	0xbcaab974	-0.020840384
27	0x3d492cbf	0.04911494
28	0xbd043ad3	-0.03228266
29	0x3d1ca09e	0.038239114
30	0xbcdc102f	-0.026863186
31	0x3ddc7110	0.107637525
32	0xbe058153	-0.13037615
33	0xbcc85faa	-0.024459679
34	0x3db5820c	0.08862695
35	0xbc4b9ca7	-0.012427486
36	0xbd59c9c6	-0.05317094
37	0x3dc7a64d	0.09748516
38	0xbd381ec8	-0.04495123
39	0xbce8333f	-0.028344749
40	0xbcb3f55d	-0.021967584
41	0xbcd4728b	-0.025933525
42	0x3d347c7b	0.044064026
43	0x3c7b5204	0.015339378
44	0x3d3cd822	0.046104558
45	0xbd79b97f	-0.06096792
46	0xbd968882	-0.073502555
47	0xbd999bba	-0.075004056
48	0x3c089314	0.008335847
49	0x3cc1eab8	0.023671493
50	0xbc7528e3	-0.014963361
51	0x3dd7e1f5	0.10541145
52	0xbde75727	-0.1129592
53	0x3a57a6ba	0.00082264433
54	0x3db30eba	0.08743043
55	0x3c3bf179	0.011471146
56	0x3dc1891b	0.09449979
57	0x3ddc52e4	0.10757998
58	0xbc665513	-0.014058369
59	0x3cda5800	0.02665329
60	0xbb3a83ba	-0.0028459863
61	0x3e09838a	0.13429084
62	0xbc0b6d3c	-0.00850993
63	0x3b29aa14	0.0025888728
64	0x3c6d0723	0.014467034
65	0xbd4c562a	-0.04988686
66	0x3db52e3a	0.08846708
67	0xbdb87029	-0.09005768
68	0x3c0c5e97	0.008567474
69	0xbdaad017	-0.08340471
70	0xbdce15fe	-0.100627884
71	0x3ddad949	0.10685975
72	0xbe4858c5	-0.19565113
73	0xbddcb730	-0.10777128
74	0x3dfec893	0.124406
75	0xbd953c26	-0.07286863
76	0xbe041acc	-0.12900847
77	0xbd9170b1	-0.07101572
78	0xbca6e7a1	-0.020374121
79	0x3e1ff19e	0.15619513
80	0x3d5623a5	0.052280087
81	0x3c2976bd	0.010343251
82	0xb8f8d3e8	-0.00011865032
83	0xbdca2dc9	-0.09872014
84	0x3d8a6f9a	0.067595676
85	0xbd6d4a80	-0.057932377
86	0xbd707af0	-0.058710992
87	0xbcfb6a40	-0.030690312
88	0x3d1a86df	0.03772628
89	0xbd5aca19	-0.05341539
90	0x3debab87	0.115073256
91	0x3d629b47	0.055323865
92	0x3d73fef6	0.05956932
93	0xbdf216ba	-0.11820741
94	0x3db24815	0.08705155
95	0x3d0b5a40	0.034021616
96	0x3d3a97d7	0.045554962
97	0x3d41e68d	0.04733901
98	0x3b2ff7c5	0.0026850563
99	0x3da73446	0.08164267
100	0xbdb78d1d	-0.08962462
101	0x3dff148b	0.1245509
102	0xbc238c31	-0.009982155
103	0xbc343161	-0.010998101
104	0xbd9cb515	-0.07651726
105	0xbd71b6ac	-0.0590121
106	0xbd541c9a	-0.05178509
107	0x3ab75cde	0.0013989469
108	0xbde17b32	-0.11009826
109	0x3d907349	0.07053239
110	0x3d6f8307	0.058474567
111	0xbc1e375d	-0.009656754
112	0x3d748dbb	0.059705477
113	0x3d83dbfc	0.06438443
114	0x3db6f492	0.08933367
115	0x3cb499f3	0.022046065
116	0xbdfd3a8e	-0.12364684
117	0x3d7b4a7a	0.061350323
118	0xbde487bc	-0.11158702
119	0x3c8cb5ac	0.017176472
120	0xbe19a0ba	-0.15002719
121	0xbca24fd1	-0.01981345
122	0x3d009c63	0.031399142
123	0xbcc897ed	-0.024486506
124	0xbd9554c1	-0.07291556
125	0xbe398b61	-0.18119575
126	0xbd30af80	-0.04313612
127	0xbcca09cb	-0.024662873
128	0xbde4c26b	-0.11169895
129	0x3deb0a20	0.114765406
130	0x3daaf51a	0.08347531
131	0x3d205b56	0.039149605
132	0x3bc7a7ff	0.0060930247
133	0x3da14344	0.07874158
134	0xbd1fa145	-0.038972158
135	0x3e246baa	0.16056696
136	0xbda96177	-0.08270543
137	0xbda92741	-0.0825944
138	0x3e12c7eb	0.14334075
139	0x3c937725	0.018001148
140	0x3ca34e82	0.019934896
141	0x3d7d7322	0.061877377
142	0xbd373fce	-0.044738583
143	0xbdb529fa	-0.08845897
144	0x3d0c131e	0.03419792
145	0xbd821f5c	-0.063536376
146	0xbd14d116	-0.036332212
147	0xbcaba99a	-0.020954896
148	0x3e273050	0.16327024
149	0xbc5e9f8c	-0.013587844
150	0x3ddf5982	0.10905744
151	0xbd84e337	-0.0648865
152	0x3dec7a28	0.11546737
153	0x3dffc2ed	0.12488351
154	0x3dd29bbe	0.10283612
155	0xbd3a4b24	-0.045481816
156	0xbdc0a810	-0.094070554
157	0x3bc463de	0.0059933504
158	0xbe0058e9	-0.12533917
159	0x3d06df69	0.032927904
160	0x3cbafca0	0.02282554
161	0xbd4492a0	-0.047991395
162	0x3e1d462a	0.15358797
163	0x3cdb424a	0.026765008
164	0xbd041fba	-0.03225682
165	0xbcffc549	-0.031222003
166	0xbd8140ed	-0.06311212
167	0x3b8e9f9d	0.0043525235
168	0x3e401cd0	0.18760991
169	0x3c5db34c	0.013531517
170	0x3d275b52	0.040858574
171	0xbcaf4d90	-0.02139929
172	0x3ac847d8	0.00152802
173	0x3d9f7ebd	0.07787845
174	0xbca33895	-0.019924441
175	0xbdc1fe57	-0.094723396
176	0x3e173935	0.14767917
177	0xbdd1717f	-0.10226726
178	0xbdc61bda	-0.09673281
179	0x3d8b5527	0.06803351
180	0xbd112028	-0.035431057
181	0x3d8cf2e7	0.068822674
182	0x3e27b126	0.1637617
183	0xbcb1fc9a	-0.021726895
184	0x3deb38dd	0.11485455
185	0x3dbdb478	0.09262937
186	0xbe1933e2	-0.14961198
187	0xbd9376c0	-0.07200384
188	0x3d21a428	0.039463192
189	0xbbfcc2f1	-0.0077136685
190	0xbe9da0e0	-0.307868
191	0xbe2f39da	-0.17111912
192	0x3bdc31ae	0.0067197895
193	0xbbb052e4	-0.005380975
194	0x3e2418d2	0.16025093
195	0xbc372e3c	-0.011180457
196	0x3e16a3a5	0.14710863
197	0xbb9ef348	-0.0048507787
198	0x3db35537	0.08756488
199	0xbc9de3c6	-0.01927365
200	0xbe11eb1f	-0.14249848
201	0xbd51684d	-0.05112486
202	0x3dad403a	0.08459516
203	0xbdc42f29	-0.095793076
204	0x3d9d1b60	0.07671237
205	0x3e3b6ae5	0.18302496
206	0xbcbfe018	-0.023422286
207	0xbdfc09eb	-0.12306579
208	0xbc01d486	-0.007924205
209	0x3d8da766	0.06916694
210	0x3c2cdae6	0.010550236
211	0xbcb72ecd	-0.022361184
212	0x3e0df809	0.13864149
213	0xbcb80b8c	-0.022466443
214	0x3e092bc4	0.13395602
215	0xbc21dfdd	-0.009880033
216	0x3d9d854e	0.076914415
217	0xbdc04d3d	-0.09389732
218	0x3e3131bf	0.17304133
219	0xbd8a6374	-0.067572504
220	0x3e4ca491	0.19984652
221	0x3ce6afc7	0.028159989
222	0xbd53ae92	-0.051680155
223	0xbe36de09	-0.17858137
224	0x3d6e6216	0.05819901
225	0x3bc509f5	0.00601315
226	0x3dbdc30d	0.092657186
227	0x3d83f0fb	0.06442448
228	0x3ce4f0c8	0.027946845
229	0x3c7152e8	0.014729239
230	0xba7792e0	-0.00094441883
231	0xbdbd5fc4	-0.092467815
232	0x3c91c23b	0.017792812
233	0xbd620af2	-0.05518622
234	0x3cf78ae9	0.030217605
235	0xbd6caff4	-0.05778499
236	0xbdd2802a	-0.102783516
237	0xbdc94013	-0.09826674
238	0x3da6462e	0.081188545
239	0x3e12b587	0.1432706
240	0x3da61891	0.081101544
241	0x3d1ff0b3	0.039047908
242	0x3d8d56d2	0.06901325
243	0x3d05d603	0.0326748
244	0x3d8bd313	0.068273686
245	0x3bd26d5b	0.0064217276
246	0x3de8ed01	0.1137333
247	0xbc1177c9	-0.008878657
248	0x3e0a7d2e	0.13524315
249	0xbcdd83c2	-0.027040366
250	0xbe531ed1	-0.20617224
251	0xbd104b3b	-0.035227995
252	0x3d929376	0.07157032
253	0xbc84fe9d	-0.01623469
254	0xbe375d92	-0.17906788
255	0xbd906a3e	-0.07051514

network_body._body_endoder.seq_layers.2.bias f4 [128]
0	0x00000000	0.0
1	0x00000000	0.0
2	0x00000000	0.0
3	0x00000000	0.0
4	0x00000000	0.0
5	0x00000000	0.0
6	0x00000000	0.0
7	0x00000000	0.0
8	0x00000000	0.0
9	0x00000000	0.0
10	0x00000000	0.0
11	0x00000000	0.0
12	0x00000000	0.0
13	0x00000000	0.0
14	0x00000000	0.0
15	0x00000000	0.0
16	0x00000000	0.0
17	0x00000000	0.0
18	0x00000000	0.0
19	0x00000000	0.0
20	0x00000000	0.0
21	0x00000000	0.0
22	0x00000000	0.0
23	0x00000000	0.0
24	0x00000000	0.0
25	0x00000000	0.0
26	0x00000000	0.0
27	0x00000000	0.0
28	0x00000000	0.0
29	0x00000000	0.0
30	0x00000000	0.0
31	0x00000000	0.0
32	0x00000000	0.0
33	0x00000000	0.0
34	0x00000000	0.0
35	0x00000000	0.0
36	0x00000000	0.0
37	0x00000000	0.0
38	0x00000000	0.0
39	0x00000000	0.0
40	0x00000000	0.0
41	0x00000000	0.0
42	0x00000000	0.0
43	0x00000000	0.0
44	0x00000000	0.0
45	0x00000000	0.0
46	0x00000000	0.0
47	0x00000000	0.0
48	0x00000000	0.0
49	0x00000000	0.0
50	0x00000000	0.0
51	0x00000000	0.0
52	0x00000000	0.0
53	0x00000000	0.0
54	0x00000000	0.0
55	0x00000000	0.0
56	0x00000000	0.0
57	0x00000000	0.0
58	0x00000000	0.0
59	0x00000000	0.0
60	0x00000000	0.0
61	0x00000000	0.0
62	0x00000000	0.0
63	0x00000000	0.0
64	0x00000000	0.0
65	0x00000000	0.0
66	0x00000000	0.0
67	0x00000000	0.0
68	0x00000000	0.0
69	0x00000000	0.0
70	0x00000000	0.0
71	0x00000000	0.0
72	0x00000000	0.0
73	0x00000000	0.0
74	0x00000000	0.0
75	0x00000000	0.0
76	0x00000000	0.0
77	0x00000000	0.0
78	0x00000000	0.0
79	0x00000000	0.0
80	0x00000000	0.0
81	0x00000000	0.0
82	0x00000000	0.0
83	0x00000000	0.0
84	0x00000000	0.0
85	0x00000000	0.0
86	0x00000000	0.0
87	0x00000000	0.0
88	0x00000000	0.0
89	0x00000000	0.0
90	0x00000000	0.0
91	0x00000000	0.0
92	0x00000000	0.0
93	0x00000000	0.0
94	0x00000000	0.0
95	0x00000000	0.0
96	0x00000000	0.0
97	0x00000000	0.0
98	0x00000000	0.0
99	0x00000000	0.0
100	0x00000000	0.0
101	0x00000000	0.0
102	0x00000000	0.0
103	0x00000000	0.0
104	0x00000000	0.0
105	0x00000000	0.0
106	0x00000000	0.0
107	0x00000000	0.0
108	0x00000000	0.0
109	0x00000000	0.0
110	0x00000000	0.0
111	0x00000000	0.0
112	0x00000000	0.0
113	0x00000000	0.0
114	0x00000000	0.0
115	0x00000000	0.0
116	0x00000000	0.0
117	0x00000000	0.0
118	0x00000000	0.0
119	0x00000000	0.0
120	0x00000000	0.0
121	0x00000000	0.0
122	0x00000000	0.0
123	0x00000000	0.0
124	0x00000000	0.0
125	0x00000000	0.0
126	0x00000000	0.0
127	0x00000000	0.0
