Project specific/results/ppo/JumperAgent/JumperAgent-8192.onnx (onnx, 127008 bytes, 8 tensors)

network_body._body_endoder.seq_layers.0.weight f4 [128, 108]
0	0xbd5e912a	-0.054337658
1	0x3c69ee14	0.014277954
2	0x3d29cd2d	0.041455436
3	0xbdbf3174	-0.09335604
4	0x3c080a4a	0.008303234
5	0x3def88bc	0.11696002
6	0xbe5b8927	-0.21439038
7	0x3d8ebb53	0.06969323
8	0x3de3725d	0.111057974
9	0x3d3cff51	0.046141926
10	0x3d1061a8	0.035249382
11	0x3c294e4f	0.010333612
12	0x3c8cb5e5	0.017176578
13	0x3d2e5b51	0.042567555
14	0x3d8cb40a	0.06870277
15	0x3e3811fc	0.1797561
16	0xbc291cf9	-0.010321849
17	0xbcbfa729	-0.023395138
18	0x3d34064d	0.04395132
19	0xbd9bec83	-0.076134704
20	0x3d05ab4a	0.032634057
21	0x3dc06671	0.09394539
22	0xbcd7458c	-0.02627828
23	0xbe1be22d	-0.15222998
24	0xbd701875	-0.058617074
25	0xbda8e01a	-0.08245869
26	0xbd921ec2	-0.07134773
27	0x3e40e889	0.18838705
28	0x3da5c780	0.08094692
29	0xbda605a1	-0.081065424
30	0xbc2c3a22	-0.010511907
31	0x3ce87530	0.028376192
32	0xbd965b31	-0.07341612
33	0xbdf5f01a	-0.12008686
34	0x3cbd2927	0.023090912
35	0x3db17536	0.08664934
36	0x3d5345ae	0.051580124
37	0x3dd1b4d0	0.10239565
38	0xbe052e8e	-0.1300604
39	0x3c08c56c	0.00834785
40	0xbdda5110	-0.10659993
41	0xbdf4eb42	-0.11958934
42	0xbd82ac05	-0.06380466
43	0x3cb143cf	0.021638779
44	0x3d530a3e	0.05152344
45	0x3bc95a89	0.006144826
46	0x3e6ef277	0.2333468
47	0x3c8852b1	0.016640993
48	0x39413ac5	0.00018427808
49	0xbdba92e7	-0.09110051
50	0xbdcb0ad4	-0.09914175
51	0x3c28d896	0.010305544
52	0xbe25a388	-0.16175663
53	0xbd881ce5	-0.06646136
54	0x3e56d324	0.20978981
55	0x3e28c1f8	0.16480243
56	0xbe34496c	-0.17606133
57	0x3b1d7f5f	0.0024032218
58	0xbe2680c2	-0.16260055
59	0x3d96719f	0.0734589
60	0xbe0c7d7a	-0.1371974
61	0x3df1b40c	0.11801919
62	0xbc948ffe	-0.018135067
63	0x3e47f7d8	0.19528139
64	0x3e0030de	0.12518641
65	0xba139fa9	-0.0005631396
66	0xbdb83fec	-0.08996567
67	0x3da829d4	0.08211103
68	0x3d7c659c	0.06162034
69	0x3c535c4d	0.012900424
70	0x3c832b02	0.016011719
71	0xbd5b9fc1	-0.05361915
72	0x3e874e44	0.264269
73	0xbce689c1	-0.028141858
74	0xbdf01bb0	-0.11724031
75	0x3e82b359	0.25527456
76	0xbc5363f6	-0.0129022505
77	0x3dce68c9	0.1007858
78	0x3d72311c	0.059128866
79	0xbcd8f99d	-0.026486212
80	0xbde8ea7d	-0.1137285
81	0x3cf06d3e	0.029348966
82	0xbdd889cd	-0.105731584
83	0xbd364074	-0.04449506
84	0x3db4436e	0.08801924
85	0xbe2824f3	-0.16420345
86	0xbd0dc2b2	-0.034609504
87	0xbd141ef2	-0.036162324
88	0xbcd1ea4c	-0.025624417
89	0xbd7608bb	-0.06006692
90	0x3d826a1a	0.063678935
91	0x3d268edb	0.04066358
92	0xbdfa808b	-0.12231549
93	0x3da16cc3	0.07882073
94	0x3db8ba5a	0.09019919
95	0x3cfbae1d	0.030722672
96	0x3d32383d	0.043510664
97	0xbe637e16	-0.22216067
98	0xbdc4387d	-0.09581087
99	0xbcacaeee	-0.021079507
100	0xbd62481f	-0.05524456
101	0x3dc04e48	0.09389931
102	0x3d1a3d11	0.037655894
103	0xbce18db4	-0.02753339
104	0x3dd06051	0.10174621
105	0xbde4165b	-0.111370765
106	0xbc753b6a	-0.014967779
107	0xbdc5066d	-0.09620366
108	0x3d62fecc	0.055418774
109	0xbdbbb892	-0.09166063
110	0xbe1e7890	-0.15475678
111	0xbbe47848	-0.0069723465
112	0xbc090522	-0.00836304
113	0x3c61b616	0.013776323
114	0x3c76d5a7	0.015065587
115	0xbe09c3ac	-0.13453549
116	0x3d62a6d9	0.0553349
117	0x3d414acc	0.047190472
118	0x3e48a960	0.19595861
119	0x3da76adc	0.08174679
120	0xbdff9d84	-0.124812156
121	0x3df3647a	0.11884399
122	0xbdaed53c	-0.08536765
123	0xbc0bca75	-0.008532156
124	0x3a32a976	0.0006815413
125	0x3e064a98	0.13114393
126	0xbdf4cddd	-0.11953328
127	0x3d85098d	0.06495962
128	0x3dacd1fe	0.0843849
129	0x3d97fb5d	0.074209906
130	0x3c8c11a9	0.017098265
131	0x3c4dfe11	0.012572781
132	0x3c0e35c5	0.008679812
133	0x3da8258d	0.08210287
134	0x3d42fc1c	0.04760371
135	0x3cdbbff1	0.026824923
136	0xbdab1add	-0.08354733
137	0x3d124288	0.03570798
138	0xbda67bcc	-0.08129081
139	0x3da18123	0.07885959
140	0x3cc340ae	0.023834553
141	0x3db190b4	0.08670178
142	0x3cd219bb	0.025647035
143	0xbd9ce0aa	-0.07660039
144	0xbd1592bc	-0.03651689
145	0xbe25ff85	-0.16210754
146	0x3e274bbe	0.16337487
147	0xbdd92114	-0.10602012
148	0x3d0dbd6d	0.03460448
149	0x3dc00995	0.093768276
150	0x3b5f53c9	0.003407704
151	0x3dd36a42	0.103230014
152	0xbd6101dc	-0.054933414
153	0x3d0167a7	0.03159299
154	0xbd22f178	-0.039781064
155	0x3dc2afd0	0.0950619
156	0xbd117d1b	-0.0355197
157	0x3e22e8ca	0.15909114
158	0xbcf26682	-0.029589895
159	0xbe03d6f9	-0.12874974
160	0x3e38aa0f	0.18033622
161	0xbd463ba8	-0.048396736
162	0xbc86343a	-0.016382325
163	0x3ddbdd6f	0.107355945
164	0xbe6bba9c	-0.23020405
165	0xbdeaf538	-0.11472553
166	0x3aa3700b	0.0012469304
167	0xbe1452b0	-0.14484668
168	0x3de548fa	0.1119556
169	0xbcbf8a88	-0.023381487
170	0x3d3b15f1	0.04567522
171	0x3d007039	0.031357024
172	0xbcd1a76b	-0.025592526
173	0xbd42b753	-0.047538113
174	0x3da0b600	0.07847214
175	0xbb6efc26	-0.003646621
176	0xbe41dffc	-0.189331
177	0xbd0840b1	-0.03326482
178	0x3dc94d6b	0.098292194
179	0xbc8a623e	-0.016892549
180	0xbd4d7e71	-0.050169412
181	0x3d93ca73	0.072163485
182	0xbd30fab7	-0.04320785
183	0x3d6bb30d	0.057543803
184	0xbdd925b8	-0.106028974
185	0xbda33572	-0.07969178
186	0x3d049d9b	0.032376867
187	0x3d6e7a6a	0.058222212
188	0xbe1449eb	-0.14481322
189	0xbcb14203	-0.021637922
190	0xbd5d6cb5	-0.05405875
191	0x3bcdd4e5	0.0062814825
192	0x3d81206a	0.063050106
193	0x3dc2a019	0.095031925
194	0x3c7dcef1	0.015491233
195	0x3cafd482	0.021463636
196	0xbddd7948	-0.10814148
197	0xbe1b8586	-0.15187654
198	0x3e05be6c	0.13060921
199	0x3e04ac92	0.12956455
200	0x3dea5062	0.11441113
201	0x3eacc72f	0.33745715
202	0x3de0d880	0.10978794
203	0x3d98a333	0.07453003
204	0xbcc610d3	-0.024177944
205	0xbdb37ca4	-0.08764008
206	0x3d825b6a	0.06365092
207	0xbd047585	-0.032338638
208	0xbe14c58f	-0.14528488
209	0x3dfe7d97	0.12426298
210	0x3cd56a19	0.026051568
211	0x3c2adff0	0.010429367
212	0xbcd503a6	-0.026002716
213	0xbe338909	-0.17532744
214	0xbe107203	-0.14105992
215	0xbd59ac29	-0.0531427
216	0x3dcc74ad	0.09983192
217	0x3d09a3a4	0.033603325
218	0x3d365d6d	0.04452269
219	0xbddb7d9e	-0.10717319
220	0x3de19d51	0.11016334
221	0x3d98aa05	0.07454304
222	0xbc7590a7	-0.014988101
223	0x3d1973f9	0.037464116
224	0x3d57d934	0.052697375
225	0x3d9bd462	0.07608868
226	0x3e32e3d9	0.1746973
227	0x3d0e2086	0.034698986
228	0xbe1ff7e6	-0.1562191
229	0x3e110c7d	0.1416492
230	0xbe004a1e	-0.12528273
231	0x3d64c18d	0.055848647
232	0x3e418f08	0.18902218
233	0x3e379bde	0.17930552
234	0x3c9cc733	0.019137954
235	0xbc80c447	-0.015718592
236	0xbe18e079	-0.1492938
237	0x3c246492	0.010033743
238	0xbd1d094d	-0.038338948
239	0xbca8250b	-0.020525476
240	0x3d970c28	0.073753655
241	0xbd44cbb2	-0.04804582
242	0x3db3c180	0.087771416
243	0xbdebcb2e	-0.11513363
244	0xbd3f9969	-0.046777163
245	0x3d2b3c86	0.041805767
246	0xbd831f68	-0.06402475
247	0xb99bac3e	-0.00029692234
248	0xbbc4db43	-0.0060075833
249	0x3dbacc04	0.09120944
250	0x3d323d50	0.043515503
251	0xbd08336e	-0.033252172
252	0x3c6f2961	0.014597268
253	0xbe2a2478	-0.16615474
254	0x3dac61af	0.08417069
255	0x3ddc8e0c	0.10769281

network_body._body_endoder.seq_layers.0.bias f4 [128]
0	0x00000000	0.0
1	0x00000000	0.0
2	0x00000000	0.0
3	0x00000000	0.0
4	0x00000000	0.0
5	0x00000000	0.0
6	0x00000000	0.0
7	0x00000000	0.0
8	0x00000000	0.0
9	0x00000000	0.0
10	0x00000000	0.0
11	0x00000000	0.0
12	0x00000000	0.0
13	0x00000000	0.0
14	0x00000000	0.0
15	0x00000000	0.0
16	0x00000000	0.0
17	0x00000000	0.0
18	0x00000000	0.0
19	0x00000000	0.0
20	0x00000000	0.0
21	0x00000000	0.0
22	0x00000000	0.0
23	0x00000000	0.0
24	0x00000000	0.0
25	0x00000000	0.0
26	0x00000000	0.0
27	0x00000000	0.0
28	0x00000000	0.0
29	0x00000000	0.0
30	0x00000000	0.0
31	0x00000000	0.0
32	0x00000000	0.0
33	0x00000000	0.0
34	0x00000000	0.0
35	0x00000000	0.0
36	0x00000000	0.0
37	0x00000000	0.0
38	0x00000000	0.0
39	0x00000000	0.0
40	0x00000000	0.0
41	0x00000000	0.0
42	0x00000000	0.0
43	0x00000000	0.0
44	0x00000000	0.0
45	0x00000000	0.0
46	0x00000000	0.0
47	0x00000000	0.0
48	0x00000000	0.0
49	0x00000000	0.0
50	0x00000000	0.0
51	0x00000000	0.0
52	0x00000000	0.0
53	0x00000000	0.0
54	0x00000000	0.0
55	0x00000000	0.0
56	0x00000000	0.0
57	0x00000000	0.0
58	0x00000000	0.0
59	0x00000000	0.0
60	0x00000000	0.0
61	0x00000000	0.0
62	0x00000000	0.0
63	0x00000000	0.0
64	0x00000000	0.0
65	0x00000000	0.0
66	0x00000000	0.0
67	0x00000000	0.0
68	0x00000000	0.0
69	0x00000000	0.0
70	0x00000000	0.0
71	0x00000000	0.0
72	0x00000000	0.0
73	0x00000000	0.0
74	0x00000000	0.0
75	0x00000000	0.0
76	0x00000000	0.0
77	0x00000000	0.0
78	0x00000000	0.0
79	0x00000000	0.0
80	0x00000000	0.0
81	0x00000000	0.0
82	0x00000000	0.0
83	0x00000000	0.0
84	0x00000000	0.0
85	0x00000000	0.0
86	0x00000000	0.0
87	0x00000000	0.0
88	0x00000000	0.0
89	0x00000000	0.0
90	0x00000000	0.0
91	0x00000000	0.0
92	0x00000000	0.0
93	0x00000000	0.0
94	0x00000000	0.0
95	0x00000000	0.0
96	0x00000000	0.0
97	0x00000000	0.0
98	0x00000000	0.0
99	0x00000000	0.0
100	0x00000000	0.0
101	0x00000000	0.0
102	0x00000000	0.0
103	0x00000000	0.0
104	0x00000000	0.0
105	0x00000000	0.0
106	0x00000000	0.0
107	0x00000000	0.0
108	0x00000000	0.0
109	0x00000000	0.0
110	0x00000000	0.0
111	0x00000000	0.0
112	0x00000000	0.0
113	0x00000000	0.0
114	0x00000000	0.0
115	0x00000000	0.0
116	0x00000000	0.0
117	0x00000000	0.0
118	0x00000000	0.0
119	0x00000000	0.0
120	0x00000000	0.0
121	0x00000000	0.0
122	0x00000000	0.0
123	0x00000000	0.0
124	0x00000000	0.0
125	0x00000000	0.0
126	0x00000000	0.0
127	0x00000000	0.0

network_body._body_endoder.seq_layers.2.weight f4 [128, 128]
0	0x3d5893ea	0.052875437
1	0xbc83e140	-0.016098619
2	0xbcae863c	-0.021304242
3	0xbc1d8d8c	-0.009616267
4	0x3dd4a105	0.103822745
5	0xbd8cbf95	-0.06872479
6	0xbd310848	-0.04322079
7	0x3d388556	0.045049034
8	0x3de0228b	0.109440885
9	0x3d7982b6	0.06091567
10	0x3e6822e2	0.22669557
11	0x3bd68c50	0.0065474883
12	0x3e1893bb	0.14900105
13	0xbd8c2259	-0.06842489
14	0x3d9efb77	0.07762807
15	0x3db352e0	0.087560415
16	0x3db49fe1	0.08819557
17	0xbe158885	-0.1460286
18	0xbde2800e	-0.11059581
19	0x3d86a718	0.06574839
20	0x3dd37e3d	0.103268124
21	0xbe28fb14	-0.16502029
22	0xbe1b303a	-0.15155116
23	0x3d57488b	0.052559417
24	0xbbf4612f	-0.0074578742
25	0x3d97d790	0.07414162
26	0x3da4401b	0.0802004
27	0x3d17d5ea	0.03706924
28	0x3d4e34d4	0.05034335
29	0xbde11a9b	-0.10991403
30	0xbe1c407c	-0.15258974
31	0xbda24443	-0.07923176
32	0x3e0096b3	0.12557487
33	0xbe3d499d	-0.18485112
34	0xbd87fcf4	-0.06640044
35	0xbd888936	-0.06666796
36	0x3d5348ee	0.051583223
37	0xbd8201e4	-0.06348017
38	0xbcd91639	-0.026499854
39	0x3d164ed2	0.036696263
40	0x3caec885	0.02133585
41	0xbdc1f0ef	-0.094697826
42	0xbbf2864e	-0.0074012643
43	0x3c42ed2a	0.011897365
44	0x3cfd73ee	0.030939069
45	0xbd51b0d1	-0.051194016
46	0x3dec879a	0.115493014
47	0x3de383a6	0.11109094
48	0xbce0974d	-0.027415896
49	0x3b3025a8	0.0026877914
50	0xbc24b745	-0.0100534605
51	0xbd87c05a	-0.06628485
52	0xbc4299dc	-0.011877503
53	0xbd82bad3	-0.0638329
54	0xbd432ed1	-0.04765207
55	0xbcad7f70	-0.021178931
56	0xbce62f7a	-0.02809881
57	0xbd9b1330	-0.07572019
58	0x3d5e90f6	0.054337464
59	0xbde57667	-0.11204224
60	0xbc99d2ed	-0.018777335
61	0x3c964971	0.018345566
62	0xbc1a3a0a	-0.009413252
63	0xbdc18ced	-0.094507076
64	0x3d596f6e	0.053084783
65	0x3db850f5	0.08999816
66	0xbdffe832	-0.124954596
67	0xbe07d375	-0.13264258
68	0x3e45d6be	0.19320199
69	0xbcb9b59a	-0.022669602
70	0x3c30ebad	0.010798377
71	0x3d96eabd	0.073689915
72	0x3d8096a6	0.06278734
73	0x3c713eb9	0.014724427
74	0x3d29c1e6	0.04144468
75	0x3bbae3d4	0.0057034288
76	0xbd85f461	-0.06540752
77	0xbe0c4cb0	-0.13701129
78	0x3d754624	0.059881344
79	0xbca58981	-0.020207169
80	0xbcd92c7e	-0.026510473
81	0x3d6e193c	0.058129534
82	0x3ddb5a3d	0.10710571
83	0x3e8f7e87	0.2802622
84	0x3bd34d01	0.0064483886
85	0x3bc1de7e	0.0059164157
86	0xbd308f5f	-0.04310548
87	0xbdf60e91	-0.12014497
88	0xbc9f7dcf	-0.01946917
89	0xbc2c4acf	-0.010515883
90	0xbe220173	-0.15820865
91	0x3d666e74	0.05625768
92	0xbe140f1e	-0.14458892
93	0x3d345e23	0.04403509
94	0x3d8e1f55	0.0693957
95	0x3e233449	0.15937914
96	0x3bdfd0c6	0.0068303077
97	0xbe03cbd1	-0.12870719
98	0x3d63aefd	0.055586804
99	0xbd5caa10	-0.05387312
100	0x3db83856	0.0899512
101	0xbbea94ec	-0.007158866
102	0xbdf93e8d	-0.12170134
103	0x3dc5bc6d	0.0965508
104	0xbd3081ee	-0.04309266
105	0xbd3360cf	-0.043793496
106	0x3daf99f4	0.08574286
107	0xbb1eaa6b	-0.0024210464
108	0x3d414377	0.04718348
109	0x3e177dd9	0.14794101
110	0x3d9e49f5	0.0772895
111	0xbc8f19e7	-0.017468406
112	0xbb9f8555	-0.0048681893
113	0xbdf49f51	-0.1194445
114	0xbd8640f7	-0.0655536
115	0x3d4da3a4	0.050204888
116	0xbcceb6ee	-0.025233712
117	0x3dabd76c	0.08390698
118	0x3cb4506e	0.022011008
119	0x3b8bab23	0.0042623444
120	0x3d6332e8	0.05546847
121	0xbdedc86a	-0.116104916
122	0xbd457d85	-0.048215408
123	0x3d9b95d0	0.07596934
124	0xbd2c5313	-0.042071413
125	0xbdb2d2c4	-0.087316066
126	0xbe08e860	-0.13369894
127	0xbd1b6735	-0.037940223
128	0x3de9337d	0.11386774
129	0x3b51aed5	0.0031995077
130	0x3d200a2e	0.039072208
131	0x3de45f05	0.11150936
132	0xbd89c29b	-0.06726571
133	0xbd5cc4ff	-0.053898808
134	0x3d849d0c	0.06475267
135	0xbbb24d79	-0.0054413644
136	0xbdef8184	-0.11694625
137	0xbc90f28b	-0.017693778
138	0x3cb28867	0.021793557
139	0x3d733ae6	0.05938234
140	0xbe16eb9e	-0.14738318
141	0x3dc5485f	0.09632944
142	0xbda27b87	-0.07933717
143	0x3c5b2bae	0.013377113
144	0xbcb8a499	-0.022539424
145	0xbe2b6fd2	-0.16741875
146	0x3c838903	0.016056543
147	0x3d9a797c	0.075427026
148	0x3bbb07c6	0.005707714
149	0x3df4f15b	0.119600974
150	0x3d021fea	0.031768717
151	0x3e049c95	0.12950356
152	0x3cc5171d	0.024058873
153	0xbe2e0c1a	-0.16996804
154	0xbc996d12	-0.018728767
155	0xbd0eaa18	-0.034830183
156	0x3d870e8a	0.0659457
157	0xbdff2f53	-0.12460198
158	0x3e41940b	0.1890413
159	0x3dd70249	0.10498483
160	0x3d215760	0.039389968
161	0x3e346b8e	0.17619154
162	0x3e3955bb	0.1809911
163	0x3e30900f	0.17242454
164	0x3b03dc20	0.0020120218
165	0xbddf9492	-0.109170094
166	0x3c813960	0.015774429
167	0xbc8ea3df	-0.017412124
168	0xbdde9f38	-0.10870212
169	0xbdc1fb41	-0.09471751
170	0x3cc08bf0	0.023504227
171	0x3c9c80b0	0.019104332
172	0x3df6cc6d	0.1205071
173	0x3ceaf111	0.028679403
174	0xbd8858a0	-0.06657529
175	0x3a22e70e	0.00062142394
176	0x3e447c73	0.19188099
177	0xbdbd9792	-0.09257425
178	0xbd616ec4	-0.055037275
179	0xbd72d952	-0.059289284
180	0x3b681f55	0.0035419066
181	0x3d5a7c73	0.05334134
182	0x3d9ec0b6	0.077516004
183	0x3e729307	0.23688899
184	0x3e21fe75	0.15819724
185	0xbcf5774d	-0.029964114
186	0xbd98ca22	-0.07460429
187	0x3e56d223	0.20978598
188	0x3d0a6a6b	0.033792894
189	0xbdf8ce57	-0.12148731
190	0x3d3f4015	0.046691973
191	0xbcd0e6cb	-0.025500676
192	0x3cd73fc4	0.026275523
193	0xbb5547e1	-0.0032544064
194	0xbda7778f	-0.08177101
195	0x3dafbe86	0.08581261
196	0xbce85518	-0.028360888
197	0xbd17bca2	-0.03704513
198	0x3da92527	0.08259039
199	0xbd81f80e	-0.06346141
200	0xbd31cc22	-0.043407567
201	0xbdf75ecb	-0.12078627
202	0xbcd0f039	-0.025505172
203	0x3e3d81e3	0.18506579
204	0xbcd8fb22	-0.026486937
205	0xbdcc9fda	-0.09991427
206	0x3d2eb43e	0.04265236
207	0x3dc8b284	0.09799674
208	0xbc0c5510	-0.008565202
209	0x3b70b006	0.0036726012
210	0xbde904e3	-0.11377885
211	0x3d61b8ff	0.055108067
212	0xbda11585	-0.07865433
213	0x3db6c236	0.089237615
214	0xbd6e97a8	-0.0582501
215	0x3d0cf57b	0.034413796
216	0xbd4a0705	-0.0493231
217	0xbd58d28b	-0.052935164
218	0xbe5ec03d	-0.2175302
219	0xbdfeaafd	-0.12434957
220	0x3e147d1c	0.1450085
221	0x3d2cc4ef	0.042179998
222	0xbda4eb8d	-0.0805274
223	0x3c865ff6	0.01640318
224	0xbe35a565	-0.17738874
225	0xbdf67eb9	-0.12035889
226	0x3e5741a2	0.2102113
227	0x3c88c9b4	0.016697742
228	0x3bb6718d	0.0055677355
229	0x3d8ae59f	0.06782078
230	0x3d47c052	0.048767395
231	0xbd810a2a	-0.06300767
232	0xbe31ffe8	-0.17382777
233	0xbd27bac5	-0.0409496
234	0xbcfeec51	-0.031118544
235	0xbc515aa9	-0.012777963
236	0x3c002d70	0.007823333
237	0x3d8547cf	0.06507837
238	0xbb534f31	-0.0032243247
239	0xbdb74b75	-0.08949939
240	0xbe0de6e2	-0.13857606
241	0xbc9394a0	-0.018015206
242	0xbd5dfebc	-0.05419801
243	0xbdcddac2	-0.1005149
244	0xbe1dc5ce	-0.15407488
245	0xbcb7cb7f	-0.022435902
246	0xbe1b95b9	-0.15193833
247	0xbd03085e	-0.0319904
248	0x3ce09943	0.02741683
249	0xbd8dacd2	-0.069177285
250	0xbd9f0003	-0.07763674
251	0xbb20ffd8	-0.0024566557
252	0x3c9d7d6f	0.01922485
253	0x3ab1c355	0.0013562242
254	0x3c5694b7	0.01309698
255	0xbd935b5b	-0.07195159

network_body._body_endoder.seq_layers.2.bias f4 [128]
0	0x00000000	0.0
1	0x00000000	0.0
2	0x00000000	0.0
3	0x00000000	0.0
4	0x00000000	0.0
5	0x00000000	0.0
6	0x00000000	0.0
7	0x00000000	0.0
8	0x00000000	0.0
9	0x00000000	0.0
10	0x00000000	0.0
11	0x00000000	0.0
12	0x00000000	0.0
13	0x00000000	0.0
14	0x00000000	0.0
15	0x00000000	0.0
16	0x00000000	0.0
17	0x00000000	0.0
18	0x00000000	0.0
19	0x00000000	0.0
20	0x00000000	0.0
21	0x00000000	0.0
22	0x00000000	0.0
23	0x00000000	0.0
24	0x00000000	0.0
25	0x00000000	0.0
26	0x00000000	0.0
27	0x00000000	0.0
28	0x00000000	0.0
29	0x00000000	0.0
30	0x00000000	0.0
31	0x00000000	0.0
32	0x00000000	0.0
33	0x00000000	0.0
34	0x00000000	0.0
35	0x00000000	0.0
36	0x00000000	0.0
37	0x00000000	0.0
38	0x00000000	0.0
39	0x00000000	0.0
40	0x00000000	0.0
41	0x00000000	0.0
42	0x00000000	0.0
43	0x00000000	0.0
44	0x00000000	0.0
45	0x00000000	0.0
46	0x00000000	0.0
47	0x00000000	0.0
48	0x00000000	0.0
49	0x00000000	0.0
50	0x00000000	0.0
51	0x00000000	0.0
52	0x00000000	0.0
53	0x00000000	0.0
54	0x00000000	0.0
55	0x00000000	0.0
56	0x00000000	0.0
57	0x00000000	0.0
58	0x00000000	0.0
59	0x00000000	0.0
60	0x00000000	0.0
61	0x00000000	0.0
62	0x00000000	0.0
63	0x00000000	0.0
64	0x00000000	0.0
65	0x00000000	0.0
66	0x00000000	0.0
67	0x00000000	0.0
68	0x00000000	0.0
69	0x00000000	0.0
70	0x00000000	0.0
71	0x00000000	0.0
72	0x00000000	0.0
73	0x00000000	0.0
74	0x00000000	0.0
75	0x00000000	0.0
76	0x00000000	0.0
77	0x00000000	0.0
78	0x00000000	0.0
79	0x00000000	0.0
80	0x00000000	0.0
81	0x00000000	0.0
82	0x00000000	0.0
83	0x00000000	0.0
84	0x00000000	0.0
85	0x00000000	0.0
86	0x00000000	0.0
87	0x00000000	0.0
88	0x00000000	0.0
89	0x00000000	0.0
90	0x00000000	0.0
91	0x00000000	0.0
92	0x00000000	0.0
93	0x00000000	0.0
94	0x00000000	0.0
95	0x00000000	0.0
96	0x00000000	0.0
97	0x00000000	0.0
98	0x00000000	0.0
99	0x00000000	0.0
100	0x00000000	0.0
101	0x00000000	0.0
102	0x00000000	0.0
103	0x00000000	0.0
104	0x00000000	0.0
105	0x00000000	0.0
106	0x00000000	0.0
107	0x00000000	0.0
108	0x00000000	0.0
109	0x00000000	0.0
110	0x00000000	0.0
111	0x00000000	0.0
112	0x00000000	0.0
113	0x00000000	0.0
114	0x00000000	0.0
115	0x00000000	0.0
116	0x00000000	0.0
117	0x00000000	0.0
118	0x00000000	0.0
119	0x00000000	0.0
120	0x00000000	0.0
121	0x00000000	0.0
122	0x00000000	0.0
123	0x00000000	0.0
124	0x00000000	0.0
125	0x00000000	0.0
126	0x00000000	0.0
127	0x00000000	0.0

action_model._continuous_distribution.log_sigma f4 [1, 2]
0	0x00000000	0.0
1	0x00000000	0.0

action_model._continuous_distribution.mu.weight f4 [2, 128]
0	0xbc6d1797	-0.014470956
1	0xbb9c1617	-0.0047633755
2	0xbc2cba43	-0.010542455
3	0x3c1baefc	0.009502169
4	0xbaf604fa	-0.0018769794
5	0x3cb8ec50	0.02257362
6	0xbb1b210f	-0.0023670828
7	0xbd2ce26f	-0.04220813
8	0x3c1459b5	0.009054591
9	0xbd02e22b	-0.03195397
10	0xbb3d22f0	-0.0028859936
11	0x3c352ef5	0.011058559
12	0x3aa0dacd	0.0012272239
13	0x3bae84db	0.005325896
14	0xbc0b4dbc	-0.00850242
15	0x3d3533c7	0.04423883
16	0x3cdbae92	0.02681664
17	0x3cc0fd12	0.023558173
18	0xbbd2d51d	-0.0064340965
19	0x3aa82db2	0.0012831001
20	0xbc0fdf65	-0.008781289
21	0x3b2e5bb0	0.0026604943
22	0x3bd53995	0.0065071085
23	0x3b6f4553	0.0036509826
24	0x3c25eac3	0.010126772
25	0x3ab9c4fe	0.0014173088
26	0x3cb14597	0.021639628
27	0x3c5c952b	0.013463299
28	0x3d43353b	0.047658186
29	0x3c5476eb	0.012967805
30	0xbcf323ba	-0.029680122
31	0x3c83dae7	0.016095592
32	0xbd3c250f	-0.04593378
33	0x3bef74d3	0.0073076277
34	0xbc0e4af3	-0.0086848615
35	0xbbfc4fc2	-0.0076999376
36	0xbc1c198f	-0.009527578
37	0xbc87369f	-0.016505538
38	0x3ca9f313	0.02074579
39	0x3d14ae4f	0.036299046
40	0xbc355995	-0.011068721
41	0x3aec3c4b	0.001802334
42	0x3c1eb1de	0.0096859615
43	0x3b2c276b	0.0026268612
44	0x3c4263b4	0.011864591
45	0x3c8c4592	0.017123017
46	0x3c7b3c80	0.015334249
47	0x3c019e0d	0.007911217
48	0x3c78f375	0.015194763
49	0x3baabb8a	0.0052103447
50	0x3c271dfb	0.010200019
51	0xbcc6e2ec	-0.024278127
52	0xbd0da41e	-0.034580342
53	0xbbc3d07a	-0.00597578
54	0xbc044bcf	-0.008074715
55	0xbbeabcad	-0.007163605
56	0xbd3eefda	-0.04661546
57	0xbcaaa094	-0.020828523
58	0xbc7d728a	-0.015469203
59	0x39fd9d4d	0.0004837312
60	0x3b8ce8cb	0.004300212
61	0x3cfcf117	0.03087668
62	0x3c741e98	0.014899872
63	0xbc6f9865	-0.014623736
64	0xbd70cf48	-0.05879143
65	0xbcb552f6	-0.022134285
66	0x3c3238fe	0.010877846
67	0xbbbc7a9f	-0.0057519223
68	0xba0a97a4	-0.00052868784
69	0xb983e79a	-0.00025158824
70	0xbbb5fa29	-0.005553503
71	0xbd3888ab	-0.04505221
72	0x3cb98f07	0.022651209
73	0xbcb97ee7	-0.02264352
74	0x3bc4eedb	0.006009919
75	0xbc5e3025	-0.013561283
76	0xbc23754f	-0.009976699
77	0xbbbcb944	-0.00575939
78	0x3c14c280	0.009079576
79	0xbbc470cd	-0.005994892
80	0x3b4ec8e8	0.0031552855
81	0xbb40471a	-0.0029339255
82	0x3d18408b	0.037170928
83	0xbca36d9b	-0.019949725
84	0xbc84b18f	-0.016197948
85	0xbc5d9842	-0.013525071
86	0xbbab4163	-0.0052263006
87	0xbc400929	-0.011720934
88	0x3d07509d	0.033035863
89	0x3c215cf5	0.009848823
90	0xbade423b	-0.0016956994
91	0x3a690de0	0.0008890312
92	0xbcf941fa	-0.030426968
93	0xbcecdce7	-0.028913928
94	0x3be4eb75	0.0069860765
95	0x3c6e3758	0.014539562
96	0x3aa5fe6f	0.0012664328
97	0x3ce32f92	0.027732644
98	0xbc66c8d0	-0.014085963
99	0x3c184bd9	0.009295427
100	0x3c884e84	0.016639002
101	0xbc950d6a	-0.018194873
102	0x3c000b39	0.007815176
103	0xbcaa30c3	-0.020775205
104	0x3b5a23cb	0.0033285494
105	0x3d21e34f	0.03952342
106	0xbd186207	-0.03720286
107	0x3d24a494	0.040196016
108	0xbc41fc7f	-0.011839985
109	0xbb8e6967	-0.004346061
110	0xb91f5fbd	-0.00015199087
111	0x3bb1815c	0.005417032
112	0x3ce2892b	0.027653297
113	0xbc835508	-0.016031757
114	0xbcb645db	-0.022250107
115	0xbbc28137	-0.0059358138
116	0xbcb397e1	-0.021923007
117	0x3d0a103a	0.03370688
118	0x36c19e5d	5.770284e-06
119	0x3c3e442d	0.011612934
120	0x3cc977b5	0.024593214
121	0xbc45a46b	-0.012063126
122	0xbc15859f	-0.009126096
123	0xbb964a23	-0.0045864745
124	0xbc602255	-0.01368006
125	0xbc14d382	-0.0090836305
126	0xbcd19265	-0.025582502
127	0x3b500b85	0.0031745147
128	0x3c25c588	0.010117896
129	0x3c17fb2f	0.009276195
130	0x3c6310c8	0.013858981
131	0x3acb6349	0.001551726
132	0xbb272565	-0.0025504467
133	0xbc576825	-0.013147389
134	0x3bbeea05	0.005826237
135	0x3c612c37	0.013743452
136	0x3cbd4415	0.023103753
137	0x3c9b775f	0.018977819
138	0x3bfa2bd3	0.007634619
139	0x3c11ce78	0.008899324
140	0xbccbef3b	-0.024894347
141	0xbb682632	-0.0035423157
142	0x3d2f2c7b	0.04276703
143	0x3c5ee122	0.0136034805
144	0x3b6cb24f	0.0036117022
145	0xba890c86	-0.0010456003
146	0xbc913d0b	-0.017729303
147	0xbb56d273	-0.0032779246
148	0x3a5318f3	0.0008052729
149	0xbc9e7315	-0.019341985
150	0xbc74371f	-0.01490572
151	0x3942c931	0.00018576231
152	0xb7177a9c	-9.028849e-06
153	0xbc925816	-0.017864268
154	0x3c24938c	0.010044944
155	0xba030253	-0.00049976
156	0xbd0a9001	-0.03382874
157	0x3cdcf1da	0.026970793
158	0xbcc37248	-0.023858204
159	0x3d080b00	0.033213615
160	0x3c49a0ef	0.012306436
161	0x3abb1067	0.0014271856
162	0xbb9dc494	-0.0048146937
163	0x3a373499	0.00069887337
164	0xba4079e7	-0.00073423836
165	0x3c32229b	0.010872508
166	0x3baf3d59	0.0053478894
167	0xbb76d4e3	-0.0037663511
168	0xbcb12de2	-0.021628324
169	0xbc958a79	-0.018254505
170	0xbd29fe3b	-0.04150222
171	0xbc85d6e0	-0.016337812
172	0xbd195700	-0.037436485
173	0x3d1a3740	0.037650347
174	0x3bebf810	0.007201202
175	0x3bd3df50	0.00646583
176	0xbc446187	-0.011986143
177	0x3c92224a	0.017838616
178	0x3c630c67	0.013857937
179	0xbb30541f	-0.0026905609
180	0x3c638b80	0.01388824
181	0x3b18e92b	0.0023332338
182	0x3b183fa7	0.00232313
183	0x3c9514cc	0.018198393
184	0xbd04d5bd	-0.0324304
185	0xbd1bb5bc	-0.038015112
186	0x3ca7eb45	0.020497927
187	0xbc622868	-0.013803579
188	0x3be3562b	0.0069377623
189	0x3c9bc6fe	0.019015785
190	0xbbe1a61a	-0.006886256
191	0xbb49289b	-0.0030694369
192	0xbc8d54ca	-0.017252345
193	0x3c03b0ab	0.008037726
194	0xbbc0c9ac	-0.005883416
195	0x3c299daa	0.010352531
196	0x3c6c4aeb	0.014422159
197	0x3cb27fa0	0.021789372
198	0x3c0f42bb	0.008743937
199	0xbd068123	-0.032837998
200	0x3d18a509	0.037266765
201	0xbcdead92	-0.027182374
202	0x3a67ca43	0.000884209
203	0xbc8c90d2	-0.0171589
204	0x3b5dbf80	0.0033836067
205	0xbcdb4a48	-0.026768818
206	0xbc6ec60d	-0.014573586
207	0x3c545c52	0.012961464
208	0xbd2f8667	-0.042852785
209	0xbc6f0667	-0.014588929
210	0xba93a793	-0.0011265151
211	0xbb87abca	-0.004140352
212	0x3c4d89fd	0.012545106
213	0x3b53dc6f	0.0032327434
214	0xbbcdc8c3	-0.006280036
215	0xbce535fd	-0.027979845
216	0x3cb3ff6c	0.02197238
217	0xbb3e1d78	-0.0029009264
218	0x3b355b47	0.0027672814
219	0xbbac7297	-0.0052626836
220	0x3c85457f	0.01626849
221	0x3c6fe0e7	0.014641023
222	0xbadd56f5	-0.0016886877
223	0x3b1887e4	0.0023274356
224	0x3b780ac3	0.0037848211
225	0xbaadfe97	-0.0013274726
226	0x3bdcff2b	0.0067442856
227	0x3bbdf9c4	0.0057975966
228	0xbcb286d9	-0.021792816
229	0xbc41ffdc	-0.011840787
230	0xbc9c0f6c	-0.019050322
231	0x3c1c2401	0.009530068
232	0xbca2b87b	-0.019863358
233	0xbc00106f	-0.007816418
234	0x3c067750	0.008207157
235	0xbcb01fb7	-0.021499498
236	0x3ba5057a	0.0050360532
237	0x3cf49c25	0.029859612
238	0x3b38d526	0.0028203218
239	0xbce7faa5	-0.028317759
240	0xbd343380	-0.043994427
241	0xbc82ecb8	-0.015982017
242	0xbc007b0b	-0.007841836
243	0x3c402b78	0.011729114
244	0x3cc10cb2	0.023565624
245	0xbca64fdd	-0.020301754
246	0x3caed6c9	0.021342652
247	0xbc2847ec	-0.010271054
248	0xbc10fb81	-0.008849026
249	0xbc8acea2	-0.016944233
250	0xbd0baa8d	-0.034098197
251	0xbba4a346	-0.0050243465
252	0xbbfb2198	-0.007663917
253	0xbacd65b5	-0.001567057
254	0xbcd969b5	-0.026539663
255	0x3c316cb5	0.01082914

action_model._continuous_distribution.mu.bias f4 [2]
0	0x00000000	0.0
1	0x00000000	0.0

action_model._discrete_distribution.branches.0.weight f4 [1, 128]
0	0x3b64ddc8	0.003492223
1	0x3c00571c	0.0078332685
2	0x3ae2e2ea	0.0017310057
3	0x3b102761	0.0021996128
4	0xbbc5b413	-0.0060334294
5	0xbbfc29e2	-0.0076954225
6	0x3b1abe8a	0.0023612105
7	0x38beb554	9.093681e-05
8	0xbc438c39	-0.011935287
9	0xbb8d375a	-0.004309577
10	0x3b20fdab	0.002456526
11	0xba83aeeb	-0.0010046636
12	0xbbafcf1f	-0.005365267
13	0xbc2676f7	-0.010160199
14	0x3be19248	0.006883893
15	0x3cbbb69f	0.022914229
16	0x3b1a5d13	0.0023554012
17	0xbc48ac87	-0.012248165
18	0x3bdd57f0	0.0067548677
19	0xbb8a3ea3	-0.0042188927
20	0xbb8b3aa0	-0.004248932
21	0x3b827f93	0.003982493
22	0xbc4a38f9	-0.012342685
23	0xbba5f0d4	-0.0050641093
24	0xbb19756d	-0.0023415938
25	0xba25a033	-0.0006318122
26	0xbb713a42	-0.0036808406
27	0x3c854b6a	0.016271312
28	0xbc7545e2	-0.014970275
29	0xbc4a4ff3	-0.012348163
30	0x3c06ef53	0.00823577
31	0xbaf9b4ca	-0.0019051072
32	0xbc4086f3	-0.011750924
33	0x3c2f6c18	0.010706924
34	0xbbb45e1f	-0.005504384
35	0xbaafb29f	-0.0013404674
36	0x3bf627fb	0.0075120903
37	0x3bf29887	0.0074034366
38	0xbaefc435	-0.0018292727
39	0x3c2a4ba7	0.0103940135
40	0x3b9f1260	0.0048544854
41	0xbbc73a19	-0.006079924
42	0xbbbb8e1f	-0.0057237293
43	0xbc1c7543	-0.009549442
44	0x3bfbc0ad	0.007682881
45	0x3c03eb17	0.008051655
46	0x3bb583a9	0.0055393768
47	0xbb5169f5	-0.0031954024
48	0x3c5a9e0b	0.013343344
49	0x3c82a6a9	0.01594861
50	0xbc049673	-0.0080925105
51	0x3c98402f	0.018585293
52	0xbbca9f23	-0.0061835214
53	0xbab9029c	-0.0014115158
54	0x3a897537	0.0010487203
55	0xbad044c3	-0.0015889633
56	0xbc03afd4	-0.008037526
57	0xbce5e3c2	-0.028062705
58	0x3bb27dc5	0.005447122
59	0x3c1b0eff	0.009464025
60	0x3c9694c9	0.018381493
61	0xbab02b5f	-0.001344066
62	0x3a96a4a3	0.0011493157
63	0xb9201027	-0.00015264806
64	0xbc72c1a2	-0.0148166735
65	0x3c04dc2a	0.008109132
66	0x3bcb4894	0.0062037203
67	0x3ab9639e	0.0014144068
68	0x3c04b527	0.008099831
69	0xbacc0803	-0.0015566353
70	0xbc08d3cd	-0.0083512785
71	0x3c15d5f1	0.009145246
72	0xbbe622ff	-0.007023215
73	0x3c1a2155	0.009407361
74	0x3a6a2855	0.00089324015
75	0xbc2a054b	-0.0103772385
76	0xbac6a373	-0.0015154913
77	0x3c8e9cfc	0.01740884
78	0x3c62b41a	0.013836885
79	0x3bba3453	0.005682507
80	0xbbbb88e5	-0.005723106
81	0xbc225c21	-0.009909661
82	0x3c672f60	0.014110416
83	0x3c2abf84	0.010421637
84	0xbc035d5d	-0.008017865
85	0xbbb61170	-0.005556278
86	0x3b876bc1	0.0041327183
87	0x3bc02d94	0.0058648083
88	0xbb3fb067	-0.002924943
89	0x3b077fb0	0.0020675473
90	0xbadc8760	-0.0016825013
91	0xbb2ab8b6	-0.0026050038
92	0xbbb0a7eb	-0.005391111
93	0x3c9fa07e	0.019485708
94	0x3b2f811d	0.0026779838
95	0xbab1d783	-0.0013568256
96	0x3c06a30a	0.0082175825
97	0x3b5d2c6f	0.0033748408
98	0xbba03de6	-0.0048901914
99	0xbaa9151f	-0.0012899971
100	0x3cc5aa33	0.024129009
101	0xbc66e0ff	-0.014091729
102	0x3c235fef	0.009971603
103	0x3a875cfb	0.0010327393
104	0x3c8e53cf	0.017373947
105	0x3b5fd09b	0.0034151438
106	0xbc0c035f	-0.008545726
107	0x3be5c610	0.0070121363
108	0xbb8f25d4	-0.004368523
109	0xbc83d1a5	-0.016091177
110	0xbc09fe41	-0.008422435
111	0x3ba3a52c	0.0049940553
112	0xbbc2b3bc	-0.005941836
113	0x3c0ff031	0.008785293
114	0x3a8cdf8c	0.0010747775
115	0xbbf7a762	-0.0075577954
116	0xbbca273e	-0.006169229
117	0x3a2438bf	0.00062645593
118	0xb8c86cc5	-9.557003e-05
119	0x3c81dd79	0.015852677
120	0xbb89422f	-0.004188798
121	0xbbb74177	-0.005592521
122	0x3aabc390	0.0013104547
123	0x3c127fc9	0.008941599
124	0xbbcef578	-0.0063158832
125	0xbb743e7d	-0.0037268691
126	0x3bf15235	0.007364536
127	0xbc5a2cdd	-0.01331636
