Project specific/results/ppo/JumperAgent/JumperAgent-32216.onnx (onnx, 94240 bytes, 8 tensors)

network_body._body_endoder.seq_layers.0.weight f4 [128, 44]
000000 99 e1 6e 3d cd 81 81 be ea 67 3b bd 29 9f b7 be
       0.058320615 -0.25294343 -0.045753397 -0.35863617
000010 3a b4 a4 3d de 95 5d 3d 02 0d 00 bd a9 a7 b9 3d
       0.08042188 0.054098003 -0.031262405 0.09065182
000020 b2 eb ef bd f6 aa 3a 3d 5d 03 fd bd e0 fb 9f 3d
       -0.11714877 0.045573197 -0.12354157 0.07811713
000030 d7 77 24 bd c5 7d 0f bc 91 66 3a be 6e 57 a9 bd
       -0.04015335 -0.008758013 -0.18203188 -0.08268629
000040 44 89 8a 3c 6a 52 b5 3d d4 9b 34 be 4f 87 2c 3a
       0.016911156 0.0885361 -0.17637569 0.0006581442
000050 0f 0c 50 be 33 5e b0 be aa a6 5e bd 99 0e 9b bd
       -0.203171 -0.34446868 -0.054358162 -0.07571144
000060 75 51 25 3d 8f 8b b0 bc 41 00 d7 3d 04 00 8d bc
       0.040360887 -0.021550922 0.10498095 -0.017211922
000070 98 b8 d2 bd 30 10 de 3d fd 25 d0 3d 70 1c 8e bd
       -0.10289115 0.10842931 0.10163496 -0.06939018
000080 54 95 46 3e 34 ce 9e 3e 07 71 5d 3c 4b 68 06 3e
       0.19392902 0.31016695 0.013515717 0.13125722
000090 f0 60 6b 3e 8b 41 a8 bd 8b 18 13 3d 50 d9 cb 3d
       0.22986197 -0.08215626 0.035912078 0.099535584
0000a0 a3 c0 1b be e4 95 d0 bd d1 b9 bb bd 02 ea 51 3e
       -0.15210204 -0.10184839 -0.09166301 0.20499423
0000b0 4e fe 6d 3d 33 28 7a be 49 a2 45 be 11 45 30 3d
       0.058103852 -0.24429397 -0.19300188 0.043034617
0000c0 e1 a4 ea be 49 e2 ce bd e3 a0 f1 bd 41 7d f7 3c
       -0.45828918 -0.10101754 -0.11798265 0.030211093
0000d0 23 0b f6 be ad a1 00 3d a1 fe c5 3d 0b 0f ae 3d
       -0.48055372 0.031404186 0.09667707 0.08498963
0000e0 f8 1a fc 3c 97 a1 10 be 34 0f 2f bd 46 2c 16 3e
       0.030774578 -0.14124142 -0.04273911 0.14665326
0000f0 2c 2e bd bd 87 ba 58 3e 90 60 16 3d 08 81 a3 be
       -0.09237322 0.21164905 0.036713183 -0.3193438
000100 33 0f 03 be b4 8b f1 bc 57 24 9c bd 6d 19 90 3d
       -0.12798767 -0.029485561 -0.07624119 0.070360996
000110 9e 3a 48 be 00 65 49 bd 9e 26 85 3e 3d 86 85 3c
       -0.1955361 -0.049168587 0.26006025 0.016299361
000120 85 b7 31 bd ed ce 5d 3d 85 b7 07 be dd 6a 84 be
       -0.04338791 0.054152418 -0.13253601 -0.2586278
000130 92 a0 d8 3d 31 eb 4a be bd 09 96 bd 53 0e 13 bd
       0.10577501 -0.19816281 -0.07326076 -0.035902333
000140 14 1c 1e be b8 72 6a 3e 95 e7 51 3e b3 be ff bd
       -0.15440398 0.22895324 0.20498498 -0.12487545
000150 f9 7a 45 3e ef f8 d2 3d 53 2f a1 3c 03 39 9e bc
       0.19285192 0.103013866 0.019675886 -0.019314295
000160 3a 7a b0 bd 03 88 0e bd 00 f4 b3 3d 6c 02 ae be
       -0.08617063 -0.03479768 0.08786774 -0.33986223
000170 f3 ad 79 3b ec ae b2 3c e2 9d 88 be 0e ed e6 3d
       0.0038098067 0.021811925 -0.26682955 0.11275683
000180 dc 61 17 3e 86 7b bf bb e1 33 ab 3c 83 33 86 3e
       0.14783424 -0.0058435826 0.020898761 0.26211175
000190 71 77 94 be b5 5d e8 3d a1 7f 1b 3e e0 04 e2 3d
       -0.28997377 0.11345998 0.15185405 0.11036086
0001a0 74 9f 44 be a4 36 a3 3c ac 4a 18 3e be 03 16 bd
       -0.19201452 0.019923516 0.14872235 -0.036624663
0001b0 c3 61 81 3e d4 59 1a be eb 15 de bd a1 19 9a bd
       0.252699 -0.15073329 -0.10844024 -0.075244196
0001c0 dd 76 88 be 61 0d 1d 3e e9 ae 75 bd 68 55 8d be
       -0.26653185 0.15337135 -0.05998126 -0.27604222
0001d0 a7 8d 4c 3d 0f 4a 7f be 96 65 95 3e e0 e8 a8 3d
       0.049939778 -0.24930595 0.29179066 0.082475424
0001e0 5e 40 18 be 64 8e a1 3c c1 d7 0a be 3a c4 1b 3c
       -0.14868304 0.019721217 -0.13558866 0.009507233
0001f0 33 b9 ca 3d 29 d8 80 be fd 42 9a 3e 64 58 bd 3a
       0.09898605 -0.25164917 0.30129233 0.0014445898
000200 50 52 3f 3e 6e ea 53 3d 6f cd 6d be 55 0d 8c bc
       0.18683743 0.05173724 -0.23222898 -0.017096201
000210 76 02 22 3e c6 5a c1 bd 6c b1 0e be 2d 75 8f 3d
       0.15821251 -0.09441142 -0.13934869 0.070047714
000220 d4 c4 71 3e 0f 20 de bd 74 5c 4a 3d 9b f0 bc bd
       0.2361024 -0.108459584 0.049404576 -0.09225579
000230 b7 ae f8 3d da 63 47 3c bf 94 19 3d 82 d6 34 3d
       0.12142699 0.012169803 0.03749537 0.044149883
000240 99 03 2d 3d 75 d3 2d be 31 9d cb bd 7c 13 e2 3d
       0.04223976 -0.16975196 -0.09942091 0.110388726
000250 cc 1c 2b 3e 88 cf d3 bd 98 39 b0 3d f1 97 c2 3d
       0.16710204 -0.10342318 0.08604735 0.09501637
000260 ea 84 0f be 68 ad 8e bd 21 ad 1e 3e cf 98 fc bd
       -0.14015546 -0.06966668 0.15495731 -0.123338334
000270 ea 0a 11 3d 86 8f 93 be 80 f6 51 3d 31 3b 1e 3d
       0.0354108 -0.28820437 0.05126047 0.038630668
000280 32 e2 dc bd 36 50 ae bc d7 e9 09 3e bc bb 50 3e
       -0.10785331 -0.021278482 0.13468109 0.20384115
000290 92 2d 5a 3b 54 ff 3f 3e 1a f8 0b be 74 50 59 3e
       0.0033291322 0.18749744 -0.13668862 0.21222097
0002a0 0d 1c c7 3c ac 6f c3 3c 38 12 8e bd bc d9 f1 3d
       0.024305368 0.02385696 -0.06937069 0.11809108
0002b0 e3 5e 43 3e 73 21 89 bd bc a0 b7 bc 27 1f 87 3c
       0.19079165 -0.06695833 -0.022415511 0.016494347
0002c0 05 1b 94 3c 12 7f 2b bd 57 2d be bd 0d b2 24 3d
       0.01807929 -0.04186923 -0.09285992 0.040208865
0002d0 68 27 04 3e 27 e6 55 be 80 6e bd 3d a0 97 01 be
       0.12905657 -0.20888577 0.09249592 -0.12655497
0002e0 e4 5b 45 3e 23 ec 63 3d 21 57 42 3e 75 59 8c 3e
       0.19273335 0.05564512 0.1897855 0.27412
0002f0 03 3b 2b 3e 31 7d eb 3d ef 90 25 be 0c 56 8e 3d
       0.1672173 0.11498488 -0.16168569 0.06950006
000300 7c 1a 34 be 46 64 98 3e fd f7 88 3d e2 a3 5e bb
       -0.17588228 0.29764003 0.06687925 -0.0033972193
000310 5f 80 77 3d 7c 60 85 3e 37 07 89 bd 0c 81 2c 3e
       0.06042516 0.26050174 -0.06690829 0.16846102
000320 37 06 09 3c ba 15 7a bc a3 24 23 bc 94 38 2c bd
       0.008363298 -0.015263969 -0.009957465 -0.042046145
000330 8e f9 ce 3d 02 45 b2 3e dd 2c a9 bd 48 91 1a bd
       0.101061925 0.34818274 -0.0826051 -0.037736207
000340 41 9b 92 bd a9 28 56 3e b6 88 aa 3d 53 15 41 3e
       -0.071585186 0.20913948 0.08326857 0.18855791
000350 e2 c9 1c 3e d3 22 5d 3e 54 d4 cc 3e 3d f1 99 bd
       0.15311387 0.21595316 0.40005744 -0.07516716
000360 2c 12 e0 bc f3 46 81 3e 5e 0b 56 3d 20 2b 43 3e
       -0.027352415 0.25249442 0.052256934 0.1905942
000370 cb f8 51 3d 88 dc 49 be 15 f8 bd bd 8c 35 a7 be
       0.051262658 -0.19713032 -0.092758335 -0.3265804
000380 ef 3f 06 be 1c 88 f4 bc 0d 04 eb 3a 23 54 3b 3d
       -0.13110326 -0.029850058 0.0017930284 0.045734536
000390 01 0b 11 3e 6f 07 38 3e dd 76 87 be 9e 85 df 3d
       0.14164354 0.17971586 -0.26457873 0.10914157
0003a0 22 3f 69 be 88 f7 4c 3d ac 4d fc 3c 5e ca 04 be
       -0.2277799 0.05004075 0.030798756 -0.12967822
0003b0 0d 19 11 3e 00 c0 cd 3d db 0a 40 be f8 bb bf bc
       0.14169712 0.10046387 -0.18754141 -0.02340506
0003c0 71 37 27 be d2 c7 55 3c 62 36 84 bd f2 97 a2 bc
       -0.16329743 0.013048129 -0.06455685 -0.019847844
0003d0 71 4c 5d 3e 21 23 6b bc f7 93 8a 3d 0f 59 70 3e
       0.21611191 -0.014351637 0.06766503 0.23471473
0003e0 88 35 e0 bc b2 ba 89 be a8 51 ad 3d 17 47 51 bc
       -0.027369276 -0.2690025 0.0846284 -0.012773297
0003f0 10 ac 36 bd 28 f2 0c be 31 cc 96 be 46 ee c5 bd
       -0.044597685 -0.1376425 -0.2945266 -0.09664588

network_body._body_endoder.seq_layers.0.bias f4 [128]
000000 6c 37 82 3b ef ae 87 bb df 99 32 bb 7c e2 f7 b9
       0.003973892 -0.0041407268 -0.002725236 -0.00047280255
000010 b2 62 b4 3b 33 b4 7a bb 46 ef a6 3b 45 27 15 b9
       0.0055049295 -0.003825438 0.0050944416 -0.00014224376
000020 b2 6d 6a ba 5a 9f c8 3a f8 7d 73 bb 87 c5 69 3b
       -0.00089427375 0.001530628 -0.003715394 0.0035670714
000030 fb fc 6e bb 54 a7 52 3b 2c 76 8a 3b f0 cc ff b9
       -0.0036466706 0.0032143192 0.004225513 -0.0004879008
000040 ff e3 87 ba ac e9 9b 3b 9e bb 41 bb 16 8f 81 bb
       -0.0010367631 0.0047580805 -0.0029561291 -0.0039538248
000050 29 e5 60 3b a7 c6 aa 3a ea 34 29 bb 0f ed d2 3a
       0.0034316278 0.0013029174 -0.0025818893 0.0016092377
000060 0e fd cb 39 dc 29 bc 3b e0 40 c6 bb 26 11 9f bb
       0.00038907718 0.0057422947 -0.006050214 -0.004854339
000070 71 2a 96 bb d5 c6 23 3b ce 81 92 bb 7f 8b 26 3b
       -0.004582696 0.002499034 -0.0044710403 0.0025412736
000080 c2 60 24 ba 71 bf 8f bb 13 6a 30 3b 87 24 e1 3a
       -0.00062705216 -0.0043868353 0.0026918694 0.0017177024
000090 b8 9a a6 3b 0c cc 4b bb ba 2b 18 3b 08 80 41 3b
       0.005084362 -0.0031096963 0.0023219422 0.0029525775
0000a0 72 88 43 bb 99 cc 8a ba 42 c3 67 3b b0 7a 1c bb
       -0.0029835966 -0.0010589539 0.0035364185 -0.0023876838
0000b0 5c a2 84 bb e3 98 7a bb 3b 24 51 3b 0a 66 40 3b
       -0.004047675 -0.00382381 0.0031912464 0.0029357695
0000c0 71 51 40 3b 14 5e 97 ba 1a 06 8b 3b 8d 91 21 bb
       0.0029345418 -0.0011548423 0.0042426707 -0.0024653405
0000d0 a1 0f 8c bb fb 39 46 3b 53 86 0f 3b ac 05 2e 39
       -0.004274324 0.0030246961 0.0021900132 0.00016596046
0000e0 51 72 91 bb ca 22 8f 3a 4d 87 c5 bb b5 c2 8b bb
       -0.0044386764 0.0010920402 -0.006028092 -0.0042651542
0000f0 ac fd 93 3b 4f 82 b0 3b 16 40 e4 ba d7 dd d4 ba
       0.004516324 0.0053866277 -0.0017414119 -0.001624043
000100 a8 a4 c4 ba 23 45 be 3a e2 28 51 3b 83 7f 86 b9
       -0.0015002685 0.0014516454 0.0031915237 -0.00025653475
000110 53 64 4b bb db 8a d8 3a 74 ab 1a ba 0a ac 88 3b
       -0.003103514 0.0016520874 -0.00059001823 0.0041708993
000120 8b 32 0a ba 0c 4e 9c bb be 40 b5 3b 82 d1 52 3b
       -0.0005271814 -0.004770046 0.0055313995 0.0032168333
000130 79 d3 40 3a 3f 5e 93 bb bb 1b 5b 3a 0e 0c 2c 3b
       0.00073557306 -0.004497319 0.0008358319 0.0026252302
000140 bf a7 96 3b 36 3b 88 bb 06 a3 f3 ba 44 88 e8 ba
       0.0045976336 -0.004157449 -0.0018588013 -0.0017740806
000150 d0 5a 32 bb 80 54 13 bb 12 e2 b2 3b 60 dc 73 3b
       -0.0027214773 -0.0022480786 0.0054590786 0.003721021
000160 84 4c 93 bb 6f f0 52 3b 22 d8 b7 3b f0 65 79 bb
       -0.0044952054 0.0032186767 0.005610482 -0.0038055144
000170 40 19 1a 3b 66 61 46 3b 56 2f 54 3b 73 53 51 bb
       0.0023513585 0.0030270456 0.0032376847 -0.0031940609
000180 55 af 5a bb c4 1c 9e ba e1 4b 76 bb a6 ef ad bb
       -0.0033368666 -0.0012063016 -0.0037581848 -0.0053081093
000190 8b 30 9e bb f6 31 7f 3a 51 70 24 3b a8 85 e1 ba
       -0.004827564 0.0009734923 0.002509136 -0.001720597
0001a0 ce f3 a6 bb ca a5 22 bb ed 22 97 bb b3 57 e8 ba
       -0.0050949818 -0.0024818056 -0.004612318 -0.0017726332
0001b0 96 3e 9e b8 04 d5 63 3b 01 38 9d bb 7f ef 73 ba
       -7.545685e-05 0.0034764418 -0.004797936 -0.0009305402
0001c0 00 72 5a ba 34 39 9a 3a 40 3c 9a 3b 67 87 b5 ba
       -0.00083330274 0.0011766315 0.0047068894 -0.0013849557
0001d0 3d f2 b8 3a 8a 54 80 bb c7 0e 76 3b 55 a8 7b ba
       0.0014110279 -0.003916328 0.003754543 -0.00095999736
0001e0 e7 37 c4 bb 35 83 5c ba 28 2d 8b ba d4 95 72 ba
       -0.0059881094 -0.00084118854 -0.0010618316 -0.00092538935
0001f0 e2 23 06 bb e7 a2 14 39 e9 5a 00 ba f1 4a 13 bb
       -0.0020468165 0.00014175066 -0.0004896359 -0.0022475088

network_body._body_endoder.seq_layers.2.weight f4 [128, 128]
000000 b7 37 0e 3e 12 f2 07 bb 4f 79 0f be a8 1c 8d bd
       0.13888441 -0.002074365 -0.1401112 -0.06890231
000010 c3 d8 54 bd db 07 c0 3d 6f a6 7a 3c 91 71 88 3d
       -0.051964533 0.09376498 0.01529847 0.06662286
000020 3e b5 1f 3e 9b 63 7c bd 0e 47 da bc 5b b5 12 3d
       0.15596482 -0.06161843 -0.02664521 0.035817485
000030 ad b6 9d 3d 67 4e b3 3d 18 df a2 bc 9e ea 0c 3e
       0.07700858 0.087551884 -0.01988177 0.13761374
000040 64 24 a4 bd 3d db 95 3c 52 2d 65 bc cf b2 83 3d
       -0.080147535 0.018293018 -0.013987856 0.064305894
000050 c1 c1 94 3d a3 22 61 bc 46 a6 db 3c cb 81 8e 3d
       0.07263518 -0.013741168 0.026812684 0.0695835
000060 41 e4 7d bd 5f 75 93 bc 35 ec cb bd 90 fc a6 bd
       -0.061985258 -0.018000303 -0.09957162 -0.08153641
000070 cd 76 8b 3c cb 63 0a bd 26 95 b6 bc 8f 1d 13 3e
       0.017024422 -0.033786576 -0.022287916 0.14366744
000080 3f 95 22 be 5f c1 e8 3d 50 39 9b bd b5 b2 37 3d
       -0.15877245 0.113650076 -0.07579291 0.044848163
000090 74 06 c8 3c d1 08 5c 3d dc 6e cb bc ea c4 a2 bd
       0.02441714 0.053719345 -0.024833135 -0.079477146
0000a0 c4 61 e1 bd 06 8b 5c 3d 79 0e 78 bd 49 16 03 3d
       -0.110049754 0.05384352 -0.060560677 0.032003675
0000b0 61 5b 03 3e 80 5f d6 3b 6a af ad bd 0a c3 18 3e
       0.12827827 0.006542146 -0.08480723 0.14918151
0000c0 61 46 fa bc e5 46 1b 3b cb 99 6f 3d f3 d2 cd bd
       -0.030551137 0.002369338 0.058496278 -0.10050001
0000d0 6d 79 d4 bd 60 e8 0e bc 51 33 08 3a 61 38 01 be
       -0.10374723 -0.008722395 0.0005195635 -0.12619163
0000e0 3e 5f 88 3d d4 e5 0f be 8e 96 22 3c 54 b7 36 bc
       0.06658791 -0.14052516 0.00992359 -0.011152107
0000f0 09 ec e8 bc 61 be 85 3d d9 1c 38 bc c4 7e ba bd
       -0.028432863 0.065304525 -0.011237347 -0.0910621
000100 53 55 86 bc 48 e9 c6 3d 6b 54 9a 3d 1c 61 87 3d
       -0.016398108 0.097124636 0.07535633 0.06610319
000110 81 4e ea bc 32 64 1c bd 3f 7f 8e bd bb 6e 0d be
       -0.028601887 -0.03818149 -0.06957864 -0.13811772
000120 3d 11 2d be ad f5 8e 3d 89 c9 4c 3e 66 e7 a1 bd
       -0.16901107 0.06980453 0.19998755 -0.07905464
000130 5c 51 63 3c c8 9e 2e 3d 18 f6 fd bc e3 8d 55 bd
       0.013874378 0.042631894 -0.031001136 -0.052137267
000140 f2 ab 88 3c bb a7 e9 3d 1f 98 52 3d a3 ee 1b 3d
       0.016683552 0.11408945 0.051414605 0.03806938
000150 a0 89 36 bd 16 6f 39 3e 7f 71 47 bb 16 49 bf bc
       -0.044564843 0.18108782 -0.003043264 -0.02335028
000160 ec 9b 8b bd 59 cc c3 3d 75 35 c0 3d 2e 06 5f 3d
       -0.06816849 0.095604606 0.09385196 0.054449253
000170 de 68 82 3d 7f 2a 52 bd 07 b9 21 be 33 bf e2 3b
       0.06367658 -0.05131006 -0.15793239 0.0069197654
000180 87 60 01 3a 8a a4 20 3d ab 98 0b 3e 72 0b 3a bd
       0.0004935343 0.039219417 0.13632457 -0.04542107
000190 a4 fd 2a bd dc 24 85 3d 6e a2 8f 3d b5 00 93 bc
       -0.041745797 0.06501171 0.07013403 -0.017944673
0001a0 f5 21 a4 3d cf a0 56 3d 99 99 c4 3c 75 c8 e0 3c
       0.08014289 0.052399453 0.023999022 0.027439335
0001b0 1a 33 52 bd 10 46 b4 bb 72 3c 18 3d 64 96 51 3d
       -0.051318265 -0.005501516 0.03716702 0.051168814
0001c0 a6 30 7b bc 3d 5e 10 be 67 17 c1 3b 54 90 a5 bb
       -0.015331423 -0.14098449 0.0058926824 -0.0050526056
0001d0 6f 61 2b 3c 6e 28 7a 3d a7 5c 2c 3d ff 86 9a 3d
       0.010460242 0.061073713 0.042080548 0.0754528
0001e0 e8 c6 91 bc b2 22 37 bd 88 fa e2 3b 30 6d 43 3d
       -0.017795041 -0.044710822 0.0069268383 0.04771155
0001f0 97 05 98 bc 7e 7c a7 3d 75 83 cf bc 44 1e 81 bc
       -0.018557353 0.08178042 -0.025331238 -0.015761502
000200 8e bd c9 bd 94 7e 28 be e8 3e 49 be 6b 1b 40 be
       -0.09850608 -0.16454536 -0.19652903 -0.18760459
000210 9a 72 03 3d 83 ab 07 bc da c9 b0 3d 6d cb a5 bc
       0.032091714 -0.008280638 0.0863225 -0.020238603
000220 16 30 cf bd 80 af be bd e7 76 09 be 97 4c df bd
       -0.101165935 -0.09310818 -0.13424264 -0.1090328
000230 0d a1 86 3d d6 9f d1 bd 52 68 04 be 76 9e b9 bb
       0.06573687 -0.102355644 -0.1293042 -0.005664642
000240 f0 da 3d bd 77 5f 0e bd de 63 e7 3c a1 4b fc 3d
       -0.046351373 -0.03475901 0.028245863 0.123191126
000250 23 f4 db 3d 40 a5 4b 3b 30 c7 89 bd e6 c2 d8 3d
       0.10739925 0.0031073838 -0.06727445 0.10584049
000260 74 f7 85 3c f8 95 22 3e 8a 0e be bd b9 d7 9e 3d
       0.016353346 0.15877521 -0.09280117 0.077559896
000270 d9 2e 39 bd 4b 1b 83 39 d9 00 be bd 1c 88 1e 3c
       -0.045210693 0.00025006602 -0.092775054 0.009676006
000280 22 4a 46 bc f7 cd a4 bd 96 b1 f4 bd 5f e2 e4 3d
       -0.012102636 -0.08047097 -0.11947934 0.11175989
000290 8b 9c 86 be 60 42 91 bd 4e 5f 26 3c d4 32 49 3d
       -0.26291308 -0.07092738 0.010154558 0.04912074
0002a0 82 ff 9e 3d f7 8d c0 3d 71 f1 8a bd 4b b5 91 bd
       0.07763578 0.09402078 -0.067843325 -0.07114657
0002b0 c3 8a 6e 3d 45 98 9e bd 4b 87 e4 bd 05 9c 97 bb
       0.058237802 -0.07743887 -0.111586176 -0.0046267533
0002c0 51 a7 99 3d 35 10 13 bc 8c c4 0b 3e b3 a5 f7 bd
       0.07502616 -0.008976032 0.13649195 -0.120921515
0002d0 01 32 34 3c ae 44 e7 bd 79 da 2d 3e 16 c2 d2 bd
       0.01099825 -0.112923965 0.16977872 -0.10290925
0002e0 c5 e7 74 be 19 7a 0a 3d db 12 4c 3c 4e db b6 3d
       -0.23916538 0.033807848 0.012455667 0.08928548
0002f0 bc 9f a4 bd fc 99 81 bd f3 cf 00 3d 6e dc 67 3d
       -0.080382794 -0.06328198 0.031448316 0.056606703
000300 78 0d 4f 3d 09 8c 2c bd 22 aa 27 bc 29 89 02 3d
       0.050549954 -0.042125735 -0.010233434 0.031869087
000310 1c b6 06 3d b0 8b 90 bd 0e 54 51 bb 86 1e f1 bd
       0.032888517 -0.07057893 -0.003194097 -0.117734
000320 b1 b3 ee bb 68 95 d5 bd 90 d1 d8 bd 69 37 36 3d
       -0.0072846045 -0.104288876 -0.10586846 0.044486437
000330 65 44 26 be a8 26 47 bb af 8e c6 3d 49 a3 e6 3d
       -0.16237028 -0.003038803 0.096951835 0.11261613
000340 4e ed 02 3d a3 64 19 3d 8e ad 0f 3d 9b 46 cf bb
       0.031964593 0.03744949 0.035077624 -0.0063255555
000350 58 90 d2 3d 3a a6 8f 3b 92 4e af bd 6a 6f c9 bd
       0.10281438 0.0043838294 -0.08559908 -0.09835704
000360 a9 1a cb bd 74 3a 79 3d cb 8f 87 3d c1 e5 b1 bd
       -0.099171944 0.06084676 0.06619223 -0.086864
000370 20 1f fb bc 87 be 00 be 8f d8 85 bd 7d ec c0 bd
       -0.03065449 -0.1257268 -0.06535446 -0.094201066
000380 3c 2b 52 3d 88 32 e1 3a 0b 91 72 3d 65 ac 08 bb
       0.051310763 0.0017181197 0.059220355 -0.0020854708
000390 40 dd a8 bd 3a d5 df 3a 9b 0b ca bd 5d ef 52 3e
       -0.08245325 0.0017077096 -0.09865495 0.20599122
0003a0 72 ec 2d bd 30 19 d4 bc 51 9c d0 bd 43 1b b9 3d
       -0.04246182 -0.025890917 -0.10186065 0.09038403
0003b0 0d 54 8f bd 8b d4 b1 3d cf 03 1f be 50 77 75 bd
       -0.06998453 0.086831175 -0.15528797 -0.05992824
0003c0 98 cd 2f be a9 b2 d0 bd 67 a5 15 3e ed 4d a3 bc
       -0.17168272 -0.10190327 0.14613877 -0.019934619
0003d0 50 b3 1c 3d 13 9e bf bd 68 f8 e2 3c 22 90 31 3d
       0.038256943 -0.09356322 0.02770634 0.043350346
0003e0 67 44 35 3c fb 68 f7 3b 02 2f a2 bd 61 af ed bc
       0.011063672 0.0075503564 -0.07919122 -0.029014291
0003f0 02 bc 97 bc 6c df 9d 3d ee aa 9e bd eb 08 d1 3b
       -0.018522266 0.0770863 -0.07747446 0.006379237

network_body._body_endoder.seq_layers.2.bias f4 [128]
000000 80 e2 75 bb 59 53 86 3b 87 38 55 bb 55 95 97 ba
       -0.0037519038 0.0040992913 -0.0032534914 -0.001156489
000010 3f ac 11 3b 94 16 71 3b d5 f3 4a bb 81 5c c2 b9
       0.002222791 0.003678714 -0.003096809 -0.00037071484
000020 ab 4e 18 3a ff a5 97 3b dc dc 67 bb ca 1f 8e bb
       0.0005810062 0.0046279426 -0.0035379445 -0.0043372856
000030 fe 12 89 bb 06 f1 18 bb 04 2d 2f bb 92 5f 94 bb
       -0.0041831722 -0.002333702 -0.0026729712 -0.0045279944
000040 92 4e 04 bb 4d 10 20 ba 17 49 a0 bb e4 ad 98 3b
       -0.0020188433 -0.00061059446 -0.0048915255 0.0046594013
000050 2f 81 9e 3b 8b 97 c2 ba 98 81 44 3a 1e 2a 83 3b
       0.004837177 -0.0014846189 0.00074961176 0.0040028235
000060 14 99 b3 ba 2b 41 d4 ba a7 6d a9 ba c7 86 80 3b
       -0.0013702237 -0.0016193738 -0.0012926356 0.0039223167
000070 26 75 68 bb 32 56 63 3b 7d 7a e8 3a 96 8c 29 bb
       -0.0035470217 0.0034688828 0.00177367 -0.002587115
000080 9e 1d 0b 3b 22 4b cd ba 59 f5 7c bb f6 d9 1a 3b
       0.002122737 -0.001566265 -0.0038598387 0.002362845
000090 34 30 a8 bb cc 46 86 3b ef a5 02 3b ed 3b 78 bb
       -0.0051326994 0.004097795 0.001993533 -0.0037877515
0000a0 9a f4 85 bb 83 33 97 bb ff 8c 84 bb ef ab bb 3a
       -0.0040879967 -0.004614295 -0.0040451284 0.0014318208
0000b0 51 a2 99 bb 40 5e 82 bb 55 0c 2d bb bb a1 7d 3b
       -0.004688539 -0.0039785206 -0.0026405056 0.0038701135
0000c0 7a 50 1b bb 61 2c a4 3b fe 3d 87 bb ab da 6b ba
       -0.002369909 0.005010173 -0.004127263 -0.00089971226
0000d0 b1 e5 9b 3b dd d3 8b 3b d1 65 86 3b 39 41 c0 3a
       0.004757606 0.0042671994 0.004101493 0.0014667875
0000e0 b3 14 38 bb f0 36 0f 3b 7f 3e 3e 3b 38 b4 5f bb
       -0.002808851 0.0021852814 0.002902895 -0.0034134518
0000f0 bf ca f5 3a fb f0 3c bb e4 7a 36 3b 0f 35 9e 3b
       0.001875244 -0.002883016 0.0027844245 0.0048281024
000100 b3 ab a5 bb e4 f6 d2 3a 82 37 47 bb 9f 49 97 bb
       -0.0050558685 0.0016095308 -0.0030398075 -0.0046169306
000110 88 ec 85 3a 84 a1 bd ba 26 6c 95 3b e6 8b 7e 3a
       0.0010217587 -0.0014467691 0.0045600114 0.00097101775
000120 e6 48 7b bb 32 b1 76 bb 51 6e 2d 3b 95 77 9a bb
       -0.0038343011 -0.0037642238 0.0026463459 -0.0047139623
000130 21 e2 3e 3b d5 cd 42 3b 69 6f 81 3b 11 45 19 bb
       0.0029126483 0.0029724736 0.0039500487 -0.0023387114
000140 28 76 d8 b9 c0 3f 81 3b b9 51 8e 3b 61 77 23 bb
       -0.00041286764 0.003944367 0.004343238 -0.0024942982
000150 02 89 24 3b 33 3a 38 bb ec a9 0e 3b 6e d4 9f bb
       0.0025106077 -0.0028110861 0.0021768762 -0.0048776185
000160 56 82 3e ba e1 f4 31 bb 1e 64 9c 3b 31 71 87 3b
       -0.00072673464 -0.0027154016 0.004772677 0.0041333665
000170 d1 e3 49 3b fc b0 43 37 88 63 cd ba 0b 03 a5 3b
       0.0030805955 1.1664113e-05 -0.0015669921 0.005035763
000180 8c 09 14 bb 5b 35 1f 3b f3 eb 95 3b 26 d4 ac bb
       -0.0022588698 0.0024293277 0.0045752465 -0.0052743135
000190 9e 67 2e bb 03 c1 e8 ba 55 68 82 bb 7d 1f a3 3b
       -0.0026612054 -0.0017757717 -0.0039797225 0.004978119
0001a0 e0 43 56 3b ae 22 75 3b 9a 75 74 bb 10 0f 6f 3b
       0.0032694265 0.0037404704 -0.0037301541 0.0036477484
0001b0 1d 7d 91 bb 9f 83 98 bb 9c 50 80 3b 94 18 f7 b9
       -0.0044399635 -0.0046543623 0.0039158594 -0.00047129823
0001c0 da 8b 89 3b 34 e8 a4 3b 30 26 4f 3a 08 d4 fe 3a
       0.00419758 0.0050325636 0.0007902114 0.0019441852
0001d0 e5 37 88 bb b4 af 96 bb ea 77 d5 3a 6b a9 36 3b
       -0.004157054 -0.004598582 0.0016286348 0.0027871977
0001e0 dc 8e 97 bb f2 33 06 bb df 80 9c 3b d3 18 8e 3b
       -0.0046251845 -0.002047774 0.004776105 0.0043364554
0001f0 f8 98 23 bb fa 7e 4f bb 03 70 8b bb a6 fc 1d 3a
       -0.0024963003 -0.0031661377 -0.004255296 0.0006026722

action_model._continuous_distribution.log_sigma f4 [1, 2]
000000 fa 75 27 3c 70 13 a6 bb
       0.010220999 -0.005068235

action_model._continuous_distribution.mu.weight f4 [2, 128]
000000 51 c9 1e bb cd 39 fb 3c 4f c9 99 bb af b6 19 3b
       -0.002422888 0.03066721 -0.0046931873 0.0023454835
000010 1d 13 c0 3b ff 9b c4 3c fa 45 2c bc a5 e4 e3 3b
       0.0058616535 0.024000166 -0.010514731 0.006954747
000020 e2 b3 ed 3b 68 a5 cc 3b 4f 2c ae bc f9 9e 94 bc
       0.0072541097 0.006245304 -0.021261362 -0.01814221
000030 25 a0 f8 bb b9 40 82 bb 2d 50 c8 bc cd 48 63 bc
       -0.00758745 -0.0039750007 -0.024452293 -0.0138723375
000040 eb 15 55 bc 93 4f 5b 3c 01 72 22 bc 20 d5 e5 3c
       -0.013005714 0.013385671 -0.009914876 0.028055727
000050 23 54 47 3c 8e 81 45 bb 48 9c d0 3c a5 52 10 3d
       0.012166056 -0.0030137035 0.025465146 0.035235066
000060 86 fc e1 3b b5 fe 97 bc 13 6b 75 bc 45 f8 d1 3c
       0.006896558 -0.018554071 -0.014979142 0.02563108
000070 27 c4 6a bc 35 ac 31 3c d3 c9 37 bc 86 65 ca bc
       -0.014328993 0.01084428 -0.011217552 -0.024706613
000080 dc 39 b2 3c 62 e0 98 bc 55 20 04 bd 02 27 65 3c
       0.021756105 -0.018661682 -0.032257397 0.013986351
000090 d9 c4 dc bc 40 0f 24 b7 83 c1 ef 3a f1 39 9e bb
       -0.026949333 -9.778712e-06 0.0018291924 -0.0048286845
0000a0 58 b4 a0 bc aa 90 c6 bc 3e 7a a1 bc b9 54 61 3c
       -0.019617245 -0.024238903 -0.01971161 0.01375311
0000b0 a5 ef e3 bc f6 db ee bc 64 89 8d bc f4 57 58 3c
       -0.027824232 -0.02915762 -0.017277427 0.013204563
0000c0 16 a2 4e bc 32 ef 51 3c 7e e8 e0 bc 64 93 0d bd
       -0.0126118865 0.012813376 -0.02745461 -0.03456439
0000d0 c6 ef bb 3c 97 5d 75 3c bf fd 5f 3c f6 1c b5 3c
       0.022941481 0.014975927 0.013671338 0.022108536
0000e0 d6 82 0e bc 11 ea 8c 3c ed 5a 0e 3d bc 69 fa ba
       -0.008698186 0.017201455 0.034754682 -0.0019104998
0000f0 95 8f 00 ba 9e 11 23 bc 20 2b ba 3c 52 07 41 3c
       -0.0004904208 -0.009952931 0.022725642 0.01178153
000100 9a ac 71 bc ac 5c f1 bb db c0 b7 bb d7 ee 97 bc
       -0.014750624 -0.0073657837 -0.005607707 -0.018546505
000110 94 0c 58 3c 35 77 17 bb 15 7f bf 3c d0 08 4c 3c
       0.013186593 -0.0023111824 0.023376027 0.012453273
000120 d4 e2 a7 b9 73 8e 23 bd ab 59 e8 3b 22 d6 99 bc
       -0.00032021722 -0.039930772 0.0070907674 -0.018778864
000130 29 05 b4 3b 07 39 e8 3a 16 92 98 3c 9f 51 11 bc
       0.005493779 0.0017717191 0.018624347 -0.008869558
000140 cd e1 ec bc 3a 14 74 3c a7 77 98 3c 95 da 66 bc
       -0.028916264 0.0148974005 0.018611742 -0.0140902
000150 aa 48 1d 3c d7 c9 24 bc e5 08 b4 3c a3 72 c1 bc
       0.009599844 -0.010057888 0.021976897 -0.023614233
000160 f9 d2 92 bc 61 3b a0 bc be b4 42 3c 6e b9 80 3c
       -0.017922865 -0.019559564 0.011883913 0.01571342
000170 69 7d b4 3c 5e c0 a6 3b eb fc 7d 39 27 8c 0d 3d
       0.022032456 0.00508885 0.0002422218 0.034557488
000180 58 ca 18 ba 1a 91 d8 3c b7 72 a3 3c f6 8a c9 bc
       -0.00058284914 0.026436377 0.019952161 -0.024602395
000190 67 05 a7 bc 49 4a 08 bd 4d c6 81 bc 7c 35 b6 3c
       -0.020388318 -0.03327397 -0.015841627 0.0222423
0001a0 26 1f 7e 3c 91 08 bc 3c a1 52 93 bc 8c 5f 53 3c
       0.015510356 0.022953304 -0.017983736 0.012901198
0001b0 9a 60 d2 bc bd 8d 86 bc cb f5 33 3c d9 b1 7b bc
       -0.025680829 -0.016425008 0.010983895 -0.015362226
0001c0 36 32 73 3c 8c 58 70 3c 37 24 b3 3a f1 8c 93 3b
       0.014843514 0.014669549 0.0013667409 0.0045028855
0001d0 86 94 84 bc 5b 41 b9 bc f3 4b 66 3b 77 47 4d ba
       -0.016184103 -0.022614172 0.0035140484 -0.00078307785
0001e0 f5 19 4a bc f7 96 4e bc 5b 77 c9 3c 9d 2b 27 3c
       -0.01233529 -0.012609235 0.024593046 0.010203269
0001f0 87 5f ce bb 8d 41 ac bc 05 9d c3 bb dd 7f ab 3c
       -0.006298009 -0.02102735 -0.005969646 0.020934993
000200 f9 f0 c1 3c 57 d1 ea bc 81 2a 4f 3b f2 6c aa 3c
       0.023674475 -0.028664274 0.0031611028 0.020803902
000210 a5 4c 94 3b 15 02 f1 3b 69 4b 87 bb 2f 53 2c 3c
       0.0045257383 0.0073549845 -0.0041288626 0.010517879
000220 6d 03 06 3c 90 70 6b bc a3 e9 c4 3b c6 94 5d 3c
       0.008179528 -0.014370099 0.006009297 0.01352424
000230 24 f2 bc 3a 8c c4 4d 3c 66 fb e6 bb 87 fe a8 ba
       0.0014415425 0.012559067 -0.007049012 -0.0012893238
000240 5b 56 32 bc de 18 02 3d ac 05 27 3c 1e 41 41 bb
       -0.010884847 0.031761996 0.010194223 -0.0029488276
000250 0b 20 b6 bb e2 d0 d8 ba b8 47 d7 3c 08 f0 a6 3b
       -0.005558019 -0.0016541744 0.026279315 0.005094532
000260 eb 34 01 3d b8 d1 96 bc ca f2 99 bc 96 63 e6 3b
       0.031544607 -0.018410549 -0.018792529 0.0070309145
000270 7c 13 0a bc 71 c6 3c bd 10 a1 71 bd fb 40 b4 bc
       -0.008427497 -0.046087686 -0.05899149 -0.022003641
000280 25 d2 90 3c 35 fa a4 bc f0 8d 0b ba ed e5 c7 3b
       0.01767833 -0.02013884 -0.00053235795 0.0061004073
000290 48 72 9f 3c 0b 14 8b bc 5d 63 01 bd a8 bc c9 3a
       0.019463673 -0.01697733 -0.0315889 0.0015391307
0002a0 55 7e ef 3c 85 e5 13 3c e0 cc be b6 81 c5 b9 3c
       0.029235044 0.00902689 -5.686292e-06 0.022677185
0002b0 aa 57 d1 3c 3e 11 7b 3c 47 3e d3 bb 79 7f d5 3a
       0.025554497 0.015323935 -0.006446633 0.00162886
0002c0 71 7c 52 bc fc 9b 99 39 73 cd 0d 3c b6 f5 0a bd
       -0.012847052 0.00029298651 0.00865494 -0.033925734
0002d0 80 b0 5d bc 14 8e 98 bc 74 0e 9d bb 87 39 60 3c
       -0.01353085 -0.018622436 -0.0047929827 0.013685591
0002e0 33 2b ab 3c da 0e 1c 3c a6 8c be 3c f4 8c e4 3a
       0.020894622 0.009525025 0.023260426 0.0017437027
0002f0 19 05 c2 bc 7f f2 a5 3c 4b 80 2f 3c a3 0a 81 bb
       -0.023684071 0.020257233 0.01071174 -0.0039380356
000300 39 e2 3e 3b 93 b9 3e bd 02 ce fe 3c ee 32 86 3c
       0.0029126538 -0.046563696 0.031104092 0.016381707
000310 87 9d 01 3c 38 46 66 3c c7 74 34 bc 22 86 c2 3b
       0.007911093 0.014054827 -0.01101417 0.0059364
000320 a7 d4 17 3c 05 13 1e bb a0 73 37 3b 59 3c c9 3b
       0.009267009 -0.0024120223 0.0027992502 0.006141227
000330 8e f0 37 bd 4b c3 05 bd bf 66 de 3b c0 a2 aa 3c
       -0.044907145 -0.03265695 0.0067871506 0.020829558
000340 c4 b0 29 bd 48 e1 7e bc 64 fe 47 bc a6 bf 55 3d
       -0.041428342 -0.015556641 -0.012206648 0.052184723
000350 d4 34 0d 3c 43 d3 30 bb 58 3f 98 3c 94 83 f1 3b
       0.008618552 -0.002698139 0.018584892 0.0073704217
000360 17 d0 d5 bc 71 75 9d bc b8 27 4c bc 06 02 ef ba
       -0.026100202 -0.01922104 -0.012460642 -0.0018234856
000370 5b 1c 7e 3b d0 22 85 3c 49 48 5d 3c 9a db 95 bc
       0.0038774225 0.016251951 0.013506004 -0.01829319
000380 d8 b5 96 3c 4a 81 b5 3c a9 91 93 bc 2c 74 ab 3c
       0.018397257 0.022156376 -0.018013792 0.020929419
000390 86 12 25 bc f2 18 ac bc a5 4b b7 ba 56 2f af bc
       -0.010075217 -0.021007989 -0.0013984336 -0.021384876
0003a0 a5 29 31 3c 6d 5d bb b8 b4 03 01 bb ac c0 93 bc
       0.0108131515 -8.934257e-05 -0.0019686045 -0.018036209
0003b0 d5 cc d5 3c 67 31 1f 3c fc 2a a1 bc 47 26 c2 bc
       0.026098648 0.009716368 -0.019673817 -0.023699893
0003c0 71 b8 01 bd 53 1e de bb a1 4d e0 3b 0f 65 58 bc
       -0.031670038 -0.0067785173 0.0068451916 -0.013207688
0003d0 8c 41 67 3c 61 81 ae ba 94 75 5d bc e7 82 4e bc
       0.014114749 -0.0013313704 -0.013516802 -0.012604452
0003e0 94 97 65 3c 9f d3 b7 bb a1 e9 8e bc 73 1b d2 bb
       0.01401319 -0.005609944 -0.017445387 -0.0064119636
0003f0 c4 14 bf 3c ca ee 30 bc 5d b7 df 3b 87 28 3c 3d
       0.023325332 -0.010799119 0.0068272785 0.045937087

action_model._continuous_distribution.mu.bias f4 [2]
000000 8f 99 90 3b 13 3a fe ba
       0.004412837 -0.001939597

action_model._discrete_distribution.branches.0.weight f4 [1, 128]
000000 5c 3c 96 bc 5f 2c d5 bb e5 1a b8 bb 76 ac 0a 3c
       -0.018339328 -0.0065055336 -0.0056184405 0.008463969
000010 ee 21 25 bc 11 c7 05 3c 9b a6 c6 bb 82 eb 4b 3a
       -0.01007889 0.008165137 -0.0060623414 0.0007778929
000020 af 0c 1e 3c 7f db 97 3a 92 1a 97 bc 81 4e 85 bc
       0.009646579 0.0011585801 -0.018445287 -0.016272785
000030 09 8e 40 3c bb 03 28 3c 9b 8b 83 3a 6f e9 23 bc
       0.011752614 0.010254796 0.0010036113 -0.010004385
000040 47 b0 86 39 e1 fc 2b 3b f8 40 1c bc 95 f4 70 bb
       0.00025689809 0.0026243257 -0.009536974 -0.0036766876
000050 5e 60 98 bc 6f 5a 33 bc cf cf 33 3c 49 86 80 bc
       -0.018600639 -0.010946854 0.010974838 -0.015689032
000060 94 f5 94 bb fc 36 bb 3b 1f 0d 83 bc 8c 68 0d bb
       -0.0045458768 0.0057133418 -0.015997468 -0.0021577207
000070 d6 4b 8f 3c a7 85 04 3b f5 a3 bd bc 3f d2 2a bc
       0.017492216 0.0020221265 -0.02314947 -0.010426103
000080 ba 79 48 3b 07 f0 44 3c 19 2f 3c 3a ea f1 4c 3c
       0.0030590133 0.012020118 0.0007178649 0.012508849
000090 f3 2b 94 bb d9 56 0b bc c3 06 0f ba 9e 91 b4 39
       -0.0045218407 -0.008504593 -0.00054560247 0.0003444077
0000a0 9b bc 4c 3c 73 1c a4 ba aa 8e e3 bb 33 94 0f 3c
       0.012496139 -0.0012520686 -0.006944497 0.008763361
0000b0 71 97 bf 3b cb f4 df 3b 25 87 c5 bb 77 bf 47 3b
       0.0058469106 0.0068346015 -0.0060280734 0.0030479112
0000c0 6b 8f 8b 3b a1 49 10 3b ea 1f 67 bb 6a 69 49 bc
       0.00425904 0.0022016542 -0.0035266825 -0.012293199
0000d0 6d ee 0a 3b 1f d3 10 3b ae f5 b6 3b 93 a5 9f 3b
       0.0021199242 0.0022098494 0.0055834865 0.004872033
0000e0 b3 76 88 3b 60 4b 17 3c 30 5e d3 ba 2d d3 59 bc
       0.0041645407 0.009234279 -0.0016126093 -0.013294977
0000f0 2f 48 0a 3c 13 b1 ad 3c fb f9 a8 bb a7 74 0b b8
       0.0084400615 0.0212026 -0.005156753 -3.3248823e-05
000100 a9 c8 1f b8 4b 39 f1 bb 26 c8 bf 3b 56 78 06 ba
       -3.8095433e-05 -0.007361566 0.005852717 -0.0005129626
000110 a2 bf 07 bc 13 c1 f8 bb 1c 88 29 bc 8f da 48 3a
       -0.008285435 -0.0075913756 -0.010347392 0.00076619623
000120 c6 02 b5 ba ef 96 9d 3c 5b 40 60 bc be 4a 8a 39
       -0.0013810031 0.01923701 -0.013687219 0.00026377098
000130 d5 52 e9 3b 17 12 dd 3b 40 5e b6 b9 17 ed 79 3b
       0.00712047 0.0067465412 -0.00034783967 0.0038135701
000140 52 56 58 3c 8f 60 8e 3b 0d 39 be 3b 1f 24 3d bc
       0.013204174 0.004345007 0.005805141 -0.0115442565
000150 ad 2d ec 3a 27 96 dc bb d7 60 cc 3b da f4 d0 ba
       0.0018018984 -0.0067317667 0.00623713 -0.0015942112
000160 08 4b 8a bc 18 67 a1 3c 20 95 7a 3b 5d 9f 40 bb
       -0.01688148 0.01970248 0.0038235858 -0.0029391863
000170 5b 8f 48 3c 0c b4 05 3c ed 08 4e bc ae 69 99 3b
       0.01224121 0.008160602 -0.01257537 0.0046817875
000180 9a 24 63 bb 4f 3d 51 bb 22 b8 a9 bb 98 63 20 3b
       -0.0034659267 -0.0031927412 -0.005179421 0.0024473425
000190 2e 35 95 bb 6d 14 1a 3c 0e b3 00 3c 77 84 8f 3b
       -0.0045534587 0.009404284 0.00785519 0.0043798047
0001a0 85 8e 56 ba ad 75 1c bc 42 8e 9b 3b 92 e8 fc 3b
       -0.0008184689 -0.0095495405 0.004747183 0.007718154
0001b0 33 99 b5 3b 4e c4 89 bc bd 56 0f b9 90 04 5d 3c
       0.0055419444 -0.016817238 -0.00013669855 0.013489857
0001c0 d3 6c 10 3b e3 4d b0 bb 2a 71 20 3c ad 0f f6 bb
       0.002203752 -0.0053803786 0.009792605 -0.007509193
0001d0 07 22 96 bb 91 a8 48 3b 53 28 5f bc d5 60 a9 3c
       -0.004581693 0.0030618052 -0.013620454 0.020676056
0001e0 f8 4b ed bb be 1d 16 bc bd f8 d2 bb 88 ca 80 bb
       -0.007241722 -0.0091623645 -0.0064383433 -0.0039303936
0001f0 d1 90 29 3c 09 4b 27 bc 0b e5 67 3b 27 9c eb 3a
       0.010349468 -0.010210761 0.0035384323 0.0017975614
