Project specific/results/ppo/JumperAgent/JumperAgent-9456.pt (torch, 254627 bytes, 13 tensors)

network_body._body_endoder.seq_layers.0.weight f4 [128, 108]
00000000: 9d58 93bd 9c90 883d 71be 68bd 3285 a03d
00000010: d2ec 473d 3348 373e f37b 223e f352 9fbd
00000020: 20e1 26be 168e 9ebc cfbe a7bd c250 38bb
00000030: f97d 9b3d 6a6a f33d 0be8 c23d a6b0 583d
00000040: 4df9 9dbd bda0 fa3d df44 053e 1e78 5d3d
00000050: 90a8 06bd a798 cfbd 82e1 573d 547d d0bd
00000060: f286 f23c 93c8 083e a518 833d 05be 72bd
00000070: 8415 063e 7423 313d 78a6 fc3c 612d 223c
00000080: 2edd e4bd 212d d93c 18e9 b6bc b755 773b
00000090: e288 4abd 2255 9ebd 82c5 02bd 3143 313e
000000a0: dfb3 dcbd e809 cc3d fb5e 15be 1074 6cbd
000000b0: b77e 6fbd d989 93bd a60a 9d38 1e28 8d3d
000000c0: 04e0 91bd 22cb a8bc 9f6e 06be a552 01be
000000d0: b2b1 5ebe 752b 0fbe 7d9e 113e ee32 e4bc
000000e0: 4a9a 09bd 8972 b7bc 934a bebc 5686 463e
000000f0: 2f01 2f3d eb66 e0bd ca5f 843b 8a2f 89bd
00000100: 1dd1 703b ca5f 2bbd bd72 9fbd bf87 7d3c
00000110: c091 bdbd bd2f 383c 5c3c f43c fe3b bd3d
00000120: b4ae eabd 9aea 303d 2709 d23d 26b6 8c3d
00000130: 38e8 993c c9a4 b9bd 4c4b a83d aa55 19be
00000140: 3760 4bbd cc81 c33d 14d5 493e 7f0b 90bc
00000150: 3fb7 f7bd b892 be3d f061 833d 8a8b 07bc
00000160: 1e9f 5f3e d3d7 af3d 86e1 cb3b 6dc8 a73d
00000170: 89a5 2fbc 2b9b b9bd 0da8 d7bd ea6b e7bd
00000180: ab8a cd3d 8957 cb3d 2743 77bb 3206 013e
00000190: b8b1 0dbe 6912 a33e 08b2 32bc 4586 88bd
000001a0: 9fb6 d8bc 5558 91bd 0ea8 0d3e d224 94bc
000001b0: bdb1 433c 4165 82bc 28b5 e1bd eba8 f53d
000001c0: b0b4 1dbe 5440 12bd ed5e 13be 7e96 ed3d
000001d0: 56e4 6b3d 5795 97bd 5641 123d e27b 193e
000001e0: d82e 80be 7d35 4abd 47b9 d5bc 4464 993d
000001f0: bbea 26bd d3eb cbbd 0191 94be 2636 853d
00000200: ae76 4ebc b601 163e 3bd1 a9bd 786b a6bc
00000210: 97c9 9fbc 04f5 b13d 13f6 24be 61c4 893d
00000220: de69 77be 0d69 b4bd 058b 58bc 7462 2d3c
00000230: dad7 82bd 2514 c6bd 2ffb 843c 9649 6f3d
00000240: 23b1 0fbd 5aab 043d ad53 9b3d cc41 2bbb
00000250: 16ba 3c3d 2f77 b3bd d236 883d 6da8 6abc
00000260: b2c7 51bc 1449 80be a20c e6bd b2fb 8e3b
00000270: 6ae1 3b3c 4080 f9bc 9d9b 6b3d 67fe 083e
00000280: e6f0 f2bd 65a2 b93b 8723 09be 8ac3 443c
00000290: ee5a 17ba 87a5 6b3d e745 753c bbc3 31bd
000002a0: d81b 11bd 5339 60bb 2163 66bb d28a 763c
000002b0: 7ed0 bfbd 565d c3bd df37 bf3c 8ef2 363d
000002c0: c1c7 433e c775 25be aca7 ac3d 3787 353c
000002d0: 8830 1d3d 8b88 adbd 7dba 1e3e b4e6 90ba
000002e0: 57ff 503d f7a0 133e e1d7 babc c4c1 1f3b
000002f0: 1543 0a3e f19d dfbc 02cf c5bd 72ae 4b3c
00000300: 93ff c3bc 16e6 043e 29a4 8f3d 0bc2 ebbd
00000310: 4c86 c6bd 910a a7bd f1a9 c5bc 536f a23d
00000320: 847a 363e 2cab 78bc 86b4 08be 83f2 08be
00000330: ab8d 18bc 2617 893c 297d 1bbe f578 4abd
00000340: 47ac e7bc e118 4dbd f3d0 b0bd 6984 2f3e
00000350: 11a2 1cbe 2bb2 04be 9459 b8ba f86d 0fbe
00000360: 76a3 f13d f34d 04be 09f0 073e e7c6 bd3d
00000370: df04 623d deec c1bc 5de4 f83d fe5c f0bd
00000380: a249 a2bc 649a 1abe 0c38 7dbd dc47 0a3d
00000390: 0e64 833d 1669 283d 44d9 9f3c faee 4aba
000003a0: 7e87 123d 1be2 223c c15b 083d 6914 c23d
000003b0: f122 46bc b6e9 31bd 0a36 543e 903a 3b3e
000003c0: ecd2 1c3d c4c8 7a3c 99ca 36be eee7 d43d
000003d0: 1bad 6c3d b5b9 4f3d 4173 b6bd 3610 4fbb
000003e0: fdcf 703e b3e1 363e 5d7b 03bc 78ba 203d
000003f0: a00f a63d bff0 753e 63ee 17bd a128 e53c
-0.07194636 0.06668207 -0.056822244 0.07837905 0.048809834 0.17898636 0.15867595 -0.07779493
-0.16296816 -0.019354861 -0.08190691 -0.0028124307 0.07592387 0.11885531 0.09516915 0.05290284
-0.07713566 0.1223769 0.13014553 0.05406963 -0.032875597 -0.10136538 0.052705295 -0.101801544
0.029605363 0.13357763 0.06401185 -0.059263248 0.13094145 0.0432467 0.030841097 0.0098985145
-0.11174999 0.026510777 -0.022327945 0.00377403 -0.049446948 -0.077310815 -0.03192664 0.17310788
-0.10776495 0.09962827 -0.14587013 -0.057727873 -0.058470454 -0.07204027 7.488327e-05 0.06892417
-0.07122806 -0.020604674 -0.13128136 -0.12629183 -0.21747473 -0.13981421 0.14220615 -0.027856316
-0.033594407 -0.022393482 -0.02322892 0.19387183 0.04272574 -0.1095713 0.0040397393 -0.066985205
0.0036745735 -0.0418394 -0.077855565 0.015474259 -0.09256315 0.01124185 0.029813938 0.09239958
-0.11459103 0.043192483 0.10255652 0.068706796 0.018787488 -0.090646334 0.08217487 -0.14974084
-0.049652305 0.09546241 0.19710189 -0.017583607 -0.12095498 0.09305328 0.064151645 -0.008273015
0.21838042 0.08586087 0.006221953 0.08192525 -0.010720619 -0.09062799 -0.105301 -0.1129988
0.100362144 0.099288054 -0.0037729235 0.1260002 -0.13837326 0.31849983 -0.010906704 -0.06666235
-0.026454268 -0.07096926 0.13833639 -0.018083964 0.011944232 -0.015917422 -0.11020881 0.11995109
-0.15400958 -0.03570588 -0.1439168 0.1160097 0.057590805 -0.07401531 0.03570684 0.14988664
-0.2503574 -0.049367417 -0.026089324 0.07489827 -0.0407512 -0.09957089 -0.2901688 0.065044686
-0.012601538 0.1464909 -0.08291861 -0.020314917 -0.019505305 0.08689311 -0.16109495 0.067269094
-0.24161479 -0.08809099 -0.013216739 0.010582555 -0.06388827 -0.09671811 0.016233055 0.058419786
-0.03508104 0.032389976 0.07584319 -0.0026131747 0.046075903 -0.08762967 0.06651081 -0.014322382
-0.012803959 -0.25055754 -0.11232878 0.0043635005 0.011467317 -0.030456662 0.05752145 0.13378297
-0.11862354 0.005665111 -0.13392459 0.012009511 -0.00057737425 0.057530906 0.014970279 -0.043399554
-0.035426944 -0.0034213855 -0.00351543 0.015047746 -0.093659386 -0.09539287 0.023342071 0.044664912
0.19119169 -0.1615821 0.08430418 0.011079601 0.03837636 -0.08473309 0.15500827 -0.0011055083
0.05102476 0.14416872 -0.022808017 0.0024376968 0.13502152 -0.027296992 -0.09658624 0.012431728
-0.023925578 0.12978396 0.07013733 -0.1151162 -0.09693584 -0.08156312 -0.024128886 0.0793139
0.17820174 -0.015177529 -0.13350114 -0.13373761 -0.00931112 0.01673467 -0.15184464 -0.04943176
-0.02828039 -0.050072554 -0.08633604 0.17140354 -0.15296198 -0.1295859 -0.0014064782 -0.14006793
0.11798756 -0.1292036 0.1327516 0.09266453 0.055180427 -0.023672517 0.12152932 -0.11736487
-0.019810501 -0.15097958 -0.06182103 0.033759937 0.06415568 0.041115843 0.01951278 -0.0007741299
0.035773747 0.009941603 0.03329063 0.09476549 -0.012093292 -0.043435775 0.2072374 0.18284059
0.03828709 0.015306655 -0.17850722 0.103957996 0.057782274 0.050714213 -0.08908702 -0.0031595356
0.23516841 0.17859535 -0.008025018 0.03924033 0.08108449 0.24017619 -0.037092578 0.027973475

network_body._body_endoder.seq_layers.0.bias f4 [128]
00000000: 0000 0000 0000 0000 0000 0000 0000 0000
00000010: 0000 0000 0000 0000 0000 0000 0000 0000
00000020: 0000 0000 0000 0000 0000 0000 0000 0000
00000030: 0000 0000 0000 0000 0000 0000 0000 0000
00000040: 0000 0000 0000 0000 0000 0000 0000 0000
00000050: 0000 0000 0000 0000 0000 0000 0000 0000
00000060: 0000 0000 0000 0000 0000 0000 0000 0000
00000070: 0000 0000 0000 0000 0000 0000 0000 0000
00000080: 0000 0000 0000 0000 0000 0000 0000 0000
00000090: 0000 0000 0000 0000 0000 0000 0000 0000
000000a0: 0000 0000 0000 0000 0000 0000 0000 0000
000000b0: 0000 0000 0000 0000 0000 0000 0000 0000
000000c0: 0000 0000 0000 0000 0000 0000 0000 0000
000000d0: 0000 0000 0000 0000 0000 0000 0000 0000
000000e0: 0000 0000 0000 0000 0000 0000 0000 0000
000000f0: 0000 0000 0000 0000 0000 0000 0000 0000
00000100: 0000 0000 0000 0000 0000 0000 0000 0000
00000110: 0000 0000 0000 0000 0000 0000 0000 0000
00000120: 0000 0000 0000 0000 0000 0000 0000 0000
00000130: 0000 0000 0000 0000 0000 0000 0000 0000
00000140: 0000 0000 0000 0000 0000 0000 0000 0000
00000150: 0000 0000 0000 0000 0000 0000 0000 0000
00000160: 0000 0000 0000 0000 0000 0000 0000 0000
00000170: 0000 0000 0000 0000 0000 0000 0000 0000
00000180: 0000 0000 0000 0000 0000 0000 0000 0000
00000190: 0000 0000 0000 0000 0000 0000 0000 0000
000001a0: 0000 0000 0000 0000 0000 0000 0000 0000
000001b0: 0000 0000 0000 0000 0000 0000 0000 0000
000001c0: 0000 0000 0000 0000 0000 0000 0000 0000
000001d0: 0000 0000 0000 0000 0000 0000 0000 0000
000001e0: 0000 0000 0000 0000 0000 0000 0000 0000
000001f0: 0000 0000 0000 0000 0000 0000 0000 0000
0.0 0.0 0.0 0.0 0.0 0.0 0.0 0.0
0.0 0.0 0.0 0.0 0.0 0.0 0.0 0.0
0.0 0.0 0.0 0.0 0.0 0.0 0.0 0.0
0.0 0.0 0.0 0.0 0.0 0.0 0.0 0.0
0.0 0.0 0.0 0.0 0.0 0.0 0.0 0.0
0.0 0.0 0.0 0.0 0.0 0.0 0.0 0.0
0.0 0.0 0.0 0.0 0.0 0.0 0.0 0.0
0.0 0.0 0.0 0.0 0.0 0.0 0.0 0.0
0.0 0.0 0.0 0.0 0.0 0.0 0.0 0.0
0.0 0.0 0.0 0.0 0.0 0.0 0.0 0.0
0.0 0.0 0.0 0.0 0.0 0.0 0.0 0.0
0.0 0.0 0.0 0.0 0.0 0.0 0.0 0.0
0.0 0.0 0.0 0.0 0.0 0.0 0.0 0.0
0.0 0.0 0.0 0.0 0.0 0.0 0.0 0.0
0.0 0.0 0.0 0.0 0.0 0.0 0.0 0.0
0.0 0.0 0.0 0.0 0.0 0.0 0.0 0.0

network_body._body_endoder.seq_layers.2.weight f4 [128, 128]
00000000: 3ff0 1ebd b3b8 f93d 9943 c0bd 0691 0f3e
00000010: 9e4c cebd 3e80 77bd 36fa 9e3d 3443 513d
00000020: 756d 0cbe 3290 35bd ba7b 083e 0130 d4bd
00000030: 791c debd 4e32 703d 0621 883d 3ff6 54bc
00000040: ba58 15be f5b7 10b7 f136 2a3e 8fd5 3fbe
00000050: ddba a4bc 65bd b3bd a720 df3c 98fe 3f3c
00000060: 5bc9 b23d 6fc8 18bd 336e 603d 2839 f93d
00000070: e864 b73d 286d 203e 7f94 02bd 8ebc f8bd
00000080: f73f bbbb f7dc 2dbd 43c9 55bd 07bb abbd
00000090: f5be 9abd a41b 833d 2592 b93d e73e 253e
000000a0: e358 353d 8d4f 8f3d 5d7b 843d 1e8f 45be
000000b0: 188a eb3c 34b9 bd3d 8e5e 503d fd59 efbd
000000c0: 2df4 21bd 64f5 393d b3c5 a5bd 2547 673d
000000d0: 0a9b 2e3d 7e64 133e f274 9b3d 0287 6f3d
000000e0: d712 863d 00f2 c23d e50c 843d 3849 2abd
000000f0: 5dd1 18bd 8d28 0cbd 5555 04be e94d 153e
00000100: ef43 acbd 3063 22bd d81d 24bc 2623 c9bd
00000110: 23c2 903d 15b8 bb3d e0a7 c6bc 9e4a f43b
00000120: 0cb9 a33c 8fab ab3d f8d1 903d f7a5 a03d
00000130: c4f9 81bb d2db ef3c e94b 803d 0711 d03d
00000140: cf8c aabc 9399 8f3c 801a 3b3e 32e6 07be
00000150: 0c9d 07bd 3968 0e3e 1de8 19bd 2b3b a53c
00000160: 350f 913d 7aa4 ecbd b451 1f3c 352a 293d
00000170: 8a0f 31bd 9005 a73d 5eaf 243d 9dc1 adbd
00000180: 8d98 693c a8f8 2bbd eed2 9c3d 00f8 b6bd
00000190: f890 7d3d 3273 96bd 33cd d3bd dee4 0c3e
000001a0: 81fc 1e3d 0ba4 f03c ccfd 9d3e 4909 c83c
000001b0: 4122 0a3e a499 13bd fc8e 503a 97dc b4bb
000001c0: 2ff3 b63d 0de1 a3bd bb22 11bc f88a a0bc
000001d0: a75e f0bd 4929 fd3d cdf5 b23d 4b3d 4bbd
000001e0: 90ae 01be 7909 f3bd b94f 57bd bc25 c1bd
000001f0: 8d70 e3bd 0db8 c3bd fb64 823c fca3 04bd
00000200: 3cbf 8dbd 43f1 083e 6de8 7a3d b1a6 08bd
00000210: 42c3 76bb 52fb f03b 4a22 bcbd 200f c4bd
00000220: aafa 273d c493 84bd 7ac2 a7bd 9710 6f3c
00000230: db77 213d 0a9f 863d 690d 3dbd 0484 bbbd
00000240: 088a 3dbd 3e9a 913d 19bd 7abd 71c6 853d
00000250: 1b74 113c 15cc 05be 1187 d3bc da0d 9dbc
00000260: 1172 1abc dea4 d1bd f0a8 27bc dcfb 6cbc
00000270: 30fb aebc b731 17be e190 80bd c469 e6bd
00000280: a4aa 613d 39cd 65bd 0de8 1b3e bca9 e7bc
00000290: e461 75bc cd13 533d 0122 2ebb 9490 07bd
000002a0: 4116 d4ba 0ca7 99bd a30e c1bd f169 af3c
000002b0: f11c 28bd 2a1b a1bd fb37 7b3d 9e80 d2bd
000002c0: a9e3 ca3d 490e 04be d09c 543d 6f68 d0bd
000002d0: e41d 9a3d 7efc f4bd 25c3 babd 0a9e b73d
000002e0: 486c 483d c1b8 883d 7bd6 e83d ffe2 f43d
000002f0: 75c3 c4bd 2243 803d c2d7 e23d 86fe 81bd
00000300: 6b81 533e d3b6 90bd 54c2 95bd d56b 2b3e
00000310: 1920 d63a 73f6 52be 219d e03d c9a2 513d
00000320: 45a7 01bd 3cb3 2fbe a1e3 94bd b143 933d
00000330: 603b 8ebd d9cc 2c3c 141f 74bd 4e12 003e
00000340: 1160 7fbc 92bf 21be 7e5f 2fbe ca9f debd
00000350: 42a4 0a3e 9612 c53c fe93 81bd 798c fe3d
00000360: 0778 203e 6a4f 11bd 9541 6b3c b4b2 35bd
00000370: f95e 4dbe 450a 36bc a952 4abe 3af9 0bbe
00000380: ccb1 033d 80ec 96bd 7564 493c 7e7b 26bd
00000390: c88c 3fbd 9fa5 0abe 8c68 60bc 8152 ea3d
000003a0: 3415 d4bc 7218 09be 3e65 59be 3eb7 43bd
000003b0: c875 413c 736a 9b3b 0191 e5bc 17fe 4b3e
000003c0: 093f 323e c3a5 0abe 3325 443d 732f ae3d
000003d0: f193 8d3d 1b13 993d 922f 0cbd 0bc9 2a3e
000003e0: a605 5abc 3ece 813d 9374 5d3d baca 4ebd
000003f0: 7559 14bd e79f e6bd 3b4f b73d 1656 03bd
-0.038803335 0.12193432 -0.09387893 0.14020166 -0.10073207 -0.060425036 0.07762568 0.05108948
-0.1371363 -0.04432697 0.13328448 -0.103607185 -0.108452745 0.058641724 0.06646924 -0.012998163
-0.14584628 -8.6259e-06 0.16622521 -0.1873381 -0.020108635 -0.087763585 0.02723725 0.011718415
0.08729812 -0.037300523 0.054792594 0.12169105 0.08954793 0.1566664 -0.0318799 -0.12145339
-0.0057144123 -0.042447057 -0.05219389 -0.08385282 -0.075559534 0.064017564 0.09061078 0.16137277
0.044274222 0.06997595 0.06468842 -0.19292876 0.028752372 0.0926384 0.050871424 -0.11687086
-0.039539505 0.04540004 -0.08094349 0.056464333 0.042628326 0.14393803 0.07590665 0.058478363
0.06546562 0.09518814 0.06447772 -0.041573733 -0.03730904 -0.03421836 -0.12923177 0.14580502
-0.08411395 -0.039645374 -0.010016881 -0.09821157 0.07068279 0.0916597 -0.02424997 0.007455184
0.019985698 0.083823316 0.07071298 0.07844155 -0.003966542 0.029279623 0.06264479 0.10159498
-0.020819096 0.017529285 0.18271828 -0.13271406 -0.033108756 0.13906945 -0.037574876 0.020169815
0.07082979 -0.11554809 0.009724069 0.041300017 -0.04322771 0.08155358 0.040206306 -0.084841944
0.014257562 -0.041985184 0.07657419 -0.08934021 0.06190583 -0.073461905 -0.10341873 0.13759181
0.038815025 0.029375097 0.30857694 0.02441849 0.1348963 -0.036035195 0.00079558766 -0.0055194604
0.08933102 -0.080019094 -0.008858378 -0.019597515 -0.117368035 0.1236139 0.08738289 -0.049619
-0.12664247 -0.11867041 -0.052566264 -0.094310254 -0.11105452 -0.09556589 0.015917292 -0.03238295
-0.06921241 0.13373284 0.061256815 -0.033362094 -0.0037653004 0.0073541785 -0.091862276 -0.09573197
0.041010536 -0.064734966 -0.0819139 0.014591358 0.039420944 0.06573303 -0.046155367 -0.09156039
-0.046274215 0.071094975 -0.061215494 0.0653199 0.008877779 -0.13066132 -0.02582124 -0.019171644
-0.00942661 -0.10236524 -0.010233149 -0.014464345 -0.02136001 -0.14765058 -0.062776335 -0.11250642
0.055094376 -0.05610392 0.15225239 -0.028279178 -0.014976952 0.051532555 -0.002657056 -0.033096865
-0.0016180949 -0.07502565 -0.0942662 0.021412821 -0.041043226 -0.07866509 0.061332684 -0.10278438
0.09906704 -0.12896074 0.05190736 -0.10176169 0.075252324 -0.119622216 -0.09119252 0.089656904
0.04893139 0.06675864 0.11369034 0.119573586 -0.09607593 0.062628046 0.11076309 -0.063473746
0.20654838 -0.07066121 -0.07312456 0.16740353 0.001633647 -0.20601825 0.1096747 0.051180635
-0.03165366 -0.17158216 -0.07269979 0.071906455 -0.06944919 0.010546886 -0.05959995 0.12506983
-0.015586869 -0.15795735 -0.17126271 -0.10870321 0.13539222 0.024056714 -0.063270554 0.12429137
0.15670787 -0.035476126 0.014358898 -0.044359878 -0.2005576 -0.011110847 -0.19758095 -0.13669291
0.032151982 -0.073693275 0.012292017 -0.040645115 -0.04676512 -0.13539742 -0.013696801 0.114415176
-0.025889017 -0.13388231 -0.21230027 -0.047782175 0.011807866 0.0047429143 -0.028023245 0.19921146
0.17406859 -0.13539796 0.04788704 0.08505144 0.06912983 0.07474347 -0.034225054 0.16678254
-0.013307011 0.06338166 0.054066252 -0.050486304 -0.036218125 -0.11260968 0.08950659 -0.03206452

network_body._body_endoder.seq_layers.2.bias f4 [128]
00000000: 0000 0000 0000 0000 0000 0000 0000 0000
00000010: 0000 0000 0000 0000 0000 0000 0000 0000
00000020: 0000 0000 0000 0000 0000 0000 0000 0000
00000030: 0000 0000 0000 0000 0000 0000 0000 0000
00000040: 0000 0000 0000 0000 0000 0000 0000 0000
00000050: 0000 0000 0000 0000 0000 0000 0000 0000
00000060: 0000 0000 0000 0000 0000 0000 0000 0000
00000070: 0000 0000 0000 0000 0000 0000 0000 0000
00000080: 0000 0000 0000 0000 0000 0000 0000 0000
00000090: 0000 0000 0000 0000 0000 0000 0000 0000
000000a0: 0000 0000 0000 0000 0000 0000 0000 0000
000000b0: 0000 0000 0000 0000 0000 0000 0000 0000
000000c0: 0000 0000 0000 0000 0000 0000 0000 0000
000000d0: 0000 0000 0000 0000 0000 0000 0000 0000
000000e0: 0000 0000 0000 0000 0000 0000 0000 0000
000000f0: 0000 0000 0000 0000 0000 0000 0000 0000
00000100: 0000 0000 0000 0000 0000 0000 0000 0000
00000110: 0000 0000 0000 0000 0000 0000 0000 0000
00000120: 0000 0000 0000 0000 0000 0000 0000 0000
00000130: 0000 0000 0000 0000 0000 0000 0000 0000
00000140: 0000 0000 0000 0000 0000 0000 0000 0000
00000150: 0000 0000 0000 0000 0000 0000 0000 0000
00000160: 0000 0000 0000 0000 0000 0000 0000 0000
00000170: 0000 0000 0000 0000 0000 0000 0000 0000
00000180: 0000 0000 0000 0000 0000 0000 0000 0000
00000190: 0000 0000 0000 0000 0000 0000 0000 0000
000001a0: 0000 0000 0000 0000 0000 0000 0000 0000
000001b0: 0000 0000 0000 0000 0000 0000 0000 0000
000001c0: 0000 0000 0000 0000 0000 0000 0000 0000
000001d0: 0000 0000 0000 0000 0000 0000 0000 0000
000001e0: 0000 0000 0000 0000 0000 0000 0000 0000
000001f0: 0000 0000 0000 0000 0000 0000 0000 0000
0.0 0.0 0.0 0.0 0.0 0.0 0.0 0.0
0.0 0.0 0.0 0.0 0.0 0.0 0.0 0.0
0.0 0.0 0.0 0.0 0.0 0.0 0.0 0.0
0.0 0.0 0.0 0.0 0.0 0.0 0.0 0.0
0.0 0.0 0.0 0.0 0.0 0.0 0.0 0.0
0.0 0.0 0.0 0.0 0.0 0.0 0.0 0.0
0.0 0.0 0.0 0.0 0.0 0.0 0.0 0.0
0.0 0.0 0.0 0.0 0.0 0.0 0.0 0.0
0.0 0.0 0.0 0.0 0.0 0.0 0.0 0.0
0.0 0.0 0.0 0.0 0.0 0.0 0.0 0.0
0.0 0.0 0.0 0.0 0.0 0.0 0.0 0.0
0.0 0.0 0.0 0.0 0.0 0.0 0.0 0.0
0.0 0.0 0.0 0.0 0.0 0.0 0.0 0.0
0.0 0.0 0.0 0.0 0.0 0.0 0.0 0.0
0.0 0.0 0.0 0.0 0.0 0.0 0.0 0.0
0.0 0.0 0.0 0.0 0.0 0.0 0.0 0.0

action_model._continuous_distribution.log_sigma f4 [1, 2]
00000000: 0000 0000 0000 0000
0.0 0.0

action_model._continuous_distribution.mu.weight f4 [2, 128]
00000000: 0a5b d3bb 13ad eebb ce5b 9a3c 1366 d83c
00000010: 0fe5 ac3b 5039 1dbd 93cd 1cbc 56fb 223a
00000020: 0419 19bc 48da 3d3c 6c36 473b fdd6 053a
00000030: 15ed 8f39 1f7b 423c d610 3dbd 3fcc e23c
00000040: e060 e03b a3c8 39bc 18b1 cd3c 612d c1bb
00000050: aac0 f3bc 5f88 083c 4962 2dbc df22 88bb
00000060: fa98 613c fc28 90bc c156 bfbb cf13 643c
00000070: 4316 94bb 7492 0d3b 3d26 343c 0625 a03c
00000080: f311 113b c26c bcba 9f05 09bc e024 fc3c
00000090: bd96 6b3c e7c3 b4bb 4ae3 523b bdbb 9d3c
000000a0: e74d 913b 3a08 c83a 71ba a23c c3dc 913c
000000b0: 7e70 4abc af13 333b a394 8e3b bf75 be3b
000000c0: ce75 c93a 6760 763b d73e cab8 19cb a1bc
000000d0: b282 fc3a e80e 033b 0001 54bc 2723 a2bc
000000e0: dd6a f23b 85d4 07bc 607f bfba af34 51bb
000000f0: 1d9e 9cbc 7281 95bc 1fae c7ba 0806 34bc
00000100: 5b7f 30bc db39 973c 7471 8abc 0fdd 503a
00000110: 1f05 0e3d fdad 0b3d 1899 f8bc ba74 783c
00000120: da27 14bc ef26 193c ccea 40bc 5322 40bc
00000130: 623b 54bc 9553 0bbb 082b e73b 78b0 b13c
00000140: c482 b43b bccd 91bb 51d2 82bc e71c 253c
00000150: 5737 dab9 2aa2 a73c 72c0 1ebd df36 333c
00000160: 60d7 4ebc c782 293d 77c0 a0bb f276 3abc
00000170: c569 95bc 37d0 053c 14d4 3b3a 5081 ecbc
00000180: 7357 623c 3a02 9b3b 2fc2 92bc 638f 8c3c
00000190: 9966 a93a cf81 a7bc 37b6 0b3d 6033 8abb
000001a0: 6c44 803c fa5f 97bc 6112 0e3c 9748 773b
000001b0: e024 e9bb edfd 7e3c 9fba f73c 3232 573c
000001c0: 7f66 7d3c 4c2c 0fbd 10f2 58bc 661c 97bb
000001d0: 78db 51bc c0b2 c73b e779 15bc 7060 6cbb
000001e0: 15ca 2b3c 9ab1 b33b d7f4 2bbc ebe3 ddbb
000001f0: c060 ed3c 2725 443b 5d76 6fba e5e1 3bbc
00000200: 6092 a6bc bfeb 36bc 8cf7 c1bb e94b a93b
00000210: 770a 243c 4462 15bd c31a d3b9 b0d1 e3bc
00000220: 33a2 323c c52b 973b db82 55bc b20e 7e3c
00000230: 438b a6bb d530 a3bc aeb6 91bc 73a7 19bc
00000240: c96e 933b fb8d 0abc 9862 eb3c c504 3b3c
00000250: 7c09 8b3b e75b 863c 7f93 033c 1b33 dcb9
00000260: 0e68 32bc 13d5 db3c 078a 59bc bfce 713b
00000270: 5b67 4cbc f351 063c eac8 193d 3736 8a3c
00000280: 0b67 8d3c a266 e5bb 6d48 3b3b f53b 4ebc
00000290: 06d5 bc3c 83d9 21bc af26 043c b4d7 a5bb
000002a0: 386f 16bd 9896 eabc 6706 a5bc efc7 0f3c
000002b0: d587 ce3c 4080 873c ab91 403c 25d6 e13c
000002c0: 30cd dfb9 19fb 86bc 0511 9f3c b765 0a3c
000002d0: 60d2 7f3c 2777 7ebb 3834 77ba fe79 3c3c
000002e0: 1ba0 3cbc e745 85bb 845d a0bb d074 c73c
000002f0: f04b 7b3c 2325 c1bc 1855 de3a 5ce6 0f3d
00000300: 9076 e83b 756b 83bc f80d 323d cf09 3c3d
00000310: 495a 3f3b 436e 603c 71b9 8dbc bbb9 ffbb
00000320: 9b37 a23c bb7f 91bc 5b96 2b3c b72b 8b3c
00000330: 3752 5cbc fce7 0fbc 991e c73c d68e b23c
00000340: 6db7 543c f324 a7bc ca9f 2cbc 43e0 f93c
00000350: b337 9c3c 78b8 90bc 1899 58bc 25e2 8c3c
00000360: a794 61ba ff33 ad3b a4f7 b0bc 3e1d 80bc
00000370: 2d74 64bc dfca a63a ad35 be3b c01b 2ebb
00000380: 8450 c73c bdc7 c63c aad6 ab3c 8348 55bc
00000390: 6a99 cebc 1f28 01bd d231 d53c 6e83 01bc
000003a0: ff03 7ebc e231 5cbc 0284 65bc a5c1 6e3b
000003b0: 50df 3bbc b774 4ebd 594d 413d ebb8 ccbc
000003c0: 7bf0 213d a313 02bd 3702 86ba 95a3 e0bc
000003d0: 9577 6ebc bdbf a33b eb7d b23b 6dfa a73c
000003e0: e9f4 47bb b3a2 e53b 32b4 d03b 27eb 9f3c
000003f0: 900e f73c bc47 9c3c 6d43 90bb af25 ec3c
-0.0064500617 -0.0072838156 0.018842604 0.02641586 0.0052763293 -0.038384736 -0.009570497 0.00062172615
-0.009344343 0.011587687 0.0030397428 0.0005105583 0.00027451725 0.011870175 -0.046158634 0.027685283
0.006847486 -0.011339339 0.025108859 -0.005895302 -0.029754955 0.008333295 -0.010582515 -0.0041545476
0.013769383 -0.017597668 -0.0058391993 0.013920738 -0.0045192554 0.0021602185 0.010995445 0.019548904
0.0022135943 -0.0014375674 -0.008363157 0.030779302 0.0143792005 -0.0055165174 0.0032178932 0.01925456
0.0044343355 0.0015261241 0.019864293 0.017805463 -0.012355922 0.0027324965 0.004351215 0.0058123763
0.0015370192 0.0037594081 -9.6438154e-05 -0.019750165 0.0019265024 0.0019997898 -0.012939692 -0.019792153
0.007397993 -0.008290415 -0.0014610104 -0.003192227 -0.019118363 -0.0182502 -0.0015234387 -0.010987766
-0.010772551 0.018460205 -0.016899802 0.00079675106 0.034672853 0.034101475 -0.030346438 0.0151645485
-0.0090427045 0.009347661 -0.01177473 -0.0117269335 -0.012953611 -0.0021259536 0.0070546903 0.021690592
0.0055087525 -0.0044495743 -0.015969427 0.010077692 -0.00041621432 0.020463068 -0.03875775 0.010938375
-0.012624592 0.041384485 -0.004905756 -0.011380898 -0.018238911 0.008167318 0.0007165086 -0.028870255
0.013814795 0.00473049 -0.01791486 0.017158216 0.0012924253 -0.02044764 0.03410932 -0.00421755
0.015657626 -0.018478382 0.008671374 0.0037732476 -0.0071149915 0.01556347 0.030240355 0.013134526
0.0154663315 -0.034954354 -0.013241306 -0.0046115397 -0.012808673 0.0060943067 -0.009123302 -0.0036068223
0.010485192 0.0054838182 -0.010495386 -0.0067715547 0.028976798 0.002992937 -0.0009134764 -0.011467432
-0.020333469 -0.011164605 -0.0059194025 0.00516652 0.010012261 -0.036470667 -0.00040264995 -0.027809948
0.010902929 0.004613372 -0.013031687 0.015506433 -0.0050825193 -0.019920746 -0.017787304 -0.009378302
0.0044992906 -0.008456702 0.028733537 0.011414711 0.004243074 0.016401244 0.008030771 -0.00041999746
-0.010889066 0.026835 -0.013277537 0.0036896912 -0.012475814 0.008198249 0.037545122 0.016871555
0.017261049 -0.00700076 0.0028577105 -0.012587537 0.023050796 -0.009878519 0.0080658635 -0.005061114
-0.03672716 -0.028636262 -0.020144654 0.008775695 0.025211254 0.016540647 0.01175348 0.027567932
-0.0004268675 -0.016477155 0.019417295 0.008447102 0.015614122 -0.0038828345 -0.00094300834 0.011503695
-0.0115127815 -0.004067171 -0.0048939604 0.024347693 0.015337929 -0.023577278 0.0016962616 0.035131797
0.007094212 -0.01604245 0.043470353 0.04590779 0.0029198101 0.013698163 -0.01730034 -0.007804123
0.019801905 -0.017761102 0.010472859 0.016988618 -0.013447336 -0.008783337 0.024306582 0.021796625
0.012983185 -0.020403361 -0.010536144 0.030502444 0.019069528 -0.017666087 -0.013220094 0.017197678
-0.000860522 0.0052857394 -0.02160246 -0.015638944 -0.013943714 0.0012725255 0.0058047385 -0.0026566833
0.024330385 0.024265165 0.020976383 -0.013017776 -0.025219638 -0.031532403 0.026024733 -0.00790487
-0.015503882 -0.013439627 -0.014008524 0.003643134 -0.011466816 -0.050404277 0.047192905 -0.02499052
0.03953598 -0.03175701 -0.0010224049 -0.027421752 -0.014554878 0.004997222 0.0054471395 0.020505155
-0.0030510968 0.0070079206 0.006369137 0.019521309 0.030158311 0.019077174 -0.004402569 0.028826563

action_model._continuous_distribution.mu.bias f4 [2]
00000000: 0000 0000 0000 0000
0.0 0.0

action_model._discrete_distribution.branches.0.weight f4 [1, 128]
00000000: 8a44 133c 2f28 cbbb 00b4 323c 3ab2 45bc
00000010: ed22 b53b 4700 dabb db6c e33b 7e37 18bc
00000020: e98c 1ebb 04e3 4a3c b87d 113c 1493 cbbb
00000030: 1c17 bfbb 253a ac3b d078 68bb b308 a13b
00000040: c5f6 823a 324f 74bb 3c31 98bc 5e44 073a
00000050: 683d 4abc 9e99 2abb 9ad6 6d3c 4e78 223b
00000060: af4f 58bc e8eb efbb 0cfc 8b3a 62d0 7abb
00000070: 1057 093c 7d1e 053c 8305 f13b be6d 37bc
00000080: 83e9 babb a8f6 013c 54e8 2ebc 6aa3 a339
00000090: 9f7f 5e3c a7b4 9d3c 586d bcba e87d 8ebb
000000a0: f83f d4ba f542 7bbc cb87 6dbc 2727 833c
000000b0: 0d84 91bc 170c b83b 5395 8c3a 52bb 56bb
000000c0: 2d06 a73b 8f6a 0d3c 91bd 9a3b 6e4c 903a
000000d0: 5b97 c1bb 000e 03bc 5f79 133c f334 33bc
000000e0: ead1 84b9 df07 2b3c 2be9 4bbc 1ac1 d8bb
000000f0: 32da c6bb c2fa 3dbc 5517 5f3b e5de 2d3c
00000100: f5d2 3f3c fa26 ddbb d686 1d3c 63af 33bb
00000110: 7d68 cd3b 57e5 043c f700 58b9 3548 a8bb
00000120: 4f5c c2bb 026d 69bc 079a 31bc aa52 d5bb
00000130: 26ee a1bb b05e 323b 3b74 4a3b 13fa 61bb
00000140: 58fe 6d3b 70cc ed3b 4397 c5ba 6cef 0fbc
00000150: f782 073c e1da 123c b2d0 a63b f5e6 5e3c
00000160: d4a8 93bb e0b7 d1bb 71a5 4bbc 5bd4 f83a
00000170: e1bb 9a3b eae7 523b 5706 513c af75 ae3a
00000180: 9234 513a e8ef cebb f797 8e3c d52f e1ba
00000190: 2835 f93b 19f6 1c3b 0997 b5bb 0763 d9bb
000001a0: 0259 0dbc c7cb 953b 8792 6e39 3712 a0bb
000001b0: 37d0 253c 15ff 52bc 3985 3d3c 68a5 1dbb
000001c0: 9462 c73a 7e48 97bb 6fb4 1bbc 070f 0fbc
000001d0: 0f3f 5c3b ce7f c5ba 1adc cd39 7806 d9bb
000001e0: 93b7 7f3c d982 b73b 3883 24bb 3f83 82bb
000001f0: 6272 113c cf08 7a3b 9c12 253c 0455 2aba
0.008988509 -0.0061998586 0.010907173 -0.012066418 0.005527845 -0.006652865 0.006940467 -0.009290574
-0.0024192876 0.012383226 0.008880071 -0.0062126014 -0.0058316123 0.005255955 -0.00354724 0.004914367
0.0009991756 -0.003727865 -0.018578164 0.0005160029 -0.012343742 -0.0026031504 0.014516497 0.0024790945
-0.013202592 -0.0073218234 0.0010679974 -0.0038271178 0.008382574 0.008124945 0.0073553934 -0.011195598
-0.0057041063 0.007932343 -0.0106755085 0.00031211536 0.013580232 0.01925118 -0.0014375849 -0.0043485053
-0.001619338 -0.015335788 -0.014497708 0.01600988 -0.017763162 0.0056166756 0.0010725654 -0.003276546
0.0050971718 0.008631363 0.004722305 0.0011009106 -0.0059079356 -0.007998943 0.009001105 -0.010937917
-0.000253334 0.010438888 -0.012445728 -0.0066148164 -0.0060684914 -0.01159543 0.0034041007 0.010612224
0.011708011 -0.006749031 0.009614667 -0.002741777 0.0062685595 0.0081113195 -0.00020599725 -0.005135561
-0.005931414 -0.014247181 -0.010839946 -0.0065100985 -0.0049417196 0.0027217083 0.0030892033 -0.0034481331
0.003631493 0.007257037 -0.0015074987 -0.00878511 0.008270971 0.008963318 0.0050907964 0.013604869
-0.00450621 -0.0064000934 -0.012429581 0.0018984185 0.004722104 0.0032181689 0.012757859 0.0013310219
0.0007980551 -0.00631522 0.017406447 -0.0017180393 0.0076052137 0.0023950397 -0.0055416864 -0.0066341194
-0.008627178 0.0045714113 0.00022752034 -0.004884984 0.010120443 -0.012878199 0.011567407 -0.0024054889
0.0015211874 -0.004616796 -0.009503468 -0.00873161 0.0033606922 -0.0015067996 0.00039264635 -0.0066230856
0.015607732 0.005600315 -0.0025102627 -0.003982931 0.008877369 0.0038152223 0.010075238 -0.00064976537

network_body._body_endoder.seq_layers.0.weight f4 [128, 108]
00000000: 428c b43d 4215 0a3e d4dd c53d 75c1 70bd
00000010: b2d5 543d f118 523b 1c6b 363c 315c 5c3d
00000020: edbd 8d3d 0654 273e d13f c9bd 41b8 86bd
00000030: 790c cabd 056a aabd c7b6 a6bd a1d0 533e
00000040: a2fc 08be 8c96 35be f059 6e3d 5d95 2f3e
00000050: 37d8 46bd 0c9d 2cbe 69b8 3fbc c168 16bd
00000060: c291 5abd 5e94 f4bd f449 f23d 25ef b63d
00000070: 8352 8b3d 6823 49ba 7657 70bc 55bd 083d
00000080: a756 3bbb ba10 41bd 3450 5abd 37cd a73d
00000090: c87f 7abd 9ee3 d3bd 1a0c 9c3c 7857 623d
000000a0: 0faf 25bd 0ddb 003e a877 a13c 59d8 86bd
000000b0: 1f03 e33c ac9d da3c dee1 82bd 78d8 023b
000000c0: 94dc f13d 74c5 8b3d 3177 c73d 6c5e 1b3d
000000d0: 76ad 173c e310 703d 6620 0fbe f232 b5bd
000000e0: 4c20 d3bc c6ec a23c 87f0 7d3d f551 463d
000000f0: 8cd5 07be 7c08 1c3e 416b 1b3e 2721 ad3d
00000100: 99f4 afbd 8287 9d3c 839f 84bd 4b99 cf3c
00000110: 9ed7 1b3d a488 ae3c 2406 473e a912 063d
00000120: 2793 3f3e a152 6d3e 7868 033e ed23 48bd
00000130: 285f 1b3e 3e7c aa3d 3220 123e 273a 95bc
00000140: 5377 973d f24a 06bd 4fc7 dabd aa46 0fbb
00000150: e7df af3e 47e7 d83d 7404 30be f0f0 2fbd
00000160: 0a3e 77bd fb3e a1bc c8f3 20be 0937 58bd
00000170: c714 e13c 3088 8abc 2715 8f3d 8eaf b13b
00000180: 6277 5f3e 5ae5 41bc 3c17 11be c6f9 85bc
00000190: b98a fcbc 8200 f7bc d37f ca3d d622 463b
000001a0: d5b4 353e 3f6d c7bc 4524 79bd e0f7 183e
000001b0: 21f3 b33d 06fd 723d e61d 873d 996a af3b
000001c0: 84b3 35be 1e3c 493e d044 0b3c ea96 1c3d
000001d0: 0f88 dabb 1e2e 92bd 480e 083e 8170 063d
000001e0: c9d6 513d c554 ff3c 86fc a2bd 8ec6 173d
000001f0: 7a06 233e f316 a6bc 6557 843b 79cf 4e3d
00000200: 9477 963d 5730 233d 2f6b fe3a 3442 163c
00000210: 2d06 a3bd c4ee c43d 66d4 8b3d 15f3 e1bd
00000220: dd72 b33d f07e 243e f096 d23d 7742 8d3d
00000230: bcbe 8e3d 681d 04bd eef7 d13d 202b 54bb
00000240: 434a 943d ecf3 41bd 0e8a 7eb9 2b38 a3bc
00000250: a839 e7bd 8ee2 28be 257c 36be 69e9 f93c
00000260: 0d35 9fbd c886 ec3c 5288 12bd 78d7 353e
00000270: 8e73 8c3d 107b 3cbd d365 003e 07f6 d83d
00000280: 1fef a63d 2249 a83b 4836 5e3d a5d1 fa3c
00000290: ac87 1bbe ae01 f3bd 29e0 c6bc ec98 ddbd
000002a0: 4aa8 26bd cea7 393d 34a9 79bd 94f9 993d
000002b0: 8d4b 34be 704a 89bd 65f1 e63d 2303 15bd
000002c0: 3c35 97bd 1d63 8a3e 4797 3f3a b9f3 463d
000002d0: b31d 8cbd ef35 073e 05f5 f2bd d690 fabc
000002e0: f67f b6bc 34bc f93d 2cc7 4c3d 66f1 c83d
000002f0: c7fe 7e3c 0798 ddbd 9aff a63d 2e3d 48be
00000300: 0183 41bd 2c02 a9bd 6c56 053e 3ef9 aa3d
00000310: 66b5 e4bd 65cc f3bc 9f26 f93b 5906 6e3c
00000320: 060d a63c ceb0 79bd da52 a13d 2a32 b8bd
00000330: 2fdf 0abc 47bb 12bd 4630 1ebc e415 94bd
00000340: b571 123e f172 63bd f204 3a3e 5410 83bd
00000350: 9592 dabd 31e8 0c3d 3ce0 26bd d2d4 ea3d
00000360: ff3e f23d 96f1 d8bd 944c 6cbd 71e5 0e3e
00000370: 06a8 ef3d 53c1 1d3e b41f 29bd 6edd 71bb
00000380: c813 b6bd 94ee f53b 37d8 ef3d 8763 a4bd
00000390: 23c5 903b 4528 9bbd 5721 0d3d 2457 ba3c
000003a0: d8ee 8ebc b2d1 cebb 1342 bfbd 353c bb3c
000003b0: dd6b 633c 1677 163d fd6e a6bd 2cd8 983d
000003c0: 860f 5bbd 9e60 b33c 3a47 27be 5a1b 8cbe
000003d0: 7a04 3fbd e9d6 253e 6b42 e8bc 496b e93d
000003e0: 0c77 b23c fa50 ee3d cc6b bbbd 72e5 d3bd
000003f0: 038b 82bd 603b 81bc 7ee0 0f3d 4c9e bc3d
0.088158146 0.13484672 0.09661451 -0.058778245 0.05196161 0.0032058323 0.011133935 0.053798858
0.06920991 0.16340646 -0.09826625 -0.065781124 -0.0986566 -0.08321003 -0.08140331 0.20685054
-0.13377622 -0.1773321 0.05819124 0.17146821 -0.048546042 -0.16856784 -0.011701682 -0.036720995
-0.05336166 -0.11942361 0.11830512 0.08932332 0.06802847 -0.00076728174 -0.01466929 0.033383686
-0.0028585584 -0.047135092 -0.053299144 0.081934385 -0.061157018 -0.10346149 0.01904874 0.055259198
-0.040450152 0.12583561 0.019710377 -0.06584234 0.02771145 0.026686512 -0.06390737 0.0019965451
0.1180965 0.068247706 0.09739531 0.037931845 0.009257665 0.058609854 -0.13977203 -0.08847608
-0.025772236 0.019888293 0.061996963 0.048418004 -0.13265055 0.15237612 0.15177633 0.08453589
-0.08591575 0.019229654 -0.06475737 0.02534165 0.038047425 0.02130539 0.19435936 0.03273264
0.18708478 0.23176052 0.1283282 -0.048862386 0.15173018 0.083244786 0.14270094 -0.018216206
0.07395806 -0.032786317 -0.10682546 -0.0021862187 0.3435051 0.10590988 -0.17189199 -0.042954385
-0.0603619 -0.019683352 -0.15717995 -0.05278686 0.027475728 -0.016910642 0.06986456 0.005422539
0.21822885 -0.011834467 -0.1416902 -0.016354453 -0.030827867 -0.03015161 0.09887662 0.0030233166
0.17744763 -0.024344085 -0.060825605 0.14938307 0.087866075 0.059323333 0.065974995 0.0053532836
-0.17744261 0.19651839 0.008500293 0.03822986 -0.0066690515 -0.071377024 0.13286698 0.032822136
0.051230226 0.031168351 -0.07958321 0.03705459 0.1592044 -0.020274615 0.0040387386 0.05049083
0.073470265 0.039841022 0.0019410605 0.0091710575 -0.07960162 0.096158534 0.06827621 -0.11032692
0.08762143 0.16064048 0.10282695 0.06897443 0.069699734 -0.032254606 0.10252367 -0.0032374337
0.07240727 -0.047351763 -0.00024274757 -0.019924244 -0.11290294 -0.16492674 -0.17820795 0.030506806
-0.077737905 0.028872862 -0.035774536 0.17757976 0.06857978 -0.0460158 0.12538843 0.10593801
0.081510775 0.0051356712 0.054250985 0.030617544 -0.15188473 -0.11865555 -0.02427681 -0.10820183
-0.040687837 0.045326047 -0.06095238 0.075183064 -0.17606945 -0.06703651 0.11276511 -0.036379945
-0.073832005 0.27028742 0.0007308614 0.048572276 -0.06841602 0.13204168 -0.1186314 -0.030586641
-0.022277813 0.121941 0.049994633 0.09811668 0.015563673 -0.108200125 0.08154221 -0.19554588
-0.047244076 -0.082523674 0.13021249 0.083483204 -0.111674115 -0.029760549 0.007603481 0.014527881
0.020269882 -0.06095963 0.07877131 -0.08993943 -0.008476063 -0.035823133 -0.009655064 -0.07230738
0.14301188 -0.05552954 0.18165949 -0.06399599 -0.106724896 0.034401122 -0.04074119 0.114663735
0.11828422 -0.10592954 -0.057690218 0.13954712 0.1170197 0.15405779 -0.04129 -0.0036905664
-0.08890492 0.0075052474 0.117111616 -0.08026796 0.004418032 -0.0757604 0.034455623 0.02274663
-0.017447874 -0.0063116187 -0.093387745 0.022855857 0.013880697 0.036734663 -0.08126638 0.074631065
-0.0534816 0.021896657 -0.16335765 -0.27364618 -0.04663513 0.16195263 -0.028351983 0.11397416
0.021785282 0.11636539 -0.0915142 -0.103464976 -0.06374171 -0.015775383 0.0351262 0.0920988

network_body._body_endoder.seq_layers.0.bias f4 [128]
00000000: 0000 0000 0000 0000 0000 0000 0000 0000
00000010: 0000 0000 0000 0000 0000 0000 0000 0000
00000020: 0000 0000 0000 0000 0000 0000 0000 0000
00000030: 0000 0000 0000 0000 0000 0000 0000 0000
00000040: 0000 0000 0000 0000 0000 0000 0000 0000
00000050: 0000 0000 0000 0000 0000 0000 0000 0000
00000060: 0000 0000 0000 0000 0000 0000 0000 0000
00000070: 0000 0000 0000 0000 0000 0000 0000 0000
00000080: 0000 0000 0000 0000 0000 0000 0000 0000
00000090: 0000 0000 0000 0000 0000 0000 0000 0000
000000a0: 0000 0000 0000 0000 0000 0000 0000 0000
000000b0: 0000 0000 0000 0000 0000 0000 0000 0000
000000c0: 0000 0000 0000 0000 0000 0000 0000 0000
000000d0: 0000 0000 0000 0000 0000 0000 0000 0000
000000e0: 0000 0000 0000 0000 0000 0000 0000 0000
000000f0: 0000 0000 0000 0000 0000 0000 0000 0000
00000100: 0000 0000 0000 0000 0000 0000 0000 0000
00000110: 0000 0000 0000 0000 0000 0000 0000 0000
00000120: 0000 0000 0000 0000 0000 0000 0000 0000
00000130: 0000 0000 0000 0000 0000 0000 0000 0000
00000140: 0000 0000 0000 0000 0000 0000 0000 0000
00000150: 0000 0000 0000 0000 0000 0000 0000 0000
00000160: 0000 0000 0000 0000 0000 0000 0000 0000
00000170: 0000 0000 0000 0000 0000 0000 0000 0000
00000180: 0000 0000 0000 0000 0000 0000 0000 0000
00000190: 0000 0000 0000 0000 0000 0000 0000 0000
000001a0: 0000 0000 0000 0000 0000 0000 0000 0000
000001b0: 0000 0000 0000 0000 0000 0000 0000 0000
000001c0: 0000 0000 0000 0000 0000 0000 0000 0000
000001d0: 0000 0000 0000 0000 0000 0000 0000 0000
000001e0: 0000 0000 0000 0000 0000 0000 0000 0000
000001f0: 0000 0000 0000 0000 0000 0000 0000 0000
0.0 0.0 0.0 0.0 0.0 0.0 0.0 0.0
0.0 0.0 0.0 0.0 0.0 0.0 0.0 0.0
0.0 0.0 0.0 0.0 0.0 0.0 0.0 0.0
0.0 0.0 0.0 0.0 0.0 0.0 0.0 0.0
0.0 0.0 0.0 0.0 0.0 0.0 0.0 0.0
0.0 0.0 0.0 0.0 0.0 0.0 0.0 0.0
0.0 0.0 0.0 0.0 0.0 0.0 0.0 0.0
0.0 0.0 0.0 0.0 0.0 0.0 0.0 0.0
0.0 0.0 0.0 0.0 0.0 0.0 0.0 0.0
0.0 0.0 0.0 0.0 0.0 0.0 0.0 0.0
0.0 0.0 0.0 0.0 0.0 0.0 0.0 0.0
0.0 0.0 0.0 0.0 0.0 0.0 0.0 0.0
0.0 0.0 0.0 0.0 0.0 0.0 0.0 0.0
0.0 0.0 0.0 0.0 0.0 0.0 0.0 0.0
0.0 0.0 0.0 0.0 0.0 0.0 0.0 0.0
0.0 0.0 0.0 0.0 0.0 0.0 0.0 0.0

network_body._body_endoder.seq_layers.2.weight f4 [128, 128]
00000000: cde8 11bd c18f 8dbd 034b b53d 95ce b8bd
00000010: 177f 60bc 8c67 9abd c07f 54bd 5f63 8c3c
00000020: a479 f83d 4e89 cbbd 4fec abbc 5431 123e
00000030: b564 32bd 8630 a13e 0044 073e 1c8c dabc
00000040: a7cb 263d 7f12 b13d 6637 a3bd feaa 10be
00000050: f6e8 03be a0ef 2dbe e567 ed3c 56d2 c4bd
00000060: c310 4ebe 3a62 5c3d 5a47 9dbd e83a bcbd
00000070: 4dcb 54bc b139 04be c4bc 863c ab36 bcb9
00000080: b2b5 6b3e 11b6 8b3c 5ccf 933d 6356 8aba
00000090: fca9 52be 9403 af3c 6898 923d c640 c33d
000000a0: 53b7 25bd d18e 4fbc 3c9b c53b 29d1 f6bc
000000b0: 7d41 ef3d 8dd4 1ebd eb7f c13d b004 15bd
000000c0: 2b93 b43d 5990 cbbc ce07 e1bd ffc1 4bbe
000000d0: cb4f c8bd 3917 0ebd 4579 fb3d 25c4 973d
000000e0: af84 033d 0c6d 813d ba65 4f3d 27c0 bd3d
000000f0: 97e7 a13d 8f15 ee3c caf0 3ebd 2804 673e
00000100: ab96 d7bc bd5e 34bd c669 523e 0762 6a3d
00000110: 8cd0 24bd fd4e c43d 610c ee3d 6874 733c
00000120: 46b8 a5bb e402 bcbc 8ca3 493c 1f5f dcbd
00000130: ad5b 503e cbf3 fc38 8af1 523e b3c5 e4bd
00000140: a542 0cbe a908 85bd c14c e33c 7236 8d3e
00000150: 551a c7bd 3098 ae3d 583e bebd a96c 093d
00000160: 45c1 e53c 2cb7 fb3d 9b92 f8bc 0ca1 1ebe
00000170: af27 463d 67a9 c7bd 5f1b 933a 1476 203e
00000180: 1f48 d6bd df17 a0bd 7f08 c63d 76bd a63c
00000190: 4439 973d 952e d33d 67bf ef3d de49 8d3d
000001a0: 7ec2 333e 16b6 1b3e 3e93 f3bd 148a 9b3c
000001b0: 1064 c33d f4ab 473c ba30 edbd dd78 8b3d
000001c0: 11f9 a33c fb6b eb3b 5923 c5bb 7cf6 d33c
000001d0: 6877 113e c406 1c3c dd97 7e3d 5ce3 f73c
000001e0: e5c3 e8bd b6f6 773d 3cdb b4bb a857 80bc
000001f0: 0a99 4ebd fc94 14be cc7f 0ebe 4753 b839
00000200: 5c62 80bd d334 bfbb b911 72bc a924 e53b
00000210: 1bba c43d 2db3 413a 4f50 c23d 833c 38bd
00000220: 0484 22be b6ba 843d 54a1 04bd f96a 38be
00000230: e6c3 1dbe 2423 c03d fa05 a53d bbee 043e
00000240: 104e f63c d10c 0ebd cec6 1b3d c7c2 47ba
00000250: a076 9fbd a8d9 14be 9065 eebc 3575 bfbd
00000260: 95d3 87bd 4261 c9bd dc8e 90bd 0da2 ebbc
00000270: 1a5e e8bc 6432 903b ce83 e73d 6c51 8c3d
00000280: 0490 07bd 55d4 22be c1bf 223d 2673 a13d
00000290: 75fa b53d e04a 0dbd 3c25 25be 5512 c03d
000002a0: 42aa 1a3e 8354 ea3d 48a8 9fbb df8f 8abc
000002b0: 1d17 053e e4e1 403b 53ba 55bc 8888 5b3d
000002c0: 74a5 12be 7c77 1fbe 3832 5a3d b113 263d
000002d0: 96a9 88be 575a bbbc afea ea3d 668f 813d
000002e0: b6bf b8bd 6194 a5bd f720 e1bd 53d7 3b3d
000002f0: 0572 1bbe 42c8 023d 24a0 fa3c 003b 8d3e
00000300: fce9 963d 4b51 ff3b 36d7 6aba 49d8 28bd
00000310: fcad 883d 1b0e 883c 4c00 72bc b4a6 e9bc
00000320: aef4 193d 11cb 5cbd 0c06 05be 4104 3ebc
00000330: f2bf 1cbd 4bfd ed3b b459 96bd a778 fcbd
00000340: 0957 aa3d cf22 103e af80 043e 135b a4bd
00000350: 5ceb 5b3d 5860 ca3d 7803 87bd 7aef 263d
00000360: f1af 4e39 8eb8 6dbe b220 8ebd e57a 8dbc
00000370: 2014 51bd 5401 f9bd 2ae7 55bd 0ab3 f0bc
00000380: 2538 fe3c 2f01 1bbc 3f1f 8fbd eee9 0e3d
00000390: 6920 ef3d 20c6 1a3c 03d6 053d 12ed 78be
000003a0: 3579 353d 2bf2 fa3c 337f d1bd f97d bc3c
000003b0: cc74 10bd 0845 ac3d 7027 04bd 566f 393d
000003c0: 1f64 a43c 90fe d93c a1d6 aabd 7ee5 efbc
000003d0: 9b03 a23b c7d4 f53d 6d69 203e 039d 0d3e
000003e0: 5252 f1bc 2551 b2bc 0937 543d 76b0 05bd
000003f0: 510b 0ebe 6ee2 783d cf7e 163d c0de 4bbd
-0.035622407 -0.069121845 0.08852198 -0.090237774 -0.013702176 -0.07539281 -0.051879644 0.017137228
0.12132576 -0.09938298 -0.020986704 0.1427663 -0.043553073 0.31482333 0.13209534 -0.026678137
0.04072156 0.08646106 -0.07969551 -0.14127728 -0.12881836 -0.16985941 0.028980205 -0.09610431
-0.20123582 0.053804614 -0.07679625 -0.09190923 -0.012987924 -0.12912633 0.016447432 -0.00035898885
0.2301853 0.01705459 0.07217285 -0.001055431 -0.20572656 0.02136401 0.071579754 0.09533839
-0.040458035 -0.012668327 0.0060304683 -0.030129032 0.11682413 -0.038776923 0.094482265 -0.036381423
0.088171326 -0.024849104 -0.10987817 -0.19898222 -0.09780844 -0.034690116 0.1227899 0.074104585
0.03210896 0.06319627 0.050634123 0.09265166 0.079055004 0.029063014 -0.046616353 0.22560179
-0.026316961 -0.044035662 0.20548162 0.057222392 -0.04023795 0.09585378 0.11623455 0.014859296
-0.0050573675 -0.022950597 0.012307059 -0.107603304 0.20347472 0.000120617064 0.20599952 -0.11170521
-0.13697298 -0.064957924 0.02774656 0.275806 -0.09721819 0.08525121 -0.09289235 0.033550892
0.02804626 0.12290797 -0.030343344 -0.15491122 0.04837769 -0.09749108 0.0011223367 0.15670043
-0.10462975 -0.07817053 0.09669589 0.020354014 0.073839694 0.10311619 0.11706429 0.06898855
0.17554662 0.15206179 -0.118933186 0.01898674 0.0954057 0.012186993 -0.115815595 0.06810162
0.020016225 0.007184503 -0.0060161767 0.025874369 0.14205706 0.009523097 0.062156547 0.03025978
-0.11365489 0.060538016 -0.005519299 -0.015666798 -0.05043892 -0.14509958 -0.13915938 0.0003515726
-0.062687606 -0.0058351546 -0.014774733 0.0069928956 0.09605809 0.0007389065 0.09487974 -0.044979583
-0.15870672 0.06480925 -0.032380417 -0.18009557 -0.1540676 0.093817025 0.080577806 0.12981693
0.03006652 -0.03468019 0.03803139 -0.00076202716 -0.07786298 -0.14536154 -0.029101163 -0.09348527
-0.06632153 -0.098330036 -0.07058498 -0.028763795 -0.028365184 0.0044005383 0.113044366 0.068514675
-0.03309633 -0.1590131 0.039733652 0.07883291 0.088856615 -0.034495234 -0.16127485 0.093784966
0.1510401 0.114419006 -0.0048723556 -0.016914306 0.12997098 0.0029431516 -0.013044911 0.053597003
-0.14320928 -0.15572923 0.05327055 0.040546123 -0.26691884 -0.022870226 0.114705436 0.06326179
-0.09020941 -0.08084942 -0.10992616 0.045859646 -0.15180214 0.031929262 0.03059394 0.27584076
0.07368848 0.0077916733 -0.00089584605 -0.04122189 0.0667381 0.016608289 -0.014770579 -0.028521873
0.03758686 -0.053904597 -0.12990588 -0.011597694 -0.03826899 0.007262861 -0.07341328 -0.123277
0.08317382 0.14075778 0.12939714 -0.080251835 0.053691253 0.09881657 -0.065924585 0.040755726
0.00019711234 -0.23214933 -0.0693983 -0.017270515 -0.051044583 -0.121584564 -0.05222241 -0.029382247
0.031032631 -0.009460731 -0.069883816 0.03489106 0.116761036 0.009446651 0.0326748 -0.24309185
0.044305045 0.030633053 -0.102293395 0.023009287 -0.035267636 0.08411604 -0.032264173 0.045272194
0.020067273 0.026610643 -0.083417185 -0.029284235 0.0049442775 0.12003475 0.15665217 0.13829426
-0.029458199 -0.021767208 0.051810298 -0.03263899 -0.13871504 0.060762815 0.036742028 -0.049772978

network_body._body_endoder.seq_layers.2.bias f4 [128]
00000000: 0000 0000 0000 0000 0000 0000 0000 0000
00000010: 0000 0000 0000 0000 0000 0000 0000 0000
00000020: 0000 0000 0000 0000 0000 0000 0000 0000
00000030: 0000 0000 0000 0000 0000 0000 0000 0000
00000040: 0000 0000 0000 0000 0000 0000 0000 0000
00000050: 0000 0000 0000 0000 0000 0000 0000 0000
00000060: 0000 0000 0000 0000 0000 0000 0000 0000
00000070: 0000 0000 0000 0000 0000 0000 0000 0000
00000080: 0000 0000 0000 0000 0000 0000 0000 0000
00000090: 0000 0000 0000 0000 0000 0000 0000 0000
000000a0: 0000 0000 0000 0000 0000 0000 0000 0000
000000b0: 0000 0000 0000 0000 0000 0000 0000 0000
000000c0: 0000 0000 0000 0000 0000 0000 0000 0000
000000d0: 0000 0000 0000 0000 0000 0000 0000 0000
000000e0: 0000 0000 0000 0000 0000 0000 0000 0000
000000f0: 0000 0000 0000 0000 0000 0000 0000 0000
00000100: 0000 0000 0000 0000 0000 0000 0000 0000
00000110: 0000 0000 0000 0000 0000 0000 0000 0000
00000120: 0000 0000 0000 0000 0000 0000 0000 0000
00000130: 0000 0000 0000 0000 0000 0000 0000 0000
00000140: 0000 0000 0000 0000 0000 0000 0000 0000
00000150: 0000 0000 0000 0000 0000 0000 0000 0000
00000160: 0000 0000 0000 0000 0000 0000 0000 0000
00000170: 0000 0000 0000 0000 0000 0000 0000 0000
00000180: 0000 0000 0000 0000 0000 0000 0000 0000
00000190: 0000 0000 0000 0000 0000 0000 0000 0000
000001a0: 0000 0000 0000 0000 0000 0000 0000 0000
000001b0: 0000 0000 0000 0000 0000 0000 0000 0000
000001c0: 0000 0000 0000 0000 0000 0000 0000 0000
000001d0: 0000 0000 0000 0000 0000 0000 0000 0000
000001e0: 0000 0000 0000 0000 0000 0000 0000 0000
000001f0: 0000 0000 0000 0000 0000 0000 0000 0000
0.0 0.0 0.0 0.0 0.0 0.0 0.0 0.0
0.0 0.0 0.0 0.0 0.0 0.0 0.0 0.0
0.0 0.0 0.0 0.0 0.0 0.0 0.0 0.0
0.0 0.0 0.0 0.0 0.0 0.0 0.0 0.0
0.0 0.0 0.0 0.0 0.0 0.0 0.0 0.0
0.0 0.0 0.0 0.0 0.0 0.0 0.0 0.0
0.0 0.0 0.0 0.0 0.0 0.0 0.0 0.0
0.0 0.0 0.0 0.0 0.0 0.0 0.0 0.0
0.0 0.0 0.0 0.0 0.0 0.0 0.0 0.0
0.0 0.0 0.0 0.0 0.0 0.0 0.0 0.0
0.0 0.0 0.0 0.0 0.0 0.0 0.0 0.0
0.0 0.0 0.0 0.0 0.0 0.0 0.0 0.0
0.0 0.0 0.0 0.0 0.0 0.0 0.0 0.0
0.0 0.0 0.0 0.0 0.0 0.0 0.0 0.0
0.0 0.0 0.0 0.0 0.0 0.0 0.0 0.0
0.0 0.0 0.0 0.0 0.0 0.0 0.0 0.0

value_heads.value_heads.extrinsic.weight f4 [1, 128]
00000000: 88e8 0b3e ce03 b2bd fb13 31be 50e1 66bc
00000010: 587b 5bbe b03b 733d dac1 c6bd 20e0 3e3c
00000020: 10d8 07be 144f 523e bcd0 483e ded4 323e
00000030: f89c 4fbe d0ea 4cbe e059 8e3c 6654 39be
00000040: dab9 123e ec44 533e 08b7 803d 50fb 01be
00000050: 3e3a 9cbd 0c89 933d 2084 b43c e5b8 f5bd
00000060: 433c 40be ec4c 43be c60a 573e f21f 503e
00000070: e02f e13d ee6d 4ebe a4d4 7abd 201e 49be
00000080: 8014 fa3a 52e2 86bd 7a19 1fbe 31d0 c9bd
00000090: 0025 b8bb 9cb5 8bbd 6b78 e4bd 5809 d5bc
000000a0: 1c18 3bbe fc5d 113e d8db 863c 70b3 d93c
000000b0: 3947 febd 7290 483e f0c8 773d 5222 393e
000000c0: 6086 3a3d 0479 d73d d0ce 393d f497 e03d
000000d0: 3c90 06bd 982c 42bd e805 1c3e b210 3e3e
000000e0: 2840 f0bc c0cd eb3d e850 c4bc 0e81 173e
000000f0: 0760 e2bd 00e0 f5ba dcad 25be 945d 27bd
00000100: bae8 563e c282 2bbe 6ac5 3dbe 6050 d43d
00000110: 58ef 903d 105b 33bc 3c94 043e 7080 4e3d
00000120: fa9b 283e 38e1 d53d e628 96bd 583f 3a3e
00000130: f6b6 3ebe bcce 25bd 80ef a03c 64ab 3bbd
00000140: 4a33 0b3e 60bc b23d a140 34be f0b8 a2bc
00000150: 0cb3 9d3d 7839 293d 0680 b0bd bacc 26be
00000160: e783 46be 6601 0b3e ee1e 8bbd 28cd 4e3e
00000170: 44b4 e03d e034 2a3c 6c74 1a3e 3099 393e
00000180: 8817 c73d 8c14 53bd 2857 5a3d fe26 2dbe
00000190: 604b babd e1ca e2bd a097 60bd 5bb2 3abe
000001a0: bf6a 29be 10e1 173c dcdb 993d daed 50be
000001b0: 482f ba3d 910b e8bd dec1 493e 70db 85bd
000001c0: 00c9 cd3a be46 b4bd 9a70 463e 6c98 27bd
000001d0: fd0c efbd 00c1 7e3d 304d efbc 0e6a 433e
000001e0: 2e7a 1dbe 7826 1fbe f0d8 473d a9db eabd
000001f0: 6a7b 23be e6a0 8fbd f0fa 453e ec21 ba3d
0.13662922 -0.08692132 -0.17292778 -0.014091805 -0.2143377 0.059383094 -0.09704943 0.011650115
-0.13266015 0.20537978 0.19610876 0.17464015 -0.20274723 -0.20011449 0.01737684 -0.18098602
0.14328709 0.2063176 0.062849104 -0.12693524 -0.07628296 0.07203874 0.022035658 -0.119981565
-0.18772988 -0.19072312 0.21000203 0.20324686 0.109954596 -0.20159122 -0.061237946 -0.19640398
0.0019079596 -0.06586136 -0.15537062 -0.098541625 -0.005619645 -0.068217486 -0.111557804 -0.026005432
-0.18270916 0.14196008 0.016462252 0.02657482 -0.124159284 0.19586352 0.060494363 0.18079498
0.045538306 0.10521129 0.045363247 0.10966483 -0.032852396 -0.04740581 0.15236628 0.18561056
-0.029327467 0.11513853 -0.02396436 0.14795324 -0.11053472 -0.0018758774 -0.16179603 -0.040860727
0.20987216 -0.16749099 -0.18532339 0.10366893 0.07076901 -0.010947004 0.12947172 0.050415456
0.1646575 0.10443348 -0.073320195 0.18188226 -0.18624482 -0.04048036 0.019645452 -0.045817748
0.13593784 0.08727336 -0.17602779 -0.019863576 0.07700166 0.041314572 -0.086181685 -0.16289034
-0.19386254 0.13574752 -0.06793009 0.20195448 0.10971883 0.010388583 0.15083474 0.18124843
0.09721285 -0.051533267 0.053305775 -0.16909406 -0.09096408 -0.11073852 -0.0548321 -0.182321
-0.16544627 0.009269968 0.07512638 -0.20403233 0.090910494 -0.11330331 0.1970286 -0.06535995
0.0015700161 -0.088025555 0.19378892 -0.040916845 -0.11672399 0.062195778 -0.02921161 0.19083425
-0.15378639 -0.15542018 0.048790872 -0.11467678 -0.15965047 -0.07013111 0.19334006 0.09088501
