Project specific/results/ppo/JumperAgent/JumperAgent-1133.onnx (onnx, 94240 bytes, 8 tensors)

network_body._body_endoder.seq_layers.0.weight f4 [128, 44]
0.096111685 -0.0327167 0.14691909 -0.0038575046 0.32366726 0.02122378 0.043719262 0.046397205
-0.10549445 0.07604268 -0.094235756 0.09368004 0.018310456 0.15689886 0.08561818 0.1290826
-0.13138033 0.008323122 -0.26984236 0.07376744 0.03020431 0.21657412 -0.037984114 0.018553374
0.26921678 0.065435395 0.17874429 -0.14611001 0.19064127 0.0012499774 -0.084888384 -0.049915984
-0.19296876 0.09222562 -0.047797814 0.0851404 -0.14937764 0.3062014 -0.058847826 0.2187825
-0.19030268 0.14352627 -0.19820054 0.110011466 -0.18635458 -0.2652779 -0.022231946 -0.017314682
0.1404921 0.110222146 -0.2334444 0.16616945 -0.050785687 0.13505767 -0.19046399 0.004289205
0.14937857 0.018269861 -0.04809086 -0.5432569 -0.081164815 0.011343136 -0.18356273 -0.0077309916
-0.0015302454 0.10744873 -0.23593287 0.04840055 0.059208743 -0.09444901 0.1752931 -0.079251535
-0.12598652 -0.20162934 0.03194432 -0.20400791 0.1691043 0.09064704 -0.18291748 -0.08395308
-0.062137373 -0.016133238 -0.1466091 -0.12059292 0.017861705 -0.048608046 -0.3138008 -0.06927515
0.19151801 -0.00013821591 -0.21983069 0.22836892 -0.084127486 0.22555016 0.0871861 0.087080315
0.090121225 0.117021106 -0.41158605 -0.18647167 0.2297535 -0.35761097 -0.076023184 -0.10307159
-0.25505713 0.08982036 0.089314 -0.082344584 0.050440446 0.14608154 -0.40563405 -0.063650586
-0.0062650703 -0.006407671 0.11946521 -0.12826386 0.09959492 -0.2501944 -0.08561341 0.16446483
0.009621116 -0.0024582474 0.077243365 -0.06163615 -0.32492256 0.0079129925 0.003252282 -0.05901545
0.044669066 -0.07751936 0.011657288 -0.056140464 0.016326172 0.10862245 0.1990763 -0.16867033
0.0028704687 -0.07376441 0.123090684 -0.11545516 -0.2760804 -0.08205901 -0.02684548 0.15211836
0.06528808 0.1912827 0.012565288 -0.02904562 -0.11576652 0.14589469 -0.14049986 0.17711452
-0.007579488 0.060485378 0.20592539 0.08961307 -0.12448039 0.14711826 0.054251656 -0.057983875
-0.027459865 -0.14046463 -0.26968232 0.031026084 0.324667 -0.11953855 -0.15230745 0.06292553
-0.35523573 -0.051126424 -0.18757065 -0.08865995 -0.11126387 -0.11209063 0.12763928 -0.4587204
0.15722303 -0.15964207 -0.12827267 -0.07924648 -0.06905206 -0.031117612 0.0053816694 -0.15013234
-0.034364633 -0.06627248 -0.10074297 0.08915906 0.044209156 0.16570419 0.10669586 -0.16428867
0.11894585 0.10317477 0.1415761 0.008588631 -0.060651403 -0.27878532 0.17791373 -0.14571537
0.05152615 -0.08916592 -0.023595307 -0.13155453 -0.02883193 0.080312006 -0.016147038 -0.30500418
0.15119644 0.15801367 0.043810006 -0.12716414 -0.19565618 -0.20181218 -0.08315902 0.016832216
0.2453504 -0.18191974 -0.14227165 0.07268808 0.2639116 -0.08259091 0.26135334 0.12122545
-0.073026605 0.0026607108 0.01744393 -0.051474933 0.12967001 -0.21885228 0.073591515 -0.07356416
0.09237764 0.0164342 -0.18604854 -0.06295319 0.106918186 -0.12661229 -0.08450192 0.11508414
0.028657872 -0.110630415 -0.08185236 0.114641234 0.18781641 0.07641294 0.045003008 0.049886554
-0.189324 -0.10611855 0.011088566 0.11371742 -0.05167523 -0.13633263 -0.07094611 0.09898405
00000000: 34d6 c43d f201 06bd f571 163e 30ce 7cbb
00000010: b7b7 a53e 7edd ad3c f812 333d ff0a 3e3d
00000020: 790d d8bd 44bc 9b3d adfe c0bd 52db bf3d
00000030: cfff 953c 18aa 203e 9658 af3d 3b2e 043e
00000040: 9188 06be b45d 083c c728 8abe 6213 973d
00000050: 076f f73c 9bc5 5d3e 3b95 1bbd 3ffd 973c
00000060: c8d6 893e fe02 863d be08 373e dd9d 15be
00000070: 7737 433e 48d6 a33a f6d9 adbd b474 4cbd
00000080: 9a99 45be c9e0 bc3d a4c7 43bd 175e ae3d
00000090: 74f6 18be 6ec6 9c3e 6b0a 71bd 8508 603e
000000a0: b5de 42be 8df8 123e 15f5 4abe b14d e13d
000000b0: bcd3 3ebe 81d2 87be c51f b6bc 85d7 8dbc
000000c0: 29dd 0f3e 26bc e13d 0c0c 6fbe 5328 2a3e
000000d0: a704 50bd 8f4c 0a3e fe08 43be 768c 8c3b
000000e0: b2f6 183e adaa 953c ecfa 44bd e212 0bbf
000000f0: bd39 a6bd 90d8 393c def7 3bbe 4254 fdbb
00000100: 8492 c8ba 140e dc3d 6398 71be a83f 463d
00000110: de84 723d 7c6e c1bd 0980 333e a14e a2bd
00000120: 9c02 01be ec77 4ebe 0cd8 023d 73e7 50be
00000130: ad29 2d3e 28a5 b93d b84e 3bbe 98ef abbd
00000140: c283 7ebd da29 84bc b220 16be 6cf9 f6bd
00000150: b652 923c 3b19 47bd 80aa a0be 21e0 8dbd
00000160: 4c1d 443e 0dee 10b9 4c1b 61be 8bd9 693e
00000170: 084b acbd 9ff6 663e a08e b23d 2a57 b23d
00000180: 7a91 b83d c3a8 ef3d 68bb d2be 6ef2 3ebe
00000190: 8044 6b3e c918 b7be 0bb2 9bbd 3317 d3bd
000001a0: d996 82be bdf3 b73d 42ea b63d 47a4 a8bd
000001b0: a49a 4e3d 6696 153e 44af cfbe 3d5b 82bd
000001c0: 384b cdbb 71f7 d1bb 2daa f43d 9a57 03be
000001d0: 6cf8 cb3d 7b19 80be 1556 afbd 7869 283e
000001e0: e3a1 1d3c 8c1a 21bb c531 9e3d 3076 7cbd
000001f0: 405c a6be 7fa5 013c 3d24 553b 2fba 71bd
00000200: e9f6 363d 78c2 9ebd 36fe 3e3c 8bf3 65bd
00000210: 77be 853c 7275 de3d a8da 4b3e eab7 2cbe
00000220: 791e 3c3b cc11 97bd f816 fc3d c173 ecbd
00000230: 695a 8dbe 8e0e a8bd 0deb dbbc eac4 1b3e
00000240: c2b5 853d 9ddf 433e a3de 4d3c 14f1 edbc
00000250: ff16 edbd 6b65 153e 32df 0fbe 825d 353e
00000260: 5b5d f8bb 84bf 773d 1bde 523e 0f87 b73d
00000270: 93ef febd 2ba6 163e fc36 5e3d 8080 6dbd
00000280: 83f3 e0bc f6d5 0fbe cd13 8abe 6a2a fe3c
00000290: c13a a63e a1d0 f4bd 7cf6 1bbe 1adf 803d
000002a0: 75e1 b5be f169 51bd 8512 40be 5993 b5bd
000002b0: 50de e3bd c68f e5bd dfb3 023e 66dd eabe
000002c0: 13ff 203e 3679 23be e959 03be fa4b a2bd
000002d0: 2b6b 8dbd 5dea febc b758 b03b 4bbc 19be
000002e0: eec1 0cbd deb9 87bd 5552 cebd 0699 b63d
000002f0: a914 353d 5cae 293e 5c83 da3d 4a3b 28be
00000300: e299 f33d 4b4d d33d 53f9 103e 54b7 0c3c
00000310: 9b6d 78bd f3bc 8ebe 042f 363e 6936 15be
00000320: 160d 533d 9f9c b6bd f24a c1bc 3bb6 06be
00000330: f130 ecbc 9f7a a43d cb46 84bc 8229 9cbe
00000340: 3dd3 1a3e 56ce 213e 1f72 333d 5137 02be
00000350: 185a 48be daa7 4ebe 474f aabd b7e3 893c
00000360: 233d 7b3e 2b49 3abe a9af 11be 7ddd 943d
00000370: 6c1f 873e 6c25 a9bd 1bd0 853e 0c45 f83d
00000380: f98e 95bd 525f 2e3b 93e6 8e3c 61d7 52bd
00000390: 37c8 043e d01a 60be 26b7 963d cea8 96bd
000003a0: 7d30 bd3d 04a1 863c 8283 3ebe 9aed 80bd
000003b0: ecf7 da3d a7a6 01be 580f adbd 3cb1 eb3d
000003c0: eac3 ea3c 3392 e2bd 36a2 a7bd 06c9 ea3d
000003d0: f252 403e 637e 9c3d 1355 383d d855 4c3d
000003e0: 27de 41be af54 d9bd d1ac 353c aee4 e83d
000003f0: 68a9 53bd c89a 0bbe 324c 91bd 26b8 ca3d

network_body._body_endoder.seq_layers.0.bias f4 [128]
0.0 0.0 0.0 0.0 0.0 0.0 0.0 0.0
0.0 0.0 0.0 0.0 0.0 0.0 0.0 0.0
0.0 0.0 0.0 0.0 0.0 0.0 0.0 0.0
0.0 0.0 0.0 0.0 0.0 0.0 0.0 0.0
0.0 0.0 0.0 0.0 0.0 0.0 0.0 0.0
0.0 0.0 0.0 0.0 0.0 0.0 0.0 0.0
0.0 0.0 0.0 0.0 0.0 0.0 0.0 0.0
0.0 0.0 0.0 0.0 0.0 0.0 0.0 0.0
0.0 0.0 0.0 0.0 0.0 0.0 0.0 0.0
0.0 0.0 0.0 0.0 0.0 0.0 0.0 0.0
0.0 0.0 0.0 0.0 0.0 0.0 0.0 0.0
0.0 0.0 0.0 0.0 0.0 0.0 0.0 0.0
0.0 0.0 0.0 0.0 0.0 0.0 0.0 0.0
0.0 0.0 0.0 0.0 0.0 0.0 0.0 0.0
0.0 0.0 0.0 0.0 0.0 0.0 0.0 0.0
0.0 0.0 0.0 0.0 0.0 0.0 0.0 0.0
00000000: 0000 0000 0000 0000 0000 0000 0000 0000
00000010: 0000 0000 0000 0000 0000 0000 0000 0000
00000020: 0000 0000 0000 0000 0000 0000 0000 0000
00000030: 0000 0000 0000 0000 0000 0000 0000 0000
00000040: 0000 0000 0000 0000 0000 0000 0000 0000
00000050: 0000 0000 0000 0000 0000 0000 0000 0000
00000060: 0000 0000 0000 0000 0000 0000 0000 0000
00000070: 0000 0000 0000 0000 0000 0000 0000 0000
00000080: 0000 0000 0000 0000 0000 0000 0000 0000
00000090: 0000 0000 0000 0000 0000 0000 0000 0000
000000a0: 0000 0000 0000 0000 0000 0000 0000 0000
000000b0: 0000 0000 0000 0000 0000 0000 0000 0000
000000c0: 0000 0000 0000 0000 0000 0000 0000 0000
000000d0: 0000 0000 0000 0000 0000 0000 0000 0000
000000e0: 0000 0000 0000 0000 0000 0000 0000 0000
000000f0: 0000 0000 0000 0000 0000 0000 0000 0000
00000100: 0000 0000 0000 0000 0000 0000 0000 0000
00000110: 0000 0000 0000 0000 0000 0000 0000 0000
00000120: 0000 0000 0000 0000 0000 0000 0000 0000
00000130: 0000 0000 0000 0000 0000 0000 0000 0000
00000140: 0000 0000 0000 0000 0000 0000 0000 0000
00000150: 0000 0000 0000 0000 0000 0000 0000 0000
00000160: 0000 0000 0000 0000 0000 0000 0000 0000
00000170: 0000 0000 0000 0000 0000 0000 0000 0000
00000180: 0000 0000 0000 0000 0000 0000 0000 0000
00000190: 0000 0000 0000 0000 0000 0000 0000 0000
000001a0: 0000 0000 0000 0000 0000 0000 0000 0000
000001b0: 0000 0000 0000 0000 0000 0000 0000 0000
000001c0: 0000 0000 0000 0000 0000 0000 0000 0000
000001d0: 0000 0000 0000 0000 0000 0000 0000 0000
000001e0: 0000 0000 0000 0000 0000 0000 0000 0000
000001f0: 0000 0000 0000 0000 0000 0000 0000 0000

network_body._body_endoder.seq_layers.2.weight f4 [128, 128]
0.16480955 0.12762998 0.017444199 0.041195966 -0.03351861 -0.13046765 -0.030638961 0.10362922
-0.13042551 -0.054581903 0.053560067 -0.121522784 -0.15464799 0.055402853 0.023742436 -0.028398024
-0.13985024 -0.058611702 0.010807894 0.0255835 0.095670044 -0.06334834 -0.046642467 0.14294577
-0.027126312 -0.19028841 -0.023415895 -0.046854123 0.29137573 -0.046332147 0.01167068 0.20431432
0.13155091 -0.04107113 0.09383062 0.030540567 0.09484928 -0.027257148 0.14371373 -0.05234796
0.021750186 0.09099554 0.11332378 0.007774617 -0.06859565 -0.020348107 -0.08162357 -0.015361326
-0.089581944 0.05946425 -0.00097594445 0.11060284 -0.015816353 -0.06712736 -0.01937481 -0.030329337
0.15722448 0.012144764 -0.1895084 -0.052278355 -0.006511226 0.034995 -0.10294254 0.045552406
-0.006072878 -0.031567223 0.008771221 -0.15534794 0.08707067 0.11975088 -0.14102949 -0.07747032
-0.004060594 0.00059975806 -0.17311114 0.032445937 -0.06967024 0.17097555 -0.015119776 0.04958085
-0.06447483 0.093925096 0.021086823 -0.09066432 -0.019961705 0.0008540926 -0.10289507 -0.1134512
0.02089698 -0.040297568 0.042918764 0.0867468 -0.04425419 -0.21057452 -0.21830143 0.049820144
-0.14474541 -0.006418702 -0.015399142 -0.1417556 -0.06576673 -0.12113816 0.120314844 0.15951496
0.15287533 0.106175415 0.026029013 -0.020272633 -0.076320454 0.013730713 0.05950284 0.22796929
-0.02194797 -0.07680496 0.19079445 0.08823105 -0.024736471 0.09462546 0.05319063 0.027139498
-0.059838515 0.059266645 -0.07563812 0.011754553 0.14005151 0.0322749 -0.2025741 -0.013694766
0.0033570197 -0.16461802 0.021050654 -0.07987891 -0.016617423 0.10021106 -0.11111726 0.036359884
0.026012667 -0.02350653 -0.0033242165 0.12712207 0.05585287 -0.035774972 0.122120194 -0.03556674
0.11847098 -0.075467736 -0.14891791 0.08144765 0.047837295 -0.15148187 0.057922166 -0.034037255
-0.029133182 0.045527805 0.076524235 -0.014457687 -0.06947341 0.08582743 0.017706035 0.0805725
-0.08748383 0.09667287 0.10368095 0.11459244 -0.05069879 -0.071387656 0.07318123 -0.09063125
0.12540336 -0.09801801 0.1975161 0.025868906 0.036912464 0.051531732 0.06409422 -0.17764835
0.054056272 0.028816812 0.018585337 0.0051358547 0.057261646 -0.032790177 -0.21308503 0.014496354
0.059100248 -0.11043906 -0.085505076 0.024454447 -0.024897544 -0.009754564 -0.06580573 0.009380067
-0.016299395 -0.105342224 -0.025650915 0.14624433 0.057986602 0.033654947 0.11928653 -0.026815895
-0.072606966 0.034975436 0.031952593 0.053982973 0.12387408 0.041227847 -0.042845327 -0.07132534
0.11993918 0.058890093 -0.1250956 0.026534947 -0.2146312 0.0724988 -0.12025918 -0.0015416731
-0.12126673 0.024408713 0.03629872 0.032417383 -0.06939641 -0.030235494 -0.04241037 0.020865636
-0.023242854 -0.06634442 0.07591814 0.049970735 0.013572269 0.097252496 -0.08928066 0.123053245
0.015467589 0.010932551 -0.069947965 0.04100933 -0.14040609 0.10000471 0.04904647 -0.052503064
0.07439566 -0.062472492 -0.10793379 -0.04871073 0.10912998 0.11118556 0.058971073 0.012417011
-0.048882738 0.14414069 -0.0091516785 0.10580194 0.017199188 -0.027956938 -0.058137916 0.09718047
00000000: d6c3 283e 6fb1 023e 23e7 8e3c 1abd 283d
00000010: cf4a 09bd 5099 05be 8ffe fabc 8e3b d43d
00000020: 448e 05be 4691 5fbd cd61 5b3d f0e0 f8bd
00000030: 0b5c 1ebe 1aee 623d 7f7f c23c f9a2 e8bc
00000040: e734 0fbe d312 70bd 9813 313c 7d94 d13c
00000050: a8ee c33d c6bc 81bd 2c0c 3fbd 6060 123e
00000060: 0038 debc f7da 42be b1d2 bfbc 1cea 3fbd
00000070: 332f 953e c7c6 3dbd 6136 3f3c c637 513e
00000080: 48b5 063e 343a 28bd 452a c03d 3630 fa3c
00000090: 5740 c23d 624a dfbc b129 133e d16a 56bd
000000a0: 722d b23c df5b ba3d 4c16 e83d 37c2 fe3b
000000b0: e07b 8cbd 13b1 a6bc 422a a7bd 12ae 7bbc
000000c0: bd76 b7bd c990 733d 86d6 7fba be83 e23d
000000d0: 4c91 81bc 127a 89bd ecb7 9ebc 3b75 f8bc
000000e0: 74ff 203e d5fa 463c 7d0e 42be d421 56bd
000000f0: 1f5c d5bb eb56 0f3d 8ad3 d2bd 2995 3a3d
00000100: fefe c6bb a24c 01bd 2bb5 0f3c 8813 1fbe
00000110: 1c52 b23d f33f f53d 096a 10be c2a8 9ebd
00000120: bb0e 85bb 1539 1d3a 0c44 31be 08e6 043d
00000130: 45af 8ebd 3714 2f3e f0b8 77bc 4a15 4b3d
00000140: 610b 84bd cd5b c03d 46be ac3c 37ae b9bd
00000150: bb86 a3bc 2fe5 5f3a a7ba d2bd 1a59 e8bd
00000160: 2530 ab3c 100f 25bd 96cb 2f3d 4ea8 b13d
00000170: e243 35bd d9a0 57be 698a 5fbe 3510 4c3d
00000180: 2438 14be fa53 d2bb af4c 7cbc 6128 11be
00000190: b5b0 86bd 4917 f8bd a167 f63d e457 233e
000001a0: 5a8b 1c3e 7f72 d93d cc3a d53c cb12 a6bc
000001b0: e64d 9cbd c9f6 603c 40b9 733d c870 693e
000001c0: 3bcc b3bc eb4b 9dbd 9f5f 433e 7bb2 b43d
000001d0: 24a4 cabc feca c13d 6bde 593d a753 de3c
000001e0: 3b19 75bd 95c1 723d 29e8 9abd 2b96 403c
000001f0: aa69 0f3e af32 043d 966f 4fbe 0360 60bc
00000200: 7201 5c3b a091 28be 6c72 ac3c 8e97 a3bd
00000210: 4321 88bc 753b cd3d 7291 e3bd 1aee 143d
00000220: 8418 d53c c490 c0bc 19db 59bb 4a2c 023e
00000230: fbc5 643d c788 12bd 271a fa3d 6eae 11bd
00000240: eaa0 f23d d48e 9abd f07d 18be 07ce a63d
00000250: 0af1 433d 101e 1bbe cb3f 6d3d a66a 0bbd
00000260: b6a8 eebc 5d7b 3a3d bdb8 9c3d efdf 6cbc
00000270: 1348 8ebd 4bc6 af3d 3f0c 913c 3203 a53d
00000280: b92a b3bd 6dfc c53d ae56 d43d 71af ea3d
00000290: 89a9 4fbd b133 92bd 0ae0 953d e09c b9bd
000002a0: bd69 003e abbd c8bd a941 4a3e 07eb d33c
000002b0: 8631 173d f012 533d d543 833d 73e9 35be
000002c0: 1c6a 5d3d 3c11 ec3c 4740 983c ac4a a83b
000002d0: 308b 6a3d fe4e 06bd f632 5abe 1e82 6d3c
000002e0: 1a13 723d e02d e2bd 491d afbd b154 c83c
000002f0: eff5 cbbc 9bd1 1fbc 28c5 86bd daae 193c
00000300: 4f86 85bc aabd d7bd de21 d2bc 13c1 153e
00000310: 5c83 6d3d c5d9 093d 7f4c f43d 02ad dbbc
00000320: f6b2 94bd 6742 0f3d b9e0 023d 401d 5d3d
00000330: b2b1 fd3d 88de 283d 957e 2fbd 0513 92bd
00000340: aca2 f53d bd36 713d 1019 00be d15f d93c
00000350: 48c8 5bbe 407a 943d 724a f6bd f711 caba
00000360: b15a f8bd c8f4 c73c f7ad 143d 17c8 043d
00000370: b41f 8ebd 6db0 f7bc 7fb6 2dbd 69ee aa3c
00000380: cc67 bebc 95df 87bd f87a 9b3d 1dae 4c3d
00000390: 395e 5e3c 512c c73d c7d8 b6bd 5703 fc3d
000003a0: c56b 7d3c 711e 333c e140 8fbd 66f9 273d
000003b0: 9dc6 0fbe 45cf cc3d f4e4 483d 740d 57bd
000003c0: c05c 983d 28e3 7fbd 640c ddbd e784 47bd
000003d0: 8a7f df3d 41b5 e33d a78b 713d b870 4b3c
000003e0: 4439 48bd 9e99 133e ecf0 15bc b0ae d83d
000003f0: 50e5 8c3c f305 e5bc 0622 6ebd 8e06 c73d

network_body._body_endoder.seq_layers.2.bias f4 [128]
0.0 0.0 0.0 0.0 0.0 0.0 0.0 0.0
0.0 0.0 0.0 0.0 0.0 0.0 0.0 0.0
0.0 0.0 0.0 0.0 0.0 0.0 0.0 0.0
0.0 0.0 0.0 0.0 0.0 0.0 0.0 0.0
0.0 0.0 0.0 0.0 0.0 0.0 0.0 0.0
0.0 0.0 0.0 0.0 0.0 0.0 0.0 0.0
0.0 0.0 0.0 0.0 0.0 0.0 0.0 0.0
0.0 0.0 0.0 0.0 0.0 0.0 0.0 0.0
0.0 0.0 0.0 0.0 0.0 0.0 0.0 0.0
0.0 0.0 0.0 0.0 0.0 0.0 0.0 0.0
0.0 0.0 0.0 0.0 0.0 0.0 0.0 0.0
0.0 0.0 0.0 0.0 0.0 0.0 0.0 0.0
0.0 0.0 0.0 0.0 0.0 0.0 0.0 0.0
0.0 0.0 0.0 0.0 0.0 0.0 0.0 0.0
0.0 0.0 0.0 0.0 0.0 0.0 0.0 0.0
0.0 0.0 0.0 0.0 0.0 0.0 0.0 0.0
00000000: 0000 0000 0000 0000 0000 0000 0000 0000
00000010: 0000 0000 0000 0000 0000 0000 0000 0000
00000020: 0000 0000 0000 0000 0000 0000 0000 0000
00000030: 0000 0000 0000 0000 0000 0000 0000 0000
00000040: 0000 0000 0000 0000 0000 0000 0000 0000
00000050: 0000 0000 0000 0000 0000 0000 0000 0000
00000060: 0000 0000 0000 0000 0000 0000 0000 0000
00000070: 0000 0000 0000 0000 0000 0000 0000 0000
00000080: 0000 0000 0000 0000 0000 0000 0000 0000
00000090: 0000 0000 0000 0000 0000 0000 0000 0000
000000a0: 0000 0000 0000 0000 0000 0000 0000 0000
000000b0: 0000 0000 0000 0000 0000 0000 0000 0000
000000c0: 0000 0000 0000 0000 0000 0000 0000 0000
000000d0: 0000 0000 0000 0000 0000 0000 0000 0000
000000e0: 0000 0000 0000 0000 0000 0000 0000 0000
000000f0: 0000 0000 0000 0000 0000 0000 0000 0000
00000100: 0000 0000 0000 0000 0000 0000 0000 0000
00000110: 0000 0000 0000 0000 0000 0000 0000 0000
00000120: 0000 0000 0000 0000 0000 0000 0000 0000
00000130: 0000 0000 0000 0000 0000 0000 0000 0000
00000140: 0000 0000 0000 0000 0000 0000 0000 0000
00000150: 0000 0000 0000 0000 0000 0000 0000 0000
00000160: 0000 0000 0000 0000 0000 0000 0000 0000
00000170: 0000 0000 0000 0000 0000 0000 0000 0000
00000180: 0000 0000 0000 0000 0000 0000 0000 0000
00000190: 0000 0000 0000 0000 0000 0000 0000 0000
000001a0: 0000 0000 0000 0000 0000 0000 0000 0000
000001b0: 0000 0000 0000 0000 0000 0000 0000 0000
000001c0: 0000 0000 0000 0000 0000 0000 0000 0000
000001d0: 0000 0000 0000 0000 0000 0000 0000 0000
000001e0: 0000 0000 0000 0000 0000 0000 0000 0000
000001f0: 0000 0000 0000 0000 0000 0000 0000 0000

action_model._continuous_distribution.log_sigma f4 [1, 2]
0.0 0.0
00000000: 0000 0000 0000 0000

action_model._continuous_distribution.mu.weight f4 [2, 128]
0.021276092 -0.012125019 -0.030394277 0.018368311 -0.02315583 -0.009911637 0.011813871 -0.04535314
-0.01866787 -0.009066615 -0.008055731 0.012856357 -0.04853186 -0.025776101 -0.03175093 0.0019392396
0.006097314 0.01281204 -0.013384747 -0.0027651654 0.02134138 0.01937398 0.021190478 -0.02127376
0.009341379 0.004229493 -0.022834552 -0.00026491584 -0.0091288695 -0.0257974 0.005083408 -0.030855706
-0.0063964585 0.00071046076 -0.024202501 0.023122257 -0.0060746777 -0.022227814 0.010865262 0.019774145
-0.020563086 0.012206458 -0.027939547 0.027616812 0.009862967 0.010275594 0.0054496294 0.0052107167
-0.009265186 0.017282931 0.010620641 -0.011201992 -0.011437271 0.005598378 -0.032002743 0.0016121693
0.04247253 -0.0085042035 0.0203296 -0.02172634 0.005375436 0.0023909567 0.003482287 0.029265625
-0.015508987 0.010475285 -0.037198987 0.020910254 -0.016958013 -0.035338998 -0.015253762 -0.009502618
-0.014781958 0.023130013 -0.02377281 -0.018701047 -0.023041299 -0.036369927 0.02351073 -0.023461983
-0.0009059653 -0.0007749502 -0.030164933 0.005809927 -0.010691825 0.022463638 0.003829101 0.015104294
-0.021086773 -0.0064996406 -0.0313561 0.004394122 0.009750791 -0.029567052 0.005130242 -0.0075047896
-0.0009414341 0.023307528 0.009403015 -0.018541692 0.012489202 0.0037377651 0.0030982422 -0.001877149
-0.0019542873 -0.00035285568 -0.0030824519 -0.029531512 -0.004308523 -0.0022153489 -0.022989389 0.029230753
0.0084685115 -0.011254613 -0.034353115 -0.00975839 -0.012471144 -0.013482774 0.017327633 -0.007375081
0.0047454364 0.00064192957 -0.011422422 0.0049041985 0.009737126 -0.0053555253 0.014723663 -0.031011958
-0.022158831 -0.00548342 0.012760996 0.021367757 -0.0125046065 0.006862586 -0.014178994 -0.019699728
0.009600786 0.0014444058 -0.0064377463 0.020849956 -0.019955285 0.019043729 0.031618312 -0.016552525
0.02757199 -0.008227651 -0.007369362 -0.004181709 -0.01683383 -0.007070185 -0.017007036 -0.0032831226
0.025672747 0.026158778 -0.017097337 0.027745051 -0.012475159 -0.0053598527 0.0055650664 0.016445395
-0.025758943 -0.019641891 -0.0129705565 -0.020136936 0.0052389256 -0.050950654 -0.006130276 -0.00862018
-0.0010549611 -0.006028427 0.0042029326 -0.019943824 -0.011072219 -0.03627581 0.020250682 -0.023688816
0.029953385 0.045040254 -0.03158855 -0.0015098793 0.018649956 -0.00068329874 -0.024460202 0.008078329
0.04168516 0.005074457 0.00885706 -0.038205154 -0.021748733 -0.005925787 0.013443013 0.0070451642
-0.0034885206 -0.0042595267 0.0026421226 0.0031669696 -0.0019058014 0.009227007 0.01785313 0.021662464
0.002428391 0.012902498 -0.026197044 -0.010782498 -0.023733908 0.018652735 0.025085915 -0.032677904
0.03151691 -0.035980783 -0.015316257 -0.0047943434 -0.03625775 0.00454989 0.0048483904 0.022206886
-0.020947877 -0.013731007 -0.021272777 -0.026208675 -0.008367164 -0.032069694 0.020420885 0.009353965
0.021503609 -0.017249161 0.0126582105 -0.005382991 0.016175522 0.0182677 -0.020786235 0.003723703
-0.006281881 -0.0033951383 0.017218664 -0.022072917 0.006047157 0.0032017727 0.019749677 -0.012497043
-0.007060507 0.0050957804 0.018201787 0.021739407 0.01935962 -0.008946897 -0.006726754 0.007163502
0.025093798 -0.014490006 -0.011103953 0.011071271 -0.012472037 0.0015384817 0.024526482 -0.0049144537
00000000: 334b ae3c 04a8 46bc 6bfd f8bc 2479 963c
00000010: 4cb1 bdbc 6b64 22bc f78e 413c 37c4 39bd
00000020: 5ced 98bc 248c 14bc 2ffc 03bc 78a3 523c
00000030: 58c9 46bd 6728 d3bc 430d 02bd 152e fe3a
00000040: facb c73b 97e9 513c b34b 5bbc c737 35bb
00000050: 1ed4 ae3c 2eb6 9e3c a797 ad3c 4f46 aebc
00000060: 950c 193c 8f97 8a3b 870f bbbc 67e4 8ab9
00000070: 4191 15bc 1255 d3bc b892 a63b 1bc5 fcbc
00000080: 6299 d1bb 373e 3a3a 5344 c6bc e36a bd3c
00000090: 170e c7bb 1b17 b6bc 3604 323c 63fd a13c
000000a0: eb73 a8bc 98fd 473c 7ae1 e4bc a73c e23c
000000b0: 4898 213c f75a 283c ce92 b23b a9be aa3b
000000c0: 02cd 17bc ef94 8d3c 3202 2e3c 8f88 37bc
000000d0: 6463 3bbc 9972 b73b 4f15 03bd 6d4f d33a
000000e0: adf7 2d3d 3755 0bbc 438a a63c 70fb b1bc
000000f0: 6d24 b03b 99b1 1c3b 1537 643b 77be ef3c
00000100: 6819 7ebc 88a0 2b3c f75d 18bd fb4b ab3c
00000110: 88eb 8abc a0bf 10bd eaea 79bc deb0 1bbc
00000120: 0730 72bc 277b bd3c 32bf c2bc f032 99bc
00000130: 1bc1 bcbc a2f8 14bd 9399 c03c 5833 c0bc
00000140: 4d7e 6dba 0726 4bba 731c f7bc 3361 be3b
00000150: c42c 2fbc aa05 b83c a8f1 7a3b 0078 773c
00000160: 2bbe acbc f0fa d4bb 416f 00bd 91fc 8f3b
00000170: c8c1 1f3c 9a36 f2bc 971b a83b bdea f5bb
00000180: 93ca 76ba 6eef be3c 1a0f 1a3c bfe4 97bc
00000190: 839f 4c3c 4bf5 743b e10b 4b3b ab0a f6ba
000001a0: 8013 00bb 7dff b8b9 f602 4abb 12ec f1bc
000001b0: 832e 8dbb 632f 11bb 3e54 bcbc 5575 ef3c
000001c0: 83bf 0a3c 4565 38bc dab5 0cbd a7e1 1fbc
000001d0: c553 4cbc dae6 5cbc aef2 8d3c aaaa f1bb
000001e0: 9b7f 9b3b 2a47 283a 1c25 3bbc 66b3 a03b
000001f0: 7788 1f3c 677d afbb 853b 713c ca0c febc
00000200: 7086 b5bc 43ae b3bb 7f13 513c 6f0b af3c
00000210: 1fe0 4cbc 8bdf e03b 034f 68bc 5361 a1bc
00000220: 9d4c 1d3c 3752 bd3a bbf3 d2bb 87cd aa3c
00000230: 4479 a3bc 9801 9c3c 3482 013d 2999 87bc
00000240: a7de e13c 45cd 06bc b07a f1bb b806 89bb
00000250: 1ae7 89bc 03ad e7bb 5752 8bbc a829 57bb
00000260: a74f d23c ef4a d63c b70f 8cbc 9749 e33c
00000270: 9c64 4cbc b4a1 afbb 295b b63b 7eb8 863c
00000280: 6b04 d3bc 08e8 a0bc 7582 54bc 37f6 a4bc
00000290: 4bab ab3b a2b1 50bd 7be0 c8bb a83b 0dbc
000002a0: 9f46 8aba 1c8a c5bb c1b8 893b 3b61 a3bc
000002b0: 4168 35bc f295 14bd c2e4 a53c 0c0f c2bc
000002c0: cd60 f53c 217c 383d ff62 01bd 24e7 c5ba
000002d0: cbc7 983c 671f 33ba c360 c8bc f85a 043c
000002e0: 0fbe 2a3d a147 a63b 341d 113c 027d 1cbd
000002f0: 662a b2bc 1b2d c2bb 1540 5c3c 1fdb e63b
00000300: aa9f 64bb 8093 8bbb 7627 2d3b ef8c 4f3b
00000310: 15cc f9ba df2c 173c ba40 923c 7b75 b13c
00000320: a425 1f3b 0065 533c 2f9b d6bc 13a9 30bc
00000330: 9d6d c2bc 9fcd 983c fa80 cd3c 44d9 05bd
00000340: e017 013d 9660 13bd 0af1 7abc de19 9dbb
00000350: 0283 14bd 3e17 953b 3fdf 9e3b 37eb b53c
00000360: e29a abbc 05f8 60bc 3f44 aebc 93b3 d6bc
00000370: 6e16 09bc 835b 03bd b349 a73c 5f41 193c
00000380: 5628 b03c 1d4e 8dbc 6264 4f3c cd63 b0bb
00000390: 8782 843c 25a6 953c e547 aabc 5f09 743b
000003a0: 3dd8 cdbb f880 5ebb 280e 8d3c 43d2 b4bc
000003b0: 3b27 c63b d5d4 513b 13ca a13c 66c0 4cbc
000003c0: d35b e7bb 81fa a63b ea1b 953c d716 b23c
000003d0: 1198 9e3c 0296 12bc 1a6c dcbb cfbb ea3b
000003e0: 8291 cd3c 7d67 6dbc 5bed 35bc 4764 353c
000003f0: 8457 4cbc e1a6 c93a c3eb c83c 6d09 a1bb

action_model._continuous_distribution.mu.bias f4 [2]
0.0 0.0
00000000: 0000 0000 0000 0000

action_model._discrete_distribution.branches.0.weight f4 [1, 128]
-0.008332113 -0.010360795 -0.0004190228 -0.00044216122 -0.006927489 0.00933745 0.016001789 -0.0028078447
-0.013701093 -0.0018442381 0.013499366 0.010249163 -0.005431411 -0.011928359 -0.0050061117 -0.0024253482
0.00063716917 0.010894085 -0.0065170336 -0.0064880224 -0.0014018125 -0.004439461 0.0033808108 0.0046450677
-0.0058172005 0.002360697 0.007056554 -0.0030382094 -0.0025837913 0.006253584 0.008771632 0.00057693623
0.0064654276 0.004053462 0.0016067879 0.001487568 -0.008418932 -0.003932645 -0.010649502 0.0029080801
-0.00417367 0.0048947977 0.0109265465 0.0004926406 -0.0060882806 0.009123032 -0.009461208 -0.007420403
-0.00100344 -0.00014694444 -0.01219231 -0.006081698 -0.0019261204 0.003018188 0.008547417 -0.004403387
0.0075761722 0.002965239 0.0016657831 0.009095154 -0.0022708257 0.009943412 -0.0037752613 -0.010398685
0.018809399 -0.0011827721 -0.0059038713 -0.010950568 -0.0031015512 0.015102743 -0.0105343405 0.008004348
-0.0042529595 -0.0033891741 0.0147479875 -0.006488742 0.0014478874 -0.0033074138 -0.008371044 -0.0012344342
-0.008309941 -0.0028838613 -0.007734506 0.004766391 -0.011804089 -0.018561743 -0.0032514688 -0.0017880332
-0.0033835263 0.00019976823 0.008259853 0.008366405 0.018281642 0.00838191 0.004874177 -0.0018907124
-0.005847024 -0.0034190898 0.00049119786 -0.0011731792 -0.009194594 0.01222458 0.00020561735 0.012699132
0.011910967 -0.004103985 -0.0021808285 0.008574958 0.0007845031 0.007205645 0.0065568737 -0.0021910763
-0.0064010285 -0.010602274 0.006914824 0.011638544 0.0061542406 -0.0062218285 -0.007737492 -0.012618701
0.01074492 0.0006272064 6.479236e-05 9.7947035e-05 -0.00546401 -0.012757462 -0.0019202105 -0.010484864
00000000: 6a83 08bc 53c0 29bc 4ab0 dbb9 e0d1 e7b9
00000010: fdff e2bb 1bfc 183c 2f16 833c d103 38bb
00000020: 8d7a 60bc 5dba f1ba 722c 5d3c 1bec 273c
00000030: faf9 b1bb 2a6f 43bc 4f0a a4bb 97f2 1ebb
00000040: b307 273a 1b7d 323c d78c d5bb 7a99 d4bb
00000050: 06bd b7ba e678 91bb 9890 5d3b a735 983b
00000060: 379e bebb ecb5 1a3b aa3a e73b b21c 47bb
00000070: d354 29bb ddea cc3b e4b6 0f3c 893d 173a
00000080: f0db d33b e7d2 843b db9a d23a 80fa c23a
00000090: 8fef 09bc 6bdd 80bb 407b 2ebc 7d95 3e3b
000000a0: 48c3 88bb 8a64 a03b 4205 333c 8d24 013a
000000b0: 3380 c7bb c578 153c 2f03 1bbc da26 f3bb
000000c0: dc85 83ba 1915 1ab9 41c2 47bc fb48 c7bb
000000d0: e075 fcba cbcc 453b 770a 0c3c 4a4a 90bb
000000e0: 8a41 f83b 7554 423b 6856 da3a d703 153c
000000f0: 22d2 14bb b1e9 223c 606a 77bb 3f5f 2abc
00000100: 2b16 9a3c 3f07 9bba 4375 c1bb 036a 33bc
00000110: 6543 4bbb 7f71 773c 3a98 2cbc ab24 033c
00000120: 695c 8bbb e81c 5ebb 8ba1 713c 839f d4bb
00000130: 0ac7 bd3a 32c1 58bb b426 09bc bdcc a1ba
00000140: 6b26 08bc 2aff 3cbb bd71 fdbb 632f 9c3b
00000150: f065 41bc cc0e 98bc 9816 55bb 705c eaba
00000160: 27be 5dbb e078 5139 5654 073c 3f13 093c
00000170: 62c3 953c 4754 093c 8fb7 9f3b c8d1 f7ba
00000180: 6498 bfbb cf12 60bb bbc3 003a 5dc5 99ba
00000190: eca4 16bc 9b49 483c fd9a 5739 0510 503c
000001a0: 3726 433c b97a 86bb 3bec 0ebb fb7d 0c3c
000001b0: 1da7 4d3a 551d ec3b 0bdb d63b 2998 0fbb
000001c0: b8bf d1bb 29b5 2dbc bf95 e23b 97af 3e3c
000001d0: 83a9 c93b 7be0 cbbb ca8a fdbb abbe 4ebc
000001e0: 760b 303c 1c6b 243a 22e1 8738 ea68 cd38
000001f0: 700b b3bb ad04 51bc 93af fbba b5c8 2bbc
