Project specific/results/ppo/JumperAgent/JumperAgent-8650.pt (torch, 254627 bytes, 13 tensors)

network_body._body_endoder.seq_layers.0.weight f4 [128, 108]
000000 7f 53 3f 3d 86 3d 12 be bd ac 83 3d 0b ae 90 3d
       0.046710487 -0.14281282 0.064294316 0.07064446
000010 dc e9 13 3e 57 c4 21 be e4 40 f1 bd 32 c3 c4 bb
       0.14444679 -0.15797554 -0.11779955 -0.0060047144
000020 14 c0 6b bd 4b 72 86 3e 4c 7c 8f bd 74 d9 76 bd
       -0.057556227 0.26259074 -0.070061296 -0.060265973
000030 4b 7e bf 3d b0 d9 2d bd 15 10 0c be 14 de 08 3e
       0.0935026 -0.04244393 -0.1367801 0.13365966
000040 da a6 23 be c8 e9 bd 3d ff a4 0c 3e 63 28 5a bc
       -0.15981618 0.09273106 0.13734816 -0.013315293
000050 33 4c a1 bd 09 49 d7 bd fe 6a 26 3d 5d 24 ef 3c
       -0.07875862 -0.10511977 0.04062938 0.029192144
000060 e5 20 9b 3d e6 05 6a 3e fe f6 40 bd d8 96 86 bc
       0.075746335 0.22853813 -0.04711055 -0.01642935
000070 2a 07 89 bd 33 dd c5 3d fb 50 e9 3b 93 1a 96 3d
       -0.066908196 0.09661331 0.0071202493 0.073292874
000080 e9 77 89 3d 85 15 8d 3d ba 63 33 3e cc 8b 99 3c
       0.06712324 0.0688887 0.17518511 0.018743418
000090 65 d4 eb bd c2 be 94 b9 8c 7c cc bd 6b e9 19 bd
       -0.115151204 -0.00028370885 -0.09984693 -0.03757612
0000a0 2d 77 97 3c 32 bd 21 be 39 67 58 bc 4d 0d 89 3d
       0.018489445 -0.15794829 -0.013208204 0.0669199
0000b0 60 d0 f0 bd b3 fb 3b bd de bc 06 3e 32 25 e0 bb
       -0.117584944 -0.045894336 0.13157985 -0.0068403715
0000c0 f8 ed 3f 3d cd 47 bc bc 68 6f e4 3d fb 33 ba 3d
       0.046857804 -0.022983456 0.111540616 0.09091946
0000d0 5d 7d 94 bc fa 7c 4e bd 5d fe 2a 3e b7 df 05 3d
       -0.018126184 -0.050412156 0.16698594 0.032684054
0000e0 2e 18 e8 bc da fd e0 bc 48 46 0e bd ce d0 dc bd
       -0.028331842 -0.027464796 -0.034734994 -0.10782014
0000f0 0c 8b c0 bd c3 96 8a 3d 33 f4 0e bd b6 86 06 be
       -0.09401521 0.06767037 -0.034900855 -0.13137326
000100 3e 79 a5 3d f5 c6 e9 bb 38 89 aa 3d 1e c9 ae 3d
       0.08079766 -0.007134313 0.08326954 0.08534454
000110 43 9b 21 bd 21 7f f7 bd ca 96 d0 3d 24 61 17 3e
       -0.03945471 -0.12084795 0.10185011 0.1478315
000120 a8 8a 82 bb 49 e0 00 bd df be 25 be 02 cc 50 3d
       -0.0039838143 -0.031463895 -0.16186093 0.050975807
000130 c0 97 32 bd 46 ae 79 3d 9b c4 7a 3d a0 d4 96 bd
       -0.04360175 0.060957216 0.061222654 -0.07364774
000140 41 32 59 3c ea f5 06 bb de f2 8d 3c 73 1b 36 be
       0.01325661 -0.0020593354 0.017327722 -0.17783909
000150 e4 68 38 bd 4e e4 ff bd 7c 0d a3 bd f5 44 95 bd
       -0.045021906 -0.124947175 -0.07961556 -0.07288543
000160 ae 76 0f be f5 af 10 3d 54 f3 59 3c 80 ee 35 bd
       -0.14010116 0.035324056 0.013302643 -0.044416904
000170 f3 8d 03 be 9f 78 34 be 74 7f b1 3d a3 5d 81 bd
       -0.12847118 -0.17624138 0.08666888 -0.06316688
000180 f3 04 db bd 10 67 c8 3d 2d d5 f3 3d f4 7a 54 3d
       -0.10694303 0.097852826 0.119058944 0.05187507
000190 b1 be 91 bd 6f 21 06 bc ec e7 1b 3d 6c 4b 73 3d
       -0.071164496 -0.008186682 0.038062975 0.0593981
0001a0 f2 29 83 3c c6 f6 78 3d 64 02 b0 3d 0c 7a fd bd
       0.016011212 0.060782216 0.08594206 -0.12376794
0001b0 cf d2 27 3d df 1b f7 bc e2 fc 95 3d 62 ba c4 bd
       0.040972527 -0.030164657 0.07323624 -0.09605862
0001c0 ca ba ef 3d f7 5b 3a 3d a7 7a 98 bd f9 ef af 3d
       0.11705549 0.04549786 -0.07445269 0.08590693
0001d0 c5 17 9b bd 6c 8a 8a 3e 79 69 06 be 9c 12 ff 3c
       -0.07572893 0.27058733 -0.13126172 0.031136803
0001e0 fd 39 db 3c 3b 29 ed bd 9a 34 c2 bc 0a 15 96 3d
       0.02676105 -0.1158013 -0.023706723 0.07328232
0001f0 ba 00 ac 3c 2f 5b 5d 3e 0b 6d e7 bc 7f 78 d1 bd
       0.02099644 0.21616815 -0.028250238 -0.10228061
000200 c8 c3 ae 3d 1c ab 8a 3e 8a 98 71 bd 8a 45 1e be
       0.08533436 0.2708367 -0.058983363 -0.15456215
000210 b8 d4 ee bd ea 58 8d bd 67 d9 e1 3c 12 b3 02 be
       -0.11661667 -0.06901725 0.027569486 -0.12763622
000220 0a 75 b0 bd 23 e4 83 3d a7 c8 24 be af 24 df 3c
       -0.086160734 0.06439998 -0.16092168 0.027239172
000230 c0 1f c9 3d fc f0 19 be 30 70 8a 3c 1a 59 5b 3d
       0.09820509 -0.15033334 0.016899198 0.05355177
000240 48 7d fe 3d 5f a9 2d 3d b4 be 86 bd 0a 94 3d bc
       0.12426239 0.042397853 -0.065793425 -0.01157094
000250 f3 60 df 3d ed 8e 20 3e db af 79 3c 86 87 d7 3d
       0.109071635 0.15679522 0.015239681 0.10523896
000260 d5 8b a9 bc 25 3c 00 be 0a 35 92 bc bc fe 33 3e
       -0.02069656 -0.12522943 -0.017847557 0.17577642
000270 00 27 e6 bd b4 3a 35 bd 2f 34 ba bd a6 f7 63 bd
       -0.112379074 -0.044245437 -0.090919845 -0.055656098
000280 97 54 8b 3d 9a 83 04 3d 6a da 90 bc 3f 63 49 be
       0.068032436 0.032352068 -0.017682273 -0.19666766
000290 83 ab 6d bd a1 b9 0e 3e f6 0f eb 38 c2 7d b9 3d
       -0.058024894 0.13938 0.00011208646 0.090571895
0002a0 15 d9 55 3c 38 d3 92 ba 9d e1 ca bd 2f 6f f7 3d
       0.013052245 -0.0011201864 -0.099063136 0.120817535
0002b0 35 1f 84 3c 4a 4d ed bd 97 b9 30 be 5d 4c 85 3d
       0.016128162 -0.11587007 -0.17258297 0.06508706
0002c0 87 db a6 3c d2 45 1a 3e 46 46 36 be b2 b1 a3 3b
       0.02036835 0.15065697 -0.17800245 0.004995548
0002d0 7c 2b a1 bd c1 89 14 bd 04 04 9a 3d c8 9b 0d be
       -0.07869622 -0.036264185 0.07520297 -0.13828957
0002e0 8f b0 f7 3c 2b 20 d0 bd c9 2d 08 bd a5 84 51 3d
       0.030235557 -0.101623856 -0.03324679 0.05115189
0002f0 46 2e 07 3e 37 0c 91 3d 7e 17 1e bd 27 39 59 bd
       0.13201246 0.07082408 -0.038596623 -0.05303302
000300 81 3b d8 bc 05 9d f0 bd fc ed 64 3c a8 1e b4 bd
       -0.026395561 -0.11748699 0.0139727555 -0.0879491
000310 22 ed e1 3d 6d 9c 57 3d b9 6b 1a 3e 46 12 77 3d
       0.110315576 0.052639414 0.15080155 0.06032016
000320 62 8f 0a 3e cc 1b 04 3d 4f e1 f9 bb a0 d0 b6 bd
       0.13531259 0.03225307 -0.007625736 -0.08926511
000330 10 25 f8 bb 58 31 95 3d 0d 33 29 3e 1e 8c 82 3d
       -0.0075727776 0.07284802 0.1652338 0.063743815
000340 9e 3a 40 bd b0 9a 93 3c c1 40 3f 3e 1e a3 e8 3c
       -0.0469309 0.018018097 0.18677045 0.028398093
000350 bb 95 c8 3d 1a 74 80 bd 92 bc 06 be ae ff 81 bd
       0.09794184 -0.062721446 -0.13157871 -0.06347595
000360 eb ed 5b 3e 95 54 15 bc 74 b6 7f 3c e6 c9 f2 3c
       0.21477477 -0.009114404 0.015607465 0.029637288
000370 38 3b c4 3d d6 91 8c bd f1 ae 0a 3e 3f 71 ca 3c
       0.095816076 -0.068637535 0.13543297 0.024712203
000380 36 28 a2 3d 32 35 8a be f2 44 04 3e 66 3c 3d 3d
       0.07917826 -0.2699371 0.12916926 0.04620018
000390 18 44 06 3e 66 f9 2f be 67 46 13 3d c7 9d 23 3c
       0.13111913 -0.17184982 0.035955813 0.0099863475
0003a0 92 7d 56 bc 3c 60 0a 3d 26 4d ae bc 46 79 49 3e
       -0.013091462 0.033783183 -0.021277022 0.19675168
0003b0 b5 bb 9a bc be e9 3b bd 49 b3 f8 3c 5b ae 07 be
       -0.018888334 -0.04587721 0.030358927 -0.13250105
0003c0 db 28 d3 bc 1f c2 2b 3d d4 ec 7c bd 9c bc 98 bd
       -0.025776317 0.041933175 -0.061749294 -0.074578494
0003d0 2e b9 af bd c5 0f 01 3e e1 57 4a 3e 7d 7d 82 bd
       -0.08580242 0.12603672 0.19760086 -0.06371591
0003e0 f6 3c e3 3d 46 69 47 bd 71 f3 e9 bd d7 bc f1 bd
       0.11095612 -0.04868438 -0.11423386 -0.118035965
0003f0 7d 19 13 be 4f 8f f4 bc 18 06 f5 bd b5 f6 df bd
       -0.14365192 -0.029853491 -0.11964053 -0.109357275

network_body._body_endoder.seq_layers.0.bias f4 [128]
000000 00 00 00 00 00 00 00 00 00 00 00 00 00 00 00 00
       0.0 0.0 0.0 0.0
000010 00 00 00 00 00 00 00 00 00 00 00 00 00 00 00 00
       0.0 0.0 0.0 0.0
000020 00 00 00 00 00 00 00 00 00 00 00 00 00 00 00 00
       0.0 0.0 0.0 0.0
000030 00 00 00 00 00 00 00 00 00 00 00 00 00 00 00 00
       0.0 0.0 0.0 0.0
000040 00 00 00 00 00 00 00 00 00 00 00 00 00 00 00 00
       0.0 0.0 0.0 0.0
000050 00 00 00 00 00 00 00 00 00 00 00 00 00 00 00 00
       0.0 0.0 0.0 0.0
000060 00 00 00 00 00 00 00 00 00 00 00 00 00 00 00 00
       0.0 0.0 0.0 0.0
000070 00 00 00 00 00 00 00 00 00 00 00 00 00 00 00 00
       0.0 0.0 0.0 0.0
000080 00 00 00 00 00 00 00 00 00 00 00 00 00 00 00 00
       0.0 0.0 0.0 0.0
000090 00 00 00 00 00 00 00 00 00 00 00 00 00 00 00 00
       0.0 0.0 0.0 0.0
0000a0 00 00 00 00 00 00 00 00 00 00 00 00 00 00 00 00
       0.0 0.0 0.0 0.0
0000b0 00 00 00 00 00 00 00 00 00 00 00 00 00 00 00 00
       0.0 0.0 0.0 0.0
0000c0 00 00 00 00 00 00 00 00 00 00 00 00 00 00 00 00
       0.0 0.0 0.0 0.0
0000d0 00 00 00 00 00 00 00 00 00 00 00 00 00 00 00 00
       0.0 0.0 0.0 0.0
0000e0 00 00 00 00 00 00 00 00 00 00 00 00 00 00 00 00
       0.0 0.0 0.0 0.0
0000f0 00 00 00 00 00 00 00 00 00 00 00 00 00 00 00 00
       0.0 0.0 0.0 0.0
000100 00 00 00 00 00 00 00 00 00 00 00 00 00 00 00 00
       0.0 0.0 0.0 0.0
000110 00 00 00 00 00 00 00 00 00 00 00 00 00 00 00 00
       0.0 0.0 0.0 0.0
000120 00 00 00 00 00 00 00 00 00 00 00 00 00 00 00 00
       0.0 0.0 0.0 0.0
000130 00 00 00 00 00 00 00 00 00 00 00 00 00 00 00 00
       0.0 0.0 0.0 0.0
000140 00 00 00 00 00 00 00 00 00 00 00 00 00 00 00 00
       0.0 0.0 0.0 0.0
000150 00 00 00 00 00 00 00 00 00 00 00 00 00 00 00 00
       0.0 0.0 0.0 0.0
000160 00 00 00 00 00 00 00 00 00 00 00 00 00 00 00 00
       0.0 0.0 0.0 0.0
000170 00 00 00 00 00 00 00 00 00 00 00 00 00 00 00 00
       0.0 0.0 0.0 0.0
000180 00 00 00 00 00 00 00 00 00 00 00 00 00 00 00 00
       0.0 0.0 0.0 0.0
000190 00 00 00 00 00 00 00 00 00 00 00 00 00 00 00 00
       0.0 0.0 0.0 0.0
0001a0 00 00 00 00 00 00 00 00 00 00 00 00 00 00 00 00
       0.0 0.0 0.0 0.0
0001b0 00 00 00 00 00 00 00 00 00 00 00 00 00 00 00 00
       0.0 0.0 0.0 0.0
0001c0 00 00 00 00 00 00 00 00 00 00 00 00 00 00 00 00
       0.0 0.0 0.0 0.0
0001d0 00 00 00 00 00 00 00 00 00 00 00 00 00 00 00 00
       0.0 0.0 0.0 0.0
0001e0 00 00 00 00 00 00 00 00 00 00 00 00 00 00 00 00
       0.0 0.0 0.0 0.0
0001f0 00 00 00 00 00 00 00 00 00 00 00 00 00 00 00 00
       0.0 0.0 0.0 0.0

network_body._body_endoder.seq_layers.2.weight f4 [128, 128]
000000 2a 57 2b bd 2f 6a e2 bd f4 93 fa bd d3 0e c2 3d
       -0.041831173 -0.11055409 -0.12235251 0.09475484
000010 a7 4c 69 bc c1 c8 30 3d 7a 98 b7 bd 90 91 ab bd
       -0.014239467 0.043160204 -0.089646295 -0.08377373
000020 ce f0 57 3d cc 33 2c 3d 56 39 ab 3c 04 ee 00 bd
       0.052719884 0.042041585 0.020901363 -0.03147699
000030 8b d3 92 bd 7d 60 38 3d 05 6f 17 3d 44 a7 41 3b
       -0.07169255 0.045013893 0.03697111 0.002954916
000040 01 49 0d be 57 38 1c 3e 54 9c a6 bd 9e cb c4 bd
       -0.1379738 0.15255867 -0.08135286 -0.096091494
000050 27 2e da 3d 05 ef ba bd b6 ce e0 3c 61 7b 65 be
       0.10653334 -0.091276206 0.027442317 -0.22410347
000060 e7 c2 76 bb 2a 99 17 bd ac 5f 9c 3b e9 80 c1 bb
       -0.0037652792 -0.037011303 0.004772147 -0.00590526
000070 4d af a1 3d fe 7a dc bc d5 65 2b 3d fa b4 e5 3d
       0.07894764 -0.026914116 0.04184516 0.11216159
000080 c7 e1 db bd 32 21 81 bd 3f 8d 22 3d 72 7f 3c 3d
       -0.10736423 -0.0630516 0.039685484 0.04601998
000090 49 ca dc 3d 14 27 59 bd c0 42 94 bd dd 60 1e 3d
       0.1078077 -0.053015783 -0.07239294 0.038666595
0000a0 a6 14 36 3d 64 4a a8 bb ba 2f 8b bd 70 5e 2f bb
       0.044453286 -0.005135821 -0.067962125 -0.002675917
0000b0 b4 e6 0b be b7 1c 08 bd 3b 4e 50 3c 6c eb 01 3e
       -0.13662225 -0.03323051 0.012713964 0.12687463
0000c0 87 9d 32 3e a3 aa 40 3d fe 7a 70 3c c4 41 0b 3e
       0.17442904 0.04703773 0.014677761 0.13599306
0000d0 a5 92 21 bd 84 e0 82 bd 0b 28 bd bc f0 25 c0 3d
       -0.03944649 -0.06390479 -0.023090383 0.09382236
0000e0 11 96 45 be bd 92 21 bd da 42 92 bd 20 e1 b9 bc
       -0.19295527 -0.03944658 -0.07141657 -0.022690356
0000f0 b2 5e ef bd 65 78 9b bd 06 d9 08 3c a5 f6 c2 bd
       -0.116879836 -0.07591323 0.008352524 -0.095197
000100 cc e9 35 bd b6 61 12 3e df 24 56 bd 4b a6 8d 3c
       -0.04441242 0.14295086 -0.052281257 0.017291209
000110 83 8f 7f bc 98 35 e4 bd a8 70 f0 3d 26 a2 71 bd
       -0.015598181 -0.11143035 0.117402375 -0.058992527
000120 b7 19 17 3e 28 b9 72 3d 79 86 17 bd cf bd 82 bd
       0.14755903 0.05925861 -0.036993477 -0.06383859
000130 de 82 ef 3d 86 ee 8a be 96 cc b7 bc a6 99 a7 bd
       0.11694883 -0.27135104 -0.022436421 -0.08183603
000140 f0 15 07 3d 93 cb e4 bd c8 8b a3 3c 40 81 31 3d
       0.032979906 -0.11171641 0.019964114 0.043336153
000150 49 4e 9a bb b0 42 89 3e 9d a3 9f 3d 08 94 6e 3c
       -0.0047090393 0.2680869 0.07794879 0.014561661
000160 44 4a 45 3d 96 e2 33 bd 90 bd 50 bd 61 74 a1 bd
       0.04816653 -0.04391726 -0.05096203 -0.07883526
000170 d2 b2 4e 3a 1b d9 90 bd 57 2f 0d bd 03 d2 e2 bc
       0.00078849227 -0.070726596 -0.034468975 -0.027688032
000180 67 67 eb 3d d9 f6 76 3d 4c c5 21 bc 70 c8 03 3d
       0.11494332 0.060294006 -0.009873699 0.032173574
000190 e7 4d a5 bd f1 ab 0e bd 62 0b 06 bd d8 ae b1 3d
       -0.08071499 -0.034831945 -0.0327257 0.08675927
0001a0 51 2d 23 bd 8d 46 14 3c 89 a7 22 3e 0b 14 1e 3d
       -0.03983814 0.009050024 0.15884222 0.038593333
0001b0 64 7e ca 3d a6 ee 65 bd 1f 29 49 3d 09 5c 26 3d
       0.09887388 -0.056135796 0.04911148 0.040615115
0001c0 24 ce fc bc f3 dd d4 bd d8 58 34 bd 5e ea 1e 3b
       -0.030860014 -0.10393896 -0.04403004 0.002424858
0001d0 a2 cd 33 3d ed 65 93 bd bd c4 66 3d b2 2c 83 3a
       0.04389728 -0.07197175 0.056339968 0.0010007827
0001e0 39 8a b9 bd ed 62 11 3d ad 0a 22 bd 5d 3a b0 3d
       -0.09059567 0.035494734 -0.039560962 0.08604882
0001f0 3a 5c 20 3b 2a 6c 76 3c da 02 9f bd a6 22 73 3c
       0.0024469034 0.015040437 -0.07764216 0.014839804
000200 af 8c ee 3c a7 dd 54 3d 95 8e f6 bd 8d b9 3f bd
       0.029119818 0.051969197 -0.12038914 -0.046807814
000210 25 3c 6c 3d c6 7b ea 3d 28 fa 2c 3d 73 5c ca bd
       0.057674546 0.11449389 0.042230755 -0.098809145
000220 8f 7a bc bd 6b e9 a6 ba 3c f2 3f bd fe d3 6c bd
       -0.09203064 -0.0012734359 -0.046861872 -0.05781936
000230 9b 58 ce 3d 8d fb e8 3d 60 46 b0 bb b7 cd ac bd
       0.10075494 0.113761045 -0.005379483 -0.084376745
000240 ba 0e c6 3d 4a ac f3 bd 5f 67 38 bd b8 02 b7 bd
       0.096707776 -0.11898096 -0.045020457 -0.089360654
000250 ab 59 47 bd b5 d4 2a be de dc 07 3e 89 0a 81 bd
       -0.0486695 -0.16682704 0.13267848 -0.063008375
000260 8e 38 3a bd 54 8b 39 3b 4b e9 7a bc 01 28 f9 3d
       -0.04546409 0.0028311806 -0.01531441 0.12165833
000270 4a 91 df bd fd 43 68 bd 97 4d 99 3d 9e 81 49 3e
       -0.109163836 -0.056705464 0.07485502 0.19678351
000280 9b cd c5 3d da 19 d9 3c 2f 35 17 3e 91 85 a6 3c
       0.09658357 0.026501585 0.14766382 0.020327361
000290 d7 58 69 3d 1a 31 aa bd 99 3b f6 bd 71 f1 70 3d
       0.05696949 -0.08310147 -0.12023086 0.058824006
0002a0 cf 1c 48 3c ce 32 32 3c 32 0e 2b bd 6f 4e a8 3c
       0.0122139 0.010876371 -0.041761585 0.020545213
0002b0 41 7c 96 3c a3 59 75 3d 1c a9 a7 bc bc 48 cf 3c
       0.018369796 0.059899937 -0.02046638 0.025303237
0002c0 f2 51 a2 bc 1c 69 97 bd 5d 79 bb 3d 80 8a f5 bd
       -0.019814465 -0.07393095 0.091540076 -0.119893074
0002d0 b1 27 cd 3d 61 5f 13 bd 93 e2 42 3e 68 7a 00 3d
       0.10017336 -0.035979632 0.19031744 0.031366736
0002e0 9c ad 2b 3d bb 5c 9f 3d b5 84 66 be 3f 3d cc bc
       0.041913614 0.07781359 -0.22511561 -0.024931548
0002f0 7c c4 65 3c 25 2e ee bd 69 3b a6 bd 3e af 6b 3d
       0.014023896 -0.11629895 -0.081168 0.05754017
000300 00 81 9e 3c ac 91 4d 3e 47 77 94 3d 2f 76 d9 3c
       0.019348621 0.200751 0.07249313 0.026545612
000310 34 a5 17 3e 75 2d 3f bd 0c 57 05 3e 01 9b ad 3c
       0.14809114 -0.04667421 0.13021487 0.021192076
000320 ea d2 2c bd 3d 04 a2 3c fd 54 04 bd d7 07 0d 3e
       -0.04219333 0.019777412 -0.032307614 0.13772522
000330 87 6b c3 bc 33 a9 82 3d af 59 04 3d 32 fa 67 3d
       -0.023854984 0.063799284 0.03231209 0.05663509
000340 8c 9d db 3d 1e 8b 87 bd b8 ae 6b 3d 2e 9c 0a 3e
       0.10723409 -0.066183314 0.05753967 0.1353614
000350 e5 e6 45 bc 45 86 d6 3d 59 b3 be bd f5 7b 33 3e
       -0.012078975 0.10474829 -0.093115516 0.17527755
000360 a6 c5 a1 3d c9 fa ac 3c b9 46 41 3d 39 2e f2 3d
       0.078990266 0.021115677 0.047186587 0.118252225
000370 0b c5 f1 3c 23 06 f8 3d ae af 0f be 1a f0 9c 3d
       0.029512903 0.121105455 -0.1403186 0.07662983
000380 d2 68 d5 bd 00 ec 0b 3d 3f 28 7a 3d 53 04 36 3d
       -0.104203835 0.034160614 0.061073538 0.044437718
000390 f3 7e 0b 3d 17 45 9c 3d ec 0d 7d bd 3a 32 4c bd
       0.034056615 0.07630365 -0.061780855 -0.049852587
0003a0 6b f1 9f bd 51 fe 97 bd cd d4 9e bd aa ff 96 bd
       -0.07809719 -0.07421554 -0.07755432 -0.07372983
0003b0 1d 6b 11 3d 27 20 bd 3c b8 23 a4 bd a2 4f cf 3d
       0.03550254 0.02308662 -0.08014625 0.10122611
0003c0 b1 f4 e0 bc 9d b0 9b 3d 10 10 ef 3d 15 43 ce bd
       -0.027460428 0.07602046 0.116729856 -0.10071389
0003d0 2d 45 a5 bc 26 44 8f bd 7c 73 92 3d f7 e8 96 bd
       -0.020174587 -0.0699542 0.07150933 -0.07368653
0003e0 26 70 49 bd 4e 83 c5 3d aa 34 0e be 90 9f 95 bd
       -0.04917922 0.09644185 -0.13887277 -0.07305825
0003f0 63 d7 97 bd 8e bf b2 3a 81 a7 78 bc ea a6 f4 bc
       -0.07414129 0.001363741 -0.015176655 -0.029864747

network_body._body_endoder.seq_layers.2.bias f4 [128]
000000 00 00 00 00 00 00 00 00 00 00 00 00 00 00 00 00
       0.0 0.0 0.0 0.0
000010 00 00 00 00 00 00 00 00 00 00 00 00 00 00 00 00
       0.0 0.0 0.0 0.0
000020 00 00 00 00 00 00 00 00 00 00 00 00 00 00 00 00
       0.0 0.0 0.0 0.0
000030 00 00 00 00 00 00 00 00 00 00 00 00 00 00 00 00
       0.0 0.0 0.0 0.0
000040 00 00 00 00 00 00 00 00 00 00 00 00 00 00 00 00
       0.0 0.0 0.0 0.0
000050 00 00 00 00 00 00 00 00 00 00 00 00 00 00 00 00
       0.0 0.0 0.0 0.0
000060 00 00 00 00 00 00 00 00 00 00 00 00 00 00 00 00
       0.0 0.0 0.0 0.0
000070 00 00 00 00 00 00 00 00 00 00 00 00 00 00 00 00
       0.0 0.0 0.0 0.0
000080 00 00 00 00 00 00 00 00 00 00 00 00 00 00 00 00
       0.0 0.0 0.0 0.0
000090 00 00 00 00 00 00 00 00 00 00 00 00 00 00 00 00
       0.0 0.0 0.0 0.0
0000a0 00 00 00 00 00 00 00 00 00 00 00 00 00 00 00 00
       0.0 0.0 0.0 0.0
0000b0 00 00 00 00 00 00 00 00 00 00 00 00 00 00 00 00
       0.0 0.0 0.0 0.0
0000c0 00 00 00 00 00 00 00 00 00 00 00 00 00 00 00 00
       0.0 0.0 0.0 0.0
0000d0 00 00 00 00 00 00 00 00 00 00 00 00 00 00 00 00
       0.0 0.0 0.0 0.0
0000e0 00 00 00 00 00 00 00 00 00 00 00 00 00 00 00 00
       0.0 0.0 0.0 0.0
0000f0 00 00 00 00 00 00 00 00 00 00 00 00 00 00 00 00
       0.0 0.0 0.0 0.0
000100 00 00 00 00 00 00 00 00 00 00 00 00 00 00 00 00
       0.0 0.0 0.0 0.0
000110 00 00 00 00 00 00 00 00 00 00 00 00 00 00 00 00
       0.0 0.0 0.0 0.0
000120 00 00 00 00 00 00 00 00 00 00 00 00 00 00 00 00
       0.0 0.0 0.0 0.0
000130 00 00 00 00 00 00 00 00 00 00 00 00 00 00 00 00
       0.0 0.0 0.0 0.0
000140 00 00 00 00 00 00 00 00 00 00 00 00 00 00 00 00
       0.0 0.0 0.0 0.0
000150 00 00 00 00 00 00 00 00 00 00 00 00 00 00 00 00
       0.0 0.0 0.0 0.0
000160 00 00 00 00 00 00 00 00 00 00 00 00 00 00 00 00
       0.0 0.0 0.0 0.0
000170 00 00 00 00 00 00 00 00 00 00 00 00 00 00 00 00
       0.0 0.0 0.0 0.0
000180 00 00 00 00 00 00 00 00 00 00 00 00 00 00 00 00
       0.0 0.0 0.0 0.0
000190 00 00 00 00 00 00 00 00 00 00 00 00 00 00 00 00
       0.0 0.0 0.0 0.0
0001a0 00 00 00 00 00 00 00 00 00 00 00 00 00 00 00 00
       0.0 0.0 0.0 0.0
0001b0 00 00 00 00 00 00 00 00 00 00 00 00 00 00 00 00
       0.0 0.0 0.0 0.0
0001c0 00 00 00 00 00 00 00 00 00 00 00 00 00 00 00 00
       0.0 0.0 0.0 0.0
0001d0 00 00 00 00 00 00 00 00 00 00 00 00 00 00 00 00
       0.0 0.0 0.0 0.0
0001e0 00 00 00 00 00 00 00 00 00 00 00 00 00 00 00 00
       0.0 0.0 0.0 0.0
0001f0 00 00 00 00 00 00 00 00 00 00 00 00 00 00 00 00
       0.0 0.0 0.0 0.0

action_model._continuous_distribution.log_sigma f4 [1, 2]
000000 00 00 00 00 00 00 00 00
       0.0 0.0

action_model._continuous_distribution.mu.weight f4 [2, 128]
000000 03 f8 05 3c ea 52 af bb df 6e 8c ba c1 ee 1d 3d
       0.008176806 -0.0053504603 -0.0010714195 0.03855777
000010 30 11 2f 3c af dc b3 bc 73 9e 34 3d 0c 30 05 bc
       0.01068525 -0.021955816 0.04409642 -0.008129131
000020 22 9c 5e 3c db 08 6d 3b 00 6d 8b bc 78 9f 67 bb
       0.01358703 0.0036168608 -0.017019749 -0.0035342854
000030 df c3 4a 3b 75 e9 e7 3c 7a ac 13 bc 4e c8 8b bc
       0.0030939502 0.028309563 -0.00901329 -0.017063286
000040 31 82 89 3a 99 5d b5 3b 47 f5 ba bc 6f 66 53 bc
       0.001049107 0.0055348394 -0.022822035 -0.01290284
000050 4b 8e e7 bb 50 e4 d6 bb 33 21 0b bc b3 42 e9 bb
       -0.007066523 -0.0065579787 -0.008491802 -0.007118547
000060 eb 04 de 3b a3 d4 0a bc f7 b9 ee bc f7 53 95 3c
       0.0067754886 -0.008473548 -0.02914141 0.018228514
000070 89 4b b3 bc ab da f1 3c 32 87 8f ba ef cb a0 3c
       -0.021886604 0.029523214 -0.0010950326 0.019628493
000080 4f 48 6b 3b 97 70 a2 3a e7 b7 23 bd df 05 fd 3b
       0.0035901254 0.0012393174 -0.039970305 0.007721647
000090 35 b9 7b bc c5 53 a6 bb eb 15 8e 3c a7 0e 67 3c
       -0.015363981 -0.005075904 0.017344436 0.0141026145
0000a0 4d 26 87 3c 37 3b ad 3c 4b 15 97 bb be 88 0c bc
       0.016497755 0.0211464 -0.0046106926 -0.008577524
0000b0 31 b8 2d bc 6b 37 e4 bc b8 eb ce bc aa 6a ab ba
       -0.010602997 -0.027858457 -0.025258884 -0.0013078053
0000c0 72 8d ec 3c da 23 40 3c ab ae ed bb d0 72 8b 3c
       0.02887604 0.011727298 -0.007253488 0.01702252
0000d0 6f f6 28 bb 89 e8 4b bc 68 bc b8 bc 15 ce a9 3c
       -0.0025781651 -0.012445577 -0.022550777 0.02072815
0000e0 8b 73 ab 3a 96 1c 34 3c 2b d2 2b 3c 72 ff 50 bc
       0.0013080699 0.010993144 0.01048712 -0.012756215
0000f0 3e c0 c5 3c 83 9f 9e 3c c7 21 7a 3c 6d c8 d3 39
       0.02413952 0.01936317 0.015266842 0.00040394385
000100 5b 0c 20 bc 73 ef 5f 3c 2f fc 8c 3c 91 1b a2 3c
       -0.009768571 0.013667929 0.017210094 0.019788535
000110 e7 f5 6e 3c 38 b6 39 3d 22 3b d3 bb 80 82 0c 3c
       0.014584995 0.045339793 -0.006446258 0.0085760355
000120 dd b7 52 3c b4 29 11 bd f0 e8 6d bc 91 02 9c 3b
       0.012861219 -0.03544016 -0.014520869 0.004761048
000130 4d 0a ab bc 31 b9 89 ba 1a 50 a6 bb 3d e2 75 bc
       -0.020878935 -0.0010507462 -0.005075467 -0.015007553
000140 4a 8e b6 3c eb 65 06 3c 27 14 01 bd cd 19 dc 39
       0.022284646 0.00820301 -0.03151336 0.00041980893
000150 2d 6c e9 3b 14 6b 89 3c 80 05 df bb 93 e7 ba bc
       0.0071234913 0.016774692 -0.0068060756 -0.022815501
000160 8d 46 6f 3c 75 c6 dd bb 1d 43 02 bc b0 2b d6 3c
       0.014604223 -0.0067680427 -0.007950571 0.026143879
000170 af 00 8f 3a 67 76 54 bc 2a ec 99 bc 54 a4 09 3c
       0.0010910238 -0.012967682 -0.01878937 0.008400995
000180 9f f9 38 bc 3f 67 33 3c 6f ae 8e 3c 2b 0b a5 3c
       -0.011289983 0.010949909 0.01741716 0.020146927
000190 2c 79 c3 3c 0f 7f 00 bc 72 b7 f0 3a 13 99 14 3b
       0.02386149 -0.007842793 0.0018365218 0.0022674247
0001a0 93 b8 d5 3c 0d 73 0b 3c 67 27 ba bc 23 a4 c0 bb
       0.026088988 0.008511317 -0.022723867 -0.0058789416
0001b0 d4 df 07 bd f6 52 91 bb f0 d8 eb bc f9 21 a1 bc
       -0.033172444 -0.0044349385 -0.028789967 -0.01966952
0001c0 33 57 50 3c 6a 46 17 bc c2 e9 d6 3a 8b a0 fd b8
       0.012716102 -0.009233097 0.001639657 -0.000120938836
0001d0 7f da 99 3a f8 48 08 3c d0 10 aa bb 8e 64 15 bd
       0.001173809 0.008318178 -0.0051899925 -0.03647285
0001e0 d7 cc 24 bc d3 ec b2 3c bd dc 61 3b 4b 0e 59 bc
       -0.010058603 0.021841442 0.0034463846 -0.013248037
0001f0 a3 b9 65 bb 4b 9c 5e bc 7b 2f 06 bc 15 82 ed bb
       -0.0035053275 -0.013587068 -0.008190031 -0.007248173
000200 cf 41 aa bb f2 dc 84 3c 97 26 02 bd 2f bf 45 3c
       -0.0051958333 0.016218636 -0.031775083 0.0120695075
000210 0b 0c 3b 3a 5a c7 e9 bb ef e1 02 3d 1e f0 91 bc
       0.00071352784 -0.0071343603 0.03195375 -0.017814692
000220 e7 9f 30 bc cf 85 04 bd 85 8d db bb 7b 13 0f 3c
       -0.010780311 -0.032354172 -0.00670022 0.008732672
000230 57 13 cb 3c ca da d9 38 55 c0 06 bd df ee 82 3c
       0.024789495 0.00010388119 -0.032898266 0.015983043
000240 d4 db 01 bc 70 65 64 bb 3a d9 92 3c 57 a0 1c bd
       -0.007925946 -0.00348505 0.017925847 -0.03823885
000250 60 f0 e3 bb 60 da 2a bc 8e e0 00 3d 0f 03 5a bc
       -0.006956145 -0.010428041 0.031464152 -0.013306393
000260 e3 30 0f bb 83 80 c7 bc 72 16 e5 bc a0 9f 60 3c
       -0.0021849207 -0.024353271 -0.027964804 0.013709933
000270 cd 67 e1 bc d9 27 8d 3c cf 8e 9d 3b 30 71 84 bb
       -0.027515316 0.017230915 0.004808284 -0.0040418133
000280 d0 bf b5 bc 40 98 2f bc 0a cc 89 3c 3f fd e9 bc
       -0.02218619 -0.010717452 0.016820926 -0.02856314
000290 cb d0 fd ba c0 21 d9 bb ef 98 a9 bc ad 91 4f 3c
       -0.0019364593 -0.0066263378 -0.020702807 0.012669009
0002a0 70 b9 e4 3c d0 d7 0a 3b 33 53 10 3c 1a 78 98 bc
       0.027920455 0.0021185763 0.008808899 -0.018611956
0002b0 1b c9 55 bb 2f 4b a2 bb f3 74 9a 3c 4f cb 1b bc
       -0.003262109 -0.0049528102 0.018854594 -0.009508922
0002c0 e9 15 0c bc fb ff 81 3b 68 b0 29 3d b4 ef 87 bb
       -0.008550146 0.003967283 0.041428 -0.004148448
0002d0 d7 95 3d bb 07 91 08 bc 37 82 d2 bc fb 5e 5a bc
       -0.0028928423 -0.008335358 -0.025696857 -0.013328309
0002e0 9e ef 20 3b f7 be 28 3d 61 3c 1f bc 8c 9b 9e 3c
       0.0024556885 0.041197743 -0.009718985 0.01936128
0002f0 ac 29 22 3c 87 c3 8d 3c 35 19 ee bb b5 b7 73 bc
       0.009897631 0.017305149 -0.0072661885 -0.014875342
000300 47 ed 47 3c 36 1c 49 bc 64 21 8f 39 c3 e0 4b bc
       0.012202567 -0.012274792 0.00027299963 -0.012443724
000310 38 3f 1c 3c f6 88 83 3c 95 16 45 3c 8b b6 5a 3c
       0.009536557 0.016056519 0.01202931 0.013349186
000320 e7 7c 37 bc 8f f7 36 3c aa e3 eb bc fd 13 e5 bb
       -0.011199213 0.011167421 -0.028795082 -0.006990908
000330 3f d5 5c 3c 2d 7a dc bc 70 12 f6 bb 11 5d 19 bc
       0.013478576 -0.026913727 -0.007509522 -0.009360568
000340 47 2b fb ba 00 18 53 3c e8 82 e9 bb 19 2d a3 3b
       -0.0019162678 0.01288414 -0.007126201 0.0049797413
000350 53 dd 15 3c d9 23 c9 bc 6f 66 08 39 22 78 62 bc
       0.009147006 -0.024553226 0.0001300813 -0.013822587
000360 35 7a 85 bc 1f 43 43 3c 23 05 21 3c 25 24 e4 3b
       -0.016293624 0.011917858 0.009827885 0.0069623166
000370 74 8a 4c 3c 80 95 34 3c ce fc 3c bc 42 f4 75 3c
       0.012484182 0.011021972 -0.011534883 0.015011849
000380 2b 1e 65 3c 1d 9a d7 3c 6d f2 d5 3b 82 63 69 3b
       0.013984243 0.026318604 0.0065291435 0.003561229
000390 cd e4 4e bc 73 8b e4 3c 12 4c d0 3a f6 62 01 bb
       -0.012627793 0.027898526 0.0015891811 -0.0019742823
0003a0 35 d7 16 bc 75 9e 57 bc f7 7c 80 3b e8 b5 ad bc
       -0.009206583 -0.013160338 0.003921147 -0.021204904
0003b0 63 2f cc bc aa 2d 88 bc cb 91 c4 3c 2b 51 ac 3c
       -0.02492494 -0.016623337 0.0239953 0.021034798
0003c0 13 da 9c bc 1f 3e 2b 3d 68 74 12 bc a1 f3 4b 3c
       -0.019146955 0.04180729 -0.008938886 0.012448222
0003d0 3d c7 cf bb c9 a5 1b bc 73 05 80 3c 76 28 a1 bc
       -0.0063408897 -0.0094999755 0.015627598 -0.019672614
0003e0 0a d2 66 bc ab 7c 99 3c b5 38 ee 3b fc 27 04 bc
       -0.014088163 0.018736204 0.0072699436 -0.008066174
0003f0 45 4c b8 3a 95 ec 7f bc 44 62 ab bb db 1e 8e bc
       0.0014060816 -0.01562037 -0.00523022 -0.017348697

action_model._continuous_distribution.mu.bias f4 [2]
000000 00 00 00 00 00 00 00 00
       0.0 0.0

action_model._discrete_distribution.branches.0.weight f4 [1, 128]
000000 d1 68 c3 bc 40 d0 a7 3a ff 58 88 bc 50 fe a2 bb
       -0.023853691 0.0012803152 -0.016644 -0.004974164
000010 6b 35 d7 3b 60 68 10 3b 80 b0 4e bc fe c9 0e 3b
       0.006567647 0.0022034869 -0.012615323 0.0021787877
000020 58 5c ff bb 2f 07 d6 ba 83 fd 04 3b 7b c7 3c bc
       -0.0077929907 -0.0016329045 0.0020292706 -0.011522169
000030 e3 0c 7c bc ef ad fa 3b d7 a3 1e bc f5 84 de 3b
       -0.015383932 0.007650129 -0.009682617 0.006790752
000040 a0 f3 93 3b 03 f2 38 3b 4d c2 9b bb 8b 59 82 37
       0.0045151263 0.0028220422 -0.004753387 1.5538904e-05
000050 bc d6 35 bb 70 46 a0 3b 5f b1 1a 3c b2 56 63 bc
       -0.00277464 0.0048912093 0.009441703 -0.01387565
000060 67 30 cb 3b 02 da d6 bc af 4a ef 39 65 6e 24 bc
       0.0062008384 -0.026227001 0.00045641276 -0.010036086
000070 07 72 8d 3b 14 c4 41 bc 28 b7 3d 3c 1d 08 4a bc
       0.0043165716 -0.011826534 0.011579312 -0.012331036
000080 bb c3 77 bb ed 0a 4f 3b ba 8c 94 bb 4f 26 47 bb
       -0.0037805873 0.0031592206 -0.0045333775 -0.0030387824
000090 d0 4f 04 bc f7 87 e8 3b 84 19 20 3c 9d ac 0f 3c
       -0.008075669 0.0070962864 0.009771708 0.008769182
0000a0 a6 cb 8c 3b cb 6e 70 ba 68 83 34 3b 08 b5 fd 3b
       0.0042967377 -0.0009171783 0.0027544145 0.007742528
0000b0 20 cc e5 bb 14 75 32 3c 10 02 86 bb 92 65 33 3b
       -0.007012859 0.010892171 -0.0040896013 0.0027373773
0000c0 5c cd ac 3c 73 30 bd ba 14 75 1d bb 67 e9 d3 ba
       0.021094017 -0.0014433995 -0.0024026083 -0.0016167582
0000d0 cb e6 78 bb 5a fc 66 bc 2e 9b 96 bc b7 aa 3d bb
       -0.003797936 -0.014098251 -0.018384542 -0.0028940865
0000e0 6a b8 fd ba c8 c4 ac 3c 26 35 2f 3b 83 f3 00 3c
       -0.0019357328 0.021089926 0.002673456 0.007870558
0000f0 b9 49 47 bc d7 ee 6a 3b d8 23 ff ba c3 dd c2 3b
       -0.012163573 0.0035847926 -0.0019465638 0.005946846
000100 dd 79 dc 3b b3 47 b1 3b 07 aa df 3b 73 11 49 bb
       0.0067283944 0.0054101585 0.0068256888 -0.0030680567
000110 22 8d 1f bc 3f 3d c9 3a 0f 33 1c 3c 6c d9 9a bb
       -0.0097382385 0.0015353336 0.009533658 -0.0047256257
000120 ea c5 c3 3b 8f 8e fb 39 69 e3 09 3c cb ba 42 3b
       0.005974521 0.00047980665 0.008416035 0.0029713388
000130 67 02 ee 3b e5 f7 d4 3b 97 f7 78 bb 33 6a d9 3a
       0.00726347 0.006499278 -0.0037989372 0.0016587436
000140 ec 02 b0 3b 09 63 0b bc 1d 81 8f 3c fd c4 27 ba
       0.005371442 -0.008507499 0.01751762 -0.0006399898
000150 90 a5 6c 3b 25 66 87 3b 32 a9 b4 ba 36 42 8e 3b
       0.0036109425 0.0041320496 -0.0013783334 0.004341389
000160 1d 36 22 3c 85 ab c4 3b 2d 91 65 bc 82 d1 4c 3b
       0.009900597 0.006001892 -0.014011663 0.0031252806
000170 a3 4a 1d bb 47 bc 62 bb cf aa 80 ba 44 c8 0d 3c
       -0.0024000786 -0.0034597085 -0.000981653 0.008653704
000180 9c 91 c1 bb c7 f4 8a bb 85 33 fb 3b cb 0f 36 3c
       -0.0059072506 -0.0042406055 0.0076660537 0.011112164
000190 b8 d3 5a 3c 08 06 f6 bb 6f fa 0c 3c e3 54 36 3b
       0.013356142 -0.007508043 0.00860463 0.0027821593
0001a0 7f 78 91 3c 73 d3 81 bb 27 aa 93 bc 2b 8f 2c 3b
       0.017757652 -0.0039619743 -0.01802547 0.0026330452
0001b0 b8 ad ec 3a 7f 94 6d 3b 48 fd 1a bc c7 47 a6 3b
       0.0018057143 0.003625184 -0.009459801 0.0050744745
0001c0 dc 4e 30 3c 79 71 32 ba b3 ec a6 3b c8 ef 07 3c
       0.010760989 -0.000680707 0.0050941347 0.008296914
0001d0 02 64 83 bb 9b 28 8a 3b 1b 92 0d 3c a8 d9 ec bb
       -0.0040097246 0.0042162663 0.008640791 -0.007228095
0001e0 bd 9e 37 bc af c9 6f bb 78 c1 7b 3c 65 38 d0 bb
       -0.01120728 -0.0036588719 0.015365951 -0.006354379
0001f0 e8 85 2e 3b d8 32 f7 b9 f5 2e 81 3c 3b 96 41 3c
       0.0026630107 -0.00047149393 0.015769461 0.011815603

network_body._body_endoder.seq_layers.0.weight f4 [128, 108]
000000 a8 8a ca bd 96 0a 25 3d 0a 29 46 3d a6 ea 35 3e
       -0.09889728 0.0402933 0.04837898 0.17765293
000010 69 b2 18 3e a6 e5 dd 3d ce 84 9f 3d ea 5d 15 bd
       0.14911808 0.108348176 0.07789002 -0.036466517
000020 2a 9e 02 bd 4c 47 99 3d 33 9f 62 3d d6 e6 1a bd
       -0.03188912 0.07484302 0.055327605 -0.0378178
000030 ae 71 85 be 88 e7 2c bd 38 4b 8f bd 73 47 93 bd
       -0.26063293 -0.042212993 -0.06996769 -0.07191362
000040 48 73 6f bd 99 1e 18 3d 05 55 9d 3c de bb eb 3c
       -0.05845955 0.037138555 0.01920558 0.028776105
000050 54 8b 6c 3c 9e 7f 82 bc 6d df 66 3b 83 83 98 3d
       0.014437515 -0.015929993 0.0035228387 0.07446959
000060 5d fb 58 bd 54 1e 29 be 44 52 d2 bd e4 fe 84 bc
       -0.052974094 -0.16515476 -0.10269597 -0.016234823
000070 3d 7b 47 be 0d 67 2f bc e5 2a 5d bd db 1e ec b9
       -0.19480605 -0.010705722 -0.053995986 -0.00045036417
000080 bb 59 e3 3d 4c 3e 2e bd f5 06 0d 3e 80 27 f0 bd
       0.11101099 -0.04253988 0.13772185 -0.11726284
000090 44 17 96 3c d3 e9 00 bd 04 01 0b be 7a e6 ca 3d
       0.01832164 -0.031472992 -0.13574606 0.09907241
0000a0 bf b7 c8 bd 2b 49 a3 bd 32 b5 de 3c 7c a7 d8 3c
       -0.09800672 -0.0797294 0.02718601 0.02644705
0000b0 5f ed 04 3e 21 d4 43 bd f6 3f 05 3e b0 12 ed bd
       0.12981175 -0.047809724 0.1301268 -0.1157583
0000c0 92 32 01 bd fc df 75 3d 3d 8d 70 bb 88 29 96 bd
       -0.03154237 0.06002806 -0.0036705278 -0.0733214
0000d0 2f bb 64 bd c8 4a 98 bd 86 31 f8 bd 45 63 2e 3b
       -0.055842575 -0.074361384 -0.12118821 0.0026609462
0000e0 dd 61 3c be a6 c0 d2 3d be 18 9b 3c 85 6e 02 be
       -0.18396707 0.10290651 0.018932696 -0.12737472
0000f0 7c a2 25 3e 51 b5 ce bd ca ab 29 bb fa 2c 19 bd
       0.16175264 -0.10093177 -0.0025889748 -0.03739641
000100 10 3a cc bd bc c6 90 3d c5 09 12 3e 6d 59 f5 3d
       -0.09972012 0.070691556 0.1426154 0.11979947
000110 86 4c bf 3d ed 35 76 39 85 66 09 bd 84 13 9b bd
       0.093407676 0.00023480477 -0.033545036 -0.07572082
000120 52 1c c0 bd 0a 7c c5 bb 38 1c 03 3e 95 3f 9e bd
       -0.09380402 -0.0060267495 0.12803733 -0.07726971
000130 7b f1 57 3d e9 2a 10 3d 06 cc 32 3d 6f 01 aa 3d
       0.052720528 0.035197172 0.043651603 0.08301055
000140 60 8b 06 bd 29 5b a9 3d 29 85 f8 3c 4e 4c 12 3e
       -0.032847762 0.082693405 0.030336933 0.1428692
000150 95 dd 21 3e e5 35 cd bc b8 62 f2 bc ec e1 11 bc
       0.15807183 -0.025050113 -0.029588088 -0.008903962
000160 14 d7 1c 3b 6c cd 93 bd 8f 8b b7 3c 20 f4 e6 3c
       0.0023931907 -0.072169155 0.022405414 0.02819258
000170 ef 92 40 be 27 1d ef bd 8d ad cc bc 0b c4 89 3d
       -0.1880605 -0.11675482 -0.0249851 0.06726845
000180 6c 8f a3 3d c3 a3 95 bd 15 71 78 3d 2a b7 a1 3a
       0.0798634 -0.07306626 0.06065472 0.0012337912
000190 1b 83 e1 3b f7 02 08 3b 1e 21 3c bd de 44 03 bd
       0.006882084 0.002075372 -0.04593002 -0.0320481
0001a0 64 ef e0 bd 19 1f a4 3d 1f 29 21 3e 52 02 1a 3d
       -0.1098316 0.08013744 0.15738343 0.03759987
0001b0 40 b3 a0 3a 95 96 51 3d f6 f5 aa bc 54 d3 91 3c
       0.0012260452 0.051168997 -0.020869236 0.017800964
0001c0 50 4c d7 3c 74 14 01 3e 00 fc f1 3c 99 a5 c1 3d
       0.026281506 0.12605458 0.029539108 0.09455413
0001d0 7b 17 f5 3d ba b2 b0 bd 72 1f 79 bd d5 c8 0c 3d
       0.11967369 -0.086278394 -0.060821004 0.034371216
0001e0 91 93 80 bd 3d 4f 11 be 09 e3 d0 3d 3a 39 3c 3c
       -0.06278146 -0.14190383 0.101995535 0.011488253
0001f0 a7 ab 96 bc 34 41 34 be 18 d4 ee bc cd e7 10 be
       -0.018392397 -0.17602998 -0.029153869 -0.14150925
000200 c9 ea ca 3d 81 6d b6 bd c2 78 bc bd 64 6c 6a 3c
       0.09908063 -0.08907605 -0.0920272 0.014308069
000210 b2 5a fd bd 9c 28 31 3e ac 82 1a 3e fe 8d 2c 3d
       -0.123708144 0.17300647 0.1508891 0.0421276
000220 fb 02 12 be 8f 3a 6b 3d b4 42 e2 bd 61 bd 5e 3d
       -0.1425895 0.057428893 -0.11047879 0.054379825
000230 04 fb 30 3c 94 23 1f 3e 00 2b 8b bc 64 d4 e7 bd
       0.010802034 0.15540916 -0.016988277 -0.11319807
000240 da 4f a1 bc de 3c 1f be e1 e3 05 be b1 e9 16 3d
       -0.019691397 -0.15550563 -0.1307521 0.03684396
000250 15 41 ef 3d 71 8f 5f 3d f4 b3 47 be 05 a1 21 be
       0.11682335 0.054580156 -0.1950224 -0.1578408
000260 c4 61 ee 3d 6f dc b7 bd 0d 01 98 3c 96 a6 40 bd
       0.11639741 -0.08977591 0.018555189 -0.04703387
000270 de 3b 78 bd 0a 02 ca bc 09 8a 58 bd 64 3d c9 bc
       -0.06060397 -0.024659175 -0.052866016 -0.024565406
000280 3a 8b 30 bd 7a 51 14 be 18 2d 29 3c e3 69 f9 3d
       -0.043101527 -0.14484206 0.010325693 0.121783994
000290 7b cd ee 3c fb 48 83 bd 8d 73 18 3d c3 5d ba 3d
       0.029150715 -0.06410404 0.037219573 0.09099915
0002a0 bf f3 3b 3d 66 e4 89 3d 9d bf 0a 3e 60 82 b4 3c
       0.04588675 0.06733017 0.13549657 0.022034824
0002b0 bd 65 46 bd 98 19 df bd 7e 3c 54 3d 96 eb dc bd
       -0.04843687 -0.108935535 0.051815502 -0.10787122
0002c0 ad e7 a4 bd 1b d9 e0 3d dd cf 5f bc 9d 01 13 bd
       -0.08052001 0.109789096 -0.013660398 -0.03589021
0002d0 0d 9f 5e 3e 80 76 a2 3d 51 79 3b 3d d3 2b f3 bd
       0.2174036 0.07932758 0.045769993 -0.11873593
0002e0 e4 14 b3 3d c7 e8 5e be b5 d7 d1 bd ce d1 65 bd
       0.08744219 -0.21768485 -0.10246221 -0.05610829
0002f0 08 eb 0b be 56 e4 58 3e 5c 27 15 3d cc 7f 8c 3c
       -0.13663876 0.21180853 0.03641449 0.017150782
000300 24 aa 2c 3c 25 52 76 bd e6 1c b5 3d a7 d5 9a bd
       0.010538612 -0.060136933 0.088434026 -0.07560282
000310 5d 5f 42 bd 01 10 61 3c 2f 7e 65 bd 09 9b 2a 3d
       -0.047454227 0.013736726 -0.05602854 0.04165176
000320 86 46 9a 3b 22 e0 a2 3d ac 35 39 bd 4c ba 8e 3d
       0.004708114 0.07952906 -0.0452172 0.06969127
000330 5a b3 0e 3d 97 e8 9d 3c 0e 3e 20 3d d0 00 ae bc
       0.03483901 0.019275947 0.03912168 -0.021240622
000340 40 f9 67 bd 53 93 96 bd b9 e5 ae bd 8e 33 17 3e
       -0.056634188 -0.073523186 -0.0853991 0.1476576
000350 16 1d b1 bd 1a 0b e7 bd 44 28 97 3c 3e 16 00 3b
       -0.08648126 -0.11281414 0.018451817 0.0019544507
000360 d7 34 14 be 7e 01 51 be 1c 52 bd bd 33 f8 08 be
       -0.14473282 -0.20410725 -0.09244177 -0.1337593
000370 f5 3d 96 3d 5d fa 79 3d 5c 86 38 3d 92 6d d1 3d
       0.07336036 0.06102978 0.04505001 0.10225977
000380 59 a5 b1 3d d8 a7 4f be ba 95 d0 3d 6a 91 4b 3d
       0.08674116 -0.20278871 0.10184808 0.049699225
000390 f2 af 85 bc 81 c2 67 bb 0f 7b ac bc 2a 69 6e 3c
       -0.016319249 -0.0035363736 -0.021054773 0.01455144
0003a0 37 24 54 3c 3b b0 84 3b 17 32 e0 3d ae fa 1b 3e
       0.012948087 0.0040493286 0.10947054 0.15232345
0003b0 e9 b4 34 3c 16 ff f0 bc 34 92 21 be 1d 0a c5 bd
       0.0110294605 -0.02941851 -0.15778428 -0.096210696
0003c0 8d c0 f1 3d a8 0f 72 bd a6 51 23 3c ff 72 d3 3c
       0.11804304 -0.059096962 0.009968197 0.02581167
0003d0 24 b3 57 be 8b 74 9d b9 08 5d 82 3d c8 fe 05 3d
       -0.2106443 -0.00030032205 0.063654006 0.03271368
0003e0 5c 40 f8 bd 64 78 25 be 78 67 5b bd 41 2a 4d bd
       -0.121216506 -0.16159207 -0.053565472 -0.050089125
0003f0 aa a4 7b 3d 35 8e 4d bd 76 ec 1a be 7c 29 5f be
       0.061436333 -0.050184447 -0.15129265 -0.21793169

network_body._body_endoder.seq_layers.0.bias f4 [128]
000000 00 00 00 00 00 00 00 00 00 00 00 00 00 00 00 00
       0.0 0.0 0.0 0.0
000010 00 00 00 00 00 00 00 00 00 00 00 00 00 00 00 00
       0.0 0.0 0.0 0.0
000020 00 00 00 00 00 00 00 00 00 00 00 00 00 00 00 00
       0.0 0.0 0.0 0.0
000030 00 00 00 00 00 00 00 00 00 00 00 00 00 00 00 00
       0.0 0.0 0.0 0.0
000040 00 00 00 00 00 00 00 00 00 00 00 00 00 00 00 00
       0.0 0.0 0.0 0.0
000050 00 00 00 00 00 00 00 00 00 00 00 00 00 00 00 00
       0.0 0.0 0.0 0.0
000060 00 00 00 00 00 00 00 00 00 00 00 00 00 00 00 00
       0.0 0.0 0.0 0.0
000070 00 00 00 00 00 00 00 00 00 00 00 00 00 00 00 00
       0.0 0.0 0.0 0.0
000080 00 00 00 00 00 00 00 00 00 00 00 00 00 00 00 00
       0.0 0.0 0.0 0.0
000090 00 00 00 00 00 00 00 00 00 00 00 00 00 00 00 00
       0.0 0.0 0.0 0.0
0000a0 00 00 00 00 00 00 00 00 00 00 00 00 00 00 00 00
       0.0 0.0 0.0 0.0
0000b0 00 00 00 00 00 00 00 00 00 00 00 00 00 00 00 00
       0.0 0.0 0.0 0.0
0000c0 00 00 00 00 00 00 00 00 00 00 00 00 00 00 00 00
       0.0 0.0 0.0 0.0
0000d0 00 00 00 00 00 00 00 00 00 00 00 00 00 00 00 00
       0.0 0.0 0.0 0.0
0000e0 00 00 00 00 00 00 00 00 00 00 00 00 00 00 00 00
       0.0 0.0 0.0 0.0
0000f0 00 00 00 00 00 00 00 00 00 00 00 00 00 00 00 00
       0.0 0.0 0.0 0.0
000100 00 00 00 00 00 00 00 00 00 00 00 00 00 00 00 00
       0.0 0.0 0.0 0.0
000110 00 00 00 00 00 00 00 00 00 00 00 00 00 00 00 00
       0.0 0.0 0.0 0.0
000120 00 00 00 00 00 00 00 00 00 00 00 00 00 00 00 00
       0.0 0.0 0.0 0.0
000130 00 00 00 00 00 00 00 00 00 00 00 00 00 00 00 00
       0.0 0.0 0.0 0.0
000140 00 00 00 00 00 00 00 00 00 00 00 00 00 00 00 00
       0.0 0.0 0.0 0.0
000150 00 00 00 00 00 00 00 00 00 00 00 00 00 00 00 00
       0.0 0.0 0.0 0.0
000160 00 00 00 00 00 00 00 00 00 00 00 00 00 00 00 00
       0.0 0.0 0.0 0.0
000170 00 00 00 00 00 00 00 00 00 00 00 00 00 00 00 00
       0.0 0.0 0.0 0.0
000180 00 00 00 00 00 00 00 00 00 00 00 00 00 00 00 00
       0.0 0.0 0.0 0.0
000190 00 00 00 00 00 00 00 00 00 00 00 00 00 00 00 00
       0.0 0.0 0.0 0.0
0001a0 00 00 00 00 00 00 00 00 00 00 00 00 00 00 00 00
       0.0 0.0 0.0 0.0
0001b0 00 00 00 00 00 00 00 00 00 00 00 00 00 00 00 00
       0.0 0.0 0.0 0.0
0001c0 00 00 00 00 00 00 00 00 00 00 00 00 00 00 00 00
       0.0 0.0 0.0 0.0
0001d0 00 00 00 00 00 00 00 00 00 00 00 00 00 00 00 00
       0.0 0.0 0.0 0.0
0001e0 00 00 00 00 00 00 00 00 00 00 00 00 00 00 00 00
       0.0 0.0 0.0 0.0
0001f0 00 00 00 00 00 00 00 00 00 00 00 00 00 00 00 00
       0.0 0.0 0.0 0.0

network_body._body_endoder.seq_layers.2.weight f4 [128, 128]
000000 90 7b 99 3c fa e9 57 bd cc b4 90 3d ac a5 85 3d
       0.018735677 -0.05271337 0.07065734 0.0652574
000010 10 9c 84 be 8c fc c9 3d 39 38 e2 bd 90 00 5a bd
       -0.25900316 0.098626226 -0.1104588 -0.053223193
000020 ed e2 51 bd f0 ad a7 bd 02 8f c8 3d 94 48 fa 3d
       -0.051241804 -0.08187473 0.097929016 0.122208744
000030 97 1e 90 bb bf a3 9e 3d ed 2c 41 3e a5 c3 90 3d
       -0.004398178 0.07746076 0.18864794 0.07068566
000040 93 bf 06 bd 25 f0 5d bc 5d 7c 0a be a5 39 da 3c
       -0.032897543 -0.013546024 -0.13524003 0.026638815
000050 b4 5a 29 bd 6b 3c a3 bc 15 7c 3f 3e df 66 04 3c
       -0.041346267 -0.01992627 0.18699677 0.008081167
000060 ec 66 f5 3d c0 73 14 bd 5d 51 bd bd d7 3d 88 3c
       0.119825214 -0.0362432 -0.092440344 0.01663105
000070 20 fc 01 3d 9c d6 09 3e 3c 06 14 3e b6 f2 8f bd
       0.031734586 0.13460773 0.14455503 -0.07028715
000080 ec da 48 bc 4b 90 d6 bc 9d 10 fd 3c 8c 46 cd bd
       -0.012259226 -0.026191851 0.03089171 -0.100232214
000090 15 ac 98 bd 82 2d 86 bd af 70 5d bd 87 ee 1b 3d
       -0.07454697 -0.06551649 -0.05406254 0.038069274
0000a0 80 6b e9 bd c8 90 60 3d ef 50 1e bd 69 82 dc bc
       -0.11397457 0.054825574 -0.038651403 -0.026917653
0000b0 2c ce 39 3d 3c d3 c2 3d 6e 6e 2f 3e e2 eb 23 3d
       0.045362636 0.09512946 0.1713197 0.040019877
0000c0 14 86 d5 3d 82 d3 c6 3d 8b 56 1d 3d 0e 5a d3 3d
       0.10425964 0.09708311 0.038412612 0.10319911
0000d0 8c 8b 26 3e 49 b6 0d 3e c6 1a 27 3e bb e3 d6 3d
       0.1626417 0.13839068 0.16318807 0.10492655
0000e0 5f 92 ad bc c0 02 31 3d 3b 14 5c 3e ca 28 a5 bd
       -0.02118796 0.043215513 0.21492092 -0.080644205
0000f0 d2 d3 0b bd aa 3d 83 3d 2b 4d 39 bb 1c 77 bd bd
       -0.034137554 0.06408246 -0.0028274755 -0.09251234
000100 39 74 5a 3e 6d 77 c0 bd 46 0e de 3d 05 ea 35 bd
       0.21333398 -0.09397779 0.10842566 -0.04441263
000110 d6 57 a8 bd 8f 2a 30 3e 1b c1 05 3d 2b 65 10 3d
       -0.082198784 0.17203735 0.032654863 0.03525273
000120 85 c1 57 3c c3 8b 50 3d c3 16 bb 3d bc 2c 33 be
       0.013168697 0.050914537 0.09135201 -0.17497534
000130 83 93 28 3d 64 b1 9f bc f5 ce 11 3e 8a ad a1 bd
       0.041156303 -0.019493766 0.14239104 -0.07894428
000140 b4 3f b0 bd ed e3 73 bc a9 cd 13 3d 1f c2 d5 bc
       -0.086059004 -0.014885885 0.036084805 -0.02609354
000150 a8 46 f1 3c d6 2c 4b 3d de 62 b8 bc 4b 9c 79 3d
       0.029452637 0.049603306 -0.022508081 0.06094007
000160 64 10 06 bc 61 e1 dd bd 1a cb 51 3c 9f 67 1e 3e
       -0.008182619 -0.10834003 0.012804771 0.15469216
000170 9f 6e 47 bd 78 89 e9 bd c4 aa eb bc b5 3c 61 3b
       -0.04868948 -0.11403173 -0.02876795 0.003436846
000180 34 d3 24 3c bf 90 34 bd f3 77 67 3d 30 1e 69 3d
       0.01006012 -0.044083353 0.056510877 0.056913555
000190 76 e1 ce bd 59 5c db bd 0f 92 13 bc 3e 92 c7 bd
       -0.10101597 -0.10710973 -0.009006991 -0.0974469
0001a0 35 19 b0 3d 9c b3 06 bd d1 18 0f 3d 4a 81 98 3d
       0.08598558 -0.032886133 0.034935776 0.07446535
0001b0 28 c5 1e 3b ca b8 3f be b7 91 1b bd bb bf a1 bd
       0.00242264 -0.18722835 -0.03798076 -0.07897898
0001c0 18 c7 9d bd 62 9c d3 ba 6c a3 2a 3e 47 45 7c bd
       -0.0770399 -0.0016144628 0.16663903 -0.061589506
0001d0 2f 53 84 3d d7 47 09 be d8 b0 5e 3d 7d 5b ab bd
       0.064611785 -0.13406311 0.05436787 -0.083670594
0001e0 ae 12 1e be 3a cb 2c 3d b2 4b 86 bc b2 ac 5e 3d
       -0.15436813 0.042186 -0.016393516 0.054363914
0001f0 15 17 a0 bd d0 10 f9 3d 2e 82 1c 3e 72 0c b9 3d
       -0.078169025 0.1216141 0.15284035 0.09035577
000200 d0 34 10 be 2d aa 52 bd ea cc 12 3e c0 ab 51 3d
       -0.14082646 -0.051431824 0.14335981 0.051189184
000210 55 f1 45 3d 8e ca 40 bd 6d 8a 7e 3d 8c 90 d7 bd
       0.048325855 -0.04706817 0.06214373 -0.10525617
000220 b0 36 31 3d 26 7d 33 bd b1 c5 33 3d e5 c4 eb 3d
       0.043265045 -0.043820523 0.043889705 0.11512164
000230 0f 4e 0d be 84 b9 48 3e b6 23 23 be d4 ed b4 3d
       -0.13799308 0.19602019 -0.15931591 0.088344246
000240 29 85 2d be 68 45 71 3c 3c 13 b6 3d a9 48 0a bd
       -0.16945328 0.01472602 0.088903874 -0.0337607
000250 3f f7 10 3d 79 5f 64 3d af d1 e0 bd 29 c7 c7 3d
       0.035392042 0.055755112 -0.10977494 0.09754784
000260 8e b1 b2 3d 36 5c 4f be 33 3a d5 bc f7 e1 1b bc
       0.08725272 -0.2025002 -0.026028728 -0.009514323
000270 1d 52 72 be 62 be 1a 3c 9c 6e d6 bd 94 b1 0a 3d
       -0.23664136 0.009444805 -0.10470316 0.033860758
000280 39 82 8e bd 30 95 39 3d eb 20 b4 3d f8 45 7e bc
       -0.06958432 0.045308292 0.08795341 -0.015519612
000290 7f d0 b8 bd 63 e5 ee bc 28 7d a1 3c 37 b1 53 3b
       -0.090241425 -0.029162114 0.019713 0.0032301673
0002a0 9a ff 81 3d a8 cd 88 3d 37 a2 d1 3d f8 98 86 bc
       0.0634758 0.06679851 0.10236018 -0.016430363
0002b0 3b 7a 81 bd 59 d2 3d 3e e7 ba a9 bc 02 f9 42 bd
       -0.06322142 0.18537273 -0.020719005 -0.047600754
0002c0 c6 d4 48 3d 0f df 84 bd 33 8d 9a 3d 2e 19 10 bc
       0.04903104 -0.064878576 0.07546463 -0.008795066
0002d0 43 f9 f4 3d 5c 29 d6 bb 51 81 75 3d c5 45 81 3d
       0.119616054 -0.006535692 0.05993778 0.063121356
0002e0 01 3a 70 3d e1 d6 b2 bd d2 f4 de 3d 85 51 ca 3c
       0.058649067 -0.08732391 0.108865395 0.024697075
0002f0 db ea 98 bd 3f 8c 21 3d e5 25 ff bc 87 45 8c 3d
       -0.0746667 0.03944039 -0.031146 0.06849199
000300 9c 64 07 3e 24 e1 72 3b 5d f3 18 bd 65 17 de 3d
       0.13221973 0.0037060464 -0.037341464 0.10844306
000310 43 9f da 3b eb 7a 41 be 97 27 3d bd 68 ea 90 3c
       0.0066718175 -0.18894546 -0.046180334 0.017689899
000320 80 da dc 3d 96 27 e3 3c 9d ca df bd 7a 0f 33 be
       0.10783863 0.027728837 -0.10927317 -0.17486373
000330 3d 95 a7 bc 5d b0 f3 bc f2 52 28 be 80 1d a0 3d
       -0.020456905 -0.029747183 -0.16437891 0.07818127
000340 e4 c5 14 3d 39 3d 45 be 8b a1 7d bd e8 a8 cc 3d
       0.036321536 -0.19261636 -0.061921638 0.09993154
000350 80 9f 20 3e 5a e4 62 bd 4d b1 6c 3d d0 95 5d 3c
       0.15685844 -0.055393554 0.057786275 0.013524488
000360 f5 51 ca bc 92 ee d7 3c 08 9e 43 3d f1 41 45 3c
       -0.024697283 0.026358876 0.047758132 0.012039647
000370 29 63 24 be 4b a3 a5 3c 53 01 37 3d ba 4b ba 3c
       -0.16053452 0.020219466 0.044678997 0.022741187
000380 7f c8 98 3d ae d2 fb bc 4a 44 28 bd e6 a4 9b bd
       0.074601166 -0.030740108 -0.04108075 -0.07599811
000390 d9 3b 11 be 6e dd 66 bc 1c 56 50 3d 5e f5 55 bd
       -0.14182986 -0.014090879 0.05086337 -0.052235954
0003a0 b9 cb 84 bd 21 3a 2c bd 62 6f a3 bd 89 e3 54 be
       -0.064841695 -0.042047624 -0.07980229 -0.20789923
0003b0 bb 48 29 3e 11 b9 57 3d fd d1 ce 3d f3 c7 70 3e
       0.1653165 0.052666727 0.10098646 0.23513775
0003c0 f1 fc 8b 3d af e0 cd bd d6 cc ac 3d 0e 22 28 3d
       0.06835354 -0.100526206 0.08437507 0.041048102
0003d0 0e 51 20 bd 83 e8 26 3c 1a 3a d3 3c 44 a4 0f 3e
       -0.0391398 0.010187271 0.02578454 0.14027506
0003e0 fe 18 04 3e 03 04 18 3d 26 82 0b 3d e0 6a 46 bd
       0.12900159 0.0371132 0.034059666 -0.048441768
0003f0 14 17 6c bc a2 2d 1d bd 1c 2e 36 3e ad 97 cf 3d
       -0.014409799 -0.038373597 0.17791027 0.10136352

network_body._body_endoder.seq_layers.2.bias f4 [128]
000000 00 00 00 00 00 00 00 00 00 00 00 00 00 00 00 00
       0.0 0.0 0.0 0.0
000010 00 00 00 00 00 00 00 00 00 00 00 00 00 00 00 00
       0.0 0.0 0.0 0.0
000020 00 00 00 00 00 00 00 00 00 00 00 00 00 00 00 00
       0.0 0.0 0.0 0.0
000030 00 00 00 00 00 00 00 00 00 00 00 00 00 00 00 00
       0.0 0.0 0.0 0.0
000040 00 00 00 00 00 00 00 00 00 00 00 00 00 00 00 00
       0.0 0.0 0.0 0.0
000050 00 00 00 00 00 00 00 00 00 00 00 00 00 00 00 00
       0.0 0.0 0.0 0.0
000060 00 00 00 00 00 00 00 00 00 00 00 00 00 00 00 00
       0.0 0.0 0.0 0.0
000070 00 00 00 00 00 00 00 00 00 00 00 00 00 00 00 00
       0.0 0.0 0.0 0.0
000080 00 00 00 00 00 00 00 00 00 00 00 00 00 00 00 00
       0.0 0.0 0.0 0.0
000090 00 00 00 00 00 00 00 00 00 00 00 00 00 00 00 00
       0.0 0.0 0.0 0.0
0000a0 00 00 00 00 00 00 00 00 00 00 00 00 00 00 00 00
       0.0 0.0 0.0 0.0
0000b0 00 00 00 00 00 00 00 00 00 00 00 00 00 00 00 00
       0.0 0.0 0.0 0.0
0000c0 00 00 00 00 00 00 00 00 00 00 00 00 00 00 00 00
       0.0 0.0 0.0 0.0
0000d0 00 00 00 00 00 00 00 00 00 00 00 00 00 00 00 00
       0.0 0.0 0.0 0.0
0000e0 00 00 00 00 00 00 00 00 00 00 00 00 00 00 00 00
       0.0 0.0 0.0 0.0
0000f0 00 00 00 00 00 00 00 00 00 00 00 00 00 00 00 00
       0.0 0.0 0.0 0.0
000100 00 00 00 00 00 00 00 00 00 00 00 00 00 00 00 00
       0.0 0.0 0.0 0.0
000110 00 00 00 00 00 00 00 00 00 00 00 00 00 00 00 00
       0.0 0.0 0.0 0.0
000120 00 00 00 00 00 00 00 00 00 00 00 00 00 00 00 00
       0.0 0.0 0.0 0.0
000130 00 00 00 00 00 00 00 00 00 00 00 00 00 00 00 00
       0.0 0.0 0.0 0.0
000140 00 00 00 00 00 00 00 00 00 00 00 00 00 00 00 00
       0.0 0.0 0.0 0.0
000150 00 00 00 00 00 00 00 00 00 00 00 00 00 00 00 00
       0.0 0.0 0.0 0.0
000160 00 00 00 00 00 00 00 00 00 00 00 00 00 00 00 00
       0.0 0.0 0.0 0.0
000170 00 00 00 00 00 00 00 00 00 00 00 00 00 00 00 00
       0.0 0.0 0.0 0.0
000180 00 00 00 00 00 00 00 00 00 00 00 00 00 00 00 00
       0.0 0.0 0.0 0.0
000190 00 00 00 00 00 00 00 00 00 00 00 00 00 00 00 00
       0.0 0.0 0.0 0.0
0001a0 00 00 00 00 00 00 00 00 00 00 00 00 00 00 00 00
       0.0 0.0 0.0 0.0
0001b0 00 00 00 00 00 00 00 00 00 00 00 00 00 00 00 00
       0.0 0.0 0.0 0.0
0001c0 00 00 00 00 00 00 00 00 00 00 00 00 00 00 00 00
       0.0 0.0 0.0 0.0
0001d0 00 00 00 00 00 00 00 00 00 00 00 00 00 00 00 00
       0.0 0.0 0.0 0.0
0001e0 00 00 00 00 00 00 00 00 00 00 00 00 00 00 00 00
       0.0 0.0 0.0 0.0
0001f0 00 00 00 00 00 00 00 00 00 00 00 00 00 00 00 00
       0.0 0.0 0.0 0.0
