Project specific/results/JumperAgentReport2/JumperAgent/JumperAgent-84305.pt (torch, 757257 bytes, 39 tensors)

network_body._body_endoder.seq_layers.0.weight f4 [128, 109]
00000000: 710a 8ebd 7ffd d13d f15d a0bc ddd1 ac3d
00000010: c138 2abe f4e5 433d fc80 eabb 058c 1d3c
00000020: d0ea dcbd 2867 09be 65df dcbc 75e0 d6bd
00000030: b3d2 0cbd 28d4 823d bea2 0b3d 1f36 193e
00000040: 431d d4bd 597f f7bd 51e1 233d f8cd 3ebd
00000050: 7cb1 54bd d762 39bd 46f6 adbc 0dd3 303d
00000060: 85dd 05be 806f 6dbd 2359 8cbd 8b01 e33b
00000070: 8496 48bd c7fb 6fbd 2015 ad3d 3191 a83c
00000080: 7df7 84bd 4f2b c03d 1292 4d3c 5adc e13c
00000090: 43b0 1f3d 1314 323b 3875 04be 1cfd 4dbc
000000a0: bab4 49bd a735 983d 8f4c a7bc 30bd 933d
000000b0: d240 4b3e 3c36 f13c 9f76 f0bd 2dab c83d
000000c0: ca30 b03d ae80 72be 2ef8 9d3c 6d3f 10be
000000d0: 0b70 253e b47f 8c3d dc2b 183d 0a56 393e
000000e0: 81a2 b6bd ddd0 bb3c 8229 1abd 55e4 3bbd
000000f0: 73bf a4bd e40f 7ebc f7fc bebd 0415 17be
00000100: 8a02 5d3c 0201 803d 2521 383d 69ec fdbd
00000110: 91a7 b6bd dd99 bdbc 8b6b 17be 8f65 b3bd
00000120: 8708 2f3d 857f 42bc 973c 9dbc 8ea3 dfbd
00000130: dc4c 173e 389f b0bd bccd 2dbd 432d 00be
00000140: abaf afbd 8a98 b73d 7cec d93d 5406 243d
00000150: 6302 cebd c1ab f8bd 0bed c1bd bbb6 32be
00000160: 77f5 003c cd9b c33d 771d 8cbd 9e63 c93d
00000170: 79c7 a5bc d69e 46bd 5402 9abd 1caa 04bd
00000180: 151b 3a3e 47ae 523e 63b9 9cbd 68ef 84bd
00000190: 7f36 6ebd c48f 89bd fa1c 333d e687 f2bd
000001a0: 75e1 2fbe e4e8 a63d 4fb2 cabc 0e63 eaba
000001b0: 2d55 363c 87af e6bd c213 48be bb3d a23d
000001c0: feb7 af3b 4be8 24be 18b6 c83b 77e9 a13d
000001d0: d445 9d3c 5edc 093e 40e1 b2bc 5f1b 9abe
000001e0: 927a 443d 49aa 133d b792 53bd ac3c 31bc
000001f0: 219c bb3c 51ff bc3d d735 fb3d 92dd 9b3d
00000200: 97c9 b93d 71d4 3bbe 37d0 92bd 4332 41be
00000210: 37a3 d43d 61f4 393e 7207 97bd e41e 153d
00000220: 0019 b0bd c00a 8cbb a267 ec3d daff 83bc
00000230: 6586 a3bd 10c6 b6bd cd11 8cbd 636c c03d
00000240: a890 203e 2e44 d0bd 3996 593d e9b0 e1bc
00000250: 9601 883b 86d1 4abd 31fb 3b3d 2582 d7bd
00000260: 486c 15be fe31 4bbe 0794 abbd 4d78 bb3c
00000270: 8744 143d cc9b 013e 3466 57ba 974f 85bc
00000280: f39a ae3a d08e 85bd e401 8ebd 426b e2bd
00000290: f213 85bd cccd 2e3d d9a0 0e3d 2b6e 05be
000002a0: a4bb 073d a54f 08be 0a82 6b3c 4c22 1abe
000002b0: cbea ddbd b39b 48bb b565 1d3e 6369 82be
000002c0: 9515 583c bcc9 113d a12f ed3c 2951 80bd
000002d0: b6fe 7dbc 3e57 923d a815 fa3d ea76 09bd
000002e0: d36b 61bd 8d42 32be 3a51 7c3d 1169 debd
000002f0: eff8 b93d 01c1 40bd 0637 a4bd d4b4 d93d
00000300: 5685 393d bf4c fdba 0cf0 8d3a c3c0 6d3d
00000310: c2c3 ad3c 2578 443e d6f6 18bc af1b d33d
00000320: 3fbd 133e 2f15 88bc 96ba 883d 8ba3 933c
00000330: 02a4 be3d a081 3ebd e3c4 ea3c 79e2 1abb
00000340: abd5 153e afb9 cb3d ba4c dfbc 53d1 e2bd
00000350: e867 e83d fb79 bd3d b994 87bd 6e38 9f3e
00000360: 0657 793e da24 61bc 858f 6cbc 1d69 12bd
00000370: 13c4 363e bdf5 033d db54 87bc b717 853c
00000380: bf87 0cbe 3c41 23bd 2c0a 6fbe b4fc eebc
00000390: 44e4 f8bd a564 e6bd 59fe 83bc 9f5c a63d
000003a0: 08f1 8c3d 6770 3a3e 9fbd 67bd c971 50bd
000003b0: 94c6 d93d f07f c73c ca94 ec3d fec6 b23b
000003c0: 2c24 2c3e 49dc c93d 0da9 063e c9b0 553e
000003d0: e84f 6dbe b91e 9bbd 7ac9 8b3c 8971 b83d
000003e0: d30c 0ebe aca7 ddbc c424 2bbe b01a 693d
000003f0: 6d6d ee3d a732 35be 45bc 09be c6f4 9abd
-0.06935585 0.10253429 -0.019576045 0.08438466 -0.16623212 0.047826722 -0.0071564894 0.009615903
-0.107869744 -0.13418257 -0.026961992 -0.104920305 -0.034380626 0.06388122 0.03409075 0.14962052
-0.10357144 -0.120848365 0.0400098 -0.046583146 -0.051927075 -0.045260277 -0.021235596 0.043170024
-0.13072784 -0.057967663 -0.06852939 0.006927674 -0.048971668 -0.058589723 0.08451295 0.020577045
-0.06492517 0.093832605 0.012547033 0.027570892 0.038986456 0.002717261 -0.1293534 -0.012572553
-0.04924462 0.07432108 -0.020422248 0.07213819 0.19848946 0.029444806 -0.11741375 0.09798274
0.08603056 -0.236819 0.01928338 -0.14086695 0.16156022 0.06860295 0.037151203 0.18099228
-0.08917714 0.022926742 -0.03763724 -0.04587205 -0.080443285 -0.015506718 -0.09325593 -0.1475411
0.013489375 0.06250192 0.044953484 -0.12398607 -0.089186795 -0.023144657 -0.14787118 -0.08759605
0.04273274 -0.011871223 -0.01919393 -0.109198675 0.14775413 -0.086241186 -0.04243253 -0.12517266
-0.08578428 0.089646414 0.10640809 0.040045097 -0.10059049 -0.121421345 -0.094690405 -0.17452519
0.007871023 0.09551201 -0.068415575 0.098334536 -0.020236718 -0.04849132 -0.07519975 -0.03238879
0.18174393 0.20574294 -0.07652547 -0.064909756 -0.05815744 -0.06716874 0.043728806 -0.11842327
-0.17175849 0.08149889 -0.024743227 -0.0017882304 0.011128706 -0.11263948 -0.19538787 0.079219304
0.0053625097 -0.16104238 0.006125223 0.07905858 0.019198336 0.1346297 -0.021835923 -0.30099007
0.047968455 0.03605107 -0.05165359 -0.010817688 0.022901597 0.09228385 0.122661285 0.076106206
0.09071653 -0.18342759 -0.0716862 -0.1886683 0.10382693 0.1815963 -0.07374467 0.036406413
-0.08598518 -0.0042737424 0.11543204 -0.01611321 -0.07984618 -0.08924496 -0.06839333 0.09395673
0.15680182 -0.10169254 0.05312178 -0.027550178 0.0041505797 -0.049516223 0.04589385 -0.1052287
-0.14592087 -0.1984329 -0.08377843 0.022884512 0.036198165 0.12657088 -0.00082168286 -0.016273303
0.0013321325 -0.0652138 -0.06933954 -0.11055614 -0.06497945 0.042676732 0.034821365 -0.13030307
0.033137932 -0.13311632 0.014374265 -0.15052146 -0.10835799 -0.0030610382 0.1537083 -0.2547103
0.013188739 0.03559278 0.028953375 -0.0626548 -0.015502622 0.071455464 0.12211162 -0.03356067
-0.05503447 -0.174082 0.0616009 -0.108598836 0.090806834 -0.047059063 -0.080183074 0.10630193
0.045293175 -0.001932524 0.0010828986 0.05804516 0.021211509 0.19186457 -0.009336194 0.103080146
0.1442766 -0.016611664 0.066762134 0.01802232 0.09308626 -0.04651034 0.028658336 -0.0023633523
0.14632289 0.09947526 -0.027258266 -0.11075082 0.113479435 0.092517816 -0.066201635 0.3109774
0.24349603 -0.013741696 -0.014438515 -0.035744775 0.17848234 0.032216776 -0.016519954 0.01624666
-0.13723658 -0.039857134 -0.23343724 -0.029173233 -0.12152913 -0.11249665 -0.016112493 0.08123135
0.068819106 0.1820694 -0.05657732 -0.050889764 0.10633579 0.024352998 0.11551817 0.0054558506
0.16810673 0.09856469 0.13150425 0.2086822 -0.23175013 -0.07574219 0.017063845 0.0900603
-0.1387208 -0.027057491 -0.16713244 0.056910217 0.11641965 -0.17695104 -0.13450725 -0.07566218

network_body._body_endoder.seq_layers.0.bias f4 [128]
00000000: 5921 30ba b4da 90bb 17b6 63bb 574c d4bc
00000010: 355c fe3c f896 02bd e174 dabc 6d9b 28bd
00000020: 4c8d 39bc 74b6 943c 1632 953c c5dd a23b
00000030: 75ed 60bd 9c16 a03c d24c 1abc ce81 10bc
00000040: 2125 983c a059 b43c e7c7 a13c 4952 2cbd
00000050: 4361 eeba 2c50 4e3c 839f a5bc 1ebd a3bb
00000060: 9efc 863c f80b 1abb e4dc 0dbd 648f b7bc
00000070: e5f0 a1bc dac9 52bc 8fcc 593c 785d f9bc
00000080: 954a 9a3c 8272 5d3c e99b 04bc 68e9 8b3b
00000090: 0b83 7d3d 8a91 b33c 185f 97bc 1118 19bd
000000a0: 666d 17bd 07f5 9cbc d7cf 4aba 50fd dfb9
000000b0: c058 053c 094c c43c a69f 9f3c 7dad a03c
000000c0: 6922 20bc 4209 9fbc 6f5d 893c 63c0 c33c
000000d0: 64f9 35bd f35e 7f3b ff9d 633b feea 7ebd
000000e0: 0362 62bc 88c7 e4bb d909 693c 0c32 453b
000000f0: 20c7 ab3a 0948 9fbb 15d4 153c 7352 023d
00000100: 3de7 fd39 040c 34bd 25af c9bc 16ab ce3c
00000110: 541c 54bd 9774 133d fb06 0f3c dc38 3f3c
00000120: 943b acbc 65ee 21bc 22ae 873c 2135 823c
00000130: 580c e4bc 2fec 85bb a73f 833c 9303 38bc
00000140: 16e3 e3bc 0a1c 69bc d235 383d bb60 243c
00000150: daa4 2d3d 5c4f 5ebd a7f5 b4bc 9513 90bc
00000160: 6c13 a1bc f425 8dbc ec40 10bd afa7 d3ba
00000170: c9e0 f3bb cd8a ddbc 3865 d3bc 1169 583d
00000180: 7eaa 09bd 17a8 bdbc 7f60 aabc 2bb5 99bb
00000190: f598 44ba 5378 22bc ba49 79bc 4c2d 98ba
000001a0: e723 0a3d 2906 153c aa62 aa3b 59a6 c53a
000001b0: ba99 84bb 318d e03b 4c9c 803c 85a7 d8bb
000001c0: 9482 333d 5e0a fcbc 9583 4a3b 483f 74bc
000001d0: fa29 23bd 1264 f2bc 2c7f 8fbc ea1e 883b
000001e0: d4a2 d3bc e9b7 dfbc ca5d 0bbd 8816 023d
000001f0: 2bbd 01bd b4c9 8b3d cbee 54bc ddc4 f83b
-0.00067188364 -0.0044206027 -0.0034745985 -0.025915308 0.031049827 -0.031882256 -0.02666706 -0.04116385
-0.011325192 0.018153407 0.01821236 0.0049702846 -0.054913957 0.019542031 -0.009417729 -0.00882001
0.018572392 0.022015393 0.019748641 -0.04207066 -0.0018186945 0.012592357 -0.020217663 -0.0049969098
0.01647788 -0.002350567 -0.034634486 -0.022407241 -0.019768188 -0.012865508 0.0132933995 -0.030440077
0.018834392 0.01351607 -0.0080938125 0.0042697676 0.06189255 0.021919984 -0.018477961 -0.037376467
-0.036969565 -0.019159807 -0.0007736659 -0.00042722607 0.008138835 0.023962038 0.019485306 0.019613976
-0.009773829 -0.019413594 0.016768185 0.023895448 -0.04442729 0.0038966506 0.0034731624 -0.062235825
-0.013817313 -0.006981794 0.014223539 0.0030089645 0.0013105609 -0.004860882 0.009144803 0.03181691
0.00048428206 -0.04395677 -0.024619648 0.025228065 -0.05178483 0.03599986 0.008729692 0.011671271
-0.021024503 -0.009883498 0.016562525 0.015894474 -0.027837917 -0.004086993 0.016021563 -0.011231321
-0.027818244 -0.014227876 0.044973202 0.010032828 0.042393543 -0.0542749 -0.022089792 -0.017587462
-0.019662581 -0.017230012 -0.035218164 -0.0016147996 -0.007442568 -0.027043724 -0.0258051 0.052834574
-0.03360986 -0.02315144 -0.020797966 -0.0046907864 -0.0007499599 -0.009916383 -0.015215332 -0.0011610179
0.033725645 0.009095707 0.00519975 0.0015079483 -0.004046646 0.006852769 0.015699528 -0.0066117668
0.0438257 -0.030766662 0.0030901183 -0.014907666 -0.039834954 -0.029588733 -0.017516695 0.004154076
-0.025834478 -0.027309375 -0.03402499 0.03175977 -0.031674545 0.06825581 -0.012996386 0.0075918273

network_body._body_endoder.seq_layers.2.weight f4 [128, 128]
00000000: 227c 29be 1167 193e cda4 33be bced 54be
00000010: 0f15 093d 90bb c5bd 0ce1 db3d 876b c0bc
00000020: bfb2 54bd 0db0 043d f6a2 97bd fa7f ddbd
00000030: c9db d43c cf6d 87bd 87f5 343d fda6 f93d
00000040: d07f b5bc bb95 64bd b076 2fbe 95bf be3c
00000050: 148d 2f3e 4386 993d 5024 b4bd dab6 813b
00000060: 9ee4 e6bd f916 fc3b 7ae6 94bd 4290 edbd
00000070: f420 043e e27f 9b3d 9dff 123d 9e81 7dbd
00000080: 43f1 263d b489 933d eba3 cb3d 8e14 673d
00000090: d27a 51bb 4dfa e9bd dfed 89bd 0ebf efbc
000000a0: e475 173e 66ea 083d 9da9 a6bd 5e35 5a3d
000000b0: dcf1 1abd a98b 0ebe 0a48 743d 8e55 8f3d
000000c0: 6e9c cc3c 3a67 9cbc b694 91bd a6a4 3f3d
000000d0: e31a 4a3d 7984 2e3d b605 75bd 632a aabc
000000e0: 5c0c f53d c96a 553d bf1f 6cb9 5ced 7d3c
000000f0: 33d7 563d 5a47 e13d 3071 3a3e 01bc 87bd
00000100: 43ab 6d3d b6ae e23c 92de 48bc f5da aeba
00000110: cdfc e9bd 273d c0bc 524c 98bd 650f bc3d
00000120: c985 36bd cb79 23bd 24d8 abbd 5e93 053d
00000130: 15dd 2dbe 1511 3bbc cb11 b0bd 725c af3d
00000140: 322c d63c 80df 03bc ef4c cd3b b66a c83d
00000150: 629c 7cbd f07d 1c3e 5d54 bcbc 68fe 4d3e
00000160: ef66 773e cf2a 653d 480d 173d 0ca3 b4bd
00000170: f11c 9a3d 73ff 66bc 41a8 8abd 61fb 183d
00000180: 4470 1b3e f85b 23be c6de 613d 2126 1a3d
00000190: 5ebd b5bd 9373 ee3c f0d8 a93d c788 583d
000001a0: ce80 5fbe 9598 45bd 5251 a1bc 973b 943d
000001b0: 61ca 473c 2b7f ea39 6991 64bd f338 6f3c
000001c0: c2a9 4f3d 2b5f e73c d48f 0a3d a15e 253e
000001d0: a2d1 7e3d 37dc e93d 4253 10bd 7155 b2bd
000001e0: a5fe a1bd 9cf5 b93e be88 ddbc 2c9a 7cbe
000001f0: deed 133e 2c04 b03d 9b9f 8b3d b063 98bd
00000200: 139b 423c 0c63 e63d 6d1c 02be 511e 94bd
00000210: 48ca 1e3c d669 5d3d ccf4 c93d 5507 c53d
00000220: c627 e3bd 3bff d3bc 8295 d23d b8d9 2a3c
00000230: baa1 173c 31f4 15be b2e3 c3bc e432 89bd
00000240: 7717 f83d 2c03 123d 4540 093c 692b b73d
00000250: 5b93 6dbd 30d1 383e ba90 663d 6ec9 27be
00000260: 7acc 733c 2106 fa3d 6b17 a53e 0fd8 14bd
00000270: 9a52 11bc 1651 a1bd 1e03 05bd e5cf 0abd
00000280: 4b6e d4bd 0aed 2bbd a732 80bd 7365 59bd
00000290: 1501 bcbc 5d50 9c3c 4c60 8d3d 00b3 8fbd
000002a0: c34f b9bd 96b6 943d 190b c8bc 18ed d6bd
000002b0: 64fb d1bd 1592 7c3d e652 87bd a92b 0a3b
000002c0: 301d 073e 09d4 9cba 3c39 0cbd 4ccc 19be
000002d0: a831 c13c 6322 57be ffaa 01be 6822 1dbe
000002e0: 294b ea3d 262c dcbd 87da f1bb 62a8 1d3c
000002f0: 3c36 cebd 2bf3 7abd b52c c63d 4530 463c
00000300: 1316 a23c 92e7 3bbd 3c30 4abd 9f97 87bd
00000310: 2196 8e3d 55e4 66bc abbe 973d 0fbe 123e
00000320: e7a3 51bd 0d41 f83b 1487 c8bc 8bd4 433d
00000330: cf19 183d ed68 aa39 4cf0 2f3d 9ea2 b13b
00000340: 90a9 cbbc c0bc 133e 328d 7b3d f662 07bd
00000350: 0e06 cebd a869 ad3d 9b58 1b3d 984e 69bd
00000360: 86e3 b7bd 5352 ba3c d868 50bd e855 f43b
00000370: c7d5 a23d 7d0e d33d 09fa e73d 572c a43d
00000380: de9b cfbd 3e6b 1dbd 2fbc 163e 3e44 a13c
00000390: 5a22 41bc f883 59be 5984 64bd a52b 833a
000003a0: 6efd 1b3d 0c50 ccbb b916 0b3c 4541 073e
000003b0: b0f0 09bd d0e7 8bbb 2ca5 d7bd d582 debd
000003c0: d996 b8bd 4566 93bb e17d b43d 508a 24be
000003d0: 66eb 533e 06c3 f9bd 128f df3d 405f cdba
000003e0: 47d2 ec39 fa63 233c 92f7 b33d 8f50 41bc
000003f0: 02ed fbbc 823c edbd d9ab 31bd 473e 583c
-0.16551259 0.14980723 -0.17543335 -0.20793813 0.03346735 -0.09654915 0.10736284 -0.023488773
-0.051928278 0.032394458 -0.07404129 -0.10815425 0.025983708 -0.06612741 0.044179466 0.121900536
-0.022155672 -0.055806857 -0.1713512 0.023284713 0.17143661 0.074963115 -0.087959886 0.003958565
-0.11274074 0.0076931682 -0.072705224 -0.115997806 0.12903196 0.07592751 0.035888303 -0.06189119
0.04075743 0.07203999 0.09943374 0.056416087 -0.0031964076 -0.11424694 -0.067348234 -0.029265907
0.14791065 0.033426665 -0.0813782 0.05327355 -0.03782831 -0.13920464 0.059639014 0.0699874
0.024976935 -0.019092191 -0.071084425 0.04678788 0.049342047 0.042606805 -0.0598199 -0.020772165
0.11965248 0.05210379 -0.0002251854 0.015498485 0.052451324 0.10999937 0.1820724 -0.06627656
0.058024656 0.0276712 -0.012260096 -0.0013340401 -0.11425171 -0.02346666 -0.07436432 0.09182624
-0.04456118 -0.039911073 -0.08390835 0.032611243 -0.16978867 -0.011417647 -0.08597144 0.085625544
0.02614412 -0.008048892 0.0062652747 0.097859785 -0.061672576 0.15282416 -0.022989446 0.2011658
0.2416036 0.05594903 0.0368779 -0.08820161 0.075250514 -0.01409899 -0.06770373 0.03734911
0.15179545 -0.15953052 0.055144094 0.03763402 -0.088740095 0.029107844 0.08293331 0.052864816
-0.21826479 -0.048241217 -0.019692097 0.07237928 0.012194247 0.00044726706 -0.055802736 0.01460098
0.050699003 0.028243622 0.03382857 0.1614938 0.06221164 0.11418956 -0.03523565 -0.08707703
-0.07909898 0.36320198 -0.027042743 -0.24668187 0.14446208 0.08594546 0.06817552 -0.07440889
0.011877793 0.112493604 -0.12706156 -0.07232345 0.009691782 0.05405601 0.098611444 0.09620539
-0.110915706 -0.02587854 0.102824226 0.010427885 0.009254867 -0.14643933 -0.023912285 -0.0669916
0.121138506 0.035647556 0.008377139 0.08943827 -0.058001857 0.18048549 0.056290366 -0.16385433
0.014880294 0.122082 0.3224443 -0.036338862 -0.008869791 -0.07876794 -0.032473676 -0.03388967
-0.10372599 -0.041974105 -0.06259661 -0.053075265 -0.022949735 0.019081289 0.06903133 -0.070165634
-0.090484165 0.07261388 -0.024419354 -0.10494441 -0.10253027 0.061662752 -0.066076085 0.0021083152
0.13194728 -0.0011965047 -0.03423427 -0.1501934 0.023583248 -0.21009211 -0.12662886 -0.15345156
0.11440117 -0.10750608 -0.007380787 0.009622665 -0.10068938 -0.06126706 0.09676496 0.012096469
0.019785916 -0.04587514 -0.049362406 -0.06620716 0.069622286 -0.014092525 0.07409414 0.14330314
-0.0511817 0.007576114 -0.024478473 0.04781012 0.037133988 0.00032503103 0.042953774 0.005420997
-0.024861127 0.14427471 0.06141395 -0.03305336 -0.100597486 0.08467418 0.037926298 -0.05695972
-0.089789435 0.022744333 -0.050881237 0.00745653 0.07950931 0.10305498 0.11326987 0.0801627
-0.10137151 -0.038432352 0.14720224 0.01968586 -0.011787975 -0.21241748 -0.05579028 0.0010007514
0.038083486 -0.0062351283 0.008489304 0.13208492 -0.033676803 -0.0042695776 -0.10529551 -0.10864798
-0.09013147 -0.0044982755 0.08813072 -0.16068387 0.20695266 -0.12195401 0.1091596 -0.0015668646
0.00045170097 0.009972567 0.08787455 -0.011798992 -0.030752663 -0.115838066 -0.043376777 0.013198442

network_body._body_endoder.seq_layers.2.bias f4 [128]
00000000: f5f2 41bc d138 54bb c79d d63b eacd f6bb
00000010: 72ef 403a 0243 e0bb 8926 82ba b723 3f3c
00000020: a3a7 d4bc aeb9 8cb9 aad7 04bc 1aa0 dfba
00000030: 5cb3 df3c 45a0 003c 9dea b439 c5c9 3bbd
00000040: 2625 a13b 132e 533b 7916 3abb 18ec e73b
00000050: 45ef b6ba b842 92bc 8f3b 13bb 4f84 5f3b
00000060: 07cc ee3b b98a 873c 9d07 b63c 39e3 813c
00000070: 02ff 85bc 101a cabc c751 fb3b f53e e83b
00000080: 6f9a d43a 8a54 6e3c 07f4 34bc 8ca9 a4bb
00000090: 47af 80bb e5c5 423b d9b7 78bd 633c c83a
000000a0: f659 94bc be0a 65bc 1c8d 7e3c fd51 023b
000000b0: f164 8ebc 2339 23bc 3e4b bebb 23b3 333c
000000c0: 805c 5a3b 2cd4 7f3c 62a0 dc3a e1a4 37bc
000000d0: 507e 6fbb 36ae 6dbc f29b 2d3c 911e dfbb
000000e0: 86a8 c5ba 01e7 12bd 34f8 6f3c 33e6 9f3c
000000f0: 597a a23c 029d 673c 53ee 8dbc 6700 f6ba
00000100: 8c54 fabc abd2 f5bc 529a 1abd a071 78bc
00000110: 1b92 82bb 54b0 33bb 93a5 043d 85b8 a13c
00000120: ba63 d83b c3bf a2bb 34a5 90bc d5e7 b13b
00000130: 9aa2 ab3c b281 863c 7e0b 6e3c 1972 ffbb
00000140: 3d20 cbbb c58e bc3c 3494 9b3c c9ec 96bc
00000150: abf3 d63b ca90 83bc b423 34bd 27c2 423c
00000160: 3c68 61bb b851 823c 64b2 5abd 65cb 67bd
00000170: ff77 2dbb ba9c 11bd 3fed 2fbc 1d6a 65bd
00000180: ff9c 2cbb 707f 283b 4b39 2b3c 474d a73b
00000190: e231 75bc 8a80 a4bc 7a4d 233c b715 a03c
000001a0: 4ac2 0dbb 782f a0bc e84f c13c d515 12bc
000001b0: aeaa 49bc 7d9a d5bc b551 a4bc 50cb 113b
000001c0: 2f24 dcbb 91af 01bd 4e2d 95ba 671f c239
000001d0: 70fc cc3c 83ef 5c3c f0ad 37bc 995a 64bc
000001e0: 3cc4 c53c 0bd6 bfba 08c5 23bc 7ce7 2abd
000001f0: a2d3 713c 3746 113c d661 0ebd 48a7 383c
-0.011837711 -0.0032382498 0.0065495702 -0.007531871 0.0007359899 -0.0068439255 -0.0009929697 0.01166623
-0.025958842 -0.00026841223 -0.008108059 -0.0017061264 0.027307205 0.007850711 0.00034507076 -0.04584672
0.0049177585 0.0032223507 -0.0028394742 0.007077705 -0.0013956806 -0.01785408 -0.002246592 0.0034105962
0.0072875055 0.01654564 0.022220427 0.015855419 -0.016356949 -0.02467063 0.0076696607 0.007087583
0.0016220341 0.014546523 -0.011044509 -0.0050250944 -0.0039271447 0.0029720005 -0.060722206 0.0015276786
-0.018109303 -0.013979612 0.015536573 0.0019885295 -0.017382117 -0.009962353 -0.0058073094 0.0109680025
0.0033319294 0.015614551 0.0016832466 -0.011208744 -0.0036543794 -0.014506867 0.010596262 -0.0068090637
-0.0015080131 -0.035864834 0.014646579 0.019518947 0.01983373 0.014136555 -0.017325556 -0.001876843
-0.030557893 -0.03000768 -0.037744828 -0.015163809 -0.0039847023 -0.0027418332 0.032384466 0.019741306
0.006603685 -0.0049667074 -0.0176569 0.005429248 0.020951558 0.016419265 0.014529107 -0.007795584
-0.0061989115 0.023017297 0.018991567 -0.018423455 0.006559809 -0.016060252 -0.04397936 0.01188711
-0.0034394404 0.015908107 -0.053392783 -0.056590457 -0.0026469228 -0.035549857 -0.010737716 -0.0560094
-0.0026338694 0.0025710724 0.010450671 0.0051056477 -0.014965506 -0.020080823 0.009967202 0.019541604
-0.0021630698 -0.019553885 0.023597673 -0.008916338 -0.01230876 -0.026074642 -0.020058492 0.0022246428
-0.0067181806 -0.031661574 -0.00113813 0.0003702596 0.025022715 0.013484838 -0.0112109035 -0.013937616
0.024141423 -0.0014635933 -0.009995706 -0.041724667 0.01475993 0.008866838 -0.034761272 0.011270352

action_model._continuous_distribution.log_sigma f4 [1, 2]
00000000: 27b6 89be 56ce 71bd
-0.26896784 -0.059034668

action_model._continuous_distribution.mu.weight f4 [2, 128]
00000000: 920b 7dbc 235e 07bd 4163 1e3d 2953 3c3c
00000010: f6e9 c0bb 3e65 65bc aac5 0abd 0355 203d
00000020: 9ed6 15bc a2c4 dd3c 74ce 883c 3888 efbc
00000030: e48f 333d bfaf 163d ce41 ac3a 931f c73c
00000040: 482c 0abd 863a 23bc 328a 1a3d 1cb6 323d
00000050: 7a7b 893b e728 2a3c fe18 02bc 09e0 1fbd
00000060: 9a2b 8fbd 24da 833d de7d db3d 3627 0abc
00000070: 152f 8c3c 44d6 87bc 1a76 fdbc c198 0b3d
00000080: 1531 6cbd 43a5 583d c312 14bd e1ff 2ebc
00000090: 1961 eabc c894 c93c 8bd0 89ba 273e 133d
000000a0: b4f7 9cbc 9d1c 2fbd 01d0 573d 1270 40bd
000000b0: 4a23 0e3c c120 d93c dc48 d9bc 2c55 4f3d
000000c0: a8fc 153d 4536 a2bd 215d f1bc dd24 b6bc
000000d0: 8477 21bd 35fa c93c e0ce 49bc 13e5 be3b
000000e0: e92f 40bd 7c64 85bc eb46 563d b4f7 923d
000000f0: 476a 0fb9 d28f 5a3d 6fea ddbc eba8 b2bc
00000100: a53b 44bc de3c 22bd 7bd4 4ebd 8636 cfbc
00000110: eca8 8c3c 6d3c 80ba 1d86 953b 0f6a d23c
00000120: 9264 75bc c8dc 57bc 729a 5a3c 661b 073d
00000130: 70fc 5c3d cd2e 723d f7fe 6b3d 0f4d 51bd
00000140: df95 b8bc ad5a 4a3d 2d8e 253c a728 2bbd
00000150: 8bec febb c079 48bd aa76 3cbc 1d6c 353d
00000160: 8bcb 60bc 94fa 693d 2694 883b 9cf4 67bc
00000170: 2725 82bd f463 32bc 6aff 1ebd c399 5d3b
00000180: 6f51 c2bb ed1d 063d 814d 903d 268d c1bc
00000190: 067e 39bd a57f 84bc 4e55 dc3c 7392 913d
000001a0: a682 1ebd edbe 1dbd df0e 50bd c42e abbb
000001b0: d314 cdbc 3e91 4dbd 315f ac38 a11d 30bd
000001c0: bae4 3dbc 0b94 5fbd ca33 55bd 4598 f1bc
000001d0: c5fb 203d f214 673d 9f43 80bc 3802 90bc
000001e0: 587a ba3d 24ea af3c bc9d b23b 338c 51bc
000001f0: e281 5ebd 4b46 a9bb 1a99 84bc f177 56bd
00000200: 890b e9bb d70b a7bc 31b4 10bc 4e7e 9f3c
00000210: a372 823c 19de 2fbd 121c 1c3d 5ee5 01bd
00000220: 1891 e33b b932 40bc e8c9 b43c 040e 063d
00000230: b174 493d 8551 503c 19f1 c13c af0c 5bbc
00000240: 7f13 513c 3e11 883c 1520 cf3b aae1 46ba
00000250: 5f86 2d3d 4f20 83bc 64a0 ab3b 67d2 2d3b
00000260: 8634 cf3b b69b 33bc bbb8 db3c 8c2d 1cbd
00000270: ab2e 8fbb 7763 e03c b971 59bd 86fd 633a
00000280: 6197 fc3c 1966 d4bc 0482 75bc de77 3d3d
00000290: 26a4 ca3c 14ab 353d 3151 bcbb e778 c3b9
000002a0: 0f0a 86bb af78 773c 2240 083c 3a82 c63c
000002b0: 9db8 053d 8e6f 733c d10b 0c3d 9bf0 9b3a
000002c0: 486c de3c e1c2 54bc b209 bb3c b6ce f53c
000002d0: 1615 083b bd18 8dbc c5bd 853c 89ab 743b
000002e0: 3e7b eebb 40b5 2ebc 2a53 e7bc ba96 2fbc
000002f0: c2ff 863c e705 3ebc eb31 86bc 33de c93c
00000300: 7f7e 503c 7b08 563c 781d d9bb 4136 1a3d
00000310: f998 3cbc 022f 423d 0846 38bd 7045 263c
00000320: 99c1 ef3b de66 0f3d ff49 7a3c 5e7f b8bc
00000330: 9d43 063c d5bb c5bb e77b 3dbc c729 03bc
00000340: 8459 323c abae 7f3d 4a76 5bbd 18e8 c5ba
00000350: f703 7b3c 2002 14bc 23c8 183c 704e 883c
00000360: 77e4 0ebc d97c 063d 2572 613c 00f1 603c
00000370: d615 c03c f878 e63c c514 0e3d 0873 4b3c
00000380: fb48 8bbb eecf c13c 3e33 ae3c b653 4dbb
00000390: 90b4 dcbb 10a5 933c b596 c93c 0d2c a63a
000003a0: 0489 42bc 3715 5bba 4d6e 2c3b c83d 893b
000003b0: b1c4 a839 f3f4 143c cb8f 1fbc 72ff a5bc
000003c0: 1d53 d53c da0c d03b e86f d1bc 2852 a43b
000003d0: 291f 043d c51c 2c3b c4a4 c33c 1075 bb3b
000003e0: d1b9 5739 5d6a 87bc b860 b03c a59c 2c3b
000003f0: f98f 83bc 0809 293d 4db1 623b afad 3d3c
-0.015444653 -0.03304876 0.038668875 0.011494436 -0.0058872653 -0.014001189 -0.033879913 0.039143573
-0.009145407 0.0270713 0.016700007 -0.029239759 0.043838397 0.0367887 0.001314217 0.024307048
-0.033733636 -0.009962684 0.03772945 0.043630704 0.0041956278 0.010385728 -0.007940529 -0.039032016
-0.06990738 0.064380914 0.10717367 -0.0084322 0.017112294 -0.016581662 -0.030940104 0.034081224
-0.057663996 0.05289198 -0.036150705 -0.0106811235 -0.028610753 0.024607077 -0.0010514421 0.035947945
-0.019161083 -0.042751897 0.052688602 -0.04698188 0.008675406 0.026504876 -0.026524 0.050618336
0.036617905 -0.07920507 -0.029463353 -0.022234375 -0.03942062 0.02465544 -0.012317389 0.0058256476
-0.04692069 -0.016283266 0.052313726 0.07176152 -0.00013677134 0.053359814 -0.027089326 -0.021809062
-0.011977111 -0.03960883 -0.050495606 -0.025294553 0.017170392 -0.0009783633 0.0045631067 0.025685338
-0.014977591 -0.013175197 0.013342487 0.032985114 0.05395168 0.059126664 0.0576162 -0.05109888
-0.022532402 0.04940288 0.010104698 -0.041786816 -0.007779663 -0.048944235 -0.011502901 0.044292558
-0.013720403 0.057123736 0.0041680513 -0.0141574405 -0.063547425 -0.0108880885 -0.0388178 0.0033813573
-0.005930118 0.032743383 0.07046033 -0.023626875 -0.0452862 -0.016174147 0.026896145 0.07108011
-0.038698815 -0.03851216 -0.050795432 -0.0052240808 -0.025034344 -0.050187342 8.21933e-05 -0.042997006
-0.011590177 -0.054584544 -0.052051343 -0.029491553 0.039302606 0.05641646 -0.015657244 -0.017579183
0.091053665 0.021473952 0.0054509323 -0.012789774 -0.054323085 -0.0051658503 -0.016186286 -0.05236048
-0.007111971 -0.020391388 -0.0088320235 0.019469406 0.015923804 -0.04293642 0.038112707 -0.031712882
0.0069447868 -0.011730843 0.022068933 0.03272821 0.04918355 0.012714748 0.023674535 -0.013369723
0.012760996 0.016609784 0.006320963 -0.0007586727 0.042364474 -0.016006617 0.005237626 0.0026523115
0.0063234 -0.010962417 0.026821485 -0.038129374 -0.004369577 0.027391179 -0.05308697 0.0008697141
0.030833902 -0.02592759 -0.014984611 0.046256892 0.024736475 0.044352606 -0.0057469835 -0.00037283378
-0.0040905545 0.015104457 0.008316072 0.024232019 0.032646764 0.01485814 0.034190957 0.0011897268
0.027151242 -0.012985916 0.022831772 0.030005794 0.0020764521 -0.01722371 0.01632584 0.0037333688
-0.007277875 -0.010663331 -0.028237898 -0.010717088 0.016479377 -0.011598087 -0.016381225 0.024642086
0.0127254715 0.013063545 -0.0066258274 0.037649397 -0.011511081 0.04740811 -0.044988662 0.010148391
0.00731678 0.03501021 0.015276431 -0.02252167 0.008194831 -0.006034354 -0.011565185 -0.008005566
0.0108856 0.062422436 -0.053579606 -0.0015099077 0.0153207695 -0.00903371 0.00932506 0.016638964
-0.008721462 0.032833908 0.013760124 0.013729334 0.023447912 0.028133854 0.034687776 0.012417562
-0.0042506433 0.023658719 0.021264669 -0.0031330413 -0.006735392 0.018023044 0.024607996 0.0012677923
-0.011873487 -0.0008357348 0.0026310862 0.004188273 0.00032190004 0.009091604 -0.009738873 -0.020263407
0.026040608 0.0063491883 -0.025566056 0.0050146766 0.03225628 0.0026262265 0.023882277 0.005720742
0.0002057322 -0.01653021 0.021530494 0.0026338485 -0.016059862 0.04126838 0.0034590543 0.011577054

action_model._continuous_distribution.mu.bias f4 [2]
00000000: a52b f13c f0bd f6bb
0.029439757 -0.0075299665

action_model._discrete_distribution.branches.0.weight f4 [1, 128]
00000000: edce cc3b 2670 043c 87b9 0b3c 03da 04bc
00000010: dae0 663b dc3c 253b dafb 563b eed6 973c
00000020: 078a bf3a c81c 60b7 2f56 82bc 7615 ba3a
00000030: 2895 b2bb ea8a 8d3b 7129 0c3c 2a55 6dba
00000040: 0025 febb fb33 2f3b 0c86 993b 70a3 4c3b
00000050: fa1a a4bb 8e26 0bbb 5874 59bc 2033 67bb
00000060: 731b e73b 4226 2cbb 35ea deba f539 8cbb
00000070: eba0 633b 886c 99bb ec41 893c 182e 893b
00000080: 772e b7bc 6b89 883c 275f 59bc 871d 98bb
00000090: 084e 4fbb 9f74 a03b 2a15 263c df60 a73c
000000a0: 0da2 6ebb 7321 633b b802 80ba f192 29bc
000000b0: 6a03 423c 4795 61bb b4b7 033c 9fc9 ccbb
000000c0: ab11 533c a497 2cbb da28 1339 81a2 2d3c
000000d0: 060a 3c3a 3f0c 91bc 7fa9 4d39 31dd 9dbb
000000e0: 52da 7fbc 41db 0cbb 071e 1f3b ad44 563b
000000f0: 8f06 ba3a 0b19 1bbb 33ef bbbb 93f5 61bb
00000100: e7a1 4e3c e32a 09bc e3a3 65bc d5e7 8cbc
00000110: 047e 883c 527e 75bc 4a1f 64ba c3e9 7e3b
00000120: 9f6a e53a 5d52 de3a 0fa5 ec3b 52e9 483c
00000130: 2871 8a3c b533 943b 0e7e 00bc 43a5 a73b
00000140: 57aa 5abc 7a9b 343c baf8 9a3b 3af8 0ebc
00000150: ff0d 1dbc 170d 143c 9233 28bb 19a7 a5bb
00000160: d7b9 4a3c 9a91 2c3c 813c 2abc 3410 1ebc
00000170: 7175 88bb 1188 8ebb 135a 40bc 83ff 6b3c
00000180: 3fe0 0f3c 1483 16bb e0f9 49bc b558 d1ba
00000190: 9146 37bb b4db 2dbc 3ecb 403c 2746 313c
000001a0: 827c c53c 8d80 763c 507f f23b 93ca 9f3b
000001b0: 8284 4ebc 123a d83b 906f 85bb 1fb4 a63c
000001c0: 32dc e53b b8aa c4bb 8b78 95bc 4ca1 82bc
000001d0: f73f 293c 67b3 113b 1113 b33b d595 c9bb
000001e0: 0ae0 63bc 53b5 b23c 5a03 0dbc 9f3e ce3b
000001f0: b831 15bc 7324 033b f444 983c a7ba 1abb
0.0062502534 0.008083379 0.00852812 -0.008108619 0.0035229237 0.0025213277 0.0032803924 0.018535104
0.0014613279 -1.3358142e-05 -0.015910236 0.001419707 -0.0054499097 0.0043195384 0.008554802 -0.0009053523
-0.0077558756 0.0026733864 0.004685169 0.0031225346 -0.0050080987 -0.0021232697 -0.013272367 -0.0035278276
0.0070528327 -0.002626792 -0.0017007055 -0.00427937 0.0034733366 -0.0046821274 0.016755067 0.004186403
-0.022361023 0.016667088 -0.013267315 -0.004642192 -0.0031632204 0.004896715 0.010136882 0.020431934
-0.0036412508 0.0034657388 -0.0009766435 -0.010349975 0.011841634 -0.0034421252 0.008039404 -0.006249621
0.01288263 -0.0026335502 0.00014034231 0.010597826 0.00071731245 -0.017706035 0.00019613466 -0.004817628
-0.015616016 -0.002149299 0.0024279372 0.0032694743 0.0014192628 -0.002366605 -0.005735302 -0.003447865
0.012611843 -0.008372041 -0.014016124 -0.01720039 0.016661651 -0.01498373 -0.0008702172 0.0038896657
0.0017503089 0.0016961802 0.007221825 0.012262659 0.01689966 0.0045227655 -0.007842554 0.0051161363
-0.013346276 0.011023397 0.0047293575 -0.008726174 -0.009585856 0.009036324 -0.0025665504 -0.00505532
0.012373409 0.010532761 -0.010390402 -0.009647418 -0.0041643907 -0.0043497165 -0.011740225 0.01440418
0.008781492 -0.0022966312 -0.012327641 -0.0015971871 -0.0027965645 -0.010611463 0.011767207 0.010819948
0.024107222 0.015045297 0.0074004307 0.0048764437 -0.0126048345 0.0065987194 -0.004072137 0.02034956
0.0070147747 -0.0060017966 -0.018245956 -0.015946053 0.010330192 0.0022232176 0.0054649194 -0.0061518946
-0.013908396 0.021814978 -0.008606756 0.006294086 -0.009106092 0.002001074 0.018587567 -0.0023609789

exp_avg f4 [128, 109]
00000000: 0400 0000 5a4f 033a 0000 0000 4874 86b9
00000010: 8ef4 6c39 9ff3 9e39 324e 3cba 0000 0000
00000020: 98e9 2c3a efe9 243a 0000 0000 93f9 84b8
00000030: 9e1f 2f39 06b2 1339 aed5 0139 d6d5 a639
00000040: 7e1c 11ba 0000 0000 908d fb39 8cf9 8139
00000050: 0000 0000 a847 25b8 746f 9137 67bc 8b39
00000060: 425f 7839 f82f 1b38 b33e 1fb8 0000 0000
00000070: 41ac 8039 6e86 0a39 0000 0000 db76 abb7
00000080: fa5e 8db9 6820 0c3a c2b2 ed39 aaee ba39
00000090: 0111 ebb8 0000 0000 4d2d f2a6 52e8 3339
000000a0: 0000 0000 d375 33a9 8ed2 7f39 004c 0235
000000b0: 5074 8a38 42ee c239 ad87 05b9 0000 0000
000000c0: 4d2d f2a6 245d 0b39 0000 0000 1038 7890
000000d0: 737f 7eb9 226a ff39 e652 d439 e4a0 d639
000000e0: f6ec 2cb9 0000 0000 4d2d f2a6 6238 f438
000000f0: 0000 0000 1038 7890 9862 fd38 8aa3 0139
00000100: b031 2a39 ea99 cb39 05df 16b9 0000 0000
00000110: 4d2d f2a6 7b01 0739 0000 0000 0e65 2c07
00000120: a4fd 7439 a973 3537 e35c a838 5a44 833a
00000130: 7e73 46ba 0000 0000 4d2d f2a6 4aeb 4a39
00000140: 0000 0000 0e65 2c07 a4fd 7439 a973 3537
00000150: 142a 9f38 2bb0 843a 1e4b 49ba 0000 0000
00000160: 4d2d f2a6 a516 2339 0000 0000 0400 0000
00000170: a4fd 7439 a973 3537 371a 9a38 2c62 fa39
00000180: 8d6f 74b9 0000 0000 4d2d f2a6 cc93 fa38
00000190: 0000 0000 0400 0080 a4fd 7439 a973 3537
000001a0: 067c 9838 0000 0000 20d3 4d3a 6e2a 0030
000001b0: d49f b93b 0400 0080 ce3c 22bb 0000 0000
000001c0: 44a5 c139 361e f7ba 3bf8 38ba 8e66 463b
000001d0: 0000 0000 5218 91bb fbf7 61bb 0000 0000
000001e0: 0071 2e39 6394 c5ba 1694 48ba 1c25 45ba
000001f0: cc8d 64ba 23e5 143b 0000 0000 d2c9 65bb
00000200: de5e 10bb 0000 0000 2733 a238 d0fd 48ba
00000210: 97b4 b9ba 696c b0ba 300a 92b9 0ea2 6d39
00000220: 0000 0000 fea0 06bb 1c14 e4ba 0000 0000
00000230: a3c1 c537 b3d3 c239 1cee 23bb a876 10bb
00000240: d504 32bb c1f2 1f3a 0000 0000 947a 6528
00000250: 9720 e1ba 0000 0000 77b8 392a d224 11bb
00000260: 9095 e338 943a 98b9 b079 25bb 4a8c db39
00000270: 0000 0000 947a 6528 38c9 a8ba 0000 0000
00000280: bc6b 4711 9a67 25ba 7a5c c1ba 1891 b2ba
00000290: 7ce0 35bb 6461 2f3a 0000 0000 947a 6528
000002a0: 3c41 92ba 0000 0000 bc6b 4711 6df8 edba
000002b0: 765f 98b9 8fa6 10ba e631 37bb fca6 343a
000002c0: 0000 0000 947a 6528 e59a 97ba 0000 0000
000002d0: 878b 0288 042a 03bb 99c4 dbb8 c135 ceb9
000002e0: e221 a2bb a03b 3a3b 0000 0000 947a 6528
000002f0: 20a0 b3ba 0000 0000 878b 0288 042a 03bb
00000300: 99c4 dbb8 a9a8 c4b9 ad37 a2bb 3667 3a3b
00000310: 0000 0000 947a 6528 b476 97ba 0000 0000
00000320: 0400 0080 042a 03bb 99c4 dbb8 1e67 bfb9
00000330: a006 33bb f2f9 233a 0000 0000 947a 6528
00000340: 97f5 78ba 0000 0000 0400 0000 042a 03bb
00000350: 99c4 dbb8 01b9 bdb9 0000 0000 f423 25bc
00000360: 2608 8ab1 ca02 4abd 0400 0000 e383 c539
00000370: 0000 0000 cc9a 4839 72d3 1c3a 3664 d439
00000380: 05f7 4cba 0000 0000 8cad 773a e6bd 873a
00000390: 0000 0000 fe41 8db8 275a 6639 b3f4 d939
000003a0: 0f2d cf39 65fd f539 d5a0 1aba 0000 0000
000003b0: c88a 343a 9529 103a 0000 0000 7ba4 0eb7
000003c0: dbc0 3239 f6e5 d439 69b5 d639 9a8e ca39
000003d0: be1c dab8 0000 0000 e1c9 9539 06c2 cc39
000003e0: 0000 0000 6b4c b9b8 d378 c4b8 4ca1 443a
000003f0: 1a62 2e3a e66c 3b3a 0711 1ab9 0000 0000
6e-45 0.0005009078 0.0 -0.00025645108 0.00022597818 0.0003031762 -0.0007183283 0.0
0.00065960875 0.00062909623 0.0 -6.340737e-05 0.00016701079 0.00014085331 0.00012382 0.00031821307
-0.00055355567 0.0 0.00047979923 0.00024790724 0.0 -3.94058e-05 1.7337246e-05 0.00026652517
0.0002368661 3.6999554e-05 -3.7966947e-05 0.0 0.00024542402 0.00013210785 0.0 -2.0440135e-05
-0.0002696438 0.0005345405 0.00045337348 0.00035654503 -0.000112088404 0.0 -1.6804402e-15 0.00017157316
0.0 -3.984818e-14 0.00024397133 4.853937e-07 6.602018e-05 0.0003718008 -0.00012734412 0.0
-1.6804402e-15 0.0001329077 0.0 -4.8952565e-29 -0.00024270806 0.00048716465 0.00040497555 0.00040937134
-0.00016491473 0.0 -1.6804402e-15 0.00011645329 0.0 -4.8952565e-29 0.000120823446 0.00012363322
0.00016230973 0.00038833852 -0.00014388196 0.0 -1.6804402e-15 0.00012875155 0.0 1.2969539e-34
0.00023364142 1.081537e-05 8.028166e-05 0.0010014877 -0.000757031 0.0 -1.6804402e-15 0.00019351873
0.0 1.2969539e-34 0.00023364142 1.081537e-05 7.5895485e-05 0.0010123303 -0.0007678735 0.0
-1.6804402e-15 0.00015553327 0.0 6e-45 0.00023364142 1.081537e-05 7.348175e-05 0.0004775686
-0.00023311209 0.0 -1.6804402e-15 0.00011948458 0.0 -6e-45 0.00023364142 1.081537e-05
7.271026e-05 0.0 0.00078515895 4.6626425e-10 0.005664805 -6e-45 -0.002475548 0.0
0.0003693496 -0.0018853608 -0.0007056032 0.003027353 0.0 -0.004427948 -0.0034480083 0.0
0.00016636029 -0.001507413 -0.0007651461 -0.00075204833 -0.0008718639 0.0022719584 0.0 -0.0035062921
-0.0022029202 0.0 7.73429e-05 -0.00076672155 -0.00141682 -0.0013460043 -0.0002785488 0.00022662451
0.0 -0.0020542736 -0.0017401013 0.0 2.35744e-05 0.00037160292 -0.002501375 -0.002204338
-0.0027163525 0.0006101542 0.0 1.27386335e-14 -0.001717585 0.0 1.64953e-13 -0.002214719
0.00010852062 -0.00029035343 -0.0025249533 0.0004187546 0.0 1.27386335e-14 -0.0012877351 0.0
1.573153e-28 -0.00063096883 -0.0014752292 -0.0013623564 -0.0027752211 0.00066902325 0.0 1.27386335e-14
-0.0011158357 0.0 1.573153e-28 -0.0018155702 -0.00029062823 -0.0005517983 -0.0027953326 0.00068913377
0.0 1.27386335e-14 -0.0011566548 0.0 -3.9284466e-34 -0.0020014057 -0.00010479353 -0.00039331432
-0.004947887 0.0028416887 0.0 1.27386335e-14 -0.0013704337 0.0 -3.9284466e-34 -0.0020014057
-0.00010479353 -0.00037509695 -0.0049504847 0.0028442866 0.0 1.27386335e-14 -0.0011555762 0.0
-6e-45 -0.0020014057 -0.00010479353 -0.00036507187 -0.0027317181 0.00062552013 0.0 1.27386335e-14
-0.0009497045 0.0 6e-45 -0.0020014057 -0.00010479353 -0.00036186728 0.0 -0.010079373
-4.017255e-09 -0.049319066 6e-45 0.0003767303 0.0 0.00019131153 0.00059824355 0.00040510454
-0.0007818791 0.0 0.0009448163 0.0010356277 0.0 -6.735696e-05 0.00021968094 0.0004157178
0.00039515688 0.00046918835 -0.00058985996 0.0 0.0006887135 0.000549936 0.0 -8.502156e-06
0.00017047247 0.00040607125 0.00040952422 0.0003863469 -0.00010400404 0.0 0.00028569906 0.0003905447
0.0 -8.8357214e-05 -9.3685136e-05 0.0007500842 0.00066521915 0.0007149711 -0.00014692928 0.0

exp_avg_sq f4 [128, 109]
00000000: 789b 2c2f 607f 5336 0000 0000 aa44 9237
00000010: c01a 9b37 a4d2 2736 6038 a036 0000 0000
00000020: 47c3 5e37 1f6d 8d37 0000 0000 381d a435
00000030: 2ab0 6135 cbc6 9e37 efc4 a037 76df 4237
00000040: 8e0a 3c36 0000 0000 ab74 d636 1b22 6437
00000050: 0000 0000 81ce a934 0964 2e36 1a73 9537
00000060: c9d2 9637 a326 9837 2389 2d36 0000 0000
00000070: 3e2c 0735 74f8 0637 0000 0000 c90e 1f34
00000080: 280a 7f36 f43a 8f37 c898 8f37 6341 9e37
00000090: 3101 f735 0000 0000 ca1b c231 c9b1 a436
000000a0: 0000 0000 89bf e133 6907 d436 5056 6d37
000000b0: 0836 7137 2d4e a437 95d6 9b35 0000 0000
000000c0: ca1b c231 5b5e 6836 0000 0000 56af bb33
000000d0: 1663 5337 f5c1 0137 0e6a 0d37 1d50 a537
000000e0: 970f 8935 0000 0000 ca1b c231 4a87 3036
000000f0: 0000 0000 008d aa33 6032 9037 e541 5736
00000100: 0570 8e36 95a7 a037 3559 cb35 0000 0000
00000110: ca1b c231 977f 0d36 0000 0000 3721 3833
00000120: f425 ad37 937d e133 eb6f be35 1953 9d37
00000130: 041d 0636 0000 0000 ca1b c231 05c5 f435
00000140: 0000 0000 c7ad fc31 a5a8 ad37 c5a8 b533
00000150: 0ee9 a735 71f4 a137 437c cf35 0000 0000
00000160: cd1b c231 a43d e635 0000 0000 d9ce 5c30
00000170: f8a9 ad37 c5a8 b533 ab8a 9c35 8cd4 a337
00000180: 27b1 ab35 0000 0000 cd1b c231 ae35 e235
00000190: 0000 0000 c78c fa2f 2ead ad37 c5a8 b533
000001a0: 0200 9935 0000 0000 aef7 ad39 5a73 ae24
000001b0: 763e 383c f01b 2130 cbfb f037 0000 0000
000001c0: 101c a939 9a3a ad39 f4a3 3237 2c0a 5338
000001d0: 0000 0000 5c07 9739 6b0d a739 0000 0000
000001e0: f957 2e37 8758 2238 db3d 9f39 d313 a039
000001f0: 9f8c c538 8a62 6438 0000 0000 7db3 5239
00000200: bdc5 9439 0000 0000 de2e 3c36 33bd de38
00000210: 075e 7b39 fca6 7e39 2354 9039 c883 6238
00000220: 0000 0000 d9f8 0138 ff40 4f39 0000 0000
00000230: eff3 d535 36f2 1839 2b2b 5739 3433 5939
00000240: 54ae a339 d1ff 1238 0000 0000 2812 8234
00000250: 1157 ff38 0000 0000 541d c035 9c9b 5839
00000260: 6260 0f39 e20a 1539 98ac a639 a45a 0538
00000270: 0000 0000 2812 8234 a752 b238 0000 0000
00000280: 9773 a935 76cc 9039 4ed9 8738 db80 9c38
00000290: b765 a939 f372 e637 0000 0000 2812 8234
000002a0: 9b39 8838 0000 0000 d863 8f35 9324 a839
000002b0: 9ca0 d037 37ae 1838 3aa9 a539 3c4b f237
000002c0: 0000 0000 2812 8234 4887 5d38 0000 0000
000002d0: 5d6f 2d35 0fe0 af39 9d11 5137 60c7 c537
000002e0: 2dfb a439 bcb0 0f38 0000 0000 2812 8234
000002f0: f8f9 4138 0000 0000 d392 0234 9a14 b039
00000300: 8768 4a37 e94d b937 6f55 ac39 dfac d037
00000310: 0000 0000 2812 8234 b131 3738 0000 0000
00000320: 01a8 4332 9c26 b039 8768 4a37 053e b337
00000330: 2f59 ac39 205a a837 0000 0000 2812 8234
00000340: 9615 3338 0000 0000 4653 0f31 1d2b b039
00000350: 8768 4a37 055a b137 0000 0000 7f79 023c
00000360: 69af b626 330b 433e ef7d 0630 45e7 7836
00000370: 0000 0000 e894 be37 4e8a c937 5012 8b36
00000380: 9496 9a36 0000 0000 8522 9537 4e54 ba37
00000390: 0000 0000 3417 1d36 e379 7135 7f7a c537
000003a0: aa88 ca37 4916 7b37 2bf2 7036 0000 0000
000003b0: f290 0a37 4f78 8c37 0000 0000 8e82 8935
000003c0: 7b8e 7536 27ac bb37 3600 bd37 a646 c137
000003d0: ef71 4536 0000 0000 7677 8435 1074 2d37
000003e0: 0000 0000 df2d 1c35 73a8 a636 c31e b637
000003f0: 0045 b637 a07d ca37 c7bc 2136 0000 0000
1.5698542e-10 3.1515592e-06 0.0 1.743653e-05 1.8489896e-05 2.5007548e-06 4.7749345e-06 0.0
1.3277698e-05 1.6859323e-05 0.0 1.2227456e-06 8.4075384e-07 1.8927638e-05 1.916519e-05 1.161533e-05
2.8020327e-06 0.0 6.391279e-06 1.35978e-05 0.0 3.1628954e-07 2.5986249e-06 1.7815782e-05
1.7979548e-05 1.8137804e-05 2.5858833e-06 0.0 5.03558e-07 8.04487e-06 0.0 1.4813408e-07
3.8003873e-06 1.707438e-05 1.7118073e-05 1.8865516e-05 1.8403281e-06 0.0 5.6493024e-09 4.908278e-06
0.0 1.0512219e-07 6.318955e-06 1.4146397e-05 1.43772995e-05 1.9586727e-05 1.1610852e-06 0.0
5.6493024e-09 3.4625616e-06 0.0 8.7397595e-08 1.259965e-05 7.734158e-06 8.428948e-06 1.9706838e-05
1.0211833e-06 0.0 5.6493024e-09 2.6304792e-06 0.0 7.9418896e-08 1.7189595e-05 3.2075852e-06
4.2449706e-06 1.9151523e-05 1.5150641e-06 0.0 5.6493024e-09 2.1084904e-06 0.0 4.2871047e-08
2.064088e-05 1.0500221e-07 1.4188676e-06 1.8754554e-05 1.9984445e-06 0.0 5.6493024e-09 1.8236757e-06
0.0 7.3539215e-09 2.0701738e-05 8.459168e-08 1.2510297e-06 1.9306523e-05 1.5458867e-06 0.0
5.6493037e-09 1.7154275e-06 0.0 8.032948e-10 2.0702355e-05 8.459168e-08 1.1663263e-06 1.9530089e-05
1.2792051e-06 0.0 5.6493037e-09 1.6853935e-06 0.0 4.5574763e-10 2.070385e-05 8.459168e-08
1.1399391e-06 0.0 0.00033181667 7.5655884e-17 0.011245361 5.861116e-10 2.872748e-05 0.0
0.000322551 0.00033040793 1.06478e-05 5.0315793e-05 0.0 0.00028806448 0.0003186272 0.0
1.0391691e-05 3.8706257e-05 0.0003037293 0.00030532348 9.419885e-05 5.4451208e-05 0.0 0.00020094025
0.00028376086 0.0 2.8041463e-06 0.00010621026 0.00023972253 0.00024285534 0.00027528507 5.400533e-05
0.0 3.0987754e-05 0.00019765271 0.0 1.5940731e-06 0.0001458608 0.00020520079 0.00020713807
0.00031219667 3.504736e-05 0.0 2.4227597e-07 0.00012175565 0.0 1.431365e-06 0.00020657334
0.00013673448 0.00014213801 0.0003179058 3.1794087e-05 0.0 2.4227597e-07 8.5030966e-05 0.0
1.2625122e-06 0.00027618156 6.477778e-05 7.462661e-05 0.00032309975 2.7471664e-05 0.0 2.4227597e-07
6.495715e-05 0.0 1.0683389e-06 0.00032070707 2.4870322e-05 3.6401874e-05 0.00031597336 2.8883682e-05
0.0 2.4227597e-07 5.2816496e-05 0.0 6.4609577e-07 0.00033545538 1.2461472e-05 2.3577071e-05
0.00031467658 3.4258454e-05 0.0 2.4227597e-07 4.6247587e-05 0.0 1.2160608e-07 0.00033584685
1.2064475e-05 2.2089998e-05 0.0003287005 2.4876032e-05 0.0 2.4227597e-07 4.367688e-05 0.0
1.13886935e-08 0.00033598102 1.2064475e-05 2.1367343e-05 0.00032872843 2.0069128e-05 0.0 2.4227597e-07
4.269703e-05 0.0 2.0856574e-09 0.00033601458 1.2064475e-05 2.1141963e-05 0.0 0.007963537
1.2676332e-15 0.19047241 4.892788e-10 3.7089496e-06 0.0 2.2719105e-05 2.402547e-05 4.1446547e-06
4.6070872e-06 0.0 1.7778259e-05 2.2212185e-05 0.0 2.340833e-06 8.9956865e-07 2.3541272e-05
2.4143916e-05 1.49659545e-05 3.5903747e-06 0.0 8.259189e-06 1.6745324e-05 0.0 1.0245292e-06
3.659078e-06 2.2372302e-05 2.2530654e-05 2.3040291e-05 2.9421606e-06 0.0 9.869534e-07 1.0338626e-05
0.0 5.818128e-07 4.9667956e-06 2.1710415e-05 2.1728221e-05 2.4138775e-05 2.4100752e-06 0.0

exp_avg f4 [128]
00000000: 6e2a 8039 2608 0abb a6e8 143a 9a13 3db9
00000010: 9f7c f0ba b25b c7ba b757 04ba c0f5 7737
00000020: 7349 48b8 a962 ef38 8ba8 e9ba 2a1b 03ba
00000030: 8bca 3137 2073 3db8 dc7d bd37 e8c9 19ba
00000040: cf74 83ba 4847 4838 2933 3d3a 4c0d efb9
00000050: 7a05 9739 588b 2039 2c49 3c37 608d 25b8
00000060: 7483 5d3a 0f43 10ba 69c5 a0ba fe90 c537
00000070: 5c28 af3a 20b2 5338 0ad9 903a 98e6 8d36
00000080: af82 b7ba 7a22 f139 209f f437 f329 1638
00000090: 540e 043b d8bf deb9 b201 2237 fea6 10b7
000000a0: 166e d739 3a3a af38 7bb6 993a e564 57ba
000000b0: aaf6 2138 3cb6 49ba dc78 043a 79f9 71ba
000000c0: f069 f4b7 a758 84b9 2a67 3a3a 69ab ae3a
000000d0: 16de 8cba a625 fa3a 18d7 a03a 44c5 86b7
000000e0: a8eb 67b9 7a8e b1b9 ae69 eeb8 aa65 003a
000000f0: dd87 ba38 7c43 a4b6 0e1b 1c38 81fa ecba
00000100: f704 4938 c2e9 7bb8 d547 3938 2e74 523a
00000110: c4b8 e938 efbb 3dba 1234 cd39 1036 8ab8
00000120: a5f0 5cb9 1f7e bcb9 8864 3137 0b71 7138
00000130: a619 d637 1cbd c439 8120 4aba 8c66 2c39
00000140: 7087 5e38 e885 9238 80a2 deb6 3e71 d339
00000150: ac5c b638 e970 1d38 3ca6 43ba c29a 3cba
00000160: 3624 6139 38e8 c838 da80 a636 677c 823a
00000170: 745f 38b9 7068 c138 280c 88b9 47af dfba
00000180: 899f 3839 1076 7ab8 c762 8bba 56f2 2239
00000190: f616 20ba 1450 5a37 1eae e6b7 4c96 34ba
000001a0: 95bf 973a 007b 343a c450 1339 eda0 8c39
000001b0: 5ce0 2d37 e4a5 5139 0a90 763a bb4f 023a
000001c0: 3028 df39 e01b 0838 1888 07b8 a01f d7b8
000001d0: 0f33 9837 a5d5 c039 cb35 053a d9c6 38b9
000001e0: 9cea 9639 36e1 0d38 803c 4639 7487 983a
000001f0: 0c38 c1b6 f0fa bf3a 3d5d 3838 deeb dd39
0.00024445675 -0.0021061986 0.0005680419 -0.00018031747 -0.0018347687 -0.0015209822 -0.0005048471 1.4779565e-05
-4.775212e-05 0.00011414785 -0.0017826719 -0.0005001301 1.059718e-05 -4.516833e-05 2.2589164e-05 -0.0005866573
-0.0010029319 4.77501e-05 0.0007217401 -0.0004559554 0.00028805045 0.00015310699 1.122271e-05 -3.947073e-05
0.0008450069 -0.00055031566 -0.0012265864 2.3551747e-05 0.0013363468 5.0472212e-05 0.0011051011 4.228972e-06
-0.0014000739 0.0004599279 2.9161165e-05 3.5801855e-05 0.0020150142 -0.00042486074 9.656347e-06 -8.62195e-06
0.00041090016 8.355496e-05 0.0011727357 -0.00082166336 3.8615115e-05 -0.00076946965 0.000505341 -0.0009230595
-2.9136398e-05 -0.00025243053 0.00071107096 0.0013326231 -0.0010747339 0.0019084706 0.0012271134 -1.6065904e-05
-0.00022117666 -0.00033866224 -0.00011368409 0.00048979616 8.894478e-05 -4.895437e-06 3.7218495e-05 -0.0018080027
4.792676e-05 -6.0060767e-05 4.4174336e-05 0.00080281764 0.00011144721 -0.0007237782 0.00039139442 -6.590423e-05
-0.00021070482 -0.00035952122 1.0573429e-05 5.7564157e-05 2.5522731e-05 0.0003752493 -0.0007710532 0.000164414
5.305506e-05 6.9867645e-05 -6.635033e-06 0.00040329428 8.695698e-05 3.7536873e-05 -0.00074634305 -0.00071946916
0.00021471162 9.579997e-05 4.962186e-06 0.0009955288 -0.00017583166 9.22241e-05 -0.00025948999 -0.0017065787
0.00017607039 -5.97146e-05 -0.0010634296 0.00015539801 -0.0006106937 1.3012457e-05 -2.7499216e-05 -0.0006888851
0.0011577482 0.00068847835 0.000140491 0.0002682278 1.0363841e-05 0.00019993592 0.0009405619 0.0004970987
0.00042563817 3.2450887e-05 -3.2313255e-05 -0.000102578895 1.8143588e-05 0.0003678027 0.0005081563 -0.00017621684
0.00028785027 3.3826764e-05 0.0001890529 0.0011637048 -5.758373e-06 0.0014646929 4.3955853e-05 0.0004232814

exp_avg_sq f4 [128]
00000000: 5a73 ae37 69af b639 9928 e037 1825 0637
00000010: 8311 5d39 9738 8338 fb8a 1237 c330 6235
00000020: e1c4 ba33 677d 4834 676e 9339 5916 3b39
00000030: cb20 3f31 e8d6 8b38 fa56 1a35 b70a c236
00000040: 53f3 6f38 ce23 1e35 e2aa 6838 07f5 8336
00000050: 5a29 3d38 a176 ca35 6032 4e34 d2c1 1a38
00000060: a265 2839 fe7e 9637 d582 1d38 8261 dc32
00000070: f734 ae38 1f2d 3636 0e25 0339 f469 7c34
00000080: 7270 f038 f5a0 2f37 97fd 4c36 4e5e 4534
00000090: e841 a239 bad1 1239 161c ea31 c233 b632
000000a0: 11dc 8736 c42b de34 a34c 3138 822b 4037
000000b0: 2b6f 5435 854e 1639 e130 ad38 c791 d637
000000c0: 20f8 f536 11a7 b737 1d2b 6f39 0df7 1d39
000000d0: 381e 4438 a0d8 9339 3968 dc38 c237 9632
000000e0: 101b 3238 a0db e538 cdff a734 f44d b738
000000f0: b191 7335 4229 5f33 4e1e 4535 b3ce 4439
00000100: 3a42 8a34 3a5e 0634 2ab4 b033 f4fb 8739
00000110: 82a7 db35 93c3 0638 6bf4 9136 7603 2038
00000120: 4dd5 5d37 fdb7 7d37 58bd 0835 2db7 8734
00000130: 7f76 9032 6bbd b838 68a8 4b38 1511 8d37
00000140: 4f0a 8537 7bea 1837 58a7 a037 ddb7 4e38
00000150: b0cc 3b37 e31d 8b32 b21b 0c38 c97b b937
00000160: 0eac 2d36 572d 3b34 f8e5 5e30 bc54 2339
00000170: bc98 bc37 e059 7438 948a 4937 6d40 7638
00000180: 5377 0f37 67f0 5438 248d b038 86de f135
00000190: 4c5a a837 df81 ee32 ed1d 8e34 7543 f636
000001a0: 28bd 7c39 e598 fa38 80a0 8838 a847 f937
000001b0: 19e1 4034 4865 a437 48b3 0139 6db4 2f37
000001c0: 179b 3838 948a fb33 b0fc b635 307c 8f37
000001d0: d7b8 8e33 b540 bf37 7dbb cd37 bfb0 8535
000001e0: cf09 6338 683f 8032 0c46 a135 1583 3539
000001f0: 3b0c 3a32 b9be ce39 e5a4 8534 4bc5 0238
2.0796131e-05 0.00034844436 2.6721786e-05 7.995659e-06 0.00021082726 6.2571075e-05 8.734637e-06 8.426252e-07
8.697112e-08 1.8672073e-07 0.0002812028 0.00017842035 2.7812799e-09 6.668066e-05 5.749604e-07 5.782898e-06
5.7208654e-05 5.891169e-07 5.5472257e-05 3.932629e-06 4.5099623e-05 1.5084698e-06 1.9203571e-07 3.689697e-05
0.0001605959 1.7940529e-05 3.7553564e-05 2.5655712e-08 8.306832e-05 2.7146377e-06 0.00012506937 2.3507874e-07
0.000114650364 1.0468289e-05 3.0545978e-06 1.8381363e-07 0.00030948152 0.00014001774 6.8134893e-09 2.1211125e-08
4.0489326e-06 4.1382566e-07 4.2271462e-05 1.1454222e-05 7.9137925e-07 0.00014334366 8.258387e-05 2.557867e-05
7.3304545e-06 2.1893096e-05 0.00022808877 0.0001506472 4.6758185e-05 0.00028199423 0.000105098305 1.7487654e-08
4.246371e-05 0.00010960479 3.1292294e-07 8.74064e-05 9.0736563e-07 5.1958757e-08 7.343232e-07 0.00018769018
2.575269e-07 1.2514002e-07 8.22841e-08 0.00025936926 1.6365523e-06 3.2130232e-05 4.3497907e-06 3.8150196e-05
1.3222289e-05 1.5122813e-05 5.093948e-07 2.5278987e-07 1.6817692e-08 8.8090856e-05 4.8555812e-05 1.6816464e-05
1.5859636e-05 9.1145e-06 1.9151412e-05 4.9285463e-05 1.1193726e-05 1.619532e-08 3.3404394e-05 2.211136e-05
2.5879158e-06 1.7432227e-07 8.1089935e-10 0.00015576457 2.2482469e-05 5.8257836e-05 1.2012799e-05 5.871097e-05
8.5512465e-06 5.076863e-05 8.4186235e-05 1.8020662e-06 2.0069208e-05 2.7765905e-08 2.6471335e-07 7.3392243e-06
0.00024103059 0.00011949408 6.514881e-05 2.971648e-05 1.7963283e-07 1.9597486e-05 0.00012369186 1.04728215e-05
4.4013457e-05 1.17133055e-07 1.3633598e-06 1.7104758e-05 6.6460125e-08 2.2799106e-05 2.452521e-05 9.960712e-07
5.4130152e-05 1.4929995e-08 1.2015821e-06 0.00017310337 1.0829406e-08 0.0003943348 2.4893157e-07 3.117816e-05
