Project specific/results/JumperAgentReport/JumperAgent/JumperAgent-77545.onnx (onnx, 127520 bytes, 8 tensors)

network_body._body_endoder.seq_layers.0.weight f4 [128, 109]
00000000: 8d09 aa3d 8763 68be f35e 143e 92b2 b0bd
00000010: 9d9d 0abe b4b0 f93c 9147 203e dacc 123e
00000020: c063 0fbe d240 193d 48d3 c53d 932e 5ebd
00000030: 06b7 99bd 6ed7 04be a67d f4bb f799 0abe
00000040: 6e55 4e3e 03d4 53bd eadd f8bd 34de 89bd
00000050: 535c ccbc d215 873d 49bb 11be 73b3 d839
00000060: f56b 283e 1d12 6e3d 6dec d63b 29fd c13a
00000070: 18cc 8bbd 4562 7abd 58a8 d03d 4336 503d
00000080: ec85 d33b 16e1 e4ba 26f9 b43d 9be2 243b
00000090: 3354 c7bd f834 c23d 0ead 6abd 481e aebd
000000a0: 8e18 073d 3a89 0ebe 8098 4fbd da80 9e3d
000000b0: 5d0a a23c 9651 e53d 3839 b73d 423f ab3c
000000c0: c900 c53d 9c17 e03c dfc5 01be 2ac0 0b3d
000000d0: 4d2a cd3d 130a 433d eee4 253c a754 943d
000000e0: 7385 02be e029 ff3a 9466 0bbe c3b6 013d
000000f0: 8c15 70bd 399d a73d f605 05be f6ba 82bd
00000100: 4ef1 bf3d 8ce8 1c3e 7dcf a3be 8bb5 8ebd
00000110: 59c0 90bd 8a75 1ebe 3cda db3d 9473 f2bd
00000120: 8ecd e9bd 1b3a d03c 316e 1e3d 6261 303e
00000130: fd03 85bd 3004 31b9 10e3 69bd dee0 aabd
00000140: d044 24bb 0d66 c6bd 1648 1d3d 270c 163e
00000150: a905 a43d f018 3b3d af2b 15be 40cb 26bd
00000160: 4397 c9bd d567 d33d 24d9 52bd 8dab 5cbe
00000170: b2bc e03d 6b17 393d d9fd 5b3e 515f bab9
00000180: 1873 be3d bc3c 4fbe 5b2d 0fbc aac9 a5bd
00000190: 49e7 ff3c 4ca6 3a3e 8eae b4bd 8df4 243e
000001a0: c565 92bd 2c4a 39bd 2579 e6bd 7fdd adbd
000001b0: db74 b1bc b6f8 48bd 3f8f da3c 7434 fc3c
000001c0: c777 49be 29ee 25be 1946 283d e749 453e
000001d0: 60e6 373b 5003 09bd 0438 b6bd 1bd3 40bd
000001e0: 1d65 003a 3dec a4bd b039 8bbd 1979 04be
000001f0: 28dc 8e3c e6f7 e9bd 006a c23c 31a0 e13d
00000200: 2aba 0fbe e9fd 533e 75cb e4bc 9dc2 24be
00000210: 6dbf 1b3e beb6 fbbd 0091 ddbd 149f cabd
00000220: 6cdf e43c 14e6 41bc 694a f2bd 0a05 37bc
00000230: f98e 553c 6f44 fcbd 6553 d53d 65e6 e2bb
00000240: 76d2 18be 0ef2 18be 917c 113e 1d2e c33c
00000250: 0ccc 87bc 7c33 3abc 53b9 babb d1e1 393d
00000260: bc8a 53bd 3b90 ce3d e22e 0fbe f3cf 5bbd
00000270: 92e2 4d3c cd3a af3c 23af 66be ee0e 8bbd
00000280: 6797 973d 0d5d d0bd 70e3 9f3e cf13 353b
00000290: 437c 9fbd 3d3d 3cbd f8c6 af3c ffc9 2e3e
000002a0: b924 e1bd 48fa bc3a d4fa 2c3c ade0 97bd
000002b0: 8cab 0e3e 36a8 a63d cd14 00be 6cca 77bd
000002c0: 2a47 51bd 2b5f 083e 9d2c c1bd 8ef4 283d
000002d0: 6a13 003d 3ecc 4abd 2bb2 cbbd b184 1bbd
000002e0: fce9 38bd ca2b 0e3e d8de 913d 4897 2b3e
000002f0: 4bff 793b dad9 173e eef1 ef3d 6af2 ce3d
00000300: a797 21be b405 0bbd 04ea edbd 2e73 223e
00000310: 13a0 903d dd09 77bd 5e80 6b3d dcdb cdbd
00000320: 42c6 e73d 41aa 70be 1802 6abd 7a80 7bbd
00000330: cc95 debc 6ff9 503d 07ec a4bd 5345 023e
00000340: b35e 4fbe f394 a4bd 8e56 3b3d ad66 2cbd
00000350: c124 17be 6fbb 2a3d 89e5 2b3d 2e38 0f3d
00000360: 7464 273d 7212 0d3e 6d39 38bd 9723 2e3e
00000370: c59b 11be 5282 d03c ed80 15bd 1f22 d03d
00000380: 2cf9 013c 4471 3dbc 88e8 ae3d c653 d4bd
00000390: 0596 9bba e044 4fbd 97db 01be 0f9b d93d
000003a0: 14d2 c8bd 4ed2 5e3c 8684 e6bd b9c5 f0bd
000003b0: 2128 203e 38db 813c 62b5 07be 9a6e 063e
000003c0: baca debd 01c4 93bd 62e3 883b b919 233c
000003d0: 7405 553e d352 45bd 39d2 05be 3ba7 c2bd
000003e0: 02a0 3fbd caed f23c a7e3 27bd f5e6 73bd
000003f0: e778 413e 7eca 07be 5a7a 843e 6814 e13b
0.08302603 -0.22694217 0.14489345 -0.086278096 -0.13536687 0.030479766 0.156523 0.14335957
-0.14002895 0.037415333 0.09659439 -0.054243635 -0.07505612 -0.12972805 -0.0074612675 -0.13535295
0.20149776 -0.051715862 -0.12151702 -0.06731835 -0.024946367 0.06595959 -0.142316 0.0004133243
0.16447432 0.058122743 0.006558946 0.0014800179 -0.06826037 -0.061128873 0.10188359 0.050832998
0.0064551737 -0.00174621 0.08836584 0.0025159481 -0.097328566 0.09482759 -0.057293944 -0.085018694
0.0329824 -0.13919535 -0.050682545 0.0773942 0.019780332 0.11197202 0.089464605 0.020904187
0.096192904 0.027355008 -0.12673138 0.03411881 0.10017834 0.04761703 0.010125382 0.07242709
-0.1274622 0.0019467436 -0.13613349 0.031668436 -0.0586143 0.08184285 -0.12990555 -0.06383316
0.09372197 0.15323085 -0.31994238 -0.0696822 -0.070679374 -0.15474525 0.10734984 -0.11838451
-0.114161596 0.025418332 0.038679305 0.17224649 -0.06494901 -0.00016881595 -0.05710131 -0.08343671
-0.002506543 -0.096874334 0.038398825 0.14653073 0.08008892 0.04567808 -0.14567445 -0.040721178
-0.09843304 0.10322539 -0.051476613 -0.21549816 0.10973491 0.04518835 0.21483554 -0.000355477
0.09299296 -0.20238012 -0.008738841 -0.08095105 0.031238215 0.182275 -0.08822356 0.16108914
-0.07148317 -0.04523675 -0.11253575 -0.08489513 -0.021662166 -0.049065314 0.026679633 0.03078673
-0.19674598 -0.16204132 0.041082475 0.19266473 0.0028060898 -0.033450425 -0.08897403 -0.047076326
0.00048978796 -0.080528714 -0.067981124 -0.1293682 0.017438963 -0.11424236 0.023732185 0.11016882
-0.1403586 0.20702328 -0.027929047 -0.16089864 0.15209742 -0.12290715 -0.10818672 -0.09893623
0.027938567 -0.01183464 -0.11830599 -0.011170635 0.013034576 -0.1231774 0.10416297 -0.006924438
-0.14924034 -0.14936087 0.14207675 0.0238257 -0.01657679 -0.011364814 -0.005698362 0.04538137
-0.05164598 0.100861035 -0.13982728 -0.053665113 0.012566226 0.021390343 -0.22527747 -0.06789957
0.074019246 -0.10173998 0.3122821 0.0027630215 -0.07787373 -0.04595684 0.02145718 0.17069243
-0.109933324 0.0014417851 0.010557849 -0.074159004 0.13932627 0.081375524 -0.12507935 -0.06049578
-0.051093258 0.13317554 -0.094323374 0.04124885 0.031268515 -0.049511187 -0.09946092 -0.03796834
-0.04514502 0.13883892 0.07122582 0.16756928 0.0038146551 0.14829198 0.11716066 0.101048306
-0.15780507 -0.033940986 -0.116169006 0.1586425 0.07061782 -0.06031214 0.057495467 -0.100517005
0.113171116 -0.23502447 -0.057130903 -0.06140182 -0.027171038 0.05101913 -0.08052831 0.12721758
-0.20250969 -0.08036222 0.04573684 -0.042090107 -0.14760114 0.041682657 0.04196695 0.034965687
0.040867284 0.13776568 -0.04497664 0.17005764 -0.14219578 0.025452767 -0.036499906 0.10162758
0.007932942 -0.011562649 0.085404456 -0.10367541 -0.0011870271 -0.050602794 -0.12681423 0.10625278
-0.09805694 0.013599945 -0.112557456 -0.117564626 0.15640308 0.015851602 -0.13252786 0.13128129
-0.10878511 -0.07215119 0.004177497 0.009954863 0.20802861 -0.04817469 -0.13068475 -0.09504553
-0.046783455 0.029654402 -0.04098859 -0.05954643 0.18893777 -0.13260838 0.25874597 0.0068688877

network_body._body_endoder.seq_layers.0.bias f4 [128]
00000000: 508c 1e3c 5ae6 09bd d28f 563b d192 27bc
00000010: 757e 3fbc b8c3 973b 264a 48bc 36ef d8ba
00000020: 5170 d03c 259c cabc 8527 7cbd 7e2a 9e3a
00000030: a5cc a43c 5ac7 49bd d824 c6bc c47a e23c
00000040: 39bf 2abd 4293 74bd 6130 31bd 316f ea3c
00000050: cd80 0cbc e319 80bb ba62 51bc 7b12 e93c
00000060: bb3c 27bc 3aba 093d 9ce0 52bb e82f 28bb
00000070: 850c 4abb fff2 c9bc 1331 c13c 036d cebc
00000080: f85f 003c edb7 5d3a 1ae1 813c bf6d 6bbc
00000090: de2e 003c 0de1 dabc da0e 9c3b 3fe3 a53b
000000a0: f968 803c dec3 9e38 d2a9 61bd b645 87bc
000000b0: d291 2cbc 5e2b 2a3c 2fa0 2c3c fb72 86bc
000000c0: ccc6 a6bc 1234 2dbc 5c96 953b 73cf aebc
000000d0: 8411 8cbd 522f dcb8 ef2c a7bb 8d65 1abd
000000e0: 7417 d63b fd64 ba3b 66c1 9fbc 7b08 3dbc
000000f0: 64b6 e73a 92cf 28bc 3c53 c1bc 163f c83c
00000100: 31fc 213d 8b00 e9bc 47a9 10bd 0fa7 e13a
00000110: cc2e e4bb 483e 86bc aea4 cabc 755f afbc
00000120: a10e 8e3c 6399 e4bc 93b2 173c c8ad 19bd
00000130: b003 b5bb fe60 9fbc 778d d7bb 50a4 9dbc
00000140: 05fe 57bc 96f4 993a e8cf 0ebd 50b1 82bb
00000150: 8fb2 4b3c 4f97 9a3c e2d1 25bd 339e 1ebd
00000160: ba5c bdbc 53f0 b33a d818 94bc 6d09 3fbd
00000170: 188d 94bc 4160 bc3b 5469 e6bc aa8c 27bd
00000180: 993a bbbb bd97 9c3b 6de8 0dbb 9c6c 5cbc
00000190: 9807 6cbd e346 f2bc a9c9 933b 8715 d13c
000001a0: 3004 d7ba 5f56 833a 9e29 6bbc 0149 603b
000001b0: 13b1 9a3c 8ea0 a13c 6b17 08bc 86e6 27bb
000001c0: c388 bf3c 8125 8cbc 4e92 783c 00e6 593c
000001d0: 419b b73c 37c4 b93b caef 253c ecd3 a53c
000001e0: 17b4 b7bc 9411 a9bc 674a dcbc 3f2a af3b
000001f0: 1202 88bc c5c4 f93b ad22 21bc bb58 d33c
0.009677008 -0.033666946 0.0032739532 -0.010227875 -0.011687865 0.004631486 -0.01222471 -0.0016550783
0.025444182 -0.024732659 -0.061561126 0.0012067107 0.020117113 -0.049262382 -0.02418749 0.02764643
-0.04168627 -0.05971075 -0.04325903 0.028617473 -0.00857563 -0.003909336 -0.012779886 0.028451195
-0.01020735 0.033624865 -0.0032177335 -0.002566332 -0.0030830216 -0.024652002 0.02358297 -0.025198465
0.007835381 0.0008457888 0.015854407 -0.014369427 0.007823674 -0.02671864 0.0047625126 0.0050624902
0.015675055 7.57051e-05 -0.055093594 -0.016512733 -0.010532813 0.010386316 0.010536238 -0.016412249
-0.020358466 -0.010571497 0.0045650434 -0.021339154 -0.06839278 -0.000104992316 -0.005101792 -0.037694503
0.0065335575 0.0056883083 -0.0195014 -0.011537666 0.0017678258 -0.010303395 -0.02359926 0.024444144
0.03954715 -0.028442642 -0.035317685 0.0017215925 -0.0069635864 -0.01638712 -0.024736729 -0.021407822
0.01734096 -0.027905172 0.009258884 -0.037519246 -0.005524121 -0.01945543 -0.006578143 -0.01924339
-0.013183122 0.0011745866 -0.034866244 -0.0039884225 0.012432708 0.018870978 -0.040483363 -0.03872509
-0.023115505 0.0013728238 -0.018078253 -0.04663985 -0.018133685 0.005748779 -0.028126396 -0.040905632
-0.0057137725 0.004778831 -0.002165343 -0.013453629 -0.05762443 -0.029574817 0.0045101237 0.02552296
-0.0016404446 0.0010020247 -0.014353184 0.0034223201 0.018883264 0.019729879 -0.0083063645 -0.002561958
0.023380643 -0.017107727 0.0151716005 0.013299465 0.022412898 0.0056691426 0.010127971 0.020242654
-0.02242474 -0.020638265 -0.026890947 0.0053456123 -0.01660255 0.0076223337 -0.0098349275 0.025799146

network_body._body_endoder.seq_layers.2.weight f4 [128, 128]
00000000: 44af f83c d017 103d 69dd 023e 9f7e d7bb
00000010: db3a 54bc 6a72 2bbd dc4a 5f3c fa33 0e3e
00000020: 3137 c73d fa31 8fbd e242 b9bb e243 9c3d
00000030: fd1a f83c addd dd3c 6e7f f03c abae 0a3e
00000040: f0a4 543d 726d dabd 5288 12be e4ac 5bbe
00000050: b84d 473e f4de 453c a52f c4bc 6b8a 75bc
00000060: 7b87 9abd 2f54 cabc ef44 c9bc 9b0e 9d3d
00000070: 8101 11bd 5b8e 1dbe 7846 84bd f8aa 75bd
00000080: 2ff0 89bb 3025 8abd 13e2 6e3d ada9 c53d
00000090: 2069 983d 2bb8 773d 9994 5fbd 83b6 47bd
000000a0: 1a9b 513d a383 d73d 620c b03c e0a6 703d
000000b0: a044 e1bd 6fab 98bb a744 f5bc dfe8 423e
000000c0: e62e 80bd 4049 a0bc 41bf 2fbe 7234 103e
000000d0: a4a6 f8bc bf2c 31bd c016 04be 9bea 023e
000000e0: 2b51 68bd 8111 e53c f7b9 c53d ac73 d13d
000000f0: cea4 4eba 84f0 0abb 9488 b53d a972 aabc
00000100: af6e a13d 2ed9 b6bd d158 0e3d d524 073e
00000110: 9968 b73c fe20 b03d c787 92bd 6f8b 60bc
00000120: 612e cebd 5840 f7bc 8bbd 57bd 014d 9abd
00000130: 7746 213d d83c f23d cd38 0fbe 3b53 0d3d
00000140: e05c 573e fd69 88bc 459d 563d 3ecb 73bd
00000150: 531a 28bd 8949 e8bc 7701 173e b55b 873c
00000160: f749 c23c a679 9bbd ad80 a4bc dd51 a13c
00000170: 7908 5fbd 2d23 ef3d 2ef2 1bbd dee6 9ebc
00000180: ffb6 c7bd 06c9 bfbd 3a11 f13c 11e4 3abc
00000190: 106b 833d 18d8 313d ee44 1bbe caeb cf3c
000001a0: aea2 2e3e ae51 823c 9481 4cbd a5fd 5dbd
000001b0: 4d7f b53c bf6c d13b fc7a 24bc 73c7 693b
000001c0: 14ad f2bd 0be8 2bbe b589 58bd 83a3 8cbd
000001d0: 05da e9bc 11e7 02bc b16e a8bd 23a6 75bd
000001e0: c0b4 943d 347b 443d 7f55 aabd 21a4 753c
000001f0: b272 9e3d ea00 e1bd 679f 90bd 843f 013d
00000200: 620e 8f3b aff1 253d ce61 b93d 00a3 f93d
00000210: dc6c b8bc 4b67 8d3d 868d 8dbb 0987 ae3d
00000220: 6559 6cbe 37a3 8c3d ed86 0a3e 68d5 01be
00000230: f742 773d 5c64 3b3d 0b69 53be 015d a43d
00000240: ee81 b83d bc47 d43d c4c5 b6bd d7a2 66bd
00000250: 92a7 2c3d 53f8 723e 503e c03c b646 f53d
00000260: 181c 903c 7c46 afbd c0b8 beba c313 1f3e
00000270: d598 6e3d acc2 28bd 7b1b 373b 9d12 f3bb
00000280: 4775 18bd 4427 c83d 0e2f 65bd c111 f0bd
00000290: a450 9c3c e0f7 24bd 6ae6 54bc 6984 dfbb
000002a0: 7c34 d53c d6ae a63d 1bc1 c0bd 7db1 dd3c
000002b0: eda1 2bbc 91cb c9bd 99b4 55be 3c7d 403e
000002c0: 268c 123e 1ef0 913d a8d6 4d3c 2172 7b3d
000002d0: 9116 b7bc eed8 a83d 0e6d 8abc c73a 9abd
000002e0: 5fec 27be 625b 853d e3b1 b13c 173f 93bc
000002f0: 135c 143e db9c 8ebd 25bb f33c aa15 8e3d
00000300: dc3d 0b3c 6950 13be 944e 18bd b046 a73d
00000310: c80b 9a3d 9b71 35be ba43 9a3c 4235 fb3b
00000320: 8a17 d33d 59b4 82bd d6ca 783d ab1e b33d
00000330: e244 d93d a8df 8c3d 48ec fdbc 8511 ab3d
00000340: aaf4 133c ee91 3e3d 39c5 80bd e51a 613c
00000350: 1bc7 a53c 9ee3 ffbd bcbd 1b3d c341 19bc
00000360: 8646 a03d 7a81 293e 6637 8c3d 507f 6d3d
00000370: 0887 763d 7f70 4f3b 21a5 9b3d b512 babd
00000380: aa2f fc3c a7c6 8f3c d668 a5bd 3ded cb3d
00000390: e711 54bd f33c 963b dc0c 87bc a46b a13d
000003a0: 6c2d 333e c682 96bd 43f8 47be 893e e03d
000003b0: 1672 5d3c 3e3a d03c 9d95 44bd 21d5 ccbd
000003c0: cf6a 073e 991a 0a3e bad4 403c 3295 9abd
000003d0: 0661 573b 69d9 9abb 6e39 a43c 1c3f e13d
000003e0: d5d8 1fbd 4ae1 063d ce16 df3d f4a9 c3bd
000003f0: 3e49 bfbc 6d73 2dbd ba0e 1fbe 3ca7 1dbc
0.03035701 0.03517896 0.12779774 -0.0065763737 -0.012953485 -0.04185716 0.013628688 0.13887015
0.09727324 -0.06991954 -0.005653725 0.07630135 0.030286307 0.027083242 0.029357638 0.13543193
0.05191511 -0.10665406 -0.14309815 -0.21452671 0.19463241 0.012077082 -0.0239485 -0.014986615
-0.07545372 -0.024698345 -0.024569003 0.076688014 -0.035401825 -0.15386336 -0.06458753 -0.0599775
-0.0042095403 -0.06745374 0.05832107 0.09651504 0.07441926 0.06047837 -0.054585073 -0.04875804
0.051173307 0.105231546 0.02149028 0.058752894 -0.10999417 -0.0046591084 -0.029939963 0.19034146
-0.06258945 -0.019566178 -0.17162801 0.14082506 -0.030352898 -0.043255564 -0.12899303 0.12784807
-0.056718033 0.027962448 0.096546106 0.10227141 -0.0007882834 -0.0021200487 0.08863941 -0.020806627
0.07882439 -0.089281425 0.03475267 0.13197644 0.022388743 0.08600043 -0.07154804 -0.013705119
-0.1006744 -0.030182049 -0.052670997 -0.075342186 0.03937384 0.11828011 -0.13986512 0.034503203
0.21031523 -0.016652102 0.052396078 -0.05952 -0.04104073 -0.028355377 0.14746653 0.016523222
0.02371691 -0.07591562 -0.020080889 0.019692356 -0.05445144 0.11676631 -0.038072757 -0.019397195
-0.097517006 -0.09364514 0.02942716 -0.011406914 0.06416905 0.043418974 -0.15163013 0.025380988
0.17054245 0.015908089 -0.049928263 -0.054196972 0.022155428 0.0063911374 -0.010039087 0.003567186
-0.11849418 -0.16787736 -0.052865703 -0.06867125 -0.028546343 -0.007989661 -0.08224238 -0.059972893
0.07261038 0.04796906 -0.08317088 0.014992745 0.0773672 -0.109865025 -0.070616536 0.031554714
0.0043657282 0.04051369 0.09051858 0.12189293 -0.022512846 0.06904467 -0.0043198494 0.0852185
-0.23080976 0.06867068 0.13528033 -0.12679064 0.060366597 0.045750007 -0.2064554 0.080255516
0.09009157 0.10365245 -0.089244395 -0.05630764 0.042151995 0.2372754 0.023467213 0.11976378
0.017591521 -0.08558366 -0.0014550909 0.15534882 0.05825122 -0.04120128 0.0027939964 -0.0074179904
-0.03722122 0.09773114 -0.055953078 -0.11722136 0.019081421 -0.040275455 -0.012994388 -0.0068212044
0.026026003 0.08138816 -0.09411832 0.027062172 -0.010475618 -0.0985328 -0.20869674 0.18797773
0.14311275 0.07125877 0.012563385 0.06138814 -0.022349628 0.08244501 -0.016897704 -0.07530742
-0.16398762 0.065115705 0.021691268 -0.01797442 0.14488249 -0.069635116 0.029752323 0.06937726
0.008498635 -0.14386143 -0.037184313 0.081677794 0.07521778 -0.17719118 0.018831123 0.007666261
0.10307224 -0.06382055 0.060740314 0.08746084 0.106088415 0.068785965 -0.030996457 0.08352951
0.0090305 0.04652589 -0.06287617 0.013739322 0.020236542 -0.124945864 0.03802274 -0.009354058
0.07825951 0.16553298 0.06846504 0.057982743 0.06018737 0.0031652746 0.07599855 -0.09085599
0.030784447 0.01755078 -0.080766365 0.09957359 -0.051774886 0.0045849024 -0.016485624 0.07881859
0.17497796 -0.07349162 -0.19528298 0.10949428 0.01351597 0.025418397 -0.047994245 -0.100015886
0.13224338 0.13486709 0.011769468 -0.07547988 0.0032864227 -0.0047256243 0.020046916 0.10998365
-0.039025147 0.032929696 0.108930215 -0.095539 -0.023350354 -0.042346407 -0.15532961 -0.009622391

network_body._body_endoder.seq_layers.2.bias f4 [128]
00000000: f804 bfbc 35ce 863c 0d31 d6bb 40a1 9dbc
00000010: e31b d7bc 8ae1 8abc cd6f 86bc 2eff a1bc
00000020: b073 03bb 20a2 9bbc 9017 04bc fccb b63c
00000030: e147 c839 9f3d 37bc 9519 ad3b a742 823b
00000040: 39a4 883c 2b83 143c 898b ddbc 8fa2 4ebc
00000050: e9eb a6bc a6fd 98bb b5cd 483b 03c1 8fbc
00000060: 2f7e 77bc 186b 8ebc 4d67 e0bb 0d3a 5c3c
00000070: c70d 82bc 40bd 39bc a246 bfbc 749e 193c
00000080: 5a88 c7bb 2423 8cbc ace1 8fbc 5034 0d3d
00000090: 4f50 a93b 617c 013d 83d0 e3bc 38ed 773b
000000a0: 4734 1cbc 6844 883c 7d5a efbc f8b3 b0bc
000000b0: fa7a 833c 1880 0439 d354 e8b9 2b26 533b
000000c0: d166 72bb 2c69 b6bc 8735 9ebb 7411 cbbb
000000d0: 1a1f 7a3c 67ba 573c 3237 81bb 6306 143b
000000e0: 0578 b9bc 3229 c0bc 43a1 cd3c 501b 7fbb
000000f0: 4b0f 8a3c a269 063c 75a4 51bc 2dd2 8cbc
00000100: 9741 1a3c f03a e2bc 849f b0bc 1113 133b
00000110: 5567 90b9 f771 b93b a0a6 0a3c 9a47 12bb
00000120: 987e 95bc 46ff d73b 874f 313c 77a1 573c
00000130: 8be3 57bb ba3d ad3c a124 c63b 525d 97bc
00000140: 175f 043c a0a2 2fbc 1acd 52bc cdf8 cabc
00000150: bf1f 0cbc 9f0b 4cbc 43a4 93bc 25ce 823c
00000160: ab89 55bc 704e b63c 1ef1 26bb 4337 73bb
00000170: 2f50 703c 111e 89bc 1e47 95bc d689 7f3c
00000180: abb1 b03c 4608 5d3c 9466 8f3c 1400 b93b
00000190: 01cb 483c f750 973a 4082 813c 6c09 813b
000001a0: 69d1 08bc bafe 54bc 8981 233b 5ab1 983c
000001b0: 0485 143b ffae d1bb 25cf 2c3c 8b7a 673c
000001c0: 4f2d b13c b263 fa39 a874 613c 6a6d 6dbc
000001d0: 81b3 20bc d1e5 3dbc 7e3d 803c b1e6 0bbc
000001e0: 488d 823b cb10 58bc ffc0 3f3c e1a8 68bc
000001f0: 0632 70bc 1eb5 98bc a2e7 95bc 3fae a4bb
-0.023317799 0.016455749 -0.006536609 -0.019241929 -0.026258415 -0.016953249 -0.016410733 -0.019775
-0.0020057969 -0.018998206 -0.008062258 0.022314064 0.00038200527 -0.011184125 0.0052825906 0.0039752307
0.01667987 0.009064476 -0.027044075 -0.012611999 -0.020376163 -0.004668909 0.003064019 -0.01754809
-0.015105768 -0.01738505 -0.006848252 0.013441575 -0.01587571 -0.011336625 -0.02334911 0.009376157
-0.0060892524 -0.0171066 -0.017563663 0.034473717 0.0051670442 0.031612758 -0.027809387 0.0037830602
-0.009533948 0.016634181 -0.029217953 -0.02157019 0.01604985 0.0001263622 -0.00044313687 0.0032218795
-0.0036987553 -0.022266947 -0.0048281583 -0.006197149 0.015266204 0.013167 -0.0039433474 0.0022586815
-0.022640238 -0.023457143 0.02510131 -0.0038926192 0.016852995 0.008203896 -0.012795557 -0.017190063
0.009415052 -0.027615994 -0.021560438 0.0022441784 -0.0002754281 0.0056593376 0.008462578 -0.002232051
-0.018248841 0.0065917103 0.010822183 0.013161055 -0.0032942023 0.021147598 0.006046847 -0.018477116
0.008079312 -0.010719925 -0.012866283 -0.02477684 -0.008552491 -0.012453943 -0.018022662 0.015967438
-0.013033311 0.022254199 -0.0025473307 -0.0037111796 0.014667555 -0.01673797 -0.018222388 0.0155968275
0.021569094 0.013490742 0.017504968 0.0056457613 0.012255431 0.0011544515 0.015809178 0.0039378908
-0.0083507085 -0.013000185 0.0024949035 0.018639255 0.0022662291 -0.006399035 0.010547434 0.014128338
0.02162805 0.00047757995 0.013760723 -0.014491418 -0.009808422 -0.011590437 0.015654322 -0.008538888
0.003984127 -0.0131875975 0.011703729 -0.01420042 -0.014660364 -0.01864105 -0.018298928 -0.0050256546

action_model._continuous_distribution.log_sigma f4 [1, 2]
00000000: da21 c9be ed93 96bd
-0.3928364 -0.07352433

action_model._continuous_distribution.mu.weight f4 [2, 128]
00000000: 11b5 21bb b3fe bd3c 78b9 1437 8ba1 cfba
00000010: ece5 a1bc 5dc5 bdbc 1bbe bcbc bef2 14bb
00000020: 370b bf3a 850b 98bc acb7 13bd 87eb 553d
00000030: 4585 cd3c e0c9 1abc eee7 c63c eb63 80bd
00000040: 1994 723d 59c7 82bc ceb6 d13a 554b 36bd
00000050: 19c2 75bd 089f cd3c 4527 85ba f061 92bb
00000060: b3c5 2cbd 260c 083c 23f3 fdbc 7312 333d
00000070: 1560 7cbc b5bb fbbb 5a12 a4bc c8f5 783a
00000080: 54c3 c1bc a216 e13a 6357 ba3b 393e 833d
00000090: a1d1 f1bc f318 003d 5307 1b3b 8a41 093b
000000a0: 893b 9dbc 11de bfbc 06ce ea3b 54cd 8cbc
000000b0: 1c1a 2d3d f187 3fbd 29f8 c0bc 303a 0fbd
000000c0: 4392 01bd 9aff c5bb 341f f5bc 350c 223b
000000d0: f82e 563d 6331 82bb e806 de3c 1c8a 85bb
000000e0: b8ee df3c 61ca 00bd a91e 473d 2bd8 13bd
000000f0: 01e9 d7bb 3598 10bc fde3 32bd ce29 96bc
00000100: 8884 0b3d e42f 0abd b494 3e3c 2143 0a3d
00000110: f73b e9bc e018 e0b8 7922 d23b c492 dfbc
00000120: 4810 38ba 36f4 5b3d c024 7ebc e9e4 0b3d
00000130: 82a3 de3c a93e 643d 84c5 aabc cad1 3eba
00000140: 5267 f7bb e976 d3b9 76ad f8bb bb70 dbbb
00000150: 2d1d 8bbc 66b5 83bd a3f7 91bc 70b2 04bd
00000160: c87a 19bd 07d1 1d3d 0a10 aabc bf83 2a3d
00000170: 776d 4c3d 9b1d 7dbb 128e 70bc 8b29 9e3d
00000180: a4ae 853d 7ad3 943b a06d 323d 3846 e9bc
00000190: dc53 c43c a912 9e3c 7b17 5dbd aea0 f63c
000001a0: 1c2d 9cbc 5dd5 6d3c 6750 fbbc 2bff 8a3c
000001b0: a679 f83c 100f 3cbd bb5b a9bc c97a 933d
000001c0: cfa9 6b3d 73c2 63bd 4b3b 793d 0fef 03bd
000001d0: 7676 efba 4e04 19bc ca3d a73d 6f63 1cbc
000001e0: ee53 d53a 3e06 e3bc b29b 00bd e5a2 c4bc
000001f0: b128 ceba 9e13 33bc 015c bebc d1cd bebc
00000200: 69bf c23b 7ee4 c5bc 1c69 e0bb 7698 223d
00000210: 5de5 8f3c 52bb a73d a9ec 2b3d 2803 9d3c
00000220: 1b0e b53b 69da 163d 66d1 4f3d e6c0 8abc
00000230: 7955 26bc ca91 10bd d171 64bc 430d 9dbc
00000240: cecb 57bc 7554 013c 871c cd3b b8f1 603d
00000250: b922 4b3d d848 96bb 07a1 c0bc 51f1 083d
00000260: 022b 1d3d 1bf9 47bc f8a0 343d 519e 44bc
00000270: f045 093d bfdb 373c cdce e23c 5504 25bd
00000280: d6e1 8d3c 7265 1bbc 0fad 143c 4712 e3bb
00000290: d578 483d 3bc5 4abd 3665 f03c d717 35bc
000002a0: 1817 dc3c 102d 2fbd 992f 4c3c 8d7e b1bc
000002b0: a654 44bc c76b d83c 8881 603c fb15 69bc
000002c0: 86e9 d43c 237e 8a3c 7d00 f63c 98fa 023c
000002d0: 15b5 88bc 1660 d7bc 3a48 8939 4e13 3e3d
000002e0: e9c4 7c3d c4fd 463c 9be4 57bc 122b fcbc
000002f0: ec33 a3bc 800f 2bbd 8832 7f3c 005c dc3c
00000300: f79e e9bb 0a21 093d 6c33 e93c 42db 26bc
00000310: 1180 32bb 8c46 223c 6071 cbbc 0d6c 22bd
00000320: 5260 3e3b 0854 bc3a bc08 01bd e2ab afbc
00000330: 16a1 0abc e010 fbbb 7f9c 5e3d 3ee9 8d3c
00000340: 457f 37bd adeb f6b9 43f6 d23c 1866 483d
00000350: 422b c73c 0dd3 6a3d 2c1c 793c 0470 1bbd
00000360: de43 3d3d 6064 3ab8 8282 f53c b5d1 f53b
00000370: 1d6d b0ba c7a3 e4bb 2a8a 463d 0779 c3bb
00000380: 6cf6 16bd bb57 3f3c 9964 103b 3693 ddbc
00000390: f985 83bc 0c9b 5f3c 2cd5 cfbc ceca 9e3b
000003a0: b696 cd3c b5c3 c33c e7cd 4b3c 161f 0dbd
000003b0: 86be 843c 012f 1a3d a6e5 51bd 333e d8bb
000003c0: ca6d d2bc e76e 1ebc 257e 74bc 2072 2b3d
000003d0: e8da f0b9 abd6 1a3d 2e3d 8bbc 57ac 943c
000003e0: 6d5c 993d 63e4 cd3c f437 46bd f17c db3c
000003f0: 2e27 f73b debc 8d3a 34b0 0abd 12a8 2a3d
-0.0024674574 0.02319274 8.86467e-06 -0.001584099 -0.019762956 -0.0231654 -0.023039868 -0.0022727693
0.0014575486 -0.01856018 -0.036063835 0.05222657 0.025087962 -0.009447545 0.024280515 -0.06269058
0.05922327 -0.015964197 0.0015999915 -0.044505436 -0.05999956 0.025100246 -0.0010158798 -0.0044672415
-0.04218073 0.008303678 -0.030999726 0.043718766 -0.015403767 -0.0076822885 -0.020028282 0.00094970735
-0.02365271 0.0017172883 0.005686687 0.064083524 -0.029518904 0.031273793 0.0023655489 0.0020943605
-0.019193428 -0.02342132 0.007165673 -0.017187752 0.042261228 -0.046760503 -0.023555832 -0.0349676
-0.031633627 -0.006042433 -0.029922105 0.0024726514 0.052290887 -0.0039731725 0.027102903 -0.004075302
0.02733551 -0.031443004 0.048613224 -0.036094826 -0.0065890555 -0.0088253515 -0.043674458 -0.01833048
0.03406194 -0.03373708 0.011632133 0.033755425 -0.028470976 -0.00010685786 0.006412801 -0.027291663
-0.0007021469 0.053699695 -0.015511692 0.034153853 0.027177576 0.05572382 -0.020846136 -0.0007279186
-0.0075501585 -0.0004033365 -0.0075890375 -0.006696788 -0.016981686 -0.064310834 -0.017818278 -0.032396734
-0.03747061 0.038529422 -0.020759601 0.04162955 0.04990908 -0.0038622383 -0.01468231 0.077227674
0.06527451 0.0045418115 0.043561578 -0.028475866 0.023965769 0.019296007 -0.05397747 0.030105915
-0.019064479 0.014516202 -0.030677987 0.016967377 0.030331444 -0.045912802 -0.020673623 0.07201154
0.05753499 -0.055605363 0.06084756 -0.032210406 -0.0018269557 -0.009339405 0.08166082 -0.009545191
0.0016275623 -0.027712937 -0.031398483 -0.024003455 -0.001572868 -0.01092997 -0.02323723 -0.0232915
0.005943228 -0.024156805 -0.0068484675 0.03969618 0.017565424 0.081900254 0.041973744 0.019166544
0.005525363 0.036829386 0.050736807 -0.016937684 -0.010152214 -0.035295285 -0.013943152 -0.019171363
-0.013171149 0.007893671 0.0062595042 0.05491802 0.04959366 -0.0045863204 -0.023514284 0.033433262
0.038371094 -0.012205387 0.044098824 -0.012000636 0.033513963 0.011221825 0.0276865 -0.040287334
0.017319601 -0.009484636 0.0090744635 -0.006929669 0.04894336 -0.0495045 0.029345136 -0.011053047
0.02686648 -0.042767584 0.01246252 -0.02166679 -0.011983072 0.02641858 0.013702758 -0.014226432
0.025990259 0.01690585 0.03002953 0.0079943165 -0.01668791 -0.026290935 0.0002618449 0.04640513
0.061711226 0.012145463 -0.013177062 -0.030782256 -0.01992222 -0.04176283 0.015576012 0.026899338
-0.007129546 0.033478774 0.028466903 -0.010184111 -0.0027236978 0.009904515 -0.024834335 -0.039653827
0.002904911 0.0014368305 -0.03150247 -0.021444265 -0.008461257 -0.0076619238 0.054348465 0.017323133
-0.044799108 -0.00047096369 0.025752192 0.04892549 0.02431262 0.05733018 0.015204471 -0.037948623
0.0462073 -4.4439337e-05 0.029969458 0.0075018057 -0.0013460253 -0.0069775316 0.048471607 -0.0059653553
-0.0368561 0.011678631 0.0022032617 -0.027047735 -0.016055094 0.013647806 -0.025370203 0.0048459535
0.025096279 0.023897031 0.012439228 -0.034453474 0.01620413 0.037642483 -0.0512444 -0.0065992116
-0.025687117 -0.009669996 -0.014922653 0.041856885 -0.00045939465 0.03780238 -0.016996946 0.018148584
0.07488332 0.025133317 -0.048393205 0.026792975 0.0075425124 0.0010813733 -0.033859447 0.04166419

action_model._continuous_distribution.mu.bias f4 [2]
00000000: dee8 de3c 4839 18bd
0.02721065 -0.037164003

action_model._discrete_distribution.branches.0.weight f4 [1, 128]
00000000: 2638 913a 5b75 1fbb 6fc5 87bc 68aa 81bc
00000010: 2ab2 d4bb 2062 ce3b 8543 8a3c b543 15bc
00000020: 047b 8f3b 47dd 313c 7822 093c 30a5 9abc
00000030: eb9b b93b 9096 91bb 4882 633b 0d66 983b
00000040: 2698 1abc 9f8f c3bb 9cab 9a3b f779 1b3c
00000050: 4fe8 0b3b 6feb 153c 55d9 16ba bf03 0e39
00000060: e8ba 71bc 6675 0d3b 7758 bfb9 7fc7 37bb
00000070: 499c 38bb c361 3ebc b9a4 2f3b f2d4 8b3c
00000080: f7df 66bb a55e e9bb e433 0a3b ff83 2f3c
00000090: 2197 863b d37c c9b9 a52f 403c 0dd9 76bc
000000a0: 071a 43ba a5c5 6b38 63ae 473c f384 a8bb
000000b0: 9c6d b4bc 519f b33b fade 113c 176e d43b
000000c0: dcee a13b 58b8 7cbb 22c5 92ba 918e a1bb
000000d0: 5e50 283c 6b38 1fb8 a764 39bc 0871 853b
000000e0: b369 a7bb 2ff9 f5bb 88e1 2fbc 28f5 2ebb
000000f0: 50d6 5f3b a355 193b 974d 613c d640 12bc
00000100: b860 f43b e8c0 d03b b7c8 04bc 6f45 523b
00000110: 900e 563b 6d9e e7ba 07a6 0cbb bb65 37bb
00000120: 1243 573a 7a28 a839 6641 1dbc e74f cf3b
00000130: 7b9a f53b b5b2 983b 05f6 973a 2b19 2e3a
00000140: fd78 79bb e1ce 853b 398b a839 9d53 1ebc
00000150: 73ca 1dbc 925d 6bba d82d 7bbb 365c 86bc
00000160: f7a5 fcbb 973d e73a e092 e7bb fbdf a7ba
00000170: 4e46 16bc 228b 6d3c 62e2 223c 7817 49bc
00000180: 1f38 86bc f82e 4e3b f70b 2e3a a97b 89bb
00000190: 4855 af39 0a82 09bc b3aa 863a 98eb 37bc
000001a0: a8f6 8dbb b0d2 a43b 5811 6e3b aa61 9dba
000001b0: fa39 1c3b 70a9 d0bb 3b5e abbb ea54 783b
000001c0: 2f16 c23b aa3f 80bb cb9b e4bb ef70 d93a
000001d0: 0956 823c 8b1f feba 00cc 4038 8dea ca3b
000001e0: 3dc4 583a bd93 de3b 3777 05bb 9f91 1fbb
000001f0: e388 9439 18fa a7bb 3bb9 533c 0a5a 73bc
0.0011079356 -0.0024331424 -0.016573636 -0.015828326 -0.0064909654 0.0062983185 0.016877899 -0.009110381
0.0043786783 0.010855979 0.008370034 -0.018877596 0.005664339 -0.0044429973 0.0034715105 0.0046508373
-0.009435689 -0.0059680487 0.0047201645 0.009489528 0.0021348184 0.00915037 -0.0005754431 0.00013543571
-0.014754035 0.0021584867 -0.0003649627 -0.0028042493 -0.0028169325 -0.011619988 0.0026801063 0.017069314
-0.0035228708 -0.007121878 0.0021088058 0.010712623 0.0041073714 -0.0003843071 0.011730109 -0.015066397
-0.0007442538 5.6212437e-05 0.012187573 -0.005142802 -0.022024922 0.0054816385 0.008903259 0.0064828503
0.0049418043 -0.0038562026 -0.0011197666 -0.0049303253 0.010273067 -3.7961097e-05 -0.011315501 0.0040723123
-0.005109036 -0.0075065116 -0.010734923 -0.0026696417 0.003415484 0.002339699 0.013751409 -0.008926591
0.007457819 0.0063706525 -0.008104495 0.0032084843 0.0032662489 -0.0017671116 -0.0021461265 -0.002798422
0.00082115934 0.00032073614 -0.009598112 0.006326664 0.007495222 0.0046599754 0.0011593705 0.00066413236
-0.00380665 0.0040835 0.00032147186 -0.00966349 -0.009630787 -0.00089784816 -0.0038326886 -0.016401391
-0.0077102142 0.0017642257 -0.0070670694 -0.001280784 -0.009172035 0.014498504 0.009941669 -0.012273662
-0.016384182 0.00314611 0.0006639356 -0.0041956496 0.0003344214 -0.00839282 0.0010274261 -0.0112256035
-0.004332382 0.0050299987 0.0036326256 -0.0012007256 0.0023838268 -0.006367855 -0.005229739 0.003789241
0.0059230546 -0.0039138393 -0.00697658 0.0016589443 0.015910165 -0.0019388063 4.5966357e-05 0.0061925114
0.0008268988 0.006792514 -0.0020365247 -0.0024348272 0.00028330748 -0.005126249 0.01292258 -0.01485301
