Project specific/results/JumperAgentReport/JumperAgent/JumperAgent-16910.onnx (onnx, 127520 bytes, 8 tensors)

network_body._body_endoder.seq_layers.0.weight f4 [128, 109]
0	0x3d88a8e1	0.06672836
1	0xbda61449	-0.08109338
2	0x3e076e47	0.13225661
3	0xbdfac8c2	-0.12245323
4	0xbd22654a	-0.039647378
5	0xbd75fedf	-0.060057517
6	0x3d442ba4	0.04789318
7	0xbda9be63	-0.082882665
8	0x3e69e273	0.2284029
9	0x3df45178	0.119296014
10	0x3d5296e5	0.051413435
11	0x3d7be220	0.061494946
12	0x3d2d94fb	0.042378407
13	0xbdf7060a	-0.12061699
14	0xbddeff3e	-0.10888527
15	0x3cd0b65c	0.02547758
16	0x3cc39435	0.023874382
17	0xbc0c5046	-0.008564061
18	0xbd13f32d	-0.036120582
19	0x3b3a50de	0.0028429548
20	0xbc82f8dc	-0.015987806
21	0x3b64c27a	0.0034905956
22	0x3d73904c	0.059463784
23	0xbde6f8d6	-0.112779304
24	0x3ca1579d	0.019695098
25	0xbe41db7f	-0.18931387
26	0x3ce2340d	0.02761271
27	0xbd8f2853	-0.06990113
28	0xbdf85b34	-0.121267706
29	0xbcd9037d	-0.026490921
30	0xbdc71729	-0.09721214
31	0xbdf3a187	-0.11896043
32	0xbe04075e	-0.12893435
33	0xbe17864f	-0.14797328
34	0xbd6ed997	-0.05831298
35	0x3e14e9b7	0.1454228
36	0xbe12faef	-0.14353536
37	0x3c4f880b	0.0126667125
38	0xbd0156c4	-0.031576887
39	0x3d49e4ef	0.049290594
40	0xbd6ef0b9	-0.05833504
41	0xbe4b9ea4	-0.19884735
42	0xbdc26ff4	-0.094940096
43	0xbc570200	-0.013123035
44	0x3d1b51f6	0.03791996
45	0x3d2699eb	0.04067413
46	0xbd05efde	-0.03269946
47	0x3e58ed3b	0.21184246
48	0x3c42863b	0.011872823
49	0xbe0fe41e	-0.14051864
50	0x3d467d55	0.04845937
51	0x3db45ea7	0.08807116
52	0xbe09387e	-0.13400456
53	0x3be42e13	0.0069635003
54	0x3db970a4	0.090546876
55	0xbd9df361	-0.077124365
56	0xbbad270f	-0.005284197
57	0xbd2331d4	-0.03984244
58	0x3c735adc	0.0148532055
59	0xbdc60bb1	-0.09670199
60	0x3ceffbaf	0.029294817
61	0xbc2d678d	-0.01058377
62	0xbe28816d	-0.16455622
63	0xbcc26a07	-0.023732198
64	0xbe0df27d	-0.13862033
65	0x3d12d5e6	0.03584852
66	0xbdbc124a	-0.09183176
67	0x3b185176	0.0023241914
68	0xbdc1a58b	-0.09455403
69	0x3e0d161c	0.13777965
70	0xb9e09f31	-0.00042843216
71	0xbdb53c6c	-0.08849415
72	0xbda23948	-0.07921082
73	0xbc4a45b6	-0.012345722
74	0xbe1db2f5	-0.15400298
75	0x3daedd6a	0.08538325
76	0xbe3fdc94	-0.18736488
77	0x3d1d6dab	0.038434666
78	0x3d4af13f	0.049546476
79	0xbd2a7fcf	-0.041625794
80	0x3c514691	0.012773172
81	0x3e2d4c8f	0.16923736
82	0x3e1c4e1a	0.15264168
83	0xbd4e89d4	-0.050424412
84	0xbd1bfd73	-0.038083505
85	0x3d9ad200	0.075595856
86	0x3e0c580e	0.13705465
87	0x3cb4baca	0.022061724
88	0xba9ecfcc	-0.0012116372
89	0xbdce3fbd	-0.10070751
90	0xbc9064f5	-0.017626265
91	0x3d75f607	0.060049083
92	0xbe176e85	-0.14788254
93	0x3d7d744e	0.061878495
94	0xbe0071b6	-0.12543377
95	0x3d6c4776	0.057685338
96	0xbe536105	-0.20642479
97	0xbc04fe8a	-0.0081173275
98	0xbcbe44f5	-0.02322624
99	0x3e0057b2	0.12533453
100	0xbb795481	-0.0038044753
101	0x3d81d3ed	0.0633925
102	0xbbfb1c0d	-0.007663256
103	0xbdc79bdf	-0.09746527
104	0x3d80f659	0.06296987
105	0xbd2bbcf7	-0.041928258
106	0xbd18d0ec	-0.03730862
107	0xbd80ab9b	-0.06282731
108	0x3d819d63	0.06328847
109	0xbc4a1a43	-0.012335363
110	0xbe1c090b	-0.15237825
111	0xbd199cee	-0.037503175
112	0x3de7fb39	0.11327214
113	0x3e1de93a	0.15421
114	0xbdde5349	-0.10855729
115	0x3cca5c5f	0.02470225
116	0x3d8caa68	0.0686844
117	0x3bc85593	0.006113717
118	0x3df3d61b	0.11906072
119	0xbdeacb59	-0.11464567
120	0x3e47c204	0.19507605
121	0xbda2ac75	-0.0794305
122	0x3d2611d3	0.040544342
123	0xbe3c9ec6	-0.18419942
124	0xbc3f0862	-0.011659713
125	0xbbd03b7e	-0.0063547483
126	0xbd25901b	-0.040420633
127	0x3d9da973	0.076983355
128	0x3e53b126	0.20673046
129	0xbd791c7a	-0.060818173
130	0xbe3c64d1	-0.18397833
131	0xbe614fe7	-0.22003137
132	0x3c5a62fc	0.013329264
133	0xbc3f6dfb	-0.011683936
134	0x3e25332d	0.16132803
135	0x3e4253d4	0.1897729
136	0xbdbf2fbf	-0.09335279
137	0xbcf819ae	-0.030285683
138	0xbe5762e4	-0.21033818
139	0x3e1bd667	0.15218507
140	0xbc2b8ea5	-0.010471021
141	0x3e44e204	0.19226843
142	0xbd2b42a8	-0.041811615
143	0x3e02e553	0.12782793
144	0x3bbfa72f	0.0058487873
145	0xbda2c3cd	-0.07947502
146	0xbe11b62b	-0.14229648
147	0xbe0ac70d	-0.13552494
148	0x3e6d5b6f	0.2317941
149	0x3cc99c12	0.024610553
150	0xbd844ba7	-0.06459742
151	0xbcff1396	-0.031137269
152	0x3ba5a825	0.005055445
153	0x3d95d425	0.07315854
154	0xbd1e00fc	-0.038575158
155	0x3e8ecfa7	0.278928
156	0x3b67d5e8	0.00353753
157	0xbd0143a0	-0.031558633
158	0x3d350a83	0.044199478
159	0xbc9c3f9f	-0.019073306
160	0x3cd09da6	0.025465798
161	0x3e7cdf9f	0.2469468
162	0xbdef52aa	-0.11685689
163	0x3bf3d783	0.0074414625
164	0xbe8c7b82	-0.2743798
165	0x3db71a91	0.08940614
166	0x3b017b78	0.001975743
167	0xbd0c9e60	-0.034330726
168	0xbdd9137e	-0.10599421
169	0x3ceb3077	0.028709633
170	0x3d88e2ef	0.06683909
171	0x3c8743f7	0.0165119
172	0x3d46ec43	0.04856516
173	0xbd2f5802	-0.04280854
174	0xbdc54503	-0.096323036
175	0xbd777a04	-0.060419098
176	0x3d9c0eba	0.07619996
177	0xbb8ac8ff	-0.0042353864
178	0x3d299a04	0.041406646
179	0xbd8c6be0	-0.06856513
180	0x3b33f8e0	0.0027461573
181	0xbdd42a31	-0.1035961
182	0xbc822240	-0.015885472
183	0x3db15e9f	0.08660626
184	0xbd8705fa	-0.06592937
185	0x3dc919d5	0.0981938
186	0x3cd0f99c	0.025509648
187	0x3d8f736e	0.07004438
188	0xbd4060da	-0.046967365
189	0xbbd9cb66	-0.0066465614
190	0x3ceee1af	0.029160349
191	0x3e508728	0.20364058
192	0xbe3ba53d	-0.18324752
193	0xbdee8cfb	-0.11647984
194	0xbbca16a2	-0.006167249
195	0xbd956248	-0.07294136
196	0xba977ce9	-0.0011557612
197	0x3c92babb	0.017911306
198	0x3db83773	0.08994951
199	0xbe4ab4f1	-0.19795586
200	0xbd2cd47e	-0.042194836
201	0x3c8dc452	0.017305527
202	0x3b7b7927	0.0038371773
203	0xbe22b99e	-0.1589112
204	0xbd9c309c	-0.07626459
205	0x3e180f45	0.14849575
206	0xbda56d01	-0.080774315
207	0xbd163467	-0.03667107
208	0xbde88075	-0.11352626
209	0xbd5da925	-0.054116387
210	0xbdd757a7	-0.10514765
211	0x3ddf93a2	0.109168306
212	0x3dd1bdde	0.102412924
213	0xbdc8840b	-0.0979081
214	0x3c4aeb52	0.012385206
215	0xbcbd062a	-0.023074228
216	0x3c0ad101	0.008472682
217	0x3cda2abb	0.026631704
218	0x3c11bf59	0.0088957185
219	0xbdba078a	-0.09083469
220	0xbdcefbdc	-0.10106632
221	0x3e1c1212	0.15241268
222	0x3e196b05	0.14982231
223	0xbe154ffc	-0.14581293
224	0x3ceb5cda	0.028730799
225	0xbd183fd8	-0.03717026
226	0x3e1d84a1	0.15382625
227	0xbc350327	-0.011048115
228	0xbe13561d	-0.14388318
229	0x3d8e67ca	0.0695339
230	0x3de36495	0.11103169
231	0xbe03299f	-0.12808846
232	0xbdac1083	-0.08401587
233	0x3d1a48e1	0.03766716
234	0x3d7c0718	0.061530203
235	0x3d2554b3	0.04036398
236	0xbda6184d	-0.08110104
237	0x3df16cf1	0.11788357
238	0xbd0421d8	-0.03225884
239	0xbe0e9811	-0.13925196
240	0x3c774384	0.015091781
241	0xbd119ede	-0.0355519
242	0x3e1b06a1	0.15139247
243	0x3dec1d89	0.11529071
244	0xbe34cd00	-0.17656326
245	0xbd90ecd0	-0.070764184
246	0xbe9838d5	-0.2973086
247	0xbdfce3df	-0.123481505
248	0x3d3945b5	0.045232493
249	0xbdc54be8	-0.096336186
250	0x3d6a9b1a	0.057276823
251	0x3e03f59d	0.12886663
252	0xbe290e4a	-0.16509357
253	0xbd96a38e	-0.07355414
254	0xbe5e7456	-0.21724066
255	0x3e230f02	0.15923694

network_body._body_endoder.seq_layers.0.bias f4 [128]
0	0xbc98aa78	-0.018635973
1	0xbbd0d2ed	-0.0063728006
2	0xbc3d0a43	-0.011538091
3	0x3c9efdb7	0.01940809
4	0xbc19ac30	-0.009379432
5	0xbcc9faff	-0.024655817
6	0x3c0b8966	0.008516645
7	0xbc2b78e3	-0.010465833
8	0xbb885a4d	-0.0041611553
9	0x3b889354	0.0041679535
10	0x3c4b52df	0.012409895
11	0xbcd6dfb2	-0.026229713
12	0xbb72edd1	-0.003706802
13	0xbd1279b3	-0.035760593
14	0x3c8e4df1	0.01737115
15	0xbc8687bc	-0.016422145
16	0x3c3f0147	0.011658019
17	0xba468d65	-0.000757417
18	0xbd080d9b	-0.0332161
19	0xbc8e163d	-0.017344588
20	0x3acdea2e	0.001571005
21	0x3c94b4a1	0.018152537
22	0xbd04e62b	-0.032446068
23	0x3c29d7ba	0.010366375
24	0xbccaf32e	-0.02477416
25	0x3c6514bd	0.013981995
26	0x3c7a8385	0.015290146
27	0x3ce63423	0.028101033
28	0xbca26abf	-0.019826291
29	0x3c1d44c9	0.009598919
30	0x3c7f7c10	0.015593544
31	0xbb424962	-0.002964579
32	0x3c37106f	0.011173352
33	0x3c83276a	0.016010005
34	0x3cfb639c	0.030687146
35	0xbc315389	-0.010823139
36	0xbcdf0d68	-0.027228072
37	0x3bc7bbb2	0.006095373
38	0xbc9986fc	-0.018741123
39	0x3b4fd6d0	0.0031713732
40	0xbc23ada9	-0.009990134
41	0xbc9f0871	-0.019413205
42	0x3b1fecc9	0.002440261
43	0xbcaee825	-0.02135093
44	0x3b457adb	0.0030133042
45	0xbb87eaf6	-0.0041478826
46	0xbc7438c7	-0.014906115
47	0x3bf3d8b3	0.007441604
48	0x3bb43075	0.0054989406
49	0x3cb279c2	0.021786574
50	0x3c96581c	0.01835256
51	0xbabbd932	-0.0014331697
52	0xbbf7ce45	-0.007562431
53	0x3c4e8020	0.01260379
54	0x3b969711	0.0045956452
55	0xbcae3342	-0.021264676
56	0x3c9a0f17	0.018806024
57	0xbb4ae88b	-0.003096136
58	0xbcd12c18	-0.02553372
59	0x3c253577	0.010083548
60	0x3bde4996	0.0067836745
61	0xbc85b5bb	-0.016322007
62	0xbc9c158d	-0.019053245
63	0xbcbde37b	-0.02317976
64	0x3ce850e1	0.028358879
65	0xbc926a1b	-0.01787286
66	0x3cba6352	0.022752438
67	0x3ca739ef	0.020413367
68	0xbcebc8d7	-0.028782291
69	0xbc8c4844	-0.017124303
70	0x3b23cc24	0.0024993503
71	0xbcb87166	-0.02251501
72	0xbcb2a534	-0.02180729
73	0xbbd64362	-0.0065387944
74	0xbc68459f	-0.014176755
75	0x3c8e5343	0.017373687
76	0xbc9857f4	-0.018596627
77	0xbc5dff22	-0.013549598
78	0x3b4221e9	0.0029622263
79	0xbcaf99bd	-0.021435613
80	0xbc8b4759	-0.017001795
81	0x3b7fe161	0.0039044248
82	0xbc4e3846	-0.012586659
83	0xbc5c8128	-0.013458528
84	0x3abcc256	0.0014401178
85	0x3cc79068	0.02436085
86	0xbb91b22f	-0.00444629
87	0xbb8658b5	-0.00409993
88	0xbbd32771	-0.0064439108
89	0x3c99e680	0.018786669
90	0xb8f54bd2	-0.00011696633
91	0xba8aac1a	-0.0010579855
92	0xbc0ce2a5	-0.008598958
93	0xbc095d3a	-0.008384043
94	0xbbe653a4	-0.0070290137
95	0x3a3aeca7	0.0007130601
96	0xbc821a29	-0.015881615
97	0xbccb4c3b	-0.024816623
98	0xbcb6c1bd	-0.022309178
99	0xbd08d9e9	-0.03341094
100	0xbbcda5f5	-0.006275887
101	0xbc93db48	-0.018048897
102	0xbcf985fb	-0.030459395
103	0xbc9822ac	-0.01857122
104	0x3b205ac8	0.0024468172
105	0x3b5ed260	0.0033999905
106	0x3c42ce06	0.01188994
107	0xbb81f929	-0.00396647
108	0xbc93582d	-0.017986381
109	0x3c86c292	0.0164502
110	0x3b947988	0.004531089
111	0x3cf74493	0.030184066
112	0x3c7be2f9	0.015373939
113	0xbccd5971	-0.025067063
114	0xbc838881	-0.016056301
115	0x3ccb055b	0.024782827
116	0xbb83c3ed	-0.004021159
117	0xbbfb3f7d	-0.0076674805
118	0xbd5f2fb0	-0.054488838
119	0x3c76a500	0.0150539875
120	0x3bc508cf	0.006013013
121	0xbc5d60ba	-0.013511831
122	0xbd00d0f1	-0.031449262
123	0x3b5a14ea	0.0033276626
124	0xbba9968c	-0.0051754173
125	0x3c931735	0.017955402
126	0xbcdd5f07	-0.027022852
127	0xbc7d4f14	-0.015460748

network_body._body_endoder.seq_layers.2.weight f4 [128, 128]
0	0x3d89fcbc	0.067376584
1	0xbac1b4c5	-0.0014778605
2	0xbd4d7c84	-0.050167575
3	0x3d592f68	0.053023726
4	0x3dc34ccb	0.095361315
5	0xbd9007e6	-0.070327565
6	0x3e15c244	0.14624888
7	0xbddaa45f	-0.106758825
8	0x3d6cb862	0.05779303
9	0xbc3bc661	-0.011460871
10	0x3e153c9f	0.14573906
11	0x3d1bdad6	0.038050495
12	0xbdf0d52e	-0.11759411
13	0x3dc43520	0.09580445
14	0x3d051008	0.03248599
15	0x3d3bc636	0.045843326
16	0x3de42be1	0.11141182
17	0xbe0a510a	-0.13507476
18	0x3d0ea8a3	0.034828793
19	0x3c913d86	0.017729532
20	0xbd8aea83	-0.06783011
21	0xbca14daf	-0.019690363
22	0xbe1efa54	-0.1552518
23	0xbda1bf82	-0.07897855
24	0xbc5af6f1	-0.0133645395
25	0x3d4c283b	0.049843054
26	0xbd55c284	-0.052187458
27	0x3ceb8408	0.02874948
28	0x3e5f49ea	0.2180554
29	0x3dc173f4	0.094459444
30	0x3c67df9c	0.014152434
31	0xbdb0750c	-0.08616075
32	0xbcc061de	-0.023484167
33	0xbd04a123	-0.032380234
34	0xbe969a7b	-0.29414734
35	0xbde266c3	-0.110547565
36	0x3cecbe53	0.028899347
37	0x3e11eef0	0.14251304
38	0x3c9c2477	0.019060357
39	0x3e37f521	0.17964603
40	0xbe1b8b4e	-0.1518986
41	0x3c49e821	0.01232341
42	0x3d92e634	0.07172814
43	0x3ba952dd	0.005167349
44	0xbe58dc8f	-0.21177886
45	0xbcf40a30	-0.029790014
46	0x3d3eebde	0.04661166
47	0x3cf9d468	0.030496791
48	0xbe0f7544	-0.14009577
49	0xbd1debfa	-0.038555123
50	0xbd91fd10	-0.07128346
51	0x3d52f178	0.051499814
52	0xbcdae1b2	-0.026718948
53	0xbdc116bc	-0.09428164
54	0xbcc8a27f	-0.024491547
55	0xbe1098fc	-0.14120859
56	0x3ca31f52	0.019912396
57	0x3cc10819	0.023563432
58	0x3e1360fd	0.14392467
59	0xbbd718dd	-0.006564243
60	0xbd2d7bff	-0.04235458
61	0xbe2a14d1	-0.16609503
62	0x3c092098	0.008369587
63	0xbd11695d	-0.035500873
64	0xbda3c05e	-0.079956755
65	0x3c533afe	0.012892483
66	0xbd8abfea	-0.06774886
67	0xbd0cbc80	-0.034359455
68	0x3b74e592	0.003736828
69	0x3e3a1907	0.1817361
70	0xbe043093	-0.12909155
71	0x3ddef158	0.108858764
72	0xbd117208	-0.03550914
73	0x3cd02fd8	0.025413439
74	0x3d879395	0.06619946
75	0xbdd4ee4b	-0.10397013
76	0x3e575526	0.21028575
77	0xbd349b0c	-0.044093177
78	0xbe110c49	-0.14164843
79	0x3d0bee5f	0.034162875
80	0x3d10b313	0.03532703
81	0xbd02b131	-0.031907264
82	0xbd1ab372	-0.03776879
83	0xbe82e7b7	-0.2556741
84	0x3dab6317	0.08368509
85	0x3d6041e9	0.054750357
86	0xbd568666	-0.052374266
87	0xba3cb078	-0.0007197927
88	0xbda599b6	-0.08085959
89	0x3d5581bd	0.05212568
90	0x3d858d8e	0.0652114
91	0xbd00dd7a	-0.031461217
92	0xbdd97d5c	-0.106196135
93	0x3cb9eff4	0.022697426
94	0xbdf586d1	-0.11988605
95	0xbe13bcdf	-0.14427517
96	0xbe031244	-0.12799937
97	0xbdd9d434	-0.10636178
98	0x3b1f606e	0.0024318951
99	0x3ddce917	0.10786646
100	0xbdc6804f	-0.09692442
101	0x3ac8eacf	0.0015328767
102	0xbd212e6c	-0.039350912
103	0x3ddecdc0	0.108790874
104	0xbd621547	-0.055196073
105	0xbce85626	-0.028361391
106	0xbb52dfb7	-0.0032176801
107	0x3e40dafb	0.18833534
108	0xbe273c8e	-0.16331694
109	0xbd13667c	-0.03598641
110	0x3c8a38dc	0.016872816
111	0xbe291481	-0.16511728
112	0xbc0e418e	-0.008682622
113	0xbe2844c7	-0.16432486
114	0xbd8bbb5f	-0.068228476
115	0x3cfcbe84	0.030852564
116	0x3e56b53e	0.20967576
117	0x3e040441	0.12892248
118	0xbdb2cf5d	-0.08730958
119	0xbd8f5a46	-0.0699964
120	0x3d80c626	0.06287794
121	0x3d7578c4	0.059929624
122	0x3e22d6bb	0.15902226
123	0xbdef278f	-0.11677467
124	0x3d5d7f7f	0.054076668
125	0xbc3f39fe	-0.011671541
126	0x3ce4de1f	0.027937947
127	0xbe453cf0	-0.19261527
128	0x3adb494e	0.001673022
129	0x3cc2b951	0.023770006
130	0x3d135a13	0.035974573
131	0x3da49bd6	0.08037536
132	0xbcd2191f	-0.025646744
133	0x3d8f71e1	0.070041426
134	0xbe120810	-0.14260888
135	0x3de1d1b0	0.11026323
136	0x3cad1ca0	0.021131814
137	0xbe200da9	-0.15630211
138	0xbd46e813	-0.048561167
139	0x3d976433	0.07392158
140	0x3ce74b5a	0.028234173
141	0xbca3ab4f	-0.019979147
142	0xbd0ccf82	-0.034377582
143	0xbd318f90	-0.043349802
144	0x3d810b97	0.06301039
145	0xbd432914	-0.047646597
146	0xbd1a84af	-0.037724193
147	0xbcc67d2f	-0.024229614
148	0xbe0b5f2f	-0.13610528
149	0x3c9225e5	0.017840335
150	0xbd30402f	-0.04302996
151	0x3e1ce4da	0.15321675
152	0x3da01a19	0.07817478
153	0xbd6029b7	-0.054727282
154	0xbdfadd85	-0.12249283
155	0xbb03632b	-0.0020048122
156	0xbdc7eda3	-0.097621225
157	0xbe2e2bc2	-0.1700888
158	0xbd7c4967	-0.06159344
159	0x3c3aa07b	0.011390801
160	0x3cf35a98	0.029706284
161	0xbdfe19b8	-0.12407249
162	0x3d91ee42	0.07125522
163	0xbcb31e6b	-0.02186509
164	0xbd008f3f	-0.03138661
165	0x3c8175b4	0.015803196
166	0xbdaa8705	-0.08326534
167	0x3e2b315e	0.16718051
168	0x3b5be605	0.003355385
169	0xbc63384d	-0.013868404
170	0xbe31f2c8	-0.1737777
171	0x3a812d98	0.0009855507
172	0xbdec6483	-0.115426086
173	0xbe1f09ca	-0.15531078
174	0x3e53bf29	0.2067839
175	0xbdc5005b	-0.096192084
176	0xbdc8fc7e	-0.09813784
177	0x3deac5d6	0.114635155
178	0x3d303ddc	0.043027744
179	0xbc838057	-0.016052408
180	0xbc3f6ace	-0.011683179
181	0x3e4667af	0.1937549
182	0x3e00c8ee	0.12576649
183	0x3d3b3451	0.04570419
184	0x3d445c40	0.04793954
185	0x3d16672d	0.03671949
186	0xbd2aff89	-0.041747604
187	0x3d3ac604	0.045599
188	0xbe0aa770	-0.13540435
189	0x3e212405	0.15736397
190	0x3c26a4b6	0.010171106
191	0x3d3d610c	0.04623513
192	0xbcd69482	-0.02619386
193	0xbc38986c	-0.011266809
194	0x3da3fec2	0.080075756
195	0xbb533b95	-0.0032231559
196	0x3d95abc3	0.073081516
197	0x3cba457a	0.022738207
198	0xbcef3de9	-0.029204326
199	0xbdb4a75f	-0.08820986
200	0x3de9fb73	0.11424913
201	0x3e2ce916	0.1688579
202	0xbd68ff5e	-0.056884162
203	0x3bfb2e46	0.0076654283
204	0x3c4cdf7e	0.012504457
205	0xbd0b2e9e	-0.033980004
206	0xbe03fa5e	-0.12888476
207	0xbdf0a239	-0.117496915
208	0xbd5f5e1a	-0.0545331
209	0x3d17238f	0.036899146
210	0xbce71e5b	-0.028212717
211	0x3d86f1ea	0.0658911
212	0x3d2680d5	0.040650208
213	0x3e5d5538	0.2161454
214	0xbe03bdf6	-0.12865433
215	0x3dcc1fce	0.09967004
216	0x3da0950d	0.07840929
217	0xbc7b4c1f	-0.015337973
218	0x3df3c30c	0.119024366
219	0x3c86d939	0.016461002
220	0x3d230d51	0.03980762
221	0xbd216509	-0.039402995
222	0x3d49f724	0.049307957
223	0x3df29cbf	0.11846303
224	0xbd32b686	-0.0436311
225	0x3bf233e4	0.0073914398
226	0x3ce9a19c	0.028519444
227	0xbe184e6c	-0.14873666
228	0x3d9139c4	0.07091096
229	0xbe4483e5	-0.19190939
230	0xbde70550	-0.1128031
231	0x3d83cc7f	0.06435489
232	0xbced3222	-0.02895457
233	0xbd3c7b51	-0.04601604
234	0x3debe988	0.11519152
235	0xbd5e68ff	-0.05429935
236	0xbc436530	-0.01192598
237	0xbd6f646c	-0.05844538
238	0x3d89d3aa	0.06729825
239	0x3c923870	0.017849177
240	0x3d6b940d	0.05751424
241	0xbdcdb0ce	-0.100434884
242	0xbbf34246	-0.007423672
243	0xbdf0bc3c	-0.11754653
244	0xbd398352	-0.045291252
245	0x3c91cee6	0.017798852
246	0x3df3b76f	0.119002216
247	0xbd5fdedb	-0.05465589
248	0xbd72c7e0	-0.059272647
249	0x3d9ff65c	0.07810661
250	0x3d4047c3	0.046943437
251	0xb9b9c1f0	-0.00035430444
252	0x3d98f108	0.07467848
253	0x3cc43fb1	0.023956152
254	0xbdf9c5d5	-0.121959366
255	0x3e06ac4e	0.13151667

network_body._body_endoder.seq_layers.2.bias f4 [128]
0	0x3c4ab521	0.012372286
1	0x3c02b124	0.007976804
2	0xbc066e79	-0.00820505
3	0xbc929db1	-0.017897459
4	0x3ccbe06c	0.024887286
5	0x3a846c03	0.0010102991
6	0xb922d35b	-0.0001552826
7	0x3b83f6f8	0.0040272437
8	0xbc78ac0c	-0.015177738
9	0xbca1899e	-0.019718941
10	0xbc89d109	-0.016823309
11	0xbb19f29c	-0.0023490554
12	0x3bc3eba1	0.005979017
13	0xbcc040bf	-0.023468373
14	0x3a964c19	0.0011466771
15	0xb99a8c1a	-0.00029477553
16	0x3c3edf14	0.011649866
17	0xbc166c61	-0.009181113
18	0x3c2be61b	0.010491873
19	0xbbb6dd62	-0.00558059
20	0xbc2ea359	-0.010659062
21	0xbc3bb3f0	-0.011456475
22	0xbc5e9baa	-0.013586918
23	0xba4a1bf7	-0.00077098556
24	0x3c7c4820	0.015398055
25	0x3b038ec7	0.0020074116
26	0xbcc10d22	-0.023565833
27	0xbca44e76	-0.020056944
28	0xbc510433	-0.012757349
29	0xbc2acb22	-0.010424407
30	0x3beba8e9	0.0071917665
31	0x3bf6698c	0.0075199064
32	0x3b80fb79	0.003936228
33	0xbc3a9369	-0.011387684
34	0xbb825374	-0.0039772335
35	0xbc558800	-0.013032913
36	0xba8e51b7	-0.0010858093
37	0xbc305624	-0.010762725
38	0x3ba343b7	0.0049824375
39	0x3c64cbb4	0.013964582
40	0xbbab8f1a	-0.005235565
41	0x3b3508f7	0.0027623752
42	0x3b2f47c4	0.0026745657
43	0x3be0261b	0.00684048
44	0x3be35867	0.0069380286
45	0xbc54b62c	-0.012982886
46	0xbca976bb	-0.020686498
47	0xbc6b201b	-0.014350916
48	0xbc6edeb4	-0.014579464
49	0xba140363	-0.00056462566
50	0xbbe778d3	-0.007063964
51	0xbc83d040	-0.016090512
52	0xbc6a1075	-0.01428615
53	0xbbf09dee	-0.0073430454
54	0xbbb2cc60	-0.0054564923
55	0xbd014c6c	-0.031567022
56	0xbb869646	-0.0041072695
57	0xbb00d475	-0.0019657884
58	0x39d5521c	0.00040687702
59	0xbb36ee5d	-0.0027913072
60	0xbc241e00	-0.010016918
61	0xbc3e7989	-0.011625656
62	0x3c8e2f7e	0.01735663
63	0x3b817275	0.003950412
64	0xbc42da3b	-0.0118928505
65	0x3c8e6e5b	0.017386606
66	0x3b049a60	0.0020233616
67	0xbc4d8c6c	-0.012545686
68	0xbcd22ba7	-0.02565558
69	0xbb1269ad	-0.002234082
70	0xb90da474	-0.00013508071
71	0xbc5a80b8	-0.013336353
72	0xbbd2fa00	-0.0064384937
73	0xba5e4079	-0.0008478235
74	0xbb04c523	-0.0020259104
75	0x3c2fc5ac	0.010728281
76	0x3c62b324	0.013836656
77	0xbd346c7c	-0.04404877
78	0xbc21dfdc	-0.009880032
79	0xbba2d181	-0.0049688225
80	0xbca4332e	-0.020043936
81	0xbc98bfc0	-0.018646121
82	0xbc3fa3d1	-0.011696772
83	0xbb563107	-0.0032683031
84	0xbc223d46	-0.009902304
85	0x3c883343	0.016626006
86	0xbbccdee2	-0.0062521556
87	0xbca7e787	-0.020496143
88	0x3c91acdc	0.017782621
89	0x3c10305f	0.008800595
90	0xbd0992cf	-0.033587273
91	0xbc209db2	-0.0098032225
92	0xbca98d0c	-0.02069714
93	0x3c5e9642	0.013585629
94	0x3c8827f5	0.016620615
95	0x3c119f1d	0.008888033
96	0x3bbaa8e9	0.005696405
97	0xbc80a5b7	-0.015704019
98	0x3b29ad86	0.0025890782
99	0x3ca29a7f	0.01984906
100	0x3c259e72	0.010108577
101	0xbcf0ac1f	-0.029378949
102	0x3b9eacc7	0.004842374
103	0xbbfad88f	-0.0076552103
104	0x3cec5c99	0.028852748
105	0xbc02442f	-0.007950827
106	0x3a3cf3c9	0.00072079577
107	0x3b8a9722	0.004229442
108	0x3bbfc952	0.0058528567
109	0xbc4ef959	-0.012632691
110	0x3c7ffa4e	0.015623642
111	0x3c12cb6a	0.0089596305
112	0xbbf95667	-0.007609177
113	0xbcafcf2e	-0.021461096
114	0xbb372370	-0.0027944706
115	0xb9859cce	-0.00025484565
116	0x3b6e4bec	0.003636117
117	0xb9a61b64	-0.00031682395
118	0xbadee847	-0.001700648
119	0x3c391fce	0.011299087
120	0xbcd43305	-0.025903234
121	0xbc851e15	-0.016249696
122	0xbbb24c17	-0.0054411995
123	0xbc8337dc	-0.016017847
124	0x3c211795	0.009832283
125	0x3b818dbc	0.0039536636
126	0xbc4c9441	-0.012486518
127	0xbb60da92	-0.0034309966

action_model._continuous_distribution.log_sigma f4 [1, 2]
0	0xbd81fe47	-0.06347328
1	0xbd5fd9f4	-0.054651216

action_model._continuous_distribution.mu.weight f4 [2, 128]
0	0x3d610f2a	0.054946102
1	0xbcfe1522	-0.031015936
2	0xbd23f6f6	-0.040030442
3	0x3c5792ca	0.013157556
4	0x3d1b000d	0.037841845
5	0xbccbbe49	-0.024871008
6	0xbcebe25a	-0.028794456
7	0x3c97f179	0.01854776
8	0xbd1dfc8a	-0.03857092
9	0xbbc7d718	-0.006098639
10	0xb7b8ad10	-2.2015098e-05
11	0x3c981710	0.018565685
12	0x3cd1d978	0.025616392
13	0xbc699bbb	-0.01425832
14	0x3c498fc1	0.01230234
15	0x3cbb4d2e	0.02286395
16	0x3cc422b4	0.023942329
17	0xbd353ac8	-0.04424551
18	0x3d42ea17	0.047586527
19	0x3bb6529e	0.005564048
20	0x3c26088c	0.010133874
21	0xbcaecf0c	-0.021338962
22	0x3c5dd4e5	0.013539528
23	0x3c937925	0.018002102
24	0x3d61948e	0.055073313
25	0x3cc0787f	0.023494957
26	0xbbb4f06a	-0.0055218237
27	0xbc54048d	-0.012940538
28	0xbc97a768	-0.018512443
29	0xbd7f8ae0	-0.0623883
30	0x3c8b64cd	0.017015839
31	0xbd0457b6	-0.03231021
32	0x3d09ac5b	0.033611637
33	0xbb9d2be4	-0.004796492
34	0xbb9250e7	-0.0044652107
35	0xbd5e6619	-0.054296587
36	0x3c984608	0.018588081
37	0xbb25441e	-0.0025217603
38	0x3d310e39	0.043226454
39	0x3d316755	0.043311436
40	0xbc9858c2	-0.01859701
41	0x3cc990c2	0.024605159
42	0xbcc0ea38	-0.023549184
43	0x3cfe30c9	0.031029122
44	0x3cac82b8	0.021058425
45	0xbcf5a8f1	-0.029987784
46	0xbca657c7	-0.020305527
47	0xbd799df6	-0.06094166
48	0x3c3f1bf8	0.011664383
49	0x3ca3ebc6	0.020009886
50	0xbc9b3361	-0.018945398
51	0x3cb1c0c2	0.02169836
52	0xbd0cc0ed	-0.034363676
53	0xbd2c60b4	-0.04208441
54	0xbb0b813e	-0.002128675
55	0x3b8e1630	0.004336141
56	0xbcbb2822	-0.022846285
57	0xbb434476	-0.0029795445
58	0xbcbb813c	-0.022888772
59	0x3bbe72e5	0.0058120363
60	0xbcd536b2	-0.026027057
61	0xbd54458b	-0.051824134
62	0x3d63ca3d	0.05561279
63	0xbd1ca505	-0.038243312
64	0xbd097212	-0.03355605
65	0x3d34018b	0.043946784
66	0x3ce29d5e	0.02766293
67	0xbba1f2a7	-0.0049422565
68	0xbc2725fa	-0.010201925
69	0xbd28404a	-0.041076936
70	0xbc280980	-0.010256171
71	0xbcaaa0e1	-0.020828666
72	0xbd0845d0	-0.033269703
73	0xbceb2262	-0.028702918
74	0xbc64d0f2	-0.013965832
75	0x3d1ff5a3	0.039052617
76	0xbc9e5965	-0.019329736
77	0xb9f3cb30	-0.00046499958
78	0xbd093ba6	-0.03350415
79	0xbd3db4d9	-0.046315048
80	0xbd037e01	-0.03210259
81	0xbc4e9437	-0.012608579
82	0xbbb0dcfc	-0.005397437
83	0xbd1a1a05	-0.03762247
84	0xbcaae34e	-0.02086034
85	0x3d546387	0.05185273
86	0xbcaa5bdb	-0.020795753
87	0xbc8fbd49	-0.017546313
88	0x3ccac809	0.024753587
89	0x3ca655dd	0.020304615
90	0x3b82c04f	0.00399021
91	0xbd28e8e1	-0.041237716
92	0xbd0a22f9	-0.03372476
93	0x3d2b64d7	0.041844215
94	0x3d02346a	0.031788267
95	0x3d2106ef	0.039313253
96	0xbbb474fc	-0.0055071097
97	0xbbf4f307	-0.00747526
98	0x3c8c6a76	0.017140608
99	0xbd058639	-0.032598708
100	0x3d3993b4	0.045306876
101	0x3b7fd5a0	0.0039037243
102	0xbcf989ce	-0.030461218
103	0x3c01a19b	0.007912065
104	0x3d1d9f30	0.03848189
105	0x3c0be685	0.008538847
106	0x3c74ce2c	0.014941733
107	0x3ccbfec0	0.024901748
108	0xbd5ff56a	-0.054677404
109	0xbd6e2315	-0.058138926
110	0xbd1cd11c	-0.03828536
111	0xbda3d9e8	-0.08000547
112	0x3a87120b	0.001030506
113	0xbd4c475f	-0.049872752
114	0xbbff6452	-0.0077939415
115	0x3ca97fc9	0.020690816
116	0xbc957fb2	-0.018249366
117	0x3ca932d6	0.020654123
118	0xbc47f3fe	-0.012204168
119	0x3cf4e502	0.029894356
120	0x3c5cba8b	0.01347221
121	0xbc71ba14	-0.014753837
122	0xbc4255de	-0.011861293
123	0xbd0544cd	-0.032536317
124	0x3d337b22	0.0438186
125	0xbca22286	-0.019791853
126	0xbcc6b82a	-0.024257738
127	0xbcb6572e	-0.022258367
128	0xbbd2e35c	-0.0064357948
129	0x3c978358	0.018495247
130	0xbc401ded	-0.011725885
131	0x3cb3ad6a	0.021933276
132	0x3c68501a	0.014179254
133	0xbbaa351e	-0.0051943203
134	0xbb949156	-0.004533927
135	0x3a7bdf32	0.0009608149
136	0x3cd8a293	0.026444709
137	0xba6225cd	-0.00086268486
138	0xbc3cc416	-0.01152136
139	0x3be5ac03	0.007009031
140	0xbb8e0831	-0.0043344726
141	0x3b8ddac0	0.0043290555
142	0x3af9c1f8	0.0019055
143	0x3b485825	0.0030570116
144	0x3c4db099	0.012554311
145	0xbc76206d	-0.015022379
146	0x3ccc3058	0.024925396
147	0x3cd7b0b7	0.026329381
148	0x3c577550	0.013150528
149	0x3b2a05c0	0.0025943369
150	0x3d42ee9c	0.047590837
151	0x3bda800b	0.006668096
152	0x3cd9d97e	0.026592966
153	0x3c87dba2	0.016584221
154	0xbbeb4964	-0.0071803797
155	0xbb746a5b	-0.0037294838
156	0x3cab1167	0.020882322
157	0xbc29e9d0	-0.010370687
158	0x3c35a9ea	0.011087874
159	0xbcc10003	-0.023559576
160	0x3caac56c	0.020846091
161	0xbc415bf7	-0.011801711
162	0xbcb57c5f	-0.022154031
163	0xba310b7d	-0.0006753726
164	0x3c0ce266	0.0085988995
165	0x3caebcb6	0.021330219
166	0xbc4683f8	-0.012116425
167	0xbc75ec19	-0.015009903
168	0x3bb617a5	0.005557018
169	0x3af786f5	0.0018884825
170	0xbd14abe9	-0.03629676
171	0x3c9ca3aa	0.01912101
172	0xbb82c8a9	-0.0039912057
173	0xba3fd874	-0.0007318326
174	0xbb8a3bd1	-0.0042185565
175	0xbc152138	-0.009102158
176	0xb922d41f	-0.00015528545
177	0x3c82f10c	0.01598408
178	0x3c5a1dd8	0.013312779
179	0x3c1633ab	0.009167592
180	0xbc4a0500	-0.012330294
181	0x3d2691bf	0.040666338
182	0x3b706bcf	0.0036685353
183	0xbb311488	-0.0027020294
184	0x3c7df711	0.0155008
185	0xbca3c116	-0.019989531
186	0xbc7598a6	-0.0149900075
187	0x3c43d620	0.011952907
188	0xbbe8826c	-0.0070956256
189	0xbbd0a67f	-0.006367504
190	0xbc5f39ab	-0.013624589
191	0x3c1af3e5	0.009457563
192	0xbc87f26c	-0.016595088
193	0x3b77ea43	0.003782884
194	0x3cb8d161	0.022560777
195	0xbbc41213	-0.0059836
196	0x3a88459c	0.0010396722
197	0x3c8f73f8	0.017511353
198	0x3c9045d3	0.01761142
199	0xbc350ac2	-0.011049928
200	0x3c349caa	0.01102368
201	0xbbcb713f	-0.0062085683
202	0x3cf3dd86	0.029768717
203	0xbbe64f0a	-0.007028465
204	0x3cc1702a	0.023613054
205	0x3bac3fe9	0.005256642
206	0xbcda0a66	-0.026616286
207	0xbbaf403a	-0.0053482326
208	0x3b7b85d7	0.0038379335
209	0x3a0a9f10	0.00052879844
210	0xbca65ba3	-0.020307368
211	0xbca9bb3a	-0.02071916
212	0xbc8c6088	-0.017135873
213	0xbbd87f04	-0.0066069383
214	0x3c5dc25a	0.013535107
215	0x3c51933f	0.012791454
216	0x3cb2f124	0.0218435
217	0x3c8af50e	0.016962554
218	0x3bf168e1	0.007367239
219	0xbc2297d8	-0.009923898
220	0xbbbfafdd	-0.005849822
221	0x3c39cc4f	0.011340215
222	0x3c678cf8	0.014132731
223	0xba238e76	-0.0006239185
224	0x3c2bbc59	0.010481917
225	0xbc99c00a	-0.01876833
226	0x3beff5e7	0.007323015
227	0xbb31a133	-0.002710414
228	0x3c451800	0.012029648
229	0x3c12f2f7	0.00896906
230	0xbd09d256	-0.033647858
231	0x3bf35316	0.007425676
232	0x3cc61d21	0.024183812
233	0x3c4051f3	0.011738288
234	0x3bc9ab48	0.0061544515
235	0x3bb1d827	0.0054273787
236	0x3cf7c0b0	0.030243248
237	0x3c5da6c0	0.013528526
238	0xbd0a9033	-0.033828925
239	0xbca38c7f	-0.019964455
240	0xbcb792da	-0.022408891
241	0x3cdc7762	0.026912395
242	0xbc23762b	-0.009976904
243	0xbbca8b23	-0.006181137
244	0xbb42f04e	-0.0029745284
245	0x3bf380bf	0.007431119
246	0xbbce4a50	-0.00629548
247	0xbaaf3d0a	-0.0013369631
248	0x3c45e1a2	0.012077721
249	0x3bbd3fad	0.005775413
250	0x3c811994	0.015759267
251	0xbaa5ea84	-0.0012658392
252	0xbc565c4c	-0.013083529
253	0xbc9b3089	-0.018944042
254	0xba41b470	-0.0007389253
255	0xbd352bad	-0.044231106

action_model._continuous_distribution.mu.bias f4 [2]
0	0x3ca03240	0.019555211
1	0xbbbbc423	-0.0057301684

action_model._discrete_distribution.branches.0.weight f4 [1, 128]
0	0xbbb91689	-0.0056484384
1	0xbbe90cdf	-0.00711213
2	0xb999e19e	-0.00029350532
3	0xbc77e9f8	-0.015131466
4	0xb76d0a7f	-1.4128745e-05
5	0x3c360770	0.011110172
6	0x3bdec26a	0.0067980783
7	0xbc934837	-0.01797877
8	0xbc614297	-0.013748786
9	0xbc28f3fa	-0.010312075
10	0xbbe552b3	-0.006998384
11	0x3c06915f	0.00821337
12	0x3c665db0	0.014060423
13	0xbb6cdefb	-0.003614365
14	0xbc44dc6e	-0.012015445
15	0xbc51ea7b	-0.012812252
16	0x3c474ca6	0.0121642705
17	0x3c668e75	0.01407205
18	0x3b72067a	0.003693013
19	0x3c609595	0.013707538
20	0xbb613ff5	-0.0034370397
21	0x3922844f	0.00015498813
22	0x3b7aefd0	0.0038289912
23	0x3bcc68f7	0.0062380987
24	0xbc946d2b	-0.018118462
25	0xbb6edfb3	-0.0036449253
26	0xbc15a8ef	-0.009134515
27	0xbc2845b6	-0.010270527
28	0x3b34d047	0.0027589963
29	0xbbdbf07d	-0.006712018
30	0x3b4af47d	0.003096848
31	0x3c6143b5	0.013749053
32	0x3c81ca5f	0.015843568
33	0xbca19fd3	-0.01972953
34	0xbc9ff337	-0.019525154
35	0xbb3fd117	-0.0029268914
36	0x39107d16	0.00013779508
37	0x3c05c2d1	0.008164124
38	0xbc329e6a	-0.010902027
39	0x3aea2392	0.0017863384
40	0x3bb2a22e	0.005451462
41	0x3bd2c8b7	0.0064326185
42	0xbbd360ea	-0.006450762
43	0xbba3afb9	-0.004995313
44	0xbbebc20f	-0.0071947644
45	0x3b9e68e0	0.0048342794
46	0x3b3ff3c6	0.0029289587
47	0xbc06e957	-0.0082343435
48	0xba4a67e4	-0.00077211694
49	0x3bf07ea5	0.007339316
50	0xbc9cd38f	-0.019143848
51	0xbc495edf	-0.012290685
52	0x3bd8549f	0.0066018845
53	0x3b093d2a	0.0020940998
54	0xbc4c0655	-0.012452682
55	0x3c08d44b	0.008351396
56	0xbbe061c0	-0.00684759
57	0x3ca47dad	0.020079458
58	0xbbd965c8	-0.0066344477
59	0x3c1ead23	0.009684834
60	0x3c886150	0.016647965
61	0xbb0969a1	-0.00209675
62	0x3c0cc56a	0.008591989
63	0x3b13f7b3	0.002257806
64	0xbbb5955d	-0.005541487
65	0x3c159fe7	0.009132362
66	0x3c0f3806	0.008741384
67	0xbab41bd7	-0.0013741207
68	0xbbb94603	-0.005654098
69	0x3c959867	0.018261148
70	0x3b7a910a	0.0038233423
71	0x3c5fb180	0.013653159
72	0x3b8b9410	0.004259594
73	0x3b6bdc80	0.0035989583
74	0x3c077202	0.008266928
75	0x3bc6b4cf	0.0060640345
76	0xbbed69fb	-0.0072453
77	0xba936c46	-0.0011247478
78	0xbc6bd02f	-0.014392897
79	0xbb6c2a0a	-0.00360358
80	0x3c5d9c87	0.013526089
81	0xbb0ee0e0	-0.0021801516
82	0xbca66ada	-0.020314623
83	0xbb8d4bf0	-0.004312031
84	0xbc71961b	-0.014745261
85	0xbb003188	-0.0019560773
86	0x3bf9008d	0.0075989426
87	0xbc2d3437	-0.010571531
88	0xba67e710	-0.00088463817
89	0x3b3394a4	0.002740183
90	0x3c3a6076	0.011375537
91	0x3b9cc231	0.0047838916
92	0xbb249b66	-0.0025117039
93	0xbbd1a092	-0.0063973153
94	0x3bcbda73	0.0062211095
95	0x3a952f2c	0.0011381856
96	0xbc901c37	-0.017591579
97	0xbb49cb23	-0.0030791245
98	0x3a9e384c	0.0012071221
99	0xbc4fec2a	-0.012690583
100	0x3aa9cfec	0.0012955642
101	0xbcb1d1db	-0.021706512
102	0xbc62743f	-0.013821661
103	0x3bcd88a7	0.0062723937
104	0x3b265373	0.002537933
105	0x3b814a18	0.0039456002
106	0x3c161c66	0.009162044
107	0x3b9bf063	0.004758881
108	0xbc4aae68	-0.012370683
109	0xba630b20	-0.00086610205
110	0x3b0207a3	0.0019840978
111	0x3b5c02ad	0.003357093
112	0xbb41264d	-0.0029472292
113	0xbc93cd23	-0.018042153
114	0xbad0f0b3	-0.0015940875
115	0xbbf32302	-0.0074199447
116	0xbc8161c3	-0.015793687
117	0xbc4d6eaa	-0.012538591
118	0xbc0ee333	-0.008721161
119	0xbbdb0b62	-0.0066847065
120	0x3becdfff	0.007228851
121	0x3bb11c50	0.0054049864
122	0x3c0a5e57	0.008445344
123	0x3c2ad7aa	0.010427395
124	0x3c1cf9d2	0.009581046
125	0xbcc3842c	-0.023866735
126	0x3b13106f	0.0022440215
127	0x3c6834f3	0.01417278
